logs/rl_games/hexapod_flat_direct/2025-11-15_08-02-25/nn/last_hexapod_flat_direct_ep_400_rew_15.106359.pth (torch, 545947 bytes, 33 tensors)

value_mean_std.running_mean f8 [1]
000000 f7 0c 6b 6f a6 a2 e2 3f
       0.5823547531257692

value_mean_std.running_var f8 [1]
000000 42 91 91 1f 0e 9b c9 3f
       0.2000444082397142

value_mean_std.count f8 []
000000 00 00 00 02 00 c0 a2 41
       157286401.0

a2c_network.sigma f4 [18]
000000 c4 86 1d bf fd 47 81 bf e8 79 53 bf 29 5c 45 bf
       -0.6153376 -1.0100094 -0.8260789 -0.7709375
000010 c0 47 6b bf a5 2f 35 bf 8e bb a2 bf cf 64 92 bf
       -0.91906357 -0.70775825 -1.2713487 -1.1437014
000020 34 49 87 bf b8 64 9b bf a2 83 a9 bf 13 52 99 bf
       -1.0569215 -1.2140112 -1.3243296 -1.1978172
000030 bd e7 76 bf d6 9a 8a bf 8e e3 4b bf cb 86 69 bf
       -0.96447355 -1.0828502 -0.79644096 -0.912213
000040 4a a0 7d bf 10 4a 7d bf
       -0.99072707 -0.98941135

a2c_network.actor_mlp.0.weight f4 [128, 66]
000000 36 c6 65 be df 64 d7 be 14 af 8a 3d c3 df ed bd
       -0.22438893 -0.42069146 0.06771675 -0.11614945
000010 70 0b 22 3e f3 f9 06 3e 5a 30 c0 3f 83 b3 70 3e
       0.15824676 0.13181286 1.5014756 0.23505978
000020 59 00 3e 3d a6 30 a9 be 55 28 be be 84 7a c6 bb
       0.04638705 -0.33044928 -0.37140146 -0.0060570855
000030 7a 11 d9 3c 14 6d 45 3f c9 68 20 3e bd 9c a3 3c
       0.026497591 0.77119565 0.15664972 0.0199722
000040 24 6b 41 be 21 fd 3e 3e 9a 87 83 3d 7f 43 91 be
       -0.18888527 0.18651249 0.06422348 -0.28371808
000050 7a 7e 95 3c 07 5a 81 be fd d2 f8 be 87 92 96 be
       0.018248785 -0.25263998 -0.4859847 -0.29408666
000060 e1 b9 23 be 85 85 26 bf 95 0c bc 3d c1 47 cd 3e
       -0.15988876 -0.65047485 0.09182087 0.40093806
000070 b5 cd 40 3e 6b b4 e6 3e fb 31 ac 3c 1e 46 ed bc
       0.18828471 0.45059523 0.021019926 -0.028964099
000080 1b 03 38 3d 3a 4a 3d bd 7c 49 bc bc d5 75 a8 3d
       0.044924837 -0.046213366 -0.022984259 0.082256
000090 e7 c4 1e bd 1c 7f d9 bd a7 a1 3d 3d 35 35 08 be
       -0.038762 -0.10619947 0.04629674 -0.13301547
0000a0 7c ed 62 bd 4b 40 a0 bd 20 80 82 bd 1b e7 6e 3c
       -0.055402264 -0.07824763 -0.06372094 0.014581467
0000b0 33 82 9c 3c 15 85 2c bd d4 dc 92 bc 1d 5f 83 3c
       0.019105053 -0.042119104 -0.017927565 0.016036564
0000c0 b3 97 b2 bd 23 39 40 3e a8 41 3b 3d a4 18 91 3d
       -0.087203406 0.18771796 0.04571691 0.07084778
0000d0 e7 23 ef bd ab 03 3a 3d 73 d5 3b bd f9 fe 52 be
       -0.1167677 0.045413654 -0.045857858 -0.20605077
0000e0 de e8 88 bd b2 a6 4b be c1 d2 26 bc 68 3a 9d be
       -0.06685041 -0.19887808 -0.010182084 -0.30708623
0000f0 d0 cf 39 3e e9 1f cc bc 46 b2 4d bd f6 1e f0 3c
       0.1814568 -0.02491756 -0.050218843 0.029311638
000100 f7 20 a2 3d 5b 9b 0b 3e d3 90 ad 3e b3 60 55 3e
       0.07916444 0.13633482 0.33899555 0.20837669
000110 87 99 2c be 3e 28 49 be b9 fc f0 bd 81 d4 02 3e
       -0.16855441 -0.19644257 -0.11766953 0.12776376
000120 70 fa 95 be 8c 21 8b be 1e e8 16 bd 5d 90 15 bf
       -0.2929263 -0.27174032 -0.036842458 -0.58423406
000130 3c 24 ee 3e c6 36 f2 bd 1d c0 0f 3e 92 09 64 be
       0.4651202 -0.118268535 0.14038129 -0.22269276
000140 89 0b f6 3e ab 8f e0 3d bc cd 7a bd 10 df c2 bd
       0.48055676 0.109649025 -0.06123136 -0.09515202
000150 79 92 2d 3d b0 3d a1 bc 1e ae 23 bd d2 74 eb bd
       0.042376015 -0.019682735 -0.039960973 -0.11496891
000160 d6 23 ee 3d e2 77 41 bd 7e 4b 7e 3e 90 5b 87 3e
       0.11627929 -0.04723347 0.24833485 0.26437044
000170 c5 7f a6 bc 23 26 9d be 39 8d fc 3c 16 3d 0d 3d
       -0.020324597 -0.30693159 0.030829059 0.034482084
000180 29 1e d3 3b c7 27 d0 bd b3 f5 1a bc e6 3a 24 3c
       0.0064428044 -0.10163837 -0.009457993 0.010023808
000190 fd 1b 0e bd 22 ad 42 3c cd b0 76 bd a6 34 71 bd
       -0.03469466 0.011882098 -0.060227204 -0.0588881
0001a0 18 9d 89 bd 4c b6 f2 3c d4 33 e0 b8 97 de 02 3d
       -0.067194164 0.029627942 -0.00010690806 0.03195056
0001b0 c0 73 54 bd 32 7a d0 3c 9f 23 bb 3c e3 12 56 3d
       -0.0518682 0.025448892 0.022844134 0.052264106
0001c0 3c 28 63 bb 84 43 ea bc cf f1 6b 3d 31 d1 7e bd
       -0.0034661433 -0.028596647 0.057603654 -0.06221122
0001d0 ee a8 2a 3e 0f 65 bf bd 7b c3 ee bc 51 e4 06 3d
       0.16666004 -0.09345447 -0.029145947 0.032932583
0001e0 93 3b fd 3d dc 8f 80 3c 57 8d 53 bd 07 2f 55 3d
       0.123648785 0.015693597 -0.051648464 0.052046802
0001f0 0d de 50 be ba 84 56 3d 02 9c 78 bc e1 60 ff 3d
       -0.20397206 0.05237267 -0.015173914 0.1246965
000200 4e 04 fb 3d 5f 01 b3 bd 48 92 6a bc c1 71 6c 3d
       0.122566804 -0.08740496 -0.014317103 0.05772567
000210 28 b8 e5 3d e2 e6 2a 3d 5e f2 af be 5e a9 d7 3d
       0.11216766 0.041724093 -0.343646 0.10530351
000220 1b f5 83 bc b2 28 2a be 8c e9 35 3d 63 e1 e6 be
       -0.016108086 -0.16617087 0.04441218 -0.4509383
000230 d9 ff 23 be 27 74 00 bf fd 37 0a be 5c b7 82 3e
       -0.16015567 -0.50177234 -0.1349792 0.25530517
000240 eb 7d f0 bd 88 bf 9a bc 16 de fc be cd de bc 3e
       -0.11742767 -0.018890157 -0.49388188 0.36888734
000250 b3 f7 63 bf 18 0d e6 3e 2f c5 3a bc 57 1e 0b be
       -0.89049834 0.44931865 -0.011399551 -0.13585792
000260 8f 44 1b 3e 4b 8d 71 bc e7 75 0c be 81 5a b1 3d
       0.15162872 -0.0147431595 -0.13716851 0.086598404
000270 b0 b9 91 bd b0 fb cb bd 86 dc 06 bc 06 f7 f7 3d
       -0.07115495 -0.09960115 -0.008231288 0.12107663
000280 29 56 75 3c e8 ae 76 be 81 c1 62 bc 94 88 6c bd
       0.014974155 -0.24090159 -0.01384008 -0.05774744
000290 ad 72 e9 bc 24 9f 44 3d 73 9f 97 3d ec 06 f2 bc
       -0.028497064 0.04800333 0.074034594 -0.029544316
0002a0 30 8d 46 bd 88 7e a4 bd e8 13 62 bd df 0f c6 bd
       -0.04847449 -0.080319464 -0.055194765 -0.09670996
0002b0 94 dd 51 bd a4 15 03 bd 61 d1 af bc 64 3d 90 bd
       -0.051236704 -0.03200306 -0.021462144 -0.07042959
0002c0 07 ee 3e 3d 2d 11 65 bd 8b de 24 3d 7d 76 dd 3c
       0.04661372 -0.055924583 0.040251296 0.027034039
0002d0 29 86 6f be 12 8a c6 3c 8f 5c dd bd c8 35 91 3e
       -0.23391022 0.024235759 -0.1080867 0.28361344
0002e0 15 51 5b be 17 6b ed bd a7 b5 ce bd f2 53 1c bd
       -0.21417649 -0.115926914 -0.10093241 -0.038165994
0002f0 64 03 70 3d b7 26 be 3c d4 e6 e4 3c 14 4f 69 bd
       0.058596984 0.02321182 0.027942099 -0.05696018
000300 40 e1 cc 3d a5 07 d3 3d 2d 67 6e 3e eb fb b5 bd
       0.100039005 0.103041925 0.23281546 -0.0888594
000310 2c 4d 4a bd 88 e0 f9 bd f4 f3 99 3e 5b a8 19 3d
       -0.049390003 -0.12201029 0.30068934 0.037514072
000320 64 a8 f3 bd 38 d9 9c bd fc c7 b2 bd 39 ce ce bd
       -0.11897352 -0.07658619 -0.0872955 -0.100979276
000330 f8 ed 03 bf 34 5d e2 3e 9d 94 ae 3e cb 15 b0 3d
       -0.51534986 0.44211733 0.34097758 0.08597907
000340 f3 08 4e 3e 7e 36 9f 3d b5 1b fc bd d2 2c a9 3d
       0.20120601 0.077740654 -0.12309972 0.08260502
000350 ee e9 a0 3c f8 e4 28 be be 4d 0e be e8 68 70 3c
       0.019642796 -0.16493595 -0.13896844 0.014673449
000360 e6 6d e8 bc 2e dc 3d be 02 dc 1d be 71 19 48 b9
       -0.028372716 -0.18541023 -0.15415958 -0.00019082964
000370 9e f6 38 be 40 43 01 3e fa 00 75 3e 10 c8 69 3e
       -0.18062827 0.1262331 0.23926154 0.22830224
000380 0a 51 6c 3e c9 d9 17 be d9 b5 b2 be e5 9b 55 be
       0.23077789 -0.14829172 -0.34904364 -0.2086025
000390 e2 c3 6d bb d9 68 95 bd a1 c2 f7 bc 10 d3 79 bc
       -0.0036280085 -0.07295389 -0.030244173 -0.015248075
0003a0 97 7f 17 bd 79 be a0 bd dc 40 68 3d 17 70 82 bb
       -0.036986914 -0.0784883 0.05670248 -0.0039806473
0003b0 1b f1 8a bc 01 bb 30 bd 2d 2b c0 bc ad e9 0e 3d
       -0.016960671 -0.04314709 -0.023458088 0.03489082
0003c0 17 d0 51 bc a0 f5 ac ba ca 20 b5 3c 56 d2 c0 bc
       -0.01280596 -0.001319576 0.022110362 -0.023537796
0003d0 a7 67 82 bc 21 08 61 bc 9b c0 15 bd 4f 4b 96 3d
       -0.015918566 -0.013734848 -0.036560636 0.07338583
0003e0 0d 6c 2b 3e 5b 0e ed 3c cd 4a ce 3d b9 90 0a 3e
       0.16740437 0.02893751 0.10072861 0.1353177
0003f0 e0 45 23 bd 23 97 8c 3d 38 8f 40 bd 36 0d 31 bd
       -0.03986156 0.068647645 -0.047011584 -0.04322549

a2c_network.actor_mlp.0.bias f4 [128]
000000 a8 6e 2c be 00 34 ae 3d a7 e7 ac 3d e4 0e 87 be
       -0.16839087 0.08506012 0.08442622 -0.26378548
000010 f1 48 68 3d d7 5a 03 3e d0 42 c2 bd 6d 71 d0 3d
       0.056710187 0.12827621 -0.094854 0.10177884
000020 e3 8b 9e bc 4a 45 99 3c 3d cb 8f bc ca 0c 48 3c
       -0.019353813 0.018709797 -0.017552966 0.01221008
000030 2f fc f0 bd b4 95 f4 bd 90 c4 15 3e 80 bb 59 bd
       -0.1176685 -0.11942616 0.14625764 -0.05315733
000040 6c b5 42 bd e2 12 65 bc 0f fa 0b be 6b 72 e0 3b
       -0.0475363 -0.013981553 -0.13669609 0.006849577
000050 53 03 b0 3d 67 a0 3d 3e c1 50 99 3d 4c aa 00 bb
       0.08594384 0.1851822 0.07486106 -0.0019632755
000060 66 5c 9a 3c 58 fd cd 3d 64 39 c7 bd b2 b2 fa 3d
       0.018842887 0.10058087 -0.09727743 0.12241115
000070 25 0f d1 3d aa c4 11 be 75 33 09 be f2 b6 2c be
       0.10207967 -0.14235178 -0.13398536 -0.16866663
000080 7e bf 86 bd 1e 8c d6 3d 7b a6 6c bd ec 2d 35 be
       -0.06579493 0.10475944 -0.057775956 -0.17693299
000090 d7 23 e4 38 1c ff 13 3e 57 a9 91 bd b6 3e d4 bd
       0.00010878563 0.14452785 -0.07112377 -0.10363524
0000a0 57 d2 29 3d 34 c8 2e be 3a 6b 85 be 3c 8c e3 bd
       0.04146036 -0.17068559 -0.2605837 -0.11110732
0000b0 3c 9e 07 be c5 78 37 3e 17 99 49 be e1 00 92 bd
       -0.13243955 0.17917164 -0.19687305 -0.07129074
0000c0 a6 15 88 3d 8c 8b 0c bd 42 52 38 be 4c fc 27 bd
       0.06644754 -0.03431277 -0.18000129 -0.041012093
0000d0 8e aa e2 3d 10 d1 09 be b4 48 16 be cc ea 2e 3d
       0.11067687 -0.13458657 -0.14676172 0.04270439
0000e0 b1 0f 83 3d 42 26 a6 bd 21 d6 fa bd 3d fc 00 3e
       0.06399477 -0.08112766 -0.12247873 0.12596221
0000f0 43 eb 97 bc 54 6a 9e 3d d9 5b cc 3c b7 68 d7 bd
       -0.018544799 0.07735124 0.02494614 -0.1051802
000100 be 33 ab bd 0f dc 0d 3e 26 4f 3c 3e 9d 39 60 bd
       -0.083594784 0.13853477 0.18389568 -0.054742444
000110 90 f2 b2 3c 4b 73 e3 3c 3b 55 b3 bd 0d 0c b4 3d
       0.021844178 0.027764937 -0.08756491 0.08791361
000120 5e 4e ce 3d a9 16 08 3e b6 2f 4e 3d 32 e5 ad bd
       0.10073541 0.13289894 0.05033847 -0.08490981
000130 2c 67 dc bd b9 64 15 3c 63 64 d4 bc ba 7d 1e 3d
       -0.10761866 0.009118252 -0.025926774 0.03869412
000140 45 04 84 bd 59 71 78 3c 88 97 a6 bd 4d 88 a5 bd
       -0.06446127 0.015163743 -0.08134371 -0.08082638
000150 e8 d5 73 bd 63 fe 83 3d f0 1c 13 be c4 9a 59 be
       -0.05953017 0.06445005 -0.14366508 -0.21250445
000160 3d d9 86 bd 11 bc dc 3d f0 68 9d 3c b0 5a 0a bd
       -0.06584404 0.10778058 0.019215077 -0.033777893
000170 07 03 a5 bd 84 df 11 3e b2 94 fe 3c 92 a3 55 be
       -0.08057218 0.1424542 0.031076763 -0.20863178
000180 7b 88 9b 3b 4e fa ea bd 09 0e d2 bd ef 6f dc 3d
       0.0047464943 -0.11473523 -0.10256583 0.10763537
000190 aa 16 26 3e 07 01 bf bd c4 5e dc 3c 9a f6 e2 3c
       0.16219583 -0.09326368 0.026900657 0.02770548
0001a0 2b 53 fe 3d 4b 91 14 be 2f d8 3a 3a e6 dd 63 3d
       0.12418207 -0.1450855 0.0007127551 0.05563154
0001b0 93 6e a2 3d a3 07 80 ba 81 f3 80 bd 7e 81 52 bd
       0.079312466 -0.0009767901 -0.06296445 -0.051393025
0001c0 18 0e 90 3d 30 e8 7c bd 51 18 b6 3d dd 28 58 bd
       0.07033938 -0.06174487 0.08891357 -0.052773345
0001d0 3e f1 15 be c7 8f 0c 3e 3d 82 96 bd 7a 14 2e bd
       -0.14642808 0.13726722 -0.0734906 -0.042499997
0001e0 3e 4d 69 3e e2 5b 9f 3c 7c 4e e3 3b b7 27 11 3c
       0.22783372 0.019452993 0.0069368463 0.008859566
0001f0 fb c7 ee bd 2e 3b 54 3d df 99 05 be 02 1d e4 3d
       -0.11659237 0.05181425 -0.13046978 0.11138345

a2c_network.actor_mlp.2.weight f4 [128, 128]
000000 dc 58 29 3e 29 bd 12 3d 9c 7d 2c be 32 1b 9d bd
       0.16537803 0.03582493 -0.16844791 -0.07671203
000010 77 dd 51 be 11 9b 66 ba bd b4 bc 3d 00 a5 19 bd
       -0.20494638 -0.00087969104 0.092141606 -0.037510872
000020 69 03 34 3e 5e 12 9f bd 71 a0 2e bd ff 31 d1 3d
       0.17579426 -0.07767175 -0.042633478 0.10214614
000030 c1 1d 9a 3c 23 3c 25 3e dd 2a 44 be 57 a2 e5 3b
       0.018813016 0.16136222 -0.19156976 0.007007878
000040 0c 01 24 3e 8e 84 37 be b3 ea aa 3d 36 84 0e be
       0.16016024 -0.1792166 0.083455466 -0.13917622
000050 7b 83 a5 bc c2 8e fc 3d 36 53 33 3e cd a0 2a 3e
       -0.020204296 0.123319164 0.17512211 0.16662903
000060 ca 34 4b bb 15 62 a3 3c 36 10 da bc 0b 73 0a 3e
       -0.0031006807 0.01994423 -0.026619058 0.13520448
000070 14 5c 26 bb a4 01 49 be bf e9 85 bc a3 af 8b bc
       -0.0025384473 -0.19629532 -0.01634681 -0.017051524
000080 6a 54 20 be 8d b9 94 bc 39 59 e8 3d 1a b7 d4 3c
       -0.15657201 -0.018154884 0.11345143 0.025966216
000090 bd 5d bb 3c 98 d0 2d 3d 5b f8 dc bc a2 cb 01 3e
       0.022871846 0.04243526 -0.026973894 0.12675336
0000a0 26 84 ec bd e7 ab 03 3e a6 6e 87 bd 4c d4 c0 3e
       -0.11548643 0.12858544 -0.066129014 0.3766197
0000b0 a8 f4 5c bd d7 58 de bc 0f 1a 95 bb a5 0a 62 bd
       -0.05394426 -0.027141972 -0.0045502256 -0.055185933
0000c0 46 92 7f bd c3 4c 4f bc 7e d6 2c bd 2a a5 08 3d
       -0.062395357 -0.012652579 -0.042196743 0.033360638
0000d0 91 65 2e 3e d7 b7 f3 3d 52 2a d0 3d 62 c4 b8 3d
       0.17030932 0.11900299 0.10164322 0.09021832
0000e0 73 2e 47 bc df 9c 30 3d bd cd f1 bc 4a bc ad 3c
       -0.01215707 0.043118354 -0.029517049 0.021207947
0000f0 8b ab 46 bd b9 bb b7 3d 2b 2a 38 be 76 01 9b bd
       -0.04850344 0.08971352 -0.17984836 -0.07568638
000100 a2 2b 10 bc 45 8d d4 3d 1e d3 c7 bc e3 ff 72 be
       -0.008799465 0.103785075 -0.02439266 -0.23730426
000110 26 91 af 3d dc 59 9e 3d 4b 0a d9 3d d5 5e 44 3e
       0.08572607 0.07731983 0.10597666 0.191768
000120 59 97 84 bd 63 1e e3 bc 02 a9 d4 bd 67 bc 2b 3d
       -0.0647418 -0.02772445 -0.10383798 0.04192772
000130 52 fe 08 bd 7e db 06 3c 45 3b b2 3c c1 ca 1c bc
       -0.033445664 0.008231042 0.021756778 -0.009569825
000140 15 5f 32 3d 96 a0 96 bd e5 c1 36 3c c6 71 a3 3d
       0.04354771 -0.07354848 0.0111546265 0.07980685
000150 b6 e3 c7 3d 97 2c 00 be 08 62 dc bc 01 4d b8 be
       0.09760229 -0.1251701 -0.026902214 -0.3599625
000160 4f 9a bc bc 20 b3 cb bc b8 68 75 bd 3c 0f 8a bc
       -0.023022799 -0.024865687 -0.05991432 -0.016852967
000170 53 3f 01 be 0f e8 29 be 90 91 49 3e 62 ae 46 3e
       -0.12621813 -0.1659243 0.19684434 0.1940246
000180 fe 41 43 3c 02 55 32 bd 59 af e8 3d 33 22 38 3e
       0.011917589 -0.0435381 0.1136157 0.17981796
000190 94 c7 84 3d 9d 91 05 be 61 c6 38 3d 2d af be bd
       0.06483379 -0.13043828 0.045111064 -0.09310756
0001a0 25 03 3b 3e 77 ac e5 3d 37 3f 9c 3a 86 08 2f 3d
       0.18262918 0.11214536 0.0011920695 0.042732738
0001b0 62 13 db 3d 1e 86 89 3c 10 e8 95 3d 72 1c e1 bb
       0.10697056 0.016787585 0.07319653 -0.006869846
0001c0 68 ca 44 3e 3f 39 4c bd 8e dc dd bd e0 07 9a 3d
       0.19217837 -0.04985928 -0.10833083 0.07521033
0001d0 37 7a 12 bd 33 a2 eb bd 42 eb d7 3d 00 ed 40 bc
       -0.035761084 -0.115055464 0.10542919 -0.011775255
0001e0 d4 22 f2 bd a3 fd 9d 3d 03 b9 42 bb 8c 4e 42 be
       -0.11823049 0.07714393 -0.0029712326 -0.18975276
0001f0 88 7d 6a 3d 71 c2 fc 3d aa c3 b1 3d 0a 0f 2b bc
       0.057248622 0.12341774 0.08679898 -0.010440597
000200 3d 9c 87 3d 16 41 ec 3c cb 43 2e 3d e2 c7 0d bd
       0.06621597 0.02883963 0.04254512 -0.03461445
000210 14 22 1b be e0 b1 9d 3d 3e 57 f3 bd 3c 64 cc bd
       -0.15149719 0.076999426 -0.118818745 -0.09980056
000220 5e 5c 19 be be 89 b1 bd 96 3d 49 bd 48 4e 2a be
       -0.14976642 -0.0866885 -0.049131 -0.16631424
000230 9c 84 af bd d9 5f f6 bd d0 cb 21 3d cb c8 d1 3d
       -0.08570215 -0.1203 0.03950101 0.10243376
000240 50 74 d7 bd d0 29 b1 bd 41 86 3d 3d 89 ac 76 bc
       -0.10520232 -0.08650553 0.046270613 -0.015055784
000250 35 3d d5 bb e9 6e 91 bd c8 0e 3b 3e d3 2f bf bd
       -0.0065075406 -0.071012326 0.18267357 -0.093352936
000260 6c f3 00 3e 13 9f f0 3d 5c 31 4e 3d 8c ec 26 bc
       0.12592858 0.11749091 0.05034004 -0.010188233
000270 21 b8 de 3b 36 9d 8a 3e de f3 70 3d 6d 27 50 3e
       0.006796852 0.27073067 0.05882632 0.2032754
000280 9a 2d e6 3c b1 3d 56 3d 98 a5 3e 3e bc f6 20 3e
       0.028097916 0.052304927 0.18617857 0.15719122
000290 49 2d 85 bc 90 1c 64 be 5d ef de bd 73 09 62 3d
       -0.016256945 -0.2227652 -0.10885499 0.055184793
0002a0 31 f2 cd bc ef 1a 8e 3d 55 38 59 3e 94 f9 85 bd
       -0.0251399 0.06938731 0.21212895 -0.06541744
0002b0 bc 11 5b 3e ae 69 b2 bd 8b 0d 78 3d ed ed af bd
       0.21393484 -0.08711563 0.06055979 -0.085903026
0002c0 b5 80 a5 bd 78 75 91 3d cf 8d ef 3d b3 22 c5 bc
       -0.080811895 0.071024835 0.1169697 -0.024064397
0002d0 51 ca 8c bc 39 7a af 3c 45 75 83 3e d6 44 43 3b
       -0.017186316 0.021420585 0.25675407 0.0029795668
0002e0 80 42 9c bd 3f 0a ad 3d 27 ed b7 bd 7d 96 64 be
       -0.07629871 0.0844922 -0.0898078 -0.22323032
0002f0 23 90 c8 bd e2 e3 6e bc 07 86 8b 3d 75 2a b7 bd
       -0.09793117 -0.014580699 0.06812673 -0.08943645
000300 4b 4f 2f be f9 8c a9 3d 98 f6 49 bc d5 20 b0 bd
       -0.17120092 0.082788415 -0.012326859 -0.08600012
000310 ae dd 1f 3d 30 90 a0 be fa 7a b3 3d 11 2f b3 3d
       0.03902977 -0.31360006 0.0876369 0.087492116
000320 be c8 05 3d 91 49 13 3e f5 11 85 bd 4c eb bc 3d
       0.032662146 0.14383532 -0.06497566 0.09224567
000330 d8 33 c4 bc 48 d3 42 3e 18 94 c6 3d 4d 97 9a 3d
       -0.023950502 0.1902591 0.096962154 0.075483896
000340 35 58 89 bd 6a 3d ca bd 86 47 2d 3d 19 03 db bd
       -0.06706277 -0.09874995 0.04230454 -0.1069395
000350 89 a5 33 3e 73 37 27 be 6b a0 38 3e 7c 24 a8 3d
       0.17543615 -0.16329746 0.18029945 0.08210084
000360 d1 1e b7 bd b0 40 c2 bd c8 6e f2 bd 6a 83 a8 bd
       -0.08941425 -0.094849944 -0.11837536 -0.0822819
000370 2a 10 21 be 9b d6 44 bd ba 45 6b bc 41 e9 06 3e
       -0.15728822 -0.048056226 -0.014359886 0.13174917
000380 35 8d c0 bd 16 10 4a bc 27 fa 0c 3e 7e 4a 98 3d
       -0.09401933 -0.012332937 0.137673 0.07436083
000390 c4 90 8e 3d 7c 22 11 3e 93 9a 38 3d 8d be 91 bc
       0.069612056 0.14173311 0.04506929 -0.017791057
0003a0 2b 37 7b bd d3 2f c7 bd 6f 59 3b bc a7 2e 31 3c
       -0.06133191 -0.097259186 -0.011434897 0.010814345
0003b0 93 d6 50 be 14 7f 72 3e 73 ac 35 3e 65 a1 76 be
       -0.20394354 0.23681289 0.17741565 -0.24085005
0003c0 9b 76 86 3d e0 43 3c 3c 3c 05 4a bb e8 37 c3 bd
       0.06565591 0.011490792 -0.0030825874 -0.09532148
0003d0 38 27 91 3d 16 f3 63 bd 79 ab 37 bd 84 4b c8 3c
       0.070875585 -0.055651747 -0.044841263 0.024450071
0003e0 da 21 ab bd 0e 14 04 3d 9d 51 6f be 41 4c 01 3d
       -0.08356066 0.03224569 -0.23370977 0.031566862
0003f0 c0 1e c8 3c 09 36 83 3c 6d e8 8f 3c ff 93 e8 bc
       0.024428725 0.016016977 0.017566884 -0.028390883

a2c_network.actor_mlp.2.bias f4 [128]
000000 b1 1b 96 bd 41 e5 28 be a5 b8 a3 3d 97 03 b9 3c
       -0.073295005 -0.16493703 0.079942025 0.02258472
000010 45 5a 5f be f0 ca 74 be 6f 6f 0c bc e6 b8 8e 3b
       -0.21811779 -0.2390554 -0.00857149 0.0043555377
000020 a9 35 23 3d 3e 4d a5 bd a4 b3 df bd 04 31 e7 bd
       0.039846096 -0.080713734 -0.109229356 -0.11288646
000030 79 8a 62 bb 8b d8 b8 3d 2e c7 10 be f9 b0 de bd
       -0.00345674 0.09025677 -0.14138481 -0.108735986
000040 96 e0 91 3c c1 8b e5 bb 41 f6 0b be b9 24 a8 bd
       0.017807286 -0.0070051854 -0.13668157 -0.08210129
000050 71 18 80 bd 60 39 06 bd 8c 8f 01 3c 0b 2b bc bd
       -0.06254662 -0.03276956 0.007907759 -0.09187897
000060 36 d0 6d bc 9d bb 07 3d be 06 d5 bd 4c 20 e1 3c
       -0.014514973 0.033137906 -0.104016766 0.02748122
000070 a2 c5 51 bd e5 15 1b be 0c 5e 01 3e b2 fe 11 bd
       -0.051213868 -0.15145071 0.12633532 -0.035643287
000080 3e 97 4a 3c 8f 61 58 3c 29 ec 96 bd 3e f0 45 be
       0.0123651605 0.0132068535 -0.07369263 -0.19329926
000090 eb cd f1 bc f8 85 01 bd 1b d5 a2 bd cb d4 c6 3a
       -0.029517135 -0.031621903 -0.07950803 0.0015169618
0000a0 63 d5 47 bc 5a 24 1c bd af 5a 8c bc c5 23 7c 3c
       -0.012196871 -0.038120605 -0.017133085 0.0153893875
0000b0 67 92 79 be 54 4c b5 bd bb 2f 3d bd d5 c3 33 ba
       -0.24372254 -0.08852449 -0.046188097 -0.00068574894
0000c0 63 25 1c be 27 bd 3c 3c 47 5d 01 be 00 fc 44 bd
       -0.15248637 0.011519707 -0.12633239 -0.04809189
0000d0 b2 c3 a0 3d 24 74 7b bd 9d ce 48 bd 43 a9 fc bd
       0.07849826 -0.061390057 -0.049025167 -0.123369716
0000e0 65 cf 42 3c aa 15 95 bd a1 67 48 3d 3c 66 9e be
       0.011890267 -0.07279523 0.048926953 -0.30937374
0000f0 12 16 0a be 5b f1 c6 bc 10 2a aa 3d 62 19 2b bd
       -0.13484982 -0.02428501 0.08308804 -0.041772254
000100 11 b7 d2 bd 3d 8a 6b be 4c 0f 08 3c 72 b2 a5 be
       -0.102888234 -0.23001952 0.008304428 -0.32362705
000110 21 d8 fc bd 8a 5a 6c bc ed 0c 6b bd 47 51 1a bd
       -0.12345911 -0.014425883 -0.057385374 -0.03767517
000120 2e fc 1b 3d 06 82 62 bc ee 48 ba be 05 a2 2d bc
       0.038082294 -0.013824945 -0.36383766 -0.0105977105
000130 e5 6f c6 bc 82 e1 66 bd e5 9e 3a bd 71 0b 08 be
       -0.024223277 -0.056367405 -0.04556169 -0.13285615
000140 00 3f 4d be a5 8e be 3c e3 bd 92 3d bd 75 c0 bd
       -0.20043564 0.023261378 0.07165124 -0.09397457
000150 dd 74 0c be a3 da a9 bd 74 cb bd 3c 80 dc dc 3c
       -0.13716455 -0.08293655 0.023168303 0.026960611
000160 34 b0 fa bd 56 a7 9b bd eb bd bb bd 4f 7f c8 bd
       -0.12240639 -0.07600276 -0.09167083 -0.09789907
000170 6f 09 ac bd 42 e6 e6 bd c3 af 49 be c5 4e 51 bd
       -0.08400237 -0.11274387 -0.19695954 -0.05110051
000180 1f cd a3 bd 41 1b fd b9 f6 70 53 3b 94 f7 b3 bc
       -0.07998108 -0.00048276226 0.0032263375 -0.02196864
000190 13 3d f5 3c df 3d 3c bd 08 e0 0c bb ed c4 3f be
       0.029936349 -0.045957442 -0.0021495838 -0.18727465
0001a0 f3 96 59 bd 86 47 de bd 50 98 4e be f9 58 1b be
       -0.053122472 -0.10853486 -0.2017529 -0.15170659
0001b0 50 84 c2 bd fa b9 96 3c 51 9a 22 be cf 4b bd bd
       -0.09497893 0.018399227 -0.1587918 -0.09242975
0001c0 56 a9 2d be 0b e9 1f bd 4b b6 e4 bb 0e 96 34 be
       -0.16959128 -0.039040606 -0.006979739 -0.17635366
0001d0 d1 da 35 be 73 f0 19 3d d5 80 20 3e 13 a4 a6 be
       -0.17759253 0.037582826 0.15674146 -0.32547054
0001e0 37 73 99 bd 02 6c 97 bc 5d 41 06 be 71 41 4c be
       -0.074926786 -0.01848412 -0.13110872 -0.19946839
0001f0 dd 2b 16 bd ee 88 a7 3c 29 e7 29 be 27 fd 98 bc
       -0.036662925 0.020451035 -0.16592087 -0.0186754

a2c_network.actor_mlp.4.weight f4 [128, 128]
000000 97 0f c2 bd 70 09 43 3d 34 97 33 bc 94 6a cf 3d
       -0.0947563 0.047616422 -0.010961343 0.1012775
000010 29 1f a8 3d cc 7b a1 be b0 f0 f9 bd 54 e1 ad 3d
       0.08209068 -0.31539762 -0.122041106 0.084902436
000020 55 80 66 bd b7 ad 63 bd 50 04 68 3d 43 85 26 bd
       -0.05627473 -0.05558559 0.056644738 -0.040654432
000030 b1 c8 80 3d a0 fd 84 bd ec bc 09 bc 69 0f aa bc
       0.06288279 -0.06493688 -0.008406859 -0.020759301
000040 19 93 df bd ae 56 a2 3d ec 8c bc 3c 05 80 1d be
       -0.109167285 0.07926689 0.023016416 -0.15380867
000050 8d 9c 9b 3d 90 55 a2 3d 63 6d 88 bc eb df 84 3d
       0.07598219 0.07926476 -0.016653722 0.064880215
000060 ea bb 41 3d ad b1 b5 bd 9e 60 05 3d 24 f8 14 bd
       0.04729835 -0.088717796 0.032562844 -0.036369458
000070 76 87 b1 bd 44 19 bf bd 96 71 f9 bd 24 67 3c 3d
       -0.08668415 -0.09330991 -0.12179868 0.0459968
000080 da e3 16 3d 6c 0e ee bc e4 3c 29 3c a6 96 06 3e
       0.03683839 -0.029059611 0.010329459 0.13143405
000090 86 06 a9 bd 22 37 1c be 5a d4 2e 3d c5 28 a7 bd
       -0.08253197 -0.15255406 0.042682983 -0.08162073
0000a0 d2 f3 d0 3d ee cf 99 bd da a3 c2 bd 76 04 03 be
       0.10202755 -0.075103626 -0.095039085 -0.1279467
0000b0 44 e5 19 bd 4b 32 19 bd fa c9 18 bd c4 5c ba 3d
       -0.03757216 -0.03740148 -0.037301995 0.09099725
0000c0 7e 45 1d 3b ff 94 e7 bc d6 00 e2 3d ce 14 9d bd
       0.002399772 -0.028269289 0.11035316 -0.07669984
0000d0 f9 99 64 3d dd 84 b0 3c ef e7 8c bd 8c 78 00 3e
       0.055810902 0.02154773 -0.06880175 0.12545985
0000e0 c7 b4 ad bb e9 6f d8 3d 6e a7 14 3d 74 ff d5 3c
       -0.0053010914 0.1056822 0.036292486 0.026122786
0000f0 01 be 60 bd 93 c8 97 3d 6d 9b ae 3d 22 fe 29 3e
       -0.0548687 0.07411303 0.08525739 0.1660085
000100 66 2f 7b 3c 40 f0 29 3d e5 b7 b0 bc d3 06 d8 3d
       0.015331125 0.041488886 -0.021572063 0.105481766
000110 e7 88 9b 3d fd 16 b3 bb bc 95 4b 3e 8b b2 ce bd
       0.075944714 -0.005465387 0.19881338 -0.10092648
000120 66 f4 91 bc b0 e5 d3 bd 4e 0f e7 3d 16 74 0f 3e
       -0.017816734 -0.10346544 0.11282216 0.14009127
000130 a2 d6 a7 bd 72 8f 8c 3d bf 26 2d 3e 3a ef 8d 3d
       -0.08195235 0.068632975 0.16909312 0.069303945
000140 6a ef 49 bc c0 b7 5c 3d cd eb 04 3d 49 a6 41 3e
       -0.012325147 0.053886175 0.03245144 0.18911089
000150 5b f2 10 be 78 d8 af bc 27 7e 8f 3d f0 9a 55 bd
       -0.14154951 -0.021465525 0.070064835 -0.052149713
000160 32 8f 23 be 11 7e 2a 3d 34 d7 ac 3b b7 87 55 be
       -0.15972593 0.041624133 0.0052746776 -0.20852552
000170 c0 a8 62 3e cd 36 e7 3b 18 24 4c bd 3d 15 11 3e
       0.22134686 0.0070560933 -0.04983911 0.14168258
000180 48 87 05 3b e7 c1 0a be 2e 73 a6 3d 87 a6 14 3d
       0.0020374823 -0.1355053 0.081274375 0.036291625
000190 18 85 02 be 49 9f 02 bc 1e 08 62 3d c2 be 00 be
       -0.12746084 -0.007972547 0.055183522 -0.12572768
0001a0 75 f4 c5 3d d7 8a df bd cd d4 c5 3c 8d 7f fd bd
       0.09665767 -0.109151535 0.024149323 -0.12377844
0001b0 00 19 08 3e 60 70 97 bd 1c fe e2 3c 62 95 23 bd
       0.13290787 -0.07394481 0.02770906 -0.039937384
0001c0 17 c7 8e bd 4c 73 cd 3d 56 24 e3 bd fe d7 95 bd
       -0.06971567 0.10031757 -0.11090915 -0.07316588
0001d0 d5 2e 84 3a e5 7a 91 bc 0e 2c 39 bd 9e c7 19 bc
       0.0010084758 -0.017758796 -0.04520803 -0.009385971
0001e0 b4 c7 b0 3d 91 13 99 3b 92 5a 95 bc 9d 07 06 3e
       0.0863184 0.004671522 -0.018231664 0.13088842
0001f0 95 b8 be bd 88 f0 a4 bd 2f 26 12 3e 47 6f fe bd
       -0.0931255 -0.0805369 0.14272378 -0.12423568
000200 36 c1 06 3b ae eb db bc ad db 0f b8 26 ad c3 bd
       0.002056194 -0.02684578 -3.4298446e-05 -0.0955451
000210 28 e5 88 3d 0e f8 56 3d e8 95 69 be 36 9a 6f bb
       0.06684333 0.052482657 -0.22811091 -0.0036560423
000220 c2 1f b8 3c 91 bf 34 bd 48 28 4c 3d 81 5a b9 3d
       0.02247608 -0.044128004 0.049843103 0.090504654
000230 0a e1 05 bc cd 1c a8 be d8 de d0 3d 6e 1e 39 3c
       -0.008171329 -0.32834473 0.10198754 0.011298759
000240 6b b5 d5 bd ba 4b f3 bd e9 fe 07 be 14 5f b9 3d
       -0.10434993 -0.11879678 -0.13280834 0.09051338
000250 97 e0 43 be c6 03 08 be f4 07 34 3e b4 4f c9 bc
       -0.19128643 -0.1328269 0.17581159 -0.024574138
000260 0b 6e e5 3d b9 41 c4 bd 37 d5 f1 3c 86 6e 47 3b
       0.1120263 -0.09582848 0.029520614 0.0030430867
000270 a0 9e 84 3d ca 97 31 be 13 ab d2 3d ce a7 a6 3d
       0.06475568 -0.17343059 0.10286536 0.08137475
000280 a9 11 d2 3b 24 01 c8 bd 3c c8 57 be 04 d1 b8 3b
       0.0064107967 -0.097658426 -0.21072477 0.005640151
000290 57 0c 21 3d 16 bb da 3d 63 a6 f8 3d f5 ff bc bd
       0.03931841 0.10680215 0.12141111 -0.092285074
0002a0 2d 2d 0c be c6 2a 8c bd 6b 84 5f be 83 b7 f8 bd
       -0.13689108 -0.06844096 -0.21827857 -0.12144377
0002b0 37 6e b5 3d d9 b5 7b 3d 42 11 48 3b 2b 7d d4 bc
       0.088589124 0.06145272 0.0030527865 -0.025938591
0002c0 2b e4 15 3e f5 9e e6 bc 31 54 d4 3d 6e df 32 3a
       0.1463782 -0.028151968 0.10367621 0.0006823455
0002d0 06 d3 1d be 87 2f 93 3c 1e f0 c3 bd fd 1b 0f 3d
       -0.1541253 0.017966999 -0.09567283 0.0349388
0002e0 3f fc 3a bd 05 37 dd 3d 22 4a 84 bd df 52 9e 3d
       -0.045650717 0.1080151 -0.06459452 0.0773065
0002f0 32 5f 2c 3c b1 cf 7e be c4 3e 0a be a0 f9 7e bd
       0.010520743 -0.24883915 -0.13500506 -0.06224978
000300 71 5e 94 bd a5 54 53 bc 7c f0 8d 3c bb 05 1c 3e
       -0.07244576 -0.012898599 0.017326586 0.15236561
000310 b6 6d 2f 3e 74 ec dc bc dd 22 65 be 92 99 37 3e
       0.17131695 -0.026968218 -0.2237658 0.17929676
000320 00 69 43 3d 3f 7e 4f 3c d4 ec 2a 3e 19 6d 43 bd
       0.047707558 0.012664377 0.16691905 -0.047711466
000330 9b 81 2c 3e 57 9c 22 3c eb 70 b9 3d bb d3 43 3e
       0.16846316 0.00992497 0.090547405 0.19123738
000340 fb de 87 bc 10 de d6 bd 57 eb b3 3d 52 29 b0 be
       -0.016585818 -0.10491574 0.08785122 -0.34406525
000350 d7 c5 0e 3e 9b 79 c5 bd 85 8e 17 be a9 71 37 3d
       0.13942657 -0.09642335 -0.1480046 0.04478613
000360 62 42 e1 3c 22 09 f8 3c 58 71 70 bd 99 8e cc bd
       0.027497474 0.030277792 -0.058701843 -0.09988136
000370 1c 81 07 be 66 e4 90 bd b6 1a 97 3d f7 4d d8 3d
       -0.13232845 -0.070748135 0.073781416 0.105617456
000380 ae c8 8c 3e c1 46 2c be dc 63 26 3e a6 a7 1d be
       0.27496856 -0.16823865 0.16249031 -0.15395984
000390 62 77 4a 3e 64 ba 81 3d df 5f 36 3d 91 60 b6 bd
       0.19772103 0.06334379 0.044525024 -0.08905137
0003a0 81 f7 23 3e eb 52 75 3e 1e b8 98 bd 2c 32 bc bc
       0.16012384 0.23957412 -0.074569926 -0.022973143
0003b0 28 42 49 bb e8 c9 b2 bd 21 96 b9 bc 28 c8 22 3d
       -0.0030709598 -0.08729917 -0.022654595 0.039741665
0003c0 a0 2d 88 bc da 03 25 3e d9 d6 97 3d 20 46 98 3e
       -0.016623318 0.1611475 0.07414026 0.29741
0003d0 c9 da 01 be c0 38 51 3e 38 eb ac bc 18 62 93 3d
       -0.12681116 0.20431805 -0.021108255 0.07196444
0003e0 9e 7b 9e bb 92 1c 31 3e 13 4c 38 be 08 ed b2 3c
       -0.0048365137 0.17296055 -0.1799777 0.021841541
0003f0 d9 4b 17 3e f4 e4 5a 3d 88 58 50 be d9 9f 04 3e
       0.14775027 0.053441003 -0.20346272 0.12951602

a2c_network.actor_mlp.4.bias f4 [128]
000000 49 66 1b 3d 76 85 ff bd 72 e5 ef bd 6e 4e a0 bd
       0.037939344 -0.124766275 -0.11713685 -0.07827459
000010 6d 59 07 be 70 77 52 bd d3 1f af bd cd 6e 26 be
       -0.13217707 -0.051383436 -0.08550992 -0.16253205
000020 a0 8f 69 bd 7b 44 ab 3c 9f a8 70 be 86 d6 7a bd
       -0.057021737 0.020906677 -0.23501824 -0.06123974
000030 50 dd 8b bd 20 e3 e9 bd 2c e4 06 be 08 2c b0 bd
       -0.068293214 -0.11420274 -0.13172978 -0.08602148
000040 78 75 e7 bc 68 37 04 be 8d dd c4 bd ab 3e 0b bd
       -0.028254256 -0.12911761 -0.0961257 -0.03399531
000050 e5 7d 3c 3d 75 bb e2 bd cf 3c ac bd 28 bb fa bc
       0.0460185 -0.11070911 -0.08410036 -0.030606821
000060 0c c8 f9 bd 97 90 79 bd 41 75 05 be c4 b7 a9 3d
       -0.12196359 -0.060928907 -0.1303301 0.08287004
000070 21 aa 1b 3e 89 0d 30 bd c3 8b af bc 54 b1 5f bd
       0.15201618 -0.042981658 -0.021428948 -0.054612473
000080 8f 2d fd 3c 00 30 05 be 11 45 94 3c a3 eb 50 be
       0.030905513 -0.13006592 0.01809934 -0.20402388
000090 e4 5d 10 be 11 17 25 bd 04 32 b0 bd 0b d0 8b 3b
       -0.14098316 -0.0403052 -0.0860329 0.004266744
0000a0 f5 b6 d9 3d d2 55 c8 bd bd 66 9f 3b 51 b8 a9 bd
       0.106305994 -0.09781994 0.0048645423 -0.08287109
0000b0 2e d3 33 be 40 74 df bc bc 1e a6 3b 72 21 1d 3d
       -0.17561027 -0.027277112 0.005069582 0.038361974
0000c0 98 88 6b 3d 17 4e bd bd e5 0c f6 bc 84 61 c2 bc
       0.057503313 -0.0924341 -0.030035445 -0.02372814
0000d0 5e 47 eb bc e3 67 6e 3e 28 29 2c 3c c3 e0 09 bd
       -0.028720554 0.23281817 0.010507859 -0.033661615
0000e0 9f 7a c3 3c 43 04 dd ba e6 42 0a be b9 d4 c1 3d
       0.023862181 -0.0016862232 -0.13502082 0.09464402
0000f0 4d 94 30 3d fa 81 0e be 4a 81 59 bb 10 8d e5 bc
       0.04311018 -0.1391677 -0.0033188635 -0.028021365
000100 0a 43 fc bc 04 82 87 bd 26 06 af bd 5b 77 92 bc
       -0.030793685 -0.066165954 -0.085460946 -0.017879179
000110 fe 43 08 bc 19 5b da 3b b9 c0 58 3d 73 86 44 3c
       -0.008316992 0.0066636917 0.05291817 0.011994946
000120 b6 93 ed bd a0 e2 76 bd cc a0 84 3d ef ae 2c be
       -0.11600439 -0.06027472 0.06475982 -0.16863607
000130 b0 4a 56 3d ca 70 10 3c c8 c5 90 bb 07 56 a5 bd
       0.05231732 0.0088159535 -0.0044181086 -0.08073049
000140 19 f3 ea 3c 7e a4 80 bd 7d 07 e1 bd fd 83 eb bd
       0.028680371 -0.062813744 -0.109877564 -0.11499784
000150 08 b6 a3 3b 70 15 07 bd 84 97 9c 39 b1 4e 66 bd
       0.004996065 -0.03297943 0.00029867527 -0.05622739
000160 54 e3 27 3c 57 0c 87 bd 3a b4 d7 bd 43 fd 91 3d
       0.01024707 -0.065941505 -0.10532422 0.07128384
000170 4d 05 38 bd 5c a8 9a bd 29 e2 5e 3e 39 72 bf bc
       -0.04492693 -0.07551643 0.21765961 -0.023369895
000180 02 79 2c bd 13 fa f8 bd 60 d5 88 3a 30 3c 00 bc
       -0.04210759 -0.12157073 0.0010439567 -0.00782685
000190 d7 f8 bc bd 93 3e fe bc fd 9b bc 3a e4 02 90 bd
       -0.0922715 -0.031035697 0.001438975 -0.07031801
0001a0 79 0d a4 bc a9 ea 93 bc 21 78 5a be 81 ec bc 3a
       -0.020025956 -0.01805623 -0.21334888 0.0014413745
0001b0 c3 ce 38 3c 04 b7 3c bd b5 73 8a bd be c4 98 3d
       0.011279765 -0.046072975 -0.067603506 0.074594006
0001c0 f5 b7 2b bd 83 1f 55 3d c1 ce 68 bd 3a 76 f2 bd
       -0.041923482 0.052032005 -0.0568378 -0.11838956
0001d0 83 59 16 bd 34 da 3d bd 91 46 b9 3c 81 d4 62 3c
       -0.03670646 -0.046350673 0.022616656 0.01384461
0001e0 20 12 3d be 17 fe 3e bd e4 9e 2b bd a3 ef 88 bb
       -0.18463945 -0.046629038 -0.041899577 -0.0041789575
0001f0 10 a3 b9 3c 13 51 21 be 06 96 d6 3c 18 db b6 bb
       0.022660762 -0.15753584 0.026194584 -0.005580317

a2c_network.value.weight f4 [1, 128]
000000 61 c6 ad 3b 1a 57 74 bc 63 df 3a bd ad d5 5b bb
       0.0053031896 -0.014913345 -0.045623194 -0.0033544109
000010 88 80 4d 3d 5e 0d af 3c 87 98 41 3c 58 d5 ae 3c
       0.050171405 0.021368679 0.0118161505 0.021341965
000020 21 53 f6 bc 8d a2 bb 3c 45 cb 6f bd 79 25 78 ba
       -0.030068936 0.022904659 -0.058543462 -0.0009466033
000030 97 8a 92 3c 6b 9e 85 ba c6 18 27 3c 8a 67 61 3c
       0.01788835 -0.0010194307 0.010198778 0.013757596
000040 e7 9d 13 3d 6c 7a 0b bd 8d 91 52 3c 01 cb d8 3c
       0.03603926 -0.034052297 0.012852085 0.026463987
000050 c4 8c a2 bc 6b da 74 3b ee 97 5f bc e6 e7 05 3b
       -0.019842513 0.0037361633 -0.013647063 0.0020432412
000060 12 23 13 bc 81 60 ca bb 82 c8 96 3c 16 98 6a 3d
       -0.008980529 -0.006176055 0.018406156 0.057273947
000070 9c 94 88 3d 6d 3b 04 bc 84 b7 95 bc 23 da c2 bd
       0.0666897 -0.008070809 -0.018275984 -0.095142625
000080 0a 19 53 3a 66 91 1a 3c 21 ef d1 bc 29 64 3a bd
       0.00080527423 0.00943408 -0.02562672 -0.045505676
000090 4e a3 6c 3c 0c 91 d5 3c 85 7d f1 bc 08 c7 20 3c
       0.014443232 0.02607014 -0.029478798 0.009813078
0000a0 2d 60 64 3d 77 b4 b9 bb 39 51 9d 3b ae 44 87 bb
       0.055755783 -0.005667265 0.0048009423 -0.0041280603
0000b0 ac 39 84 bd 4e 56 ab 3c eb a7 d0 3c 58 82 bd 3b
       -0.064563125 0.020915177 0.025470695 0.0057833605
0000c0 04 34 0e 3c 76 73 f5 3c ef 3e 5e 3c 57 2f 64 3c
       0.008679394 0.029962283 0.013564809 0.013927302
0000d0 a5 ca fb 3c 7e ba 5d 3e 76 71 ce bb a3 63 f4 bc
       0.030736277 0.21653172 -0.0063001467 -0.029832667
0000e0 ea 48 2e bc ae 8e 07 3d 23 75 09 bd 95 9a 91 3d
       -0.010637501 0.033095054 -0.033558976 0.07109562
0000f0 6b b6 34 bc 36 24 65 3b 2c 54 ec bc 3b a7 99 bb
       -0.01102982 0.003496421 -0.02884873 -0.004689125
000100 24 84 07 bc c0 3e 26 3c 37 6b 0a bc a6 1b 69 bb
       -0.008271251 0.010146797 -0.008448414 -0.0035569458
000110 8d bd c6 bb 66 f0 3e 3d c9 ed a8 bc 19 bb 29 3a
       -0.0060650767 0.04661598 -0.020621197 0.0006474718
000120 09 c5 ce bb 2f 11 e7 bc 8f 97 8e 3d 14 62 26 bd
       -0.0063101095 -0.028206436 0.06962501 -0.04062088
000130 d7 c6 30 3d 15 8d 65 3b 4c d5 8f bc a1 da d5 3b
       0.04315838 0.0035026718 -0.017557763 0.0065263067
000140 6c d3 76 3d bb 32 ee 3c 01 9d c0 3b ac 23 c7 3c
       0.06026022 0.029076925 0.0058780913 0.024309002
000150 e8 de b6 bb 8a 91 77 bc b5 3d 4b 3d 1a 13 30 bc
       -0.0055807717 -0.015110383 0.049619395 -0.010746742
000160 f3 17 0c b8 75 c1 00 3c 72 02 c1 ba 5f 0a c2 3c
       -3.3400906e-05 0.007858624 -0.001472546 0.023686586
000170 85 95 30 be dd 66 f1 bc f8 ca 51 3e 28 55 2d bc
       -0.17244537 -0.029467994 0.20487583 -0.010579385
000180 f3 2b f6 bb 35 4b fe 3b 36 0d 74 bd a8 6f 7b 3c
       -0.0075125634 0.00776043 -0.05958291 0.015346445
000190 96 56 b5 bc a3 de 16 bd dc 5b 4d 3d 66 57 02 3b
       -0.022136014 -0.036833417 0.050136432 0.001988852
0001a0 ea 9c 94 3c d1 b1 16 bd f9 f0 5b 3b 96 60 54 bd
       0.018141229 -0.036790673 0.003356038 -0.051849924
0001b0 0d 2f 08 3c a8 e8 02 bc 34 c7 3c bc 39 78 95 bd
       0.008311999 -0.00799004 -0.011522103 -0.07298321
0001c0 6f 57 b8 3c ba 30 55 3d 77 f1 42 3b 04 f6 ba bb
       0.02250263 0.052048422 0.0029745975 -0.005705597
0001d0 fc e5 ef 3b 0f 86 72 bd de ed 85 bb 87 c5 70 bd
       0.0073211174 -0.05920988 -0.004087194 -0.058782127
0001e0 8e 1b 3d bc f8 e0 ea bc 8b 58 4b bd d5 9d 81 bd
       -0.011542214 -0.028671727 -0.049644988 -0.06328932
0001f0 b5 fd 5b bc 74 9b 64 bc 7d a9 a4 bc 1c cc 3a bc
       -0.013427188 -0.013953079 -0.02010035 -0.0114012025

a2c_network.mu.weight f4 [18, 128]
000000 ad e5 48 3e 49 30 b4 bc 05 ce 88 3c 98 7a 7b 3d
       0.19618864 -0.02199568 0.0166998 0.06139621
000010 58 af 50 bd ff ff 47 bd 54 32 05 bc d5 36 61 3d
       -0.05094847 -0.04882812 -0.008129675 0.054983933
000020 f1 55 07 bd 6c 0f 77 bd 3f bf 8f 3b aa ad 80 bd
       -0.033040944 -0.06031744 0.004386812 -0.06283124
000030 68 f1 fa bb 54 6f c5 3c e9 64 06 3e ed e4 85 3d
       -0.0076581724 0.024100937 0.13124432 0.06537805
000040 20 49 9e 39 ba 89 d6 3c 4b 0d 36 3c ca c8 76 be
       0.0003019059 0.02618872 0.011111568 -0.24100032
000050 87 90 92 bd d3 15 9d bd 72 17 11 3e 56 b5 a0 bd
       -0.07156473 -0.07670178 0.141691 -0.07847087
000060 1d 64 0c be f0 b0 34 3e a6 e4 cc 3c 82 26 f3 bd
       -0.13710065 0.17645621 0.025011372 -0.11872579
000070 3a ee 2c bd db 30 4d bd 16 4a 8b 3d 84 57 8a 3d
       -0.042219378 -0.05009542 0.0680124 0.067549735
000080 0a a6 c1 3d d3 39 2f be ba 14 4d 3b 07 bd a0 3c
       0.094554976 -0.17111902 0.0031292872 0.019621385
000090 6b b2 13 3d bf f5 45 3d 22 d1 88 bd 5a 8b bc bc
       0.036058825 0.048330065 -0.06680514 -0.023015667
0000a0 29 91 be 3d 3b 18 32 bd d4 c8 34 bd 09 70 12 bd
       0.09305031 -0.04348014 -0.044136837 -0.035751376
0000b0 84 9e 52 bd f7 ea 2e be c1 59 5a 3d 55 0e 9a 3d
       -0.051420704 -0.1708182 0.053308252 0.07522265
0000c0 97 be 92 bc 42 da 57 bc bb d5 bc 3d 09 65 b3 3e
       -0.017913146 -0.013174595 0.09220453 0.3503802
0000d0 67 ac a0 bd f9 3a 31 bd e9 bc 79 3d 0c 08 fa bd
       -0.07845383 -0.04326913 0.060971174 -0.12208566
0000e0 ea 34 7f ba bb d6 cc 3c 03 37 4a 3b 92 0c 5c 3e
       -0.0009735363 0.025004735 0.0030855543 0.2148917
0000f0 0c 5b 9c 3d e0 ff f7 3d c4 80 fc 3d e7 8a 92 3c
       0.07634553 0.12109351 0.123292476 0.0178885
000100 7f 98 6c bd 7c 82 9e bd e1 eb 6a 3e 53 19 9c bc
       -0.05776262 -0.07739732 0.22941543 -0.019055044
000110 a8 32 a7 bd aa a8 f0 bb bd 5c 2c bc 49 ef 8b bd
       -0.08163959 -0.007344325 -0.010520157 -0.068327494
000120 8e 52 0c 3e 94 cf 73 3d 4e 9e fb 3d 2c 0a 3b 3e
       0.13703367 0.059524134 0.122860536 0.18265599
000130 b0 60 c7 bc 2d 82 86 bd 20 37 6a 3d 71 c8 f6 3d
       -0.024338096 -0.06567798 0.057181478 0.1204995
000140 77 ae 23 3e 44 53 f1 3c 02 e9 b8 3d 3a 55 10 bd
       0.15984522 0.02945865 0.09028818 -0.03523753
000150 bc 55 f8 3c bf b1 12 3e 22 91 6e 3e 9f 9f 00 3e
       0.030314319 0.14325617 0.23297551 0.1256089
000160 d3 e8 f7 bd 02 ad b4 bd 76 7b c7 bd 4a a4 43 3d
       -0.121049546 -0.08822061 -0.09740345 0.0477641
000170 5b c1 e5 3c b6 1d 76 bc e3 3d d4 3d b6 53 9e bd
       0.0280463 -0.015021732 0.103633665 -0.0773081
000180 01 e2 d0 3d 12 74 1b 3c b3 04 4f bd ac 67 17 3e
       0.10199357 0.009488123 -0.05054159 0.14785641
000190 79 b4 23 be e9 42 aa bd 41 a3 13 bd 23 32 51 3d
       -0.15986814 -0.08313543 -0.036044363 0.051073205
0001a0 38 85 ae bc f3 6b c7 bb ed 1f 04 be b9 84 f4 bd
       -0.021303758 -0.0060858666 -0.12902804 -0.11939377
0001b0 ca fc 74 3d 11 e0 d8 bb bb c9 d1 bd 41 e2 d0 bd
       0.05981139 -0.0066185077 -0.10243555 -0.101994045
0001c0 e4 02 03 3e 41 8b 1a be 67 3b 38 bd 31 ac 96 3c
       0.12794071 -0.15092184 -0.044978525 0.018392654
0001d0 23 15 6d bc 0d f3 6f bd 64 aa e6 bd e3 4a 97 3d
       -0.014470371 -0.0585814 -0.11262968 0.073873304
0001e0 7e b6 93 3d 3d 5b d7 bd f1 49 b5 3b f2 42 24 bd
       0.07212542 -0.10515449 0.005532496 -0.040102907
0001f0 42 1c bf bd 75 b4 18 3d 38 8b 5a be 3b 34 af 3c
       -0.093315616 0.037281472 -0.2134217 0.02138721
000200 73 a5 72 ba aa c2 09 3d 5e e7 7e 3c 13 d7 42 3e
       -0.0009256221 0.03363291 0.015558092 0.19027357
000210 3d b8 30 bc 30 37 1e be 4f 83 31 bd 41 8c 85 bd
       -0.010786113 -0.1545074 -0.043338116 -0.06520892
000220 8c 72 0d 3e 0f eb 1d 3d 50 39 c2 bd 7f bb 89 bd
       0.13813227 0.038554247 -0.09483588 -0.06725215
000230 e1 45 7f bd 2b d0 2d 3d ee e0 6d be 6b 1d 8c bc
       -0.0623225 0.042434853 -0.23230335 -0.017103871
000240 c1 c3 5e bc 1d ef d4 3d 48 9c f7 bd c6 04 db bd
       -0.013596476 0.1039717 -0.12090355 -0.1069427
000250 93 4c 5f bc 43 b8 53 be 3f e7 dd 3d 4c 0f 77 3d
       -0.013629097 -0.20675759 0.10835122 0.060317323
000260 2b 62 b2 bd 42 e4 57 be 0c e0 72 bd 20 be 01 bd
       -0.0871013 -0.21083167 -0.0592957 -0.031675458
000270 97 d6 b1 bd 98 38 3d 3b bc c9 50 bd 55 ef 3b bd
       -0.08683508 0.0028872844 -0.05097364 -0.04588254
000280 0d e5 f0 3c 14 66 28 be 20 5e a4 bd 84 87 b0 3c
       0.029406095 -0.1644519 -0.080257654 0.021548994
000290 2a 66 94 3e b6 a9 ac 3d 51 26 84 3d ce b2 05 bd
       0.28984195 0.08430807 0.06452621 -0.032641225
0002a0 d6 6b c1 3b 1d 3d 80 3d 85 f4 5b bd 21 f1 1b 3d
       0.0059027476 0.062616564 -0.05369999 0.038071755
0002b0 1f 58 0b bd c7 a1 fc 3d 92 1a 8c 3d f5 a8 c7 bd
       -0.034019586 0.12335544 0.068410054 -0.09749023
0002c0 ab 05 52 bd 7b f6 75 be 39 56 25 3d 43 88 e9 3c
       -0.051274937 -0.24019806 0.04036543 0.028507357
0002d0 c4 11 42 3e f8 1a 04 be 45 25 4d be a7 7c 16 be
       0.1895209 -0.12900913 -0.20033748 -0.14695989
0002e0 af 4f 68 bd 81 7c b8 3d 1f 8e 96 3c 57 f5 8e 3d
       -0.056716617 0.09008122 0.018378315 0.069803886
0002f0 6f 85 8d bd 53 49 1b be d8 e1 63 bd e7 a4 05 3b
       -0.06910216 -0.1516469 -0.055635303 0.002039248
000300 fd 7d 21 3e e0 4e 29 bd b7 e4 f0 3d 9e 03 6a 3b
       0.15770717 -0.041334987 0.11762374 0.0035707722
000310 a7 c0 f8 bc e7 20 13 3d 6d 19 f2 bd 0a dc 0b bd
       -0.030365301 0.03592005 -0.11821256 -0.034145392
000320 fc d7 25 3e 28 f0 0a be 2b 42 b0 bc 5e 6e ae 3d
       0.16195673 -0.13568175 -0.021515926 0.085171446
000330 d4 30 a6 bd de 16 3b bd 55 cd d7 bc 24 26 8d bc
       -0.08114782 -0.045676105 -0.026343027 -0.0172301
000340 06 3d d9 3c 83 a6 54 3e 9f 2a a7 bd 19 6f 86 3e
       0.026518356 0.20766644 -0.08162426 0.26256636
000350 f3 34 50 bb 01 85 a0 bc a7 c7 d5 3c 3f 82 91 3b
       -0.0031769841 -0.019594671 0.026096178 0.0044405754
000360 b2 0f 93 bb a1 b6 f3 bd 88 3f a2 3e f0 e8 90 bd
       -0.004487955 -0.11900068 0.31689095 -0.07075679
000370 0f d9 77 bd c1 9e 63 bb 42 d0 9d 3d 6a 75 15 bc
       -0.060509738 -0.0034732076 0.07705738 -0.009122232
000380 e1 b1 dd 3d c0 ea f0 3d c1 87 f0 bd 2d 34 71 be
       0.10824943 0.11763525 -0.11744643 -0.2355506
000390 fd b4 64 3e 17 3c a1 bd 8e 77 66 bb 45 68 a1 bd
       0.22334667 -0.07872789 -0.0035166475 -0.07881216
0003a0 3d a1 04 bd 0b 8b bf 3b b0 f4 ba bd d8 1d 04 3d
       -0.03238033 0.0058454326 -0.09128702 0.032255024
0003b0 a9 72 b4 bd 0e 7f d9 bc 61 9d ec 3c 3b 5e f4 bb
       -0.08810932 -0.026549842 0.028883638 -0.007457522
0003c0 4d ae 85 ba 1d 27 c4 3c 51 49 ea 3d 18 23 e4 3d
       -0.001019904 0.023944432 0.11439765 0.11139506
0003d0 dc 82 11 bb d8 01 15 3d a7 b9 37 be e1 88 a2 3d
       -0.0022203242 0.03637871 -0.17941914 0.07936264
0003e0 1c 18 92 3c 23 8a a1 bd b5 f8 fd 3d be 9d 70 bc
       0.017833762 -0.078876756 0.12400953 -0.014686046
0003f0 23 3e 71 3d 0e 6b 27 bd fe f5 11 3d 04 9c 05 be
       0.05889715 -0.04087358 0.035634987 -0.13047796

a2c_network.mu.bias f4 [18]
000000 ad c6 79 3c b0 bb dc bb fa 63 7c 3d a1 f9 57 bd
       0.015245122 -0.0067362413 0.061618783 -0.0527283
000010 9a d4 91 3d bb 7a 9e bc 22 57 5d 3e 86 6a 68 bc
       0.07120629 -0.019345632 0.2161527 -0.014185553
000020 fc f9 e9 3d 7e 82 82 3d 14 44 b9 3b 58 a9 4d 3e
       0.11424634 0.06372546 0.0056538675 0.20084131
000030 58 b2 82 bc 8e f0 bd bd b4 e3 0c 3d 80 27 01 bd
       -0.015954182 -0.09274398 0.034396842 -0.03153181
000040 e4 9a 72 3d 31 fa 96 3d
       0.059229746 0.07371939

exp_avg f4 [18]
000000 19 40 b1 b9 17 ce 78 39 20 f9 e2 b9 75 46 d3 39
       -0.00033807827 0.00023727897 -0.00043291692 0.0004029755
000010 54 e3 0e 3a 07 b1 03 38 25 e7 b9 3a 3a e8 fb 39
       0.00054507446 3.1397703e-05 0.0014183266 0.00048047473
000020 f2 27 23 39 23 f3 50 b9 6c bb f5 39 71 9d 7f 39
       0.00015559772 -0.00019927001 0.00046869682 0.00024377347
000030 69 34 d9 39 4f 0c 7e b9 de 5b 37 b9 67 7c 9a ba
       0.00041428514 -0.00024227913 -0.00017486463 -0.0011786342
000040 30 32 c9 b7 ed 62 92 b9
       -2.3984438e-05 -0.00027920995

exp_avg_sq f4 [18]
000000 18 23 71 37 c9 76 85 37 71 a7 89 37 76 32 83 37
       1.437289e-05 1.591015e-05 1.6409644e-05 1.5639915e-05
000010 5c c3 7f 37 a3 98 8b 37 15 c4 89 37 09 d9 81 37
       1.524467e-05 1.6641168e-05 1.642298e-05 1.5479063e-05
000020 03 5c 78 37 a2 0f 87 37 3d 9f 8b 37 3f ab 87 37
       1.4803375e-05 1.6100534e-05 1.6644242e-05 1.6172997e-05
000030 6e e1 87 37 98 84 79 37 84 40 8a 37 c6 17 84 37
       1.6198228e-05 1.4872428e-05 1.6480924e-05 1.5746697e-05
000040 eb 31 71 37 4e 1e 83 37
       1.4376342e-05 1.5630529e-05
