logs/rl_games/hexapod_flat_direct/2025-11-15_08-02-25/nn/last_hexapod_flat_direct_ep_450_rew_14.89648.pth (torch, 545896 bytes, 33 tensors)

value_mean_std.running_mean f8 [1]
0	0x3fe3dcbe3b625efc	0.6206961784218659

value_mean_std.running_var f8 [1]
0	0x3fc9dbde2b8b6d2a	0.2020223343487058

value_mean_std.count f8 []
0	0x41a5180002000000	176947201.0

a2c_network.sigma f4 [18]
0	0xbf21b156	-0.6316122
1	0xbf8777f6	-1.0583484
2	0xbf67e142	-0.9057809
3	0xbf4f0b56	-0.8087667
4	0xbf7fa7c7	-0.9986538
5	0xbf4107a2	-0.7540227
6	0xbfac7b33	-1.3475097
7	0xbf99567b	-1.1979517
8	0xbf8e823f	-1.1133498
9	0xbf9f3b24	-1.2439923
10	0xbfb04d83	-1.3773655
11	0xbf9cdafd	-1.225433
12	0xbf759909	-0.9593664
13	0xbf8b1bac	-1.086782
14	0xbf4ece24	-0.80783296
15	0xbf6af60c	-0.9178169
16	0xbf8079b9	-1.0037147
17	0xbf7ea08e	-0.99463737

a2c_network.actor_mlp.0.weight f4 [128, 66]
0	0xbe61de6a	-0.220575
1	0xbed78e0d	-0.42100564
2	0x3d34147a	0.04396484
3	0xbe003928	-0.12521803
4	0x3e1eca83	0.1550694
5	0x3e06a9f0	0.13150764
6	0x3fc04906	1.5022285
7	0x3e7430ab	0.2384669
8	0x3d492877	0.049110856
9	0xbea9dc1f	-0.33175752
10	0xbebf89a2	-0.37409693
11	0xbb4a9a0c	-0.0030914573
12	0x3cec7d20	0.028868258
13	0x3f486536	0.78279436
14	0x3e2ad817	0.16683994
15	0x3c9ffd39	0.019529926
16	0xbe4714ad	-0.19441481
17	0x3e42204a	0.1895763
18	0x3d8729c6	0.065997645
19	0xbe98c3f8	-0.29837012
20	0x3ce0beb0	0.027434677
21	0xbe804832	-0.2505508
22	0xbef3a8f2	-0.47589833
23	0xbe97e8d1	-0.29669812
24	0xbe2411e3	-0.16022448
25	0xbf281bf5	-0.6566766
26	0x3db8d069	0.09024126
27	0x3ececd2f	0.40390918
28	0x3e47df1d	0.19518705
29	0x3ee86a2d	0.45393506
30	0x3c8242c8	0.015900984
31	0xbcb4fd1e	-0.022093352
32	0x3d32fba9	0.043697033
33	0xbd36dca9	-0.04464403
34	0xbc9f49bf	-0.019444345
35	0x3daa4965	0.0831478
36	0xbd2b5a28	-0.041834027
37	0xbddcc3c0	-0.10779524
38	0x3d4553e1	0.048175696
39	0xbe0681e4	-0.13135487
40	0xbd5c56c8	-0.0537937
41	0xbdaa8d7c	-0.08327767
42	0xbd8ae180	-0.06781292
43	0x3cd06a17	0.025441213
44	0x3cc06e90	0.02349022
45	0xbd2c2289	-0.042025123
46	0xbc95d9ef	-0.018292395
47	0x3c33786b	0.010954003
48	0xbdbad789	-0.09123141
49	0x3e4be74e	0.19912454
50	0x3d4b8604	0.049688354
51	0x3d9b1acb	0.0757347
52	0xbdf00e6d	-0.117215015
53	0x3d2af8cb	0.041741174
54	0xbd4fd2f7	-0.0507383
55	0xbe5bed0d	-0.21477146
56	0xbd8579af	-0.0651735
57	0xbe4fdd74	-0.20299321
58	0xbbe2a3d1	-0.006916501
59	0xbe9bf08d	-0.30456963
60	0x3e38076f	0.17971586
61	0xbcbf380a	-0.023342151
62	0xbd6c9ddb	-0.05776773
63	0x3d1d52d9	0.038409088
64	0x3dace4c1	0.08442069
65	0x3e0fa373	0.14027195
66	0x3eadba1e	0.3393106
67	0x3e5ff878	0.21872127
68	0xbe2bbcca	-0.16771236
69	0xbe4d0e63	-0.2002502
70	0xbe13a113	-0.14416914
71	0x3e065222	0.13117269
72	0xbe922a66	-0.28547972
73	0xbe8d5b24	-0.27608597
74	0xbd1781c0	-0.036988974
75	0xbf15d0e3	-0.5852186
76	0x3ef2c35a	0.47414666
77	0xbdedd98f	-0.11613762
78	0x3e0b6cf7	0.13615786
79	0xbe5ecdbe	-0.21758172
80	0x3eff2df7	0.49839756
81	0x3de75d8c	0.112971395
82	0xbd4f8e6e	-0.05067294
83	0xbdab829f	-0.08374523
84	0x3d084803	0.0332718
85	0xbc4fe14b	-0.012687991
86	0xbd292d93	-0.04130323
87	0xbdfec371	-0.12439621
88	0x3dce0b7d	0.10060785
89	0xbd33173c	-0.04372333
90	0x3e7c194e	0.24619028
91	0x3e884738	0.26616836
92	0xbce89543	-0.028391486
93	0xbe9dc111	-0.3081136
94	0x3d0616f7	0.032736745
95	0x3d05e6b4	0.03269072
96	0x3c101e43	0.008796277
97	0xbdcfc4b5	-0.10144941
98	0xbb0c0564	-0.0021365518
99	0x3c12d62f	0.008962198
100	0xbd2ccf1e	-0.04218971
101	0x3ca1adcf	0.019736199
102	0xbd89ddbc	-0.067317456
103	0xbd6931cd	-0.05693226
104	0xbd85c804	-0.065322906
105	0x3cad21ed	0.021134341
106	0x3a407476	0.0007341573
107	0x3d2c037d	0.041995514
108	0xbd5e8037	-0.054321494
109	0x3d16c39d	0.036807645
110	0x3c7779a2	0.015104683
111	0x3d6fa65a	0.058508255
112	0xbca149ea	-0.019688565
113	0xbcecf0a8	-0.028923348
114	0x3d723960	0.05913675
115	0xbd7ceec5	-0.061751146
116	0x3e3cb056	0.18426642
117	0xbdbe18cd	-0.09282074
118	0xbd144ff2	-0.036209054
119	0x3d45f0a3	0.048325192
120	0x3ded09fe	0.115741715
121	0x3c99b282	0.018761877
122	0xbd4de552	-0.050267525
123	0x3d499845	0.04921748
124	0xbe4ee89b	-0.2020592
125	0x3d6544d5	0.055973846
126	0xbc833b90	-0.016019613
127	0x3df91479	0.12162108
128	0x3dff7151	0.12472785
129	0xbda71f0b	-0.08160218
130	0xbc52defb	-0.0128705455
131	0x3d72ec2a	0.059307255
132	0x3ddbcecd	0.107328035
133	0x3d49d38b	0.04927401
134	0xbead531b	-0.33852467
135	0x3df3bb21	0.119009264
136	0xbca1e540	-0.019762635
137	0xbe46c7b5	-0.1941212
138	0x3d18d360	0.037310958
139	0xbee839eb	-0.45356688
140	0xbe21e5d7	-0.15810333
141	0xbf027a58	-0.5096793
142	0xbe034386	-0.12818727
143	0x3e765fe3	0.24060015
144	0xbe11df0d	-0.14245243
145	0xbcb19b9f	-0.021680651
146	0xbefca5db	-0.49345288
147	0x3ebe88c4	0.3721372
148	0xbf67e046	-0.9057659
149	0x3ee194f5	0.44058958
150	0xbbf2b8da	-0.00740729
151	0xbe1dbec5	-0.15404804
152	0x3e266b29	0.16251816
153	0xbc21575c	-0.009847488
154	0xbe1af01c	-0.15130657
155	0x3db6f10a	0.08932693
156	0xbd9cdc3f	-0.07659196
157	0xbdc4f5da	-0.09617205
158	0xbccff54b	-0.02538552
159	0x3df5501e	0.11978172
160	0x3c511d86	0.012763387
161	0xbe79a9b7	-0.24381147
162	0xbc9cd5e7	-0.019144965
163	0xbd7042ae	-0.05865734
164	0xbcc3886d	-0.023868764
165	0x3d584da8	0.052808434
166	0x3d9c5a25	0.07634381
167	0xbcf2e81e	-0.029651698
168	0xbd6154d1	-0.055012528
169	0xbd915174	-0.07095614
170	0xbd6fb645	-0.058523435
171	0xbdde6a38	-0.10860103
172	0xbd7399e1	-0.059472922
173	0xbd058eb8	-0.03260681
174	0xbca0667c	-0.019580118
175	0xbd97d657	-0.07413929
176	0x3d204167	0.039124873
177	0xbd84020d	-0.06445704
178	0x3d24825d	0.040163387
179	0x3cb69787	0.02228905
180	0xbe7e51c7	-0.24835883
181	0x3cdd033f	0.026979087
182	0xbdde5203	-0.10855486
183	0x3e9108ff	0.28327176
184	0xbe5d5c9a	-0.21617356
185	0xbdf2564b	-0.11832865
186	0xbdd84c49	-0.10561425
187	0xbd349b09	-0.044093166
188	0x3d7a7ca2	0.061154015
189	0x3c7d5425	0.015461956
190	0x3cc7bccd	0.02438202
191	0xbd5723d8	-0.052524418
192	0x3dc54edf	0.09634184
193	0x3dc5e82a	0.096634224
194	0x3e645aa5	0.22300203
195	0xbda9ea9b	-0.082967006
196	0xbd40538c	-0.046954677
197	0xbdfa5a91	-0.122243054
198	0x3e9a1375	0.3009297
199	0x3d0d9c06	0.034572624
200	0xbdfe82a0	-0.124272585
201	0xbdac6572	-0.08417787
202	0xbdcfc4ee	-0.10144983
203	0xbddde34d	-0.1083437
204	0xbf03cf7b	-0.51488465
205	0x3ee30aee	0.44344276
206	0x3eb21483	0.34781274
207	0x3dc01a2d	0.09379993
208	0x3e4999f8	0.1968764
209	0x3db6541e	0.08902763
210	0xbe06e557	-0.13173424
211	0x3da2a81f	0.07942223
212	0x3cd8a0d9	0.026443886
213	0xbe2b7dc7	-0.16747199
214	0xbe0f36dc	-0.13985771
215	0x3d07e7c3	0.03318001
216	0xbd02fe4b	-0.031980794
217	0xbe430cd5	-0.19047864
218	0xbe1696ab	-0.14705913
219	0xbbcd34f7	-0.0062624174
220	0xbe36e6eb	-0.17861526
221	0x3df894c2	0.12137748
222	0x3e766644	0.24062449
223	0x3e651964	0.22372967
224	0x3e6ce73d	0.23135085
225	0xbe15bd98	-0.14623106
226	0xbeb4f1da	-0.35340768
227	0xbe55c299	-0.20875014
228	0xbb888213	-0.0041658967
229	0xbd971e17	-0.07378786
230	0xbca1f84e	-0.019771721
231	0xbc55fa21	-0.013060124
232	0xbd3343c6	-0.043765806
233	0xbda06ad1	-0.078328736
234	0x3d7b2eb3	0.061323833
235	0x3ba513a7	0.005037743
236	0xbc5988ae	-0.013277216
237	0xbd6c0b6b	-0.057628077
238	0xbcdb7a93	-0.026791846
239	0x3d17edf9	0.037092183
240	0xbc9d4264	-0.019196697
241	0xbbdbeb35	-0.0067113885
242	0x3ce961ce	0.02848902
243	0xbd1989c0	-0.037484884
244	0xbc8bc793	-0.017062938
245	0xbc075d94	-0.008262057
246	0xbd1bbb45	-0.03802039
247	0x3d9cb40f	0.07651531
248	0x3e33d025	0.1755987
249	0x3d17f792	0.037101336
250	0x3db21398	0.086951435
251	0x3e112202	0.14173129
252	0xbd3a800a	-0.045532264
253	0x3d948606	0.072521254
254	0xbd30f70f	-0.043204363
255	0xbd4dc1d8	-0.050233692

a2c_network.actor_mlp.0.bias f4 [128]
0	0xbe2f3875	-0.1711138
1	0x3dae91e8	0.08523923
2	0x3da8c65d	0.0824096
3	0xbe8a8b83	-0.27059564
4	0x3d5e20ab	0.054230373
5	0x3e0393ed	0.12849398
6	0xbdc15e5d	-0.094418265
7	0x3dd994d6	0.10624091
8	0xbc9c402b	-0.019073566
9	0x3cb46507	0.02202083
10	0xbcaa4e88	-0.0207894
11	0x3c9895f3	0.018626189
12	0xbdee207b	-0.11627289
13	0xbdec646a	-0.1154259
14	0x3e1775ff	0.14791106
15	0xbd569aeb	-0.052393835
16	0xbd5e8a87	-0.05433133
17	0xbc8d6fba	-0.01726519
18	0xbe0d3826	-0.1379095
19	0x3c17c6e0	0.009263724
20	0x3db31b41	0.08745433
21	0x3e3e6f56	0.18597159
22	0x3d93fd61	0.072260626
23	0x394b38b5	0.00019380714
24	0x3cbce5e8	0.023058847
25	0x3dcf6f50	0.10128653
26	0xbdc2d900	-0.09514046
27	0x3e0238f6	0.12717041
28	0x3dcdc443	0.100471996
29	0xbe0a096f	-0.13480161
30	0xbe08b38a	-0.13349739
31	0xbe2f44a7	-0.17116033
32	0xbd82df27	-0.06390219
33	0x3dd88bb9	0.10573525
34	0xbd7ac209	-0.061220203
35	0xbe3c9ef0	-0.18420005
36	0xbb072958	-0.0020624008
37	0x3e1c67f4	0.1527403
38	0xbd938a44	-0.072041065
39	0xbde350a5	-0.11099366
40	0x3d2e3fe1	0.04254139
41	0xbe2eb636	-0.17061695
42	0xbe862f62	-0.26208025
43	0xbdedc025	-0.11608914
44	0xbe0b2a37	-0.13590322
45	0x3e3c0ecf	0.18365024
46	0xbe4e60ec	-0.2015416
47	0xbd937ab2	-0.07201137
48	0x3d8c832c	0.068609565
49	0xbd0d64d5	-0.03451999
50	0xbe383ccc	-0.17991942
51	0xbd323c99	-0.04351482
52	0x3de22392	0.11041941
53	0xbe10f3d7	-0.14155518
54	0xbe17ba41	-0.14817144
55	0x3d362f2d	0.044478584
56	0x3d8a1cf6	0.06743805
57	0xbda0fcf9	-0.07860751
58	0xbe03be1e	-0.12865493
59	0x3df9b88d	0.121934034
60	0xbc6ffcb2	-0.01464765
61	0x3da3a3c2	0.07990219
62	0x3cc8239b	0.02443104
63	0xbdd8bf94	-0.10583416
64	0xbda2d94a	-0.07951601
65	0x3e14eed0	0.14544225
66	0x3e3f00e9	0.18652691
67	0xbd6c315a	-0.057664253
68	0x3c986e4c	0.018607281
69	0x3d0bce55	0.03413232
70	0xbdb780c0	-0.08960104
71	0x3db683a3	0.089118265
72	0x3dd57cfb	0.10424229
73	0x3e0e9987	0.13925754
74	0x3d559723	0.05214609
75	0xbdb3b02b	-0.08773836
76	0xbde2833c	-0.11060187
77	0x3c0d68a7	0.008630908
78	0xbcbb4bef	-0.022863356
79	0x3d29fffc	0.04150389
80	0xbd853280	-0.06503773
81	0x3ca12293	0.019669807
82	0xbdad1551	-0.084513314
83	0xbda97054	-0.08273378
84	0xbd665edf	-0.05624282
85	0x3d97d6d7	0.07414024
86	0xbe15952e	-0.14607689
87	0xbe5f57ac	-0.21810788
88	0xbd894e4d	-0.06704388
89	0x3ddddd63	0.10833242
90	0x3c9c234b	0.019059798
91	0xbce469d5	-0.027882496
92	0xbda82023	-0.082092546
93	0x3e150158	0.14551294
94	0x3ce76ccb	0.028250119
95	0xbe56a497	-0.20961224
96	0x3ba9a5a1	0.005177215
97	0xbdf3a767	-0.11897164
98	0xbdd44eaa	-0.103665665
99	0x3de0747d	0.109597184
100	0x3e2b2f91	0.16717364
101	0xbdbd4415	-0.09241501
102	0x3cd0a556	0.025469463
103	0x3cd22251	0.025651129
104	0x3e019061	0.12652732
105	0xbe16bbe3	-0.1472011
106	0x3b12909b	0.0022364024
107	0x3d774e9f	0.060377713
108	0x3da640a7	0.081178
109	0x39200bdc	0.00015263207
110	0xbd7b8826	-0.06140914
111	0xbd4b29b3	-0.049600314
112	0x3d8f2665	0.06989745
113	0xbd8039e7	-0.06261044
114	0x3dbbf013	0.0917665
115	0xbd642ca7	-0.055706646
116	0xbe1b74ce	-0.15181276
117	0x3e0e4da9	0.13896812
118	0xbda10fd9	-0.07864351
119	0xbd39c6da	-0.045355655
120	0x3e6fb41a	0.23408547
121	0x3c641614	0.013921279
122	0x3b42ed9a	0.0029743672
123	0x3c0c3b93	0.0085591255
124	0xbdde5ddd	-0.10857747
125	0x3d5c5dce	0.053800397
126	0xbe07bf8f	-0.13256668
127	0x3dec5855	0.115402855

a2c_network.actor_mlp.2.weight f4 [128, 128]
0	0x3e255cb0	0.16148639
1	0x3ce4c1ba	0.027924407
2	0xbe3174d7	-0.17329727
3	0xbd9b6a56	-0.07588641
4	0xbe56915f	-0.20953892
5	0x39a1a8f3	0.0003083419
6	0x3db462a1	0.088078745
7	0xbd146584	-0.036229625
8	0x3e34bc9a	0.17650071
9	0xbdb58ae5	-0.08864383
10	0xbd1a07f9	-0.03760526
11	0x3dd45b51	0.1036898
12	0x3c848bb6	0.0161799
13	0x3e28a6cd	0.1646988
14	0xbe3e66ae	-0.18593857
15	0x3c69b670	0.014264688
16	0x3e245365	0.16047437
17	0xbe33b6ce	-0.17550203
18	0x3dae641d	0.08515189
19	0xbe088f23	-0.13335852
20	0xbc84ff6f	-0.016235081
21	0x3dffc317	0.12488382
22	0x3e381f8f	0.17980789
23	0x3e22c210	0.15894341
24	0xbc5a059d	-0.013307002
25	0x3cc8b224	0.024499007
26	0xbd09bd86	-0.03362801
27	0x3e063784	0.13107115
28	0xbbd16706	-0.006390455
29	0xbe4de080	-0.20105171
30	0xbc6ad6ef	-0.014333471
31	0xbc90c3b9	-0.017671453
32	0xbe1c950f	-0.15291236
33	0xbcba9198	-0.022774503
34	0x3de3b94e	0.111193284
35	0x3cb5d94a	0.022198338
36	0x3d29d97b	0.04146717
37	0x3d518773	0.051154565
38	0xbcc8b22e	-0.024499025
39	0x3e008f58	0.12554681
40	0xbdddf3a5	-0.10837487
41	0x3dfcd431	0.1234516
42	0xbd887e28	-0.066646874
43	0x3ec72bc9	0.38900593
44	0xbd600b8d	-0.054698516
45	0xbcd9f833	-0.026607608
46	0xbb6cfe98	-0.0036162492
47	0xbd80a38e	-0.062811956
48	0xbd57da83	-0.052698623
49	0xbc9453c7	-0.018106354
50	0xbd2e7725	-0.042594094
51	0x3d12b159	0.035813663
52	0x3e301222	0.17194417
53	0x3dfec8fb	0.12440678
54	0x3dd65b3a	0.10466619
55	0x3dba4555	0.09095255
56	0xbb02ea3a	-0.0019976036
57	0x3d5febb8	0.05466816
58	0xbd137e01	-0.03600884
59	0x3cce5691	0.025187762
60	0xbd3fe03f	-0.046844717
61	0x3dbb7ac0	0.09154272
62	0xbe37899f	-0.17923592
63	0xbdac9bbb	-0.08428141
64	0xbbd79384	-0.0065788645
65	0x3dce45d6	0.10071914
66	0xbcba10bc	-0.022713058
67	0xbe770624	-0.24123436
68	0x3daefaea	0.08543952
69	0x3d9a772e	0.07542263
70	0x3dd65fd1	0.10467494
71	0x3e3f0121	0.18652774
72	0xbd80116c	-0.06253323
73	0xbd053ea5	-0.032530446
74	0xbddcdb04	-0.107839614
75	0x3d2d7ce7	0.042355444
76	0xbd0f3f82	-0.034972675
77	0x3bf1b0ba	0.007375804
78	0x3c8a3e13	0.016875302
79	0xbc33af9d	-0.010967162
80	0x3d486bb2	0.04893083
81	0xbd9ca683	-0.07648947
82	0x3c536275	0.012901892
83	0x3d91b71e	0.07115005
84	0x3dc9338b	0.09824284
85	0xbdfd6632	-0.12373008
86	0xbd018500	-0.03162098
87	0xbeb8b562	-0.36075884
88	0xbcac6c85	-0.02104784
89	0xbcc6edc9	-0.024283307
90	0xbd6feb7a	-0.058574177
91	0xbbe67779	-0.007033285
92	0xbe0a5e09	-0.13512434
93	0xbe2b716f	-0.1674249
94	0x3e490baf	0.19633363
95	0x3e4c24b0	0.1993587
96	0x3c1bf056	0.00951775
97	0xbd3101f9	-0.043214772
98	0x3ded4595	0.11585537
99	0x3e3707c6	0.17874059
100	0x3d89b533	0.06724014
101	0xbe05ebb1	-0.1307819
102	0x3d33696d	0.043801714
103	0xbdb09feb	-0.08624252
104	0x3e387c55	0.18016179
105	0x3dde5db0	0.10857713
106	0x3bd0b2ae	0.0063689565
107	0x3d20198c	0.039086863
108	0x3dd50c9b	0.10402795
109	0x3c486116	0.012230178
110	0x3d9268d2	0.07148899
111	0xbb533e9c	-0.0032233363
112	0x3e488b41	0.19584371
113	0xbd28b915	-0.041192133
114	0xbdda582b	-0.10661348
115	0x3d95ca3b	0.07313963
116	0xbd16a06e	-0.03677409
117	0xbdd846b2	-0.10560359
118	0x3de597ba	0.1121058
119	0xbc2d1047	-0.010562963
120	0xbdfd0bd2	-0.1235577
121	0x3d98dae5	0.07463626
122	0x38445359	4.6807665e-05
123	0xbe3f5d28	-0.1868788
124	0x3d5728cb	0.052529138
125	0x3e014d7d	0.12627216
126	0x3db836a3	0.08994796
127	0xbc2e006d	-0.010620219
128	0x3d88a0cc	0.066712946
129	0x3d21c498	0.039494127
130	0x3d13bf4b	0.036071103
131	0xbce626d0	-0.02809468
132	0xbe1d21b8	-0.15344894
133	0x3da37b2d	0.07982478
134	0xbdffd16c	-0.12491116
135	0xbdc5ab26	-0.096517846
136	0xbe17b8d4	-0.148166
137	0xbdc8ebce	-0.09810601
138	0xbd678e7f	-0.05653238
139	0xbe293df1	-0.16527535
140	0xbdaec55e	-0.085337386
141	0xbde786e4	-0.11305025
142	0x3d265713	0.040610384
143	0x3dca3d65	0.09874991
144	0xbdd34d6e	-0.10317503
145	0xbdb785ee	-0.08961092
146	0x3d35b865	0.044365305
147	0xbc84acca	-0.016195673
148	0xbbf62c0e	-0.007512576
149	0xbd9e5522	-0.077310815
150	0x3e3c5e2b	0.18395297
151	0xbdaf9ffb	-0.08575436
152	0x3dffaee9	0.12484533
153	0x3de6f160	0.112765074
154	0x3d7ed053	0.062210392
155	0xbb65e944	-0.0035081664
156	0xb9c0afa9	-0.0003675197
157	0x3e9780b8	0.29590392
158	0x3d64eca1	0.05588973
159	0x3e60e776	0.21963295
160	0x3d0d25b8	0.0344598
161	0x3d7e65d1	0.06210882
162	0x3e42bd42	0.19017509
163	0x3e2367aa	0.15957513
164	0xbc88bfcc	-0.016693018
165	0xbe76f963	-0.24118571
166	0xbddf2590	-0.10895836
167	0x3d620b19	0.055186365
168	0xbd150a1b	-0.03638659
169	0x3da72347	0.081610255
170	0x3e6065b6	0.219138
171	0xbd7eb40e	-0.062183432
172	0x3e60fa09	0.21970381
173	0xbdb8e2ca	-0.090276316
174	0x3d7386aa	0.059454598
175	0xbdb4347d	-0.08799074
176	0xbdb03af9	-0.08604998
177	0x3da0a2ca	0.078435495
178	0x3df84749	0.121229716
179	0xbce1fa7b	-0.027585259
180	0xbc8c6ed9	-0.0171427
181	0x3cd14415	0.02554516
182	0x3e855088	0.26038003
183	0x3be98116	0.007125984
184	0xbdb99e8b	-0.09063443
185	0x3d8f5f97	0.07000654
186	0xbd93daa6	-0.07219438
187	0xbe70ab04	-0.23502737
188	0xbdbc7581	-0.092020996
189	0xbc4d28dc	-0.012521949
190	0x3d827095	0.063691296
191	0xbdaaacf8	-0.083337724
192	0xbe3d6394	-0.18495017
193	0x3daae30d	0.08344088
194	0xbc8662dd	-0.016404564
195	0xbda9bbeb	-0.08287796
196	0x3d15c53e	0.036565058
197	0xbeaae1ed	-0.33375493
198	0x3dbd54f0	0.09244716
199	0x3db2b221	0.08725382
200	0x3d0a79a0	0.033807397
201	0x3e0bf3a3	0.13667159
202	0xbd8c0744	-0.06837323
203	0x3dab6bdd	0.08370183
204	0xbc58548f	-0.013203754
205	0x3e469931	0.19394375
206	0x3dd11200	0.10208511
207	0x3d9f56a9	0.07780201
208	0xbd8ca41c	-0.06867239
209	0xbdd37fd0	-0.10327113
210	0x3d140830	0.03614062
211	0xbdd7c454	-0.105354935
212	0x3e3d9051	0.18512084
213	0xbe2bf76a	-0.167936
214	0x3e3c7214	0.18402892
215	0x3dc1bf16	0.09460275
216	0xbdb88d1e	-0.09011291
217	0xbdc27a86	-0.09496026
218	0xbe0095ca	-0.1255714
219	0xbdb294f1	-0.087198146
220	0xbe1c0aba	-0.15238467
221	0xbd3c0ec1	-0.045912508
222	0x3ad84e3f	0.0016502811
223	0x3e000600	0.12502289
224	0xbdb336bf	-0.08750676
225	0xbc211373	-0.009831297
226	0x3e0fe446	0.14051923
227	0x3d906f4d	0.07052479
228	0x3d86eb5d	0.06587861
229	0x3e16d584	0.14729887
230	0x3d13e2fc	0.03610514
231	0xbcf6cf0a	-0.03012802
232	0xbd5eac5b	-0.05436359
233	0xbdbb70a4	-0.09152344
234	0xbca7eeae	-0.020499554
235	0x3c396f5a	0.011318052
236	0xbe590a2a	-0.21195284
237	0x3e7188a9	0.23587288
238	0x3e32af50	0.17449689
239	0xbe79b035	-0.24383624
240	0x3d8f41d6	0.06994979
241	0x3ccab0cc	0.024742506
242	0xbbbb8466	-0.0057225702
243	0xbdb69cb8	-0.089166105
244	0x3d99bf97	0.07507246
245	0xbd62a37f	-0.055331703
246	0xbd305afc	-0.04305552
247	0x3d0e2a5f	0.034708377
248	0xbdbacc49	-0.091209956
249	0x3d0669cf	0.03281575
250	0xbe773247	-0.24140273
251	0x3ca91557	0.020640058
252	0x3cd8030b	0.026368639
253	0x3c2d73fb	0.010586734
254	0x3c9b48c9	0.018955605
255	0xbca92a6d	-0.020650113

a2c_network.actor_mlp.2.bias f4 [128]
0	0xbd9672d1	-0.07346118
1	0xbe2fd103	-0.17169575
2	0x3daa5fc0	0.08319044
3	0x3cb9a75e	0.022662815
4	0xbe66f776	-0.22555336
5	0xbe79cb45	-0.24393947
6	0xbc1ad6cd	-0.009450627
7	0x3a83adfa	0.0010046356
8	0x3d1d6a93	0.038431715
9	0xbda5d70c	-0.080976576
10	0xbde42988	-0.11140734
11	0xbdeb30fc	-0.114839524
12	0xbc1014ed	-0.008794052
13	0x3dc40a0f	0.09572231
14	0xbe12bb8d	-0.14329357
15	0xbde62e90	-0.1123935
16	0x3c9f46c3	0.019442922
17	0xbc09e8ff	-0.008417367
18	0xbe0cd806	-0.13754281
19	0xbdaec369	-0.08533365
20	0xbd83fee8	-0.06445104
21	0xbd113931	-0.035454933
22	0x3c247eb9	0.010039979
23	0xbdcd9b8b	-0.10039433
24	0xbc8cdf79	-0.017196404
25	0x3d05d908	0.03267768
26	0xbddd10ec	-0.10794243
27	0x3cd96c6a	0.026540954
28	0xbd403de1	-0.046934012
29	0xbe1d5d4b	-0.1536762
30	0x3dfc7cae	0.12328468
31	0xbd05a782	-0.03263045
32	0x3c5fd900	0.013662577
33	0x3c8d68b8	0.017261848
34	0xbd9b42dc	-0.07581112
35	0xbe471ea9	-0.1944529
36	0xbce1a6b0	-0.027545303
37	0xbcd0984d	-0.025463248
38	0xbda61425	-0.08109311
39	0x3b9cbcd9	0.0047832546
40	0xbc23584d	-0.009969783
41	0xbd36961e	-0.044576757
42	0xbc5fa800	-0.013650894
43	0x3c873f95	0.01650981
44	0xbe7df53a	-0.24800578
45	0xbdbaa5bd	-0.09113643
46	0xbd429e88	-0.04751447
47	0x3a027639	0.0004976723
48	0xbe2433bf	-0.16035365
49	0x3c301b1c	0.010748651
50	0xbe0432bd	-0.1290998
51	0xbd4a2d30	-0.0493595
52	0x3da4601a	0.080261424
53	0xbd7e48fb	-0.06208132
54	0xbd507612	-0.05089385
55	0xbe0033f2	-0.12519816
56	0x3c02344c	0.007947039
57	0xbd99d37c	-0.075110406
58	0x3d5a1ae5	0.053248305
59	0xbe9fcc9e	-0.31210798
60	0xbe107298	-0.14106214
61	0xbcbbdf05	-0.022933492
62	0x3dab6296	0.08368413
63	0xbd288639	-0.04114363
64	0xbddd5078	-0.10806364
65	0xbe6bf179	-0.23041333
66	0x3bf1bb6a	0.007377078
67	0xbea75aa4	-0.3268634
68	0xbe002abb	-0.125163
69	0xbc947180	-0.018120527
70	0xbd741a87	-0.05959561
71	0xbd328bd1	-0.04359037
72	0x3d2e46fd	0.04254817
73	0xbc5f48d8	-0.013628207
74	0xbebb9acd	-0.3664154
75	0xbbaee8f5	-0.0053378292
76	0xbcdf40dd	-0.027252609
77	0xbd811906	-0.06303601
78	0xbd4ea63e	-0.05045151
79	0xbe0de5db	-0.13857214
80	0xbe4c0ac1	-0.19925977
81	0x3c90df20	0.01768452
82	0x3d928d14	0.07155815
83	0xbdb4fa37	-0.08836787
84	0xbe0f6445	-0.14003094
85	0xbda5128f	-0.080601804
86	0x3ca60f39	0.02027093
87	0x3cd613c4	0.026132472
88	0xbdf21bde	-0.118217215
89	0xbdaa0858	-0.08302373
90	0xbdbe4385	-0.09290222
91	0xbdc7c3a8	-0.09754115
92	0xbdb9b6d8	-0.09068078
93	0xbdf6cd9c	-0.120509356
94	0xbe4a779c	-0.1977219
95	0xbd44f640	-0.048086405
96	0xbdae1391	-0.08499826
97	0x3aa68ecf	0.0012707355
98	0x3b1b8018	0.0023727473
99	0xbcb294d2	-0.021799479
100	0x3cfead36	0.031088453
101	0xbd4594d9	-0.048237655
102	0xbc23b16b	-0.00999103
103	0xbe3a214d	-0.18176766
104	0xbd674866	-0.05646553
105	0xbdd9e410	-0.106392026
106	0xbe4cefc5	-0.2001334
107	0xbe17a1a0	-0.14807749
108	0xbdc48182	-0.09595014
109	0x3c8044a1	0.015657725
110	0xbe23447b	-0.15944092
111	0xbdb4d247	-0.0882917
112	0xbe3354f8	-0.17512882
113	0xbd3413d8	-0.043964237
114	0xbbbec59a	-0.005821896
115	0xbe36e1cc	-0.17859572
116	0xbe37e340	-0.17957783
117	0x3d15ef21	0.036605004
118	0x3e216549	0.15761293
119	0xbea9106c	-0.3302034
120	0xbd88922d	-0.06668506
121	0xbc88203a	-0.01661693
122	0xbe0649a3	-0.13114028
123	0xbe4b4621	-0.19850971
124	0xbd242351	-0.040072743
125	0x3cb97e39	0.022643195
126	0xbe2e6466	-0.17030486
127	0xbcacd4a1	-0.021097483

a2c_network.actor_mlp.4.weight f4 [128, 128]
0	0xbdba108f	-0.090851896
1	0x3d39bd63	0.04534663
2	0xbc672222	-0.014107259
3	0x3dd404d8	0.10352486
4	0x3da057e9	0.078292675
5	0xbea6b6f6	-0.32561463
6	0xbdff0947	-0.124529414
7	0x3db3c501	0.0877781
8	0xbd899901	-0.06718636
9	0xbd6d76bc	-0.057974562
10	0x3d6ff0e7	0.05857935
11	0xbd394e4c	-0.045240685
12	0x3d944be3	0.07241037
13	0xbd8895f1	-0.06669224
14	0xbab67106	-0.0013919182
15	0xbd016892	-0.031593867
16	0xbddc8992	-0.10768427
17	0x3d9ab100	0.07553291
18	0x3cd5213e	0.026016828
19	0xbe23b720	-0.15987825
20	0x3d995486	0.07486825
21	0x3d9fb3db	0.077979766
22	0xbc4ddb2d	-0.012564463
23	0x3d96bb1e	0.073599085
24	0x3d8be5f7	0.06830972
25	0xbdb327d1	-0.08747829
26	0x3d3d1838	0.046165675
27	0xbce431cf	-0.027855782
28	0xbdb7c8a1	-0.08973814
29	0xbdcc3240	-0.09970522
30	0xbe075a91	-0.13218142
31	0x3d581695	0.05275591
32	0x3d2bf7bf	0.041984316
33	0xbcfa6bf6	-0.030569058
34	0x3bfd011a	0.0077210786
35	0x3e06b462	0.13154748
36	0xbda54516	-0.08069818
37	0xbe20fa95	-0.1572059
38	0x3d375294	0.044756487
39	0xbdae2039	-0.0850224
40	0x3dcd03c3	0.10010483
41	0xbda3a242	-0.079899326
42	0xbdb11ed2	-0.08648457
43	0xbe03b650	-0.12862515
44	0xbd2e9d06	-0.042630218
45	0xbd09f5ea	-0.033681788
46	0xbce21034	-0.027595617
47	0x3dc93a1a	0.09825535
48	0x3bce1091	0.006288596
49	0xbcdc0edc	-0.026862554
50	0x3defa609	0.117015906
51	0xbd9c5a6e	-0.076344356
52	0x3d661378	0.05617091
53	0x3caa3b0b	0.020780107
54	0xbd85ffa5	-0.06542901
55	0x3df157dc	0.11784336
56	0xbbbe6de6	-0.0058114408
57	0x3dea0d09	0.114282675
58	0x3d1b5173	0.037919473
59	0x3ce5ea9c	0.028065972
60	0xbd6ba83f	-0.0575335
61	0x3d9374aa	0.07199986
62	0x3dba7ace	0.091054544
63	0x3e2fdd60	0.17174292
64	0x3c82fc8f	0.01598957
65	0x3d408b5a	0.047007896
66	0xbc97d929	-0.018536167
67	0x3dd2665b	0.10273429
68	0x3d999f0e	0.075010404
69	0xbba789a9	-0.005112846
70	0x3e587849	0.21139635
71	0xbddf3c0a	-0.109001234
72	0x3a8b791c	0.0010640952
73	0xbdcbc7fc	-0.09950253
74	0x3df8b74a	0.121443346
75	0x3e0898f8	0.13339603
76	0xbda2702e	-0.07931553
77	0x3d8a8f70	0.0676564
78	0x3e299241	0.16559698
79	0x3d9db875	0.07701198
80	0xbc19cff0	-0.009387955
81	0x3d77fe07	0.060544994
82	0x3d01a40a	0.03165058
83	0x3e3a5008	0.18194592
84	0xbe0f00da	-0.13965169
85	0xbcade6ea	-0.021228272
86	0x3d8a8b98	0.06764907
87	0xbd5b04e4	-0.05347146
88	0xbe22ce2e	-0.15898964
89	0x3d4e0a74	0.050302938
90	0x3b865722	0.0040997425
91	0xbe5cf2d9	-0.21577014
92	0x3e66689c	0.22500843
93	0xba57b093	-0.0008227911
94	0xbd3de2cf	-0.04635888
95	0x3e0f60c4	0.14001757
96	0xbbb7840f	-0.0056004594
97	0xbe104760	-0.14089727
98	0x3dad218f	0.084536664
99	0x3d2702fd	0.040774334
100	0xbdf69332	-0.12039794
101	0xbc1a7bf0	-0.009428963
102	0x3d565b6f	0.05233329
103	0xbe08444b	-0.13307302
104	0x3dc2319d	0.09482119
105	0xbddd1656	-0.10795276
106	0x3cc3892e	0.023869123
107	0xbe0946a5	-0.13405855
108	0x3e0a525a	0.13507977
109	0xbd9ce7dc	-0.07661411
110	0x3c84d52d	0.016214931
111	0xbd28e5b9	-0.041234706
112	0xbd9b1b33	-0.07573547
113	0x3dd1d795	0.10246197
114	0xbddd00e1	-0.10791183
115	0xbd8fbf4c	-0.07018909
116	0x3c02a212	0.007973211
117	0xbc8937f9	-0.016750323
118	0xbd528a35	-0.051401336
119	0xbc222a6a	-0.009897808
120	0x3da8d057	0.08242863
121	0x3ac504dc	0.0015031355
122	0xbc8ce43e	-0.017198678
123	0x3dff5f12	0.12469305
124	0xbdc086c4	-0.094007045
125	0xbda2dd0a	-0.07952316
126	0x3e0f71e7	0.14008294
127	0xbe031a18	-0.12802923
128	0xbb8eddc4	-0.0043599326
129	0xbcb9a532	-0.02266178
130	0xbbe05b85	-0.0068468475
131	0xbdc4810f	-0.095949285
132	0x3d75ff08	0.06005767
133	0x3d602781	0.054725174
134	0xbe740f12	-0.23833874
135	0xbc1e32cc	-0.009655666
136	0x3ce77e12	0.028258357
137	0xbd26bed2	-0.040709324
138	0x3d63188c	0.05544333
139	0x3db048cf	0.08607637
140	0xbc47d342	-0.012196364
141	0xbeab7aee	-0.33492225
142	0x3df0b7e5	0.11753825
143	0x3b272c2c	0.0025508506
144	0xbdd6b50f	-0.10483753
145	0xbe001a80	-0.12510109
146	0xbe06dff9	-0.13171376
147	0x3dc36f8d	0.09542761
148	0xbe454c1e	-0.19267318
149	0xbe076fec	-0.13226289
150	0x3e365367	0.17805253
151	0xbd01500c	-0.03157048
152	0x3df43b3e	0.11925362
153	0xbdc5eac1	-0.096639164
154	0x3ce48261	0.0278942
155	0x3b7cbafa	0.0038563595
156	0x3d8351ae	0.064120635
157	0xbe359fa8	-0.17736685
158	0x3dd627ce	0.10456811
159	0x3daa53ed	0.08316789
160	0x3bb98101	0.0056611304
161	0xbde07d47	-0.10961395
162	0xbe57144a	-0.21003833
163	0xbab1197d	-0.0013511624
164	0x3d2bcac4	0.04194142
165	0x3dd0fa3b	0.10203978
166	0x3df5d2e8	0.12003118
167	0xbdb06d92	-0.08614649
168	0xbe12b3b6	-0.14326367
169	0xbd86a0c5	-0.06573633
170	0xbe55d775	-0.20882972
171	0xbdf02119	-0.11725063
172	0x3dc5c8d6	0.09657447
173	0x3d87db28	0.066335976
174	0x3c02ec99	0.00799098
175	0xbd0a682f	-0.033790763
176	0x3e14d90a	0.14535919
177	0xbcb43eaa	-0.022002537
178	0x3dcce40f	0.10004436
179	0xbb500e9e	-0.0031746994
180	0xbe1e200d	-0.15441914
181	0x3c0436c2	0.008069696
182	0xbddd3ac9	-0.10802228
183	0x3d406e93	0.04698045
184	0xbd57d870	-0.052696645
185	0x3dd4fd00	0.103998184
186	0xbd8be7d4	-0.06831327
187	0x3da24a1d	0.07924292
188	0x3c85b391	0.016320975
189	0xbe87862b	-0.2646955
190	0xbe173cd2	-0.14769295
191	0xbd7c246a	-0.061558165
192	0xbd9c5994	-0.07634273
193	0xbc4132c9	-0.011791893
194	0x3c233970	0.009962425
195	0x3e1ff7bd	0.15621848
196	0x3e2e278f	0.17007278
197	0xbcd98134	-0.026550867
198	0xbe606e89	-0.21917166
199	0x3e37776a	0.17916647
200	0x3d63f68d	0.05565505
201	0x3c2e9f4b	0.010658096
202	0x3e2ba248	0.16761124
203	0xbd2db204	-0.042406097
204	0x3e30e3cd	0.17274399
205	0x3b771050	0.0037698932
206	0x3dd15d63	0.1022289
207	0x3e49ac7b	0.19694702
208	0xbc86d1a5	-0.016457388
209	0xbdde216c	-0.108462185
210	0x3db715ea	0.08939727
211	0xbeb2c702	-0.34917456
212	0x3e065e10	0.1312182
213	0xbdc84bb2	-0.09780063
214	0xbe155748	-0.14584076
215	0x3d35bca0	0.04436934
216	0x3cd8d033	0.026466465
217	0x3cf2078a	0.02954461
218	0xbd65953a	-0.056050517
219	0xbde25a49	-0.11052377
220	0xbe051af3	-0.12998562
221	0xbd9386dd	-0.072034575
222	0x3d890ce8	0.06691915
223	0x3deae47b	0.114693604
224	0x3e8c154e	0.27360004
225	0xbe2ddb83	-0.16978268
226	0x3e343205	0.17597206
227	0xbe1e02ff	-0.1543083
228	0x3e466276	0.19373497
229	0x3d7de431	0.0619852
230	0x3d156cd9	0.03648076
231	0xbd97d0b4	-0.07412854
232	0x3e240d81	0.16020776
233	0x3e6ee499	0.2332939
234	0xbdbb4f2b	-0.091459595
235	0xbcaac323	-0.020845002
236	0xbb47e6d6	-0.003050258
237	0xbdc5878d	-0.09644995
238	0xbc81c7d1	-0.01584235
239	0x3d0c8ca1	0.0343138
240	0xbc0d2646	-0.008615082
241	0x3e284b54	0.16434985
242	0x3da46a62	0.080281034
243	0x3e9b874e	0.30376667
244	0xbe03ebee	-0.12882969
245	0x3e569d46	0.20958433
246	0xbcac2b23	-0.021016663
247	0x3da5d372	0.080969706
248	0xbba12ccf	-0.0049186717
249	0x3e3262dc	0.17420524
250	0xbe390816	-0.18069491
251	0x3ceb51b3	0.02872548
252	0x3e20d90c	0.15707797
253	0x3d88a468	0.06671983
254	0xbe5077e5	-0.20358236
255	0x3e069f82	0.13146785

a2c_network.actor_mlp.4.bias f4 [128]
0	0x3d07228c	0.03299193
1	0xbe01cc24	-0.1267553
2	0xbe0023e6	-0.12513694
3	0xbd9cb00f	-0.07650768
4	0xbe086f17	-0.13323627
5	0xbd5015e6	-0.050802134
6	0xbdb4829d	-0.08813975
7	0xbe2be5f2	-0.16786936
8	0xbd792264	-0.060823813
9	0x3c4b6aa1	0.012415559
10	0xbe6f306a	-0.23358312
11	0xbd8746cc	-0.066053
12	0xbd88bf58	-0.06677121
13	0xbde7426b	-0.11291965
14	0xbe0dd935	-0.13852389
15	0xbdb81bfe	-0.08989714
16	0xbcd45ea4	-0.025924034
17	0xbe07a42a	-0.13246217
18	0xbdbdb0b9	-0.09262223
19	0xbd1086b0	-0.035284698
20	0x3d30b638	0.043142527
21	0xbde4c2fb	-0.11170002
22	0xbda7450b	-0.08167466
23	0xbd0400ce	-0.03222733
24	0xbe005233	-0.12531357
25	0xbd7647de	-0.06012713
26	0xbe0684a0	-0.1313653
27	0x3da858b5	0.082200445
28	0x3e196d52	0.14983109
29	0xbd311306	-0.043231033
30	0xbcb587d5	-0.022159496
31	0xbd59e7c9	-0.053199563
32	0x3d0ebb74	0.034846738
33	0xbe085d23	-0.13316779
34	0x3caeff27	0.0213619
35	0xbe4c70ce	-0.19964907
36	0xbe1126f0	-0.1417501
37	0xbd4252bd	-0.047442187
38	0xbdaa892a	-0.08326943
39	0x3c002439	0.007821136
40	0x3dce5a22	0.10075785
41	0xbdc7e1a5	-0.09759835
42	0x3b1fa321	0.0024358707
43	0xbda3db54	-0.08000818
44	0xbe3420c3	-0.17590623
45	0xbce98886	-0.028507482
46	0x3bd39dc8	0.006458018
47	0x3d22cafd	0.039744366
48	0x3d75cbbf	0.06000876
49	0xbdc83622	-0.0977595
50	0xbd0e74c9	-0.034779344
51	0xbce86b78	-0.028371558
52	0xbd0fdc01	-0.03512192
53	0x3e76a4c4	0.2408629
54	0x3bf8cb62	0.0075926045
55	0xbd0e358f	-0.034719046
56	0x3c9dbd2e	0.019255247
57	0xbaa142fe	-0.001230329
58	0xbe0b73a9	-0.1361834
59	0x3dc81eaf	0.097714774
60	0x3d3cc45e	0.046085708
61	0xbe0d79dc	-0.13816017
62	0xbc06e014	-0.008232135
63	0xbd076fb7	-0.033065524
64	0xbd0c4127	-0.03424182
65	0xbd89a56d	-0.067210056
66	0xbdad0b95	-0.08449475
67	0xbc9195a0	-0.017771542
68	0xbc846ae3	-0.016164249
69	0x3b68215a	0.003542027
70	0x3d5325bd	0.051549662
71	0x3c58abb3	0.01322453
72	0xbde9ed3d	-0.11422203
73	0xbd6d8f0d	-0.057997752
74	0x3d7ef72a	0.062247433
75	0xbe2db909	-0.16965117
76	0x3d495572	0.049153753
77	0x3bc18819	0.0059061167
78	0xbc1fb0b4	-0.009746719
79	0xbd9db8eb	-0.07701286
80	0x3cde511b	0.027138283
81	0xbd80fa86	-0.062977836
82	0xbde0936a	-0.10965617
83	0xbde4b40c	-0.11167154
84	0x3bcca072	0.0062447125
85	0xbd14188c	-0.036156222
86	0xbb5479b8	-0.0032421183
87	0xbd5fb1fe	-0.054613106
88	0x3c4f245e	0.012642948
89	0xbd8decb6	-0.06929915
90	0xbdd80ebb	-0.105496846
91	0x3d933ff0	0.071899295
92	0xbd4004e8	-0.04687968
93	0xbd9040b6	-0.07043593
94	0x3e60ee73	0.21965961
95	0xbca44ff1	-0.02005765
96	0xbd3654d8	-0.044514507
97	0xbdf561af	-0.11981522
98	0x3b29f801	0.0025935175
99	0xbc0dbb2e	-0.008650584
100	0xbdbb8bd7	-0.09157532
101	0xbd07dcec	-0.033169672
102	0x3b18c54f	0.0023310964
103	0xbd91ada8	-0.071132004
104	0xbc9b4398	-0.01895313
105	0xbc8b4fd7	-0.017005844
106	0xbe5adcbf	-0.2137327
107	0x3b6b05da	0.0035861642
108	0x3c135c9d	0.008994249
109	0xbd4f14e5	-0.050557036
110	0xbd88ecef	-0.066858165
111	0x3d97465f	0.07386469
112	0xbd1b53ce	-0.03792172
113	0x3d4cc4fc	0.049992546
114	0xbd75186f	-0.059837755
115	0xbdf42a26	-0.11922102
116	0xbd2bd74c	-0.04195337
117	0xbd506e9b	-0.05088673
118	0x3c9f71d3	0.019463455
119	0x3c2d3ea9	0.010574021
120	0xbe3bfda2	-0.18358472
121	0xbd5c3b4e	-0.053767495
122	0xbd2f6b9b	-0.04282723
123	0x3907a5f0	0.0001293642
124	0x3cd23556	0.025660198
125	0xbe275955	-0.16342671
126	0x3cfc5bf4	0.030805565
127	0xbc0ed01c	-0.008716609

a2c_network.value.weight f4 [1, 128]
0	0xbc430f95	-0.0119055705
1	0xbc31fb92	-0.010863202
2	0xbd2ea38b	-0.042636435
3	0x3aa3ed92	0.0012506715
4	0x3d4f4e5b	0.050611835
5	0x3c78e0bb	0.015190299
6	0x3bd6f714	0.0065602157
7	0x3cf4389a	0.029812146
8	0xbcd86f71	-0.026420327
9	0x3cba2b56	0.022725742
10	0xbd8f1d26	-0.069879815
11	0xbc7d1373	-0.015446532
12	0x3cbe1890	0.023205072
13	0x3c70b27c	0.0146909915
14	0x3ca958d5	0.020672241
15	0x3bea81fd	0.007156609
16	0x3ce877a3	0.02837736
17	0xbce128ee	-0.027485337
18	0x3bb77846	0.0055990545
19	0x3cd7dfee	0.026351895
20	0xbc9f4cdd	-0.019445831
21	0x3b2a9091	0.002602611
22	0xbcbd5aa5	-0.023114512
23	0xbaeb0040	-0.0017929152
24	0xbc224b29	-0.009905615
25	0xbc3f1ac6	-0.011664098
26	0x3c4468e9	0.011987903
27	0x3d8033d7	0.06259888
28	0x3d73d2ef	0.059527334
29	0xbca27fe4	-0.019836374
30	0xbcb75831	-0.02238092
31	0xbdd8c490	-0.10584366
32	0x3ad2819d	0.0016060356
33	0x3bddd596	0.006769846
34	0xbcbddd8d	-0.023176933
35	0xbd7d8f66	-0.061904334
36	0x3c51d3c0	0.012806833
37	0x3cd0f568	0.025507644
38	0xbcd8f9f7	-0.02648638
39	0x3c2b3f75	0.010452141
40	0x3d58ce4b	0.05293111
41	0xbc401932	-0.011724757
42	0x38dbb340	0.00010476122
43	0xba729010	-0.00092530344
44	0xbd954bc4	-0.07289842
45	0x3cfe5eeb	0.03105112
46	0x3d08ed14	0.03342922
47	0x3c91709c	0.017753892
48	0x3bc4092f	0.00598254
49	0x3d01aa53	0.031656574
50	0x3c1c2c1d	0.009532002
51	0x3c587c6b	0.013213257
52	0x3d166ec3	0.036726724
53	0x3e627072	0.22113207
54	0xbbc8714a	-0.0061170207
55	0xbd1ca4a4	-0.03824295
56	0xbc7561e4	-0.014976952
57	0x3ccf3090	0.025291711
58	0xbcea19c1	-0.028576734
59	0x3d89cb24	0.06728199
60	0xbc105ad2	-0.008810716
61	0x3983ad9f	0.00025115625
62	0xbd30bbc7	-0.04314783
63	0x3a2535da	0.0006302275
64	0xbc89f8f2	-0.01684234
65	0x3bdd2336	0.0067485822
66	0xbc816f70	-0.015800208
67	0xbba9d598	-0.005182933
68	0xbbd85d1c	-0.0066028964
69	0x3d0e0cac	0.034680054
70	0xbc9a18d9	-0.018810676
71	0x3c1defe6	0.009639716
72	0xbb4eddbd	-0.0031565272
73	0xbc8b9f60	-0.01704377
74	0x3d5f1232	0.05446071
75	0xbcfeea43	-0.031117564
76	0x3d37c4d1	0.044865433
77	0xba5cd80f	-0.0008424529
78	0xbc87f48e	-0.016596105
79	0x3c11019b	0.00885048
80	0x3d53be53	0.05169518
81	0x3d0cf496	0.034412943
82	0x3c2553c5	0.010090773
83	0x3ca2fb5d	0.01989525
84	0xbbbca2ba	-0.005756703
85	0xbc7c0b68	-0.015383579
86	0x3d4f88f2	0.05066771
87	0xbbe443ef	-0.006966106
88	0x39ed3d83	0.00045249992
89	0x3c1c8478	0.009553067
90	0xbb552634	-0.0032523992
91	0x3ccfb76e	0.02535602
92	0xbe34bd7d	-0.17650409
93	0xbd03e3d5	-0.0321997
94	0x3e4d4727	0.20046674
95	0x3a36531a	0.0006955132
96	0xbc631f9f	-0.0138625195
97	0x3c1c976c	0.009557586
98	0xbd6298b0	-0.055321395
99	0x3c5e42ff	0.013565778
100	0xbcb134ef	-0.021631686
101	0xbd3f64b3	-0.046726894
102	0x3d306c16	0.04307183
103	0x3abd6501	0.0014449657
104	0x3ca9deb5	0.020736078
105	0xbd1a8ac8	-0.03773001
106	0x3b633501	0.0034669044
107	0xbd6e3226	-0.058153294
108	0x3be15efb	0.0068777776
109	0xbc7a3589	-0.015271553
110	0x3b2ff9f1	0.0026851858
111	0xbda5b611	-0.08091367
112	0x3cdb0b54	0.0267388
113	0x3d38f44d	0.04515486
114	0x3ba6d3ba	0.0050911577
115	0x39e06eba	0.00042807107
116	0x3c84219b	0.016129306
117	0xbd72b850	-0.059257805
118	0xbbe1ca8f	-0.006890602
119	0xbd8bca6b	-0.068257175
120	0xbb6dd46d	-0.0036289946
121	0xbca610e9	-0.020271735
122	0xbd384594	-0.04498823
123	0xbd86fc8d	-0.06591139
124	0xbb9ed956	-0.004847686
125	0xbc069631	-0.008214519
126	0xbc835302	-0.016030792
127	0xbca51b4a	-0.020154614

a2c_network.mu.weight f4 [18, 128]
0	0x3e51a9fd	0.20475002
1	0xbc32cc35	-0.010912945
2	0x3caaa0dd	0.020828659
3	0x3d8a4fc8	0.06753498
4	0xbd3be73f	-0.04587483
5	0xbd3044aa	-0.043034233
6	0xbc9bc0c5	-0.019012818
7	0x3d721d95	0.059110243
8	0xbcf5c4aa	-0.030001003
9	0xbd76d60c	-0.060262725
10	0xbb0b8601	-0.002128959
11	0xbd4dd60d	-0.050252963
12	0xbc9f3c86	-0.01943804
13	0x3d0510ea	0.032486834
14	0x3e154634	0.14577562
15	0x3d8b8369	0.06812174
16	0x3bb0aae8	0.0053914674
17	0x3ccc46e2	0.024936143
18	0x3cc11266	0.023568343
19	0xbe71cd31	-0.2361343
20	0xbd8816b3	-0.066449545
21	0xbd7f6a7b	-0.062357407
22	0x3e113f87	0.1418439
23	0xbd9e72e5	-0.07736758
24	0xbe14f9ef	-0.14548467
25	0x3e39ee9f	0.18157433
26	0x3cd61af0	0.026135892
27	0xbdf28056	-0.118408844
28	0xbd0f9d80	-0.035062313
29	0xbd2042c5	-0.039126176
30	0x3d9c8e35	0.07644311
31	0x3d85fba4	0.06542137
32	0x3dc5dc6d	0.096611835
33	0xbe328d03	-0.17436604
34	0x3bb4e58f	0.0055205296
35	0x3cef4b7c	0.029210798
36	0x3d1da9fa	0.03849218
37	0x3d5e5dee	0.054288797
38	0xbd806580	-0.062693596
39	0xbd0dfe5d	-0.034666408
40	0x3dd12ce7	0.102136426
41	0xbd5ad31d	-0.05342399
42	0xbd356d48	-0.04429367
43	0xbcf026c4	-0.02931536
44	0xbd7011cf	-0.058610734
45	0xbe2c596f	-0.16830991
46	0x3d33f73e	0.04393696
47	0x3d956bea	0.072959736
48	0xbcf6d5dc	-0.030131273
49	0xbc6056f9	-0.013692611
50	0x3dcc844a	0.0998617
51	0x3eb7d458	0.35904193
52	0xbda70393	-0.081549786
53	0xbd220e3a	-0.03956435
54	0x3d792920	0.060830235
55	0xbdfd6980	-0.12373638
56	0x39a77dfd	0.0003194659
57	0x3cbe7d95	0.023253242
58	0x3c57a502	0.0131618995
59	0x3e5adde1	0.21373703
60	0x3d90e3cc	0.07074699
61	0x3df9c588	0.12195879
62	0x3e05fcf0	0.13084769
63	0x3cd38fee	0.025825467
64	0xbd4df86c	-0.05028574
65	0xbd99b530	-0.07505262
66	0x3e7344b6	0.2375668
67	0xbc805420	-0.015665114
68	0xbdb3437a	-0.087531045
69	0xbc29588c	-0.010336053
70	0x3a828975	0.0009959178
71	0xbd8c5251	-0.06851638
72	0x3e096a85	0.1341954
73	0x3d72f4ae	0.059315376
74	0x3e068dda	0.1314005
75	0x3e324a19	0.17411079
76	0xbccd78c5	-0.025082001
77	0xbd8e9fb3	-0.06964054
78	0x3d6b2de0	0.057416797
79	0x3e002e8b	0.12517755
80	0x3e2a4d81	0.16631128
81	0x3d02b791	0.031913344
82	0x3dc34468	0.09534532
83	0xbd0046f4	-0.031317666
84	0x3cfbe9e1	0.03075117
85	0x3e17a597	0.14809261
86	0x3e76d889	0.24106039
87	0x3e02df9b	0.12780611
88	0xbdfcfb81	-0.12352658
89	0xbdb9021f	-0.09033608
90	0xbdcc3478	-0.09970945
91	0x3d3c2bd2	0.045940228
92	0x3cf21537	0.029551132
93	0xbc93bb01	-0.018033506
94	0x3ddb3f44	0.10705426
95	0xbdad8279	-0.08472151
96	0x3dd73526	0.10508184
97	0x3c08a86f	0.008340939
98	0xbd6f5a35	-0.058435638
99	0x3e14c750	0.14529157
100	0xbe24143c	-0.16023344
101	0xbd9438ea	-0.07237418
102	0xbce2bfdd	-0.027679378
103	0x3d6a31ba	0.05717633
104	0xbbdf6897	-0.006817888
105	0xb9614c02	-0.00021485987
106	0xbdfbcd17	-0.12294977
107	0xbdee59a6	-0.11638193
108	0x3d7853e7	0.06062689
109	0xbbce7f1b	-0.0063017732
110	0xbdbff9c4	-0.09373811
111	0xbde88e94	-0.113553196
112	0x3e0d51d2	0.13800743
113	0xbe1f656f	-0.15566038
114	0xbd0c5f31	-0.03427047
115	0x3c433397	0.011914155
116	0xbc54db43	-0.012991729
117	0xbd436378	-0.047702283
118	0xbdea1d68	-0.1143139
119	0x3d9050c8	0.07046658
120	0x3d81dfe2	0.063415304
121	0xbdd3b7d3	-0.10337796
122	0x3c6d3be8	0.014479615
123	0xbd34b028	-0.04411331
124	0xbdcf6ba0	-0.1012795
125	0x3d2ad0e0	0.041703105
126	0xbe5ef4d9	-0.2177309
127	0x3cb02d80	0.021506071
128	0x3b846800	0.004040718
129	0x3cfdf341	0.030999782
130	0x3c6818fb	0.014166112
131	0x3e3e02af	0.18555711
132	0xbbfbb7d3	-0.0076818257
133	0xbe19a357	-0.15003715
134	0xbd2eba98	-0.04265842
135	0xbd806545	-0.06269316
136	0x3e0cc38a	0.13746467
137	0x3ce91371	0.028451653
138	0xbdab5b09	-0.08366973
139	0xbd8cc8cc	-0.068742365
140	0xbd7dbeb9	-0.061949465
141	0x3d2bf22b	0.041978996
142	0xbe6f37de	-0.23361155
143	0xbc78b218	-0.01517918
144	0xbc4c1218	-0.012455486
145	0x3ddc7949	0.10765321
146	0xbdeb6b2b	-0.1149505
147	0xbdda6327	-0.10663443
148	0xbc5a7f3c	-0.013335999
149	0xbe4ebbea	-0.20188871
150	0x3de23121	0.11044527
151	0x3d7c6604	0.061620727
152	0xbda7521f	-0.0816996
153	0xbe540dba	-0.20708361
154	0xbd64f495	-0.055897314
155	0xbd05e6ab	-0.032690685
156	0xbdae1e60	-0.08501887
157	0x3a2a5ad9	0.00064985227
158	0xbd54f117	-0.051987734
159	0xbd25aa53	-0.040445637
160	0x3cc253b8	0.02372156
161	0xbe22e5ef	-0.15908025
162	0xbda88da8	-0.08230144
163	0x3ca579c5	0.020199666
164	0x3e952566	0.29130095
165	0x3db9d323	0.09073474
166	0x3d86c47c	0.06580445
167	0xbcf3aaea	-0.029744584
168	0x3b8eed48	0.004361782
169	0x3d871392	0.065955296
170	0xbd44979b	-0.047996145
171	0x3d3a9a55	0.04555734
172	0xbd1cfa3d	-0.038324583
173	0x3dfbd5d2	0.12296642
174	0x3d830ed1	0.063993104
175	0xbdc93013	-0.098236226
176	0xbd664005	-0.056213398
177	0xbe798fa8	-0.24371207
178	0x3d288e10	0.041151106
179	0x3ce6b2ff	0.028161524
180	0x3e45ec84	0.19328505
181	0xbe027647	-0.12740432
182	0xbe51f873	-0.20504932
183	0xbe10663e	-0.14101502
184	0xbd7bff77	-0.061522927
185	0x3db08cea	0.08620627
186	0x3ca5add1	0.020224484
187	0x3d8fdadf	0.07024168
188	0xbd99fb35	-0.07518617
189	0xbe186fc2	-0.14886382
190	0xbd4e1a79	-0.050318215
191	0x39ea23f6	0.0004465875
192	0x3e1c0210	0.15235162
193	0xbd08affb	-0.033370953
194	0x3de829e8	0.11336118
195	0x3baed6bc	0.005335657
196	0xbcee4bfc	-0.029088967
197	0x3d24869c	0.040167436
198	0xbdee9e7d	-0.11651323
199	0xbd21d03a	-0.03950522
200	0x3e290a96	0.16507944
201	0xbe08f435	-0.13374408
202	0xbca09bdb	-0.019605568
203	0x3da68e57	0.08132618
204	0xbda5e00d	-0.08099375
205	0xbd273a56	-0.040827118
206	0xbd0855e9	-0.033285055
207	0xbc69ad77	-0.014262549
208	0x3cdb5395	0.026773253
209	0x3e5c2a61	0.21500541
210	0xbdae3193	-0.08505549
211	0x3e863931	0.2621551
212	0xb99bd74b	-0.0002972431
213	0xbcb4bd3c	-0.02206289
214	0x3cb9556c	0.02262374
215	0x3bdd459d	0.0067526833
216	0xbbd381ca	-0.006454681
217	0xbdf8436e	-0.12122236
218	0x3ea286e2	0.31743532
219	0xbd8a5140	-0.067537785
220	0xbd6c82e4	-0.057742015
221	0xbbe0062b	-0.006836673
222	0x3d9d510a	0.076814726
223	0xbb5280bb	-0.0032120186
224	0x3dda1f1c	0.10650465
225	0x3dee515a	0.1163661
226	0xbddd90d3	-0.10818639
227	0xbe706996	-0.23477778
228	0x3e66be21	0.22533466
229	0xbdacc360	-0.08435702
230	0x3a4dee75	0.0007855662
231	0xbda37a8a	-0.07982357
232	0xbd0ecd14	-0.034863546
233	0x3bd8838a	0.0066074776
234	0xbdb3f661	-0.087872274
235	0x3cf47333	0.029840088
236	0xbdbc94d0	-0.09208071
237	0xbcbdfa10	-0.023190528
238	0x3cea26a2	0.028582875
239	0xbc53b89d	-0.012922433
240	0xbb0e99fd	-0.0021759265
241	0x3cddfdb3	0.027098512
242	0x3df28ab1	0.118428595
243	0x3de28ce4	0.11062029
244	0xba3a690e	-0.0007110991
245	0x3cdd8a5f	0.02704352
246	0xbe3bf434	-0.18354875
247	0x3da07140	0.07834101
248	0x3cbf80b5	0.023376802
249	0xbd950255	-0.072758354
250	0x3e00a23b	0.12561886
251	0xbc30c3eb	-0.010788898
252	0x3d7f073c	0.06226276
253	0xbd2b290e	-0.0417872
254	0x3d086baf	0.03330582
255	0xbe043c1c	-0.12913555

a2c_network.mu.bias f4 [18]
0	0x3c6fe8a1	0.014642865
1	0xbbee6b8a	-0.0072760032
2	0x3d8522e4	0.065007955
3	0xbd53abee	-0.051677637
4	0x3d93af65	0.07211188
5	0xbcb56eac	-0.022147499
6	0x3e59ddb9	0.21275987
7	0xbc6f8493	-0.0146190105
8	0x3de6cff6	0.11270134
9	0x3d7b8726	0.061408184
10	0x3c0616ae	0.008184118
11	0x3e4ee744	0.20205408
12	0xbc5aaa38	-0.013346247
13	0xbdae0e70	-0.084988475
14	0x3d1a6603	0.037694942
15	0xbd012eaf	-0.03153866
16	0x3d76237e	0.06009244
17	0x3da65434	0.08121529

exp_avg f4 [18]
0	0xb8db7965	-0.00010465345
1	0xba08ee2f	-0.00052234804
2	0x3a84f537	0.001014388
3	0x397975fb	0.00023790442
4	0x3aa4e976	0.0012581784
5	0xb99e7073	-0.0003021989
6	0x3a146595	0.0005660889
7	0x395d4982	0.00021103586
8	0x38faf274	0.000119660894
9	0x3a707385	0.0009172487
10	0x3ab2240d	0.0013591066
11	0x39bb8f8e	0.00035774376
12	0xba2ac0b8	-0.00065137027
13	0xba2c5975	-0.00065746094
14	0xb8ed6d16	-0.000113213595
15	0xba6a16da	-0.0008929797
16	0xb9766861	-0.00023499272
17	0xb96fa69d	-0.00022854884

exp_avg_sq f4 [18]
0	0x37700076	1.4305222e-05
1	0x37817178	1.5430836e-05
2	0x37650a7a	1.3651903e-05
3	0x3754f072	1.2692168e-05
4	0x376437ff	1.3602897e-05
5	0x377840ae	1.4797011e-05
6	0x3777ed7b	1.477764e-05
7	0x3772ea78	1.4478916e-05
8	0x375bbcbe	1.3097362e-05
9	0x37685b6b	1.38495625e-05
10	0x376f55ef	1.4265518e-05
11	0x3754a492	1.2674502e-05
12	0x377e49e3	1.5156783e-05
13	0x3742f579	1.1620455e-05
14	0x3774db85	1.4594644e-05
15	0x375f9707	1.3327e-05
16	0x374c821f	1.2189644e-05
17	0x3772ac26	1.44644055e-05

exp_avg f4 [128, 66]
0	0x397f5309	0.00024349628
1	0x38a49eca	7.849706e-05
2	0x37e551d8	2.7337039e-05
3	0x38952959	7.112575e-05
4	0x39432120	0.00018608989
5	0x397ca1dc	0.0002409289
6	0xb7c017fb	-2.289935e-05
7	0xb7d5526b	-2.5429958e-05
8	0x3a7a71d5	0.00095537055
9	0x39c0069f	0.00036626027
10	0x38bb305f	8.925865e-05
11	0x38c85b4c	9.5537485e-05
12	0xb721a26d	-9.6341655e-06
13	0x386c5cca	5.63532e-05
14	0xb74baf49	-1.2140555e-05
15	0x38563b94	5.1077062e-05
16	0xb6ed2585	-7.0675183e-06
17	0x38f98d7c	0.00011899599
18	0xb8ac021f	-8.201994e-05
19	0xb8d45ad9	-0.000101258694
20	0xb8877fe6	-6.4611246e-05
21	0xb85e734b	-5.30363e-05
22	0xb72f848b	-1.0461673e-05
23	0x38a34fa3	7.787279e-05
24	0x3917cbf6	0.00014476464
25	0x38c15784	9.219258e-05
26	0xb8490881	-4.7930054e-05
27	0xb8b65cb4	-8.6957036e-05
28	0xb9085ddb	-0.00013004935
29	0xb8f010c4	-0.00011447215
30	0xb982da74	-0.00024958292
31	0x39de7c1a	0.00042435603
32	0xb86d4672	-5.657081e-05
33	0xbaa3a7bc	-0.0012485902
34	0x39e544d8	0.00043729576
35	0xba56219c	-0.00081684603
36	0x3a4eaaea	0.00078837445
37	0x38e444a6	0.00010884674
38	0xb9d082bb	-0.00039770253
39	0xba3bb740	-0.000716079
40	0x392cc498	0.00016476435
41	0x39aa612d	0.00032497328
42	0x3ab8efb0	0.0014109518
43	0x3a8fcf26	0.0010971769
44	0xba3460f9	-0.0006880905
45	0x3a6c3ac1	0.00090114406
46	0xbb03990e	-0.0020080241
47	0xb9e26eac	-0.00043188536
48	0xb9996d48	-0.00029263855
49	0x399ceae4	0.00029929646
50	0x38982b23	7.25596e-05
51	0xb80882ea	-3.254685e-05
52	0x38fbf8e4	0.00012014972
53	0x3a279a6d	0.00063935557
54	0x397140fe	0.00023007763
55	0xb8bf453d	-9.120486e-05
56	0xb9b53a39	-0.0003456639
57	0x39268502	0.00015880543
58	0x395c47a0	0.00021007517
59	0x3a60ce79	0.00085756887
60	0x3a12f8cc	0.00056065316
61	0x39d76b4c	0.00041087938
62	0x369b7cf5	4.633907e-06
63	0xb9fa5f4c	-0.00047754718
64	0xba5bfa4e	-0.00083914853
65	0xba26329b	-0.0006339938
66	0xb925b41b	-0.00015802721
67	0xb990f0dc	-0.00027645275
68	0xb6d5aaad	-6.367764e-06
69	0x39e0a3cf	0.00042846656
70	0x392dbd50	0.0001656909
71	0xb7e2023e	-2.6942344e-05
72	0x37b12c2a	2.112061e-05
73	0x38a54dc6	7.8822995e-05
74	0x39870f26	0.00025760493
75	0xb9fc5f9b	-0.00048136417
76	0xb9e88e20	-0.0004435638
77	0x381959a9	3.6561545e-05
78	0x388afd40	6.627524e-05
79	0xb616fba3	-2.2498214e-06
80	0xb6750578	-3.6511028e-06
81	0x37c8c104	2.3931738e-05
82	0x383f2bb9	4.557867e-05
83	0xb8011b04	-3.0781157e-05
84	0x393321db	0.00017083382
85	0x384270b9	4.6358186e-05
86	0xb8bad5a4	-8.908965e-05
87	0x38a19663	7.70509e-05
88	0xb87ef1e0	-6.0783583e-05
89	0xb9466e7b	-0.00018923909
90	0xb9246e93	-0.00015681451
91	0xb9314870	-0.0001690702
92	0x3792890a	1.746837e-05
93	0xb8c1a8ce	-9.2343995e-05
94	0x38f1a4aa	0.000115224466
95	0x38c5ef9a	9.438321e-05
96	0x3add3802	0.0016877654
97	0xb9eaf186	-0.00044811907
98	0x3ad2c17c	0.0016079391
99	0xbac399b0	-0.0014923122
100	0x3a993c9a	0.0011691034
101	0xba5453a8	-0.0008099624
102	0x3a45563c	0.00075278035
103	0xba8edf0a	-0.0010900211
104	0x3a67049f	0.0008812639
105	0xb929c382	-0.00016189928
106	0xbaabec03	-0.0013116602
107	0xb98c010b	-0.00026703658
108	0xb9d6b412	-0.00040951424
109	0xb9ffc558	-0.00048784423
110	0xb9bee84c	-0.000364127
111	0xba8d16e9	-0.0010764274
112	0x3b19245d	0.0023367621
113	0xb96115d6	-0.00021465807
114	0x3a4752ea	0.0007603603
115	0xb9287ecd	-0.00016068965
116	0x399be89a	0.00029737205
117	0xb98ea231	-0.00027205193
118	0x3a538132	0.0008068263
119	0xb99d6333	-0.00030019283
120	0x3a949a28	0.0011337446
121	0x385109ec	4.9838723e-05
122	0xb8f053cc	-0.000114597
123	0x39b09d4c	0.0003368653
124	0xb9930643	-0.0002804269
125	0xbaa81910	-0.0012824852
126	0xba3ad570	-0.00071271416
127	0xba0fbf24	-0.0005483499
128	0xb9904d1b	-0.00027523268
129	0xb938167c	-0.00017555984
130	0x3a45eb00	0.00075499713
131	0x3a1bb57e	0.0005939825
132	0x38f2e1bd	0.00011581506
133	0x39857ff7	0.00025463078
134	0xb91ee6e5	-0.00015154069
135	0x3902864e	0.00012447799
136	0x393ba07d	0.00017893496
137	0x3941b64b	0.00018473824
138	0xb805324d	-3.1756517e-05
139	0xb845615e	-4.705914e-05
140	0x38c809f6	9.5385985e-05
141	0x398f6a75	0.00027354402
142	0x39cdbfee	0.00039243646
143	0x38fd409b	0.00012076014
144	0xb8175940	-3.6084326e-05
145	0x3784437b	1.576705e-05
146	0xb85fe100	-5.337689e-05
147	0xb8342b19	-4.2955482e-05
148	0x3770f8d7	1.4363052e-05
149	0xb5ad038f	-1.289054e-06
150	0xb8e114d8	-0.000107327185
151	0xb79c57ef	-1.8637596e-05
152	0x36d67b84	6.392076e-06
153	0xb87ded5a	-6.054095e-05
154	0x384c3ae3	4.8692233e-05
155	0x391230b3	0.00013941787
156	0x38f7794b	0.000118004704
157	0x38c55f94	9.411495e-05
158	0xb8281da2	-4.008192e-05
159	0x381c8a8d	3.7322334e-05
160	0xb9058032	-0.00012731625
161	0xb925f25e	-0.00015825915
162	0x3b0a2990	0.0021081902
163	0xbab997ba	-0.0014159598
164	0x378a760b	1.650585e-05
165	0xbb183d2b	-0.0023229818
166	0x3abb04fc	0.0014268453
167	0xba1d7c6d	-0.00060076156
168	0x399e5331	0.0003019809
169	0x3ad1f4a0	0.0016018339
170	0x38a94440	8.0712605e-05
171	0x39d97aae	0.0004148087
172	0x37712ddb	1.4375396e-05
173	0x3a2680c9	0.0006351588
174	0x3a74fe91	0.00093457947
175	0x39ea6f77	0.00044715006
176	0xb9302b51	-0.00016800805
177	0xba70cd65	-0.00091858796
178	0x395fd108	0.00021344807
179	0xb89030f0	-6.8755704e-05
180	0x398ce794	0.0002687542
181	0xb9569e9e	-0.0002046772
182	0xb9d0de07	-0.00039838275
183	0xba1dd600	-0.0006020963
184	0x3991c069	0.00027799912
185	0xb9331ca5	-0.00017081441
186	0x35dc88c1	1.6431078e-06
187	0x3a1e765b	0.0006044858
188	0xb9d3fa85	-0.00040431708
189	0xba4b8505	-0.0007763657
190	0x39fed1d0	0.00048602978
191	0x3abec815	0.0014555479
192	0x3a0cb361	0.0005367306
193	0x397d6129	0.00024164155
194	0xb9aab744	-0.0003256147
195	0xb94eb7d1	-0.00019714168
196	0xb7451eaf	-1.1749259e-05
197	0xba70bbfc	-0.00091832853
198	0xb922c472	-0.00015522706
199	0x3978c821	0.00023725677
200	0x37c24dd0	2.3162836e-05
201	0xb9bea05b	-0.00036359098
202	0x389cfc08	7.485604e-05
203	0x393ec676	0.00018193744
204	0x359934cf	1.1414758e-06
205	0xb7f40de5	-2.9093537e-05
206	0x37e64518	2.745031e-05
207	0xb9339573	-0.00017126444
208	0x39f64073	0.00046968795
209	0x39aff43b	0.00033560567
210	0x36a4beba	4.9097844e-06
211	0x37cba501	2.4276322e-05
212	0xb770d663	-1.43550305e-05
213	0x37e700e4	2.753776e-05
214	0xb84d161b	-4.8896396e-05
215	0x35ac7fa8	1.2852151e-06
216	0xb6f50a3c	-7.3027604e-06
217	0xb7a3a3ee	-1.950745e-05
218	0x3856e287	5.1232546e-05
219	0xb80f380c	-3.4146055e-05
220	0x372007f9	9.538599e-06
221	0x3895a0b5	7.134808e-05
222	0x38abfe26	8.201254e-05
223	0xb91ad966	-0.00014767572
224	0xb89fc036	-7.617513e-05
225	0x38d7a60e	0.00010282929
226	0xb5a98293	-1.2629483e-06
227	0xb8c2a1f7	-9.280809e-05
228	0xbab10aee	-0.0013507286
229	0x3b389f39	0.0028171076
230	0xbb28ad01	-0.0025737884
231	0x3b2f4cb2	0.0026748595
232	0xba6b4ed1	-0.0008976283
233	0x3ad40b5c	0.0016177702
234	0xb9a14eb2	-0.00030766946
235	0xba1166d0	-0.00055466313
236	0x39225b45	0.00015483524
237	0x38eb6e3d	0.00011226207
238	0x398e67e7	0.00027161764
239	0xb9bd0243	-0.00036050574
240	0xba110168	-0.00055315206
241	0xbaeb0250	-0.0017929766
242	0xb7be9037	-2.271692e-05
243	0x3a822f2e	0.0009932274
244	0x3a662db3	0.00087806134
245	0xba423d5a	-0.0007409655
246	0xb98e08a6	-0.00027090794
247	0x3a4c9b8f	0.00078051625
248	0xba20beb1	-0.0006131931
249	0x3a464565	0.0007563441
250	0xba06a0e9	-0.0005135672
251	0x398ba7ba	0.00026637112
252	0x383a82e5	4.446776e-05
253	0x38b03b3f	8.4033694e-05
254	0x38d7c2c4	0.00010288277
255	0xb920e0b5	-0.00015342499
