logs/rl_games/hexapod_flat_direct/2025-11-15_08-02-25/nn/last_hexapod_flat_direct_ep_900_rew_17.391413.pth (torch, 545947 bytes, 33 tensors)

value_mean_std.running_mean f8 [1]
000000 70 01 82 2e f1 e7 e9 3f
       0.8095632465702192

value_mean_std.running_var f8 [1]
000000 c2 d7 c6 e6 09 12 c8 3f
       0.188050496753645

value_mean_std.count f8 []
000000 00 00 00 01 00 18 b5 41
       353894401.0

a2c_network.sigma f4 [18]
000000 6d e8 1a bf 16 5f a8 bf 9d b9 90 bf e5 e2 92 bf
       -0.60510904 -1.3154018 -1.1306645 -1.1475493
000010 46 1c a7 bf 33 10 6a bf 1d 3b e3 bf d2 59 c2 bf
       -1.3055503 -0.9143097 -1.7752415 -1.5183661
000020 44 91 b7 bf 31 de ca bf 0c 03 e6 bf 4e 7b af bf
       -1.4341207 -1.5849057 -1.796968 -1.3709505
000030 70 05 46 bf 44 9a 7b bf 0e ca 75 bf 91 38 5f bf
       -0.77352047 -0.98282266 -0.96011436 -0.8719569
000040 94 74 6a bf a9 a2 78 bf
       -0.91584134 -0.971232

a2c_network.actor_mlp.0.weight f4 [128, 66]
000000 e4 29 62 be fb bb dd be a3 d4 96 bc 02 57 1f be
       -0.22086293 -0.4330748 -0.01841194 -0.15560535
000010 7f 74 6d 3e d6 1d 3c 3e 81 56 c8 3f 8f 62 9d 3e
       0.23188971 0.18370757 1.5651399 0.30739257
000020 04 4d 58 3d 4e 35 b1 be d1 ab be be 1c 01 c9 3c
       0.052807823 -0.3461098 -0.3724046 0.024536662
000030 0c 65 5c 3d 45 73 4e 3f 82 7f 42 3e 95 90 8c bc
       0.053807303 0.8064464 0.18993953 -0.017158786
000040 0d 42 5a be de be 6e 3e c3 00 02 3e 04 22 9c be
       -0.21314259 0.23314998 0.12695603 -0.30494702
000050 22 03 58 3d a8 c4 67 be 2e 69 e4 be e5 b2 ad be
       0.052737363 -0.22633612 -0.44611496 -0.33925548
000060 61 b4 38 be 3a a2 32 bf 5f 98 b9 3d 31 0c df 3e
       -0.18037559 -0.6977879 0.090622656 0.4356399
000070 29 07 70 3e 7f c3 e1 3e 5f 41 ce 3c 25 4b 32 bb
       0.23440231 0.44094464 0.025177656 -0.0027205434
000080 1b 5a 45 3d 99 eb 82 bd 3c 32 b3 ba 18 f8 a4 3d
       0.048181634 -0.06392593 -0.0013671587 0.08055133
000090 ed 47 4a bd 48 80 00 be b1 01 79 3d 18 e6 02 be
       -0.049385 -0.12548935 0.06079263 -0.12783086
0000a0 36 4c 08 bd eb 29 bb bc e3 d5 50 bd 29 57 45 3d
       -0.033275805 -0.022847136 -0.05098523 0.048178826
0000b0 cf f8 89 3c 9e 93 26 bd 51 38 71 bc 4a e3 28 bc
       0.016842274 -0.040668122 -0.0147228995 -0.010308096
0000c0 b1 76 83 bd 48 69 75 3e 0b fb 88 3d 28 04 58 3d
       -0.06419123 0.23965943 0.06688508 0.05273834
0000d0 ac 3c e9 bd 89 cb 2a 3d df 2b 79 bd c9 7c 6b be
       -0.11388525 0.041698013 -0.060832854 -0.2299682
0000e0 44 16 61 bd 73 fb 6c be 76 fe 60 3c 00 99 98 be
       -0.054952875 -0.23142795 0.013732543 -0.2980423
0000f0 37 3d 4e 3e 14 a8 4e bd de 00 c9 bd 4b eb af 3b
       0.20140539 -0.05045326 -0.098146185 0.0053686253
000100 4e ee cc 3d cb d7 11 3e e1 44 ab 3e a5 6c 75 3e
       0.100063905 0.14242475 0.33450988 0.23967226
000110 7c 0f ba bd fc 5f 17 be 53 77 3b be ee ee 2b 3e
       -0.09084985 -0.14782709 -0.18307237 0.16790363
000120 ed 28 89 be c0 a8 a2 be 01 6a 16 bd 29 df 17 bf
       -0.26789036 -0.3176937 -0.036722187 -0.5932489
000130 53 36 fb 3e a0 47 ae bd 75 ab 20 3e f6 6b 45 be
       0.49064884 -0.08509755 0.15690406 -0.19279465
000140 28 f2 0a 3f 95 bd f1 3d 76 9c 1e 3d cf 38 aa bd
       0.5427575 0.11803738 0.03872343 -0.08311617
000150 92 62 6d 3d e8 31 d5 3c 45 3a 23 bd 08 0a 13 be
       0.057955332 0.026024774 -0.039850492 -0.14359295
000160 72 78 61 3d 98 7e 0d bd db 79 78 3e 41 4e 7a 3e
       0.055046506 -0.034544557 0.24265234 0.24443914
000170 ff cb 0a bd 46 24 a1 be e1 d6 78 3d 3c bc 5d 3d
       -0.033885952 -0.31472987 0.0607518 0.054134592
000180 2f 9d bc 3b 73 43 b7 bd ca 0a bb bc e4 9c 62 3b
       0.0057560424 -0.08948412 -0.022832293 0.0034578377
000190 b5 31 40 bd b9 95 8b 3c ac f1 c3 bd 8b a2 6e bd
       -0.046922404 0.017039167 -0.095675796 -0.05826048
0001a0 6b 82 cd bd c1 dd dc 3c 74 82 36 3c 62 4b 32 3d
       -0.10034641 0.02696121 0.011139501 0.043528922
0001b0 66 5b 20 bd 23 63 2e 3d 02 6f a9 3b cb b4 6c 3d
       -0.039149664 0.042575013 0.005170704 0.057789605
0001c0 ba 9a 6c bd 11 ea 49 bd be cb 8c 3d 6c 54 68 bd
       -0.057764746 -0.04929549 0.06874798 -0.056721136
0001d0 1d 9f 54 3e 51 97 ca bd d2 5c 58 3a 88 68 6f 3d
       0.20763822 -0.098921426 0.00082535774 0.0584493
0001e0 08 dd 07 3e 4b 73 46 3c 1d 7c 4b bd 04 ae 97 3d
       0.1326791 0.012112449 -0.04967891 0.07406238
0001f0 0b c1 5d be ba a1 8f 3d 5d 9c dd bc 96 20 05 3e
       -0.21655671 0.07013269 -0.027052099 0.13000712
000200 eb 15 cb 3d 9d 10 a6 bd 1a da 57 bc 03 e1 68 3d
       0.0991629 -0.081086375 -0.013174558 0.056855213
000210 04 7f fa 3d 07 cd b9 3d fe c8 bb be 52 29 c1 3d
       0.122312576 0.09072309 -0.36676782 0.09431709
000220 8c 2a 90 bd 53 df 3f be cd 1c af 3c f3 51 fe be
       -0.07039365 -0.18737535 0.021376038 -0.49671897
000230 1c e6 27 be cd 85 05 bf 2a d7 e7 bd 8c 66 62 3e
       -0.16396374 -0.5215729 -0.11320336 0.22109431
000240 14 88 7f be ec 7e 1e 3d de c4 02 bf ee 23 c1 3e
       -0.24954253 0.03869526 -0.51081645 0.37722725
000250 49 e4 82 bf ea 26 e6 3e c8 d1 26 bc f2 4c 4b be
       -1.0225917 0.44951564 -0.010181852 -0.19853571
000260 87 01 86 3e c3 61 7b 3c 4a 62 4a be f0 e7 d7 3d
       0.2617304 0.015343132 -0.19764057 0.105422854
000270 4a e6 f8 bd 58 bf 36 bd 43 ce 59 bd d5 a0 a9 3d
       -0.12153299 -0.044616073 -0.053175222 0.082826294
000280 d7 fe a0 bc 6f 72 88 be ec 16 f4 bc 65 ea 9b bd
       -0.019652767 -0.26649806 -0.029796086 -0.076130666
000290 63 b1 43 bd c6 30 a4 3d 81 91 6d 3d 1f 7f 6c bd
       -0.04777659 0.08017115 0.05800009 -0.05773842
0002a0 a6 bf 99 bd 3e 51 98 bd 8f d0 53 bd b8 7d 0a be
       -0.07507257 -0.07437371 -0.05171257 -0.1352452
0002b0 95 9d 44 bd 98 4f 03 3a 24 b6 cb 3c 07 d2 4b bd
       -0.048001844 0.0005009114 0.024867125 -0.049760845
0002c0 f7 ea a0 3c 27 a4 1d bd a3 7a 03 3d 73 72 00 3b
       0.01964329 -0.038486626 0.032099377 0.0019599467
0002d0 f9 4f a0 be c3 21 6c 3d 77 56 0a be cf 66 96 3e
       -0.31311014 0.057649385 -0.13509546 0.29375312
0002e0 c5 9a 81 be ec 60 0c be 18 0b 00 be 3c fc bd bd
       -0.25313392 -0.13708848 -0.12504232 -0.092766255
0002f0 72 33 13 3e 7f b8 c0 3c 71 2c 9c bc 89 cf 4d bd
       0.14375094 0.023525475 -0.01906416 -0.05024675
000300 2f 2e ae 3d 59 d3 b7 3d 8a 90 3b 3e 0b 62 da bd
       0.085049026 0.08975858 0.18316856 -0.106632315
000310 ba 87 c1 bd e4 56 d1 bd f5 af a0 3e 01 20 5d 3d
       -0.09449716 -0.10221651 0.31384245 0.0539856
000320 e9 67 29 be af a6 02 bd fa 97 47 be b2 f9 07 be
       -0.16543545 -0.031897243 -0.19491568 -0.13278845
000330 b6 ee fc be 19 fe dd 3e 13 0f bd 3e 43 75 0d 3e
       -0.49400872 0.43357924 0.36925563 0.13814263
000340 4e 82 5b 3e 10 8c 1a 3e a7 98 54 be c6 2d 8b 3c
       0.21436426 0.15092492 -0.20761357 0.0169896
000350 48 80 c0 3d e2 cb 3a be ca a7 d7 bd 1d 5b 14 3e
       0.09399468 -0.18241838 -0.1053005 0.14487882
000360 a9 c4 38 bd ec 9e 88 be b7 35 83 bd 02 3a 80 bd
       -0.045109425 -0.26683748 -0.0640673 -0.06261064
000370 4c 1d 38 be c0 42 01 3e 76 ec 66 3e c6 f4 7d 3e
       -0.17979926 0.1262312 0.2255114 0.24800405
000380 60 bd 6e 3e 44 96 e7 bd 7d b8 bf be bb 8c 3b be
       0.23314428 -0.11307958 -0.3744544 -0.18315403
000390 69 ba 58 bc a3 c1 b3 bd ef f3 32 bd 3a 2c 4c bc
       -0.013228037 -0.08777168 -0.043689664 -0.012461716
0003a0 c0 c5 3d bd 7c 87 b6 bd 2f fc a6 3d f0 db 26 bb
       -0.046331167 -0.0891256 0.08153569 -0.0025460683
0003b0 81 96 d3 bb 65 0e 89 bd 16 83 68 3b 37 6b 55 3d
       -0.0064571504 -0.06692199 0.0035478524 0.0521042
0003c0 72 47 0b bd d0 25 1d bc 18 e8 3f 3d ba da 32 bd
       -0.034003682 -0.009591535 0.0468522 -0.043665625
0003d0 f2 ea 08 bd 67 0a f1 3b 79 93 9b bd 14 14 50 3d
       -0.033427186 0.0073559764 -0.075964876 0.050800398
0003e0 16 7a 3b 3e da 4d 8d 3d 2e 55 b2 3d f6 02 2e 3e
       0.18308291 0.06899615 0.08707653 0.16993317
0003f0 0c 3a a0 bd ea 26 7f 3d c1 b2 99 3c ca 9e d5 bd
       -0.078235716 0.06229297 0.018761994 -0.10430677

a2c_network.actor_mlp.0.bias f4 [128]
000000 a3 e8 32 be 46 26 ae 3d c8 30 b5 3d 8d 80 95 be
       -0.17471556 0.08503394 0.08847195 -0.2919964
000010 d9 9b 3b 3d f8 0e 1b 3e ac 7e c8 bd fa 7a 02 3e
       0.045802925 0.15142429 -0.09789786 0.12742224
000020 04 e4 05 bd d5 d5 8e 3c a4 ab fc bc 76 60 0d 3d
       -0.032688156 0.017435947 -0.030843563 0.03451582
000030 6b 16 fa bd 17 0d cb bd 34 1c 20 3e 56 56 2c bd
       -0.12211307 -0.09914606 0.15635759 -0.042074524
000040 c8 66 86 bd 18 86 0d bd d2 7b 1c be be db 92 3c
       -0.06562573 -0.03455171 -0.15281609 0.017927047
000050 e1 a9 b4 3d e7 99 47 3e b4 3b 4e 3d 4b e0 df b8
       0.08821464 0.19492303 0.050349906 -0.000106752464
000060 17 de 10 3d a8 69 c4 3d cc fa bd bd c1 e8 16 3e
       0.03536805 0.09590465 -0.09276351 0.14737226
000070 6c 00 b8 3d eb cf d5 bd e9 71 e6 bd fc 4a 28 be
       0.089844555 -0.10440048 -0.112521954 -0.16434854
000080 e8 70 70 bd 8d 3c fd 3d 66 6f 55 bd ba ab 3b be
       -0.058701426 0.12365065 -0.05210819 -0.18327227
000090 dc e5 b9 bb 91 de 27 3e 73 d5 b7 bd cf 7a f4 bd
       -0.0056731533 0.16393496 -0.08976259 -0.119374864
0000a0 d2 e1 3f 3d e7 9e 35 be e4 2a 83 be fb 59 03 be
       0.04684622 -0.17736398 -0.2561866 -0.12827294
0000b0 2b 97 1a be 56 9a 5c 3e 86 64 55 be 1c 0f b2 bd
       -0.15096729 0.2154325 -0.20839128 -0.08694288
0000c0 c8 60 a7 3d 13 fe e1 bc 18 26 3c be 2c 03 7e bd
       0.081727564 -0.027586972 -0.18373907 -0.062014744
0000d0 d6 cd f9 3d 44 86 24 be c7 ca 26 be 77 18 74 3d
       0.12197463 -0.16066843 -0.16288291 0.059593644
0000e0 1b c2 88 3d 1e 4a ad bd 45 20 1e be 1a bd e3 3d
       0.06677648 -0.08461402 -0.15441997 0.11120053
0000f0 dc ae ef bc da b8 cd 3d 34 56 f2 3c b3 da d5 bd
       -0.029258184 0.10045023 0.02958212 -0.10442104
000100 2f eb 7d bd d3 2f 40 3e 5b 04 4e 3e f4 4e 99 bd
       -0.061991867 0.18768243 0.20118849 -0.07485762
000110 c7 7f a7 3c e6 00 40 3d d2 26 ac bd f1 1e f0 3d
       0.020446671 0.046875857 -0.08405842 0.117246516
000120 58 20 f4 3d 5e 71 14 3e e3 a1 95 3d d5 8e cc bd
       0.119202316 0.14496371 0.07306268 -0.099881805
000130 4e b9 02 be 6f c0 90 3c d2 ed 00 bd bf 03 35 3d
       -0.12766 0.017669884 -0.031476803 0.044193026
000140 df 43 88 bd ca f8 e9 3c eb 88 c4 bd f9 b1 c2 bd
       -0.066535704 0.028561015 -0.095964275 -0.09506602
000150 e6 20 6e bd 1d 73 c8 3d d4 d0 1a be 5e a2 55 be
       -0.058136843 0.09787581 -0.15118724 -0.2086272
000160 45 e8 a2 bd 71 2f f9 3d c2 33 7f 3c 38 3c cc bc
       -0.07954458 0.12167252 0.015576305 -0.024931058
000170 1b 65 a4 bd 6e b0 18 3e 43 b2 ea 3c 26 97 59 be
       -0.08027097 0.14911053 0.028649455 -0.21249065
000180 15 d0 74 3c 23 a2 f6 bd 3a 6a d2 bd 26 c7 dd 3d
       0.014942189 -0.12042644 -0.10274167 0.10829
000190 7e 8a 3b 3e c6 ba cd bd 0d 38 8f 3c f0 18 0d 3d
       0.1831455 -0.1004539 0.017482782 0.03444761
0001a0 87 ef 0c 3e c1 84 33 be 0b 69 3e 3b 18 13 80 3d
       0.13763247 -0.1753111 0.002905431 0.06253642
0001b0 02 d0 b2 3d d6 d6 a2 bb 9b 5a 5f bd 12 24 a1 bd
       0.087310806 -0.004969458 -0.054529767 -0.07868208
0001c0 d3 b9 81 3d 98 56 74 bd d1 9d ca 3d 52 90 6e bd
       0.06334271 -0.059652895 0.09893382 -0.058243103
0001d0 68 6a 31 be 11 5f 14 3e 08 fd b4 bd f3 5c 81 bd
       -0.17325747 0.1448939 -0.088373244 -0.06316557
0001e0 80 14 87 3e 8c dc ab bb 56 97 97 bc cf ba 4f 3c
       0.26382828 -0.005244797 -0.01850478 0.012678816
0001f0 4c a7 b6 bd 9a d7 4c 3d e4 8b 0f be fc f4 0f 3e
       -0.08918628 0.0500103 -0.14018208 0.14058298

a2c_network.actor_mlp.2.weight f4 [128, 128]
000000 1d fa 0a 3e 86 d7 c4 bc 40 40 48 be eb 55 86 bd
       0.13571973 -0.02402855 -0.1955576 -0.06559356
000010 46 54 7a be f8 ec 0b bc 0f 82 8f 3d 3c 5a 57 bd
       -0.2444621 -0.0085403845 0.070072286 -0.05257629
000020 6b fa 30 3e cf 18 16 be fa 14 25 bd 18 45 c9 3d
       0.17283027 -0.14657901 -0.040303208 0.09827632
000030 1f af 3b 3c d9 18 2f 3e 8a ab 32 be bc 34 dc 3c
       0.011455326 0.17099322 -0.1744825 0.026880614
000040 21 d7 10 3e f5 33 28 be 01 30 b1 3d 21 fc ea bd
       0.14144565 -0.1642607 0.08651734 -0.11473871
000050 4a 96 c0 bb 71 31 fa 3d 22 77 1f 3e e8 72 e1 3d
       -0.005877291 0.122164614 0.1557279 0.11008245
000060 4f 8f b0 bc 78 0c 31 3c 81 2f 29 bd b1 df fd 3d
       -0.02155271 0.010806195 -0.04130507 0.123961814
000070 ff 7f bb bc 95 9c 6b be c7 e2 07 bd 63 7c fb bc
       -0.022888182 -0.2300895 -0.033175256 -0.03069896
000080 7a f3 35 be 18 18 c0 bd cd 1e 06 3e 0b e3 cf 3c
       -0.1776866 -0.093795955 0.13097687 0.025376817
000090 4a 8f 7b 3d a8 f5 48 3d 91 0a be bc 29 ee 15 3e
       0.061415948 0.0490624 -0.023198398 0.14641632
0000a0 7c cc f6 bd c8 ce de 3d 86 9a 52 bd 7f b4 d5 3e
       -0.12050721 0.10879284 -0.051416896 0.4173927
0000b0 e5 1f 17 bd a2 51 5f bd 9c 6e cb bb cf 01 7a bd
       -0.03689565 -0.05452121 -0.006208254 -0.06103688
0000c0 53 59 5e bd 8d 96 f9 bc c5 a2 e2 bc 20 90 38 3d
       -0.054284405 -0.030467296 -0.027665505 0.045059323
0000d0 86 20 2c 3e 51 94 d8 3d 13 85 f3 3d f9 cc cd 3d
       0.16809282 0.10575164 0.11890616 0.10048861
0000e0 14 24 c3 bb d8 71 e1 3d bb 73 12 bd df 8f dc b7
       -0.0059552286 0.11008042 -0.0357549 -2.6293039e-05
0000f0 aa e6 72 bd 3b b3 e7 3d 8d 61 46 be 79 fb b0 bd
       -0.05930201 0.113134824 -0.1937315 -0.086417146
000100 1d 91 65 bc fc be 88 3d 37 27 f9 bc 06 14 6e be
       -0.0140116485 0.066770524 -0.030414207 -0.23249826
000110 b2 61 d6 3d 43 58 58 3d ad 6b e6 3d 10 1a 41 3e
       0.10467853 0.052818548 0.11251006 0.18857598
000120 2c f2 16 bd 37 4a 66 bd a2 f2 cc bd b9 ab 23 3d
       -0.036852047 -0.05622312 -0.10007216 0.03995869
000130 8c 31 c9 b7 2f 78 02 3d ed 9e 08 3c d6 50 73 bc
       -2.398414e-05 0.031852897 0.008338672 -0.014850816
000140 09 eb 95 3d d8 5c ad bd d3 f5 6f 3c 01 a0 04 3d
       0.0732022 -0.08464974 0.014646011 0.032379154
000150 f1 8a 9e 3d 9e cb 00 be de 9b 04 bc 79 63 c1 be
       0.07741345 -0.12577674 -0.008093802 -0.37771204
000160 da 8f cb bc bf 5b 6a bd 3b a8 c8 bc 45 95 fc 3c
       -0.024848867 -0.057216402 -0.024494281 0.030832896
000170 1a 39 22 be 46 68 2e be 0d 8a 4b 3e 83 1b 77 3e
       -0.15842095 -0.17031965 0.19876881 0.24131589
000180 39 8f b1 3b a2 c7 96 bd 3f 85 05 3e 14 fe 25 3e
       0.005418685 -0.07362296 0.1303911 0.16210204
000190 19 e1 99 3d 33 8e d7 bd cb 7a 9c 3c d7 54 89 bd
       0.07513637 -0.10525169 0.019101521 -0.06705635
0001a0 99 0a 11 3e 0a 89 d8 3d fc 6c 8a bc e3 82 00 3d
       0.14164199 0.10573013 -0.01689767 0.031374823
0001b0 d7 0f b9 3d ae 53 17 3d e6 06 74 3d 24 bc bb 3c
       0.09036224 0.036945038 0.05957689 0.02291686
0001c0 03 03 26 3e 9d 44 72 bc 91 0b df bd f9 1d 93 3d
       0.16212086 -0.0147868665 -0.10890878 0.07183451
0001d0 c3 bd 05 bd 80 46 f5 bd 16 58 02 3e 65 0f 9f bc
       -0.032651674 -0.119763374 0.12728915 -0.01941652
0001e0 1a b8 04 be 6a e6 45 3d 76 57 33 3b e0 6e 33 be
       -0.12960854 0.048315443 0.0027365363 -0.17522764
0001f0 71 9f 65 3d 53 60 15 3e df 52 91 3d ab cb 9d bd
       0.05606026 0.14587526 0.070958845 -0.07704862
000200 3d 30 86 3d 32 6c a8 3c 2f 92 5d 3d 3c a1 18 bc
       0.065521695 0.020559404 0.05409449 -0.009315785
000210 03 d3 e1 bd ee 2f 29 3d 59 51 b0 bd ff 5c 89 bd
       -0.110265754 0.041305475 -0.08609266 -0.06707191
000220 a4 5b fd bd e3 bd b1 bd f2 89 2f bd 2e 98 33 be
       -0.12370995 -0.08678796 -0.042856164 -0.1753852
000230 c9 09 e8 bd d2 d1 33 be b7 87 3a 3d 59 e2 d0 3d
       -0.11329991 -0.17560509 0.045539584 0.101994224
000240 fd 94 b3 bd c2 b3 85 bd b5 4e 83 3d 3b bc 59 3c
       -0.08768652 -0.06528427 0.064114965 0.013289507
000250 10 ca b1 bc ae 16 c4 bd 63 fd 44 3e fc 9a 46 bd
       -0.021702796 -0.09574638 0.19237284 -0.04848765
000260 3d f0 25 3e 7d 64 a9 3d b0 bd 60 3d ef 7a 42 3c
       0.16204925 0.0827112 0.0548684 0.01187013
000270 ae 34 9d bc ec ee d2 3e e5 c4 64 3d 43 c0 67 3e
       -0.019190159 0.41197908 0.055851836 0.22631936
000280 eb cc 08 3c c8 09 87 3d 65 8f 51 3e 50 7a 0e 3e
       0.0083496375 0.065936625 0.20464857 0.13913846
000290 20 27 ba 3c 5c e5 85 be 97 1d f3 bd 32 60 4b 3c
       0.022723734 -0.2615155 -0.11870878 0.0124130715
0002a0 4c e5 11 bd a9 cc 8a 3d 10 40 85 3e e9 20 bc bd
       -0.035619065 0.06777317 0.26025438 -0.091859646
0002b0 b6 46 68 3e c2 ba d6 bd b8 49 4d 3d f0 e1 62 bd
       0.22683224 -0.1048484 0.05011913 -0.055391252
0002c0 c5 f3 1b be a2 ba 49 3d ea 10 17 3e 5f d1 0e bd
       -0.1522971 0.049250253 0.14752546 -0.03486764
0002d0 96 e9 1a bd d6 12 e1 3c bf f4 8f 3e 18 9c 55 bc
       -0.03782042 0.027474802 0.28116414 -0.013037704
0002e0 35 73 a3 bd c9 47 ac 3d 3f 44 41 bd c3 b3 85 be
       -0.07980958 0.084121294 -0.047184225 -0.2611371
0002f0 02 f5 91 bd c9 51 a3 3c f9 90 a3 3d bf 8e 4b bd
       -0.0712681 0.01993646 0.07986636 -0.04969668
000300 de 93 35 be 36 bf a3 3d 4f 39 e0 bb fa ee 5d bd
       -0.17732188 0.07995455 -0.006842769 -0.054182984
000310 52 eb 8a 3c e6 fe ad be 7d 0e 92 3d c3 c8 73 3d
       0.016957913 -0.33983535 0.0713167 0.059517633
000320 90 a9 99 3c 7b 54 e1 3d 5b 21 ff bd 95 d7 39 3d
       0.018757612 0.110024415 -0.12457534 0.04537161
000330 d0 b2 31 bc 80 26 4f 3e a3 3e 06 3e df 32 98 3d
       -0.010845855 0.2022953 0.13109832 0.07431578
000340 d4 04 57 bd 4e 91 a3 bd 53 f8 6b 3d c7 83 8e bd
       -0.05249484 -0.07986699 0.057609867 -0.06958728
000350 1a 95 74 3e 2e a1 25 be af 81 53 3e 01 32 0a 3e
       0.23885003 -0.16174766 0.20654939 0.13495637
000360 92 4f 89 bd 1e 3f ac bd 5d 47 32 be 43 66 92 bd
       -0.0670463 -0.08410476 -0.17410035 -0.07148411
000370 bc ac 17 be 8d 5a 43 bd 6c c9 50 3c 95 15 e3 3d
       -0.14811987 -0.047693778 0.012743335 0.11088101
000380 00 dc 25 bd 4e 58 bb bc 33 62 23 3e 77 64 84 3d
       -0.04049301 -0.022869255 0.15955429 0.06464475
000390 65 2c 8f 3d cf d4 29 3e 9e ea 43 3c 22 74 71 bd
       0.069908895 0.16585086 0.011957793 -0.058948644
0003a0 10 7c 98 bd 72 bc 85 bd 60 86 c0 bc 88 be a2 3b
       -0.07445538 -0.06530084 -0.023501575 0.0049665608
0003b0 b1 47 67 be 56 cd 6f 3e b1 60 11 3e 1e ab 61 be
       -0.22585942 0.23418173 0.14197041 -0.22037932
0003c0 90 a6 8e 3d 09 16 29 3d d6 8b 73 bd 46 8b d1 bd
       0.06965363 0.04128078 -0.05945953 -0.102316424
0003d0 ec bb 42 3d c6 7e b7 bd ef 27 c5 bc a7 fb 28 bc
       0.047542498 -0.08959727 -0.024066893 -0.010313905
0003e0 7e f7 a6 bd f3 0a 0e 3d 13 67 83 be 56 39 eb bb
       -0.08152674 0.03467841 -0.25664577 -0.007178466
0003f0 25 b6 b0 3d 9d a0 a5 bb 0d 4b 15 3d 6b ca a8 bc
       0.08628491 -0.005054547 0.036448527 -0.020604333

a2c_network.actor_mlp.2.bias f4 [128]
000000 c9 2f ab bd 71 a0 3c be 7f a4 9c 3d 32 45 8d 3c
       -0.08358724 -0.18420579 0.07648563 0.017244909
000010 52 ed 7a be 60 bb 83 be 8c 27 b8 3b 02 4a 88 bb
       -0.24504593 -0.25728893 0.0056199487 -0.004159213
000020 c3 fd 02 3d 3b e7 98 bd 22 8b f6 bd 98 1e 00 be
       0.031980287 -0.07465979 -0.12038256 -0.1251167
000030 af 39 bb bc c0 8f eb 3d 88 61 22 be e9 c7 0b be
       -0.022854654 0.115020275 -0.15857518 -0.13650478
000040 05 56 d2 3c 1e 82 70 bc 81 bc 18 be 09 55 b0 bd
       0.025675783 -0.01467946 -0.14915659 -0.08609969
000050 af d9 89 bd 26 ac 43 bd 88 8b ab 3c 7f b1 fc bd
       -0.06730973 -0.047771595 0.020940557 -0.12338542
000060 a3 b1 fe bc 93 fe cd 3c 5a 2f e0 bd 26 ee 70 3c
       -0.031090563 0.025145805 -0.109465316 0.0147052165
000070 77 48 2d bd 7d a0 20 be f0 f2 f6 3d 29 20 c2 bc
       -0.042305436 -0.15686221 0.120580554 -0.023696976
000080 0f 0a 96 3c 37 f9 8c 3c 87 2a d5 bd aa db 52 be
       0.018315343 0.017208679 -0.10408502 -0.20591608
000090 6c cb 16 bd bc b9 a2 bc 75 0d b1 bd f2 59 72 3b
       -0.036815092 -0.019863956 -0.08645145 0.003697988
0000a0 50 f6 82 bb 0c be 65 bd e8 33 a6 bc ac e6 82 3c
       -0.003996648 -0.056089446 -0.020288423 0.015979134
0000b0 b1 0a 83 be a1 30 b3 bd 8d 65 57 bd 4c d7 30 bb
       -0.25594094 -0.087495096 -0.05258708 -0.0026983796
0000c0 be 16 30 be 2c 96 10 3c e2 f2 15 be 7c 5e 3d bd
       -0.17196175 0.008824866 -0.14643434 -0.046232685
0000d0 7e cd 9b 3d 98 c5 7f bd a1 eb 97 bd ca b2 f3 bd
       0.07607554 -0.0624443 -0.074179895 -0.11899336
0000e0 c6 d1 82 3c 6c f5 a1 bd 95 11 7d 3d fb 9d a8 be
       0.015969168 -0.07908139 0.061784346 -0.3293303
0000f0 34 d8 17 be 4a 1a bd bc e6 bd d0 3d 84 95 22 bd
       -0.14828569 -0.023083825 0.1019247 -0.03969337
000100 09 bc f9 bd 01 c4 7d be a8 32 62 3b 74 5e b0 be
       -0.12194068 -0.24781801 0.0034515057 -0.34447062
000110 0e 30 02 be 8a 78 07 bd ef 09 9a bd 8a d4 41 bd
       -0.12713644 -0.03307394 -0.07521426 -0.047321834
000120 8c 99 fb 3c fd 88 94 bc ee 73 bc be 74 bc 55 3b
       0.030712865 -0.018131727 -0.36807197 0.0032613548
000130 e3 e0 0b bd 0b cd 9e bd 43 d5 29 bd 53 4a 17 be
       -0.034150016 -0.077539526 -0.041463148 -0.14774446
000140 ff fe 46 be df d0 aa ba 73 9e a4 3d c1 55 c4 bd
       -0.19433211 -0.0013032219 0.08038034 -0.09586669
000150 e1 f2 1e be 08 97 ab bd c2 4e 1f 3c 55 ef 09 3d
       -0.15522338 -0.08378416 0.009723367 0.03367551
000160 b5 da e4 bd d4 28 aa bd 29 ac dd bd 7e 49 db bd
       -0.111745276 -0.083085686 -0.108238526 -0.10707377
000170 d1 7d c0 bd 73 9c fb bd 70 21 51 be 59 5f 69 bd
       -0.093989976 -0.122857 -0.20422912 -0.056975696
000180 a9 97 d0 bd 92 a4 1f 3c 8e f7 f5 3b 6e f9 ef bc
       -0.10185177 0.009743826 0.0075063175 -0.029293742
000190 51 b7 f1 3c c2 48 66 bd 66 0b d5 bc 40 72 2b be
       0.029506357 -0.05622173 -0.026006412 -0.16742802
0001a0 15 1f 61 bd 04 b3 d4 bd ca dc 54 be 7f 63 ee bd
       -0.054961283 -0.10385707 -0.2078735 -0.11640071
0001b0 d6 11 d0 bd 00 ad f3 3b 03 45 21 be df 67 c3 bd
       -0.10159652 0.0074363947 -0.15748982 -0.09541296
0001c0 99 c9 39 be 47 a8 6a bd 52 73 6f bc 36 6d 40 be
       -0.1814331 -0.057289388 -0.014614897 -0.1879166
0001d0 50 ed 3d be 79 35 06 3d 64 c8 2a 3e 49 65 b3 be
       -0.18547559 0.03276584 0.16678005 -0.35038212
0001e0 92 d9 5d bd 71 47 64 bc 8d a8 fe bd a9 44 49 be
       -0.05416257 -0.013933049 -0.12434492 -0.19655098
0001f0 d8 65 30 bd 68 1a 70 3c 97 d7 49 be d8 aa 91 bc
       -0.043065876 0.014654733 -0.19711147 -0.01778166

a2c_network.actor_mlp.4.weight f4 [128, 128]
000000 c1 2a 83 bd 4e db fa bb f4 9a a1 bc c2 8a 09 3e
       -0.06404639 -0.0076555377 -0.019727208 0.13431838
000010 35 b8 ac 3d 06 8f c1 be 89 86 20 be 3e 34 99 3d
       0.08433572 -0.3780443 -0.15676321 0.074806675
000020 65 17 e4 bd ed d9 55 bd 62 da 72 3d 61 51 8c bd
       -0.11137275 -0.052209783 0.059290297 -0.06851459
000030 e2 60 97 3d 81 31 6c bd cd f9 8b ba a3 5e 04 bd
       0.07391526 -0.057664398 -0.0010679305 -0.032316815
000040 70 52 e9 bd d4 d7 42 3d de ec 5c 3d 2d 8b 2d be
       -0.11392677 0.04756911 0.05393683 -0.16947623
000050 a1 8a 9c 3d d2 fe 8b 3d 6c 23 2d bc ad 5d ff 3d
       0.07643629 0.068357125 -0.010567527 0.12469039
000060 d0 18 cf 3d b9 a6 9d bd c7 0c 98 3d 8b 1d 16 bc
       0.101121545 -0.076978154 0.07424312 -0.009162317
000070 41 ab 87 bd 84 41 ac bd cc eb 2a be 0a b7 6e 3c
       -0.06624461 -0.084109336 -0.16691512 0.014570007
000080 30 fd 17 3d e4 9c 1d bd c7 d7 6a bc 45 ef 17 3e
       0.037106693 -0.0384797 -0.014333672 0.14837368
000090 28 fe 9c bd 8b 00 4b be 7c fe 1a 3d 9e b2 a1 bd
       -0.07665664 -0.19824426 0.03784035 -0.07895397
0000a0 91 49 6f 3d 7d 3c c9 bd 97 6d 74 bd 0e ed f9 bd
       0.058419768 -0.0982599 -0.059674826 -0.12203418
0000b0 3b 60 d5 bd f4 97 c8 bc 9a de 55 bc e3 34 a8 3d
       -0.10418745 -0.02448652 -0.013053561 0.08213212
0000c0 2d 77 4b 3d 65 64 c0 bc 1a 46 f4 3d 3f 32 55 bd
       0.0496742 -0.023485372 0.11927433 -0.05204987
0000d0 4e 0c 8e 3d 4f e5 e9 3c 1d 8b be bd 2f 1b 09 3e
       0.06935941 0.028551726 -0.093038775 0.13389276
0000e0 a4 23 c4 bc 7a 59 05 3e d4 6a e7 3c 41 bd 67 3c
       -0.023942776 0.13022414 0.028249182 0.014144243
0000f0 a5 74 f8 bd 27 77 90 3d ff 7f c4 3d fc 5d 3b 3e
       -0.12131623 0.070539765 0.09594726 0.18297571
000100 7d 0c 05 3d 52 29 0f 3d 57 bd 4a bc 84 6f e1 3d
       0.032482613 0.034951515 -0.012374244 0.11007598
000110 ac ab 85 3d 66 3b 5c bc 39 08 86 3e 1e 9d 1b be
       0.065268844 -0.013441896 0.26178148 -0.15196654
000120 24 e4 2d 3d 4d eb b9 bd d4 a2 0e 3e c1 2b 03 3e
       0.0424539 -0.09078083 0.13929302 0.1280966
000130 02 ab d0 bd dd b5 43 3d f5 21 32 3e 74 22 0b 3e
       -0.10188867 0.04778086 0.17395766 0.13587362
000140 98 82 80 3c f4 50 a6 3d 83 f7 12 3d 9e 48 2b 3e
       0.015687272 0.08120909 0.035880577 0.1672692
000150 fa 97 3f be b5 fd 8b 3c bb f7 a4 3d fa 39 67 bd
       -0.18710318 0.01708875 0.08055063 -0.056451775
000160 f6 c0 1e be 1b 87 62 3d e8 47 c2 3c 63 cf 56 be
       -0.15503296 0.055304628 0.023715928 -0.20977549
000170 58 37 5a 3e 95 a2 64 bd 44 47 8e bd 43 0a 0a 3e
       0.21310174 -0.055819113 -0.069471866 0.13480477
000180 12 d4 2c bc e5 41 06 be 96 3e 5c 3d 17 dd 5d 3d
       -0.010548608 -0.13111074 0.053770624 0.054165926
000190 62 ea 24 be d4 28 84 3c 5e 4e fe 3c 52 d6 14 be
       -0.16105035 0.01613275 0.031043228 -0.14534882
0001a0 11 d9 c0 3d 6e 1e df bd ab 5c e4 b8 ec 47 1f be
       0.09416402 -0.10894476 -0.00010889148 -0.1555478
0001b0 a0 18 03 3e 63 eb ac bd 4a c2 bb bb f2 c5 bd bd
       0.12802362 -0.08443334 -0.005729948 -0.09266271
0001c0 bc 14 0d be f4 6e 04 3e b7 b2 ed bd 0f 54 a0 bd
       -0.13777441 0.1293295 -0.11606353 -0.07828533
0001d0 89 22 ce 3c 15 e8 6b 3c e1 ff 1f bd 88 dc ed bc
       0.025162952 0.014398594 -0.039062385 -0.029035822
0001e0 db d6 70 3d 6f 39 08 bd 5f c9 88 bc b6 dc db 3d
       0.058798652 -0.033257898 -0.016697584 0.10735457
0001f0 81 00 c0 bd b2 db f3 bd 4d 91 11 3e 1c e6 9c bd
       -0.09375096 -0.11907138 0.14215584 -0.076610774
000200 9c 49 1f bc 03 c9 00 bd 25 c3 88 bc 90 fc bb bd
       -0.00972214 -0.0314417 -0.016694615 -0.09179032
000210 6c 84 7a 3d 1b 76 57 3d e0 1b 90 be 0b 11 96 bc
       0.061161444 0.05260287 -0.28146267 -0.018318674
000220 9c e1 8d 3d 34 97 9e bc bd 91 49 3d 8d 72 9d 3d
       0.06927797 -0.019359209 0.049211252 0.076878645
000230 f9 c9 f7 bc 5a 29 a1 be 10 47 03 3e 48 84 2a 3b
       -0.030247675 -0.3147686 0.12820077 0.0026018787
000240 2a 98 79 bd 73 76 0f be 23 cc 0f be ac 5b f9 3d
       -0.06093613 -0.14010029 -0.14042716 0.12175688
000250 f8 63 69 be 3d 28 09 be 1c b3 45 3e 49 72 92 bd
       -0.22792041 -0.13394256 0.19306606 -0.071507044
000260 33 90 1b 3e c1 8e e2 bd 70 8b 71 3a 6f 82 18 3d
       0.15191726 -0.110623844 0.0009214198 0.037233766
000270 b9 b5 88 3d 45 c5 3d be c7 05 bc 3d b8 93 e0 3d
       0.06675286 -0.18532284 0.091807894 0.10965675
000280 96 be 28 bc 89 e7 de bd 9b 0f 65 be f1 af ac bc
       -0.0102993455 -0.108840056 -0.22369234 -0.02107999
000290 4e 89 18 3d d5 9c b1 3d 40 d9 b6 3d 43 91 98 bd
       0.03724032 0.086724915 0.08928156 -0.074495815
0002a0 bf d3 27 be e4 71 70 bd 0c c3 14 be a1 96 e1 bd
       -0.16389368 -0.058702365 -0.1452753 -0.11015058
0002b0 3e d2 d5 3d 6e 71 9c 3d 05 52 3c 3c 15 81 a9 bd
       0.10440491 0.076388225 0.011494164 -0.082765736
0002c0 0d de 0d 3e 3c b0 61 bb 3b a3 a8 3d 64 30 0d 3c
       0.13854237 -0.003443732 0.08234259 0.008617494
0002d0 0a 4f f3 bd 0d 6a 03 bd e1 ff f3 bd bb f2 c7 3d
       -0.1188031 -0.03208356 -0.119140394 0.09763094
0002e0 a6 9e 94 bd 58 1c bd 3d a7 fd 80 bd 99 77 8b 3d
       -0.07256822 0.09233922 -0.0629838 0.06809921
0002f0 7b 9f 26 3c 2e 8c a2 be a2 fb 36 be d2 67 a0 bd
       0.010169859 -0.31747574 -0.17869428 -0.07832302
000300 96 74 d7 bd 20 54 f5 bb df 8f 20 bb a1 a8 2a 3e
       -0.10520284 -0.007486835 -0.0024499816 0.1666589
000310 f1 d2 29 3e c7 ff e6 bc 19 81 58 be d4 af 30 3e
       0.16584374 -0.028198136 -0.21142997 0.17254573
000320 14 5c d0 3d fb 69 2f 3c 70 16 2d 3e 93 83 18 bd
       0.101738125 0.01070642 0.1690309 -0.037234854
000330 04 7f 33 3e a2 7a 77 bc 21 79 ad 3d 03 09 40 3e
       0.17528921 -0.015104922 0.08470369 0.18753438
000340 f4 f5 94 bb 9a 89 f2 bd c1 a1 a5 3d a7 d7 b5 be
       -0.0045459215 -0.11842652 0.08087493 -0.35516092
000350 34 b0 28 3e fc 3d d5 bd c0 0e 04 be 64 4c 0f 3d
       0.16473466 -0.10412213 -0.12896252 0.03498496
000360 80 43 ad 3c 47 79 2a bc b9 88 82 bd 12 2f c7 bd
       0.02115035 -0.010404891 -0.06373734 -0.09725775
000370 2c 0d e4 bd 22 13 d1 bd 69 a5 86 3d 32 6c 06 3e
       -0.11135325 -0.102087274 0.06574518 0.1312721
000380 ec 7d 8b 3e 2b c3 16 be 9a 20 2f 3e 1d 2f 11 be
       0.27244508 -0.14722888 0.1710228 -0.14178129
000390 ba 01 3b 3e 36 0f 7e 3d e2 f9 fa 3c bd 0c 36 bd
       0.18262377 0.062026225 0.030636732 -0.044445742
0003a0 ec 07 1e 3e f1 b5 57 3e ec b3 cf bd 81 31 44 bc
       0.1543271 0.21065499 -0.10141739 -0.011974693
0003b0 cf 17 67 bc a2 7d fb bd d7 53 24 bb 15 0a fa 39
       -0.0141047975 -0.12279822 -0.0025074387 0.00047691228
0003c0 cf 59 f2 bb b8 8e 1f 3e 69 b9 81 3d ac b0 93 3e
       -0.00739596 0.15581787 0.06334192 0.28845727
0003d0 fc 2b f9 bd 53 cb 48 3e 0e 1b 04 bc 4a d6 ac 3d
       -0.121665925 0.19608812 -0.008063091 0.0843931
0003e0 33 64 bd 3b 9c 8a 1f 3e 72 13 3e be c1 0e 42 3d
       0.005779767 0.15580219 -0.18562105 0.04737735
0003f0 d5 6c 39 3e da 00 b2 3d 66 bf 4e be b5 c9 0d 3e
       0.18107922 0.08691569 -0.201902 0.13846476

a2c_network.actor_mlp.4.bias f4 [128]
000000 8a 02 d4 3c ae 7e e9 bd 4f ab 06 be b8 97 a0 bd
       0.025880117 -0.11401115 -0.13151287 -0.07841438
000010 c0 4e 07 be 6e e1 54 bd 29 59 bb bd dc 38 48 be
       -0.13213634 -0.0519728 -0.09147865 -0.1955294
000020 a3 78 9d bd 58 14 5d 3c 5c 08 7c be 66 db 84 bd
       -0.07689025 0.01349362 -0.24612564 -0.064871594
000030 b4 70 95 bd 8f 74 07 be 33 ca 0a be 39 60 ee bd
       -0.07296887 -0.13228057 -0.13553695 -0.11639447
000040 f9 ca c5 bc d2 8d 0c be da 45 a3 bd a6 84 31 bd
       -0.024144636 -0.13725975 -0.079723075 -0.043339394
000050 f7 ef 49 3d eb 17 ef bd a8 0d b2 bd 9e 7d 15 bd
       0.049301114 -0.11674484 -0.08694011 -0.03649675
000060 b5 62 07 be 1d 34 83 bd 7c ab 03 be 28 fa a7 3d
       -0.13221247 -0.06406424 -0.12858385 0.082020104
000070 34 07 1f 3e 76 5d 58 bd 00 43 b6 bc 05 fd 89 bd
       0.15530092 -0.052823506 -0.022248745 -0.06737713
000080 fe d2 32 3d 80 d7 05 be c1 05 85 3c e9 be 49 be
       0.04365825 -0.13070488 0.016238095 -0.19701733
000090 db 82 15 be a5 75 8a bd a9 f9 8e bd 7e 37 1b 3b
       -0.14600699 -0.0676072 -0.06981213 0.00236842
0000a0 9e 98 df 3d 47 36 c6 bd 25 79 81 ba 1e 3b 77 bd
       0.10917781 -0.09678321 -0.0009878023 -0.060359113
0000b0 c3 04 45 be d7 14 f0 bc 2a 1b 57 3b 20 61 f8 3c
       -0.19240098 -0.029306812 0.0032822588 0.03031975
0000c0 ee 6f 3e 3d b6 c9 fd bd 5d ce 43 bd 21 75 32 bd
       0.046493463 -0.12391989 -0.047804225 -0.043568734
0000d0 f5 ab 21 bd 9b f4 8f 3e de 96 19 3b 59 c6 2a bd
       -0.03947063 0.28116307 0.002343587 -0.041693065
0000e0 af b9 45 3b e6 f7 2c 3c 99 18 01 be 9a 80 c1 3d
       0.003017049 0.0105571505 -0.1260704 0.09448357
0000f0 f8 18 4d 3d 5d 62 12 be 69 4e d5 bc 8d 86 28 bd
       0.05007264 -0.14295335 -0.026038365 -0.041143943
000100 06 87 36 bd 43 4d 8c bd 5f 7a 8e bd c2 96 cb bc
       -0.044562362 -0.06850674 -0.06956934 -0.02485216
000110 02 bd 0c bd 4b ba 78 3c 25 5d 42 3d c1 df d9 3c
       -0.03435994 0.015181134 0.04745211 0.026595952
000120 23 b4 ca bd f0 81 5f bd 43 be 6b 3d 18 60 37 be
       -0.098976396 -0.054567277 0.057554495 -0.1790775
000130 84 e8 20 3d 4c cc 24 3c 8c af 10 bc d0 23 6e bd
       0.039284244 0.010058474 -0.008830916 -0.058139622
000140 bf d7 1d 3d 2c 85 98 bd b3 49 f8 bd 64 17 d0 bd
       0.03853583 -0.074472755 -0.12123432 -0.101607114
000150 0d ad d8 3b aa e1 35 bd 21 09 b1 bc ac d5 7c bd
       0.006612426 -0.044404663 -0.021610798 -0.06172721
000160 02 d4 0c 3b 7e ff a9 bd 98 45 df bd 65 8e 8f 3d
       0.0021488671 -0.083006844 -0.10901946 0.070095815
000170 1d c1 98 bd 06 d8 74 bd 5c 86 76 3e af 37 84 bc
       -0.074587084 -0.05977633 0.24074692 -0.016139833
000180 63 52 6f bd 7d 3f f6 bd f7 8a b2 bb 0e ee 53 3a
       -0.05842818 -0.12023828 -0.005448695 0.0008084484
000190 05 4c bf bd e8 d5 e7 bc b2 3f e0 bb 5e e1 9f bd
       -0.093406714 -0.02830024 -0.0068435306 -0.07806657
0001a0 90 6c a7 bc 15 8f 28 bc 0f db 7e be c2 a3 fa 3b
       -0.020437509 -0.01028802 -0.24888252 0.007648916
0001b0 9b 36 43 bc 6f 69 7a bd 24 ee 9d bd 81 57 82 3d
       -0.011914874 -0.061135706 -0.07711437 0.06364346
0001c0 1f ac 7d bd 92 8b 2e 3d 1b 85 b0 bd ce 4a e5 bd
       -0.061931726 0.042613573 -0.08619138 -0.111959085
0001d0 22 b3 44 bd fd d1 66 bd de 42 22 3c fb ec 2b 3c
       -0.048022397 -0.056352604 0.009903638 0.010493512
0001e0 2f 73 44 be e7 3a bd bd b4 00 14 bd 14 88 ad ba
       -0.19184564 -0.0923975 -0.036133483 -0.0013239407
0001f0 ee a8 be 3c fd 9f 31 be 22 49 ea 3c 6b 1b 69 bc
       0.023273911 -0.17346187 0.028599326 -0.014227728

a2c_network.value.weight f4 [1, 128]
000000 8c 80 1c bc aa 65 26 3c 6e 5b 00 bd 56 25 35 bc
       -0.009552132 0.010156075 -0.031337194 -0.011056265
000010 a4 f7 48 3c ae b7 42 3c 0b 13 ba 3c de 38 92 3c
       0.012266073 0.011884613 0.022714159 0.017849382
000020 0c 65 15 3c 15 42 93 3c 85 7f 09 be 1e 4d 5f 3c
       0.00911833 0.017975846 -0.13427551 0.013629226
000030 91 22 d4 3c 86 ed e7 3b 5d 01 40 bc 68 7c 00 3d
       0.025895389 0.0070778755 -0.011719075 0.031368643
000040 14 f9 b0 3a b7 e4 61 3a 16 6f ff 3b 2b 87 f2 3b
       0.0013501965 0.000861715 0.007795225 0.007401367
000050 a6 b8 be bb af b9 d2 3c 41 ba da bc f2 0d 3b bb
       -0.0058203517 0.025723306 -0.02670014 -0.0028542248
000060 80 2d d9 b8 93 7b 47 3c e8 46 90 3c 98 83 32 3c
       -0.000103558414 0.0121754585 0.017611936 0.010895632
000070 44 3f 99 3d 48 04 b3 38 c8 66 a2 bc 87 cf 0a be
       0.0748277 8.5361826e-05 -0.0198244 -0.13555728
000080 c1 6f b9 3b b2 9c ce 3b 37 5c 0f bd 5a 5d db bc
       0.005659074 0.0063053006 -0.035000052 -0.026777912
000090 59 26 e4 3b f1 6f bd 3c f0 42 8d bb 51 d3 83 bc
       0.006962579 0.023124667 -0.004310958 -0.016091974
0000a0 b1 a0 1c 3d 2d 87 0c bb 43 ec 66 3c e6 d6 b3 bc
       0.038239185 -0.0021442876 0.014094415 -0.021953057
0000b0 15 ee 9e bd ad 8d 84 3c 8a 80 3f 3d 0c bd 12 bb
       -0.07760254 0.016180838 0.046753444 -0.0022390513
0000c0 29 e8 0f 3c de 56 f9 3b d6 94 c5 bc e6 83 3b 3c
       0.008783379 0.0076092323 -0.024118822 0.011445021
0000d0 32 37 9a 3c b3 ce 4f 3e db 56 bc b9 b1 9a 79 bc
       0.018825147 0.20293693 -0.00035922867 -0.015234635
0000e0 88 23 ef bb b5 2a ad 3c 56 d5 d8 bc 44 0f 81 3d
       -0.007297937 0.021138528 -0.026468914 0.0630174
0000f0 cb 69 11 ba 75 ee b6 3b 62 f5 98 bd d2 80 8f bc
       -0.00055470754 0.0055826255 -0.07468678 -0.017517481
000100 e4 e2 83 bc 70 1b 7f 3c 19 ac a4 bc e1 29 f1 bc
       -0.0160994 0.015570506 -0.020101594 -0.029438915
000110 4e 28 34 ba 87 0a 1c 3c 3c a7 9f 3b db 37 f5 b9
       -0.0006872461 0.009523994 0.004872231 -0.00046771657
000120 6f 4b 90 3c f7 cd 5c bc c3 7f a8 3b a7 c1 04 bd
       0.017614095 -0.01347684 0.0051421835 -0.032411244
000130 69 50 93 3c 34 cf 41 bb 1b 9a 22 ba 23 a6 96 bc
       0.017982678 -0.0029572966 -0.0006202773 -0.018389767
000140 81 43 e7 3c 68 20 f3 3c 3a af 91 3c 8d ae 48 bb
       0.02823043 0.029678538 0.01778375 -0.0030621618
000150 b5 91 9a 3c 93 87 70 bc 49 e0 87 3d 9e ec 9e 3c
       0.018868307 -0.014680761 0.06634576 0.019399937
000160 8f d4 21 bc b8 81 95 3c 6c 09 a8 bb e4 eb c6 bc
       -0.009877338 0.018250331 -0.0051280763 -0.024282403
000170 77 3c 93 be c6 9e f4 bb 69 dd 1b 3e d8 8b a7 bb
       -0.2875707 -0.0074652163 0.1522118 -0.005113106
000180 ca ec aa bc b3 14 9a 3c 8d 1f bf bc 8d 91 67 3b
       -0.020864863 0.018808698 -0.023330474 0.0035334558
000190 c0 8c b5 bc f8 e9 ad bc 03 08 2f 3d 2b 65 ff 3c
       -0.022161841 -0.021229729 0.04273225 0.03117617
0001a0 12 69 e5 bb db 73 98 3c b2 e2 7f 3b e2 0c 32 bd
       -0.0070010507 0.018609932 0.0039045033 -0.043469317
0001b0 cb 19 69 bd 50 41 00 3c cd 07 51 3c 55 24 ec bd
       -0.056909364 0.007828072 0.0127582075 -0.11530367
0001c0 65 bd 5e 3d 47 a2 05 3d 35 e1 ce 3c e6 8d e9 bb
       0.05437984 0.032625463 0.025253871 -0.0071275113
0001d0 a1 b2 de bb 43 95 bc bd 55 45 b3 3a 2c f9 1b bd
       -0.0067961966 -0.09208157 0.0013677279 -0.038079426
0001e0 b4 67 9a 3b 31 b0 ba bb 68 72 47 bd aa ca 4f bd
       0.0047120694 -0.005697273 -0.04869309 -0.050730385
0001f0 21 19 aa 3b e2 21 cd 3b 2a 98 77 3b 68 34 da bc
       0.005190984 0.0062601427 0.0037779906 -0.026636317

a2c_network.mu.weight f4 [18, 128]
000000 7b 70 5c 3e eb b3 47 bc bc 80 b0 3c f4 3b 85 3d
       0.21527283 -0.012188892 0.02154576 0.06505576
000010 a8 43 3b bd 8d a7 9c bc 03 e4 88 bd ca e9 98 3d
       -0.04571882 -0.019122863 -0.06684115 0.07466467
000020 06 d8 81 bd a4 ae 58 bd 02 f4 c6 bc d9 2e 0d bd
       -0.06340031 -0.052900925 -0.024286274 -0.034468506
000030 3a c0 45 bd 23 6d 20 3d c2 11 3e 3e 64 e9 82 3d
       -0.048279025 0.03916658 0.18561462 0.06392172
000040 dc 3e 9c 3b 99 84 0a 3c 8f 7a de 3c d4 a2 88 be
       0.0047682356 0.008454465 0.02715805 -0.26686728
000050 61 af 4d bd 44 71 be bd 5a 6e 32 3e 76 2f 83 bd
       -0.050216082 -0.092989475 0.17424908 -0.06405537
000060 46 97 30 be 0a 46 50 3e 42 c7 07 3d cc 7e 02 be
       -0.17245206 0.20339218 0.03314901 -0.12743682
000070 25 17 c1 bb b6 23 f5 3b 92 54 be 3d ac 17 a6 3d
       -0.0058926516 0.0074810637 0.09293474 0.08109984
000080 cb c0 00 3e bd 8f 41 be e8 62 77 3c 0d a5 2e 3d
       0.12573545 -0.18902488 0.015099265 0.042637873
000090 2d 3b 87 3c a7 d8 6e 3d 9a 2b d8 bd 3e 78 64 bc
       0.01650771 0.058312085 -0.10555191 -0.013944684
0000a0 42 53 1b 3e 43 3f af bd 3e be 99 bd 5f 80 0d 3c
       0.15168479 -0.08556988 -0.07506989 0.008636563
0000b0 35 11 21 bd c4 76 50 be bd 30 e5 3c ee 2e 9c 3d
       -0.03932305 -0.20357805 0.027977342 0.07626139
0000c0 7d 38 60 bd 08 d3 af ba 03 92 e3 3d 2f 46 c0 3e
       -0.05474137 -0.0013414333 0.11111834 0.37553546
0000d0 01 ee 99 bd bb 7a 6b bd 72 c3 65 3d d6 25 f0 bd
       -0.07516099 -0.05749009 0.056094594 -0.11725967
0000e0 65 d8 9e bc 06 8e 1c bc dc 5c 5d 3d f7 09 65 3e
       -0.019390294 -0.009555345 0.054043636 0.22367083
0000f0 2b e5 07 3d ac f7 ca 3d bc 50 15 3e d3 6e 49 3c
       0.033177536 0.09910521 0.14581579 0.012294489
000100 10 1a c4 bd 55 80 bc bd be 43 50 3e e9 b3 ba bb
       -0.095752835 -0.09204165 0.20338342 -0.0056977165
000110 64 6f cb bd 66 d5 8d 3c 23 22 88 bc 69 1a af bd
       -0.099333555 0.01731367 -0.01661784 -0.08549959
000120 c1 38 10 3e 4a b6 80 3d 52 1e 11 3e 06 0a e0 3d
       0.1408415 0.06284769 0.14171723 0.10939412
000130 7e fc d6 bc 6e 42 d4 bd eb 97 87 3d df b6 1d 3e
       -0.026243445 -0.10364233 0.06620773 0.15401791
000140 22 db 20 3e 98 c0 10 3d 6e 0b cb 3d bd 81 a6 bc
       0.15708593 0.03533992 0.099142894 -0.020325536
000150 8a 9b 64 3c 66 d0 3c 3e 38 77 7a 3e 2e 59 ec 3d
       0.013953099 0.18438873 0.24459541 0.11540447
000160 58 55 e5 bd 82 ea 83 bd fc 77 e2 bd b7 02 8a 3d
       -0.11197919 -0.06441213 -0.110580415 0.06738799
000170 a9 ee 79 3b fd 48 38 bd 48 f8 d0 3d 3d e3 03 be
       0.0038136637 -0.044991482 0.10203606 -0.12879653
000180 e7 98 b2 3d 0e ad a0 3c 6b 3d 96 bd 37 76 0f 3e
       0.0872057 0.019613769 -0.07335933 0.14009939
000190 0f db 29 be c3 64 19 bd 7a 5d de bc 7c 43 6e 3d
       -0.1658747 -0.03744961 -0.027144182 0.058169827
0001a0 d9 1a 5a 3d 87 ee 82 3c 90 34 2f be 6f cb d5 bd
       0.05324826 0.01598288 -0.17109895 -0.104391925
0001b0 cc c8 fd 3c 27 cf 3f bc 9b f1 a7 bd e9 be 33 be
       0.030979536 -0.011707104 -0.082003795 -0.17553295
0001c0 41 f3 12 3e 1a c7 f8 bd 65 c3 29 bd 95 37 87 bc
       0.14350607 -0.121473506 -0.04144611 -0.016505996
0001d0 a5 95 cc bc 01 ed 23 3c b0 46 b8 bd 0b 5d a2 3d
       -0.0249737 0.010005237 -0.089978576 0.07927903
0001e0 fe 6c 8b 3d b6 80 5e bd 6d 04 9a bc 20 2e 50 bd
       0.06807898 -0.054321967 -0.018800939 -0.05082524
0001f0 de 70 1e be 40 76 89 3d 24 75 83 be 39 5a 35 3d
       -0.15472743 0.067120075 -0.2567531 0.044275496
000200 b5 75 b2 3c e8 67 64 3c 23 eb 35 bd 75 0a 39 3e
       0.021784643 0.013940789 -0.044413697 0.18070395
000210 ef 45 7b 3c a6 88 0d be 92 a6 49 bd 40 07 3b bd
       0.015336498 -0.13821658 -0.04923112 -0.04566121
000220 81 a2 2b 3e 35 19 50 3b a3 74 40 bd 07 d3 84 bd
       0.16761209 0.0031753306 -0.046986233 -0.06485563
000230 18 9f 9f bd 08 b1 9e 3d 58 81 66 be 31 f7 e9 3c
       -0.077940166 0.0774861 -0.22510278 0.028560253
000240 dd 42 06 bc 83 9a d5 3d 64 d4 cf bd b8 c1 c8 bd
       -0.008194652 0.104298614 -0.10147932 -0.09802574
000250 5f 86 2b 3c 18 3f 49 be 4e f4 d9 3d f4 00 a4 3d
       0.010469048 -0.19652975 0.106423005 0.08007994
000260 b6 0f 9d bd 1e 2b 59 be 81 98 d8 bc ca 42 22 bd
       -0.07669012 -0.21207854 -0.026439907 -0.039614476
000270 76 76 a7 bd df a8 85 bc db 72 2c bd 9f 95 9e bc
       -0.081768915 -0.016315876 -0.042101722 -0.019358454
000280 d0 7f 4a 3c fe 72 2e be f6 9e 8a bd db 29 09 3d
       0.012359574 -0.17036054 -0.06768601 0.033487182
000290 bd 8c 9a 3e 4c d8 c1 3d 2a 83 89 3d af 34 be bc
       0.301855 0.094650835 0.06714471 -0.02321848
0002a0 bb 63 0e 3d 97 45 9b 3d 3d 82 1d bd eb 05 84 3d
       0.03476308 0.075816326 -0.038454283 0.06446441
0002b0 dc 9e 46 bd 97 6d da 3d 21 36 a7 3d 88 8e 9a bd
       -0.048491344 0.10665434 0.08164621 -0.07546717
0002c0 42 b5 99 bd c3 69 93 be 68 65 80 3d 67 47 2d 3d
       -0.07505275 -0.28791627 0.06269342 0.042304423
0002d0 22 11 57 3e d1 2a 02 be 2f 7a 47 be b2 16 f1 bd
       0.2100263 -0.12711646 -0.19480203 -0.11771907
0002e0 f8 9a 85 bd 79 ea b2 3d cf 95 89 3c e8 b7 ca 3d
       -0.065236986 0.08736128 0.016795067 0.098983586
0002f0 b9 67 ca bd e7 ba 0c be b8 23 e7 3c 3c a0 a0 3c
       -0.09883065 -0.13743173 0.028215274 0.019607656
000300 fa c3 23 3e 19 c1 d6 bc ae 71 cf 3d 36 f7 87 3c
       0.15992728 -0.026215123 0.101291046 0.016597372
000310 65 df df bc 88 9a 2e 3d e6 63 f4 bd 16 2e 56 bd
       -0.027328203 0.04262784 -0.119331166 -0.052290045
000320 dc 78 18 3e 4a 63 03 be a7 81 aa 3c 6d a9 c5 3d
       0.14889854 -0.12830845 0.020813776 0.09651456
000330 7d 44 88 bd fa d1 39 bd cc 89 e5 bc 51 8d 6d bc
       -0.06653688 -0.045366265 -0.028019808 -0.0144990245
000340 80 95 d2 3c a3 a9 54 3e 6c a8 ad bd 49 79 82 3e
       0.025706053 0.20767836 -0.084793895 0.25483158
000350 39 e5 45 bc e1 7a 81 bb 57 56 9c 3c 8f bc 44 3c
       -0.012078577 -0.003951416 0.019084139 0.0120078465
000360 5e c7 0e bc c1 b4 f9 bd 08 35 a6 3e 13 2a 68 bd
       -0.008714525 -0.12192679 0.32462335 -0.05668075
000370 dc 36 5c bd 5b 8e 81 3c e0 dd 91 3d 5a 21 77 bb
       -0.053763255 0.01581495 0.071223974 -0.0037709088
000380 ab f7 d7 3d 84 34 ec 3d 51 ac d8 bd 18 dd 68 be
       0.10545286 0.11533454 -0.10579742 -0.2274059
000390 ea f9 68 3e 11 0c c0 bd 17 e3 64 bc eb 0f 90 bd
       0.22751585 -0.093773015 -0.013970158 -0.07034286
0003a0 ae 5e e4 bc 00 74 cd 3c 07 9b b1 bd 58 7a 31 3d
       -0.027877178 0.025079727 -0.08672147 0.043329567
0003b0 74 46 85 bd aa d7 e0 bc 50 b2 43 3d 1c 51 ae bc
       -0.065075785 -0.027446587 0.047777474 -0.02127891
0003c0 11 55 ce 3c bb 05 30 3d 24 68 16 3e 94 a5 e5 3d
       0.025187047 0.042974215 0.14688164 0.11213222
0003d0 fd a5 dd 3c ee f2 b5 3c e2 10 4e be 4d a7 8e 3d
       0.027056688 0.022210564 -0.20123628 0.06965504
0003e0 2e 2b 40 3c 01 2b 2f bd cf c8 3a 3d 59 d4 cd bc
       0.011729045 -0.04276562 0.045601662 -0.02512567
0003f0 eb e1 80 3d 66 7d 08 bd 1d e0 16 3d 20 30 cd bd
       0.062930904 -0.033322714 0.036834825 -0.10018945

a2c_network.mu.bias f4 [18]
000000 2e 73 82 3b e6 a2 48 bb 15 2a 8c 3d 7c ea 45 bd
       0.0039810156 -0.0030614673 0.06843964 -0.048319325
000010 03 6f 9e 3d d7 33 f7 bc f0 d4 50 3e a8 27 54 bc
       0.077360176 -0.030176086 0.20393729 -0.012948908
000020 b4 b0 e5 3d 07 ac 4a 3d f5 42 73 3b ba bf 50 3e
       0.11215344 0.049480464 0.0037118767 0.20385638
000030 7a 26 b6 3a bf 54 9f bd cd de 3c 3d ff 7a e0 bc
       0.0013896965 -0.07779836 0.046110917 -0.0274024
000040 72 29 aa 3d ff 8a cf 3d
       0.08308686 0.10133933

exp_avg f4 [18]
000000 1d 23 6c 3a 37 01 49 39 2a 27 84 39 b8 f2 d1 b8
       0.0009007918 0.00019169306 0.0002520618 -0.000100111065
000010 86 65 e8 39 ca e4 f6 b9 7f d8 9a b9 5d d5 19 39
       0.0004432613 -0.00047091238 -0.0002953447 0.00014670701
000020 57 bd a6 39 44 54 aa b7 c9 8e 5d ba 50 09 49 ba
       0.00031803056 -2.0304818e-05 -0.00084517576 -0.0007668929
000030 96 e8 c5 b9 da 93 31 38 14 47 05 39 16 f0 51 39
       -0.00037748058 4.2337786e-05 0.00012710347 0.00020021232
000040 2a 8c 5e b9 f6 6f 80 3a
       -0.00021223785 0.0009798992

exp_avg_sq f4 [18]
000000 a6 a6 fd 36 15 2e d6 36 56 32 fe 36 09 f9 fa 36
       7.559388e-06 6.3830616e-06 7.5756498e-06 7.479572e-06
000010 fc f3 f5 36 a8 86 f8 36 8e fd f9 36 12 b6 cc 36
       7.3299725e-06 7.406652e-06 7.450296e-06 6.1008695e-06
000020 0a 28 0e 37 05 ef e4 36 d2 28 ee 36 e0 c3 f3 36
       8.473182e-06 6.822755e-06 7.097705e-06 7.264767e-06
000030 cb c8 f6 36 09 46 fe 36 4b 64 fc 36 02 85 01 37
       7.3547467e-06 7.577943e-06 7.521861e-06 7.7199675e-06
000040 01 17 db 36 2a 8a fa 36
       6.5293866e-06 7.466665e-06
