logs/rl_games/hexapod_flat_direct/2025-11-15_08-02-25/nn/last_hexapod_flat_direct_ep_650_rew_16.114655.pth (torch, 545947 bytes, 33 tensors)

value_mean_std.running_mean f8 [1]
0	0x3fe74838727cd9e9	0.7275659786308185

value_mean_std.running_var f8 [1]
0	0x3fc95cb3b0aca7ff	0.19814153792077602

value_mean_std.count f8 []
0	0x41ae780002000000	255590401.0

a2c_network.sigma f4 [18]
0	0xbf223a7f	-0.6337051
1	0xbf9cc3ae	-1.2247217
2	0xbf85d942	-1.0456927
3	0xbf792be4	-0.97332597
4	0xbf94093f	-1.1565322
5	0xbf57ce44	-0.8429911
6	0xbfc9fbaf	-1.5779933
7	0xbfae50d4	-1.3618417
8	0xbfa1f7ac	-1.2653708
9	0xbfba5369	-1.4556705
10	0xbfce69db	-1.6126055
11	0xbfa8bf45	-1.3183371
12	0xbf61c4e5	-0.8819106
13	0xbf8929fc	-1.0715938
14	0xbf5a344a	-0.85236037
15	0xbf6f8ff4	-0.9357903
16	0xbf81592e	-1.010534
17	0xbf8135db	-1.009456

a2c_network.actor_mlp.0.weight f4 [128, 66]
0	0xbe5fe08d	-0.21863003
1	0xbed8facb	-0.4237884
2	0x3c99126f	0.018685548
3	0xbe05518c	-0.13019389
4	0x3e507da8	0.20360434
5	0x3e395cbd	0.18101783
6	0x3fc222e5	1.5166899
7	0x3e8b0244	0.27150166
8	0x3d643fb7	0.055724826
9	0xbeace9d6	-0.33772153
10	0xbebd6889	-0.36993816
11	0x3b9034a1	0.004400805
12	0x3d38cd75	0.045117814
13	0x3f4e8c70	0.8068304
14	0x3e33f5c7	0.17574225
15	0xbcc916c4	-0.024546988
16	0xbe5b368b	-0.21407525
17	0x3e5f9902	0.21835712
18	0x3da695bf	0.081340306
19	0xbea111dc	-0.31458938
20	0x3d3c4b43	0.045970213
21	0xbe756401	-0.2396393
22	0xbee27ce0	-0.44235897
23	0xbea47df5	-0.32127348
24	0xbe282c1f	-0.16423081
25	0xbf2bb008	-0.6706548
26	0x3dc69bbf	0.09697675
27	0x3edccf7a	0.43127042
28	0x3e4e1a8f	0.20127319
29	0x3ee41898	0.44550014
30	0x3c85e5f3	0.016345
31	0xbca47169	-0.02007361
32	0x3d566b96	0.052348696
33	0xbd49b0e0	-0.049240947
34	0xbc2527e1	-0.010080309
35	0x3da0c076	0.07849209
36	0xbd2eb17d	-0.042649735
37	0xbdf2f6de	-0.118634924
38	0x3d9757f2	0.07389821
39	0xbe01cbce	-0.12675402
40	0xbd38ff9c	-0.045165643
41	0xbd3957cb	-0.04524974
42	0xbd8622c5	-0.065496005
43	0x3d0f79c2	0.035028227
44	0x3cc43df1	0.023955317
45	0xbd2577ad	-0.040397335
46	0xbceb8213	-0.028748548
47	0xbb639dd1	-0.0034731517
48	0xbd98f8ee	-0.074693546
49	0x3e5d545b	0.2161421
50	0x3d6103a1	0.0549351
51	0x3d851176	0.06497471
52	0xbdfc5856	-0.12321536
53	0x3d1f0b55	0.038829166
54	0xbd5d8e0b	-0.05409054
55	0xbe6611d0	-0.22467732
56	0xbd75942a	-0.059955753
57	0xbe67f526	-0.2265211
58	0x3bab0e6b	0.0052202246
59	0xbe9b4be0	-0.30331326
60	0x3e44ad4e	0.19206735
61	0xbcd2fda9	-0.02575572
62	0xbd89d8bb	-0.06730791
63	0x3d20ca25	0.03925528
64	0x3db7dc4a	0.08977564
65	0x3e16d327	0.14728986
66	0x3ea82328	0.32839322
67	0x3e6d0e58	0.23150003
68	0xbe00a3e5	-0.12562521
69	0xbe2e1492	-0.17000034
70	0xbe40ec10	-0.1884005
71	0x3e0aaa09	0.13541426
72	0xbe8762f6	-0.2644269
73	0xbe9963db	-0.29958996
74	0xbd1a00e2	-0.0375985
75	0xbf182b11	-0.59440714
76	0x3ef79ad1	0.48360303
77	0xbdcddd5c	-0.100519866
78	0x3e15ea4f	0.14640163
79	0xbe67d64c	-0.22640342
80	0x3f05570b	0.5208594
81	0x3e0f1c5e	0.13975665
82	0xbb9ce2ce	-0.0047877794
83	0xbda6115c	-0.0810878
84	0x3d49fa56	0.049311005
85	0xbafd72c0	-0.0019336566
86	0xbcea189e	-0.028576192
87	0xbe0a6b4c	-0.13517493
88	0x3d8c21b7	0.06842368
89	0xbcf2e9ea	-0.029652555
90	0x3e7d3e33	0.24730758
91	0x3e832d5b	0.2562054
92	0xbd30b1ea	-0.043138422
93	0xbea1a353	-0.3156992
94	0x3d294538	0.041325778
95	0x3d6620be	0.05618357
96	0x3be51483	0.0069909706
97	0xbdbde947	-0.0927301
98	0xbc6ea8d7	-0.014566622
99	0x3bcdb129	0.0062772227
100	0xbd41772c	-0.04723279
101	0x3c8fae4a	0.017539162
102	0xbda983de	-0.08277105
103	0xbd912d59	-0.070887275
104	0xbdb57346	-0.08859877
105	0x3cdbb786	0.02682091
106	0x3c368cc7	0.011141962
107	0x3d35da65	0.04439773
108	0xbd2aea14	-0.04172714
109	0x3d242e83	0.04008342
110	0x3748ea26	1.1975446e-05
111	0x3d875ca6	0.06609468
112	0xbd035dbb	-0.03207181
113	0xbd4af2fd	-0.049548138
114	0x3d8a1664	0.06742552
115	0xbd95bbfc	-0.07311246
116	0x3e4ee399	0.20204009
117	0xbdb2e55d	-0.08735154
118	0xbcc47012	-0.02397922
119	0x3d72b9f1	0.05925936
120	0x3de68349	0.112555094
121	0x3c37836c	0.011200767
122	0xbd247009	-0.040145908
123	0x3d90168d	0.07035551
124	0xbe5cb424	-0.21553093
125	0x3d98b9f8	0.07457346
126	0xbcab6be0	-0.020925462
127	0x3dffc833	0.12489357
128	0x3dd808f7	0.10548585
129	0xbda39cac	-0.07988867
130	0xbc37c227	-0.011215723
131	0x3d651de4	0.05593671
132	0x3de80ac5	0.11330179
133	0x3d9db1d3	0.07699933
134	0xbebcf76c	-0.36907518
135	0x3e02fb18	0.12791097
136	0xbd7a20ed	-0.061066557
137	0xbe4ac5bf	-0.19801997
138	0x3ce70e04	0.028204925
139	0xbef325e9	-0.4748986
140	0xbe2543ab	-0.16139095
141	0xbf04ba47	-0.51846737
142	0xbde0b5eb	-0.10972198
143	0x3e6408db	0.22269003
144	0xbe56e037	-0.20983969
145	0xbbb59e5e	-0.0055425605
146	0xbefea728	-0.49736905
147	0x3ebb90f9	0.36634043
148	0xbf75038e	-0.9570855
149	0x3ee4df22	0.44701487
150	0xbc120d8f	-0.008914365
151	0xbe35d71d	-0.1775784
152	0x3e5b3140	0.21405506
153	0xbb120e47	-0.0022286342
154	0xbe2d91b3	-0.16950111
155	0x3dc23dd9	0.09484453
156	0xbdb6c7c6	-0.089248225
157	0xbd8c03c7	-0.06836658
158	0xbd5623c3	-0.0522802
159	0x3de2362f	0.11045491
160	0xba46f0bb	-0.0007588972
161	0xbe864c30	-0.2623
162	0xbd002719	-0.031287286
163	0xbd91d321	-0.07120348
164	0xbd04eac2	-0.032450445
165	0x3d8df060	0.069306135
166	0x3d7a428a	0.061098613
167	0xbd2ef089	-0.04270986
168	0xbda1036b	-0.0786198
169	0xbd88b6ea	-0.06675513
170	0xbd7755fc	-0.060384735
171	0xbdf96346	-0.12177138
172	0xbd22eb98	-0.03977546
173	0x3a7b98b4	0.00095976447
174	0x3aedc9cf	0.0018141809
175	0xbd8d49b7	-0.068988256
176	0x3ce4fa61	0.027951421
177	0xbd47335a	-0.048632957
178	0x3d1b8811	0.03797156
179	0x3c8921de	0.016739782
180	0xbe9586bd	-0.2920436
181	0x3d26148e	0.040546946
182	0xbdf1c1e6	-0.11804561
183	0x3e8ee5cf	0.27909705
184	0xbe75ca35	-0.24002917
185	0xbdf6c958	-0.12050122
186	0xbdfb4487	-0.1226893
187	0xbd82f02d	-0.06393466
188	0x3dd6bdcb	0.10485419
189	0x3c93fa9d	0.018063838
190	0x3c45c274	0.012070287
191	0xbd562cb7	-0.052288737
192	0x3dbcd234	0.092197806
193	0x3dce9dd6	0.100886986
194	0x3e4218b8	0.18954742
195	0xbdb768d9	-0.08955545
196	0xbd7a79af	-0.061151203
197	0xbdf01c3e	-0.11724137
198	0x3e9ad9c6	0.30244273
199	0x3d1a54e4	0.037678614
200	0xbe3532f3	-0.17695217
201	0xbda4488c	-0.0802165
202	0xbe05fbf1	-0.1308439
203	0xbe05433e	-0.13013932
204	0xbf008fd1	-0.50219446
205	0x3ee48fc9	0.4464095
206	0x3eb79a98	0.35860133
207	0x3df3166b	0.1186951
208	0x3e4ea17f	0.20178793
209	0x3de45344	0.11148694
210	0xbe35295a	-0.17691556
211	0x3cfa9313	0.030587709
212	0x3d6b3d67	0.057431605
213	0xbe340cbd	-0.17582984
214	0xbe03404b	-0.12817495
215	0x3df1e579	0.118113466
216	0xbd3e3030	-0.046432674
217	0xbe7ae064	-0.2449966
218	0xbde5df14	-0.112241894
219	0xbcdda34f	-0.02705541
220	0xbe3f097c	-0.18655962
221	0x3df2147c	0.11820313
222	0x3e78042b	0.2422034
223	0x3e72ef10	0.23724008
224	0x3e6ae22e	0.22937843
225	0xbdfd4d7e	-0.12368296
226	0xbec0ebd7	-0.37679932
227	0xbe42c578	-0.19020641
228	0xbb88001e	-0.0041504046
229	0xbd990ac7	-0.07472759
230	0xbcfe9885	-0.031078586
231	0xbc2c9241	-0.0105329165
232	0xbd35d3ab	-0.044391315
233	0xbdc732c9	-0.097264834
234	0x3d94b80c	0.07261667
235	0x3c0a4ce6	0.008441186
236	0xbbe8538c	-0.0070900377
237	0xbd87b676	-0.066265985
238	0xbc20d1b0	-0.009815618
239	0x3d65ddcd	0.05611973
240	0xbce6b164	-0.028160758
241	0xbbaf1667	-0.0053432467
242	0x3d0e7034	0.034774974
243	0xbd32b292	-0.04362733
244	0xbcb0170e	-0.021495368
245	0x3c453a1c	0.01203778
246	0xbd7bd7cc	-0.061485097
247	0x3d7703f7	0.060306516
248	0x3e3a0ad2	0.1816819
249	0x3d7d2b13	0.061808657
250	0x3da0d34a	0.078528
251	0x3e27d68c	0.16390437
252	0xbd81be2c	-0.063351005
253	0x3d8c90f3	0.06863584
254	0xbc23f1d9	-0.010006391
255	0xbd94c49f	-0.07264065

a2c_network.actor_mlp.0.bias f4 [128]
0	0xbe35f357	-0.17768608
1	0x3dafe23c	0.08588073
2	0x3dafb403	0.085792564
3	0xbe9014b8	-0.28140807
4	0x3d3a7655	0.045523006
5	0x3e0bc0bd	0.13647743
6	0xbdbb73aa	-0.091529205
7	0x3df22786	0.11823945
8	0xbccab22f	-0.024743168
9	0x3cb866fd	0.022510046
10	0xbcae28b5	-0.021259645
11	0x3cf52530	0.029924959
12	0xbde8bf82	-0.11364652
13	0xbddca477	-0.10773557
14	0x3e2016a6	0.1563364
15	0xbd3c3efb	-0.0459585
16	0xbd8096fb	-0.06278797
17	0xbcbebfab	-0.023284754
18	0xbe109ec4	-0.14123064
19	0x3c1824c9	0.009286114
20	0x3db3c36f	0.087775104
21	0x3e4769e5	0.1947399
22	0x3d7ea97d	0.062173355
23	0x3bfc71a7	0.007703978
24	0x3d14101a	0.03614817
25	0x3dcac5a7	0.099009804
26	0xbdbeea66	-0.09322052
27	0x3e0d1648	0.13778031
28	0x3dc3d87c	0.095627755
29	0xbdf2a7c8	-0.11848408
30	0xbdf9c53d	-0.12195823
31	0xbe32b6a6	-0.17452487
32	0xbd6885ed	-0.056768347
33	0x3df939c1	0.12169219
34	0xbd69ba1e	-0.05706226
35	0xbe4153a3	-0.18879561
36	0xbc3d29d9	-0.011545622
37	0x3e263bee	0.16233799
38	0xbdafde37	-0.08587306
39	0xbde5797f	-0.11204814
40	0x3d35a005	0.04434206
41	0xbe30e33d	-0.17274185
42	0xbe82e02e	-0.2556166
43	0xbe03438a	-0.12818733
44	0xbe16fe60	-0.14745474
45	0x3e4facea	0.20280805
46	0xbe55b983	-0.20871548
47	0xbd92854c	-0.071543306
48	0x3d91c67d	0.07117937
49	0xbd023e8c	-0.03179793
50	0xbe37e4e7	-0.17958413
51	0xbd64face	-0.05590325
52	0x3def9689	0.11698634
53	0xbe1b6974	-0.15176946
54	0xbe16a458	-0.1471113
55	0x3d4d8c14	0.050182417
56	0x3d9a30ad	0.075288154
57	0xbda98f80	-0.082793236
58	0xbe1073e9	-0.14106716
59	0x3de04120	0.109499216
60	0xbcb1f924	-0.021725245
61	0x3dbb55ed	0.091472484
62	0x3cda3c68	0.026640132
63	0xbdcf1290	-0.101109624
64	0xbd9566d9	-0.07295007
65	0x3e2ec66b	0.17067878
66	0x3e4581ca	0.19287792
67	0xbd8c220f	-0.06842434
68	0x3cb05f38	0.021529779
69	0x3d3386ba	0.043829657
70	0xbdaf9f4b	-0.085753046
71	0x3dddebad	0.10835967
72	0x3de60a2c	0.11232409
73	0x3e12f5a9	0.14351524
74	0x3d7c3eff	0.061583515
75	0xbdb6622e	-0.08905445
76	0xbdee6710	-0.11640751
77	0x3c314d0c	0.010821592
78	0xbcc60b8f	-0.024175433
79	0x3d4905e4	0.049077883
80	0xbd86e0e9	-0.06585867
81	0x3cd9da2e	0.026593294
82	0xbdafabc9	-0.08577687
83	0xbda993f9	-0.08280177
84	0xbd589e82	-0.05288554
85	0x3dbc27ca	0.09187277
86	0xbe11ffde	-0.14257762
87	0xbe5af72e	-0.21383354
88	0xbda35c27	-0.07976561
89	0x3debb748	0.115095675
90	0x3cbb6443	0.022874957
91	0xbcae7dff	-0.021300314
92	0xbda9b504	-0.08286479
93	0x3e112756	0.14175162
94	0x3cd2dca7	0.02573998
95	0xbe4cc6dc	-0.19997734
96	0x3c7b7315	0.015347262
97	0xbe00428c	-0.12525386
98	0xbdca4b96	-0.09877698
99	0x3de36ec0	0.11105108
100	0x3e387dc1	0.18016721
101	0xbdae44e5	-0.08509234
102	0x3cce1c91	0.025160106
103	0x3cec2e19	0.028830575
104	0x3e055b58	0.13023126
105	0xbe1f3871	-0.15548874
106	0x3b4ed2ef	0.0031558832
107	0x3d8fb3d6	0.07016723
108	0x3da95111	0.08267415
109	0xbbb5a4c3	-0.005543323
110	0xbd581fd6	-0.052764736
111	0xbd79b970	-0.060967863
112	0x3d8a3814	0.06748977
113	0xbd892fb8	-0.06698555
114	0x3dbf9973	0.0935544
115	0xbd5b69f0	-0.053567827
116	0xbe2aca63	-0.16678767
117	0x3e0b5986	0.13608369
118	0xbda84c36	-0.08217661
119	0xbd6ced06	-0.05784323
120	0x3e809939	0.251169
121	0x3b9ee00f	0.004848487
122	0xbc6b79d5	-0.014372309
123	0x3b90f936	0.0044242395
124	0xbdbdc0de	-0.09265302
125	0x3d56ba42	0.052423723
126	0xbe0b9971	-0.13632752
127	0x3e05f4af	0.1308162

a2c_network.actor_mlp.2.weight f4 [128, 128]
0	0x3e1b2be1	0.15153457
1	0xbc1cc486	-0.009568339
2	0xbe2fa12e	-0.17151329
3	0xbd9f842a	-0.0778888
4	0xbe5e43fb	-0.2170562
5	0x3bc4763e	0.005995541
6	0x3d8fe76e	0.070265636
7	0xbd4f440a	-0.050601996
8	0x3e38144d	0.17976494
9	0xbde63974	-0.11241427
10	0xbd589586	-0.05287697
11	0x3dddde6b	0.108334385
12	0x3bd2f79d	0.006438209
13	0x3e37d948	0.1795398
14	0xbe26f4ca	-0.16304317
15	0x3c64451b	0.013932492
16	0x3e195978	0.14975536
17	0xbe29d7b9	-0.16586198
18	0x3db095db	0.08622333
19	0xbe03dbe1	-0.12876846
20	0xba8d9a7c	-0.0010803486
21	0x3e01ac9d	0.12663503
22	0x3e29b0f0	0.16571403
23	0x3e159e5e	0.14611194
24	0xbcf7bdc8	-0.030241862
25	0x3cd703f7	0.026247008
26	0xbd3a978e	-0.04555469
27	0x3dfda18c	0.12384328
28	0xbc2a4e8d	-0.0103947045
29	0xbe6000de	-0.21875331
30	0xbcd3a53f	-0.025835631
31	0xbd028d3b	-0.03187297
32	0xbe22aded	-0.1588666
33	0xbd5fe5f3	-0.054662656
34	0x3ddf6b12	0.10909094
35	0x3cbf5cab	0.023359617
36	0x3d632ee4	0.05546464
37	0x3d7a60df	0.06112754
38	0xbcc09b66	-0.0235116
39	0x3e137cdf	0.14403103
40	0xbdfa8c57	-0.12233799
41	0x3df88331	0.12134398
42	0xbd828a38	-0.063740194
43	0x3ed3263a	0.41240102
44	0xbd518f09	-0.0511618
45	0xbd16ab91	-0.036784712
46	0xbc2f473e	-0.010698138
47	0xbd82e748	-0.0639177
48	0xbd78f480	-0.06078005
49	0xbd0122f2	-0.031527467
50	0xbd42576f	-0.047446664
51	0x3d25b164	0.040452376
52	0x3e2c0e4d	0.1680233
53	0x3de7aff9	0.11312861
54	0x3dd3ec73	0.103478335
55	0x3dc8e279	0.09808821
56	0x3b5a5f1c	0.003332085
57	0x3db801ed	0.08984742
58	0xbd1c686d	-0.038185526
59	0x3c7ec4c1	0.0155498395
60	0xbd4d1bb1	-0.050075237
61	0x3df134da	0.11777659
62	0xbe337652	-0.17525604
63	0xbdb91060	-0.090363264
64	0xbc169e43	-0.009193006
65	0x3db69c35	0.08916513
66	0xbca524c7	-0.020159138
67	0xbe6f2287	-0.23353015
68	0x3dc8a2db	0.09796687
69	0x3d758824	0.059944287
70	0x3de44c5e	0.111473784
71	0x3e38e550	0.18056226
72	0xbd14af8e	-0.036300234
73	0xbd2639c0	-0.04058242
74	0xbddf1f6b	-0.108946644
75	0x3d4cb92d	0.049981285
76	0xbca55ca3	-0.020185774
77	0x3c8fe544	0.017565377
78	0x3bab4a18	0.0052273385
79	0xbc8f6d6d	-0.017508233
80	0x3d800fb9	0.06252999
81	0xbd8ed423	-0.069740556
82	0x3c70a8fc	0.0146887265
83	0x3d5adafe	0.053431503
84	0x3dbcda9d	0.09221385
85	0xbe002568	-0.1251427
86	0xbcbd4775	-0.023105362
87	0xbebfa18a	-0.37427932
88	0xbd0cebf6	-0.034404717
89	0xbcfa0d75	-0.030523995
90	0xbd170284	-0.036867633
91	0x3c9d27aa	0.019183952
92	0xbe0c2dce	-0.13689348
93	0xbe28063d	-0.1640863
94	0x3e4b02da	0.19825307
95	0x3e61e8fb	0.22061531
96	0x3b99d8e5	0.0046950453
97	0xbd493476	-0.049122296
98	0x3e09434a	0.13404575
99	0x3e27cb45	0.16386135
100	0x3d7f231a	0.062289335
101	0xbe04348a	-0.12910667
102	0x3cb70f15	0.022346059
103	0xbd8b4e34	-0.068020254
104	0x3e27f2dc	0.16401237
105	0x3ddf8252	0.109135285
106	0x3c2338f7	0.009962312
107	0x3d2fe52b	0.04294316
108	0x3dce735f	0.10080599
109	0x3c96a8be	0.01839101
110	0x3d64fdbc	0.055906042
111	0x3c2dec93	0.010615486
112	0x3e3c0f44	0.18365198
113	0xbc768d14	-0.015048284
114	0xbdd53c82	-0.104119316
115	0x3da6bbc1	0.0814128
116	0xbcedac84	-0.029012926
117	0xbdc54ab2	-0.096333876
118	0x3dfd6d73	0.123743914
119	0xbbebe378	-0.0071987472
120	0xbe0445d9	-0.1291727
121	0x3d8e8dea	0.06960662
122	0x3b6cff20	0.0036162809
123	0xbe37b407	-0.17939769
124	0x3d35c9e2	0.044381984
125	0x3e0a5487	0.13508807
126	0x3da20203	0.0791054
127	0xbd519834	-0.051170543
128	0x3d800d59	0.06252546
129	0x3d13af0e	0.036055617
130	0x3d1269db	0.035745483
131	0xbccdaa9c	-0.025105767
132	0xbe0fe624	-0.14052635
133	0x3d7b4059	0.061340664
134	0xbdcb7444	-0.09934285
135	0xbdb5a313	-0.088689946
136	0xbe00c094	-0.12573463
137	0xbddcac34	-0.10775033
138	0xbd64307a	-0.055710293
139	0xbe2e5d19	-0.17027701
140	0xbdc2e5f6	-0.09516518
141	0xbe171caf	-0.14757036
142	0x3d40c6e3	0.047064673
143	0x3dd8fb85	0.105948485
144	0xbddd6ac3	-0.10811379
145	0xbdb2269e	-0.08698772
146	0x3d8216e6	0.06352024
147	0x3c11c86d	0.008897883
148	0xbb3be549	-0.00286706
149	0xbda9cefd	-0.08291433
150	0x3e4b5e56	0.19860205
151	0xbd677ba7	-0.05651441
152	0x3e1493f4	0.14509565
153	0x3ddf0bcc	0.10890922
154	0x3d63b0b4	0.05558844
155	0x3b157eb4	0.0022811117
156	0xbc38af0b	-0.011272202
157	0x3ebae8da	0.36505777
158	0x3d395019	0.045242403
159	0x3e6c7bf4	0.2309416
160	0x3c4356f4	0.011922587
161	0x3d877cec	0.06615624
162	0x3e4d2724	0.20034462
163	0x3e15711f	0.14593934
164	0x3bc0a280	0.0058787465
165	0xbe78fb04	-0.24314505
166	0xbdf933be	-0.12168072
167	0x3d15012c	0.03637807
168	0xbd0be34a	-0.034152307
169	0x3d92d0e6	0.071687505
170	0x3e6f6862	0.23379663
171	0xbdb30532	-0.08741225
172	0x3e6fe298	0.23426282
173	0xbdc4a3d3	-0.096015595
174	0x3d46590b	0.04842476
175	0xbd842665	-0.06452636
176	0xbdcb348c	-0.09922132
177	0x3d92c9c9	0.07167394
178	0x3e0217dc	0.12704414
179	0xbc9569f1	-0.018238993
180	0xbcd56432	-0.026048753
181	0x3cbedea8	0.02329953
182	0x3e88657d	0.2663993
183	0xbb1fbc88	-0.0024373848
184	0xbdca5474	-0.098793894
185	0x3da99329	0.08280022
186	0xbd8e5676	-0.06950085
187	0xbe811288	-0.2520945
188	0xbd928b02	-0.0715542
189	0xbb761b34	-0.0037552835
190	0x3d9908e0	0.07472396
191	0xbd912145	-0.07086424
192	0xbe38c184	-0.1804257
193	0x3da3d8c8	0.08000332
194	0xbc091ea3	-0.008369121
195	0xbd97bb74	-0.07408801
196	0x3cf85716	0.030314963
197	0xbeaef0ef	-0.34168193
198	0x3da70c5f	0.081566565
199	0x3d8d47c5	0.068984546
200	0x3c83d4e4	0.016092725
201	0x3e080230	0.13282084
202	0xbdc7f257	-0.097630195
203	0x3d678cdf	0.05653083
204	0xbc42df9b	-0.011894132
205	0x3e4d4b5a	0.20048276
206	0x3df9b46d	0.121926166
207	0x3daee0af	0.08538949
208	0xbd7e7e1e	-0.062131993
209	0xbddb1da2	-0.106990114
210	0x3d50d16c	0.05098097
211	0xbd9a8a78	-0.07545942
212	0x3e62e23c	0.22156614
213	0xbe1a2eca	-0.15056911
214	0x3e4cdb6a	0.20005575
215	0x3e0ba9c1	0.13638975
216	0xbda260d9	-0.079286285
217	0xbdb732b3	-0.08945217
218	0xbe104305	-0.14088066
219	0xbdab78db	-0.08372661
220	0xbe271022	-0.16314748
221	0xbd47259e	-0.04861986
222	0x38b7e3db	8.7685614e-05
223	0x3de49d48	0.111628115
224	0xbd80562a	-0.062664345
225	0xbcf7102b	-0.030159077
226	0x3e19d897	0.15024029
227	0x3d904c0e	0.07045756
228	0x3d8eb423	0.06967952
229	0x3e1ea848	0.15493882
230	0x3cd80e5d	0.026374036
231	0xbd2f1b25	-0.042750496
232	0xbd336cc3	-0.043804895
233	0xbda0dc76	-0.078545496
234	0x3b1c0ad0	0.0023810156
235	0x3c614c88	0.013751157
236	0xbe6dfb61	-0.23240425
237	0x3e74b8d5	0.23898633
238	0x3e21e1d0	0.15808797
239	0xbe6dc998	-0.23221433
240	0x3da82544	0.08210233
241	0x3caaf033	0.020866489
242	0xbc76effb	-0.015071864
243	0xbdaeb187	-0.085299544
244	0x3d86797f	0.06566142
245	0xbd811572	-0.063029185
246	0xbd18ab82	-0.037272938
247	0x3c96f3b0	0.018426746
248	0xbdb1da70	-0.08684242
249	0x3ce1ba7d	0.027554745
250	0xbe7ca46b	-0.24672095
251	0x3619271f	2.2821548e-06
252	0x3d757f05	0.05993559
253	0xbc88b9b3	-0.01669011
254	0x3c7d0d59	0.015445077
255	0xbd288e94	-0.041151598

a2c_network.actor_mlp.2.bias f4 [128]
0	0xbd99fc7a	-0.07518859
1	0xbe313dd4	-0.17308742
2	0x3daa91fd	0.08328626
3	0x3cab28d4	0.020893492
4	0xbe7597b9	-0.23983659
5	0xbe76c4be	-0.24098489
6	0xbaef667a	-0.0018264793
7	0x3a7cb1ef	0.0009639551
8	0x3d0cd9b8	0.03438732
9	0xbd95d5be	-0.07316159
10	0xbdef2195	-0.11676327
11	0xbdf6b359	-0.120459266
12	0xbc5cd30d	-0.013478053
13	0x3dd684c1	0.104745395
14	0xbe1e2063	-0.15442042
15	0xbdf898f6	-0.1213855
16	0x3cb1c177	0.021698697
17	0xbc422a4c	-0.011850905
18	0xbe0d9250	-0.13825345
19	0xbdabde75	-0.0839204
20	0xbd86f4ee	-0.065896854
21	0xbd201e94	-0.03909166
22	0x3c8a3740	0.016872048
23	0xbde96ce6	-0.11397724
24	0xbcdb73c3	-0.026788598
25	0x3cdd686b	0.02702733
26	0xbdddfa3d	-0.10838745
27	0x3ca062fa	0.019578446
28	0xbd138608	-0.036016494
29	0xbe1d49f2	-0.15360239
30	0x3dea4209	0.114383765
31	0xbcf6e95b	-0.03014057
32	0x3c7650dd	0.015033928
33	0x3c669a56	0.0140748825
34	0xbdb4aab8	-0.088216245
35	0xbe4de249	-0.20105852
36	0xbce965cd	-0.028490925
37	0xbca102db	-0.019654682
38	0xbdad19d3	-0.08452191
39	0x3bd627da	0.0065355124
40	0xbb031cbe	-0.0020006145
41	0xbd658a94	-0.05604036
42	0xbc83ff83	-0.016113048
43	0x3c89cbea	0.016820867
44	0xbe807769	-0.25091103
45	0xbdbd0050	-0.09228575
46	0xbd584a3f	-0.05280518
47	0xbb8056db	-0.003916604
48	0xbe27fc14	-0.16404754
49	0x3bbd408a	0.005775516
50	0xbe0d0644	-0.13771921
51	0xbd3f3f41	-0.046691183
52	0x3da20d73	0.079127215
53	0xbd847b0a	-0.0646878
54	0xbd7c1362	-0.061541922
55	0xbdfc3d7e	-0.12316416
56	0x3bd3bca0	0.006461695
57	0xbda71dcc	-0.0815998
58	0x3d82f88b	0.06395062
59	0xbea6b9cd	-0.3256363
60	0xbe116fe8	-0.14202845
61	0xbcd13127	-0.025536133
62	0x3dbc7400	0.09201813
63	0xbd32f1bd	-0.04368757
64	0xbdf0dfe2	-0.11761452
65	0xbe74c233	-0.23902206
66	0xba45db7f	-0.0007547661
67	0xbeabe7d1	-0.335753
68	0xbe095b4a	-0.1341373
69	0xbcc4637b	-0.023973217
70	0xbd9419a1	-0.07231451
71	0xbd45be33	-0.04827709
72	0x3d18e5d9	0.037328575
73	0xbc343a22	-0.011000188
74	0xbeb8a534	-0.3606354
75	0x3bc6b54c	0.0060640927
76	0xbd140f07	-0.036147144
77	0xbd94f7e0	-0.07273841
78	0xbd52c872	-0.05146069
79	0xbe1852e6	-0.14875373
80	0xbe57fa61	-0.21091606
81	0x3c28fd11	0.010314242
82	0x3da351ff	0.07974624
83	0xbdbaa58b	-0.09113606
84	0xbe187044	-0.14886576
85	0xbda0fb50	-0.07860434
86	0x3c805f86	0.01567055
87	0x3cd4eb70	0.025991172
88	0xbdf6a371	-0.12042893
89	0xbdbb9d22	-0.0916083
90	0xbdd1b0b6	-0.10238783
91	0xbdd0b950	-0.101915956
92	0xbdbe9a22	-0.09306742
93	0xbdf33197	-0.11874693
94	0xbe47c048	-0.19506943
95	0xbd40255b	-0.046910625
96	0xbdc045e0	-0.093883276
97	0x3c7566bb	0.014978106
98	0x3c096c32	0.008387612
99	0xbcf56e19	-0.029959725
100	0x3c73009d	0.014831689
101	0xbd6100d8	-0.054932445
102	0xbcac4566	-0.021029186
103	0xbe2a4693	-0.16628484
104	0xbd74b0cc	-0.05973892
105	0xbdd86b7d	-0.10567377
106	0xbe48d6d7	-0.19613205
107	0xbe06ba0b	-0.13156907
108	0xbdce34c1	-0.10068656
109	0x3c5d32c4	0.013500873
110	0xbe1b62f8	-0.15174472
111	0xbdb81810	-0.089889646
112	0xbe351fba	-0.17687884
113	0xbd4aa729	-0.049475823
114	0xbbe78c88	-0.007066313
115	0xbe3f8565	-0.1870323
116	0xbe416059	-0.1888441
117	0x3d10c498	0.035343736
118	0x3e231b79	0.15928449
119	0xbeb2a0c1	-0.3488827
120	0xbd5dd2e5	-0.054156203
121	0xbc9ffa04	-0.019528396
122	0xbe01cb0e	-0.12675115
123	0xbe4392b5	-0.19098933
124	0xbd2ed79d	-0.042686094
125	0x3cd43c83	0.02590776
126	0xbe3cec27	-0.1844946
127	0xbc89233f	-0.01674044

a2c_network.actor_mlp.4.weight f4 [128, 128]
0	0xbdc004b5	-0.09375898
1	0x3cc0ed67	0.023550702
2	0xbce512b2	-0.027963016
3	0x3df89b82	0.12139036
4	0x3d92bba6	0.07164697
5	0xbebd8ece	-0.37023014
6	0xbe0fdbbd	-0.14048667
7	0x3d99d216	0.07510774
8	0xbdbb21b3	-0.09137287
9	0xbd69e92a	-0.05710713
10	0x3d893590	0.06699669
11	0xbd756ca0	-0.059918046
12	0x3d9cd04a	0.076569155
13	0xbd827bac	-0.06371245
14	0xbc0754c8	-0.0082599595
15	0xbd518753	-0.051154446
16	0xbdeb9fb9	-0.11505074
17	0x3d6a3a43	0.05718447
18	0x3d333846	0.04375484
19	0xbe2d8d26	-0.16948375
20	0x3d94c728	0.072645485
21	0x3d87f3d2	0.06638302
22	0xbc5136aa	-0.012769381
23	0x3db6a3e8	0.089179814
24	0x3db436ad	0.08799491
25	0xbda49005	-0.08035282
26	0x3d8d43ce	0.06897698
27	0xbcebdf01	-0.02879286
28	0xbdae73a4	-0.085181504
29	0xbdc23cf2	-0.09484281
30	0xbe1b190b	-0.15146272
31	0x3d2f45df	0.042791244
32	0x3d667684	0.05626537
33	0xbd11256d	-0.035436083
34	0x3ab1c213	0.0013561867
35	0x3e050d03	0.12993245
36	0xbd951ace	-0.07280503
37	0xbe3bd15b	-0.18341582
38	0x3d03bf13	0.032164644
39	0xbdad1a6e	-0.08452307
40	0x3da3d292	0.079991475
41	0xbda9c329	-0.08289177
42	0xbd73cf31	-0.059523765
43	0xbdfd7db7	-0.12377494
44	0xbda9868a	-0.082776144
45	0xbcb40605	-0.021975527
46	0xbcd16879	-0.025562512
47	0x3dd6635f	0.10468172
48	0x3cb0bb80	0.021573782
49	0xbcc8bc6b	-0.024503907
50	0x3df49924	0.11943272
51	0xbd89c6e8	-0.067273915
52	0x3d84d0bf	0.06485128
53	0x3ccbf5ae	0.024897423
54	0xbda81056	-0.08206241
55	0x3e0931e0	0.13397932
56	0xbc506768	-0.0127199665
57	0x3df5d7a0	0.12004018
58	0x3d209f72	0.03921456
59	0x3ca9a7fd	0.020709986
60	0xbdd16c98	-0.10225791
61	0x3da8421c	0.08215734
62	0x3db7f858	0.08982915
63	0x3e259d3d	0.16173263
64	0x3cb79936	0.022411924
65	0x3d403115	0.04692181
66	0xbc7d7257	-0.015469155
67	0x3dd694a2	0.10477568
68	0x3d7c615e	0.061616294
69	0xbc26e477	-0.010186306
70	0x3e67f19f	0.22650765
71	0xbe115abb	-0.14194767
72	0x3c92252b	0.017839989
73	0xbdce3a88	-0.10069758
74	0x3df9536b	0.12174114
75	0x3e0d2ca0	0.13786554
76	0xbdb1a9e9	-0.08674986
77	0x3d58884e	0.052864365
78	0x3e29c3dd	0.16578622
79	0x3df52361	0.119696386
80	0xba7207f7	-0.0009232754
81	0x3d95e85c	0.0731971
82	0x3d07e9d5	0.033181984
83	0x3e241efb	0.16027443
84	0xbe38dc6e	-0.18052837
85	0xbb8090c7	-0.003923509
86	0x3da2f1db	0.079562865
87	0xbd521d76	-0.051297627
88	0xbe21c159	-0.15796413
89	0x3d81a721	0.063307054
90	0x3c5cec90	0.013484135
91	0xbe5a58ea	-0.2132298
92	0x3e6403e4	0.22267109
93	0xbc8b9037	-0.01703654
94	0xbd7190ac	-0.05897586
95	0x3e0e31de	0.1388621
96	0xbc754b2d	-0.014971537
97	0xbe09333b	-0.13398449
98	0x3d93b723	0.07212665
99	0x3d54a0bb	0.051911097
100	0xbe16a3b5	-0.14710887
101	0x3b4c7872	0.003119972
102	0x3d12c216	0.035829626
103	0xbe165e6f	-0.14684461
104	0x3dc48ef1	0.095975764
105	0xbdec4fe0	-0.115386724
106	0x3bccc80b	0.006249433
107	0xbe175662	-0.14779046
108	0x3e011d46	0.12608823
109	0xbdad7199	-0.08468933
110	0xbbb1c600	-0.005425215
111	0xbd9b5b42	-0.075857654
112	0xbdd93f15	-0.10607735
113	0x3def579f	0.11686634
114	0xbdde670c	-0.108594984
115	0xbd8df0a9	-0.06930668
116	0x3ca843b1	0.02054009
117	0xbb62fd1b	-0.0034635726
118	0xbd27fd1a	-0.04101286
119	0xbceafafa	-0.028684128
120	0x3d9231ba	0.07138391
121	0xbc977f40	-0.018493295
122	0xbc8e933a	-0.017404187
123	0x3ded0413	0.11573043
124	0xbdcfc397	-0.10144728
125	0xbdfc3f9e	-0.123168215
126	0x3e11079e	0.14163062
127	0xbdcb9a66	-0.099415585
128	0x3b00ef60	0.0019673929
129	0xbcbb4888	-0.022861734
130	0xbc27cb7b	-0.010241385
131	0xbdb9eb5e	-0.09078096
132	0x3d46768b	0.048452895
133	0x3d793e20	0.060850263
134	0xbe83e3bd	-0.25759688
135	0xbca87af3	-0.02056644
136	0x3d675a4d	0.056482602
137	0xbcf1db25	-0.029523442
138	0x3d7c2706	0.061560653
139	0x3db572f0	0.08859813
140	0xbd0ba907	-0.034096744
141	0xbea651ca	-0.32484275
142	0x3dfc0ef9	0.12307543
143	0xba9c569d	-0.0011927668
144	0xbdbabb03	-0.09117701
145	0xbe0be2c2	-0.1366072
146	0xbe1a2008	-0.15051281
147	0x3de24e04	0.110500365
148	0xbe5eea6f	-0.21769117
149	0xbe02a5d5	-0.12758572
150	0x3e48caac	0.19608563
151	0xbd30827c	-0.04309319
152	0x3e16d957	0.14731346
153	0xbddb8779	-0.10719199
154	0x3c48f6a5	0.012265836
155	0x3cac9867	0.021068765
156	0x3d6fcf25	0.058547158
157	0xbe435e16	-0.1907886
158	0x3dd4c1ec	0.1038855
159	0x3dd398c6	0.103318736
160	0xbbf4aae6	-0.0074666617
161	0xbdda9d21	-0.10674501
162	0xbe5de302	-0.21668628
163	0xbc5a7188	-0.013332732
164	0x3d1916f4	0.037375405
165	0x3dc094a5	0.09403352
166	0x3dcf8c99	0.10134239
167	0xbd9b6347	-0.07587295
168	0xbe14acf3	-0.145191
169	0xbd5ec730	-0.05438918
170	0xbe28f27a	-0.16498747
171	0xbdecfcbe	-0.11571644
172	0x3dd2d560	0.10294604
173	0x3dae9db0	0.0852617
174	0x3c33ef72	0.010982381
175	0xbd8758f7	-0.066087656
176	0x3e0de393	0.13856344
177	0xbc701d9b	-0.014655496
178	0x3dbbd39b	0.0917122
179	0xbb33b953	-0.0027423694
180	0xbe00cff4	-0.12579328
181	0xbc5d448d	-0.013505113
182	0xbddc72fb	-0.10764118
183	0x3da38eac	0.07986197
184	0xbd9f756c	-0.07786068
185	0x3dd22265	0.102604665
186	0xbd798825	-0.060920853
187	0x3d9ad446	0.07560019
188	0x3c9b4261	0.01895255
189	0xbe921a9b	-0.28535923
190	0xbe2926d3	-0.16518717
191	0xbd689d62	-0.056790717
192	0xbdbe4791	-0.09290994
193	0xbc6f4423	-0.014603647
194	0xbb8eb0de	-0.0043545803
195	0x3e2be818	0.16787755
196	0x3e23753d	0.15962692
197	0xbd0592b6	-0.032610618
198	0xbe513533	-0.2043045
199	0x3e329f7f	0.17443655
200	0x3dabfb99	0.08397598
201	0x3ba43fef	0.0050125043
202	0x3e2d53ca	0.16926494
203	0xbd12d0ce	-0.035843663
204	0x3e37de7f	0.1795597
205	0xbb59fa11	-0.0033260623
206	0x3dd23a91	0.10265077
207	0x3e475ffd	0.1947021
208	0xbc819427	-0.015817715
209	0xbdfd78f7	-0.12376588
210	0x3dbbf2a5	0.0917714
211	0xbeb1895d	-0.34675112
212	0x3e153fe0	0.14575148
213	0xbdc2d218	-0.095127285
214	0xbe02c283	-0.12769513
215	0x3d37f7c1	0.04491401
216	0x3ce52356	0.027970951
217	0x3ca6e1a4	0.020371266
218	0xbd5657ed	-0.052329946
219	0xbddfa4f4	-0.10920134
220	0xbdfe9611	-0.12430967
221	0xbdbabca7	-0.09118014
222	0x3d5ee7f9	0.054420445
223	0x3e0f0313	0.13966016
224	0x3e8c9c5d	0.27463046
225	0xbe289978	-0.16464794
226	0x3e2fd460	0.17170858
227	0xbe23720a	-0.15961471
228	0x3e31e7d2	0.17373589
229	0x3d73ae8b	0.05949263
230	0x3cf47869	0.029842572
231	0xbd40a0e6	-0.047028445
232	0x3e210625	0.15725
233	0x3e6440a3	0.22290282
234	0xbdd35835	-0.103195585
235	0xba435a10	-0.000745208
236	0xbc117221	-0.008877308
237	0xbdde7f7e	-0.10864161
238	0xba45814e	-0.00075342215
239	0x3c403281	0.011730791
240	0xbb8f9fde	-0.0043830713
241	0x3e29917e	0.16559407
242	0x3d9f0875	0.07765285
243	0x3e9b5072	0.30334812
244	0xbe05ac55	-0.1305402
245	0x3e56e08b	0.20984094
246	0xbc92e6ca	-0.017932314
247	0x3d96bae0	0.07359862
248	0x3b5f1b4e	0.0034043374
249	0x3e2e83a3	0.17042403
250	0xbe3de50a	-0.18544403
251	0x3ce19a49	0.02753939
252	0x3e35d491	0.17756869
253	0x3dc966ca	0.098340586
254	0xbe485fac	-0.19567746
255	0x3df9f3dc	0.122047156

a2c_network.actor_mlp.4.bias f4 [128]
0	0x3cf7cb4e	0.03024831
1	0xbdfa5018	-0.12222308
2	0xbe0ceb26	-0.13761577
3	0xbd9e2062	-0.0772102
4	0xbe0901f5	-0.13379653
5	0xbd556d85	-0.0521064
6	0xbdc06229	-0.093937226
7	0xbe3609de	-0.17777202
8	0xbd98aa6f	-0.07454383
9	0x3c368ce2	0.0111419875
10	0xbe762c11	-0.24040247
11	0xbd95829c	-0.073003024
12	0xbd909442	-0.07059528
13	0xbdf676ed	-0.12034402
14	0xbe0dbde9	-0.13841976
15	0xbdcd2852	-0.10017456
16	0xbcb0d20a	-0.02158453
17	0xbe09cef0	-0.13457847
18	0xbdadb6e9	-0.08482153
19	0xbd171dfb	-0.036893826
20	0x3d297e88	0.041380435
21	0xbde872cf	-0.11350023
22	0xbd9ebc2e	-0.07750736
23	0xbd169e8a	-0.03677229
24	0xbe0447f6	-0.12918076
25	0xbd729f08	-0.059233695
26	0xbe04ab8b	-0.12956063
27	0x3dac7a99	0.08421821
28	0x3e1a85eb	0.15090148
29	0xbd4c6288	-0.049898654
30	0xbcbe728a	-0.023247976
31	0xbd507b11	-0.050898615
32	0x3d2c40db	0.04205404
33	0xbe083f7d	-0.13305469
34	0x3ca47668	0.020075992
35	0xbe4bbaaa	-0.19895425
36	0xbe123a65	-0.14280088
37	0xbd80d5f7	-0.062908106
38	0xbd8cdc5e	-0.06877969
39	0x3bcd4726	0.006264585
40	0x3dd43327	0.10361319
41	0xbdbf7540	-0.093485355
42	0xbb4ae650	-0.003096003
43	0xbd90d7f7	-0.07072442
44	0xbe389afa	-0.18027869
45	0xbcf0b7ed	-0.029384578
46	0x3c27af92	0.01023473
47	0x3d1c3067	0.038132098
48	0x3d46367e	0.04839181
49	0xbde92e63	-0.11385801
50	0xbd1ad399	-0.03779945
51	0xbd221d38	-0.039578646
52	0xbd40b305	-0.047045726
53	0x3e899815	0.26873842
54	0x3b8f6110	0.0043755844
55	0xbd1e6c3d	-0.038677443
56	0x3c2b3b12	0.010451095
57	0x39d09b40	0.00039788522
58	0xbe080afb	-0.13285439
59	0x3dd0507e	0.10171603
60	0x3d580c86	0.05274632
61	0xbe0a574f	-0.13509868
62	0xbc8540d1	-0.016266258
63	0xbd2426e5	-0.040076155
64	0xbd2b625d	-0.041841853
65	0xbd90ddd8	-0.07073563
66	0xbda47f6a	-0.08032115
67	0xbcd3ccfe	-0.025854584
68	0xbcccc157	-0.024994535
69	0x3b6c8dd5	0.003609528
70	0x3d4816f1	0.048850004
71	0x3cbe3d47	0.023222579
72	0xbdd29e0b	-0.102840506
73	0xbd67437f	-0.056460854
74	0x3d6a99d5	0.057275612
75	0xbe364418	-0.17799413
76	0x3d3d8bb0	0.046275795
77	0x3bb2c9cc	0.005456185
78	0xbb999c5d	-0.0046878294
79	0xbd8879cf	-0.06663858
80	0x3d0f71f3	0.03502078
81	0xbd93fe96	-0.07226293
82	0xbde467a1	-0.11152578
83	0xbddebae8	-0.10875493
84	0x3c23f2b1	0.010006593
85	0xbd2b334a	-0.04179696
86	0xbbd9d70c	-0.00664795
87	0xbd6be2ef	-0.057589468
88	0x3c04c890	0.008104458
89	0xbd944a2c	-0.0724071
90	0xbde2e71e	-0.11079238
91	0x3d9bc3f1	0.07605732
92	0xbd68566e	-0.05672305
93	0xbd949242	-0.07254459
94	0x3e6f6c71	0.23381211
95	0xbcb70c47	-0.022344721
96	0xbd50fd2d	-0.051022697
97	0xbdedf98b	-0.11619862
98	0x38b03c4e	8.4035666e-05
99	0xbbf4085d	-0.007447286
100	0xbdc7c1d9	-0.097537704
101	0xbd02accf	-0.031903084
102	0x3b2cd564	0.0026372308
103	0xbd9de035	-0.0770878
104	0xbc8b2153	-0.016983664
105	0xbc6a5a70	-0.014303789
106	0xbe6fefc8	-0.23431313
107	0x3b8a08bf	0.0042124684
108	0xbb1655ae	-0.0022939253
109	0xbd65d2e2	-0.056109317
110	0xbd845163	-0.06460836
111	0x3d930d9f	0.071803324
112	0xbd41fda4	-0.04736103
113	0x3d38e5d8	0.04514107
114	0xbd99b6b2	-0.075055495
115	0xbdef99f9	-0.1169929
116	0xbd3d246e	-0.04617732
117	0xbd475fbc	-0.048675284
118	0x3c27b3ec	0.010235768
119	0x3bea9600	0.0071589947
120	0xbe468c2f	-0.19389413
121	0xbd91a284	-0.071110755
122	0xbd20a128	-0.03921619
123	0xbad58d46	-0.0016292713
124	0x3cd96e50	0.026541859
125	0xbe323dcd	-0.17406388
126	0x3cff4472	0.031160567
127	0xbc0a7719	-0.008451247

a2c_network.value.weight f4 [1, 128]
0	0xbb9c684d	-0.004773176
1	0xbc19a390	-0.009377375
2	0xbd2be5fb	-0.041967373
3	0xbb9bfa4e	-0.0047600633
4	0x3d192b83	0.03739501
5	0x3c9e6bef	0.019338576
6	0x3d0dcae0	0.034617305
7	0x3d104118	0.03521833
8	0xbc02f20e	-0.007992281
9	0x3ba867b1	0.005139314
10	0xbdd0eada	-0.102010444
11	0xbc055428	-0.00813774
12	0x3cf6a328	0.030107096
13	0x3c07ec51	0.008296088
14	0x3c86147b	0.016367188
15	0x3c1e5772	0.009664403
16	0x3c2c4eea	0.010516861
17	0xbb12f2ba	-0.0022422508
18	0x3be1196c	0.0068694856
19	0x3c19271f	0.009347706
20	0x3b6005d1	0.0034183154
21	0x3bb6859d	0.005570127
22	0xbc6ba68e	-0.014382971
23	0xbbe952c8	-0.007120464
24	0xba10e949	-0.0005527926
25	0xbc0f2add	-0.008738247
26	0x3cbd7b24	0.023130007
27	0x3d09951a	0.03358946
28	0x3da6aad2	0.0813805
29	0xbc82256a	-0.015886981
30	0xbcb89aa7	-0.022534681
31	0xbded169e	-0.115765795
32	0xbaef272b	-0.0018245926
33	0x3c0d66ff	0.008630513
34	0xbccb5785	-0.024822006
35	0xbd10d187	-0.03535607
36	0x3c40844a	0.01175029
37	0x3c90421a	0.017609645
38	0xbc836563	-0.016039556
39	0xbc77e193	-0.015129465
40	0x3d3b51fb	0.04573248
41	0xbc5afb1e	-0.013365535
42	0xb89c6b43	-7.458639e-05
43	0xbc4facc4	-0.012675468
44	0xbd91f60b	-0.07127007
45	0x3c04fb08	0.008116491
46	0x3d5ce8c1	0.05393291
47	0x3c8881af	0.0166634
48	0x3bf6b325	0.00752868
49	0x3c7d976f	0.015477999
50	0xbbe5c9b5	-0.0070125707
51	0xb971c5be	-0.00023057216
52	0x3d37bb7e	0.04485654
53	0x3e687418	0.22700536
54	0x3c0b2cb5	0.008494546
55	0xbd1439ff	-0.036188122
56	0xba85ea17	-0.0010216859
57	0x3cd8416a	0.02639838
58	0xbc9eeebd	-0.019400949
59	0x3d9454f1	0.07242764
60	0xbc0e97ad	-0.0087031545
61	0x3c88a194	0.016678609
62	0xbd5a13b7	-0.053241458
63	0xbc1b9b83	-0.009497526
64	0xbc8161f1	-0.015793772
65	0x3cb64cd7	0.022253437
66	0xbcf3a2e0	-0.02974075
67	0xbcdf259e	-0.027239617
68	0xbcddd662	-0.027079765
69	0x3bcf0c35	0.006318594
70	0xbc58e3a2	-0.013237866
71	0x3c852693	0.016253745
72	0x3c1eff54	0.00970443
73	0xbc9dc1ee	-0.019257512
74	0x3d2f3164	0.042771712
75	0xbd0297f8	-0.03188321
76	0x3d107b64	0.035273924
77	0x3b6c874f	0.0036091392
78	0xbc7f2fdc	-0.015575375
79	0xbba20870	-0.0049448535
80	0x3d534267	0.051576998
81	0x3d43976f	0.04775184
82	0x3c8b5f07	0.017013086
83	0x3c2b25e6	0.010446047
84	0x3b9814ab	0.0046411357
85	0xbcd4e985	-0.025990257
86	0x3d6ef9a7	0.058343556
87	0xbc6151c8	-0.013752408
88	0x3c10437c	0.008805152
89	0x3c091633	0.008367109
90	0xbb9c3321	-0.004766837
91	0x3be194a7	0.006884176
92	0xbe4c4808	-0.19949353
93	0xbcf0eba7	-0.029409243
94	0x3e2aeecd	0.16692658
95	0x3bc7f5fc	0.0061023217
96	0xbc4220c4	-0.011848632
97	0x3c08cd96	0.008349797
98	0xbcedd86a	-0.029033858
99	0xbaa5917d	-0.001263186
100	0xbcd701e0	-0.026246011
101	0xbcc812e7	-0.024423076
102	0x3cfb370b	0.030665895
103	0x3c62762a	0.013822118
104	0x3cc047fa	0.023471821
105	0xbc0021c8	-0.007820554
106	0x3bc7e2ff	0.006100058
107	0xbd4cb316	-0.049975477
108	0xbce940b4	-0.028473236
109	0xbbf18eb0	-0.007371746
110	0x3c351bda	0.011054004
111	0xbdc271f5	-0.09494392
112	0x3d0d93fc	0.034564957
113	0x3d22bfe6	0.03973379
114	0x3cfd3875	0.03091071
115	0xbb073017	-0.002062803
116	0x3c6219db	0.01380011
117	0xbd845dfb	-0.06463238
118	0xba8eee06	-0.0010904677
119	0xbd79201e	-0.060821645
120	0xbaf37e89	-0.0018577139
121	0xbc46abd9	-0.012125933
122	0xbd5c9f74	-0.053863004
123	0xbd334512	-0.043767042
124	0xbc1beed6	-0.009517392
125	0xbbd14da9	-0.0063874316
126	0xbb1ae750	-0.0023636408
127	0xbcdaa371	-0.026689263

a2c_network.mu.weight f4 [18, 128]
0	0x3e5f4672	0.21804217
1	0xbc411622	-0.011785062
2	0x3ca2b6ee	0.019862618
3	0x3d941495	0.07230488
4	0xbcf991b6	-0.030464988
5	0xbc937a60	-0.018002689
6	0xbd3f8859	-0.04676089
7	0x3d9ccef1	0.076566584
8	0xbd514883	-0.051094543
9	0xbd7407b9	-0.059577677
10	0xbc9bbeb2	-0.019011829
11	0xbd2782a2	-0.040896066
12	0xbd24839f	-0.040164586
13	0x3cf32a60	0.029683292
14	0x3e23ce02	0.15996554
15	0x3d5f683f	0.054542776
16	0x3bb7cf1e	0.005609407
17	0x3ccaaa75	0.024739483
18	0x3d1a83fa	0.03772352
19	0xbe82d92b	-0.2555631
20	0xbd68ee0a	-0.056867637
21	0xbd9a1b32	-0.07524718
22	0x3e129911	0.14316203
23	0xbda3f98f	-0.08006584
24	0xbe2967d4	-0.16543514
25	0x3e49770e	0.19674322
26	0x3d346654	0.0440429
27	0xbe08d5f4	-0.13362867
28	0xbcb8a238	-0.02253829
29	0xbc63a2c9	-0.0138937915
30	0x3db4296e	0.087969646
31	0x3d89d5fb	0.06730267
32	0x3de43598	0.11143035
33	0xbe34e1b1	-0.1766422
34	0x3c74597c	0.014913913
35	0x3d2b83d9	0.041873787
36	0x3d1019c1	0.03518081
37	0x3d67d8f3	0.056603383
38	0xbdbf9aa1	-0.09355665
39	0xbd69fba1	-0.057124738
40	0x3dfb7075	0.12277309
41	0xbd94dc38	-0.07268566
42	0xbd819cc0	-0.06328726
43	0xbc364142	-0.011123957
44	0xbd2c7195	-0.042100508
45	0xbe2fcb9f	-0.17167519
46	0x3d253e6a	0.040342726
47	0x3dac4f35	0.08413545
48	0xbd7d4df2	-0.061841913
49	0xbc1912c0	-0.009342849
50	0x3dd88a29	0.10573227
51	0x3ebf37d8	0.37347293
52	0xbd86f94b	-0.065905176
53	0xbd30054d	-0.042973805
54	0x3d769476	0.060200177
55	0xbdfa18e0	-0.12211776
56	0xbc4684b4	-0.0121166
57	0x3b474ba3	0.0030410073
58	0x3d110167	0.035401728
59	0x3e672721	0.2257352
60	0x3d51968e	0.05116897
61	0x3dded829	0.10881073
62	0x3e2178c9	0.15768732
63	0x3d09fee1	0.033690337
64	0xbda9af33	-0.0828537
65	0xbda61370	-0.08109176
66	0x3e6df74e	0.2323887
67	0xbc7d9072	-0.015476333
68	0xbdbe0d2e	-0.092798576
69	0xbb3efb13	-0.002914135
70	0x3a99fc71	0.0011748207
71	0xbd98d5d5	-0.0746266
72	0x3e12333f	0.14277361
73	0x3d820c49	0.063499995
74	0x3e0b4e3c	0.13604063
75	0x3e1b4a3d	0.15165038
76	0xbcab8cd4	-0.020941176
77	0xbdb60718	-0.08888072
78	0x3d684671	0.056707803
79	0x3e05b37d	0.1305675
80	0x3e2215f5	0.15828688
81	0x3d2321cd	0.039827157
82	0x3ddac69f	0.10682415
83	0xbc9514ec	-0.018198453
84	0x3cd66df3	0.026175475
85	0x3e340d9b	0.17583315
86	0x3e6bdd04	0.2303353
87	0x3e08dc14	0.13365203
88	0xbded7e86	-0.11596398
89	0xbd9d6503	-0.07685282
90	0xbdce5ee2	-0.10076691
91	0x3d4d9e3e	0.05019974
92	0x3c9c6c46	0.019094598
93	0xbd02ef74	-0.03196664
94	0x3dd45a5d	0.10368798
95	0xbdf3be29	-0.119015045
96	0x3dcc0a34	0.099628836
97	0x3c696eea	0.014247635
98	0xbd6e8d7f	-0.05824041
99	0x3e136210	0.14392877
100	0xbe239f8f	-0.15978836
101	0xbd46562c	-0.048422024
102	0xbc906759	-0.017627405
103	0x3d9bf607	0.07615285
104	0x3c94b6fd	0.018153662
105	0x3c83c10a	0.01608326
106	0xbe0cbf04	-0.13744742
107	0xbdd9f09c	-0.10641596
108	0x3d869c4c	0.0657278
109	0xbc5962a8	-0.01326815
110	0xbdb331e0	-0.08749747
111	0xbe0d50ab	-0.13800304
112	0x3e0cd8a0	0.13754511
113	0xbe1c777c	-0.15279955
114	0xbce55f7f	-0.027999638
115	0xbaed68df	-0.0018112919
116	0xbc2f68bd	-0.010706124
117	0xbcd31714	-0.02576784
118	0xbdde6413	-0.108589314
119	0x3d8bea54	0.06831804
120	0x3d964531	0.07337416
121	0xbda028cb	-0.07820281
122	0x3ba3ea58	0.005002301
123	0xbd4655d4	-0.048421696
124	0xbe03c1d1	-0.12866904
125	0x3d6d3632	0.057913013
126	0xbe6fda47	-0.2342311
127	0x3ccdf37f	0.025140522
128	0x3bec86ef	0.007218234
129	0x3cbc5bd8	0.022993013
130	0xbc697e71	-0.014251337
131	0x3e3adc0d	0.18248005
132	0x3beddcef	0.0072590034
133	0xbe188f91	-0.14898516
134	0xbd3f72f4	-0.046740487
135	0xbd672c5c	-0.05643879
136	0x3e236828	0.15957701
137	0x3c3941d0	0.011307195
138	0xbd7f107b	-0.062271576
139	0xbd893499	-0.06699485
140	0xbda1e641	-0.079052456
141	0x3d722ed6	0.059126697
142	0xbe6d322e	-0.23163673
143	0x3c1ac197	0.0094455695
144	0xbc0c9d34	-0.008582402
145	0x3de25bb8	0.1105265
146	0xbdd81c18	-0.105522335
147	0xbdcb74a1	-0.099343546
148	0x3c2ca6c9	0.010537812
149	0xbe46436a	-0.19361654
150	0x3dde7bc5	0.10863451
151	0x3d912a3a	0.07088132
152	0xbd9d44c2	-0.0767913
153	0xbe5d1521	-0.21590091
154	0xbd31c84a	-0.0434039
155	0xbd11ec59	-0.03562579
156	0xbda4246b	-0.08014759
157	0xbbcfe614	-0.006344566
158	0xbd2a9717	-0.041647997
159	0xbced58c2	-0.028972987
160	0x3c3a0c9f	0.011355548
161	0xbe261080	-0.16217232
162	0xbda72a4a	-0.08162363
163	0x3cde491b	0.027134469
164	0x3e97dd97	0.29661247
165	0x3dcb57d8	0.09928864
166	0x3d7acb90	0.06122929
167	0xbcfbaa86	-0.03072096
168	0x3c8dd333	0.017312622
169	0x3d96c2a7	0.07361346
170	0xbd2e10be	-0.042496435
171	0x3d394cef	0.045239385
172	0xbd43a5f2	-0.04776568
173	0x3df73e89	0.120724745
174	0x3d8bf9ff	0.06834792
175	0xbdc51a38	-0.096241415
176	0xbd57eec7	-0.05271795
177	0xbe89db1c	-0.2692498
178	0x3d4dfff7	0.050292935
179	0x3d1a6f4c	0.037703797
180	0x3e4e64a2	0.20155576
181	0xbe011f5a	-0.12609616
182	0xbe473559	-0.19453944
183	0xbe06bd71	-0.13158204
184	0xbd85a994	-0.06526485
185	0x3db3ec48	0.087853014
186	0x3c91cf60	0.01779908
187	0x3dab642b	0.08368715
188	0xbdb31034	-0.08743325
189	0xbe0813c2	-0.13288787
190	0xbc4a8589	-0.012360939
191	0x3baf0412	0.0053410614
192	0x3e2706ad	0.1631114
193	0xbcbd3f3f	-0.023101447
194	0x3de64418	0.112434566
195	0x3c5c6948	0.013452835
196	0xbccedadb	-0.025250843
197	0x3d189279	0.037249062
198	0xbdeb4716	-0.11488168
199	0xbd472c30	-0.048626125
200	0x3e2807be	0.16409203
201	0xbe01ec73	-0.12687854
202	0x3bb51b87	0.005526963
203	0x3dd4d308	0.103918135
204	0xbd9564be	-0.07294606
205	0xbd39eebe	-0.045393698
206	0xbd05721a	-0.03257952
207	0xbc99d3ba	-0.018777717
208	0x3cd40620	0.025881827
209	0x3e5c4901	0.21512224
210	0xbdb5ea84	-0.08882621
211	0x3e83b3ed	0.2572321
212	0xba95249f	-0.0011378712
213	0xbc83b8b3	-0.016079282
214	0x3cbb1b1b	0.022840073
215	0x3c3c7aa8	0.011503853
216	0xbb5f82f4	-0.0034105154
217	0xbdf5d533	-0.12003555
218	0x3ea5da64	0.3239318
219	0xbd85fcb2	-0.065423384
220	0xbd3aa7ed	-0.045570303
221	0xbb5c4393	-0.0033609613
222	0x3da1ebd7	0.07906311
223	0x3b818d96	0.003953646
224	0x3dd24594	0.10267177
225	0x3de66658	0.11249989
226	0xbdcd2789	-0.10017306
227	0xbe66ea29	-0.22550263
228	0x3e6b32c4	0.22968584
229	0xbdb4d4cc	-0.0882965
230	0xbab67d90	-0.0013922919
231	0xbd95b04f	-0.07309019
232	0xbd0f3b34	-0.03496857
233	0x3c848f13	0.016181504
234	0xbdaf1159	-0.08548231
235	0x3cd0fa34	0.025509931
236	0xbd8843de	-0.0665357
237	0xbc81f206	-0.015862476
238	0x3d006ab7	0.03135177
239	0xbcb7df62	-0.022445384
240	0x3a2a33e2	0.00064927165
241	0x3d22feaf	0.039793666
242	0x3e046cf2	0.12932184
243	0x3de2c55b	0.11072799
244	0x3c01093f	0.00787574
245	0x3cba3dda	0.022734571
246	0xbe43e2a5	-0.19129427
247	0x3da2bc81	0.079461105
248	0x3c910ffd	0.01770782
249	0xbd5e0256	-0.054201446
250	0x3dda9506	0.10672955
251	0xbc5cc2f4	-0.013474215
252	0x3d75efc8	0.060043126
253	0xbd1b14a1	-0.03786147
254	0x3d22ae08	0.03971675
255	0xbdea0e8c	-0.11428556

a2c_network.mu.bias f4 [18]
0	0x3c80aad6	0.01570646
1	0xbbec668e	-0.007214374
2	0x3d8cc357	0.068731956
3	0xbd3e128f	-0.046404418
4	0x3d9a1ac6	0.07524638
5	0xbcf31040	-0.029670835
6	0x3e530d27	0.20610486
7	0xbc789059	-0.015171134
8	0x3de750c1	0.112946995
9	0x3d594e16	0.053052984
10	0x3c0e3edd	0.00868198
11	0x3e5579c6	0.20847234
12	0xbc137640	-0.009000361
13	0xbd9e4869	-0.07728655
14	0x3d1b0da8	0.03785482
15	0xbceafe36	-0.02868567
16	0x3d884cd5	0.066552795
17	0x3dc0bdd3	0.09411206

exp_avg f4 [18]
0	0xb9c0e1b3	-0.00036789253
1	0xba515dfc	-0.0007986722
2	0x39160bb8	0.0001430948
3	0xb91f8d37	-0.00015216028
4	0x392ea211	0.00016654308
5	0xb9d565de	-0.00040702423
6	0x38c908c4	9.5860596e-05
7	0x39463e05	0.00018905856
8	0x39237a41	0.00015590434
9	0x38e26fb0	0.00010797323
10	0xb98d6c0f	-0.00026974126
11	0x39a68dfe	0.0003176778
12	0xb8a2c025	-7.760552e-05
13	0xba7ba58b	-0.0009599558
14	0x37f3cc0b	2.9062872e-05
15	0xb9887635	-0.00026028013
16	0x3990fe25	0.00027655173
17	0xb92ae4b2	-0.00016297659

exp_avg_sq f4 [18]
0	0x37287644	1.0041116e-05
1	0x37225928	9.676711e-06
2	0x3720e768	9.590622e-06
3	0x3724ef1a	9.830832e-06
4	0x3735069d	1.07899805e-05
5	0x372ef377	1.0427894e-05
6	0x372f12f9	1.043523e-05
7	0x3713c421	8.807548e-06
8	0x3733704f	1.069538e-05
9	0x3728f878	1.00714315e-05
10	0x373962f8	1.1049902e-05
11	0x37328c3b	1.0642277e-05
12	0x3719bec7	9.1639295e-06
13	0x3729b69c	1.0115702e-05
14	0x372ec143	1.0416205e-05
15	0x3726a92e	9.933761e-06
16	0x37313caf	1.0564151e-05
17	0x37227db3	9.685219e-06

exp_avg f4 [128, 66]
0	0x3919ef6b	0.00014680407
1	0xba0d5da6	-0.0005392678
2	0xb7141635	-8.826658e-06
3	0x39af5fdf	0.0003345003
4	0xb745feec	-1.1801469e-05
5	0x379f50eb	1.8991957e-05
6	0x358ff6db	1.0726175e-06
7	0x387e3202	6.0604892e-05
8	0xba42d1bf	-0.00074317673
9	0x3987ab3e	0.00025876792
10	0xba4d6522	-0.00078351994
11	0x38d6e46a	0.000102468606
12	0xb7cb45a3	-2.4231913e-05
13	0x3803dbb7	3.143746e-05
14	0x386936e2	5.5602643e-05
15	0x38219dd9	3.85324e-05
16	0x37e5135e	2.7307946e-05
17	0xb804c885	-3.1658e-05
18	0x37d58d7d	2.5457464e-05
19	0x3893aade	7.041333e-05
20	0xb86e0c0a	-5.6754834e-05
21	0x3912450c	0.00013949367
22	0x37cd4dc2	2.4474113e-05
23	0xb908e7ae	-0.00013056278
24	0xb93f1707	-0.00018223758
25	0x39533853	0.0002014351
26	0x3907bbed	0.00012944611
27	0xb7ce5a12	-2.4599056e-05
28	0x38c05e7a	9.172871e-05
29	0x38f38107	0.00011611176
30	0x3aaa17db	0.001297708
31	0x3a5fc40c	0.0008535988
32	0x39cccd5b	0.00039062914
33	0xbaa0d170	-0.0012269448
34	0xb7f9586d	-2.972429e-05
35	0xbaeaf811	-0.0017926713
36	0xba045220	-0.0005047638
37	0x38d4edd9	0.0001015325
38	0xb920df84	-0.00015342055
39	0xba937276	-0.0011249322
40	0x39919c7c	0.00027773145
41	0x39681a2c	0.00022134994
42	0xb89a56dc	-7.359471e-05
43	0xb906235a	-0.00012792405
44	0x3a807c62	0.0009802694
45	0xbb05dfdf	-0.0020427627
46	0x3ac1fa32	0.0014799295
47	0xba859cac	-0.0010193787
48	0x39076aa6	0.00012914333
49	0x3a00b1ac	0.00049092877
50	0x39a18801	0.00030809644
51	0xb90bbc33	-0.00013326183
52	0x38de7bbb	0.000106088315
53	0xb9e9e753	-0.00044613573
54	0xb8e090df	-0.00010708137
55	0x394875de	0.00019117395
56	0xba0d31c7	-0.00053861405
57	0x3997cc21	0.00028953052
58	0xb901da2c	-0.00012383674
59	0xba4b2506	-0.00077493524
60	0xba7cd6d4	-0.0009645049
61	0x3a79bc5b	0.00095266633
62	0x3a230e8d	0.0006220125
63	0xb97ddea7	-0.00024210905
64	0x39c16dfd	0.00036893776
65	0x3a45406b	0.00075245526
66	0xb90da852	-0.00013509512
67	0x38104c13	3.4403125e-05
68	0x36e8b54b	6.935244e-06
69	0xb94818b6	-0.00019082692
70	0xb7e2c639	-2.7033604e-05
71	0xb8822931	-6.2065556e-05
72	0x37063a02	8.000528e-06
73	0x37b216fd	2.1229958e-05
74	0x3a6c79f4	0.0009020858
75	0xb9701697	-0.00022896599
76	0xb8eaf4c3	-0.0001120358
77	0xb99715ac	-0.0002881711
78	0x384cc024	4.8816335e-05
79	0xb83dcea8	-4.5253575e-05
80	0xb89efac0	-7.580733e-05
81	0xb7c08e4f	-2.2954451e-05
82	0xb7ec78b9	-2.8189608e-05
83	0x37f69f2f	2.939961e-05
84	0x37ba1625	2.218324e-05
85	0xb6308736	-2.6304747e-06
86	0xb7dba2db	-2.618267e-05
87	0x36d6346a	6.383799e-06
88	0xb7e6102b	-2.7425665e-05
89	0xb894b52f	-7.090938e-05
90	0x380da868	3.377386e-05
91	0xb8eda573	-0.00011331858
92	0xb8689733	-5.5453926e-05
93	0xb83ff8d6	-4.5769695e-05
94	0xb82d72f1	-4.135346e-05
95	0xb7ee78e5	-2.8428107e-05
96	0xb77e5b49	-1.5160834e-05
97	0xb8c65be3	-9.458491e-05
98	0xb8b89aa5	-8.8026085e-05
99	0x3a27b94c	0.0006398156
100	0x36bbeee5	5.6008453e-06
101	0x3a381c0b	0.00070232217
102	0x398c5f78	0.0002677401
103	0xb69a91f3	-4.6065484e-06
104	0x3a3e0115	0.0007248086
105	0x39c98f56	0.000384445
106	0x39dbf74c	0.00041955186
107	0xba2a0004	-0.00064849877
108	0xba0fa24a	-0.00054792
109	0xb9cc552d	-0.00038973373
110	0xb9a09e6d	-0.00030635615
111	0xb9048662	-0.00012638562
112	0xb9e198d8	-0.00043029222
113	0x3a5c3f31	0.000840175
114	0x3984a200	0.000252977
115	0xb9a5bf5a	-0.0003161382
116	0xb9aa14dd	-0.0003244047
117	0xb8583569	-5.1548155e-05
118	0xb9592a28	-0.00020710437
119	0x398ebe06	0.0002722593
120	0x394ff732	0.00019833146
121	0x39776338	0.00023592717
122	0x395e2a86	0.00021187411
123	0x39bce3c3	0.0003602785
124	0x3902668b	0.00012435966
125	0xba116abf	-0.00055472174
126	0x37a3866b	1.9493707e-05
127	0xba06a7f4	-0.00051367213
128	0xb97fe1b5	-0.00024402777
129	0xb8e28ea0	-0.00010803086
130	0xb94e77b1	-0.0001969028
131	0xb91f80e0	-0.00015211431
132	0xb9fd4a13	-0.0004831111
133	0xb758c84c	-1.29212385e-05
134	0x3728c574	1.00595535e-05
135	0xb99ebf07	-0.00030278435
136	0xb8b689f9	-8.704136e-05
137	0xb95f3d29	-0.00021289721
138	0x37d3d15b	2.5250649e-05
139	0x36b33999	5.341321e-06
140	0x39779bc5	0.00023613784
141	0xba44e6fe	-0.0007511227
142	0x384edae7	4.9318096e-05
143	0xb985d063	-0.00025522997
144	0x37b5da41	2.1678514e-05
145	0xb8506d5f	-4.9692924e-05
146	0xb80c0a97	-3.3388464e-05
147	0xb8596a01	-5.1835555e-05
148	0xb73e0a57	-1.132729e-05
149	0xb844409c	-4.6790214e-05
150	0x387ac64a	5.9789316e-05
151	0x376e6146	1.4208554e-05
152	0x3880f1c8	6.148551e-05
153	0x37dbfe90	2.6225374e-05
154	0xb8a05a51	-7.646217e-05
155	0xb75136cb	-1.2470128e-05
156	0xb8407fca	-4.589538e-05
157	0xb92c16e9	-0.00016411733
158	0xb9155fea	-0.00014245478
159	0x38d4aca3	0.00010141104
160	0x38dcd009	0.00010529167
161	0x38c7f71d	9.535088e-05
162	0xbab47893	-0.0013768844
163	0x3a5b72b4	0.0008371279
164	0xb95f3c18	-0.00021289324
165	0x3a7f4be7	0.00097387884
166	0xba1a31a9	-0.0005882034
167	0x3aa95882	0.0012920054
168	0x3a393d1f	0.00070662977
169	0xbac019b9	-0.0014656103
170	0x3908bb4a	0.00013039741
171	0x3a8f2e31	0.00109238
172	0xba340a77	-0.00068680145
173	0xb9525fad	-0.00020062803
174	0xb75ea603	-1.3270884e-05
175	0xba7b4325	-0.00095848955
176	0xba26c497	-0.00063616916
177	0x3a1be8eb	0.0005947488
178	0x3a590e86	0.0008280057
179	0x3a067516	0.00051291415
180	0xb980105e	-0.00024426257
181	0xb782556a	-1.5536982e-05
182	0xb941d4ef	-0.00018485238
183	0xb8618f1e	-5.377747e-05
184	0xb998018d	-0.00028992855
185	0xb81429f1	-3.532501e-05
186	0x39f09956	0.0004589061
187	0xb987bea9	-0.0002589126
188	0x39d1c2ac	0.00040008628
189	0x3a1f4e47	0.0006077033
190	0xba40a6cf	-0.0007349075
191	0x387e2e8d	6.0601673e-05
192	0xb9f5afe6	-0.00046861096
193	0xba6ab8b2	-0.00089539133
194	0xba3a8854	-0.00071156514
195	0x3a2afdb7	0.0006522792
196	0x38bdda2e	9.0528614e-05
197	0x3983f807	0.00025171062
198	0x3917bbf7	0.00014470505
199	0xb9583c75	-0.00020621887
200	0x3719e5ba	9.172998e-06
201	0xb8b7b487	-8.759746e-05
202	0xb94f8e6f	-0.00019794119
203	0x37c9b185	2.4043731e-05
204	0x366fe953	3.5749588e-06
205	0x37d11634	2.492508e-05
206	0xb9ee7340	-0.00045480765
207	0x39380172	0.00017548146
208	0xb9157051	-0.00014251588
209	0x3900d3e2	0.00012285964
210	0xb7c5fd0b	-2.3602062e-05
211	0xb814edcb	-3.550741e-05
212	0x388b395b	6.63872e-05
213	0x371753d4	9.019819e-06
214	0x37e0b489	2.678695e-05
215	0xb786ecfa	-1.6084396e-05
216	0x37d0e3c1	2.4901588e-05
217	0x3849428a	4.7984104e-05
218	0xb8069a2c	-3.2091673e-05
219	0x3832dcdb	4.2644195e-05
220	0xb4971fc1	-2.8149046e-07
221	0xb8121e5d	-3.483739e-05
222	0xb88092cb	-6.130858e-05
223	0x3891c824	6.951418e-05
224	0x38cccf32	9.766071e-05
225	0xb748d12a	-1.1969629e-05
226	0xb7e45422	-2.7218895e-05
227	0x3898a84e	7.279274e-05
228	0x389fdcb3	7.622819e-05
229	0x392e2b34	0.00016610028
230	0x39affb15	0.00033565672
231	0x39dd7416	0.00042238896
232	0xb9f49616	-0.0004665113
233	0xbaa3c4cd	-0.0012494564
234	0xb9b5660f	-0.0003459905
235	0x39fe4c3a	0.00048503448
236	0xba8af0f1	-0.0010600371
237	0xb9841e9e	-0.00025199814
238	0x3a08ea69	0.0005222918
239	0x3958e628	0.00020685105
240	0xb8e58d08	-0.0001094584
241	0xb9b0c19a	-0.0003371358
242	0x3a9260f5	0.0011167811
243	0xba8d48fe	-0.00107792
244	0x389bf27b	7.4361415e-05
245	0xba439920	-0.0007461477
246	0xb72b436b	-1.0208091e-05
247	0xb91a735a	-0.00014729556
248	0x398b6d82	0.00026593736
249	0x390c812d	0.00013399562
250	0x380b4329	3.320273e-05
251	0xb99d0130	-0.00029946258
252	0xb90b2e3b	-0.00013273295
253	0x396e75b8	0.00022741302
254	0xba0731f9	-0.0005157288
255	0xb8f66d01	-0.00011750498
