logs/rl_games/hexapod_flat_direct/2025-11-15_08-02-25/nn/last_hexapod_flat_direct_ep_150_rew_8.972716.pth (torch, 545896 bytes, 33 tensors)

value_mean_std.running_mean f8 [1]
000000 e3 2f d8 aa f7 18 cf 3f
       0.24294944612517985

value_mean_std.running_var f8 [1]
000000 40 e9 75 63 23 05 c2 3f
       0.14078180653070582

value_mean_std.count f8 []
000000 00 00 00 08 00 20 8c 41
       58982401.0

a2c_network.sigma f4 [18]
000000 1c fb 23 be a8 95 b5 be ad 2d ae be 8a 6a b2 be
       -0.1601376 -0.3546574 -0.34019223 -0.34846908
000010 be b1 bb be 14 b8 7f be 6a b9 1c bf 9d f2 30 bf
       -0.36659044 -0.24972564 -0.6122042 -0.691202
000020 da fc 27 bf d3 c2 3c bf 8e 6c 53 bf ec 2d 36 bf
       -0.65620196 -0.7373478 -0.82587516 -0.7116382
000030 39 b0 44 bf a8 c6 5f bf 5e cc 47 bf ba dd 56 bf
       -0.76831394 -0.874125 -0.78046215 -0.8393208
000040 e7 a8 5a bf 69 21 34 bf
       -0.85413975 -0.7036348

a2c_network.actor_mlp.0.weight f4 [128, 66]
000000 fa 94 52 be a0 ad d4 be 08 df fb 3d 7b 5f 95 bd
       -0.20564643 -0.41538715 0.12298399 -0.07293602
000010 19 4e 1c 3e dd 5a 96 3d 1d ba be 3f 07 33 56 3e
       0.15264167 0.073415495 1.4900547 0.20917903
000020 7f 3b 51 3c 3e fe 96 be ba 8e bc be b9 9a 43 3c
       0.012770533 -0.29490846 -0.36827642 0.011938744
000030 df 26 d5 3d 58 4f 5a 3f 35 a5 92 3d d7 05 e8 b9
       0.10407805 0.8527732 0.07160417 -0.0004425484
000040 91 02 54 be 75 ee 1d 3e c5 35 c5 3c e0 f2 1b be
       -0.20704104 0.15422995 0.02407349 -0.15229368
000050 61 d7 5f 3c 8a 31 6c be 38 7c b7 be c3 fe 83 be
       0.01366219 -0.23065773 -0.3583696 -0.25780305
000060 7e e5 37 be a6 df 1a bf 43 58 be 3d 3f 18 b5 3e
       -0.17958638 -0.6049751 0.09294178 0.3537006
000070 86 b9 0c 3e c1 d5 dd 3e d5 05 4b bc e5 4c 2f bd
       0.13742647 0.43327144 -0.012391527 -0.04279794
000080 4d ff 0f bc fe e5 1f bd 7e 29 b5 bb bd 51 be 3d
       -0.008788896 -0.039037697 -0.005528628 0.09292934
000090 71 c5 f8 bb 97 aa b0 bd 3a 23 2e 3b de db f9 bd
       -0.007591896 -0.086262874 0.002657129 -0.122001395
0000a0 8d fb 2b bd f6 f0 ee bc fa 7b c4 bc 53 48 2e 3c
       -0.041987944 -0.029167634 -0.023984898 0.010637361
0000b0 a9 9f 5d bc 4d f4 a2 3a 0b fc 0a bd c9 fe 59 3c
       -0.0135268355 0.0012432426 -0.033931773 0.013305374
0000c0 47 ad 95 bd f3 00 71 3e a5 4c 45 bc f4 3c 8b 3d
       -0.07308441 0.23535518 -0.012042199 0.06798735
0000d0 8c c3 d1 bd 70 b2 d5 3c 97 86 de bb ad ef 04 be
       -0.10242376 0.026086062 -0.0067909467 -0.12982054
0000e0 96 37 a1 bd 48 a2 12 be 6a e9 f5 3b 75 7b 8c be
       -0.0787193 -0.14319718 0.0075046318 -0.2743794
0000f0 2a 90 dd 3d 12 a9 47 bd 31 3a f5 bc b0 58 3e 3c
       0.10818513 -0.048745222 -0.029934974 0.011617824
000100 97 ae 79 3d de 00 fb 3d 12 08 82 3e 4b 2b 19 3e
       0.060957517 0.12256025 0.25396782 0.14957921
000110 71 ab 70 be ed 50 c8 bd 58 90 63 3d 69 a1 b2 3d
       -0.235029 -0.0978106 0.05555758 0.08722193
000120 7f 14 a3 be 2a 52 8c be 3f f6 22 bd df 2e 15 bf
       -0.31851575 -0.27406436 -0.03978562 -0.58274645
000130 a4 57 df 3e a5 03 eb bd 60 11 dd 3d 02 a8 23 be
       0.43621552 -0.114753045 0.1079433 -0.15982059
000140 6c ba c9 3e 79 6a 07 3e fb 63 38 bd 1e ae 9e bd
       0.3940004 0.1322421 -0.045017224 -0.07748054
000150 18 40 67 3d 2f e7 30 bd de 55 4f bd 3d 75 ce bd
       0.05645761 -0.043189224 -0.050619 -0.10080955
000160 36 53 04 3e 22 fe 21 bc b6 30 75 3e 63 53 6a 3e
       0.12922367 -0.00988725 0.23944363 0.22883372
000170 39 30 b7 bc cc 4e 8d be ef 24 ca bc 08 6f 5c bc
       -0.022361862 -0.2759918 -0.024675814 -0.013454206
000180 cd 64 93 3c c6 04 a7 bd 2c 54 bd 3a 79 57 63 3c
       0.017992401 -0.08155207 0.0014444641 0.013875836
000190 29 74 aa bc 1f 76 80 3b 10 60 7d 3c 8b 8a 5c bd
       -0.020807343 0.003920331 0.015464798 -0.053843062
0001a0 f2 3f 32 bd 1f 17 7d 3c 68 27 e7 3b da ca b7 bc
       -0.043518014 0.015447407 0.007054258 -0.022435594
0001b0 d4 d1 26 bd 69 95 f3 ba f3 1e ec 3b d7 80 44 3d
       -0.04072745 -0.0018583956 0.007205838 0.047974434
0001c0 77 6c e7 3c 73 8d b6 bd 3e 19 34 3d 26 de e4 bc
       0.028249962 -0.08913698 0.043969385 -0.02793796
0001d0 20 5a 14 3e 4b d4 b4 bd dc 13 d3 3c 1a a4 94 3c
       0.14487505 -0.08829554 0.025766306 0.018144656
0001e0 4b 9e 00 3e 89 cc 1d 3c dc 38 13 bd 0d 66 6b 3a
       0.12560384 0.0096312845 -0.035942897 0.00089797453
0001f0 21 cc 45 be 03 d3 1d 3d 56 1d 95 3c 91 9c fd 3d
       -0.1931615 0.038531315 0.018202465 0.12383378
000200 4e 01 bf 3d 11 89 8d bd 05 2d 22 bd 07 47 5b 3d
       0.09326421 -0.06910909 -0.039593715 0.053534534
000210 a5 2c d5 3d ab 40 ed 3c ba 7e 9e be 2e 1c 98 3d
       0.10408906 0.0289615 -0.3095606 0.0742725
000220 0b 04 0e 3d 21 42 ea bd 28 bc c0 3d 46 01 e3 be
       0.034671824 -0.11438394 0.09410888 -0.4433691
000230 b6 83 23 be c4 f4 f3 be 27 53 14 be 0f d9 81 3e
       -0.15968212 -0.4764768 -0.14484845 0.25360915
000240 b0 fb b6 3d 29 d0 2c bd 29 9b e3 be 97 8a 77 3e
       0.08934724 -0.042190704 -0.44454315 0.24173962
000250 a1 6f 48 bf 7b 02 a0 3e 0c 37 91 bb b5 3c e9 bc
       -0.7829533 0.31251892 -0.004431611 -0.02847133
000260 94 94 0e 3e a3 04 bf bd 9d 42 f6 bd 8d 9d a3 3d
       0.13923866 -0.09327056 -0.12024424 0.07989035
000270 24 41 73 bd b8 48 da bd 0f b2 7b bc 5d a3 1b 3e
       -0.059388295 -0.10658401 -0.015362277 0.15199037
000280 af 13 13 3c 5d 43 4e be 6e 71 83 bc 4c 7d ca bc
       0.008976861 -0.20142885 -0.016045298 -0.02471795
000290 7b 0f c2 bc d6 5a c2 3c 13 74 aa 3d 50 45 6e bb
       -0.023689022 0.023724955 0.08322921 -0.0036357231
0002a0 c5 30 5a bd 8c d7 d3 bd 07 6e 04 bd f7 41 3b bd
       -0.053269166 -0.10343847 -0.032331493 -0.045717206
0002b0 fc 1f 1e bd 7c 2c 55 bd 34 3d 50 3c 22 fe 3e bd
       -0.03860472 -0.052044377 0.012709904 -0.04662908
0002c0 7d 76 4e 3c 2b 0e 56 bd b1 89 bf bb 8d f8 f4 bc
       0.012601492 -0.052259605 -0.0058452715 -0.029903674
0002d0 5f 22 0c be 73 b7 00 3d 5c 28 97 bd 0c 37 5e 3e
       -0.13684987 0.03142495 -0.07380745 0.21700686
0002e0 86 22 6f be d9 c6 0d be 42 7d 91 bd 88 e2 b9 3c
       -0.23353013 -0.13845386 -0.07103969 0.022691026
0002f0 51 7c 49 3d ec 25 23 3c a4 94 7f bc 76 8f 6c bd
       0.049190823 0.009957772 -0.0155994035 -0.057754003
000300 9a cb 8f 3d 67 11 c5 3d 27 bc 80 3e e8 ea b6 bd
       0.07021256 0.0962246 0.2514355 -0.089315236
000310 31 ab 56 bc 7f e2 e5 bd cb e9 69 3e 32 f3 95 3b
       -0.013102339 -0.11224841 0.22843091 0.0045761103
000320 be a4 ab 3c 25 1f 2d bd 51 42 f2 bc 76 b2 16 be
       0.020952579 -0.04226603 -0.029572638 -0.14716515
000330 12 22 e1 be 50 d3 de 3e 01 42 9e 3e 4f 8a c0 bc
       -0.43971306 0.43520594 0.30909732 -0.02350345
000340 94 a2 19 3e 87 e0 9f 3d 66 b4 b6 bd 12 8c 9f 3d
       0.15003425 0.07806497 -0.08921127 0.07790388
000350 7d 01 1a be 67 79 18 be f4 10 2d be 22 d0 08 be
       -0.1503963 -0.14890061 -0.16900998 -0.13360646
000360 13 b2 8a bd 71 d6 31 be 08 ac 31 be 96 a2 87 bd
       -0.06772246 -0.17366959 -0.17350781 -0.06622808
000370 3e 2b 55 be 85 24 5d 3d 47 2a 4d 3e 03 27 42 3e
       -0.20817277 0.053989906 0.20035659 0.18960194
000380 dd 18 87 3e 2f 24 be bd ad 4d 33 be f1 48 cb bd
       0.26386157 -0.09284245 -0.175101 -0.09926022
000390 a6 ed c6 3a 29 b7 8b bd e2 22 2c bd 0c c5 5c bd
       0.0015177026 -0.068220444 -0.042025454 -0.053898856
0003a0 1d cb 20 bc 27 30 76 bd 6c ec b3 3c c1 99 1f 3c
       -0.009814051 -0.060104515 0.02196332 0.009741248
0003b0 15 de a1 bc 6c 21 04 3c 0f 70 95 bc 1e 4e 21 3d
       -0.019759217 0.008064609 -0.01824191 0.03938114
0003c0 6f a1 95 bb 80 33 72 3c 5c 5d c8 bc 21 72 71 3c
       -0.0045663635 0.014782786 -0.02445858 0.014736683
0003d0 c7 b6 07 3c f9 1e 9a bc 1a 9d 6b bd 4e c5 1f 3d
       0.008283324 -0.018813597 -0.05752287 0.039006524
0003e0 ee 12 b5 3d 63 fa 52 bc c0 56 93 3d e9 8d cf 3d
       0.08841501 -0.01287708 0.071942806 0.10134489
0003f0 4b 18 23 bd 4d 1b a4 3d 30 b6 a9 bd b0 50 ce bc
       -0.03981809 0.0801302 -0.08286703 -0.02518496

a2c_network.actor_mlp.0.bias f4 [128]
000000 c6 f4 09 be 3d 0a b4 3d fb d9 ab 3d 2a e8 6d be
       -0.1347228 0.08791015 0.08391186 -0.23233095
000010 28 50 6d 3d 80 58 ba 3d 3f a4 d8 bd 6a 34 c0 3d
       0.05793777 0.09098911 -0.105782025 0.09384997
000020 84 df c8 bc c7 17 1b 3c 73 8f 3c bd 23 dd 76 bc
       -0.024520643 0.009466118 -0.04603524 -0.015067372
000030 05 97 c2 bd 95 72 e8 bd f3 fd f8 3d 96 05 f2 bc
       -0.09501461 -0.1134998 0.12157812 -0.02954368
000040 93 8b 54 bd f2 32 0c bd f5 d8 c6 bd 68 dd b8 ba
       -0.05189092 -0.034228273 -0.0970935 -0.001410407
000050 48 92 b3 3d cb 31 23 3e 79 b5 b9 3d 4d c1 fa bb
       0.08768135 0.15936963 0.09067816 -0.007652438
000060 54 2f 3a 3c 2c 71 ac 3d 18 a3 ee bd 90 34 d8 3d
       0.011363823 0.08420023 -0.116522014 0.105569005
000070 a5 ca df 3d 71 11 10 be a0 f4 cf bd e8 cd 0e be
       0.10927323 -0.14069153 -0.101540804 -0.13945735
000080 1f 2d bb bd b8 b9 c3 3d cc ed 83 bd a5 30 17 be
       -0.091394655 0.095569074 -0.064418405 -0.1476465
000090 43 7a fa bb 19 4a e2 3d a9 60 9f bd 86 26 ba bd
       -0.0076439693 0.11049289 -0.07782108 -0.09089379
0000a0 d8 0a b0 3c d3 da 23 be fa fa 64 be e1 ea dc bd
       0.021489546 -0.16001444 -0.22361365 -0.10786987
0000b0 31 a3 ef bd d7 63 1b 3e 80 29 2b be cd e6 ac bd
       -0.11701048 0.15174805 -0.1671505 -0.08442459
0000c0 df 71 47 3d 6d ad 1c bc cf f9 42 be d1 54 16 bd
       0.04869258 -0.009562832 -0.19040607 -0.03670198
0000d0 89 d2 c1 3d a3 dd cc bd 79 09 fc bd 5d 54 62 3d
       0.094639845 -0.10003211 -0.12306494 0.055256236
0000e0 0b b1 db 3c eb 15 8c bd ad e4 e5 bd 41 0d d9 3d
       0.02681782 -0.06840118 -0.11225257 0.10598231
0000f0 06 4e 8b bc 5e 43 5b 3d 4d fe 24 3d 08 5d ba bd
       -0.017004978 0.053531043 0.040281583 -0.090997756
000100 b8 dc cf bd c0 73 00 3e c0 73 21 3e e6 25 52 bd
       -0.10149521 0.12544155 0.15766811 -0.051305674
000110 3d 13 18 3d f1 cd 00 3b 81 66 8d bd e8 38 8a 3d
       0.037127722 0.0019654 -0.06904317 0.06749135
000120 a6 7c 93 3d ee 85 ff 3d 82 8d 2d 3d 21 0c 87 bd
       0.07201509 0.12476717 0.04237128 -0.0659411
000130 c5 10 c5 bd cc 15 31 3c 57 96 5c bc 92 87 44 bc
       -0.09622339 0.010808419 -0.013463578 -0.011995213
000140 ac 96 93 bd f6 dd c4 ba 60 31 6a bd af 43 7c bd
       -0.07206473 -0.0015019763 -0.057175994 -0.061587986
000150 ac c6 5b bd 9e ed 08 3d 90 ad 10 be f4 0b 34 be
       -0.053656265 0.033429734 -0.14128709 -0.17582685
000160 01 e1 97 bd a1 9b e5 3d e0 9a bb 3c 68 8e 5e bd
       -0.07415963 0.112113245 0.022900999 -0.054335028
000170 61 8c a2 bd c8 d2 db 3d f5 05 b6 3c 5a 9d 4c be
       -0.079369314 0.10733563 0.022219637 -0.199819
000180 bc 43 d4 3c bd 84 02 be 83 4e c6 bd 8a 0e cd 3d
       0.025911205 -0.12745948 -0.09682944 0.10012539
000190 c2 4d 0e 3e ab 69 8d bd 46 10 be 3c 54 a8 25 3d
       0.1389685 -0.0690492 0.02320112 0.040443733
0001a0 5e 02 0a 3e 61 f5 03 be 82 fc a6 3b 7a f3 0a 3d
       0.13477466 -0.12886573 0.0050960192 0.033923604
0001b0 d3 f2 84 3d b9 aa 46 39 b3 2a 80 bd fe e2 66 bd
       0.064916275 0.0001894635 -0.06258144 -0.05636882
0001c0 44 02 81 3d 41 82 9f bd af d3 a8 3d 34 18 1c bd
       0.0629926 -0.07788516 0.082435004 -0.03810902
0001d0 ff 91 e0 bd d6 7a ec 3d f6 d1 b4 bd c3 e3 3b bc
       -0.109653465 0.115468666 -0.08829109 -0.011467877
0001e0 ea 79 37 3e f7 2d 05 3d 18 da 60 3d cd 30 48 bc
       0.179176 0.03251454 0.05489549 -0.012218666
0001f0 3b 74 d9 bd e6 50 24 3d b6 9b ff bd 4d 44 c1 3d
       -0.10617872 0.040116213 -0.124808714 0.094368555

a2c_network.actor_mlp.2.weight f4 [128, 128]
000000 ed 3e 18 3e b0 99 69 3d 18 1d 13 be 66 0f 7e bd
       0.14867754 0.057031333 -0.14366567 -0.062026404
000010 87 b8 36 be 56 fd 9b ba 71 ea 98 3d 57 10 12 bd
       -0.17843829 -0.0011901062 0.07466591 -0.035660114
000020 5d 50 1e 3e 7b 33 48 bd 00 7c 85 bb bd c8 b0 3d
       0.15460344 -0.04887722 -0.00407362 0.08632038
000030 0d b1 8a bc 3d 84 58 3e 46 fa 36 be 63 f0 55 3b
       -0.016930128 0.21144195 -0.17868909 0.0032644502
000040 6c 39 1a 3e 59 3c 3f be 48 ab 58 3d 1c 4c ca bd
       0.15060967 -0.18675365 0.05289772 -0.09877798
000050 69 25 3f bd a3 45 e5 3d 65 fd 25 3e 9a 55 34 3e
       -0.046666536 0.11194923 0.16209944 0.1761078
000060 17 7c f9 3c 2b 7a ab 3b ea c1 2a bd c5 f8 f0 3d
       0.030454678 0.0052330694 -0.041688837 0.11766199
000070 20 0f ce 39 2b 41 42 be f9 76 9a bd 20 4e 02 bd
       0.0003930265 -0.18970172 -0.075422235 -0.031812787
000080 df d9 3e be 91 0f 13 bc bb 3e a0 3d 66 e7 3c 3d
       -0.18637799 -0.008975879 0.07824465 0.046119116
000090 11 f0 6f bb 47 ce 29 3d 15 34 30 bd 34 18 07 3e
       -0.0036611597 0.041456487 -0.04301842 0.13192827
0000a0 30 b9 e1 bd 41 b9 06 3e a3 d0 5f bd 48 69 9e 3e
       -0.1102165 0.13156606 -0.05464233 0.30939698
0000b0 99 dd 23 bd ce 4d bc bc 55 e7 a0 bc e4 e4 54 bd
       -0.040006254 -0.022986319 -0.019641558 -0.0519761
0000c0 3c f9 49 3c 21 a2 d9 bc db ce 51 bd 51 15 db 3c
       0.0123274885 -0.026566567 -0.051222663 0.026743563
0000d0 85 c5 59 3e 7b 9b dc 3d 9a 6b b2 3d 4f fc 9b 3d
       0.21266754 0.10771843 0.087119296 0.076164834
0000e0 83 7c a5 bc c5 09 f3 3c e7 72 31 bc 8d f6 49 3b
       -0.020200973 0.029667744 -0.0108306175 0.0030817122
0000f0 e5 bc 2a bd fa a9 af 3d b2 cf 3e be 9a 75 70 bd
       -0.04168405 0.08577342 -0.18633917 -0.058705904
000100 c7 40 47 bd f8 83 8b 3d 14 6b 10 bd fb 64 56 be
       -0.04864576 0.068122804 -0.035258368 -0.20936958
000110 2d 1c 6d 3d 4e 7f a2 3d 62 ed 81 3d d1 81 52 3e
       0.0578882 0.07934438 0.06344105 0.20557334
000120 04 aa 5c bd f3 60 5c 3c 63 f2 ac bd a9 ee 40 3d
       -0.053873077 0.013450849 -0.08444669 0.047102604
000130 43 2c e3 bc 77 f8 e2 3a 48 3d 84 3c 07 8a 73 3b
       -0.027731067 0.001731648 0.016142502 0.0037161128
000140 e4 92 58 3c 23 18 a1 bd e2 8c cb ba da a8 06 3e
       0.013218615 -0.07865932 -0.0015529657 0.1315035
000150 41 97 48 3d f2 90 df bd 49 5a 29 bd bd f9 c7 be
       0.048972372 -0.10916318 -0.04134587 -0.39057723
000160 e1 1c dd 3b 83 5d 4a bd de a9 b2 bc a8 26 b7 bd
       0.0067478274 -0.049405586 -0.021809515 -0.0894292
000170 cd 76 07 be ec 6f 37 be bb 79 44 3e da 99 2d 3e
       -0.13228913 -0.17913789 0.19187061 0.16953221
000180 48 14 1c 3c f6 ee 31 bd 4e c4 0c 3e ca 89 49 3e
       0.00952632 -0.04344078 0.1374676 0.19681469
000190 fa d8 70 3d cc 40 b7 bd eb 84 31 3d 6d b1 af bd
       0.058800675 -0.08947906 0.04333965 -0.08578763
0001a0 31 c7 31 3e f2 a7 b4 3d e8 56 04 3d 4c a7 c0 3d
       0.17361142 0.088210955 0.032309443 0.09406909
0001b0 00 f7 c4 3d 3d d5 20 3d ff e4 ac 3d 01 fc 8a 3a
       0.09617424 0.03926586 0.08442115 0.0010603667
0001c0 ff c2 57 3e 35 c8 fa bc 4e 18 0c be 8f d1 a5 3d
       0.21070479 -0.030613044 -0.13681147 0.08096611
0001d0 89 e6 13 bd be 44 72 bd 64 a1 c0 3d 5e 6f 9f 3c
       -0.036108527 -0.05914759 0.09405783 0.019462284
0001e0 e1 05 fb bd ab 90 0f 3d a8 a4 f3 3c d2 bc 34 be
       -0.12256981 0.035050076 0.0297416 -0.17650154
0001f0 02 31 aa 3d 2c cf cc 3d 88 a4 b9 3d 3a da 06 3c
       0.08310129 0.100004524 0.09064585 0.00823074
000200 51 a6 52 3d bf 29 c1 3c b8 4a 05 3d 18 3a 44 bd
       0.051428143 0.023579476 0.03254196 -0.047906965
000210 29 6f db bd 72 56 09 3e d1 aa a2 bd a3 58 91 bd
       -0.107145615 0.13411883 -0.07942737 -0.07096984
000220 27 f7 11 be 1b 6d 89 bc 0a 05 71 bd 37 3c 1e be
       -0.14254437 -0.016775658 -0.058842696 -0.15452658
000230 ee d7 d8 b8 7e 61 1a be a0 e4 69 3c c7 a1 ce 3d
       -0.00010339903 -0.15076253 0.0142757 0.1008945
000240 e2 ae 9c bd 8c 7e a4 bd cd 08 43 bc 13 14 18 3d
       -0.07650544 -0.080319494 -0.011903954 0.03712852
000250 cd 25 85 bc 2d 36 8b bc 98 b1 e3 3d 58 65 b0 bd
       -0.016253376 -0.016993606 0.11117858 -0.0861308
000260 15 99 ed 3d cf 63 08 3e f3 18 40 3c e0 c9 32 3d
       0.11601464 0.13319324 0.011724698 0.043649554
000270 a4 e8 32 bc ca e3 37 3e 7d bf 88 3d 91 2a d9 3d
       -0.010919724 0.17957988 0.066771485 0.10603822
000280 6c 46 4f 3a dd 87 fe 3c ff 7a 3a 3e 62 cb 28 3e
       0.0007906917 0.031070644 0.18210982 0.16483834
000290 bd 4e 0f 3c 42 4d 31 be 60 56 c3 bd 61 ab a9 3d
       0.0087468 -0.17314628 -0.09537959 0.08284641
0002a0 0c 85 27 bc 7e 7f c7 3c a2 2a 29 3e ed ca 59 bd
       -0.010224592 0.024352785 0.1652017 -0.05317204
0002b0 b4 34 00 3e c7 df 75 bd d5 41 5a 3d 74 01 71 bd
       0.12520105 -0.060027864 0.05328544 -0.058839276
0002c0 c9 d8 c8 bd d9 a5 52 3c 3b d8 e7 3d 24 25 a6 bd
       -0.098069735 0.012856924 0.113205396 -0.08112553
0002d0 c4 65 1e bd b9 60 0b bc 52 c7 87 3e e9 ef 77 bb
       -0.03867127 -0.008506947 0.26519257 -0.0037832207
0002e0 3c 5f 40 bd cb cf f2 3d d9 7f db bd af be 4a be
       -0.046965823 0.118560396 -0.107177444 -0.19799303
0002f0 60 d3 f1 bd 21 fd 53 bc a2 05 7c 3d 7c 0f d8 bd
       -0.11807895 -0.012938769 0.06152881 -0.105498284
000300 2f 1e c7 bd 00 4c 7a 3d e1 ca 59 3d 5a 49 0d bd
       -0.09722554 0.061107635 0.053171996 -0.03449378
000310 b3 a6 88 3d 70 6c 18 be be 62 0c 3d 41 03 e9 3d
       0.0667242 -0.14885116 0.034273855 0.11377574
000320 4c 2a 72 3d 3d de cb 3d 26 0f 7b bc ea 2b d5 3d
       0.05912237 0.09954498 -0.015323436 0.104087666
000330 d2 56 be 3b 75 6f 20 3e b4 cd fb 3d 70 c2 d2 3c
       0.0058086896 0.15667517 0.12295094 0.02572748
000340 32 98 9c bc 83 87 bd bc 11 00 c4 3c f1 07 7b bd
       -0.019115541 -0.023135906 0.023925813 -0.06128687
000350 12 b1 0c 3e f2 ed 0c be bc 20 19 3e b7 1f fe 3c
       0.13739422 -0.13762644 0.14953893 0.031020982
000360 55 48 a3 bd 66 c4 b5 bd b4 77 9d bd f8 a5 9f bd
       -0.079727806 -0.08875351 -0.07688847 -0.07795328
000370 e0 0a 04 be 50 35 4e bc 32 b9 e4 bc 08 7e 19 3e
       -0.12894773 -0.012585953 -0.02792034 0.14989483
000380 2a 8c e0 bd a1 4c 47 bd 01 c2 e8 3d 1a 4f b5 3d
       -0.10964234 -0.048657063 0.11365128 0.08852978
000390 85 a8 be 3d f5 34 16 3e e5 b3 8c 3d 60 a8 a8 3c
       0.09309486 0.14668639 0.0687025 0.0205881
0003a0 94 da ad bd 18 67 eb bd 67 4e 14 3d f7 c6 28 3d
       -0.08488956 -0.11494273 0.036207583 0.041205373
0003b0 f8 25 07 be db 1a 54 3e a2 d6 0f 3e b3 42 86 be
       -0.13198078 0.2071337 0.1404672 -0.26222762
0003c0 41 db a5 3c c2 53 24 3d 12 9e e5 bc 3d 3e a9 bd
       0.02024615 0.04011894 -0.028029475 -0.08263824
0003d0 bc 2f 66 bb 87 aa 55 bd 6f 2a e4 bb 06 f9 25 bd
       -0.0035123667 -0.05216458 -0.0069630663 -0.04052069
0003e0 70 8d 4f bd 26 76 17 3c cc 07 76 be e9 5e 15 bc
       -0.050671995 0.009244477 -0.24026412 -0.009116867
0003f0 12 a7 82 3c b6 a3 3b 3d 97 4f 87 3c dd 73 6b bb
       0.015948806 0.045810424 0.016517444 -0.0035927214

a2c_network.actor_mlp.2.bias f4 [128]
000000 c6 7c 9a bd 26 01 f5 bd f0 cd 69 3d cf 27 03 3d
       -0.0754333 -0.1196311 0.057081163 0.032020386
000010 bc 2f 4c be 1c ef 74 be 6c 6b 7a 3c 84 77 ab 3b
       -0.19940084 -0.23919338 0.0152844 0.005232753
000020 79 81 e3 3c cc 8d a2 bd 38 e4 c9 bd 13 3f d2 bd
       0.027771698 -0.07937202 -0.098579824 -0.10265937
000030 be 1a ef bb 29 bf b2 3d fe 1a 05 be cc 73 d2 bd
       -0.007296889 0.08727867 -0.12998578 -0.10275993
000040 39 91 9a 3c 6c c8 9b bc 79 dc e3 bd 76 08 9c bd
       0.018868076 -0.019016467 -0.11126036 -0.07618801
000050 76 34 61 bd bc 29 19 bd 73 8a fb bb 74 62 7a bd
       -0.05498167 -0.037393317 -0.0076764165 -0.06112905
000060 17 f3 03 bd 47 eb 09 3d d3 9b b4 bd f8 3b 01 3d
       -0.03221425 0.033671644 -0.088187836 0.03155133
000070 a0 b2 0c bd 24 4e e1 bd 68 12 d7 3d fb a4 f7 bc
       -0.034350038 -0.11001232 0.105015576 -0.030230036
000080 48 f1 1a 3c 93 86 32 3c 48 95 8c bd 70 9c 45 be
       0.00945694 0.010896343 -0.06864411 -0.19297957
000090 cc de d6 bc dc bd 80 bc 77 36 80 bd bb 7d 3b 3b
       -0.026229285 -0.015715532 -0.06260388 0.0028608877
0000a0 de 6f 9c ba 80 68 19 bd bb e2 82 bc 7b 06 a5 3c
       -0.0011935194 -0.037453175 -0.015977254 0.020144692
0000b0 af 16 4f be 11 57 a2 bd 2e 41 14 bd b7 df 9d bc
       -0.20223497 -0.07926763 -0.036194973 -0.019271715
0000c0 a6 8d 0a be 4a 98 24 39 ea d8 05 be 48 ea 05 bd
       -0.13530597 0.00015696991 -0.13071027 -0.03269413
0000d0 55 18 86 3d 9e db 8b bd 0a 6b 73 bd 37 2c e6 bd
       0.0654761 -0.06828998 -0.059428252 -0.11238902
0000e0 99 51 1c 3d f7 52 7c bd 86 4c cd 3c e2 02 89 be
       0.038163755 -0.06160256 0.025060903 -0.26760012
0000f0 8b f5 da bd 88 70 96 3b 63 ea ae 3d ad 66 18 bd
       -0.10691365 0.0045910515 0.085407995 -0.037207294
000100 32 ff 86 bd 8b f3 5f be 82 04 b1 3c 0c 1e 88 be
       -0.065916434 -0.21870248 0.021608595 -0.26585424
000110 e1 32 f8 bd 9c e3 5c bb 91 a6 ed bb f7 81 09 bd
       -0.121190794 -0.0033705002 -0.0072525223 -0.03357121
000120 00 b4 ad 3c a0 67 b3 bb a3 2c 93 be 3e 74 23 bd
       0.021203995 -0.0054749995 -0.28744993 -0.03990578
000130 b4 c6 ef bc 99 55 ed bc 64 8a d7 bc 96 c5 f0 bd
       -0.029269554 -0.02897148 -0.026311107 -0.117564365
000140 c9 9d 56 be ad bd 2e 3d 8d 3a 65 3d 5a 35 9f bd
       -0.20958628 0.042661358 0.05596404 -0.07773848
000150 32 8c 0e be 6c 62 91 bd e8 91 07 3c 86 04 1d 3c
       -0.13920668 -0.070988506 0.008274533 0.009583598
000160 05 d1 a4 bd df b6 7e bd 83 7c a8 bd 8f 1f 95 bd
       -0.0804768 -0.06218612 -0.08226874 -0.0728141
000170 0d 8e a9 bd 95 c2 af bd f5 09 23 be 82 bf 0f bd
       -0.08279047 -0.085820355 -0.15921767 -0.035094745
000180 f2 0e 85 bd 6b 05 5e bb 9d 26 ad 3b d1 24 75 bc
       -0.06496991 -0.003387774 0.005284144 -0.014962391
000190 03 f6 4d 3d 53 dd 06 bd b6 28 be bb 42 af 60 be
       0.050283443 -0.032925915 -0.005803193 -0.21941856
0001a0 4a 11 6e bd 13 5f f9 bd f7 5b 35 be 56 4f 4c be
       -0.058121957 -0.12176337 -0.17710863 -0.1995214
0001b0 4f f8 a2 bd 2c bf c8 3c 8b de 0f be d8 f0 d3 bd
       -0.07957517 0.02450522 -0.14049737 -0.10348672
0001c0 44 00 35 be c5 e6 20 bd 28 12 7f bc ed ac 01 be
       -0.17675883 -0.03928258 -0.015568294 -0.12663622
0001d0 46 93 3f be 4d 37 d5 3c a1 d9 eb 3d 04 a5 96 be
       -0.18708524 0.026027346 0.11516119 -0.29422772
0001e0 4f df 7e bd dc c3 63 ba 04 c0 f3 bd e5 e3 5a be
       -0.062224682 -0.0008688548 -0.119018584 -0.21375997
0001f0 7f b1 05 bd 4c a1 11 3d de c3 10 be 1e f6 e8 bc
       -0.032639977 0.035554215 -0.14137217 -0.02843767

a2c_network.actor_mlp.4.weight f4 [128, 128]
000000 4e 24 1c bd fc 1c 3c 3d 9d fb 89 bc 6e e0 13 3d
       -0.03812056 0.04592608 -0.016843611 0.036102705
000010 8e 20 18 3e 59 87 8a be ba 84 19 be 57 ec cc 3d
       0.14856169 -0.27056387 -0.14992037 0.10006016
000020 60 29 91 bd 4d c1 32 bd eb 70 4c 3d bc 03 48 3c
       -0.0708797 -0.043641377 0.049912374 0.012207922
000030 ca bf bb 3d b5 93 7e bd 2b 21 0c bc 17 db d1 3b
       0.0916744 -0.062152583 -0.00855283 0.0064042914
000040 45 d4 e7 bd c9 d2 5f 3d 2e ed 60 bd 9a fb b5 bd
       -0.11319784 0.05464438 -0.054913692 -0.0888588
000050 bb 75 9a 3d ef 80 b3 3d b6 ec db 3c 9f 7a da 3c
       0.075419866 0.087648265 0.026846271 0.026669798
000060 06 65 a2 3c fa ec e5 bd b1 1c ea 3b 6d 55 a8 bc
       0.019823562 -0.1122684 0.0071445336 -0.020548547
000070 7a 49 bf bd cf 78 b1 bd 91 b6 e9 bd 7b 6d 51 3d
       -0.093401864 -0.086656205 -0.11411775 0.0511298
000080 e0 a2 00 3d 7f 0a bd bb 3f e4 01 bc 36 1e f2 3d
       0.03140533 -0.0057690735 -0.007927953 0.118221685
000090 97 3b b4 bd 73 4f e4 bd a9 52 e0 3c 32 63 a1 bd
       -0.08800428 -0.11147966 0.027383165 -0.07880248
0000a0 9e 38 e2 3d 51 da 20 bd 4d 11 b3 bd 35 26 09 be
       0.11045955 -0.039270703 -0.08743534 -0.13393481
0000b0 dd 0b 0d 3c 0c 15 3f bd 9a 97 8f bc 8a d9 8f 3d
       0.008608785 -0.04665093 -0.017528344 0.07023914
0000c0 cd bf cc 3b 48 05 00 bd 5b 48 d1 3d 60 96 7c bd
       0.0062484504 -0.031255037 0.10218879 -0.061666846
0000d0 bd 6c 7a 3d 5c c8 b1 3b 4b 24 81 bd 61 16 13 3e
       0.061138857 0.005425496 -0.063057505 0.14364006
0000e0 e9 7c 6c bc 19 c6 98 3d 12 b1 18 3d 32 2b fb 3b
       -0.014434078 0.07459659 0.037278242 0.0076650614
0000f0 bd 33 dd bc 67 52 3f 3d 97 c5 b0 3d 65 fb 2d 3e
       -0.02700221 0.046709444 0.08631437 0.1699043
000100 11 57 64 3d ee d5 58 3c 33 af aa 3b a4 23 d3 3d
       0.055747095 0.013234599 0.0052088737 0.10309532
000110 4e ca 3e 3d 8c 50 c9 bc 0b 06 25 3e fc 1e 85 bc
       0.04657965 -0.02457454 0.16115586 -0.016250126
000120 27 07 ac bd 68 35 8a bd c2 24 e3 3d d4 75 08 3e
       -0.08399802 -0.06748468 0.11090995 0.13326198
000130 3c 90 d3 bd 2f ea ba 3d 81 a7 19 3e 20 c4 52 3d
       -0.10330245 0.09126698 0.15005304 0.05145657
000140 c9 ce 96 3c 32 59 d2 ba 0c 53 2a 3d d0 00 42 3e
       0.01840915 -0.0016048311 0.041583106 0.18945622
000150 a7 0b f4 bd cd 5c 2c 3c d4 4c 60 3d bb 2b 02 bd
       -0.11916285 0.010520172 0.05476077 -0.031779986
000160 5d 34 f1 bd d2 d4 28 bc 73 c1 ac bc 34 b8 03 be
       -0.11777566 -0.010304647 -0.021088338 -0.12863237
000170 ae 07 3d 3e 68 6d 6e 3c 7d 2d 1d bd 14 f5 24 3e
       0.18459961 0.014552452 -0.03837346 0.16109115
000180 4f 8c 5a 3d 2e 28 08 be 47 5e 7f 3d d7 72 41 3d
       0.053356465 -0.13296577 0.06234577 0.04722866
000190 5c 18 ba bd cf 51 4d 3c 94 c6 52 3c 75 05 9e bd
       -0.090866774 0.012531712 0.0128647275 -0.077158846
0001a0 8f 9f d2 3d fa 3e b9 bd 19 d0 3e 3d ab 31 60 bd
       0.1028434 -0.09045215 0.046585176 -0.054734867
0001b0 de cd 22 3e d9 fd 4e bd aa 53 06 3c 51 89 f2 bc
       0.15898845 -0.050535057 0.008198658 -0.029606493
0001c0 24 73 ce bb 9f be e6 3d cf 41 d0 bd c2 96 91 bd
       -0.006300347 0.11266827 -0.10168802 -0.07108833
0001d0 89 eb bb bc af 75 ce 3c 0a 9f 22 bd 94 f7 71 3d
       -0.02293946 0.0252026 -0.039702453 0.059074
0001e0 70 9d 96 3d 3e 19 0a 3d 44 49 f4 bc 79 f2 0e 3e
       0.073542476 0.03371548 -0.029820092 0.13959683
0001f0 43 84 9a bd e9 e0 a9 bd 64 5b d1 3d 5f 03 03 be
       -0.07544758 -0.08294851 0.102225095 -0.12794255
000200 86 5e 0c bd ac b9 58 3c 64 03 78 3d 37 87 8d bd
       -0.034269832 0.013227861 0.06055011 -0.06910556
000210 e3 bf 8b 3d e5 8a c1 bc cb ee 50 be 34 0d 22 3c
       0.06823709 -0.0236258 -0.20403592 0.009890843
000220 b5 c7 39 bd 56 c5 6b bd 3c 9a a8 3d 6c 00 a1 3d
       -0.04535647 -0.05756124 0.08232543 0.078614086
000230 94 f7 ba bb a1 49 8a be 3c 8a cc ba dc 9d 92 bb
       -0.005705783 -0.270093 -0.0015605162 -0.0044743847
000240 27 be bb bd 4b e4 75 bd 20 a4 17 be 67 55 75 3d
       -0.09167128 -0.06003217 -0.14808702 0.0598959
000250 e9 9e c0 bd 02 f4 aa bd d3 ef 0d 3e db 24 d1 3c
       -0.0940531 -0.08347322 0.13861017 0.02553027
000260 3f 71 04 3e 04 3a c3 bd ae 4e 49 3d 01 d8 35 bc
       0.12933825 -0.0953255 0.0491473 -0.011098863
000270 cf 11 a4 3d 0a e5 04 be d0 0e fc 3d e4 cf 3b 3d
       0.08011209 -0.12977996 0.12307513 0.045852557
000280 1f 66 0a 3c e2 57 3f bd 86 fa 1f be e8 ba 79 bc
       0.008447199 -0.04671467 -0.15622911 -0.015242316
000290 4f 0a 25 3d 92 66 d3 3d 83 d6 22 3e 2f 35 bf bd
       0.040293034 0.10322298 0.15902142 -0.09336316
0002a0 3e de 0a be 71 36 32 bd bd b6 01 be 83 11 de bd
       -0.13561341 -0.04350895 -0.12667365 -0.10843184
0002b0 f6 b8 0a 3e 4b a2 32 3d 86 d1 bc 3c 7b c8 bd b7
       0.1354712 0.043611806 0.023049127 -2.2623912e-05
0002c0 68 73 19 3e 76 d3 d9 bc 81 06 4b 3d 2d a5 8e 3c
       0.1498543 -0.02659009 0.04956675 0.017412746
0002d0 5c cc 4e be d7 4a ba 3d 03 cd 12 bd cf 40 0c 3d
       -0.20195144 0.09096306 -0.035840046 0.034241494
0002e0 73 b2 9c bc 57 7c 29 3e 5b e1 c1 bc 14 4d 80 3d
       -0.01912806 0.16551338 -0.023667028 0.062647015
0002f0 35 fb b1 3c 65 07 2d be 1e e6 0b be af 7e 95 bd
       0.02172623 -0.16897352 -0.13662001 -0.072995536
000300 34 1c 2a bc 5d a8 4c 3c 90 69 14 3d d3 51 14 3e
       -0.010382701 0.012491313 0.036233485 0.14484338
000310 62 de ff 3d 02 53 1a bd 93 38 34 be 6a f1 21 3e
       0.12493588 -0.03767682 -0.17599706 0.15814748
000320 63 49 54 3d c7 24 2d 3c 4c 46 b4 3d da c7 7a bd
       0.0518278 0.01056785 0.088024706 -0.06122575
000330 dd fd 22 3e 82 25 b8 3c 51 1e 8f 3d d0 00 db 3d
       0.15917154 0.022478823 0.06988204 0.10693514
000340 73 3d 89 bd aa b0 ef bd f7 77 b6 3d a4 2f 92 be
       -0.06701174 -0.11703618 0.089096 -0.28551972
000350 6d 1b 5e 3e a8 d4 ce bc 61 f3 a0 bd 00 63 6b 3d
       0.2169015 -0.025247887 -0.07858921 0.05746746
000360 1a f7 32 3d eb 07 34 3d 13 53 08 bd b8 ec a3 bd
       0.043692686 0.043952864 -0.03328235 -0.08004135
000370 ec 60 03 be 23 63 a8 bd e4 e4 a6 3d ba cd d4 3d
       -0.12829942 -0.08222034 0.08149126 0.10390802
000380 ee 65 93 3e 87 29 1f be 29 a8 a0 3d fa 22 27 be
       0.28788704 -0.15543185 0.07844574 -0.16321936
000390 a0 94 2b 3e 92 80 95 3d 1a 56 25 3d be 4b b7 bd
       0.16755915 0.072999135 0.040365316 -0.089499936
0003a0 d6 4e 38 3e bc 7c 4e 3e 79 6a f1 bb 4b 09 ca bc
       0.17998824 0.2016477 -0.007367429 -0.024662634
0003b0 da eb 38 bb c9 2f 70 bd 7d 7b 40 3b de 3f 50 3d
       -0.002821675 -0.05863932 0.002937048 0.05084216
0003c0 14 1e be bc fa db 02 3e 26 2f 16 3d b8 6c 8c 3e
       -0.023207702 0.12779227 0.036666058 0.27426696
0003d0 55 fd 5e bd b1 4c 33 3e 7e 43 ec bc 44 8b 6e 3d
       -0.054440815 0.17509724 -0.028840777 0.058238283
0003e0 c7 cc 4a 3c 54 17 3b 3e 63 92 01 be bf 89 56 3d
       0.012377924 0.18270618 -0.12653498 0.05237746
0003f0 68 d4 11 3e c8 d3 3f bd 16 65 3e be 32 4f fa 3d
       0.14241183 -0.04683283 -0.18593249 0.122221366

a2c_network.actor_mlp.4.bias f4 [128]
000000 0a 2d 63 3d 31 c9 07 be 0b 7c d1 bd ad 1e a0 bd
       0.055462874 -0.13260342 -0.102287374 -0.07818351
000010 fe 4d 22 be c8 6e 79 bd 2a ff 9f bd 84 c3 12 be
       -0.15850064 -0.060896665 -0.078123406 -0.14332396
000020 ee 46 f1 bc 4e 9f 1d 3d 0a f8 6f be 2b 10 45 bd
       -0.029452767 0.038482003 -0.23434463 -0.048111122
000030 f2 86 92 bd 71 6a c6 bd 45 4a 0c be af 23 a4 bd
       -0.07154645 -0.09688271 -0.13700207 -0.080146186
000040 f3 54 41 3c 20 b6 c1 bd c0 d8 82 bd 7e ef e6 bb
       0.011800039 -0.09458566 -0.06388998 -0.0070475927
000050 4b 13 a4 3d f8 f0 ed bd 07 16 2a bd da d8 37 bd
       0.08011492 -0.11618227 -0.041524913 -0.04488454
000060 19 66 ce bd 3e ce 82 bd 10 23 fd bd f8 a5 7f 3d
       -0.10078067 -0.06386994 -0.12360203 0.06241414
000070 76 13 11 3e 56 f5 14 bc b6 9f ef bc 16 2a f2 bc
       0.1416758 -0.009091696 -0.02925096 -0.029561084
000080 6b f0 06 3d 2b 62 d0 bd 17 76 00 3d af 98 5e be
       0.032944124 -0.10174974 0.03136262 -0.21737932
000090 22 65 02 be d1 56 2c bd 74 44 6f bd 02 b3 10 3d
       -0.12733892 -0.042074982 -0.05841489 0.035326965
0000a0 68 c2 09 3e 6f bf 73 bd 3a 39 be 3c ea 80 d7 bd
       0.13453066 -0.059508737 0.023220647 -0.10522635
0000b0 3c 55 47 be 21 88 2a bd 79 6e 73 3a bd e8 59 3d
       -0.19466108 -0.04163373 0.0009286176 0.053200472
0000c0 e9 bd 5f 3d ae 4e 97 bd fa 16 be bc b1 bb 87 bc
       0.05462447 -0.07388054 -0.023204315 -0.01656899
0000d0 a9 c4 1c bd 39 0b f3 3d 29 80 bc ba a8 c6 b5 bc
       -0.038273487 0.11867375 -0.0014381456 -0.022189453
0000e0 ae 25 13 3d 98 c4 64 3c b7 d4 0d be d8 a1 c4 3d
       0.035924606 0.013962887 -0.13850676 0.09601182
0000f0 15 98 24 3d c0 b2 13 be 33 7b 8f 3c ea bb 19 bc
       0.0401841 -0.14423656 0.0175148 -0.009383181
000100 90 bb bf 3a db 87 5b bd 08 2c 1e bd af da 5a bc
       0.0014628042 -0.05359636 -0.03861621 -0.013357802
000110 5e 57 49 3c 11 cc d1 3c bc cd 7a 3d 20 ca af bc
       0.012288896 0.025610002 0.06123136 -0.021458685
000120 a4 07 a5 bd f6 1f 86 bd 01 51 27 3d b3 c9 1a be
       -0.08058098 -0.06549065 0.040848736 -0.15116005
000130 d4 ea 87 3d 20 9e b3 3b ca 39 1a bb 8a 7e 8d bd
       0.06636587 0.0054814965 -0.002353298 -0.06908901
000140 9f 9a 89 3c ed 83 36 bd 06 3f c4 bd 61 32 fa bd
       0.016797362 -0.044559408 -0.09582333 -0.1221664
000150 13 b4 f4 bc 8e 9a 33 bc 32 e8 b5 3b 08 92 16 bd
       -0.029871022 -0.010962142 0.0055513615 -0.03676036
000160 a9 f4 20 bb 40 04 45 bd 57 5b fa bd c0 b6 8c 3d
       -0.0024559891 -0.048099756 -0.12224453 0.06870794
000170 f4 45 cc bc 66 57 59 bd f6 48 d5 3d f4 2b a7 bc
       -0.0249357 -0.053061865 0.10414307 -0.0204067
000180 4e 7b 6c bd 9b a0 fe bd 18 78 28 3c ec b1 b3 bb
       -0.05773478 -0.12432977 0.010282539 -0.0054838564
000190 58 27 a3 bd cd 5e 8c bc b7 4b bd 3c 78 09 93 bc
       -0.079664886 -0.017135048 0.023107393 -0.017948851
0001a0 7f 77 c4 ba d5 c3 21 bd cf 2c 3e be 9f 97 c1 bc
       -0.0014989226 -0.0394934 -0.1857178 -0.023631869
0001b0 3b d5 8d 3c 2b fe 79 bc 37 51 35 bd f6 20 98 3d
       0.01731359 -0.015258352 -0.044266906 0.07428162
0001c0 13 3e 0f bc 85 49 68 3d 3e f6 0a bd 85 b9 e1 bd
       -0.008742827 0.05671074 -0.03392624 -0.11021713
0001d0 81 7c 5d bc fc 60 b1 3b 49 60 5e 3c b4 32 1d 3c
       -0.013518454 0.0054131728 0.013572761 0.009594608
0001e0 2f 8d 33 be 0b 9c 74 bb 30 01 46 bc 80 72 d9 3c
       -0.17534326 -0.0037324454 -0.012085244 0.026543856
0001f0 2a a8 e7 3b d4 d4 14 be 05 7d d6 3c 3b 57 aa ba
       0.0070696073 -0.14534312 0.02618266 -0.0012995967

a2c_network.value.weight f4 [1, 128]
000000 99 3f 8e 3d 2a 78 d3 ba 37 01 e0 bc 0b 00 7c 3b
       0.06945724 -0.0016133834 -0.02734433 0.0038452174
000010 af 3a 09 bd 85 f2 3f bc 90 55 e5 bc 90 21 e5 bc
       -0.03350323 -0.011715536 -0.027994901 -0.027970105
000020 93 7b 90 bc b3 18 f3 3c f1 da a5 bd b6 05 e5 3c
       -0.01763705 0.029674863 -0.080984004 0.027956825
000030 c3 02 00 bc 53 0f e7 bd 69 69 5b bc bd e3 51 3b
       -0.007813158 -0.1128222 -0.013391831 0.0032026612
000040 09 cb cf bc 1f b2 ea bb 69 da d7 3b 30 55 65 3b
       -0.02536537 -0.007162347 0.006587316 0.0034993403
000050 7b bc d1 3c 0a ea e7 3b a6 eb 62 bc 11 d0 06 3d
       0.02560257 0.00707746 -0.013850128 0.03291327
000060 25 d4 92 bc a7 6a b3 3c 6c 3f 57 3c 69 7b 85 3d
       -0.017923424 0.021901442 0.01313768 0.06517679
000070 55 5b 34 3d d8 62 a8 bc 90 00 60 bb 69 54 97 bd
       0.044032414 -0.020554945 -0.0034180023 -0.07389147
000080 2a 52 90 3c 00 c9 e6 3b 28 e4 98 3c 90 cc c8 bd
       0.017617304 0.007043004 0.01866348 -0.09804642
000090 6b 27 7c 3c 44 90 5b 38 39 4f 27 3a 7b 5e a4 3d
       0.015390257 5.2348027e-05 0.00063823495 0.08025833
0000a0 35 84 d3 3d 5b 69 43 bb e4 ef 20 3d fa 74 42 3c
       0.10327951 -0.0029817435 0.039291278 0.01186871
0000b0 1a 43 d6 bd 62 84 69 3b 9f cf a4 3d 97 d2 a4 3c
       -0.10462017 0.0035631885 0.08047413 0.020119948
0000c0 64 40 95 bc 49 fd 91 bc fe 98 9f 3c 15 1c d3 3a
       -0.01821918 -0.017820971 0.019482132 0.0016106392
0000d0 ed e3 26 3d 36 b7 5b 3e fb c6 49 3d 2b 52 88 bb
       0.04074471 0.21456608 0.04926203 -0.004160186
0000e0 7e f5 72 3d 76 36 fd 3c 87 9c bb bc 1e 2f 0d 3e
       0.05931615 0.030909758 -0.022901786 0.13787505
0000f0 33 9f 26 3d a3 6c 8c 3a 1e fa a0 3d 05 fd 80 bc
       0.040679168 0.0010713529 0.07860206 -0.01574565
000100 5b 26 46 3d f4 01 b7 bc b9 ec 18 bd eb c2 05 bd
       0.048376422 -0.022339799 -0.03733513 -0.03265659
000110 3c 38 a8 3c 0c 9c 90 3d 82 b1 1e 3c b1 dd ae bc
       0.020534627 0.070610136 0.009685876 -0.021345945
000120 76 b7 26 bd 64 c0 32 3b 16 82 27 3d 41 ed 99 bd
       -0.040702306 0.0027275318 0.040895544 -0.07515956
000130 4e a7 f0 3c fd aa b4 3c c5 48 8e 3c 59 f3 34 bc
       0.029376652 0.02205419 0.017368684 -0.011044347
000140 b9 c1 c7 3c 54 c1 42 3c 61 60 50 bd 0e 8b 06 3c
       0.024384366 0.011886913 -0.050873164 0.008211864
000150 87 d8 1c bc d3 2f a5 3b 86 15 90 3d ca c9 05 bc
       -0.0095731085 0.0050411015 0.07035355 -0.008165786
000160 b7 4b e6 bb 0b c7 8e bc 70 e6 7d bb 4f de bd 3c
       -0.007028069 -0.017428895 -0.0038742088 0.023177294
000170 a9 f8 81 bd ee c5 06 3d 0c c9 45 3e 09 f4 1f b9
       -0.06346256 0.032903604 0.19314975 -0.00015254332
000180 31 fb bd 3b 2f 8d 02 bc b8 bc 17 3d 4b ff f9 3c
       0.0057977666 -0.007968231 0.03704521 0.030517241
000190 b2 10 15 3c 82 b1 aa bd 36 a2 9c 3c b8 03 f2 bc
       0.009098219 -0.08334638 0.019120317 -0.029542789
0001a0 8d 56 38 3c 04 8b 8b bb 46 d0 84 3c 4a fd c9 bc
       0.011251104 -0.0042585153 0.016212594 -0.02465691
0001b0 15 6c d5 3b 72 9c 0e 3d 38 35 31 bc fd 11 d7 3d
       0.0065131285 0.034817167 -0.010815911 0.10501478
0001c0 dd ef a4 3c 5d 93 63 3d 11 65 01 bd 2e f7 31 3b
       0.020133907 0.05556046 -0.031590525 0.0027155387
0001d0 34 00 f5 3b d6 43 df bc 9e 32 fa 3c 8b b9 33 3d
       0.007476831 -0.027254026 0.030541714 0.04387812
0001e0 87 ff ac bd ff ee 08 3c 03 4a f2 3c 19 8d 67 bc
       -0.084471755 0.008357762 0.029576307 -0.014132761
0001f0 55 2b bc bc d2 66 a2 bd 93 b4 ec 3c 5a e8 eb ba
       -0.022969881 -0.07929768 0.028894698 -0.0017998323

a2c_network.mu.weight f4 [18, 128]
000000 3a 28 17 3e 2d 3a d9 3b ac a7 81 3c 16 f0 89 3d
       0.14761439 0.0066292495 0.015827022 0.06735246
000010 62 1b 88 bc ab 8c 58 bd e4 8e 0e 3d f6 3c 54 3d
       -0.01661462 -0.052868526 0.03480424 0.05181595
000020 35 dd 6a bc fa da 96 bd 4f ad 53 3c 4f d1 a6 bd
       -0.014334966 -0.07365985 0.012919738 -0.08145391
000030 c7 33 b0 bc df c2 68 3d ca f4 88 3d f3 d2 28 3d
       -0.021509064 0.05682647 0.06687315 0.0412168
000040 04 88 e6 bb 8b 9e 9d 3c 1b 81 79 3b 7c ff 6f be
       -0.0070352573 0.019240638 0.0038071338 -0.23437303
000050 21 f2 af bd 34 d9 cf bd b1 f2 f7 3d 62 c3 20 bd
       -0.08591104 -0.1014885 0.121068366 -0.03924883
000060 b5 f1 ab bd 42 a6 a4 3d e0 c8 48 3b 40 fd 99 bd
       -0.08395711 0.08039524 0.003063731 -0.07519007
000070 df e8 8b ba ab 90 34 bd a3 28 65 3d b3 fe ac 3d
       -0.0010674259 -0.04408328 0.055946957 0.084470175
000080 ed c9 a6 3d d4 e6 c8 bd 43 40 5b 3c 12 41 f7 3c
       0.08143983 -0.09809652 0.01338202 0.030182395
000090 6e 59 87 3d 7c 9b 9c 3d 57 10 97 bd db f8 d1 3c
       0.06608854 0.07646844 -0.073761635 0.025631359
0000a0 c6 9d 5b 3d 2f 2c 70 bc 09 00 70 bd 95 f5 25 bd
       0.05361726 -0.014658972 -0.058593784 -0.04051741
0000b0 69 7f a1 bd 5b 7f 06 be 82 75 f1 3d 85 1a ad 3d
       -0.0788563 -0.1313452 0.11789991 0.08452324
0000c0 12 0f 5b bd 0d 46 0a bd bf ee 61 3d f1 69 a9 3e
       -0.05348117 -0.033758212 0.055159327 0.3308864
0000d0 df de 09 bd 94 71 41 bd e5 58 17 3d d2 23 0d be
       -0.033659812 -0.047227457 0.03695001 -0.13783196
0000e0 a6 f9 6e 3d 97 32 40 bd fc 44 ec 38 43 16 66 3e
       0.058343552 -0.046923246 0.00011266206 0.2246943
0000f0 a0 b4 7d 3d a5 b6 c1 3d f0 0a b2 3d 9c 3a d5 3c
       0.061939836 0.09458665 0.086934924 0.026028924
000100 ec b9 23 bc 60 1a 7d bd c8 f0 64 3e a3 55 a1 bc
       -0.009993058 -0.06179273 0.22357476 -0.019694155
000110 28 92 01 bd b9 89 59 3c 4c 99 1b bc bc 35 86 bd
       -0.031633526 0.013277465 -0.009496998 -0.06553218
000120 df 27 f4 3d 42 b2 2f 3d 6b 45 e8 3d 8d d5 37 3e
       0.11921667 0.04289461 0.113413654 0.17952557
000130 e8 de b7 bc e6 a8 54 bd 40 97 20 3d 53 b1 c6 3d
       -0.022445157 -0.051918887 0.039206743 0.09701791
000140 aa 52 c5 3d 9a f8 97 3c 19 fe e0 3d 10 75 1d bc
       0.096349075 0.01855116 0.10985965 -0.009610429
000150 80 f9 93 3d 48 ae 05 3e 3b d4 36 3e e2 72 ec 3d
       0.07225323 0.13054764 0.17854397 0.1154535
000160 d8 73 e8 bd 63 82 ca bd c3 87 5c bd af 50 a5 3c
       -0.113502204 -0.098881505 -0.05384041 0.020180074
000170 76 2b 1a 3d 73 cc d8 3c 2d e9 06 3e 1b 8f 87 bd
       0.037639104 0.026464676 0.13174887 -0.06619092
000180 e8 26 ce 3d 86 0b 01 3d a6 af 68 bd d0 cb 24 3e
       0.100660145 0.03150513 -0.056808136 0.16093373
000190 e0 6b 1f be 2b 5c b5 bd b1 61 6f bd d7 35 2c 3d
       -0.15568495 -0.0885547 -0.058442775 0.042043533
0001a0 87 52 a6 bd 16 17 2d 3c 3e 82 00 be 08 b2 10 be
       -0.081212096 0.010564586 -0.12549683 -0.14130414
0001b0 c6 7f ac 3c f1 80 57 bc 00 d3 39 be 55 2a 1f bd
       0.02105702 -0.013153301 -0.18146896 -0.03885873
0001c0 59 34 8b 3d 1d 0c 1b be c7 3c 90 bd 0e f1 8b 3d
       0.06797094 -0.1514134 -0.07042842 0.06833087
0001d0 81 13 c2 bc c5 c5 6c bd c4 a9 b3 bd 5d 18 80 3d
       -0.02369094 -0.057805795 -0.087726146 0.06254647
0001e0 f5 9e 4b 3d 20 5e fe bd e5 ac 61 3d 00 26 85 bd
       0.04971214 -0.12420297 0.055096526 -0.065013885
0001f0 5d 51 46 bd 5e ad 54 3d c0 02 42 be f5 f1 8a bc
       -0.048417438 0.05192315 -0.18946362 -0.016961077
000200 7a 01 99 bc 67 02 0a 3d 47 6f 50 3c 3f cb 28 3e
       -0.018677462 0.033693697 0.012721843 0.16483782
000210 1c 86 30 3d 18 5f 20 be 53 ba c1 bc c2 0a 7d bd
       0.043096647 -0.15661275 -0.023648417 -0.061777838
000220 6b d6 14 3e af a4 a8 3c 7a 84 9d bd e1 a5 51 bd
       0.14534919 0.02058634 -0.076912835 -0.051183585
000230 44 0e 59 3c 45 78 97 3d e6 e2 5a be ad 74 1c 3c
       0.01324803 0.073959865 -0.21375617 0.009549302
000240 58 b1 8f bb d8 9c ea 3d df bc f8 bd 18 f0 03 be
       -0.0043851547 0.11455697 -0.12145399 -0.12884557
000250 91 fa b9 bc ca 60 52 be 81 57 e5 3d da 34 58 3d
       -0.022702487 -0.20544735 0.11198331 0.05278478
000260 02 f2 d5 bd 87 f2 13 be cf 53 6e bd 5d d5 09 bd
       -0.1044655 -0.14447986 -0.058185395 -0.033650745
000270 78 69 98 bd 7a d4 ad 3b 15 11 01 bd e6 0e 77 bd
       -0.074419916 0.00530487 -0.03151043 -0.060316943
000280 aa ca 07 3d 5e f5 42 be 41 ed 7a bd 03 2d d3 3c
       0.03315226 -0.19038913 -0.06126142 0.0257783
000290 88 45 7b 3e 3b 77 17 3d 95 5e 62 3d fe 48 93 bc
       0.24538243 0.03697894 0.05526598 -0.017979141
0002a0 23 1b c3 3c 6a 80 88 3d cc c1 b5 bc 75 77 6a 3d
       0.02381665 0.06665118 -0.022187136 0.05724283
0002b0 62 92 a9 bb 4f ad 11 3e 66 1a 81 3d 57 46 a6 bd
       -0.005174921 0.14226268 0.06303863 -0.08118885
0002c0 b5 30 96 bd 2f 66 66 be 54 3c 59 3d d5 d3 67 3a
       -0.07333509 -0.22499917 0.05303605 0.0008843516
0002d0 a4 8e 3d 3e ac 27 05 be 8e 19 2e be 86 a6 00 be
       0.18511444 -0.13003415 -0.17001936 -0.12563524
0002e0 53 44 3a bb f3 58 90 3d ff a5 c1 3c ea c4 26 3d
       -0.0028422072 0.07048216 0.023638723 0.040715136
0002f0 08 2c 6d bd e9 4d 1b be 1b ce 98 bd 08 d7 2c bc
       -0.05790332 -0.15166439 -0.074611865 -0.010549314
000300 d1 a0 12 3e f2 d9 4a bd 18 58 f2 3d 72 78 5d 3c
       0.14319159 -0.049524255 0.11833209 0.013517486
000310 7b 92 5e bc cd 31 de 3c 49 81 06 be 66 36 82 bc
       -0.013584728 0.027123356 -0.13135256 -0.01589508
000320 5e fe 26 3e eb 3f 15 be c7 81 8a 3b 00 7d 98 3d
       0.16307971 -0.14575164 0.0042268964 0.07445717
000330 fc 0a 9f bd e3 04 34 bd cf a1 e3 bb 3d a1 38 bd
       -0.07765767 -0.043949973 -0.0069467793 -0.045075644
000340 05 6b 0a 3d 97 81 33 3e ea 15 25 bd 71 29 75 3e
       0.033793468 0.17529903 -0.040304102 0.2394159
000350 bd 0b 19 3c 29 91 e9 39 7f 9e ef bb b4 df 81 bc
       0.0093411775 0.00044549376 -0.0073125954 -0.01585374
000360 07 a5 a6 bc 0d e6 d8 bd d1 b0 90 3e b0 27 46 bd
       -0.020342363 -0.10590754 0.282599 -0.048377693
000370 c4 a5 15 bd 21 47 bf bc ad f5 c1 3d c6 5c 29 bd
       -0.03653504 -0.023349347 0.09470687 -0.04134824
000380 7f 76 02 3e 03 d9 ec 3d ad 0c 11 be 18 2c 82 be
       0.12740515 0.11564829 -0.14164992 -0.25424266
000390 3b 52 5c 3e 9d 93 9a bd e2 40 6c 3b 6d 0d 8c bd
       0.21515743 -0.07547686 0.0036049415 -0.06838498
0003a0 dc d8 39 bd 32 f7 5a bb 04 e1 ad bd ac 96 6e 3d
       -0.04537283 -0.00334115 -0.08490184 0.05824916
0003b0 e4 4d 9c bd 7c 6c 82 bc 7b ea 83 3c aa d6 b4 3a
       -0.07632044 -0.01592087 0.01610302 0.0013796885
0003c0 87 9c ba 3c 4a d0 35 3d 85 6a 01 3e bd 8a bc 3d
       0.022779716 0.044388093 0.1263829 0.0920615
0003d0 92 ea be 3b a4 41 9f 3c 71 c5 29 be 7b f0 9b 3d
       0.005826303 0.01944048 -0.16579224 0.076142274
0003e0 a4 66 07 3d d1 38 0a be fe 81 f5 3d ea 7d f7 bc
       0.03305687 -0.13498236 0.11987685 -0.030211408
0003f0 30 c5 70 3d e7 31 ad bc f9 49 c8 3c 52 6c d8 bd
       0.058781803 -0.02114196 0.024449335 -0.105675355

a2c_network.mu.bias f4 [18]
000000 d0 a8 f9 3c d8 1a 85 bb 4d 7e 48 3d 34 19 71 bd
       0.030476004 -0.004062038 0.048948575 -0.058861926
000010 57 51 60 3d 67 65 ec bb 8e c3 75 3e c1 dd d5 bb
       0.05476507 -0.0072142365 0.2400038 -0.0065266793
000020 d2 ca df 3d f0 04 a4 3d 4b 70 92 3c 6a 5e 54 3e
       0.10927357 0.08008754 0.017875811 0.20739141
000030 1c 3e 9f bc c2 38 c4 bd 31 cb bd 3c 08 6e 27 bd
       -0.019438796 -0.09581138 0.023168178 -0.04087642
000040 67 40 2a 3d 10 a9 eb 3c
       0.041565325 0.028767139

exp_avg f4 [18]
000000 71 00 3f ba db 9a 03 ba 73 87 89 3a 2f 4f e4 b9
       -0.00072861376 -0.00050203287 0.0010492638 -0.00043546545
000010 41 1e a9 3a fa e3 db 3a 82 11 77 b9 55 c3 a8 39
       0.0012902693 0.0016776316 -0.00023562278 0.0003218899
000020 b9 c3 83 3a 7f 61 90 3a 96 b6 3f 3a e3 d5 ab 3a
       0.0010052837 0.0011015384 0.0007313279 0.0013110008
000030 a2 e8 bb ba e7 c5 25 ba 75 9e 86 39 9b 7c be ba
       -0.0014336298 -0.000632374 0.0002567653 -0.0014532985
000040 70 eb a8 ba 0e 59 82 36
       -0.0012887549 3.8846692e-06

exp_avg_sq f4 [18]
000000 18 fb 59 38 56 15 7c 38 b0 78 77 38 6a 15 64 38
       5.197068e-05 6.0101353e-05 5.9001788e-05 5.437938e-05
000010 43 de 65 38 a3 5c 48 38 2a ef 78 38 ab 4e 57 38
       5.4804852e-05 4.776999e-05 5.9350547e-05 5.133326e-05
000020 dc fa 62 38 e8 49 7d 38 51 44 7a 38 2d 5c 6d 38
       5.411623e-05 6.038873e-05 5.966827e-05 5.659105e-05
000030 08 55 66 38 b4 52 5d 38 64 66 61 38 66 37 61 38
       5.4915465e-05 5.276753e-05 5.373954e-05 5.3695774e-05
000040 a2 f2 62 38 3a c9 57 38
       5.410857e-05 5.14474e-05
