logs/rl_games/hexapod_flat_direct/2025-11-15_08-58-23/nn/last_hexapod_flat_direct_ep_650_rew_47.31378.pth (torch, 545896 bytes, 33 tensors)

value_mean_std.running_mean f8 [1]
000000 40 55 d4 d9 ec 2b 04 40
       2.521447850983037

value_mean_std.running_var f8 [1]
000000 ed c4 10 8a 03 36 d7 3f
       0.36267174227675875

value_mean_std.count f8 []
000000 00 00 00 02 00 78 ae 41
       255590401.0

a2c_network.sigma f4 [18]
000000 68 1c 62 bf 0a 44 99 bf 36 7e a4 bf f1 bf c2 bf
       -0.88324594 -1.1973889 -1.2851017 -1.5214826
000010 34 11 9a bf 5c 3c 80 bf f6 1e 52 bf 0b 9c 3e bf
       -1.20365 -1.001842 -0.8207849 -0.7445685
000020 e3 ed 7a bf 0f 86 69 bf 9b fe 62 bf d6 b2 4b bf
       -0.98019236 -0.9122018 -0.8866975 -0.79569757
000030 70 ec 89 be 96 25 09 bf ce 02 fe be 4b f0 05 bf
       -0.269382 -0.53572977 -0.49611515 -0.5231978
000040 0f fc c1 be ce f5 be be
       -0.37887618 -0.3729691

a2c_network.actor_mlp.0.weight f4 [128, 66]
000000 7d d6 05 be fd da 7f bd 2c 28 09 3f 1a 75 3e be
       -0.13070102 -0.062464703 0.5357692 -0.18599358
000010 4b 7a 5a bd b4 7b 4b 3d ff 3f 90 3e 58 ae eb 3d
       -0.053339284 0.04967852 0.28173825 0.11507863
000020 ab 58 a5 be a5 d3 ef be 72 bc f8 bd da ea ba 3c
       -0.3229421 -0.4684116 -0.12145318 0.022817064
000030 ca c6 30 3e af e2 ed bd 70 5e 66 be eb 1f 9d be
       0.17263332 -0.11615502 -0.22496963 -0.30688414
000040 c0 59 8a 3e 32 75 05 be 33 80 13 3d 80 f7 ee bd
       0.270216 -0.13032988 0.036010932 -0.11668301
000050 cb 28 66 3d be 78 b1 bc cc 76 2d be 29 b4 12 3d
       0.056191247 -0.02166402 -0.16939849 0.035816345
000060 ad 03 cb bc d4 5f bc 3c 0c 17 d0 3d ed b6 85 3c
       -0.024782026 0.022994913 0.10160646 0.016322577
000070 5b fb 9b 3c b6 89 5c be 67 66 ad 3d b3 da ba bb
       0.019040754 -0.21536908 0.08466797 -0.0057023405
000080 cb 41 c6 3c a6 b6 d3 bc e6 bf 36 bd 87 ef cb 3d
       0.024201294 -0.02584393 -0.044616602 0.099577956
000090 90 f3 56 bd d6 7c 32 be e1 be 46 3d 4c 89 84 bd
       -0.052478373 -0.17430434 0.04852188 -0.064715
0000a0 bd 2a 35 bd 16 c5 ca 3c 06 5d 4b bd 28 67 f8 3c
       -0.04423021 0.024752181 -0.04964926 0.030322626
0000b0 35 0d 87 3d 68 07 75 3d 2d fd f4 3c 97 ef b2 bc
       0.06594316 0.059821516 0.02990588 -0.021842761
0000c0 df 89 91 bd 3a 81 ca bd 60 95 f2 bc 4e 05 9e bd
       -0.07106375 -0.09887929 -0.029612243 -0.077158555
0000d0 fa a8 15 bd 9b 92 70 bd 61 fa c2 bd 10 33 1e be
       -0.0365381 -0.058733564 -0.09520412 -0.15449166
0000e0 1c 4c 46 bd 40 7d 8e bd f7 e4 2f be d2 53 c3 3c
       -0.048412427 -0.06957483 -0.17177187 0.02384368
0000f0 3e fb 54 bb c3 75 51 3c 0e 34 20 3e 4b c5 9d 3d
       -0.0032498385 0.012784424 0.15644857 0.07703646
000100 59 b7 6a 3d bf 02 f9 3c 9b 57 57 3e df 12 e8 be
       0.05730376 0.030396817 0.21029513 -0.45326898
000110 94 6f a7 bd 6c 4f f5 bd 01 57 aa be 30 fc 04 bb
       -0.08175579 -0.11978039 -0.33269504 -0.0020291917
000120 bf e7 0b bf 0a ef b0 3e 23 5b 4c 3e 34 41 8d be
       -0.5465049 0.34557372 0.19956641 -0.2758881
000130 bf 1e 04 3f b1 18 11 bf 3a ad 2b be 65 51 ec 3e
       0.51609415 -0.566783 -0.167653 0.4615585
000140 75 1c 03 be 28 ff 2c 3f 67 6f 27 3e 16 17 01 be
       -0.12803824 0.6757684 0.1635109 -0.12606463
000150 40 2c 93 3c 82 b8 b5 bd 78 a7 62 bd f7 69 d0 bd
       0.017965436 -0.08873083 -0.055335492 -0.10176461
000160 2f 84 8f 3e dc 5a 39 bc 6e de 32 3e 16 9b 8a 3d
       0.28030536 -0.0113131665 0.17467663 0.067678615
000170 a6 62 b5 3c cf f2 2f bd a1 d6 64 bc 00 85 da 3d
       0.022141766 -0.04295617 -0.013967187 0.10669899
000180 42 cd 1a bd 0e bd d3 bd bf 83 b6 3d 36 51 ff 3c
       -0.037793405 -0.10338794 0.08911847 0.031166654
000190 d9 48 89 bd a6 2f 9e 3d cb c2 54 3d 41 29 18 bc
       -0.06703348 0.07723932 0.05194358 -0.009287179
0001a0 62 07 8b 3d e3 da ed 3c 0d 42 29 bd a6 57 e4 3c
       0.067885175 0.029035037 -0.041322757 0.027873825
0001b0 92 66 62 bb 19 0a 10 bc 84 0c ed bc 08 b4 55 3d
       -0.0034546 -0.00879147 -0.028936632 0.052173644
0001c0 a4 36 73 3b 4d cc 15 bd b0 7b 1f 3c 65 24 aa 3d
       0.0037111426 -0.03657179 0.009734079 0.08307723
0001d0 cf 30 ac 3c a1 cb 55 3c 23 82 10 3d 99 46 ea 3b
       0.021019368 0.013049037 0.035280358 0.007149529
0001e0 fa 57 b5 3b 0c 24 e0 bd 02 30 99 3d af 01 dd 3d
       0.0055341693 -0.109443754 0.0747986 0.10791337
0001f0 44 09 05 be 3a d4 c7 3c 80 5a 73 3d da 37 06 3e
       -0.12991816 0.02439319 0.05941248 0.13107243
000200 5f c6 09 3c e1 7c 04 3d 65 d4 94 bd 1d 3e 9f 3d
       0.008409112 0.032345656 -0.072670735 0.07775519
000210 42 70 74 be 31 6e 02 bf 26 d1 da 3e 84 cb 94 be
       -0.23870948 -0.5094939 0.42737693 -0.2906152
000220 e2 88 12 3f 85 90 cb 3d 70 97 1c 3f 60 db bc 3c
       0.57240117 0.09939674 0.61168575 0.023053825
000230 8d 7c ad 3d 6d f7 38 bf 42 6e c5 be f8 65 33 3e
       0.08471022 -0.7225254 -0.38560683 0.17519367
000240 c5 ce 2b 3e 0f 2e e7 3e 97 8c 36 3e 58 c6 83 bc
       0.16778095 0.45152327 0.17827068 -0.016085789
000250 a7 b1 46 bf a0 e5 bc 3c 44 ec 85 bd 5e 97 35 be
       -0.77614826 0.023058712 -0.06539205 -0.17733523
000260 33 1f b7 ba f9 78 26 be 74 87 31 be 65 81 90 be
       -0.001397109 -0.16257085 -0.17336828 -0.2822372
000270 06 a3 9f bc b7 97 67 be 3c a9 9b bd 46 0b bd 3c
       -0.019486915 -0.22616468 -0.07600638 0.023076665
000280 a5 a4 89 bc 51 cf 5d 3e 93 b0 c3 bd d6 01 0e bd
       -0.016802141 0.21661116 -0.09555163 -0.03466972
000290 6b 07 bd bd 17 bb ce 3d 32 f3 25 bd 9e a2 90 b8
       -0.092299305 0.10094278 -0.040515132 -6.896745e-05
0002a0 83 b3 91 3d b0 25 04 3d b5 a3 04 bd f3 ba 2c bc
       0.07114317 0.032262504 -0.032382686 -0.010542619
0002b0 41 50 7b bd ef f5 15 be 25 96 84 bd 3f d0 f7 bd
       -0.061355833 -0.14644597 -0.0647395 -0.12100267
0002c0 95 9a 6c 3d 1c fb 2f bc 98 77 26 3c 7d af 2e 3c
       0.05776461 -0.0107410215 0.010160349 0.010661957
0002d0 22 41 87 bd 10 e6 7c 3e a5 01 2a 3c c2 b7 f0 3c
       -0.0660422 0.24697137 0.010376369 0.029384498
0002e0 d4 7e a1 be d0 80 b3 bd ba c8 38 bd fc 84 d9 bd
       -0.31542075 -0.087648034 -0.045113303 -0.10621068
0002f0 38 1f 97 3d 34 ea 83 bd 0c 4f ae 3d 58 fe 11 bf
       0.073790014 -0.06441155 0.08511171 -0.5702872
000300 82 49 61 bd a5 3a 23 bd 77 3d cd 3d dc c7 41 3d
       -0.055001743 -0.03985085 0.10021489 0.04730974
000310 b5 02 28 bd e2 09 9d 3b 35 5a 86 3f 0b d3 a1 be
       -0.041018207 0.004792438 1.0496279 -0.31606326
000320 0c 05 45 3f 15 40 16 be 7c f5 94 be 76 4d a4 be
       0.76960826 -0.14672883 -0.2909354 -0.32090348
000330 4f 0e 09 bf e4 32 d9 3f fa dd 3e bd 80 61 3a 3f
       -0.5353746 1.6968656 -0.046598412 0.72805023
000340 c6 7b 1b 3f 0d 13 40 be c6 1e 22 bf f8 cc fa 3e
       0.6073574 -0.18757267 -0.63328207 0.48984504
000350 5a 2f a6 be 0d d6 1c 3e 2f d4 f3 be 0c fb 50 3f
       -0.32458 0.15316029 -0.4762282 0.8163307
000360 33 ae 4c 3e 16 a4 a3 bc 24 c5 b5 be 1a 09 dc 3d
       0.19988327 -0.019975703 -0.3550197 0.107439235
000370 a2 15 04 bd 06 df 92 3d 0f b8 24 be 72 17 70 3d
       -0.032247193 0.071714446 -0.16085838 0.05861611
000380 68 19 47 3d 92 43 3b bf 24 66 fa bc d3 4f 45 be
       0.048608214 -0.7314998 -0.030566283 -0.19268732
000390 3c d8 30 3c 80 51 52 bd 72 ee 50 3c 12 3a 8e bd
       0.010793742 -0.051347256 0.012752162 -0.0694467
0003a0 a9 8e 7a bd 06 e8 bc bd 39 0d 00 3e d7 37 54 3e
       -0.061171208 -0.092239425 0.12505044 0.20724426
0003b0 d5 01 0e bb 95 7a ce 3b 94 d6 4e bd 83 d5 33 3d
       -0.0021668572 0.006301234 -0.050497606 0.043904793
0003c0 70 88 ca bc 56 d0 16 bd 28 ce d4 3b 90 0d 9b 3c
       -0.024723262 -0.03681978 0.0064943023 0.018927366
0003d0 d6 7b 70 3d 4e 07 08 3d 9f 80 03 be 35 24 49 3e
       0.05871185 0.03321009 -0.12842034 0.19642718
0003e0 14 79 29 3e f9 c7 be bd b7 2f 80 bc 7b 1a 96 3e
       0.16550094 -0.093154855 -0.015647752 0.29317078
0003f0 f8 62 d7 3c 02 33 84 3d ca fe 50 be 48 f5 ab bc
       0.02629231 0.064550415 -0.20409694 -0.020990983

a2c_network.actor_mlp.0.bias f4 [128]
000000 2d 7f 4d 3e 2e 84 1b be 7a e7 23 be 8f 64 fc 3d
       0.20068045 -0.15187141 -0.1600627 0.123238675
000010 a1 46 96 bd c3 f4 53 3e f2 74 22 be 3d dd a7 bd
       -0.0733769 0.20698838 -0.15864924 -0.08196495
000020 d8 fe 6f 3e dd 27 f5 bd 5e ee 3c bd a7 54 51 bd
       0.23437059 -0.11970494 -0.046125762 -0.05110612
000030 b7 51 9f 3d 06 b0 1c 3e 33 ed 35 be 58 2a fa 3a
       0.07779258 0.15301523 -0.17766266 0.0019086106
000040 c3 14 51 3e 46 39 16 3e 11 84 f2 3c 85 a3 51 bd
       0.20418076 0.14670286 0.02960399 -0.051181335
000050 a4 8d 4f be cb bc cc bc 5f 84 4b bd dd 83 f2 3d
       -0.20268875 -0.024992367 -0.049686786 0.11841557
000060 8f 61 2e be 4c 19 0a 3e 69 f9 68 3d 14 76 fe 3d
       -0.17029403 0.13486212 0.05687848 0.12424865
000070 44 63 9a 3b cb 84 67 3d 7f 48 0c 3e e8 c4 0f bd
       0.0047115404 0.056523126 0.1369953 -0.035099894
000080 cf 7e 39 3e 64 1f 06 bd cd 8f 71 3d 1b a8 27 3d
       0.1811478 -0.03274478 0.05897503 0.040931802
000090 b3 35 99 bc ea d2 c1 3c df a4 02 3d 8d c0 2c be
       -0.018702364 0.023660142 0.031895515 -0.16870327
0000a0 a1 8e b7 bd a1 2b 22 3e 4b 2f 8c 3d b7 a0 00 3e
       -0.08962751 0.15836956 0.06844958 0.12561308
0000b0 a7 d3 e1 3b 5b ae 3b 3d 3a 69 e0 bc b7 16 e7 3d
       0.006891686 0.045820575 -0.027393926 0.112836294
0000c0 d0 b2 de bd c9 8e 76 3d f4 70 98 bd 36 92 f4 3d
       -0.108739495 0.060194764 -0.07443419 0.1194195
0000d0 9a 2b bd 3c 91 38 87 bd ad ee cc bc e3 eb de bd
       0.02309208 -0.06602586 -0.025016153 -0.108848356
0000e0 3d 2b b5 bc 49 09 3b 3e 5b b4 7c 3d 4d ae f8 bd
       -0.022115344 0.18265261 0.061695438 -0.1214262
0000f0 6a 47 c8 3d 68 b0 a4 bd f5 96 79 be 7f 17 47 bd
       0.09779246 -0.08041459 -0.24373992 -0.048606392
000100 f5 a2 13 3d c1 a6 ee bd ea 9a f6 bd 20 42 ef 3d
       0.03604408 -0.116528995 -0.12041266 0.11682534
000110 72 b0 4c bd 4d 4f 88 3e 87 76 b2 3c 47 eb bd bc
       -0.04997296 0.26623002 0.021785034 -0.023183478
000120 22 dc 92 3e 27 e0 cb bd 7b 3d d4 3d 09 76 28 3d
       0.28683573 -0.09954863 0.10363289 0.041128192
000130 49 00 f3 bc 48 e7 17 be 85 a6 93 bc 9a 07 7a 3d
       -0.029663222 -0.1483432 -0.018023739 0.061042406
000140 ca 69 75 be 02 6a 0b be 40 83 83 3e ef 87 30 3e
       -0.23966137 -0.13614658 0.25686073 0.17239355
000150 bb d9 6a be 0c 03 8f bc 07 a6 fd bd 27 a3 6a be
       -0.2293462 -0.017457508 -0.12385183 -0.229138
000160 d2 3c a0 3d 72 66 7a bc 0b 64 85 3e 41 a8 60 bd
       0.078241006 -0.015283214 0.2605289 -0.05484796
000170 f0 ce 1c 3d a8 bf 08 be bc b9 0e 3e 62 8b a1 bd
       0.03828329 -0.13354361 0.1393804 -0.07887913
000180 6b 44 08 bd b1 4d 3d bd 21 4e 8e bb 2c 6f e7 bc
       -0.033268373 -0.04621667 -0.00434281 -0.028251253
000190 a2 27 52 bd 02 ec 9d bd 10 4e 9c bd e4 8f 26 be
       -0.051307328 -0.077110305 -0.07632077 -0.16265827
0001a0 62 b7 5b bc 0c a7 25 3e 8f 8c cf 3d 9a d7 66 be
       -0.013410421 0.16177005 0.10134231 -0.22543183
0001b0 71 36 e2 3c a5 cd 72 3e 9c 00 97 bd 79 ee b2 3d
       0.02761385 0.2371126 -0.07373163 0.08736891
0001c0 cc 9d f8 bd df 7c 16 be c6 1d 8c 3d 9d 8c 69 bd
       -0.12139472 -0.14696072 0.06841616 -0.057018865
0001d0 88 49 e7 bd 45 6b 0e bd 27 e7 84 3d 45 95 04 be
       -0.11293322 -0.03477027 0.06489401 -0.12947567
0001e0 a9 93 00 be 5a dc b3 bd f7 de 3b be 3e 27 0d 3e
       -0.12556328 -0.08782263 -0.18346773 0.13784501
0001f0 bc 6a 7e 3d d1 f1 ca bd 63 ac 62 bd 73 6f 9f bd
       0.06211351 -0.09909404 -0.055340182 -0.07784929

a2c_network.actor_mlp.2.weight f4 [128, 128]
000000 94 5e 8a bc 5c 67 6f 3e 3c 0b 24 be 08 c8 0d 3c
       -0.016890801 0.23379272 -0.1601991 0.008653648
000010 2a 2d 75 bd 9f 30 46 be 2e a8 25 3c 6c f6 df bd
       -0.059857525 -0.19354485 0.010110898 -0.10935673
000020 61 c1 a7 bd ad af 38 be 6f 7e 15 be 11 ea 6b be
       -0.08191181 -0.18035765 -0.14599012 -0.23038508
000030 9c 81 b3 bd 32 0a 36 3d 2c a8 18 be 01 4c 14 be
       -0.087649554 0.044443317 -0.14907902 -0.14482118
000040 00 f2 9c bd d6 cf 2d be 66 ab 2e 3e 1f 36 bb be
       -0.07663345 -0.16973814 0.17057571 -0.3656473
000050 d9 b1 2b 3e b7 2a cc bd 2b bf bf 3d f1 44 37 bd
       0.16767062 -0.09969085 0.09362634 -0.044743482
000060 09 3f 5b 3e fd 6a 05 be d5 77 98 bd 59 07 5a 3c
       0.21410765 -0.13029094 -0.07444731 0.013307416
000070 50 6e 62 3e e5 51 16 be ac 3b bc bd 56 7a 57 bd
       0.22112393 -0.14679678 -0.09191069 -0.052606903
000080 2f 48 5e be c5 82 ca bd 5b fa 42 bd 6e 1f 06 bd
       -0.21707223 -0.098882236 -0.04760204 -0.032744817
000090 b7 7a e1 bd 38 c7 02 3e 07 05 a8 ba 9d fd 25 bd
       -0.11009734 0.12771308 -0.0012818881 -0.040525068
0000a0 7c ae 98 bc 45 28 91 3b 7a 2d 1e bc 59 55 3b be
       -0.018637888 0.0044298493 -0.009654397 -0.18294276
0000b0 fa 92 01 be 83 33 6e 39 1f 16 cc bc b8 e1 99 3d
       -0.12653723 0.00022716638 -0.024912892 0.075137556
0000c0 c2 cd 19 bd 0e 41 8f 3c 5e f4 50 be 79 35 9f bd
       -0.03754974 0.017487075 -0.20405719 -0.07773871
0000d0 c8 8f 6d 3e 6d fb 2e 3d 13 80 bc 3b b4 af 6a 3e
       0.2319938 0.042720247 0.0057525723 0.22918588
0000e0 2b 75 21 3c 97 d5 d1 3b 6f a8 06 bd 1d 3c 3b bd
       0.009854595 0.0064036357 -0.032875475 -0.045711625
0000f0 cc 40 ce bd 6f 69 57 bd fa cc 06 bd 13 29 2b be
       -0.10070953 -0.052590784 -0.032910325 -0.16714887
000100 92 de 06 be 03 8a 86 3e 71 d3 14 bd 07 76 18 bd
       -0.13170841 0.2627717 -0.03633446 -0.037221935
000110 ad 05 86 3e 42 a1 9f 3b e5 8b 86 3d 3d 78 6a 3e
       0.26176205 0.0048715184 0.065696515 0.2289743
000120 bb 23 da bc 49 1f 51 3e 15 97 85 be 88 c8 ce 3c
       -0.026628366 0.2042209 -0.2609183 0.025242105
000130 69 15 c0 3b fe 28 0f 3e c4 3a 13 be f0 97 72 be
       0.0058619273 0.13980481 -0.14377886 -0.23690772
000140 cc 7c ff 3d 36 e4 e3 bd fc c6 10 bd a8 a8 51 3d
       0.12474975 -0.11127512 -0.035346016 0.051186234
000150 41 6a 8a 3c 36 97 3a be 0d 30 55 be cd 0a ae bd
       0.016896369 -0.18221745 -0.20819111 -0.08498154
000160 4a bb 4c be 07 98 67 bd 69 ce bd bd 28 36 88 bd
       -0.1999332 -0.05654147 -0.09267885 -0.066509545
000170 98 47 8d be 4a b6 20 3d d6 20 39 bd 0a 68 8b 3e
       -0.27593684 0.039236344 -0.04519733 0.27227813
000180 09 45 37 bd 54 69 88 3d 83 86 06 bd 2a 29 af 3d
       -0.04474357 0.06660715 -0.032843124 0.08552773
000190 b2 31 25 3e a2 1d 6e be d9 1f 0d be c4 72 a9 3d
       0.16132239 -0.23253492 -0.1378168 0.08273843
0001a0 13 7f bb 3e 9d 71 40 bd d8 f6 8f bd eb 70 2f 3e
       0.36620387 -0.04698335 -0.070295036 0.17132919
0001b0 d9 9d 6b bc 42 6b 0b be 2b 31 ca 3d d6 cc 1a 3d
       -0.0143808955 -0.13615134 0.09872659 0.037793003
0001c0 79 c0 d6 3d 85 33 82 bc 77 e1 e2 bd 3a cf 3e 3e
       0.1048593 -0.015893707 -0.1107816 0.18633738
0001d0 46 7e ac 3d ea 3c e1 3d be b7 d2 bc 20 4d 13 3e
       0.08422522 0.109979466 -0.02572238 0.1438489
0001e0 46 8f 3d bd 65 79 81 bd e5 4c 76 3e c6 14 97 be
       -0.046279214 -0.06321982 0.2405277 -0.29508036
0001f0 65 af c0 3d 73 a3 1a 3d 33 af 3d 3c 8a a1 16 3b
       0.09408454 0.037753534 0.011577415 0.0022984468
000200 34 37 39 3c 99 6b b2 bd cc 96 cc bc 1a f5 cf be
       0.011304665 -0.08711929 -0.02497425 -0.40616685
000210 cc 2a 63 3e 6e 35 02 bc 72 35 68 be 42 4f 46 be
       0.22184294 -0.007947309 -0.22676638 -0.19366172
000220 9b 29 0d be 4f 7a 84 3d 76 b3 c9 3a e0 b7 65 bd
       -0.13785402 0.06468641 0.0015388567 -0.05608356
000230 22 8b de bd 4b 55 d9 3b 0d 6c b6 bc 03 ed 17 be
       -0.10866381 0.006632482 -0.02226832 -0.14836507
000240 18 0a ba bc 54 ec 5e 3d fd de 82 be 92 9b d3 3d
       -0.022709891 0.0544246 -0.25560752 0.10332407
000250 80 d4 bb 3d 23 b4 b8 3d ac d4 f9 3d 98 05 8e bd
       0.091713905 0.09018733 0.12198767 -0.06934661
000260 b5 64 6e 3c b6 9b c3 3c 4c 6a 3b bd 86 ea fb 3d
       0.014550378 0.02387796 -0.04575567 0.12300591
000270 07 ed 59 be e2 a1 e0 3d f7 e6 17 be 9d 59 77 bd
       -0.21281825 0.10968377 -0.148342 -0.060388196
000280 e2 25 65 3d ae 79 8d be ee 60 98 3d a6 d9 64 3d
       0.05594433 -0.27631897 0.07440363 0.05587163
000290 22 de 29 be 14 fa 9a be db a9 04 be 6e 8a 72 3e
       -0.16588643 -0.3026892 -0.1295542 0.23685619
0002a0 f0 bb 28 be ea dd 27 bd 2a d2 36 3d 5c 64 a4 bd
       -0.16477942 -0.040983118 0.04463402 -0.080269545
0002b0 83 2e 51 bd cf 43 19 be 4c c3 b9 bc 64 89 6b 3a
       -0.051069748 -0.14967273 -0.022676133 0.00089850114
0002c0 05 c8 67 be de f7 6d be 64 fc c8 3d 66 c6 a7 bd
       -0.22634895 -0.23239085 0.09813765 -0.081921384
0002d0 b3 aa 3b be 62 a8 a2 3e 27 e7 8d be cd 90 58 bd
       -0.18326835 0.3176909 -0.27715418 -0.052872468
0002e0 e4 f5 55 be e2 e1 91 bc 8c 6f 30 bd 11 71 b6 be
       -0.20894581 -0.017807905 -0.04307513 -0.35633138
0002f0 74 47 08 be 03 e7 78 3e 34 a3 91 bd 0f aa a3 3d
       -0.13308507 0.24306874 -0.07111207 0.079914205
000300 f5 e8 c8 bd 74 b2 3b be 48 e4 f0 3d 4d 2f 81 bc
       -0.09810058 -0.18329793 0.11762291 -0.015769625
000310 47 f6 f6 bd a8 63 39 be 54 42 cc bd 8f c5 21 be
       -0.120586924 -0.18104422 -0.099735886 -0.15798019
000320 aa 84 8f 3d ae 04 98 bd d9 3c 39 bc 2e bd da 3d
       0.070077255 -0.074227676 -0.011306011 0.106806144
000330 f4 4b 47 be 9d 72 9e b9 fa a8 80 3e b8 be f2 bb
       -0.19462568 -0.00030221502 0.2512892 -0.0074079894
000340 1f 1b 19 3e c9 6d 9a be e2 e7 3b 3d 6a ce 39 bd
       0.14951752 -0.30161884 0.045875438 -0.045362867
000350 7e 08 2e bd 3a 12 e3 bd d3 7b b7 bd ad 9b 2c be
       -0.042488568 -0.11087461 -0.089591645 -0.1685626
000360 87 1a 26 bc 79 e7 7b be d6 da cc bd af df 2a 3c
       -0.010138161 -0.24600019 -0.10002677 0.010429307
000370 54 d6 b1 bd 3f 61 94 3e bf f3 fd bc 3e 04 ad 3e
       -0.08683458 0.28980443 -0.031000016 0.337923
000380 80 36 31 be 6e f8 9e be 4f 7e d1 3d 16 2c d2 3c
       -0.17305946 -0.31048912 0.102291696 0.025655787
000390 33 26 01 be 6c 99 93 3c 44 da aa 3d eb e8 2d bd
       -0.12612228 0.018017493 0.08342412 -0.042458456
0003a0 11 08 06 3c ab 3d 52 be 72 7a 97 be 1b 21 aa 3c
       0.008180634 -0.20531337 -0.29585606 0.020767739
0003b0 4a 23 a3 bc 56 18 1c 3e 18 11 8c 3d 11 26 06 bd
       -0.019914288 0.15243658 0.06839198 -0.032751147
0003c0 b6 46 b3 3e 56 e6 de 3d 18 a3 fc 3a 20 af 4c 3e
       0.35014886 0.10883777 0.001927468 0.1998868
0003d0 19 8a 91 be 68 63 08 3e a5 df 86 3d b2 8a c9 3d
       -0.28425673 0.1331917 0.065856256 0.09840907
0003e0 29 f3 a9 bd e9 06 15 be 0d 79 a2 bd 18 33 2c be
       -0.08298332 -0.14553417 -0.07933245 -0.16816366
0003f0 70 c6 dd bd a0 35 48 3e 4d 75 64 bc df 1d 02 3d
       -0.108288646 0.19551706 -0.013943982 0.03176677

a2c_network.actor_mlp.2.bias f4 [128]
000000 75 1f 09 be 0a 7b 3f bd 4d 5d 8c bd 6a cf 2f be
       -0.13390906 -0.0467482 -0.06853733 -0.17168966
000010 e8 8f fe bd 7f 15 e5 bd 36 56 1c be 7f 1f 3a be
       -0.12429792 -0.11185741 -0.15267262 -0.18176077
000020 4c d2 1f 3e b7 5b dd bd 29 a7 f2 3d 18 fc a6 bc
       0.15607566 -0.10808509 0.118482895 -0.02038388
000030 5b ef 2f be 47 5d 0d be d5 bd f4 bd d3 21 a0 bd
       -0.1718115 -0.13805114 -0.1195027 -0.078189515
000040 78 87 58 be 36 e0 0c 3e 26 e6 a2 bd 91 20 ee bd
       -0.21145427 0.13757405 -0.079540536 -0.11627305
000050 34 5b a1 bd ae a0 0c be a3 14 95 3b 1a 19 af bd
       -0.07878724 -0.1373317 0.004549579 -0.085497096
000060 d0 8a 8e 3d c5 ef b3 bd e6 63 10 3d 69 b2 46 be
       0.0696007 -0.08785967 0.03525152 -0.19403996
000070 89 db 1e be e1 30 f6 bd 95 c7 d7 bd 0f d7 c6 bd
       -0.15513434 -0.12021042 -0.10536114 -0.09708988
000080 91 1d bb bd 56 cf cd 3d d2 cc 95 3c 58 30 0a bd
       -0.09136499 0.10049312 0.018286142 -0.03373751
000090 33 8c 01 be 1e c0 d3 bd 28 3d 3b 3d df a3 35 bd
       -0.12651138 -0.10339378 0.04571262 -0.044345733
0000a0 54 c8 cf bb 4e c5 eb bd 55 1c 73 bd cd 29 9c be
       -0.0063410196 -0.11512242 -0.05935319 -0.3050064
0000b0 e8 d9 59 3e 63 ce ba 3d 7d f9 a4 3d a7 41 8a 3e
       0.21274531 0.091213964 0.080553986 0.27003214
0000c0 46 9c 51 be 3d d0 1a be 83 1b 7e be 5b ff 91 bd
       -0.2046977 -0.15118499 -0.24815182 -0.07128783
0000d0 b2 93 bf 3a a5 dc 6b be 24 dd e3 3d 82 1a de bd
       0.001461616 -0.23033388 0.111261636 -0.108449
0000e0 6f 6b 32 be 0b 0b 41 be 92 ff 30 3c 2e 03 51 bd
       -0.17423795 -0.18851869 0.01080312 -0.051028423
0000f0 0e 30 42 be 7d 47 13 bd 2e a1 1b bd 07 dd 0f 3e
       -0.18963644 -0.03595685 -0.03799551 0.14049159
000100 a8 4a e3 3c c5 a6 b6 bd a4 f5 50 3d 4b b7 84 bd
       0.02774556 -0.089185275 0.05101551 -0.06480273
000110 a2 db 1f bd 4c dc 9d bd 7f 38 19 be 2d 90 b7 bd
       -0.039027818 -0.07708034 -0.14962958 -0.08963046
000120 63 d7 91 bc 86 0c 18 3d b0 b8 16 be a5 bf 37 3d
       -0.0178029 0.03712132 -0.1471889 0.0448605
000130 1e 9c 74 bd 2b ce ee 3c 5d c6 44 bd 40 1f 05 be
       -0.059719197 0.029151043 -0.048040736 -0.13000202
000140 1b 34 ad bd a8 67 5e be 73 d6 8a be 8a e0 e3 bc
       -0.08457204 -0.21719229 -0.27116737 -0.02781703
000150 b5 97 c6 bd 5d 31 6a be 49 5d a7 bd ec f8 a6 bd
       -0.096969046 -0.22870393 -0.081720896 -0.08152947
000160 2d 5f 2a 3e 74 94 54 bc 36 b9 29 be 25 53 49 3d
       0.16637869 -0.012974847 -0.16574559 0.04915156
000170 02 2f 23 3c 9e 21 56 bd 35 e9 94 be 5c 31 48 3e
       0.009959938 -0.052278154 -0.29084173 0.19550079
000180 be 58 1d 3e ae 34 a6 3d 05 83 06 be 90 f4 ca 3d
       0.15365884 0.081155166 -0.13135917 0.09909928
000190 cf b5 ad bd d0 28 ac 3d 21 40 d0 bd ac 7e 22 3d
       -0.08481943 0.08406222 -0.101684816 0.039671585
0001a0 d2 78 95 3c b1 d7 41 3e 6f 87 83 be 65 3c 2a be
       0.018246088 0.18929936 -0.25689265 -0.16624601
0001b0 8b 7f 66 bd 3d 14 20 bc ad 3a eb 3c 9f 58 e0 3d
       -0.05627398 -0.00977045 0.028714502 0.10954403
0001c0 37 f7 3e be 09 27 50 3b f4 af 9d be a9 65 82 bd
       -0.18648992 0.0031761548 -0.30798304 -0.063670464
0001d0 69 ce e2 3c 8b 61 6f 3e 12 ec 66 bd de e0 e0 bc
       0.027686315 0.23377053 -0.056377478 -0.027450975
0001e0 88 27 da 3d 5e 94 df 3d 70 c5 26 be ee a9 55 3e
       0.10652071 0.10916971 -0.16286254 0.20865604
0001f0 5f 31 cd bd 3e 85 7a be 10 f0 a4 3d ae 62 87 3d
       -0.100191824 -0.2446489 0.08053601 0.066106185

a2c_network.actor_mlp.4.weight f4 [128, 128]
000000 ca f8 ad 3d 85 44 1b bd c9 90 a2 bd 17 1d c3 3c
       0.084947184 -0.037907142 -0.07937772 0.023817582
000010 44 26 5b 3d 8c 98 c4 bd 44 61 ef bd 84 7f ad 3d
       0.05350329 -0.095994085 -0.11688474 0.08471587
000020 9e 00 f9 bc 1a 86 be bd c3 86 25 bc ea d8 03 be
       -0.030395802 -0.093029216 -0.0101029305 -0.12875715
000030 1f 41 cc 3c 6e 14 5d bc f7 78 c8 bd c2 2e 1a be
       0.024933396 -0.01349364 -0.09788697 -0.15056899
000040 19 04 9d 3b a7 ca 66 38 0e 9e 02 bd 9b e2 21 be
       0.0047917482 5.5025008e-05 -0.031889014 -0.158091
000050 63 a0 a7 3d cd cc 2a 3d 76 f7 55 bd b1 b7 27 ba
       0.08184888 0.04169922 -0.05223795 -0.00063979166
000060 a7 8d 41 be f3 95 4e bd 8a d0 0c 3e 57 cf 67 be
       -0.18901692 -0.05043597 0.13751426 -0.22637688
000070 1b 0e 19 3c 30 ac f2 bd 4e af 51 3c bb e8 58 3c
       0.009341742 -0.118492484 0.012798144 0.013239081
000080 2f bd 91 3d 47 0b a4 bd 4b 91 7d bd 2e 58 27 3d
       0.07116162 -0.080099635 -0.06190614 0.04085558
000090 19 98 2c bd 5a 46 9f 3c 62 56 5c 3d 8b 55 09 be
       -0.04213724 0.019442726 0.05379332 -0.13411538
0000a0 db 63 8e bd bb 64 57 bd d2 ca ec bd 11 f3 aa bd
       -0.0695264 -0.0525863 -0.115621224 -0.083471425
0000b0 dd d3 0d 3e 56 76 69 bd 91 a2 0c be 2f 8a 0c 3e
       0.1385035 -0.05699762 -0.13733889 0.13724588
0000c0 7e ef ed 3d 34 1f a0 bd dd ee bc bd 79 7b 70 bd
       0.11617945 -0.078184515 -0.09225247 -0.058711503
0000d0 18 1b 02 ba f4 4d 3d 3d ae a8 f3 bd 86 69 e8 3d
       -0.0004963144 0.04621692 -0.118974075 0.11348252
0000e0 1e 98 16 be 8c ed a3 3d 90 bd 98 bd 5d a6 58 3c
       -0.14706466 0.08004293 -0.07458031 0.013223258
0000f0 c7 d1 0c bc 1a 9d 69 3d 31 e8 96 3d ea 5c 7f 3d
       -0.008594937 0.05703459 0.07368506 0.06234447
000100 9b 89 12 bd d9 da 59 3e 7c 58 fd bd 6c 3f b8 bd
       -0.035775762 0.2127489 -0.12370393 -0.08996472
000110 26 80 d0 3d 4f 18 45 3d 7b 44 22 3e 3a 6f e1 3d
       0.101806924 0.048118886 0.15846436 0.11007543
000120 7d eb 2c 3c 66 34 e4 3c 06 1a ab 3d 63 fb bb bd
       0.010554192 0.027857017 0.08354573 -0.091788076
000130 d7 e4 5b bc 6f d5 4a 3e b0 b6 dc 3a f4 3f 1a 3d
       -0.013421259 0.19807981 0.0016839113 0.037658647
000140 da 2e 2c 3c c8 5b c7 bd 02 47 e0 3c 34 e4 c2 3d
       0.010509217 -0.09734303 0.02737761 0.095161825
000150 de 20 86 3d 54 17 19 bd d4 ee 18 be 7c 64 8d bc
       0.06549238 -0.037375763 -0.14934856 -0.017259829
000160 3c 9f b6 bc d4 10 d2 bd 59 c5 7a 3d d2 b9 1c bd
       -0.022292726 -0.10257116 0.06122336 -0.03826315
000170 5d 1e ce 3d c6 79 b2 bc f0 12 66 bc 31 fd e7 3c
       0.10064385 -0.021786582 -0.014042601 0.028318973
000180 5b 89 2d 3d 22 e1 3d be 94 51 44 bd 0d 50 2e bc
       0.04236732 -0.18542913 -0.04792936 -0.010639203
000190 f4 e9 9d bd 74 9f a8 3d 74 54 cc bd b8 db 11 be
       -0.07710639 0.08233538 -0.09977046 -0.14243972
0001a0 fa 0f 6d 3d b5 cf 3e 3c 46 73 57 be 6d 44 2f be
       0.057876565 0.011646201 -0.21040067 -0.17115946
0001b0 dd ec 80 3d 48 11 5b be 68 e6 6b bc 48 d4 3e be
       0.06295178 -0.21393311 -0.014398195 -0.18635666
0001c0 9b 75 d9 3d eb a7 a4 3c 9a 54 f8 bd 3a 2f e5 bd
       0.106181346 0.0200996 -0.121255115 -0.111906484
0001d0 4c b7 18 bd 2f 5a 1b be 11 a5 e2 3d c1 8e 7d bb
       -0.03728418 -0.15171121 0.1106664 -0.0038689824
0001e0 05 48 5e bd d5 5b 5c bd 03 a7 b9 bb 42 d5 ef bc
       -0.054267902 -0.053798515 -0.0056656613 -0.029276494
0001f0 bb 12 97 3c 94 6d 36 3c 0e 37 d2 3b 1d 1b 2e be
       0.018441549 0.011134524 0.0064152544 -0.1700253
000200 0e c2 1b be 96 79 9b bd da 95 06 bd 8e 2b cd 3c
       -0.15210745 -0.0759155 -0.032857753 0.025045183
000210 5d cf 8e bd 3e ca 2d be 1c 15 81 bc a3 3f d0 3d
       -0.06973145 -0.1697168 -0.015757136 0.10168388
000220 32 1e d6 bd b3 e2 84 be ab 7f 9b bd 2f 68 31 3e
       -0.10454978 -0.25954208 -0.0759271 0.17324899
000230 6c 9c d5 bd 11 7f 3d bd ea ac e9 3d de e3 7c 3d
       -0.10430226 -0.046263758 0.11409934 0.06174075
000240 51 7b d2 bd 02 6d 39 bd fb dc 2b be 1e ed f5 3d
       -0.10277427 -0.045269974 -0.16783516 0.12008117
000250 5f a4 96 be 0d 96 9b bd 15 5f fe 3c 09 22 d0 bc
       -0.2942228 -0.07596979 0.031051198 -0.025406854
000260 dc 3f 84 bd 0f 92 79 bd 18 44 51 bd 25 54 13 3d
       -0.06457493 -0.060930308 -0.05109033 0.03596892
000270 c9 2f 53 bd 21 81 95 3d a6 b3 a3 bd 3f f9 f8 3d
       -0.051559243 0.0730002 -0.079932496 0.12156915
000280 40 24 b0 be 97 ff 54 be 31 d1 94 be 56 6f 9e 3d
       -0.34402657 -0.20800625 -0.2906585 0.077360794
000290 af d3 2a be 7a 58 fc 3d 50 37 40 be a5 5d 27 be
       -0.16682313 0.12321563 -0.187711 -0.16344316
0002a0 44 49 29 bd 91 07 16 3c d8 5d fa bc 67 5d a3 3d
       -0.041329637 0.009157077 -0.030562326 0.079767995
0002b0 1f b0 a4 3c b1 9f 90 bd 66 d1 b3 bd b7 53 79 bc
       0.020103512 -0.07061709 -0.08780174 -0.015217713
0002c0 97 74 1c 3d 6b 7e cd b8 35 c3 86 3d 0a 6d 7d 3d
       0.038197126 -9.798709e-05 0.065802015 0.061871566
0002d0 34 83 f9 bc 5e b3 16 3e 81 4c a2 bd 06 d8 b0 bd
       -0.03045807 0.1471686 -0.07924748 -0.08634953
0002e0 c2 65 69 be 99 2b 1f bc e5 83 f5 3c 11 38 2c be
       -0.22792724 -0.009714984 0.029970119 -0.16818263
0002f0 22 eb 64 bd 1b b9 e1 3d 23 0b 33 3d 52 80 b2 bd
       -0.055888303 0.11021634 0.043711793 -0.087158814
000300 63 b3 42 be b5 1a 9a bc b6 e3 3b be f8 a6 cc 3d
       -0.19013743 -0.018811563 -0.18348584 0.09992784
000310 74 b7 86 bd 17 80 90 bc 58 60 33 bd f5 80 6c bd
       -0.0657796 -0.017639203 -0.043793052 -0.05774017
000320 3c aa dc bc c2 0b 4a be b7 54 3b 3e 6e 2b 24 3e
       -0.026936643 -0.19731048 0.18294035 0.16032192
000330 3e 45 4e 3e 35 e2 05 be 22 bf b7 3c 61 5c 08 3e
       0.20143601 -0.13074572 0.022430006 0.1331649
000340 4c 41 0a 3e e6 b2 d5 3d 97 8a 10 3e 5d 03 5e be
       0.13501471 0.10434513 0.14115368 -0.2168097
000350 35 40 4c 3e 5d f2 91 3e f3 f5 cc 3d 40 bc 22 3e
       0.19946368 0.2850522 0.100078486 0.15892124
000360 62 15 0a 3e 87 e0 86 3e fa f5 0a 3d 4b 26 1d be
       0.1348472 0.26343176 0.033925988 -0.15346639
000370 8a f1 31 be 3a ee e4 bd ba 5d f6 3d fe 42 9d bd
       -0.17377296 -0.111782506 0.12029596 -0.07678793
000380 46 e5 3a be 4a c8 32 be fb d9 55 bc a0 7e c0 3d
       -0.18251523 -0.17459217 -0.013052459 0.09399152
000390 f8 8d 11 3e 10 02 35 bd bb cc 0f 3d 41 16 9e bd
       0.14214313 -0.04419142 0.035107356 -0.07719088
0003a0 98 bb 9c bd e6 64 19 bd 69 56 7e 3b 93 12 e1 bd
       -0.07652968 -0.03744974 0.0038808829 -0.10989871
0003b0 b7 78 2f be 0c 05 92 bd 6e 29 91 bd 1a be 2f bd
       -0.17135893 -0.07129869 -0.0708798 -0.042905904
0003c0 56 ac 4f be 80 b2 56 3e bb f9 0f 3e 57 31 37 3e
       -0.20280585 0.2096653 0.14060108 0.17889915
0003d0 17 cb 83 bd 9d 85 25 3d 54 9a 36 3e bc 58 e9 bc
       -0.06435221 0.040410627 0.17832309 -0.028484695
0003e0 37 cf 5e be ec 10 2c bd cd 69 1e be 10 86 04 be
       -0.21758734 -0.042008325 -0.15470047 -0.12941766
0003f0 be 06 af bd fc f9 0e 3e f4 06 77 be 42 b4 2f 3e
       -0.08546208 0.13962549 -0.24123746 0.17158607

a2c_network.actor_mlp.4.bias f4 [128]
000000 f6 6e d2 3d 21 99 57 be bc 97 b0 bc e2 49 bb 3d
       0.1027507 -0.21054508 -0.021556728 0.091449514
000010 6c 78 55 3c 64 47 1f bd 29 3d 16 3d 82 ca f3 bd
       0.013029199 -0.038886443 0.03667942 -0.1190386
000020 0e 85 a3 be c6 a5 58 be bf 6d b8 bd f6 ac 1a bc
       -0.3193745 -0.21156988 -0.090053074 -0.009440651
000030 6a af 62 3c e1 b6 37 be e4 3d 4f 3b 74 5e 5b 3d
       0.013835767 -0.17940857 0.0031622583 0.053556874
000040 d8 b8 cd 3c 16 76 b1 3a 39 0a 0f 3d 2b 9b 1e be
       0.025112554 0.0013539221 0.03492186 -0.1548888
000050 81 a1 f2 bd 3c c1 b7 be 14 30 f5 bd 69 98 e7 bd
       -0.11847211 -0.35889614 -0.11972061 -0.11308367
000060 8c 90 be 3d 6d ff 19 be 55 d0 e7 bc ad 57 2c 3d
       0.09304914 -0.15038843 -0.028297583 0.0420758
000070 4a 95 e0 bc 92 e3 e1 bd 58 72 b6 bd a2 64 7d be
       -0.027414937 -0.11029734 -0.08908528 -0.2474542
000080 36 80 b2 bd db cf 35 3d ec d0 de bd f2 5b 87 bd
       -0.087158605 0.04438768 -0.108796924 -0.06609334
000090 fa ac 10 be f6 f7 de bd d6 c0 16 be d2 d8 e0 3d
       -0.14128485 -0.108871385 -0.14721999 0.10978855
0000a0 45 34 84 be 9f 66 c1 bb 4b f8 5a be 34 89 f9 bb
       -0.25821128 -0.005902126 -0.21383779 -0.007615233
0000b0 28 e1 28 bd e1 72 59 bd a0 cc 2d 3d da 4d ed bb
       -0.04123035 -0.053088073 0.042431474 -0.0072419466
0000c0 18 01 0e bd 57 3f 0d be 33 8f de 3d 56 09 b7 3d
       -0.03466901 -0.13793693 0.10867157 0.089373276
0000d0 90 78 aa bd 0c a8 db 3d 0c 7d ee bd c4 1c 60 3d
       -0.08323777 0.10725412 -0.116449445 0.054714933
0000e0 3c 31 ff bd ce 86 38 be 82 a5 e4 ba 5b 2a ec bd
       -0.124605626 -0.18020174 -0.0017444345 -0.11531516
0000f0 89 da 1a 3b 68 72 2e be fd f8 07 3d dc 47 11 be
       0.0023628792 -0.1703583 0.033196438 -0.14187568
000100 88 e0 d3 3d c1 b0 a7 bd ab a8 97 bc 4e e5 88 be
       0.1034556 -0.0818801 -0.018513044 -0.26737446
000110 95 6c 98 3c d2 3a dd 3c 0c b2 84 be ff b2 f3 3d
       0.018606463 0.027005587 -0.2591709 0.11899375
000120 c5 ae 68 3d d5 16 a1 3d f6 37 f5 3d fb 00 80 be
       0.0568073 0.07865683 0.11973564 -0.25000748
000130 52 16 fb bd f4 d0 7a be 7d 18 8f 3d c7 3b bc bd
       -0.12260117 -0.24493772 0.06987093 -0.09191089
000140 c9 0d 87 bd 9a 04 42 be e6 f4 d2 bd 1e fa c4 3d
       -0.06594426 -0.18947068 -0.10300617 0.096180186
000150 92 da 85 be 0a 27 7e be 73 9c 24 3c 06 3f a8 bd
       -0.26143318 -0.2481958 0.010047066 -0.08215146
000160 33 99 8d 3d 73 be 8c 3d 31 e1 52 3d 82 45 1c 3d
       0.06913986 0.06872263 0.05148429 0.038152225
000170 dc df aa be 09 94 95 3d f3 35 1d 3d 07 86 a6 3d
       -0.33373916 0.07303626 0.038381528 0.081310324
000180 5c 5b b5 3c 5c 4c 5b be 04 3f ff 3d 4d 29 2d be
       0.02213829 -0.21415848 0.12463191 -0.16910286
000190 cb e5 84 be 5b d2 8a bc b8 4a 0f 3d fe cd 12 be
       -0.25956568 -0.016946008 0.034983367 -0.14336392
0001a0 43 86 38 be e3 6a 2f be dd 7a 20 be 5f 1a 47 3d
       -0.18019967 -0.17130618 -0.15671869 0.048609134
0001b0 c3 3a 44 bc 8c 6e 46 be fe 91 5a be 49 c8 f5 3d
       -0.0119769005 -0.19378108 -0.21344754 0.12001092
0001c0 37 64 4a bc df ae a8 3d 8b 8f 17 be d3 04 7a 3d
       -0.012352995 0.08236479 -0.14800851 0.061039757
0001d0 32 58 81 3d 86 1b 4b be ad 02 25 be 5c c4 1a 3e
       0.0631565 -0.19834718 -0.16114302 0.15113968
0001e0 7b a0 51 be 03 c0 8a bd d2 9a 9d 3c a1 f3 f7 3d
       -0.20471375 -0.067749046 0.019238863 0.121070154
0001f0 74 34 65 3d 72 98 0b be 36 97 92 bc f4 1b 49 be
       0.055958226 -0.13632372 -0.017894369 -0.1963957

a2c_network.value.weight f4 [1, 128]
000000 bf f9 6c bc cb 48 15 3c ca d9 6a bd c3 0a f3 bc
       -0.014463841 0.0091115935 -0.057336606 -0.029668218
000010 45 cb 2a 3d 6e f6 9c bc 46 b7 d3 3a 8e 24 05 bb
       0.04169776 -0.019160476 0.0016152642 -0.0020315978
000020 da 93 a8 bd e2 7f 5b bb bb a4 72 3c 1e 3f d0 bd
       -0.082313254 -0.0033492972 0.014809783 -0.10168289
000030 6e 71 f3 3c 24 ed 95 3c c5 07 1a bc da 03 31 bc
       0.029717173 0.018301554 -0.009401266 -0.010804141
000040 8c 70 30 bc 28 95 eb bb fd e0 b4 bc 5c 1e 5a 3c
       -0.010769021 -0.0071894117 -0.022079939 0.013312902
000050 53 89 55 3c 28 f9 86 be 8b aa 80 3c e1 ba df 3c
       0.013033229 -0.26361966 0.015706321 0.02731079
000060 a2 78 c1 bd ed 2a 52 ba b4 1e 2e 3c 6e 59 9a 3b
       -0.09446837 -0.00080172607 0.010627437 0.004710368
000070 f0 97 9e bc 6e 29 f4 3b 76 7f 2a 3d d2 b0 18 be
       -0.019359559 0.007451228 0.041625462 -0.14911202
000080 f0 dc 83 3d a4 36 c9 3c 35 b8 16 bb 42 ba 9a 3c
       0.06438625 0.024562187 -0.002299798 0.018887643
000090 da d5 8c 3d a7 1d 2c bd b7 26 00 bc ba ed 2d bd
       0.068767264 -0.042020466 -0.00782173 -0.04246304
0000a0 2f 15 87 bc ba a3 13 3c 65 ba 63 3a 30 8a 87 3b
       -0.016489593 0.009011203 0.0008687138 0.0041363463
0000b0 ce a5 e0 bb 4f 29 5f bc 90 77 f1 b8 85 bd 54 be
       -0.006855703 -0.013620689 -0.00011514046 -0.20775421
0000c0 f4 53 42 bb c2 de 37 bd fa 13 ec 3a 4a 26 0f 3d
       -0.002965209 -0.044890173 0.0018011325 0.034948625
0000d0 b6 f3 d5 bc 8d ea 3e bc 2a 78 5a bc 25 a8 0f bc
       -0.026117187 -0.011652601 -0.013334313 -0.008768116
0000e0 30 64 1c bc 6e 03 bf bc 0e 98 82 3d 0c ae 7f bc
       -0.009545371 -0.023317065 0.063766584 -0.015605461
0000f0 40 af be 3a 39 6c 33 bb 89 4b 6a bc 04 8c a6 3c
       0.0014548078 -0.0027377738 -0.014300236 0.020330437
000100 df c3 81 3d dd 50 9a 3c 8e 51 cd ba bc ec 13 bd
       0.063361876 0.018837387 -0.0015664564 -0.03611444
000110 fd 56 85 3c a6 c8 8b bd 03 76 65 3c 11 30 1e bd
       0.01627683 -0.0682538 0.014005187 -0.03862006
000120 c8 35 02 bd 12 84 74 3d 78 7c b8 3b 11 ea a1 bd
       -0.03178957 0.059696265 0.005630072 -0.07905973
000130 62 41 42 3c 07 e1 07 be b1 ba 43 bd 1e e7 bc 3b
       0.011856409 -0.13269435 -0.047785465 0.005764856
000140 bd 1b 81 bc 51 af 89 bc 03 0c 67 3c 2c 60 1e bc
       -0.015760297 -0.01680723 0.014101985 -0.009666484
000150 c6 e2 e8 3b 36 91 dd 3c 61 cc 98 3b 35 fd a7 bc
       0.0071071116 0.027046781 0.0046630357 -0.02050648
000160 a5 21 c1 ba 26 c4 96 3c 60 c1 6b 3c f9 ef e6 bc
       -0.0014734758 0.018404078 0.014389366 -0.0281906
000170 94 fc 4f be 2f a1 df ba 10 3d 0b 3c 0f ed 07 3d
       -0.20311195 -0.0017061586 0.008498445 0.03318506
000180 cd 00 8f bc 29 90 fb bb bc 6e 79 3d 7e ca 6c bb
       -0.017456437 -0.0076770973 0.06089662 -0.0036131437
000190 ee c8 3e 3c 56 4b 95 ba 77 13 62 3c b1 27 a9 bc
       0.011644585 -0.001139025 0.013798586 -0.02064881
0001a0 2b e2 6e ba b6 21 1a 3b 47 2e 0b bc 1d 7c ae 3c
       -0.0009112681 0.0023518628 -0.00849492 0.021299416
0001b0 8d ed e8 bc 20 7f 66 3d fa da 1e 3e 58 10 b9 bc
       -0.028433586 0.05627358 0.1551322 -0.022590801
0001c0 f3 ab a2 bc 0d c0 19 bd ba 2f c5 3b c2 ca 80 bc
       -0.019857382 -0.03753667 0.0060176523 -0.015721682
0001d0 66 12 c7 3d a6 c7 ff 3b 4d 7a 57 3c ae d7 b1 bc
       0.09720306 0.0078057824 0.013151717 -0.02170929
0001e0 ae e1 b8 bd 5f ed 85 3a e0 02 9d 3c a5 03 bb 3c
       -0.0902742 0.0010217837 0.01916641 0.022828886
0001f0 71 3e 16 3d 59 aa ac 3b 09 21 88 3c 12 9a fa 3c
       0.036680643 0.0052693305 0.016617315 0.030591045

a2c_network.mu.weight f4 [18, 128]
000000 d8 3f 39 3e e2 28 86 bc 4b 94 5a 3e 48 cf 24 3c
       0.1809076 -0.016376916 0.21345632 0.010059185
000010 e9 20 07 3d 39 b8 3c bd 23 29 7e 3d 31 51 5b bb
       0.03299037 -0.046074126 0.06205095 -0.0033465142
000020 41 04 0a be f6 0f cb bc cb 9c 2f be 9a dd 0c 3d
       -0.13478185 -0.024787884 -0.17149656 0.034391023
000030 82 5b 09 3c e5 f2 b9 bc 4e a2 03 be 92 9c 0b be
       0.008383634 -0.022698829 -0.12854883 -0.13633946
000040 be c1 46 bb 40 b0 02 be 77 83 07 be ce c6 49 be
       -0.0030327882 -0.12762547 -0.13233744 -0.19704744
000050 6e c8 68 bd a7 19 10 be de 81 9f 3d 7a e9 7d bc
       -0.05683177 -0.14072286 0.07788442 -0.01549756
000060 8d dc 87 3c 4b 7a 10 be 9b 30 d7 bd 98 e1 b2 bd
       0.016584659 -0.14109151 -0.10507318 -0.08734435
000070 5b c9 8f 3d e7 c9 2b bb 14 b9 d9 3c 02 ca d2 bc
       0.070208274 -0.0026212872 0.02657751 -0.02573109
000080 9a 8e 8f 3d 80 97 b3 3c 44 58 1f bd 4d 96 c6 3c
       0.07009621 0.021922827 -0.038902536 0.02424159
000090 1f 3a ce 3d 6b 34 ab bd 9f d8 10 be a3 a5 d6 bd
       0.100696795 -0.08359607 -0.14145134 -0.104808114
0000a0 17 91 76 3e b6 d5 9e 3d ab d5 2c be af af 70 be
       0.24078785 0.07755606 -0.16878383 -0.23504518
0000b0 5c 39 2b 3e 2f 4e cd bd 29 c2 c8 3b 39 c9 98 bc
       0.167211 -0.10024678 0.0061266613 -0.018650638
0000c0 fb 7d 28 bd 9f d2 6e 3d 3d 3c 28 3e 30 e8 23 bd
       -0.04113577 0.058306333 0.16429229 -0.040016353
0000d0 65 0a be bd 40 5c 78 be c1 16 00 3e 07 7d 0d 3e
       -0.09279326 -0.2425394 0.1250868 0.13817225
0000e0 47 9b c3 bd d8 6e bc 3d 59 f6 f5 3d e0 0b 6a 3d
       -0.09551101 0.09200829 0.12009878 0.05714023
0000f0 85 a8 1c 3d de b9 53 3e 2c 3a 1a 3e 57 1f df bc
       0.03824665 0.20676371 0.15061253 -0.027236624
000100 9e aa fc bb f9 96 3a be a3 d6 58 3e 09 94 e0 3c
       -0.007710769 -0.18221654 0.21175627 0.027414339
000110 dc 36 06 3e f5 1f 08 3d 42 5e a3 3c 51 ac a3 3d
       0.13106865 0.0332336 0.019942407 0.07991851
000120 ed 67 0c be aa 05 4f 3d 7b 17 1b 3d ed c1 cd 3d
       -0.1371152 0.05054251 0.03786419 0.10046754
000130 4e a1 e3 38 11 8f 0b be 6f a3 53 3d e5 3f 9a bd
       0.00010854249 -0.13628794 0.051669534 -0.07531718
000140 9c ac 06 be 8a e3 b9 3a 17 de 26 3e d5 58 26 bd
       -0.13151783 0.0014182192 0.16295658 -0.04061206
000150 09 a7 8d 3e 53 d7 f5 3d c9 19 c5 3b 6e 68 74 3c
       0.276665 0.120039605 0.0060150367 0.014917476
000160 3e 80 0e bd c7 37 1c 3d ef e0 45 be ae 22 c1 3c
       -0.03479027 0.03813913 -0.19324087 0.023576107
000170 86 a0 ce 3c 26 06 9b 3d 04 50 55 bd e2 5e 3c 3c
       0.025223028 0.07569532 -0.052078262 0.011497231
000180 d8 c4 65 bc 7e 6e 3a 3d a5 2e 09 be de 82 6b bc
       -0.014023982 0.04551553 -0.133967 -0.014374463
000190 71 fc 46 bd ef 6b f9 3d 9e ff 10 3e f6 9c 88 bd
       -0.04858059 0.1217879 0.1416001 -0.06670563
0001a0 3c 5f d3 3c 19 c5 d2 3d 71 d2 3a bd 68 af 3a be
       0.025802247 0.102915 -0.04561085 -0.18230975
0001b0 7e 8a 1c 3d ed 16 db bd 38 03 3e bd d0 b7 fc bd
       0.038218014 -0.10697732 -0.04638979 -0.12339747
0001c0 31 9a a2 bd ba 7d 68 bd e4 03 5d bd a5 9d c2 3d
       -0.07939566 -0.056760527 -0.05395879 0.095027246
0001d0 b2 5d 91 bd 68 d3 41 bd ae 22 32 be d0 fc e4 3d
       -0.07097949 -0.047320753 -0.17396042 0.11181033
0001e0 b0 dd 11 3d 9c 16 40 be 37 d8 9e bc 93 f2 01 bd
       0.03561181 -0.18758625 -0.019390209 -0.031725477
0001f0 4b 54 48 3d b2 0c eb bd 46 d8 9d 3d e2 23 cb bc
       0.048908513 -0.11477031 0.077072665 -0.024797384
000200 98 8e b9 bd ab ce 32 bc 6e 6a 2f bd 12 d1 b0 3d
       -0.09060401 -0.010913531 -0.04282611 0.08633627
000210 4e c9 fc bc 25 43 17 3a 04 20 23 3d 9b 25 ae 3d
       -0.030857708 0.0005770198 0.039825454 0.085032664
000220 8c 52 11 3d 36 e5 d7 bd 1f 2f 76 3d 8e 5b 83 3b
       0.035479113 -0.105417654 0.060103532 0.004008717
000230 aa d2 f1 bd ad 77 f5 3c 19 59 2c bc f0 79 08 bd
       -0.11807759 0.029964292 -0.010519289 -0.033319414
000240 7a 3c 7e 3d 3a 08 58 3d 66 2e 15 3d 05 53 7f 3d
       0.062069394 0.05274222 0.036421202 0.062335033
000250 00 68 d5 ba 24 f0 bb bd ea 4d 3e 3c 0a 5d 30 3d
       -0.0016281605 -0.091766626 0.011615256 0.04305748
000260 61 d7 e4 bd b3 02 18 be 8e 6c 6b 3d a3 ba 40 bd
       -0.11173893 -0.1484478 0.057476573 -0.04705299
000270 7c 77 d1 bd 50 63 b7 bd 7a b0 9e bd 59 59 66 ba
       -0.10227868 -0.08954489 -0.07748504 -0.00087871175
000280 a7 13 a5 3b 4b d6 28 bd e1 27 85 be 41 03 86 bd
       0.005037743 -0.04121999 -0.26006988 -0.065435894
000290 ad d5 e8 3c 3f 11 b3 bd 62 31 bf 3d 2c 71 3c b9
       0.028422201 -0.08743524 0.09335591 -0.00017971237
0002a0 a9 5a f3 3d c0 6f ba bd d2 b7 b6 3d c1 5f eb 3d
       0.118825264 -0.09103346 0.0892178 0.11492873
0002b0 05 89 41 bd 66 e3 06 bd de 7d 9f bb 7f 3e 4a bd
       -0.047249813 -0.032931708 -0.0048672995 -0.049376007
0002c0 06 d2 7d bd 31 1a 05 3d 11 38 9b 3d b8 fa c4 bd
       -0.061967872 0.03249568 0.07579053 -0.09618133
0002d0 56 e3 e1 3c 29 33 ce bc d9 05 f5 bd 34 d8 91 3d
       0.027574223 -0.02517088 -0.11964006 0.071213156
0002e0 45 c6 58 bd 43 67 5e bd 27 b6 96 bd 68 37 66 3d
       -0.05292346 -0.054297697 -0.073589616 0.056205183
0002f0 3c 25 89 3d 36 da c7 3d bb 8c 13 bb 84 38 4a bd
       0.06696555 0.09758417 -0.0022514302 -0.049370304
000300 6f 2f 9a 39 26 a2 1b bd 67 5c 55 bd b8 a8 45 3a
       0.0002940851 -0.037996434 -0.052090075 0.00075400947
000310 32 81 86 3d f5 58 50 3d 2e 1e 54 3d f2 17 40 bd
       0.06567611 0.050866086 0.051786594 -0.046897836
000320 18 e4 8d bd 90 5b 95 bd 82 63 a0 3d 87 33 d6 3d
       -0.06928271 -0.07292855 0.078314796 0.10459047
000330 54 9b ad bd 47 65 4b bd 5a 7e ee 3d f3 5b e3 bd
       -0.08476892 -0.049657132 0.116451934 -0.11101522
000340 0a 9a 31 3e b4 1d c1 3d 6e aa 42 be e1 d5 39 3e
       0.17343917 0.094294935 -0.19010326 0.18147995
000350 9d 8f 33 3d 1e 08 77 be 5d 91 e3 bd 10 12 54 bd
       0.043838132 -0.2412419 -0.1111171 -0.05177504
000360 40 66 9c 3d 36 4f 8f bd 27 7d c4 3d fc 7b bf bd
       0.0763669 -0.0699753 0.095941834 -0.0934982
000370 ba f8 7c bd 14 26 81 3d d2 be be 3d 01 6c 91 bd
       -0.06176064 0.06306091 0.0931374 -0.07100678
000380 e0 54 cb 3d 8e 73 89 be 02 4b 26 bd 98 c8 e9 bd
       0.09928298 -0.26845974 -0.040598877 -0.11415213
000390 05 8a 4d be b7 ee c2 3b 2f a6 d8 3d cd 10 a0 3d
       -0.20072182 0.005948867 0.10578572 0.078157045
0003a0 42 9f 9a 3d 6f 2b c2 bb de b7 ca 39 17 3d 23 3e
       0.07549907 -0.005925588 0.00038665434 0.15941273
0003b0 c0 b1 e2 bd 56 db 13 be 51 cd 0c 3e f4 5f bd 3d
       -0.11069059 -0.14439139 0.13750197 0.09246817
0003c0 ad f5 5f bd 4b 7f ad bd 60 f5 d7 3c 01 c6 5b 3d
       -0.054677654 -0.08471545 0.026362121 0.053655628
0003d0 bd c3 21 3d da 62 d7 3d 7c a5 ed bd 9c 4c 92 bd
       0.03949331 0.10516901 -0.11603829 -0.07143518
0003e0 15 68 83 3c df 53 53 bc 8b 9c 9b 3d 40 62 0c be
       0.016040841 -0.012898414 0.075982176 -0.13709354
0003f0 13 cf 6d 3c e1 13 9a 3b 37 5b ad 3d df 48 12 3d
       0.014514702 0.004702077 0.084646635 0.035714027

a2c_network.mu.bias f4 [18]
000000 07 7e 0a bc e9 68 1e 3c f1 06 92 bb 2a 10 0b 3d
       -0.008452899 0.009668567 -0.004456394 0.033950962
000010 dc f8 c2 3c 54 0b 80 bd e5 31 8f 3d 07 9f 0a 3d
       0.023800306 -0.06252161 0.069919385 0.033843067
000020 3d e3 dd 3c 29 c6 bb 3b bd 64 62 bd 3a f1 0f 3e
       0.027085895 0.0057304096 -0.055271853 0.14056864
000030 fb 10 ef bc 15 d8 12 bb e8 48 5e 3d d8 5b ff 3c
       -0.029182902 -0.0022406627 0.054268748 0.031171724
000040 96 19 8c 3c 07 65 ba 3c
       0.017102044 0.022753252

exp_avg f4 [18]
000000 d3 e2 eb 3a ce 44 f9 ba 64 54 1b 3a a8 65 cf b9
       0.0017996676 -0.0019017698 0.0005925356 -0.00039557857
000010 ef 80 50 38 5e be 4a b9 05 be 03 3b e1 40 7e b9
       4.9711143e-05 -0.00019335138 0.0020102274 -0.00024247497
000020 f3 aa b2 b9 1a ab 2d 3a f2 a5 58 3a d8 5c 60 b9
       -0.00034078173 0.00066249224 0.0008264474 -0.00021396892
000030 32 9a fa b9 24 dd 3b 39 15 5f b4 38 f7 e2 26 39
       -0.000477986 0.00017916091 8.600779e-05 0.00015915545
000040 35 e1 07 b9 d5 94 56 39
       -0.000129585 0.00020464075

exp_avg_sq f4 [18]
000000 56 f0 87 37 2d 03 89 37 05 4d 84 37 63 1c 8d 37
       1.620517e-05 1.6333152e-05 1.5771491e-05 1.6821728e-05
000010 92 02 88 37 18 66 6f 37 5c a5 87 37 0f c9 69 37
       1.621366e-05 1.4269281e-05 1.6170256e-05 1.3934695e-05
000020 b0 bf 6d 37 a4 b6 92 37 37 22 92 37 63 49 89 37
       1.41709315e-05 1.7489605e-05 1.7420489e-05 1.6365846e-05
000030 bd 5f 85 37 d4 9c 74 37 69 96 6e 37 a0 24 78 37
       1.5899417e-05 1.4580048e-05 1.4220926e-05 1.4790479e-05
000040 d6 16 82 37 96 54 80 37
       1.5507841e-05 1.5298177e-05
