logs/rl_games/hexapod_flat_direct/2025-11-15_08-58-23/nn/last_hexapod_flat_direct_ep_200_rew_42.354744.pth (torch, 545947 bytes, 33 tensors)

value_mean_std.running_mean f8 [1]
0	0x3ffe97d6e29c7cd1	1.9120701648715122

value_mean_std.running_var f8 [1]
0	0x3fe07f011a41a02e	0.5155034554309219

value_mean_std.count f8 []
0	0x4192c00004000000	78643201.0

a2c_network.sigma f4 [18]
0	0xbee56a5f	-0.44807717
1	0xbf38c844	-0.7218058
2	0xbf2d9b2c	-0.678149
3	0xbf406b07	-0.7516331
4	0xbf1f4668	-0.62216806
5	0xbf139c7c	-0.5766065
6	0xbee3f8d7	-0.44525787
7	0xbf045502	-0.5169221
8	0xbf0a3754	-0.53990674
9	0xbf10165a	-0.56284106
10	0xbf0666db	-0.52500695
11	0xbf03f966	-0.51552427
12	0xbe94ee83	-0.2908822
13	0xbec1ae43	-0.37828264
14	0xbeaea9c3	-0.34113893
15	0xbecef551	-0.40421537
16	0xbe923e79	-0.28563288
17	0xbe9706c7	-0.29497358

a2c_network.actor_mlp.0.weight f4 [128, 66]
0	0xbd72cf10	-0.0592795
1	0xbdabf803	-0.08396914
2	0x3eb43810	0.35199022
3	0xbe1da4ed	-0.15394945
4	0xbca66c94	-0.020315446
5	0x3d67c547	0.056584623
6	0x3e8e056c	0.27738512
7	0x3d3cade6	0.04606428
8	0xbe8fae64	-0.28062737
9	0xbed91dbc	-0.42405498
10	0xbe0110cb	-0.12604062
11	0x3c666316	0.01406171
12	0x3e677300	0.22602463
13	0xbd312e3d	-0.043256987
14	0xbdf32479	-0.11872191
15	0xbe99aaf3	-0.30013236
16	0x3e803618	0.2504127
17	0xbe00062e	-0.12502357
18	0x3cc691c9	0.024239438
19	0xbe0860bb	-0.1331815
20	0x3d0dc5b5	0.034612376
21	0xbda53b8b	-0.080679975
22	0xbe17d6c5	-0.14828022
23	0x3caed709	0.021342771
24	0xbc8b0231	-0.016968818
25	0xbb90ee0d	-0.004422909
26	0x3debd286	0.115147635
27	0xbcfca74f	-0.030841498
28	0xbdae3cf7	-0.08507722
29	0xbe80cd61	-0.25156692
30	0x3d9b3c25	0.07579831
31	0xbb47cab2	-0.0030485806
32	0xbb2c5b41	-0.0026299509
33	0xbd243aca	-0.040095128
34	0xbd02ec57	-0.031963672
35	0x3d9b66a2	0.07587935
36	0xbd75585b	-0.059898715
37	0xbe2f8a59	-0.17142619
38	0x3c89e53e	0.016832944
39	0xbd7670e2	-0.060166247
40	0xbd57f8c2	-0.05272747
41	0x3c8dcdd7	0.017310066
42	0xbd66961c	-0.0562955
43	0x3c31d3bb	0.010853703
44	0x3dbe0284	0.092778236
45	0x3d362fad	0.04447906
46	0x3ca0b731	0.019618602
47	0xbd0bc16a	-0.03412
48	0xbd6af5ab	-0.057363193
49	0xbd885bdd	-0.066581465
50	0x3c0d1e08	0.008613117
51	0xbdbdd20a	-0.092685774
52	0xbcad1811	-0.02112964
53	0xbd76d64a	-0.060262956
54	0xbd6c419b	-0.057679754
55	0xbe18e1b3	-0.14929847
56	0xbda20cf9	-0.079126306
57	0xbd43ee1a	-0.047834493
58	0xbe42ac59	-0.19011058
59	0x3b9b66f6	0.0047424985
60	0xbd900032	-0.07031287
61	0xbc9d2382	-0.01918197
62	0x3e18bf49	0.1491672
63	0x3ceb5f5f	0.028732
64	0x3cd4eba7	0.025991274
65	0xbc082637	-0.008309892
66	0x3e3e66d0	0.18593907
67	0xbef7cbc8	-0.4839766
68	0xbe1ec22f	-0.15503763
69	0xbe014aa6	-0.12626132
70	0xbe6014c1	-0.21882917
71	0xbc222ea8	-0.009898819
72	0xbf00a83f	-0.50256723
73	0x3e127dd9	0.1430582
74	0x3e44c329	0.19215073
75	0xbe8d4f4c	-0.2759956
76	0x3ef913ed	0.48648015
77	0xbf083c03	-0.5321657
78	0xbe77faee	-0.24216816
79	0x3ef2570f	0.47332045
80	0xbe30027b	-0.17188446
81	0x3f3d4478	0.739326
82	0x3dcac4db	0.099008285
83	0xbe0bac1f	-0.13639878
84	0xbc9967e0	-0.01872629
85	0xbded48dc	-0.115861624
86	0xbd9fc4a3	-0.07801177
87	0xbe123cb0	-0.14280963
88	0x3e315a79	0.17319669
89	0xbda40edb	-0.08010646
90	0x3e172c62	0.14763024
91	0x3db94d74	0.09047976
92	0x3d34d0ba	0.04414437
93	0xbdb6256e	-0.08893858
94	0x3da0a242	0.07843448
95	0x3da02e5a	0.07821341
96	0xbcaea8eb	-0.02132078
97	0xbdd492b0	-0.10379541
98	0x3d70d595	0.058797438
99	0x3d4ac805	0.04950716
100	0xbdb6e529	-0.089304276
101	0x3d49c65c	0.049261436
102	0x3d1476da	0.03624616
103	0xbd19ddab	-0.037564915
104	0x3d8cdcbd	0.0687804
105	0x3d1c43e2	0.038150676
106	0xbc8a8ebd	-0.016913766
107	0xbc98c1e7	-0.018647147
108	0x3b35c0d6	0.0027733347
109	0xbd32ebd1	-0.043681923
110	0xbd52a957	-0.051431026
111	0x3cf7d027	0.030250622
112	0x3c77678e	0.015100373
113	0xbd667067	-0.05625954
114	0xbd1e7470	-0.038685262
115	0x3dd721dc	0.10504505
116	0x3cbef1c9	0.023308652
117	0x3d9a2a78	0.075276315
118	0x3c54a8e8	0.0129797235
119	0xbc6f6e0a	-0.014613638
120	0x3b348912	0.002754752
121	0xbe07c2ae	-0.13257858
122	0x3d9fa56e	0.07795225
123	0x3de43bd4	0.11144224
124	0xbde02161	-0.109438665
125	0xbcef4d54	-0.029211678
126	0x3d87b2fb	0.06625935
127	0x3deaf5a2	0.11472632
128	0x3c63947e	0.013890384
129	0x3bf6c3e8	0.007530678
130	0xbcde7966	-0.027157497
131	0x3dc320d3	0.09527745
132	0xbe8ccd38	-0.2750032
133	0xbf0d0805	-0.5509036
134	0x3e7c2c9f	0.24626397
135	0xbe78ccf5	-0.24296935
136	0x3f017339	0.5056644
137	0x3d604ff5	0.054763753
138	0x3f29c437	0.66315025
139	0x3d886ff6	0.0666198
140	0x3d846d80	0.06466198
141	0xbf43e30e	-0.7651833
142	0xbecbbfed	-0.39794865
143	0x3e38bcf8	0.18040836
144	0x3e10f418	0.14155614
145	0x3ed4ed10	0.41587114
146	0x3e51cc17	0.2048801
147	0x3ce7d91f	0.028301774
148	0xbf17e4fa	-0.59333766
149	0xbd594acb	-0.053049844
150	0xbd098d84	-0.033582225
151	0xbe020dcc	-0.12700576
152	0x3d00d9cb	0.031457704
153	0xbdebcca4	-0.115136415
154	0xbe4a698a	-0.19766822
155	0xbe8b4d33	-0.27207336
156	0xbdf70b4d	-0.12062702
157	0xbe926f57	-0.2860057
158	0xbe2acc31	-0.16679455
159	0x3c6e9a58	0.014563166
160	0xbc00ec56	-0.007868847
161	0x3e699313	0.2281001
162	0xbda2e25c	-0.07953331
163	0xbda5c327	-0.08093863
164	0xbd9a23f3	-0.07526388
165	0x3d9c23fb	0.0762405
166	0x3c941036	0.018074136
167	0x3d0ef2e7	0.03489962
168	0x3d74df63	0.05978335
169	0x3d45fcee	0.048336916
170	0xbc65fa02	-0.014036657
171	0xbd3bcf9a	-0.04585228
172	0xbd902847	-0.07038932
173	0xbdfa2999	-0.122149654
174	0xbc38eaf0	-0.011286482
175	0xbdb6e1f5	-0.08929817
176	0x3d8e0fcb	0.06936606
177	0xbcad5812	-0.02116016
178	0x3bcfacaf	0.006337724
179	0xbd6a322a	-0.057176746
180	0xbdb75b5b	-0.089529715
181	0x3e58cef6	0.211727
182	0x3d059a91	0.03261811
183	0x3da6717d	0.08127115
184	0xbe8efebe	-0.27928728
185	0xbdaeefe3	-0.085418485
186	0xbc7a28f4	-0.015268553
187	0xbd6065e9	-0.05478469
188	0x3d9f9682	0.07792379
189	0xbd519e25	-0.05117621
190	0x3de17526	0.110086724
191	0xbef2c014	-0.4741217
192	0xbdb3508f	-0.087556
193	0xbd133a01	-0.03594399
194	0x3d883261	0.06650234
195	0x3d1a32a2	0.037645943
196	0xbd87b9f6	-0.06627266
197	0x3c54ffde	0.013000457
198	0x3f77c371	0.96782595
199	0xbeb2b8be	-0.34906572
200	0x3f104ff8	0.5637202
201	0xbe047e30	-0.12938762
202	0xbe85ee8b	-0.26158556
203	0xbeac6d8d	-0.3367733
204	0xbf00a496	-0.5025114
205	0x3fd7e7fc	1.6867671
206	0xbd8b64e7	-0.06806355
207	0x3f2deb80	0.6793747
208	0x3f1308a6	0.5743507
209	0xbe407b28	-0.1879698
210	0xbf2f7d37	-0.6855044
211	0x3e929e47	0.2863638
212	0xbe89da3d	-0.26924315
213	0x3e2b85a5	0.167502
214	0xbee15570	-0.44010496
215	0x3f510421	0.81646925
216	0x3e519ca9	0.20469917
217	0xba612e5a	-0.0008589976
218	0xbea4e154	-0.32203162
219	0x3dbf427a	0.09338851
220	0xbd95a133	-0.07306137
221	0x3d497239	0.049181197
222	0xbe543fea	-0.20727506
223	0x3d8e55f3	0.06949987
224	0x3d328b31	0.043589775
225	0xbf25b3b4	-0.6472733
226	0x3c4d0505	0.012513404
227	0xbe1341d7	-0.14380585
228	0x3d4d444c	0.05011396
229	0xbd4f5d1c	-0.050625905
230	0xbd043e28	-0.03228584
231	0xbd4cbaec	-0.04998295
232	0xbd1b0acd	-0.037852097
233	0xbd8e0c84	-0.06935981
234	0x3d9d1b29	0.07671196
235	0x3e306a5f	0.17228077
236	0x3d1d9014	0.03846748
237	0xbc73cb87	-0.014880068
238	0xbd0234c1	-0.03178859
239	0x3d2a7e7d	0.041624535
240	0xbc4070f4	-0.01174568
241	0x3c8bee61	0.017081441
242	0xbb2da955	-0.0026498635
243	0x3cce2ed6	0.025168817
244	0x3dbb5812	0.091476575
245	0x3d474bbd	0.048656214
246	0xbe28bc79	-0.16478147
247	0x3e19e168	0.15027392
248	0x3debb694	0.115094334
249	0xbdada468	-0.08478624
250	0x3b88af6b	0.004171302
251	0x3ea121a4	0.31470978
252	0x3d92e198	0.07171935
253	0x3d900bcd	0.07033501
254	0xbe3037b0	-0.17208743
255	0xbbde3470	-0.0067811534

a2c_network.actor_mlp.0.bias f4 [128]
0	0x3e2220b5	0.15832789
1	0xbe13ba77	-0.144266
2	0xbe0f4d1f	-0.13994263
3	0x3e142650	0.1446774
4	0xbd89a06b	-0.067200504
5	0x3e2f6d99	0.17131652
6	0xbe113957	-0.1418203
7	0xbd8b2716	-0.067945644
8	0x3e412d9d	0.18865056
9	0xbdeebf0c	-0.11657533
10	0xbc677bcc	-0.014128637
11	0xbd6ea1aa	-0.058259644
12	0x3db7746e	0.08957754
13	0x3e0b1022	0.13580373
14	0xbe16d949	-0.14731325
15	0x3c9b9524	0.018992014
16	0x3e32f296	0.17475352
17	0x3e057ede	0.13036677
18	0x3be29fd3	0.006916025
19	0xbd44d5fa	-0.048055626
20	0xbe336d23	-0.17522101
21	0xbcc2b623	-0.02376849
22	0xbd9fb4ba	-0.07798143
23	0x3da3cf6a	0.079985455
24	0xbe1beef6	-0.15227875
25	0x3deebfae	0.11657654
26	0x3d4e94df	0.050434943
27	0x3db884ca	0.090097025
28	0xbcc326d7	-0.023822231
29	0x3d36eb5a	0.044658042
30	0x3e0289ab	0.12747829
31	0xbd18fe47	-0.037351873
32	0x3e23a118	0.15979421
33	0xbcb1e420	-0.021715224
34	0x3d41c545	0.04730727
35	0x3c831d99	0.016005324
36	0xbc52c1e1	-0.012863607
37	0x3c8fbce4	0.017546125
38	0x3d2c0d56	0.042004906
39	0xbe2e99cd	-0.17050858
40	0xbda21fb6	-0.07916205
41	0x3e05224c	0.13001364
42	0x3d893f7e	0.06701563
43	0x3ddb1fca	0.10699423
44	0x3c790a67	0.015200234
45	0x3cb2b581	0.021815063
46	0x3b0652ef	0.002049621
47	0x3de60235	0.1123089
48	0xbdac41b3	-0.08410969
49	0x3d195259	0.03743205
50	0xbd8102c7	-0.06299358
51	0x3de787f5	0.113052286
52	0x3b4abf37	0.0030936727
53	0xbd6ae07f	-0.057343002
54	0xbcfe4eab	-0.031043371
55	0xbdb3f53c	-0.08787009
56	0xbcef4b0a	-0.029210586
57	0x3e1ff729	0.15621628
58	0x3d76bbd9	0.06023774
59	0xbdeffd1c	-0.11718199
60	0x3dd036d8	0.101667106
61	0xbdbbef83	-0.091765426
62	0xbe4b4543	-0.1985064
63	0xbd62df14	-0.055388525
64	0x3cd16199	0.025559234
65	0xbddf2659	-0.10895986
66	0xbdde61fc	-0.10858533
67	0x3e0963a1	0.13416912
68	0xbbcee053	-0.0063133626
69	0x3e5c2eb3	0.2150219
70	0x3c87a6df	0.016559063
71	0xbcdf523f	-0.027260898
72	0x3e73977e	0.23788258
73	0xbe00b7e9	-0.12570156
74	0x3df71bab	0.12065824
75	0x3cec5833	0.02885065
76	0xbca2f448	-0.019891873
77	0xbde3e629	-0.11127884
78	0x3b57744b	0.0032875712
79	0x3d360ab1	0.04444379
80	0xbe57ee24	-0.21086937
81	0xbdadeb3f	-0.08492135
82	0x3e44b7c5	0.19210728
83	0x3e1432db	0.14472525
84	0xbe4517fa	-0.19247428
85	0xbd17bd0e	-0.03704553
86	0xbd89a1e4	-0.06720331
87	0xbe452953	-0.19254045
88	0x3d8f4f3e	0.06997536
89	0xbc8f0132	-0.017456625
90	0x3e5c21ae	0.21497223
91	0xbd0bb198	-0.034104913
92	0x3d3d32c3	0.04619099
93	0xbdda51cd	-0.106601335
94	0x3dfb26ec	0.12263283
95	0xbd91613a	-0.070986226
96	0xbd392e3b	-0.045210104
97	0xbd0e1fe7	-0.034698393
98	0x3ca04507	0.019564165
99	0xbd3dff52	-0.04638607
100	0xbd5f7945	-0.05455901
101	0xbd8e4b53	-0.06947961
102	0xbd2ba0dc	-0.041901454
103	0xbe05229f	-0.13001488
104	0xbc485df0	-0.012229428
105	0x3e0d30f8	0.13788211
106	0x3df9c16c	0.121950954
107	0xbe533540	-0.20625782
108	0x3ce4d960	0.027935684
109	0x3e499643	0.19686227
110	0xbd759d93	-0.059964728
111	0x3de0193f	0.10942315
112	0xbdde0c40	-0.1084218
113	0xbe1db214	-0.15399963
114	0x3db15747	0.08659225
115	0xbd5937e4	-0.053031817
116	0xbddccdbf	-0.107814305
117	0xbd4fb087	-0.05070546
118	0x3d90a154	0.07062021
119	0xbdfbcce5	-0.1229494
120	0xbd933b65	-0.07189063
121	0xbdaafb6a	-0.08348735
122	0xbe1d7232	-0.15375593
123	0x3e0f5cb5	0.14000209
124	0x3cfff273	0.031243538
125	0xbda9d8ed	-0.082933284
126	0xbc9ac42c	-0.01889237
127	0xbd9268d5	-0.071489014

a2c_network.actor_mlp.2.weight f4 [128, 128]
0	0xbc5c7d30	-0.013457581
1	0x3e3d49b8	0.18485153
2	0xbe108ba8	-0.14115775
3	0x3d21c4f8	0.039494485
4	0xbc7d99c3	-0.015478554
5	0xbe1b9785	-0.15194519
6	0x3b7e28b7	0.0038781592
7	0xbe23331e	-0.15937468
8	0xbd6bff3d	-0.05761646
9	0xbe2cedd2	-0.16887596
10	0xbd6b3205	-0.05742075
11	0xbe4cfb86	-0.20017824
12	0xbd720433	-0.059086036
13	0x3d325aa0	0.043543458
14	0xbe1c9444	-0.15290934
15	0xbe1a6919	-0.15079154
16	0xbd4aae5c	-0.04948269
17	0xbe2e2b41	-0.17008688
18	0x3dbdbb99	0.09264297
19	0xbeaaf8dd	-0.33392993
20	0x3e10b54a	0.14131656
21	0xbd259627	-0.0404264
22	0x3ddb469c	0.10706827
23	0xbd9b29aa	-0.07576306
24	0x3e4daa0c	0.20084399
25	0xbe06254b	-0.13100164
26	0xbd4f89c9	-0.05066851
27	0xbb86122f	-0.004091523
28	0x3e360422	0.17775014
29	0xbde9ab0b	-0.11409577
30	0xbd937863	-0.07200696
31	0xbe30acf0	-0.1725347
32	0xbe3da107	-0.18518458
33	0xbe10a705	-0.14126213
34	0xbd8414c8	-0.06449276
35	0xbbb0b537	-0.0053926962
36	0xbe00b1d7	-0.1256784
37	0x3d95b679	0.073101945
38	0x3d19dcf2	0.037564225
39	0xbd0e76b8	-0.034781188
40	0xbd005716	-0.03133305
41	0xbd001013	-0.03126533
42	0x3cb5fe5d	0.022216016
43	0xbdb85887	-0.0900126
44	0xbe03fdf4	-0.12889844
45	0xbc28995e	-0.010290472
46	0x3b536249	0.0032254627
47	0x3dfc4868	0.12318498
48	0xbd2fd4bd	-0.042927492
49	0x3d0d1e72	0.034452863
50	0xbe3cb414	-0.1842807
51	0xbdc7c82c	-0.09754977
52	0x3e7b486d	0.24539347
53	0x3d008b6a	0.031382956
54	0x3d2b9111	0.041886393
55	0x3e2e831b	0.170422
56	0xbbeaecff	-0.0071693654
57	0xbceebeaf	-0.02914366
58	0xbc7f3564	-0.015576694
59	0xbd9bfbd2	-0.0761639
60	0xbdd020af	-0.10162484
61	0xbc6251c8	-0.0138134435
62	0xbd2db49c	-0.04240857
63	0xbe0567a8	-0.13027823
64	0xbd8a86e4	-0.067640096
65	0x3e6a7e77	0.22899805
66	0xbd2dc517	-0.042424288
67	0xbda81c50	-0.08208525
68	0x3e82569c	0.25456703
69	0xbcc42dca	-0.023947615
70	0xbb5f6dde	-0.0034092586
71	0x3e53a762	0.2066932
72	0xbc1399d9	-0.009008848
73	0x3e4fbc19	0.20286597
74	0xbe6deb68	-0.23234332
75	0x3d223d92	0.0396095
76	0x3cc6a845	0.024250159
77	0x3e08718c	0.13324565
78	0xbe3b58e4	-0.18295628
79	0xbe7b388b	-0.24533288
80	0x3de88036	0.11352579
81	0xbe1b21e1	-0.15149643
82	0xbcf66893	-0.030079162
83	0x3cf4a4c8	0.02986373
84	0x3d2a9032	0.04164142
85	0xbe2e3e49	-0.17015947
86	0xbe2acc49	-0.16679491
87	0xbd953770	-0.072859645
88	0xbd9d34ab	-0.07676061
89	0xbda5b5fe	-0.08091353
90	0xbdd8088a	-0.10548504
91	0xbda12a11	-0.07869352
92	0xbe884fef	-0.26623484
93	0x3bf812a2	0.0075705806
94	0xbd83e947	-0.064409785
95	0x3e434af6	0.19071564
96	0xbd0854e0	-0.033284068
97	0x3dabfcf1	0.08397854
98	0xbbc09225	-0.005876797
99	0x3d8f688d	0.07002363
100	0x3e359c88	0.17735493
101	0xbe51c1af	-0.2048404
102	0xbe1f8c02	-0.15580752
103	0x3d9aa4d8	0.07550973
104	0x3eb32245	0.34987083
105	0xbd1c6150	-0.038178742
106	0xbdbeab1c	-0.0930998
107	0x3e178528	0.14796889
108	0xbd03194e	-0.032006554
109	0xbe1cc5f5	-0.1530989
110	0x3d26339f	0.040576573
111	0xbcccdcb2	-0.02500758
112	0x3e1d1c7c	0.15342897
113	0x3b16f66c	0.0023035062
114	0xbdbe7a63	-0.09300687
115	0x3e278707	0.16360103
116	0x3d4da4b1	0.05020589
117	0x3e08b3f9	0.13349904
118	0xbb46fdc0	-0.003036365
119	0x3e219b98	0.1578201
120	0xbdb9b36f	-0.09067427
121	0xbd83c3ed	-0.06433854
122	0x3e5cea27	0.21573697
123	0xbe6c4b6c	-0.23075646
124	0x3dad95d0	0.0847584
125	0x3cbd2f9e	0.023093995
126	0x3c9dae69	0.019248204
127	0xbcb039a2	-0.021511856
128	0xbc1e7aa6	-0.009672796
129	0xbe0c2e30	-0.13689494
130	0xbc8044f6	-0.015657883
131	0xbed6f7e4	-0.41986
132	0x3e4c3498	0.19941938
133	0x3b9a03a1	0.0047001396
134	0xbe5cf729	-0.21578659
135	0xbe5385b1	-0.20656468
136	0xbe0e5b45	-0.13902004
137	0x3d7d950a	0.061909713
138	0xbb17763e	-0.002311125
139	0xbd84c306	-0.0648251
140	0xbde19c9d	-0.110162
141	0x3af11a7c	0.0018394734
142	0xbcbcf4d1	-0.023065956
143	0xbe036d1c	-0.1283459
144	0xbc0a9dc2	-0.008460464
145	0xba87b13c	-0.0010352503
146	0xbe4e5663	-0.20150141
147	0x3dc3204a	0.09527643
148	0x3d2494cd	0.04018097
149	0x3dad61b9	0.08465905
150	0x3e022019	0.12707557
151	0xbd15183d	-0.03640007
152	0x3d34e094	0.044159487
153	0xbcda3b75	-0.02663968
154	0xbcc19ff8	-0.02363585
155	0x3df320ff	0.11871528
156	0xbe0a3e46	-0.13500318
157	0x3dad22eb	0.08453926
158	0xbe12ed45	-0.14348324
159	0xbda0aed9	-0.078458495
160	0x3d08e869	0.03342477
161	0xbe6cec56	-0.2313703
162	0x3d44141a	0.047870733
163	0x3d0888de	0.03333365
164	0xbe2bbdb7	-0.16771589
165	0xbea1aaf9	-0.31575754
166	0xbdfabf6f	-0.12243544
167	0x3e49827c	0.19678682
168	0xbe48f303	-0.19623952
169	0xbd79990e	-0.06093698
170	0x3d06eb66	0.032939337
171	0xbd9d7fa5	-0.07690362
172	0xbd69d0da	-0.057083942
173	0xbe133f5a	-0.14379635
174	0xbd09a7fb	-0.033607464
175	0xbd0925b5	-0.033483226
176	0xbe70b460	-0.23506308
177	0xbe8f1d5b	-0.27952084
178	0x3daab1c4	0.08334687
179	0xbdaf0b8e	-0.08547126
180	0xbe40545a	-0.18782178
181	0x3ea0ab71	0.313808
182	0xbe8b59c1	-0.27216914
183	0xbd99e25b	-0.07513877
184	0xbe6505be	-0.22365472
185	0xbcfdc336	-0.030976873
186	0xbcc7ad5f	-0.024374662
187	0xbea719e5	-0.32636943
188	0xbdcda4ba	-0.10041185
189	0x3e66801d	0.22509809
190	0xbd973637	-0.073833875
191	0x3d951593	0.072795056
192	0xbdc5fc29	-0.09667236
193	0xbe1685f9	-0.14699544
194	0x3e06e9f9	0.13175191
195	0x3aebba40	0.0017984584
196	0xbe1dff61	-0.1542945
197	0xbe2dac52	-0.16960266
198	0xbdf348b7	-0.11879104
199	0xbda6a81b	-0.08137532
200	0x3da6e933	0.08149948
201	0xbd99a262	-0.07501675
202	0xbcf7f602	-0.030268673
203	0x3e0542c7	0.13013755
204	0xbe17bdb3	-0.14818458
205	0x3c708a1f	0.014681368
206	0x3e825b9c	0.25460517
207	0x3cb9b36e	0.022668567
208	0x3de58e04	0.11208728
209	0xbe8c5f59	-0.27416494
210	0x3d471dba	0.048612334
211	0xbd982a10	-0.07429898
212	0xbb8310fd	-0.003999828
213	0xbe1d3d90	-0.15355515
214	0xbe031620	-0.12801409
215	0xbe4e207a	-0.20129576
216	0xbd104316	-0.035220228
217	0xbe62e783	-0.22158627
218	0xbde7f298	-0.11325568
219	0xbcbfde57	-0.02342145
220	0xbd4afe01	-0.049558643
221	0x3e5fb2f6	0.21845612
222	0xbd43e5b8	-0.0478265
223	0x3ec60365	0.38674465
224	0xbe18959f	-0.14900826
225	0xbe98eca0	-0.2986803
226	0x3dd7f6ec	0.105451435
227	0x3ca69e5e	0.020339187
228	0xbde9420e	-0.11389552
229	0x3bf4929c	0.0074637663
230	0x3dd3cc36	0.103416845
231	0xbd8bef0f	-0.06832706
232	0x3ab1a2e1	0.001355257
233	0xbe40b33c	-0.18818372
234	0xbe84124e	-0.25795215
235	0xbd6b68cd	-0.057472993
236	0xbce7a534	-0.028277017
237	0x3e2f8d66	0.17143783
238	0x3d2f5b14	0.04281147
239	0xbdaedc20	-0.08538079
240	0x3ea328c3	0.31867036
241	0x3dd8ffbe	0.10595654
242	0x3996a392	0.000287321
243	0x3e46c5ae	0.19411346
244	0xbe790c02	-0.24320987
245	0x3deb426d	0.11487279
246	0x3d34ad5b	0.044110637
247	0x3d9f1fc8	0.07769734
248	0xbd8defa8	-0.069304764
249	0xbde8fe64	-0.11376646
250	0xbd97e587	-0.07416826
251	0xbe33eb6f	-0.1757028
252	0xbdf455b5	-0.1193041
253	0x3e3561d8	0.17713106
254	0xbd0249d3	-0.031808686
255	0x3d090f4c	0.033461854

a2c_network.actor_mlp.2.bias f4 [128]
0	0xbdfde48a	-0.12397106
1	0xbd3d0c7e	-0.04615449
2	0xbd7d6b5b	-0.06186996
3	0xbe0784b9	-0.13234223
4	0xbdeba801	-0.115066536
5	0xbdba8df6	-0.09109108
6	0xbe2c1db8	-0.16808212
7	0xbe10e442	-0.14149573
8	0x3e148fdc	0.14508003
9	0xbdb2b6b2	-0.087262526
10	0x3dd9af20	0.106291056
11	0xbc0b5ae5	-0.008505558
12	0xbe0f61ae	-0.14002106
13	0xbde75b5c	-0.11296722
14	0xbe09a6bb	-0.13442509
15	0xbd904b0a	-0.070455626
16	0xbe43ac15	-0.19108613
17	0x3e000544	0.12502009
18	0xbdab8ebd	-0.083768345
19	0xbddb6104	-0.10711864
20	0xbd7a1fc2	-0.061065443
21	0xbdfbb810	-0.122909665
22	0x3c1b4926	0.009477889
23	0xbd87d908	-0.06633192
24	0x3d52ce22	0.051466115
25	0xbdc064b8	-0.093942106
26	0x3d1ddccd	0.03854065
27	0xbe337428	-0.17524779
28	0xbe38fc84	-0.18065077
29	0xbdda2c77	-0.10653012
30	0xbdd9acd4	-0.106286675
31	0xbde7ba9f	-0.11314892
32	0xbda86174	-0.08221713
33	0x3dbc8954	0.09205881
34	0x3cc5ad02	0.024130348
35	0xbd13bc4f	-0.036068257
36	0xbdd01b91	-0.10161508
37	0xbdace03b	-0.08441206
38	0x3d0f7eed	0.035033155
39	0xbd20e35c	-0.039279327
40	0xbc1df95b	-0.0096419705
41	0xbd93545b	-0.07193824
42	0xbd32342e	-0.043506794
43	0xbe8e7887	-0.2782633
44	0x3e1fb355	0.15595753
45	0x3dd36175	0.10321323
46	0x3db29710	0.08720219
47	0x3e4bac4f	0.1988995
48	0xbe56f876	-0.20993218
49	0xbdff04ed	-0.124521114
50	0xbe6254a1	-0.22102596
51	0xbd899c4e	-0.06719266
52	0x3c3f7f87	0.01168812
53	0xbe4d5947	-0.20053588
54	0x3dbb463f	0.09144258
55	0xbd9861ac	-0.074405044
56	0xbe2293be	-0.15876672
57	0xbe36fffd	-0.1787109
58	0x3caf61b3	0.021408891
59	0xbd42ab22	-0.047526486
60	0xbe3e47ec	-0.18582124
61	0xbcd3990a	-0.02582981
62	0xbd3743d9	-0.04474244
63	0x3e056617	0.13027225
64	0x3d4cc20d	0.04998975
65	0xbd826b06	-0.06368069
66	0x3d3bec3c	0.045879588
67	0xbd6211c1	-0.055192713
68	0xbcca99af	-0.024731485
69	0xbd947910	-0.07249653
70	0xbe1008cf	-0.1406586
71	0xbd929780	-0.071578026
72	0xbca55e8e	-0.020186689
73	0x3cad911e	0.021187361
74	0xbe12860f	-0.14308952
75	0x3d5165aa	0.051122345
76	0xbd572015	-0.05252083
77	0x3c9db092	0.019249234
78	0xbcb3cc3d	-0.021947974
79	0xbdf0c6ec	-0.11756691
80	0xbdb3ff7b	-0.087889634
81	0xbe427c35	-0.18992694
82	0xbe8565ef	-0.26054332
83	0xbc604255	-0.01368769
84	0xbdb21fa1	-0.08697439
85	0xbe54c974	-0.20779973
86	0xbd875edc	-0.0660989
87	0xbd4ee391	-0.050509993
88	0x3e0041ce	0.12525102
89	0x3b87bb3c	0.004142193
90	0xbe1bbe93	-0.15209417
91	0x3c7afad8	0.015318595
92	0x3c5ecc37	0.013598493
93	0xbd48d55c	-0.0490316
94	0xbe8686ec	-0.26274812
95	0x3e30dcc8	0.17271721
96	0x3e0a39f8	0.13498676
97	0x3dcd13b8	0.10013527
98	0xbddf7015	-0.1091005
99	0x3dc5b32f	0.09653317
100	0xbdcada85	-0.099049605
101	0x3d534e6a	0.051588453
102	0xbda016ed	-0.07816873
103	0x3cbf8c75	0.023382405
104	0x3d4c0cb2	0.049816795
105	0x3e152908	0.14566433
106	0xbe6ba7e8	-0.2301327
107	0xbe20a734	-0.15688783
108	0xbdbd471e	-0.0924208
109	0xbb985660	-0.0046489686
110	0x3d09fef7	0.03369042
111	0x3daa5b13	0.08318152
112	0xbe33c4e9	-0.17555584
113	0x3c2f99f4	0.010717858
114	0xbe8c4e62	-0.2740355
115	0xbd660d88	-0.05616525
116	0x3cbfdebf	0.023421643
117	0x3e36bc20	0.17845201
118	0xbd23d27e	-0.039995663
119	0xbbb6aeef	-0.005575053
120	0x3dd7765d	0.10520623
121	0x3d9d8562	0.076914564
122	0xbe168766	-0.14700088
123	0x3e2db997	0.16965328
124	0xbdc35c91	-0.0953914
125	0xbe6953cc	-0.22785872
126	0x3d90f157	0.07077282
127	0x3da57ed9	0.08080835

a2c_network.actor_mlp.4.weight f4 [128, 128]
0	0x3db658f6	0.08903687
1	0xbd860972	-0.0654477
2	0xbd0a120f	-0.03370863
3	0x3d5d1635	0.053976256
4	0x3cd6b334	0.026208498
5	0xbe060024	-0.13085991
6	0xbd4df0fc	-0.05027865
7	0x3da6497e	0.08119486
8	0xbd984eeb	-0.074369274
9	0xbcdfd805	-0.027324686
10	0x3cb9bba6	0.022672486
11	0xbd58cff8	-0.05293271
12	0xbb98ea51	-0.0046666046
13	0x3c8a05d5	0.016848484
14	0xbc99cae1	-0.018773498
15	0xbe1ed230	-0.15509868
16	0x3b3198c3	0.002709911
17	0xbb01135c	-0.0019695377
18	0xbd1be65b	-0.03806148
19	0xbda285d5	-0.07935683
20	0x3ca5c711	0.020236524
21	0x3d5b8d01	0.05360127
22	0xbd709ccf	-0.058743294
23	0x3cdce1be	0.026963111
24	0xbe23fb4c	-0.16013831
25	0x3cada5a4	0.021197148
26	0x3dfc0196	0.1230499
27	0xbe1cca76	-0.15311608
28	0x3a412880	0.00073684007
29	0xbe01b87f	-0.12668036
30	0xbcda568a	-0.026652593
31	0x3dcec3a5	0.1009591
32	0x3d8335c6	0.06406741
33	0xbd2af4f4	-0.04173751
34	0xbd2c7176	-0.042100392
35	0x3c93f428	0.018060759
36	0x3bafbfb0	0.005363427
37	0x3c19608a	0.009361396
38	0xbb244fa1	-0.0025071877
39	0xbdb61f86	-0.08892731
40	0xbd9798b5	-0.074021734
41	0xbbe831a5	-0.007085996
42	0xbd2c0ae5	-0.042002577
43	0xbdb22dec	-0.08700165
44	0x3dd171ec	0.10226807
45	0xbd8e47cd	-0.06947289
46	0xbd88a669	-0.06672365
47	0x3da40af2	0.080099
48	0x3de1ba3f	0.11021852
49	0xbd990995	-0.07472531
50	0xbd792fe0	-0.060836673
51	0xbcfa4814	-0.030551948
52	0xbcd7c1d3	-0.02633754
53	0x3b3831ee	0.0028105932
54	0xbdcd0f9b	-0.10012742
55	0x3dba5871	0.090989
56	0xbda75738	-0.081709325
57	0x3e0408e7	0.12894021
58	0xbd1076a1	-0.035269383
59	0xbbcab262	-0.0061858157
60	0x3d1fbae9	0.03899661
61	0x3ccb09a3	0.024784869
62	0x3d61feab	0.05517451
63	0x3db7d205	0.08975605
64	0xbc7e7d96	-0.015532872
65	0x3e338a77	0.17533289
66	0xbdba2eb9	-0.09090943
67	0xbdcf987c	-0.10136506
68	0x3dbc8119	0.09204311
69	0x3d414063	0.047180545
70	0x3e15bb62	0.14622262
71	0x3dd015d0	0.101604104
72	0x3c0ca542	0.008584322
73	0x3d462195	0.04837187
74	0x3ddddf37	0.108335905
75	0xbd82e8ad	-0.06392036
76	0xbd1469cf	-0.03623372
77	0x3db0d0d8	0.08633584
78	0xbc023214	-0.00794651
79	0x3cae8525	0.021303723
80	0x3d15f09c	0.036606416
81	0xbc21ba41	-0.009871067
82	0x3cbcf0a2	0.023063961
83	0x3d720b68	0.05909291
84	0x3cb1b166	0.021691035
85	0xbd9c814c	-0.07641849
86	0xbde97049	-0.1139837
87	0x3cfc4f09	0.030799406
88	0xbd9524bc	-0.07282397
89	0xbdd1576e	-0.10221754
90	0x3d4cc922	0.049996503
91	0xbced8361	-0.02899331
92	0x3dc512e6	0.09622745
93	0x3c36310c	0.011120092
94	0xbca60442	-0.020265702
95	0x3ceb5052	0.028724823
96	0x3d446532	0.04794807
97	0xbe278a47	-0.16361342
98	0xbd3f3bd6	-0.046687923
99	0xbb7c18df	-0.0038466973
100	0xbda79aad	-0.08183799
101	0x3ca79451	0.020456465
102	0xbda45816	-0.080246136
103	0xbdcb8916	-0.099382564
104	0x3daad77b	0.08341881
105	0x3c50c1fc	0.012741562
106	0xbe0b9055	-0.13629277
107	0xbd6baf37	-0.057540145
108	0x3cd48ae0	0.025945127
109	0xbe2fc6aa	-0.17165628
110	0xbce87425	-0.028375695
111	0xbdc93635	-0.09824792
112	0x3d91a1a3	0.07110908
113	0x3bcc9519	0.0062433598
114	0xbdf50ce1	-0.11965347
115	0xbdc3f889	-0.09568889
116	0xbdcc8b50	-0.09987509
117	0xbe085a91	-0.13315798
118	0x3dcb559a	0.099284366
119	0x3d2bf3f9	0.041980717
120	0x3c509a3c	0.012732085
121	0xbd07fe4f	-0.033201512
122	0x3d06baf1	0.032893125
123	0x3ce6bef0	0.028167218
124	0xbc17b49d	-0.00925937
125	0xbd222aff	-0.039591786
126	0xbba1e409	-0.004940514
127	0xbdfb776d	-0.12278638
128	0xbe04bd76	-0.12962899
129	0xbd78f169	-0.0607771
130	0xbdafe2f4	-0.0858821
131	0x3c5a39a1	0.013319404
132	0xbd264cab	-0.04060046
133	0xbe16f6a1	-0.14742519
134	0x3ae4f509	0.0017468046
135	0x3dc2be75	0.09508983
136	0xbdde6221	-0.1085856
137	0xbe4cef8e	-0.20013258
138	0xbd8498c5	-0.06474451
139	0x3e38e88e	0.18057463
140	0xbdfea11f	-0.12433075
141	0xbd3c5b26	-0.045985363
142	0x3dec783c	0.115463704
143	0x3d6ae429	0.057346497
144	0xbda8fc1d	-0.08251212
145	0xbd00d242	-0.031450517
146	0xbde87ee3	-0.11352327
147	0x3da2224f	0.079167
148	0xbea76800	-0.32696533
149	0xbdb8744a	-0.090065554
150	0x3c86d13d	0.016457194
151	0xbc8d7b03	-0.01727057
152	0xbd7beeb9	-0.06150696
153	0xbd6537da	-0.055961467
154	0xbd6d8fb1	-0.057998363
155	0xbca2a35b	-0.019853285
156	0xbd0aa06e	-0.033844404
157	0x3d7e96a0	0.062155366
158	0xbd465a72	-0.0484261
159	0x3d796407	0.06088641
160	0xbe984a90	-0.29744387
161	0xbe1310f1	-0.14361931
162	0xbe89112d	-0.26770917
163	0x3ce232da	0.027612139
164	0xbe0bcc23	-0.1365209
165	0x3e2124b7	0.15736662
166	0xbe1d19fe	-0.15341946
167	0xbde7ef2a	-0.11324914
168	0xbdb20644	-0.08692601
169	0xbd6489ea	-0.055795588
170	0xbd456882	-0.04819537
171	0x3d4e892f	0.050423797
172	0x3d06766f	0.03282779
173	0xbd332139	-0.043732855
174	0xbd7a3ec8	-0.06109503
175	0xbd07a5ed	-0.033117224
176	0x3ce2c218	0.027680442
177	0xbd5afa31	-0.053461257
178	0x3dea7518	0.11448115
179	0x3c5b2791	0.013376133
180	0xbca8e6f9	-0.020617949
181	0x3e040b43	0.12894921
182	0xbd4af592	-0.0495506
183	0xbda5d1c7	-0.080966525
184	0xbe39a49a	-0.18129197
185	0x3cb98393	0.022645747
186	0x3d514452	0.051090546
187	0xbe34df44	-0.17663294
188	0xbd73e15c	-0.05954109
189	0x3e0de549	0.13856997
190	0x3d2c349d	0.042042363
191	0xbdcbfa01	-0.09959794
192	0xbe027a60	-0.12741995
193	0xbd447136	-0.04795953
194	0xbe3901de	-0.18067119
195	0x3dfd74b3	0.12375774
196	0xbd7dd875	-0.061974008
197	0x3d3eee0a	0.04661373
198	0xbd18e8fd	-0.03733157
199	0xbd63c7d9	-0.05561051
200	0xbca72103	-0.020401483
201	0xbe5f7609	-0.2182237
202	0x3e18f2a9	0.14936318
203	0x3da0f8b8	0.07859939
204	0x3e38bd89	0.18041052
205	0xbe2dec9b	-0.16984789
206	0x3c8b06c2	0.016970996
207	0x3e085e79	0.13317288
208	0x3dcf79d8	0.10130662
209	0x3de2bc3f	0.11071061
210	0x3dc2c1c5	0.09509615
211	0xbe3a6bb2	-0.18205145
212	0x3e4195a0	0.18904734
213	0x3e9bc635	0.30424657
214	0x3df6ccb5	0.120507635
215	0x3e0c19db	0.13681738
216	0x3de31792	0.1108848
217	0x3e7e7f88	0.24853337
218	0x3ccd185a	0.025036026
219	0xbde5ed3a	-0.11226888
220	0xbe0a0688	-0.13479054
221	0xbd44dd69	-0.048062716
222	0x3e1a9571	0.1509607
223	0xbd4b09e3	-0.049569976
224	0xbe01e336	-0.1268433
225	0xbe331ee1	-0.17492248
226	0x3c4793c7	0.012181229
227	0x3dd91ef0	0.10601604
228	0x3e23804c	0.1596691
229	0xbd653e19	-0.055967424
230	0x3d7713aa	0.060321487
231	0xbd993144	-0.074801
232	0xbde69e79	-0.11260695
233	0xbd90f302	-0.070776
234	0xbc5a5bbd	-0.013327536
235	0xbdf1b125	-0.11801366
236	0xbe125dbb	-0.14293568
237	0xbd851894	-0.064988285
238	0xbe0d68c3	-0.13809495
239	0xbc1ee72e	-0.009698672
240	0xbe418417	-0.18898045
241	0x3e26751c	0.16255611
242	0x3db83117	0.08993738
243	0x3de440e4	0.111451894
244	0xbe0b85bc	-0.13625234
245	0x3cbd65a2	0.023119751
246	0x3e3e3418	0.1857456
247	0x3c3b17ff	0.011419295
248	0xbe3234b5	-0.17402919
249	0xbd759742	-0.059958704
250	0xbe555c19	-0.20835914
251	0xbdb23132	-0.087007895
252	0x3bea1d91	0.007144638
253	0x3dc55ec2	0.09637214
254	0xbe6271c7	-0.22113715
255	0x3e18006d	0.14843912

a2c_network.actor_mlp.4.bias f4 [128]
0	0x3ddb2212	0.10699858
1	0xbe39c5e7	-0.181419
2	0xbd021314	-0.031756476
3	0x3dcc7a0d	0.09984217
4	0x3cdfde5b	0.027327707
5	0xbd1af7c7	-0.037833955
6	0x3d103c89	0.03521398
7	0xbe0489f2	-0.12943247
8	0xbe901bd7	-0.2814624
9	0xbe42a9d2	-0.19010094
10	0xbd51d9fe	-0.051233284
11	0xbcfdde94	-0.030989923
12	0x3cd0e1b2	0.025498245
13	0xbe323f4a	-0.17406955
14	0xbbec69d1	-0.0072147627
15	0x3d95f57b	0.07322212
16	0x3d2c789d	0.042107213
17	0x3cc39585	0.023875007
18	0x3d6d5c3b	0.057949286
19	0xbe1ef08e	-0.15521452
20	0xbdd1400d	-0.10217295
21	0xbe9862f9	-0.2976301
22	0xbde3587e	-0.11100863
23	0xbdcff3ed	-0.10153947
24	0x3d81fd0f	0.06347095
25	0xbdf77841	-0.120834835
26	0xbd00a358	-0.031405777
27	0x3d815be4	0.06316355
28	0xbd0f8fb1	-0.035049144
29	0xbde6a85d	-0.112625815
30	0xbdaf8314	-0.08569923
31	0xbe773779	-0.24142255
32	0xbd85ca93	-0.065327786
33	0x3d4facb7	0.050701823
34	0xbdce53c7	-0.10074573
35	0xbd29f5cd	-0.04149418
36	0xbe084699	-0.13308181
37	0xbdc2ce5b	-0.095120154
38	0xbe0c6547	-0.13710509
39	0x3dd92a09	0.10603721
40	0xbe72d9c5	-0.23715885
41	0xba595544	-0.00082905986
42	0xbe3a09a2	-0.18167737
43	0x3cb8531b	0.022500565
44	0xbd11fa70	-0.035639226
45	0xbd0db5b9	-0.034597132
46	0x3d23a450	0.039951622
47	0x3d67ba38	0.056574076
48	0xbd13ee80	-0.036116123
49	0xbdf98fb6	-0.12185614
50	0x3db0b453	0.08628144
51	0x3dc32f90	0.09530556
52	0xbdacc50e	-0.08436023
53	0x3dcd8b58	0.10036343
54	0xbd9b34b7	-0.07578414
55	0x3d6f043c	0.058353648
56	0xbe175beb	-0.14781158
57	0xbe1fc4c8	-0.1560241
58	0x36cc3405	6.0857296e-06
59	0xbdd323e7	-0.10309582
60	0x3c6140b0	0.013748333
61	0xbe368506	-0.17824182
62	0x3d8ba02b	0.06817659
63	0xbe152b0b	-0.14567201
64	0x3e0666c7	0.13125144
65	0xbd9e1688	-0.07719141
66	0xbcc8cdbc	-0.024512164
67	0xbe6c412b	-0.23071735
68	0x3d048131	0.03234977
69	0x3ca3d4ee	0.019998994
70	0xbe6d6078	-0.23181331
71	0x3dbbb76b	0.091658436
72	0x3d6d9f7b	0.05801342
73	0x3db83bc4	0.089957744
74	0x3df15326	0.117834374
75	0xbe5da8cc	-0.21646422
76	0xbde6d3eb	-0.11270889
77	0xbe553668	-0.20821536
78	0x3d8cba11	0.06871427
79	0xbdae6617	-0.08515566
80	0xbd84788c	-0.06468305
81	0xbe3bea7c	-0.18351167
82	0xbdac74b5	-0.084206976
83	0x3db6e112	0.089296475
84	0xbe6a9f34	-0.22912294
85	0xbe6a4765	-0.22878797
86	0x3ca8a9a7	0.020588709
87	0xbdcb7a0a	-0.099353865
88	0x3db25fb3	0.087096594
89	0x3da4cdda	0.080470756
90	0x3d837123	0.064180635
91	0x3ce95e24	0.028487273
92	0xbe725623	-0.23665671
93	0x3d9c6354	0.07636133
94	0x3d077532	0.03307075
95	0x3d8a6015	0.067566074
96	0x3d30a849	0.04312924
97	0xbe4d91bd	-0.20075126
98	0x3e0c4ea5	0.13701876
99	0xbe275036	-0.16339192
100	0xbe4e5b95	-0.20152123
101	0xbb8b0435	-0.004242445
102	0x3d19cab8	0.037546843
103	0xbdd29f2b	-0.10284265
104	0xbe301ee6	-0.17199287
105	0xbe107f1b	-0.14110987
106	0xbe351c41	-0.1768656
107	0x3d819ff9	0.063293405
108	0xbc829960	-0.015942276
109	0xbe3a9026	-0.18219051
110	0xbe534954	-0.20633441
111	0x3de609d0	0.1123234
112	0x3cd1babd	0.025601739
113	0x3dc63293	0.09677615
114	0xbe19e1a6	-0.15027484
115	0x3d7ab87e	0.0612111
116	0x3d8b7517	0.068094425
117	0xbe3aa7a0	-0.18228006
118	0xbe0984ec	-0.13429612
119	0x3e229794	0.15878135
120	0xbe6197e1	-0.22030593
121	0xbd68c9f2	-0.056833215
122	0x3c8c4548	0.01712288
123	0x3e08919f	0.133368
124	0x3d9625b5	0.07331411
125	0xbddc36de	-0.107526526
126	0xbc9e182d	-0.019298637
127	0xbe3b646e	-0.1830003

a2c_network.value.weight f4 [1, 128]
0	0x3c8a57a8	0.0168875
1	0x3c03b8f6	0.008039704
2	0xbd4b0767	-0.049567606
3	0x3ca1cd7a	0.0197513
4	0x3ab429d4	0.0013745376
5	0x3ab6c7e2	0.0013945068
6	0x3c9449e1	0.018101634
7	0x3bb808ec	0.005616298
8	0xbe4203cc	-0.18946761
9	0xbce15f9b	-0.027511409
10	0x3d00fbb8	0.031490058
11	0xbd46f379	-0.048572037
12	0x3d39a248	0.04532078
13	0x3cc1809b	0.023620894
14	0x3b74d1e0	0.003735654
15	0xbb603982	-0.0034213965
16	0x3c26407e	0.010147212
17	0x3c066e19	0.00820496
18	0xbc86a7f3	-0.016437506
19	0xb9638a19	-0.00021699852
20	0x3cf7e76a	0.030261714
21	0xbe83c025	-0.25732532
22	0x3bc4e1bb	0.0060083545
23	0x3d14b4f5	0.036305387
24	0xbd0041e0	-0.031312823
25	0xbbae0505	-0.005310657
26	0x3b5f5683	0.0034078665
27	0xbc8d4903	-0.017246729
28	0xbceb7791	-0.028743537
29	0xbb0b3791	-0.0021242837
30	0x3d698a58	0.0570167
31	0xbe0ef6ba	-0.13961306
32	0x3ce2aaae	0.027669277
33	0x3b1298a6	0.0022368818
34	0x3a8f8557	0.0010949773
35	0x3c773692	0.015088694
36	0x3c88b651	0.016688498
37	0xbc6eaad6	-0.014567098
38	0xbcedaf6c	-0.029014312
39	0x3c116dea	0.008876303
40	0xbc18e028	-0.009330787
41	0x3a70a470	0.00091797765
42	0xbd2589cf	-0.040414628
43	0x3c516699	0.012780809
44	0xbce4b577	-0.02791856
45	0xbc8e8b53	-0.01740042
46	0xba7329ed	-0.0009275962
47	0xbd9bf3ad	-0.07614837
48	0xbc9aefbf	-0.018913148
49	0xbc9166b7	-0.017749174
50	0x3be892ff	0.0070976014
51	0xbafb19fd	-0.0019157525
52	0xbc60069f	-0.013673454
53	0xbc87dbf3	-0.016584372
54	0xbc4502c7	-0.012024588
55	0xbb8d1870	-0.0043058917
56	0x3cbf9bc8	0.023389712
57	0xbd8d9b09	-0.06914336
58	0x3d0e0d20	0.034680486
59	0xbd082f21	-0.03324807
60	0x3c34bd9d	0.011031535
61	0x3b32de2f	0.0027293076
62	0x3b802635	0.0039108046
63	0x3c4b716d	0.0124171795
64	0x3d9aca22	0.07558085
65	0x3d01644e	0.0315898
66	0x39baeb45	0.00035651974
67	0xbdc77e4f	-0.09740888
68	0xbb64caae	-0.0034910846
69	0xbcc22f0a	-0.02370407
70	0x3b19b47e	0.002345353
71	0xbc89a03b	-0.016800037
72	0x3c5a8415	0.013337155
73	0x3d678286	0.05652096
74	0x3a1d29b3	0.00059952884
75	0xbda4bfd6	-0.08044402
76	0x3c32ebae	0.010920448
77	0xbde6faf2	-0.11278333
78	0x3cb7fac9	0.02245845
79	0xbb84772c	-0.0040425267
80	0xb76aa2a3	-1.3985354e-05
81	0xbccd0a5e	-0.025029358
82	0xbca17b46	-0.019712102
83	0x3ba351f2	0.004984134
84	0xbab1fcdb	-0.0013579385
85	0x3c641ca2	0.013922842
86	0x3c886e87	0.016654266
87	0xbc94634e	-0.018113758
88	0x3beed09b	0.0072880513
89	0x3bb05665	0.005381393
90	0x3c2828e7	0.010263658
91	0xbc222a6b	-0.009897809
92	0xbe5d267f	-0.21596716
93	0x3ba513ac	0.0050377455
94	0x3cdda516	0.027056258
95	0x3cd2e60d	0.025744462
96	0xbcfcb4f6	-0.030848008
97	0xbbe334e6	-0.006933796
98	0x3d3d2351	0.04617626
99	0xbc0cb3dd	-0.008587805
100	0x3b743e11	0.003726844
101	0xbbf00ee2	-0.007325993
102	0x3c8894fe	0.016672608
103	0xbd401949	-0.046899114
104	0xbc9d5684	-0.019206293
105	0xba5643de	-0.0008173565
106	0xbc891534	-0.016733743
107	0x3c736dc6	0.014857715
108	0xbbbad8e7	-0.0057021263
109	0x3d5fe7d7	0.05466446
110	0x3d816b6f	0.063193195
111	0x3ad4839f	0.0016213543
112	0xbbd81585	-0.006594362
113	0xbc8f224e	-0.017472412
114	0x3c179613	0.009252089
115	0xbc71b91a	-0.014753604
116	0x3d0c1df9	0.03420827
117	0xbc576b67	-0.013148165
118	0x3ba7a965	0.005116629
119	0x3cf28a5d	0.029606992
120	0xbdf38507	-0.11890607
121	0xba17a294	-0.0005784419
122	0x3c64652d	0.013940138
123	0x3d0300f3	0.031983327
124	0x3c87a80c	0.016559623
125	0x3c76efae	0.0150717925
126	0xbc3b7ca1	-0.011443288
127	0x3bcc3d61	0.006232903

a2c_network.mu.weight f4 [18, 128]
0	0x3ddb186b	0.10698017
1	0xbd20bb00	-0.039240837
2	0x3e2dc8d8	0.16971147
3	0x3d0933d1	0.03349668
4	0x3bdafdb2	0.006683075
5	0xbc45a901	-0.012064219
6	0x3d6a749f	0.057240125
7	0x3d370356	0.044680916
8	0x3b9a130f	0.004701979
9	0xbcbda4ff	-0.023149965
10	0xbe063c5f	-0.13108967
11	0x3d0282ab	0.031862896
12	0x3d5002e7	0.050784018
13	0xbcc55987	-0.024090542
14	0xbdbd64b8	-0.09247726
15	0xbdd255a6	-0.102702424
16	0x3bfab05f	0.0076504196
17	0xbe0e4bd7	-0.13896118
18	0xbe0709f6	-0.13187394
19	0xbe7c4c17	-0.24638401
20	0xbd1f32fc	-0.038866982
21	0xbdb60ac9	-0.08888776
22	0x3d54c0c2	0.05194164
23	0x3c4572f4	0.012051333
24	0x3d185d49	0.03719834
25	0xbdb3f235	-0.08786432
26	0xbdaec8b4	-0.08534375
27	0xbda588aa	-0.08082707
28	0x3d25bf0e	0.040465407
29	0xba8e4158	-0.0010853214
30	0x3d08cba1	0.03339732
31	0xbd18cc40	-0.037304163
32	0x3d67ac91	0.056561057
33	0xbb923d2b	-0.004462858
34	0xbcba012a	-0.022705633
35	0x3c7840e2	0.015152188
36	0x3dcc17a3	0.09965446
37	0xbd5005a1	-0.05078662
38	0xbde96e83	-0.113980316
39	0xbde0aaef	-0.10970103
40	0x3e673e20	0.22582293
41	0x3db079bc	0.08616969
42	0xbe23bedb	-0.15990774
43	0xbe56b2ea	-0.20966688
44	0x3dd21e70	0.10259712
45	0xbe099ba4	-0.13438278
46	0x3ceb4d2b	0.02872332
47	0xbd2f0192	-0.042726107
48	0xbd2c43ec	-0.042056963
49	0x3d925514	0.071451336
50	0x3e55a79b	0.20864718
51	0xbcca1e4f	-0.024672655
52	0xbcc6d855	-0.024273077
53	0xbe51a937	-0.20474707
54	0x3db36c5f	0.087609045
55	0x3dc41632	0.09574546
56	0xbdba3c73	-0.09093561
57	0x3d3e8cc4	0.046520963
58	0x3d87d53f	0.0663247
59	0x3d8b5026	0.068023965
60	0x3c830719	0.015994595
61	0x3e2172cb	0.15766446
62	0x3e026d7f	0.12737082
63	0xbcac08c4	-0.021000274
64	0xbcda2529	-0.026629047
65	0xbe000d04	-0.12504965
66	0x3e6cdd48	0.23131287
67	0x3d3dfe32	0.046384998
68	0x3e050a92	0.12992314
69	0x3d19e174	0.037568524
70	0xbba12135	-0.0049172887
71	0x3cdb264e	0.026751664
72	0xbdab5a46	-0.08366828
73	0x3c663ddd	0.014052835
74	0x3d7b9d3c	0.061429247
75	0x3dd50c07	0.10402685
76	0xbb81c48e	-0.0039601987
77	0xbdae6953	-0.08516183
78	0x3cc02844	0.0234567
79	0xbd00593c	-0.0313351
80	0xbdb79d0c	-0.08965501
81	0xbaa78f16	-0.0012783732
82	0x3e38e37d	0.1805553
83	0xbcc277ce	-0.023738768
84	0x3e697f6c	0.22802514
85	0x3e14d6b5	0.14535029
86	0xb792d4ce	-1.7503651e-05
87	0x3cbcbb56	0.023038547
88	0xbd670363	-0.056399714
89	0xbbcfb097	-0.00633819
90	0xbe318133	-0.17334442
91	0x3cb86cbe	0.02251279
92	0xbcc40030	-0.02392587
93	0x3d2cb089	0.042160545
94	0xbdbc2372	-0.09186448
95	0x3d0ceed7	0.034407463
96	0x3d37ff68	0.04492131
97	0x3d9058c0	0.07048178
98	0xbe144cb7	-0.1448239
99	0xbc6365b7	-0.013879231
100	0xbd8584c1	-0.065194614
101	0x3dd4f439	0.10398144
102	0x3e331544	0.17488581
103	0xbcc82267	-0.024430467
104	0x3ca23bf2	0.019803975
105	0x3dbf995c	0.09355423
106	0xbce7e38e	-0.028306749
107	0xbe1e90d5	-0.15484937
108	0x3d73558e	0.059407763
109	0xbdc877d0	-0.097884774
110	0xbd8711cb	-0.065951906
111	0xbde9725f	-0.11398768
112	0xbcd70bbb	-0.02625071
113	0xbd72246c	-0.059116766
114	0xbd61c1d1	-0.05511648
115	0x3d8893c0	0.06668806
116	0xbdb53fc7	-0.08850055
117	0xbd51fdd0	-0.051267445
118	0xbe34f08a	-0.17669883
119	0x3db4c8b2	0.08827342
120	0x3d5c2ec9	0.053755555
121	0xbe253fec	-0.16137666
122	0xbc0acc43	-0.008471551
123	0xbd232c07	-0.03983691
124	0x3d678edc	0.056532726
125	0xbda03830	-0.07823217
126	0x3d56721d	0.05235492
127	0xbaded019	-0.0016999274
128	0xbd7e8b8a	-0.062144794
129	0xbb56c20f	-0.0032769477
130	0xbc7a9a31	-0.015295551
131	0x3dba7a9a	0.09105416
132	0xbc1473ad	-0.009060782
133	0xbc812ae7	-0.015767528
134	0x3d6b3da7	0.057431843
135	0x3d044839	0.03229544
136	0x3d345375	0.044024903
137	0xbd9342e3	-0.07190492
138	0x3ca9d9a5	0.020733664
139	0x3c1e4649	0.009660312
140	0xbdf4e8cf	-0.11958467
141	0x3c35ee10	0.011104122
142	0xbbcb52cc	-0.0062049385
143	0xbc277395	-0.010220428
144	0x3da37324	0.07980946
145	0x3dc5a19f	0.096499674
146	0x3d4feb0f	0.05076128
147	0x3ca13cbc	0.01968228
148	0xbca0b74e	-0.019618656
149	0xbd4a8815	-0.049446184
150	0x3d636455	0.055515606
151	0xbc0b2680	-0.008493066
152	0xbdec7d89	-0.115473814
153	0xbe0f6203	-0.14002232
154	0x3d80e813	0.06294265
155	0xbc8df8af	-0.017330496
156	0xbdd6a356	-0.104803726
157	0xbdd6284e	-0.10456906
158	0xbd8887bf	-0.066665165
159	0xbc956bf7	-0.018239958
160	0x3ca495b5	0.020090917
161	0xbc8014f6	-0.015634995
162	0xbe5c7ed6	-0.21532759
163	0xbd1db427	-0.038501885
164	0x3d165b91	0.03670842
165	0xbd9736bc	-0.07383487
166	0x3dbf0400	0.09326935
167	0xbc8fcc1f	-0.017553387
168	0x3db88958	0.09010571
169	0xbd9332fa	-0.071874574
170	0x3d94e9e9	0.07271177
171	0x3e143966	0.14475021
172	0xbb899146	-0.004198226
173	0x3cac2cb2	0.021017406
174	0xbca72f91	-0.020408424
175	0xbde46ee0	-0.1115396
176	0xbaafd949	-0.0013416196
177	0xbcac2514	-0.021013774
178	0x3b9c01c6	0.0047609536
179	0xbdb9793e	-0.09056328
180	0xbc087833	-0.008329439
181	0xbc8c1bcb	-0.017103096
182	0xbe2647a1	-0.16238262
183	0x3d687f83	0.05676223
184	0xbcbad097	-0.022804542
185	0xbcde37f7	-0.027126295
186	0xbd5cac04	-0.053874984
187	0x3b82db25	0.003993409
188	0x3da91456	0.08255832
189	0x3df6c34f	0.12048971
190	0x3c260728	0.010133542
191	0xbd88de1e	-0.066829905
192	0x3d1a5ce1	0.037686232
193	0xbc7b3dc8	-0.015334554
194	0x3d49ef32	0.04930038
195	0x3cc13495	0.023584643
196	0x3d8150d9	0.063142486
197	0x3d75dcb5	0.060024936
198	0x3d659ec5	0.056059618
199	0xbd8c263c	-0.0684323
200	0xbd503859	-0.050834987
201	0xbdbf5b49	-0.09343583
202	0x3d822111	0.06353963
203	0x3d845d42	0.064631
204	0xbda68e99	-0.08132667
205	0xbcc2adec	-0.023764573
206	0x3dc98b19	0.09840984
207	0xbdc3d8bf	-0.095628254
208	0x3e2ae6e1	0.16689636
209	0x3dc57d52	0.096430436
210	0xbe23e24c	-0.16004294
211	0x3e1d3380	0.15351677
212	0x3d60e345	0.05490424
213	0xbe293be9	-0.1652676
214	0xbd97bc24	-0.07408932
215	0xbd93225c	-0.07184288
216	0x3d8c62be	0.06854771
217	0xbd1a9b35	-0.037745673
218	0x3db66706	0.08906369
219	0xbdbbfe45	-0.091793574
220	0xbd42bb7c	-0.04754208
221	0x3d5587cb	0.052131455
222	0x3dce9fc9	0.1008907
223	0xbd7d60c8	-0.061859876
224	0x3dad4e33	0.08462181
225	0xbe7f5baf	-0.24937318
226	0xbd3f2b96	-0.046672426
227	0xbddc5be2	-0.10759713
228	0xbe277142	-0.16351798
229	0xbd0f6051	-0.035003964
230	0x3df5c176	0.1199979
231	0x3d81cefb	0.063383065
232	0x3cd01ec7	0.0254053
233	0x3be0011f	0.006836071
234	0x3c5be3ff	0.013421058
235	0x3e186765	0.14883192
236	0xbe04b754	-0.12960559
237	0xbe103ceb	-0.14085738
238	0x3e09da05	0.13462074
239	0x3db2be76	0.08727734
240	0xbc0d85af	-0.00863783
241	0xbd537d8d	-0.051633406
242	0x3bb67534	0.005568171
243	0x3d6b211b	0.05740462
244	0x3d46b66e	0.048513822
245	0x3d993c2f	0.07482182
246	0xbdc3bf31	-0.09557951
247	0xbcf6b709	-0.030116575
248	0x3d4fd613	0.050741266
249	0xbd071e38	-0.032987803
250	0x3dcfa383	0.10138609
251	0xbdf958b3	-0.12175121
252	0xbcade436	-0.021226984
253	0x3a9bcc8b	0.001188652
254	0x3d224166	0.03961315
255	0x3bc67bd5	0.0060572424

a2c_network.mu.bias f4 [18]
0	0xbcb5e227	-0.022202564
1	0xbc1d73d4	-0.009610135
2	0xba2ff16a	-0.0006711694
3	0x3ced5955	0.02897326
4	0x3d0aac95	0.033855993
5	0xbd2f3c2c	-0.042781994
6	0x3d315fc8	0.043304235
7	0x3c800b25	0.015630314
8	0x3cd16276	0.025559645
9	0xbc4cace2	-0.01249239
10	0xbcf17bea	-0.029478032
11	0x3de68de4	0.11257532
12	0xbbe3b1a2	-0.0069486657
13	0xbcc9366b	-0.024562081
14	0x3d103010	0.035202086
15	0xbc42133a	-0.011845404
16	0x3d111a0a	0.035425223
17	0x3d0569df	0.03257167

exp_avg f4 [18]
0	0xb698e0ce	-4.5561237e-06
1	0x3a97105e	0.0011525264
2	0x3a13806b	0.0005626741
3	0x3a3f7cd9	0.00073046755
4	0x3adb1517	0.0016714659
5	0x3a280667	0.00064096454
6	0x39e7569b	0.0004412428
7	0xb98bbc42	-0.0002665241
8	0x3a2fecc9	0.0006711004
9	0xba9e991d	-0.0012100075
10	0xb9c88f92	-0.0003825394
11	0xb9bf51ea	-0.0003649139
12	0xb98031c5	-0.00024451144
13	0x3a7ed545	0.00097211107
14	0x3aa3d304	0.0012498801
15	0x3a2c80c1	0.0006580465
16	0x39b28de7	0.0003405653
17	0x3a236775	0.0006233373

exp_avg_sq f4 [18]
0	0x3859b315	5.1903615e-05
1	0x3866efcd	5.5059605e-05
2	0x385af6e7	5.2205196e-05
3	0x387da4de	6.0473445e-05
4	0x3842a102	4.6403155e-05
5	0x385e461f	5.299423e-05
6	0x38543164	5.0590737e-05
7	0x38603ec3	5.3464213e-05
8	0x38546dea	5.0647104e-05
9	0x385b2aeb	5.225364e-05
10	0x3865e8fa	5.481483e-05
11	0x3838af9a	4.403256e-05
12	0x385c1ba2	5.2477822e-05
13	0x384b9c1a	4.8544352e-05
14	0x38524ea1	5.014113e-05
15	0x385e4c3d	5.2999927e-05
16	0x3840b41e	4.5944114e-05
17	0x384b233c	4.8431786e-05

exp_avg f4 [128, 66]
0	0xb71eb966	-9.4607e-06
1	0x39732e0b	0.00023191438
2	0xb7b43cb3	-2.1485937e-05
3	0x394d22af	0.00019563244
4	0xb983566e	-0.00025050662
5	0xb9235b13	-0.00015578819
6	0xb5194821	-5.7101903e-07
7	0xb735bd08	-1.0832453e-05
8	0xb9c1d550	-0.0003697076
9	0x3917f9dc	0.00014493562
10	0x398d2de1	0.00026927798
11	0xb9088141	-0.00013018122
12	0xb6b30a16	-5.33579e-06
13	0xb7b0b142	-2.1063377e-05
14	0xb60949d8	-2.0457574e-06
15	0xb81eba29	-3.784351e-05
16	0x37932415	1.7540568e-05
17	0xb8619dad	-5.3791027e-05
18	0x381d66ed	3.7527574e-05
19	0x37b56597	2.1624188e-05
20	0x37b27a37	2.1276164e-05
21	0x387bf345	6.0069626e-05
22	0x389bf1fd	7.43605e-05
23	0x389c4acf	7.452594e-05
24	0xb7fba02b	-2.9996116e-05
25	0x375317bc	1.2582106e-05
26	0x3684420c	3.9415954e-06
27	0x38a0db6e	7.6702665e-05
28	0x3811582e	3.4652818e-05
29	0xb78819b7	-1.6224438e-05
30	0x388153d1	6.166811e-05
31	0xb9a11e92	-0.0003073109
32	0x3a7f6af5	0.0009743416
33	0xb8e2189e	-0.00010781105
34	0x398dc214	0.00027038215
35	0xb98952e3	-0.00026192432
36	0x375f95f3	1.3326749e-05
37	0xba2108c5	-0.00061429694
38	0x38b43015	8.592025e-05
39	0x38525104	5.0143353e-05
40	0x3a937dcf	0.0011252704
41	0x3b0946db	0.0020946774
42	0x39c19320	0.00036921445
43	0x3a9410ef	0.001129655
44	0xb87cc1a3	-6.026182e-05
45	0x3a48f703	0.0007666202
46	0xba4c3ec1	-0.00077913335
47	0xb7a2fd9f	-1.9430006e-05
48	0xb8c6a036	-9.471217e-05
49	0xb83ce6af	-4.5037534e-05
50	0x399f0fd8	0.00030338648
51	0xb9b15434	-0.00033822807
52	0xb82c811f	-4.112825e-05
53	0xb9ee7125	-0.00045479197
54	0x397f2844	0.00024333695
55	0xb8b9cd2b	-8.859703e-05
56	0xb9344fea	-0.00017195908
57	0x36b88775	5.4993966e-06
58	0x39357eba	0.00017308714
59	0x3a832bb3	0.001000753
60	0xb95e24d7	-0.00021185294
61	0x3985853d	0.00025467007
62	0xb88e6201	-6.789342e-05
63	0x39ea13a4	0.0004464659
64	0x38d53365	0.000101662044
65	0xb9984602	-0.0002904386
66	0xb819d5c6	-3.6677135e-05
67	0xb935e3d9	-0.00017346385
68	0xb7adba6a	-2.0710013e-05
69	0xba1830e6	-0.0005805626
70	0xb97bc8ef	-0.00024012079
71	0xb95450fb	-0.00020248063
72	0x37a819f8	2.0039253e-05
73	0x35a3ccc2	1.2204039e-06
74	0xba37df5c	-0.0007014179
75	0xb837c29b	-4.381184e-05
76	0xb9869fbb	-0.0002567748
77	0x3735e3ec	1.0841508e-05
78	0xb8103740	-3.438373e-05
79	0xb8142599	-3.5320965e-05
80	0x38192367	3.6511014e-05
81	0x37ac8639	2.05665e-05
82	0xb86c8ac3	-5.6396017e-05
83	0x37dc5fb1	2.6270603e-05
84	0x38b0452c	8.405218e-05
85	0x38c49f7d	9.375715e-05
86	0x38a38876	7.7978635e-05
87	0x38b45cd0	8.6003565e-05
88	0x3811bef8	3.4748547e-05
89	0x37deac78	2.6544774e-05
90	0x3796b687	1.796639e-05
91	0x386910e6	5.5567267e-05
92	0xb8baef33	-8.9137255e-05
93	0xb798603a	-1.8164621e-05
94	0xb74d9b5b	-1.2255124e-05
95	0x38050e07	3.1722735e-05
96	0xbaee9c2e	-0.0018204504
97	0x39b9785a	0.0003537562
98	0x39c9c227	0.00038482362
99	0xba964a37	-0.001146621
100	0xb95589af	-0.00020364554
101	0x3a68411b	0.0008859799
102	0xba3dc770	-0.00072394963
103	0xbaadfb94	-0.0013273829
104	0xb9dbf287	-0.00041951632
105	0x3b273333	0.0025512695
106	0x3a8f174c	0.0010916977
107	0xbad71d47	-0.0016411924
108	0xb9db7507	-0.00041858127
109	0xba8e2a4d	-0.0010846347
110	0x3b21c339	0.0024683012
111	0xbac5c7d9	-0.0015089466
112	0x3afc2a28	0.0019238638
113	0x3a4134f4	0.00073702564
114	0xba3f76b9	-0.0007303763
115	0xb952489b	-0.00020054208
116	0x39705ded	0.00022923174
117	0xb84a7c80	-4.8276503e-05
118	0xb975acc9	-0.00023429388
119	0x3a102cb0	0.0005499823
120	0x39881f05	0.00025963053
121	0xb9dc36d3	-0.00042002517
122	0x3a11b949	0.00055589207
123	0x3aa2bcec	0.0012415922
124	0xb971c4e1	-0.00023056894
125	0xba8d4505	-0.0010778016
126	0xb8045a63	-3.155543e-05
127	0xb882e25b	-6.241045e-05
128	0xb9c33e7e	-0.0003723986
129	0xb9b99955	-0.0003540019
130	0xb8332392	-4.2710053e-05
131	0x3a54af06	0.0008113239
132	0x39200066	0.00015258937
133	0xb90380df	-0.00012541142
134	0x362a66b0	2.5391746e-06
135	0x394bb9cd	0.00019428805
136	0x392015bb	0.00015266884
137	0xb98db5a4	-0.00027028949
138	0xb72c3451	-1.026418e-05
139	0xb6cb592b	-6.060252e-06
140	0x3a359a72	0.0006927616
141	0x39dc4307	0.0004201161
142	0xb848bfad	-4.7862228e-05
143	0xb84a231b	-4.8193247e-05
144	0x3835c7ab	4.3339718e-05
145	0xb78431ef	-1.5758878e-05
146	0xb782b701	-1.5582425e-05
147	0xb7e07cc4	-2.676098e-05
148	0xb8180e0d	-3.625271e-05
149	0x3812a1d5	3.495983e-05
150	0xb8e51474	-0.000109233806
151	0xb8e29de5	-0.0001080593
152	0xb8c36d31	-9.318663e-05
153	0xb89b5a0e	-7.40775e-05
154	0xb886cca9	-6.427739e-05
155	0xb84ad789	-4.8361286e-05
156	0x38057f9f	3.1828527e-05
157	0x38321a03	4.2462732e-05
158	0x381e5b42	3.7755126e-05
159	0xb86bd3c9	-5.6225606e-05
160	0x37d8299a	2.5768579e-05
161	0xb7ba1d5f	-2.2186605e-05
162	0x3b1ef0c4	0.0024252394
163	0xba74d21e	-0.0009339171
164	0xb9c04fba	-0.00036680495
165	0x387e4377	6.062115e-05
166	0x39c4031f	0.0003738636
167	0xb9a18089	-0.0003080408
168	0xb8581f6f	-5.1527688e-05
169	0xba0c320f	-0.00053480355
170	0x395aac24	0.00020854227
171	0xb99abb6f	-0.00029512818
172	0xba170b27	-0.00057618547
173	0x39ee3285	0.00045432537
174	0x3ad8fba8	0.0016554492
175	0x3b0dd71c	0.0021643108
176	0x3a453a87	0.0007523675
177	0x3a26cc93	0.00063628814
178	0xb594cd38	-1.1086586e-06
179	0x3a8559d8	0.001017387
180	0x3a4e33ab	0.00078659755
181	0xb9d8415f	-0.00041247436
182	0xb91289d2	-0.00013974987
183	0xb8e16f87	-0.0001074961
184	0xb8851b14	-6.346978e-05
185	0x37ef4a8a	2.852573e-05
186	0xb91376c1	-0.00014063252
187	0xb9d49737	-0.00040548455
188	0xb9bbd0cd	-0.00035822988
189	0xb9b139bf	-0.00033803095
190	0xb9724461	-0.00023104392
191	0xb90974bf	-0.0001310883
192	0x3a0fab1b	0.0005480514
193	0x38f6632b	0.000117486656
194	0x3861ba68	5.3817785e-05
195	0x3887bb51	6.472192e-05
196	0xb90603b7	-0.0001278062
197	0x39ac8740	0.00032907166
198	0xb693a7c0	-4.40047e-06
199	0x39016ecb	0.00012343672
200	0xb787dc5a	-1.6195863e-05
201	0x39bb9e32	0.00035785284
202	0x39187adb	0.00014541617
203	0xba1d0747	-0.0005990159
204	0x3621fe75	2.4138983e-06
205	0xb76ec948	-1.423277e-05
206	0xb9a1e4e5	-0.00030878853
207	0xb8bd5e0f	-9.029742e-05
208	0x3746cdb9	1.1849618e-05
209	0xb999e4d7	-0.00029352933
210	0xb8692db3	-5.559409e-05
211	0xb7ee242b	-2.8388653e-05
212	0x37dbf9a2	2.6223079e-05
213	0x35e88414	1.7323787e-06
214	0xb8344013	-4.2975018e-05
215	0xb6ed902f	-7.0799356e-06
216	0x38200aa2	3.8156875e-05
217	0x380dd3bf	3.3814224e-05
218	0x3680619e	3.8260614e-06
219	0x37d4b142	2.5354911e-05
220	0x351050c2	5.37617e-07
221	0x38271f6f	3.9845178e-05
222	0x3860ab5f	5.3565363e-05
223	0x38225e7b	3.87118e-05
224	0xb89aa0d0	-7.373246e-05
225	0x38929b3c	6.990737e-05
226	0xb8ad6126	-8.267378e-05
227	0xb7ace052	-2.0608455e-05
228	0x38c73a2b	9.499894e-05
229	0x3b0237c4	0.0019869665
230	0xba255cdc	-0.00063080876
231	0x3ad284ec	0.0016061342
232	0xb9b618a1	-0.00034732095
233	0xb96831e9	-0.00022143837
234	0xb9de9a22	-0.00042457978
235	0xba114494	-0.000554153
236	0xba8036c0	-0.0009781942
237	0xba06da47	-0.000514422
238	0x3a1401ad	0.00056460017
239	0x3940c134	0.0001838252
240	0x39e73a4b	0.00044103185
241	0xb9c32c22	-0.0003722618
242	0xba48abe9	-0.0007655011
243	0x380b586d	3.3222535e-05
244	0xb9ef4720	-0.00045638625
245	0x389c9f93	7.468383e-05
246	0xb99d228d	-0.00029971116
247	0x39a078b2	0.00030607503
248	0xb9b58444	-0.00034621556
249	0x39dc4c84	0.00042018679
250	0xb9ccfe47	-0.00039099363
251	0xb880620e	-6.12178e-05
252	0x39b5f520	0.00034705643
253	0x391fe44f	0.00015248473
254	0xb8a1d174	-7.716092e-05
255	0xb8a4c021	-7.855916e-05
