logs/rl_games/hexapod_flat_direct/2025-11-15_08-58-23/nn/last_hexapod_flat_direct_ep_1250_rew_48.926342.pth (torch, 545998 bytes, 33 tensors)

value_mean_std.running_mean f8 [1]
0	0x4005a8a4b4fbd65b	2.7073454036097195

value_mean_std.running_var f8 [1]
0	0x3fd041e34b2365aa	0.25402147615167314

value_mean_std.count f8 []
0	0x41bd4c0001000000	491520001.0

a2c_network.sigma f4 [18]
0	0xbf7d7f52	-0.990224
1	0xbfaec482	-1.365372
2	0xbfcabd7f	-1.583908
3	0xbfe6ac58	-1.8021345
4	0xbfca7030	-1.5815487
5	0xbf7c6847	-0.98596615
6	0xbf6bcc01	-0.9210816
7	0xbf5430b9	-0.82886845
8	0xbf93bf5f	-1.1542777
9	0xbf8429ed	-1.0325295
10	0xbf6742a2	-0.9033605
11	0xbf850ba4	-1.0394177
12	0xbdc5a37f	-0.09650325
13	0xbee1c1aa	-0.44093066
14	0xbeaf3f21	-0.3422785
15	0xbe55e6f1	-0.20888878
16	0xbe6208a6	-0.22073612
17	0xbe422d44	-0.1896258

a2c_network.actor_mlp.0.weight f4 [128, 66]
0	0xbe53ec4a	-0.20695606
1	0xbd932501	-0.07184792
2	0x3f1a0836	0.6016878
3	0xbe3e3012	-0.18573025
4	0xbd84b0a5	-0.06479005
5	0x3d62756d	0.055287767
6	0x3e8957df	0.26824853
7	0x3ded7744	0.11595014
8	0xbea38d25	-0.31943622
9	0xbf05cf18	-0.52269125
10	0xbe249226	-0.16071376
11	0x3cfb1139	0.03064786
12	0x3dbfcdd7	0.09365433
13	0xbe0179d0	-0.12644124
14	0xbe8e4482	-0.27786642
15	0xbe98c743	-0.29839525
16	0x3e96fd67	0.29490206
17	0xbdf8c918	-0.121477306
18	0x3c345df9	0.011008733
19	0xbde9a359	-0.11408109
20	0x3d598fc6	0.05311563
21	0xbc4a554a	-0.012349436
22	0xbe18dbb3	-0.14927559
23	0x3d91cc02	0.071189895
24	0xbd201a9d	-0.03908788
25	0x3c7a05ac	0.015260141
26	0x3e12cb76	0.14335427
27	0x3bbc3769	0.00574391
28	0x3c4bf01f	0.012447386
29	0xbe5f4945	-0.21805294
30	0x3da8b0e0	0.08236861
31	0x3c173c9f	0.009230762
32	0x3d0a5c4b	0.033779424
33	0xbd026ba8	-0.03184095
34	0xbd30b919	-0.043145273
35	0x3dad2e69	0.08456118
36	0xbda64f03	-0.08120539
37	0xbe160436	-0.14650044
38	0x3d5abc70	0.053402364
39	0xbdaf3dcf	-0.08556711
40	0xbd62957b	-0.055318337
41	0x3d0ad714	0.03389652
42	0xbd7b5710	-0.061362326
43	0x3caf63ed	0.021409953
44	0x3d36241f	0.04446804
45	0x3d003a59	0.031305645
46	0x3d0b2e58	0.033979744
47	0x3a7edd27	0.00097222853
48	0xbe205ff8	-0.15661609
49	0xbdac99cd	-0.08427773
50	0xbd1f9c92	-0.038967676
51	0xbd85ffc3	-0.06542923
52	0xbd031602	-0.03200341
53	0xbd871b25	-0.06596974
54	0xbe385c38	-0.18003929
55	0xbe082ece	-0.13299105
56	0xbccfd3ba	-0.025369514
57	0xbd7627d4	-0.060096577
58	0xbe14c4e1	-0.14528228
59	0x3d2998cc	0.041405484
60	0x3c497043	0.012294832
61	0x3d7da431	0.061924163
62	0x3e28d15a	0.16486111
63	0x3da3b8ca	0.0799423
64	0x3cb40f9b	0.021980098
65	0x3d61201f	0.054962274
66	0x3e540ae8	0.20707285
67	0xbed9e628	-0.42558408
68	0xbda74355	-0.081671394
69	0xbdde5cdb	-0.108575545
70	0xbea8fb34	-0.33004153
71	0x3cf09935	0.02936993
72	0xbf0f5188	-0.5598378
73	0x3edacd5b	0.427348
74	0x3e4c1f85	0.19933899
75	0xbe8e6846	-0.2781393
76	0x3f119d7b	0.5688092
77	0xbf16abd2	-0.58855927
78	0xbe4071c6	-0.18793401
79	0x3f023b13	0.5087139
80	0xbd859cdd	-0.0652406
81	0x3f2f6264	0.6850951
82	0x3e162b48	0.14664948
83	0xbdcecbf3	-0.10097494
84	0x3d2d4fe2	0.04231251
85	0xbd8a402a	-0.067505196
86	0xbd3b6980	-0.04575491
87	0xbdbc4d4e	-0.09194432
88	0x3ebfaa0d	0.37434426
89	0x3ba2563f	0.004954129
90	0x3e506e5a	0.20354596
91	0x3d80a424	0.06281307
92	0x3bd686af	0.0065468173
93	0x390f565b	0.00013669713
94	0xbd05e083	-0.032684814
95	0x3dd31c99	0.10308189
96	0xbcbbb3df	-0.022912918
97	0xbe02071a	-0.12698022
98	0x3dca29e3	0.098712705
99	0x3caf84c7	0.021425618
100	0xbd4b1642	-0.049581774
101	0x3da4a599	0.08039398
102	0x3d371a37	0.044702735
103	0x3c209ebb	0.009803469
104	0x3d81a558	0.06330365
105	0xbb1bb074	-0.0023756297
106	0xbd1890c9	-0.037247453
107	0x3d210224	0.039308682
108	0xbcabbd92	-0.020964418
109	0xbb026c47	-0.0019900964
110	0xbd633e49	-0.05547932
111	0x3d8e2e2b	0.069423996
112	0xbc8f526f	-0.017495362
113	0xbcf2882b	-0.029605946
114	0x39c2fe4e	0.00037192035
115	0x3d89105c	0.066925734
116	0x3d1c3e4d	0.038145352
117	0x3b911222	0.0044272104
118	0x3d128b53	0.0357774
119	0x3c57aeae	0.0131642055
120	0x3cf484f1	0.029848548
121	0xbdaaead0	-0.08345568
122	0x3d843d45	0.06456999
123	0x3dcb86a8	0.09937793
124	0xbdb65e01	-0.089046486
125	0x3d6347c7	0.055488374
126	0x3d85d977	0.06535619
127	0x3e086f8b	0.133238
128	0xbce7d1f0	-0.028298348
129	0x3d28a768	0.041175276
130	0xbd8efc17	-0.06981676
131	0x3cf48e5f	0.029853044
132	0xbe88a804	-0.26690686
133	0xbef00f85	-0.4688684
134	0x3efc11b9	0.4923227
135	0xbea4caa1	-0.32185844
136	0x3f1e9fed	0.6196278
137	0x3de97b3d	0.11400459
138	0x3f146dab	0.5797984
139	0xbc2d9ee5	-0.010596965
140	0x3dadcfb1	0.084868796
141	0xbf394ba4	-0.72381043
142	0xbeba5685	-0.36394134
143	0x3e0b357e	0.13594624
144	0x3e24bdc4	0.16088015
145	0x3ed825ac	0.4221624
146	0x3e0ffff5	0.14062484
147	0x3bc14b54	0.0058988724
148	0xbf57c0d2	-0.84278595
149	0x3dbc4b27	0.09194022
150	0xbd88f161	-0.066866644
151	0xbe45cef0	-0.19317222
152	0xbc8345c6	-0.016024482
153	0xbe3f41ff	-0.1867752
154	0xbe2785e2	-0.16359666
155	0xbe84d79a	-0.2594574
156	0x3d0ca797	0.034339514
157	0xbe3bbe20	-0.18334246
158	0xbd71d4a8	-0.059040695
159	0x3d73811c	0.0594493
160	0xbd6ff15c	-0.058579788
161	0x3e4a0fbb	0.19732563
162	0xbda6fc95	-0.08153645
163	0xbd273363	-0.04082049
164	0xbdfcea7f	-0.12349414
165	0x3e0496e6	0.12948188
166	0xbd849157	-0.06473034
167	0xbc6afb73	-0.014342177
168	0x3db54105	0.08850292
169	0x3c7658ed	0.01503585
170	0xbc911229	-0.017708855
171	0xbcd63ed4	-0.026153006
172	0xbd8a2f17	-0.06747263
173	0xbe2195f1	-0.15779854
174	0xbdb44b51	-0.08803428
175	0xbe0084be	-0.12550637
176	0x3d824a5b	0.063618384
177	0xbd74a827	-0.059730675
178	0x3d058bb5	0.032603938
179	0x3c31f9e8	0.010862805
180	0xbd24cf21	-0.040236596
181	0x3e623b17	0.22092853
182	0xbd41fff9	-0.047363255
183	0x3d1321b2	0.035920806
184	0xbea93c76	-0.3305394
185	0xbd7cceee	-0.06172078
186	0xbd6813cd	-0.05665951
187	0xbde283c2	-0.11060287
188	0x3d87ea6b	0.066365086
189	0xbdb50d49	-0.088404246
190	0x3d918e1a	0.07107182
191	0xbf1b38cc	-0.6063354
192	0x3c14a703	0.009073022
193	0xbd2e7423	-0.042591225
194	0x3dfb88b8	0.122819364
195	0x3d623941	0.055230383
196	0xbd158e37	-0.03651258
197	0xbd7665ee	-0.0601558
198	0x3f8d3abc	1.1033549
199	0xbea11a41	-0.31465343
200	0x3f4f1a08	0.80899096
201	0xbe070815	-0.13186677
202	0xbe8a834a	-0.2705329
203	0xbe96aa3b	-0.2942675
204	0xbf0472d4	-0.51737714
205	0x3fe06fe0	1.7534142
206	0xbd6e1d80	-0.058133602
207	0x3f4898f2	0.78358376
208	0x3f238cba	0.63886607
209	0xbe6213d6	-0.2207788
210	0xbf16d685	-0.5892108
211	0x3f16060e	0.5860299
212	0xbe9f3f24	-0.3110286
213	0x3e091ccd	0.13389893
214	0xbefe7333	-0.49697265
215	0x3f4ba456	0.7954763
216	0x3e654111	0.22388102
217	0xbd1a84b3	-0.037724208
218	0xbea7fe48	-0.3281119
219	0x3e1dc2be	0.1540632
220	0x3b76c7d3	0.0037655726
221	0x3d8e2245	0.0694013
222	0xbe263d12	-0.16234234
223	0x3de8f686	0.113751456
224	0x3e1032f6	0.1408194
225	0xbf3fa45e	-0.7486018
226	0xbcb28ede	-0.02179664
227	0xbe3c6cfb	-0.18400948
228	0xbcb126f2	-0.021625016
229	0xbdc6210d	-0.09674273
230	0x3c7cd00f	0.015430464
231	0xbd84c790	-0.06483376
232	0xbd8c478b	-0.06849583
233	0xbdbea0cb	-0.093080126
234	0x3e31822b	0.17334811
235	0x3e2962d3	0.16541605
236	0xbcce8799	-0.025211142
237	0xbb526ce2	-0.0032108356
238	0xbccfc696	-0.025363248
239	0x3b1c060c	0.0023807315
240	0xbcb918b5	-0.022594789
241	0xbd25812b	-0.040406387
242	0xbd1e7e5e	-0.038694732
243	0x3d376e67	0.044783022
244	0x3db1f501	0.08689309
245	0x3d428aa1	0.047495488
246	0xbdf875fa	-0.12131877
247	0x3e3a9cea	0.1822392
248	0x3e4938e5	0.1965061
249	0xbdbf3272	-0.093357936
250	0x3b112b66	0.0022151112
251	0x3e8a13f3	0.26968345
252	0x3d29f71c	0.041495427
253	0x3d13f470	0.036121786
254	0xbe59616c	-0.2122857
255	0x3c2447aa	0.010026852

a2c_network.actor_mlp.0.bias f4 [128]
0	0x3e49f682	0.19722942
1	0xbe1b4c1d	-0.15165754
2	0xbe243a03	-0.16037755
3	0x3e0a1bea	0.13487211
4	0xbdb15b13	-0.08659949
5	0x3e480026	0.19531307
6	0xbe23eaad	-0.1600749
7	0xbdca9cb2	-0.098931685
8	0x3e88a5b4	0.2668892
9	0xbde97f4f	-0.11401235
10	0xbd2d664c	-0.042333886
11	0xbd512143	-0.05105711
12	0x3d87f6ec	0.066388935
13	0x3e09044f	0.1338055
14	0xbe2acce4	-0.16679722
15	0xbcaae426	-0.020860743
16	0x3e482521	0.19545414
17	0x3e28440f	0.16432212
18	0x3c749006	0.014926916
19	0xbd4c2a28	-0.04984489
20	0xbe5acd68	-0.21367419
21	0xbd4c08ec	-0.049813196
22	0xbd1e0129	-0.038575325
23	0x3e10516c	0.1409356
24	0xbe33f5ef	-0.17574285
25	0x3e13fca4	0.14451844
26	0x3d73444a	0.059391297
27	0x3e0c8c5f	0.13725422
28	0x3caa886e	0.020817008
29	0x3da90e70	0.08254707
30	0x3e1366c3	0.14394669
31	0xbd07f1d8	-0.033189625
32	0x3e3e723c	0.18598264
33	0xbd408505	-0.047001857
34	0x3d4ee0c0	0.050507307
35	0x3d5ac8fc	0.05341433
36	0xbc9a1f0e	-0.018813636
37	0x3cc71535	0.024302104
38	0x3d049bef	0.032375272
39	0xbe2d1edc	-0.16906303
40	0xbda26966	-0.079302594
41	0x3e2d2adf	0.16910885
42	0x3d9ba5a2	0.07599951
43	0x3e07d857	0.13266121
44	0x3c5a9723	0.013341698
45	0x3d9355ab	0.07194074
46	0xbd12e121	-0.03585923
47	0x3de38558	0.11109418
48	0xbdf36dc4	-0.118861705
49	0x3dbc18bf	0.091844074
50	0xbd89b339	-0.06723637
51	0x3e09bdf4	0.13451368
52	0x3c387cac	0.011260193
53	0xbd7d786d	-0.061882425
54	0xbd17c637	-0.037054267
55	0xbe011c77	-0.12608515
56	0xbd22e0b7	-0.039765086
57	0x3e447682	0.19185832
58	0x3d9bcf4b	0.07607897
59	0xbdfed190	-0.124423146
60	0x3ded3c1f	0.11583733
61	0xbdb70cb5	-0.089379705
62	0xbe83fc5e	-0.25778478
63	0xbce75b9e	-0.028241929
64	0x3d550587	0.052007224
65	0xbe02be38	-0.12767875
66	0xbdc6cd57	-0.09707134
67	0x3decf61e	0.11570381
68	0xbd8ce712	-0.06880011
69	0x3e86c7c6	0.2632429
70	0x3ceabccb	0.028654477
71	0xbc7a2f7f	-0.015270113
72	0x3e9889c5	0.2979261
73	0xbde19983	-0.11015608
74	0x3dd40e28	0.103542626
75	0x3d29c1a7	0.041444447
76	0xbcd210ef	-0.02564284
77	0xbe2cc5d4	-0.1687234
78	0xbce4faee	-0.027951684
79	0x3d80bf24	0.06286457
80	0xbe6f7131	-0.23383023
81	0xbe25c907	-0.16189967
82	0x3e8966b0	0.26836157
83	0x3e4156ef	0.18880819
84	0xbe81c35a	-0.25344354
85	0xbd08ba1f	-0.033380624
86	0xbe08dab0	-0.13364673
87	0xbe80d1b4	-0.2515999
88	0x3db87891	0.09007371
89	0xbcbe0f93	-0.023200786
90	0x3e974fec	0.29553163
91	0xbd679e89	-0.056547675
92	0x3d4e05a4	0.050298348
93	0xbe179698	-0.1480354
94	0x3df8407d	0.12121675
95	0xbd71f913	-0.059075426
96	0xbc92c1aa	-0.017914612
97	0xbd6010b2	-0.054703422
98	0xbc831f9c	-0.016006283
99	0xbcd138c7	-0.025539769
100	0xbd861bfb	-0.065483056
101	0xbd92f0d6	-0.07174842
102	0xbd918eb7	-0.07107299
103	0xbe24cda5	-0.16094072
104	0xbc53e8f3	-0.012933957
105	0x3e1f9e7f	0.15587805
106	0x3d8e861d	0.06959174
107	0xbe6d0e90	-0.23150086
108	0x3cbb9fe4	0.02290339
109	0x3e749e4e	0.23888513
110	0xbdacddd2	-0.08440746
111	0x3d9b5192	0.07583918
112	0xbe039a77	-0.12851892
113	0xbe04ca77	-0.12967859
114	0x3d866466	0.06562118
115	0xbd88a268	-0.066716015
116	0xbdd27384	-0.10275939
117	0xbd1a10d2	-0.037613697
118	0x3d6e5db8	0.058194846
119	0xbdf7e764	-0.12104681
120	0xbe0d34b9	-0.13789643
121	0xbddacd93	-0.106837414
122	0xbe4b4f42	-0.19854453
123	0x3dd51b8d	0.104056455
124	0x3d828c2e	0.063743934
125	0xbdae14fb	-0.085000955
126	0xbd6b79e6	-0.0574893
127	0xbdbf5476	-0.093422815

a2c_network.actor_mlp.2.weight f4 [128, 128]
0	0xbc7d20a8	-0.01544968
1	0x3e71394b	0.23557012
2	0xbe1f2bc1	-0.15544035
3	0xbc0f80b7	-0.008758715
4	0xbd25767d	-0.040396202
5	0xbe80b4a3	-0.25137815
6	0x3cb4582b	0.022014698
7	0xbd99e422	-0.07514216
8	0xbded69b7	-0.11592429
9	0xbe168101	-0.14697649
10	0xbe312a25	-0.17301233
11	0xbe5a0f3b	-0.21294872
12	0xbe02561b	-0.12728159
13	0x3d53596b	0.051598947
14	0xbe01ed64	-0.12688214
15	0xbe30557e	-0.17220113
16	0xbdc6cccc	-0.09707031
17	0xbe73270d	-0.23745365
18	0x3e40d123	0.1882978
19	0xbeb52a58	-0.35383868
20	0x3e10fb44	0.1415835
21	0xbdbf22c7	-0.09332805
22	0x3dc5eb3a	0.096640065
23	0xbcf341fa	-0.029694546
24	0x3e71923e	0.23590943
25	0xbdc9021e	-0.09814857
26	0xbdde79fe	-0.10863112
27	0x3c862230	0.016373724
28	0x3e5631f6	0.20917496
29	0xbe00a606	-0.12563333
30	0xbdcd6e8a	-0.10030849
31	0x3b976a37	0.004620816
32	0xbe799d87	-0.24376498
33	0xbddcb76c	-0.107771724
34	0xbdb96da6	-0.09054117
35	0xbd2d7d85	-0.042356033
36	0xbe0cd1ec	-0.13751954
37	0x3e2070a4	0.15667969
38	0xbd1d84f3	-0.03845687
39	0xbd842ec0	-0.06454229
40	0xbca6bee5	-0.020354697
41	0x3c10fa02	0.008848669
42	0xbc56eb2c	-0.013117593
43	0xbe3cac8f	-0.18425201
44	0xbe059abf	-0.13047312
45	0x3b6a9ec9	0.003580021
46	0xbd49651e	-0.0491687
47	0x3c89f901	0.016842367
48	0xbd8eb836	-0.06968729
49	0x3bbca86a	0.005757381
50	0xbe512b48	-0.20426667
51	0xbd949d0c	-0.07256517
52	0x3e4ccfc2	0.20001128
53	0x3d840bc7	0.06447559
54	0xbd79e7f4	-0.061012223
55	0x3e2512b8	0.16120422
56	0xbc92f44c	-0.017938755
57	0x3cb6ae1f	0.022299824
58	0xbd2aa603	-0.041662227
59	0xbcc9d577	-0.02463792
60	0xbde20558	-0.110361755
61	0xbd5a2a29	-0.053262863
62	0xbd1765c9	-0.036962304
63	0xbe200dfd	-0.15630336
64	0xbe10394c	-0.14084357
65	0x3e848ffc	0.258911
66	0xbd9912a6	-0.0747426
67	0xbc39f3ef	-0.011349662
68	0x3e85b290	0.26112795
69	0xbcc4c95c	-0.024021797
70	0x3d79d8bc	0.06099771
71	0x3e73d1e1	0.23810531
72	0xbd133952	-0.035943337
73	0x3e42da84	0.1902867
74	0xbe8d151c	-0.27555168
75	0x3d8128f1	0.06306637
76	0xbbad93f9	-0.0052971807
77	0x3e2761ae	0.16345856
78	0xbe09afb4	-0.13445932
79	0xbe7b60d0	-0.2454865
80	0x3dc37db5	0.09545461
81	0xbe1b4a78	-0.15165126
82	0xbd66ba9c	-0.05633031
83	0x3cc2e695	0.02379159
84	0x3c44f86d	0.01202212
85	0xbe314cb7	-0.1731442
86	0xbe4c73f0	-0.19966102
87	0xbd712b1c	-0.058879003
88	0xbe7c8001	-0.24658205
89	0xbd1052d0	-0.035235226
90	0xbdab9817	-0.08378618
91	0xbda5c6c2	-0.08094551
92	0xbe87538e	-0.26430935
93	0xbb52a71a	-0.0032143057
94	0xbd46e81a	-0.048561193
95	0x3e85a6e4	0.2610389
96	0xbd2efc4a	-0.04272107
97	0x3daf9867	0.0857399
98	0xbc9e869b	-0.019351294
99	0x3d8f48b4	0.06996289
100	0x3e2efc1b	0.17088358
101	0xbe5124b9	-0.20424165
102	0xbe03856f	-0.1284387
103	0x3d8a71d3	0.067599915
104	0x3eb94f74	0.3619343
105	0xbd98ff3e	-0.074705586
106	0xbd4c5fff	-0.049896237
107	0x3e34386a	0.17599645
108	0x3ae17807	0.0017201909
109	0xbdf6c320	-0.12048936
110	0x3e0da7e1	0.13833572
111	0x3c367472	0.011136161
112	0x3db485f8	0.08814615
113	0x3b426f60	0.0029668435
114	0xbe06145c	-0.13093704
115	0x3e34b051	0.17645384
116	0x3dd91806	0.10600285
117	0x3dd0dc19	0.1019823
118	0xbcfeceea	-0.031104524
119	0x3e289986	0.16464815
120	0x3cac3a1b	0.0210238
121	0xbd6d3b55	-0.05791791
122	0x3e919183	0.2843133
123	0xbea4f2a6	-0.32216376
124	0x3e0538ce	0.1300995
125	0x3d27ea39	0.040994857
126	0xbc1283fb	-0.008942599
127	0x3b8b3d26	0.004249233
128	0x3d16dde1	0.036832694
129	0xbd491b0a	-0.049098052
130	0x3c192e58	0.009349428
131	0xbec9d7a5	-0.39422336
132	0x3e6b3ff7	0.2297362
133	0xbb81370a	-0.0039433287
134	0xbe8939b5	-0.2680184
135	0xbe58aba1	-0.21159221
136	0xbdd12670	-0.102124095
137	0x3da239e2	0.079211965
138	0x3c6c37d1	0.014417605
139	0xbd2ca3ea	-0.042148508
140	0xbe155bf1	-0.14585854
141	0x3b9df79d	0.0048207776
142	0xba65c8df	-0.0008765589
143	0xbe35aa7d	-0.17740817
144	0xbcc89df1	-0.024489375
145	0x3da4c292	0.08044924
146	0xbe521f48	-0.20519745
147	0x3de1edb5	0.11031667
148	0x3da0ee96	0.07858007
149	0x3db41cc8	0.08794552
150	0x3e0169ad	0.12637968
151	0xbd9a3ff4	-0.07531729
152	0x3d29e196	0.0414749
153	0x3d9a3233	0.07529106
154	0xbb5ce077	-0.0033703127
155	0x3df0cd6c	0.11757931
156	0xbe52dc5d	-0.20591874
157	0x3dc1e2de	0.094670996
158	0xbe040c36	-0.12895283
159	0xbda26237	-0.07928889
160	0x3d348059	0.044067714
161	0xbe85cfda	-0.2613514
162	0x3d50db3a	0.05099032
163	0x3d744419	0.059635255
164	0xbe289f14	-0.16466933
165	0xbeb581c9	-0.3545058
166	0xbe2464d7	-0.16054092
167	0x3e806bd6	0.25082272
168	0xbe361cca	-0.1778442
169	0xbd44e937	-0.048073974
170	0xbc8ae004	-0.016952522
171	0xbd903561	-0.07041431
172	0xbd208cce	-0.03919678
173	0xbe2e4ff0	-0.17022681
174	0xbd5e0c1f	-0.05421078
175	0xbb8fd987	-0.004389945
176	0xbe83ac9b	-0.25717625
177	0xbe50002e	-0.20312569
178	0x3dd141e0	0.10217643
179	0xbd6ffb33	-0.05858917
180	0xbe39b6b7	-0.18136106
181	0x3eac04a7	0.335973
182	0xbe972d3f	-0.29526708
183	0xbd8f7f8b	-0.07006749
184	0xbe591a41	-0.21201421
185	0xbc92a961	-0.017903032
186	0xbd10e1e1	-0.035371665
187	0xbeafab16	-0.34310216
188	0xbe0ced81	-0.13762476
189	0x3e8d65d3	0.27616748
190	0xbd652195	-0.05594023
191	0x3da71b6a	0.08159526
192	0xbdd187b4	-0.102309614
193	0xbe177ff9	-0.14794911
194	0x3e397f09	0.18114866
195	0xbc0169a7	-0.007898725
196	0xbde01372	-0.10941209
197	0xbe4bda85	-0.19907577
198	0xbdc60282	-0.09668447
199	0xbe040f4b	-0.12896459
200	0x3dc64ec7	0.09682994
201	0xbde36033	-0.11102333
202	0xbce5f637	-0.028071506
203	0x3df965ba	0.12177606
204	0xbe141cc7	-0.14464103
205	0xbb6cf865	-0.0036158797
206	0x3e600f13	0.2188075
207	0xbca5c606	-0.020236026
208	0x3e23f3f9	0.16011037
209	0xbe8b1902	-0.27167517
210	0x3d3bee3e	0.045881502
211	0xbc102c86	-0.008799678
212	0xbdb1bd27	-0.08678656
213	0xbdc7628f	-0.097355954
214	0xbdea8cfb	-0.11452671
215	0xbe3c86a7	-0.18410741
216	0xbd3efa99	-0.046625707
217	0xbe8eda72	-0.27901036
218	0xbd9bcae2	-0.07607056
219	0xbce6bb5c	-0.028165512
220	0xbdb3908c	-0.087678045
221	0x3eb0c6e5	0.34526744
222	0x3ba04992	0.0048915828
223	0x3e9b16c3	0.30290803
224	0xbe35435e	-0.1770148
225	0xbea532ac	-0.32265222
226	0x3dc8227b	0.09772202
227	0xbc3e1b4d	-0.011603189
228	0xbe1da1d6	-0.15393767
229	0x3cb2ecfc	0.021841519
230	0x3d75ecf2	0.06004042
231	0xbd8a3743	-0.067488216
232	0x3d158e58	0.036512703
233	0xbe3fa46f	-0.1871507
234	0xbe9d4fe7	-0.30725023
235	0x3d5d29c0	0.053994894
236	0xbd0b8941	-0.034066442
237	0x3e31c584	0.17360502
238	0x3da95dbc	0.082698315
239	0xbc57a366	-0.013161516
240	0x3eb3e314	0.35134184
241	0x3d85fa4a	0.065418795
242	0x3c96ceab	0.018409094
243	0x3e556300	0.20838547
244	0xbe8a59ba	-0.2702158
245	0x3e319a87	0.17344104
246	0x3dd84f76	0.10562031
247	0x3e10968e	0.14119932
248	0xbdb1ab21	-0.086752184
249	0xbe142876	-0.1446856
250	0xbd81b3c2	-0.06333114
251	0xbe25cd9b	-0.16191714
252	0xbe02c404	-0.12770087
253	0x3e5fca22	0.21854451
254	0xbc524002	-0.012832643
255	0x3d9a272c	0.07527003

a2c_network.actor_mlp.2.bias f4 [128]
0	0xbe139596	-0.14412531
1	0xbd13dc98	-0.036099046
2	0xbd8bf8bc	-0.06834552
3	0xbe205de3	-0.15660815
4	0xbe01de3b	-0.1268243
5	0xbdf7cdad	-0.120997764
6	0xbe2dbf5a	-0.16967526
7	0xbe490c38	-0.19633567
8	0x3e17d959	0.14829005
9	0xbdd324f0	-0.1030978
10	0x3e091291	0.13385989
11	0xbacd1a83	-0.001564816
12	0xbe2c4272	-0.16822222
13	0xbe1423d3	-0.14466791
14	0xbde755cb	-0.112956606
15	0xbda5154e	-0.08060704
16	0xbe60265c	-0.21889633
17	0x3e0c12b6	0.13679013
18	0xbda7e7f8	-0.081985414
19	0xbdf5a9e4	-0.11995295
20	0xbdadff58	-0.084959686
21	0xbe06f78f	-0.13180374
22	0xbb9b8c41	-0.004746944
23	0xbda65e1e	-0.0812342
24	0x3da5437b	0.080695115
25	0xbdb7de4a	-0.08977945
26	0x3d037672	0.03209538
27	0xbe4d3cf7	-0.20042787
28	0xbe266747	-0.16250335
29	0xbe09737b	-0.13422959
30	0xbdf36317	-0.11884134
31	0xbde86b11	-0.11348546
32	0xbdd102fa	-0.10205646
33	0x3dd58608	0.10425955
34	0x3c9240aa	0.0178531
35	0xbd6b9fc9	-0.05752543
36	0xbe21be8d	-0.15795346
37	0xbdf37c2b	-0.118889175
38	0x3d4847bb	0.048896533
39	0xbd29ddeb	-0.041471403
40	0xbca4dbc0	-0.020124316
41	0xbdfeefff	-0.12448119
42	0xbd83371e	-0.06406997
43	0xbe99783b	-0.2997454
44	0x3e6b0075	0.22949393
45	0x3dee5863	0.11637952
46	0x3dba5dfe	0.09099959
47	0x3e9a1218	0.3009193
48	0xbe59143b	-0.21199124
49	0xbe2af10c	-0.16693515
50	0xbe7d486d	-0.2473466
51	0xbd65ce3d	-0.056104887
52	0x3c447432	0.011990594
53	0xbe7a7186	-0.24457368
54	0x3dd44627	0.10364943
55	0xbdf48897	-0.11940115
56	0xbe428704	-0.18996817
57	0xbe260878	-0.16214168
58	0x3bf1a437	0.0073743123
59	0xbd7ac956	-0.061227165
60	0xbe3b62e8	-0.18299448
61	0xbd270c3c	-0.040783152
62	0xbcc7e9ba	-0.024403442
63	0x3e0dc34e	0.13844034
64	0x3cfe6001	0.031051638
65	0xbdc18509	-0.094492026
66	0x3d306876	0.04306837
67	0xbd869a7b	-0.065724336
68	0xbd6bafcf	-0.05754071
69	0xbdacdbbe	-0.0844035
70	0xbe08ebda	-0.1337122
71	0xbda07371	-0.07834519
72	0xbce74263	-0.028229898
73	0x3d2f0fe0	0.04273975
74	0xbe2b6265	-0.16736753
75	0x3d0180f0	0.031617105
76	0xbd9a5f51	-0.075377114
77	0x3cbd7644	0.023127683
78	0xbd4b2509	-0.049595866
79	0xbe19187b	-0.14950745
80	0xbdb1f3d6	-0.08689086
81	0xbe5dcc55	-0.21659978
82	0xbe8bcc28	-0.27304196
83	0xbc918b2e	-0.017766561
84	0xbe08e141	-0.13367178
85	0xbe60caea	-0.21952406
86	0xbda64cc2	-0.08120109
87	0xbde56375	-0.112006105
88	0x3e32f4f2	0.17476252
89	0xbc11c6bc	-0.00889748
90	0xbe32bf0b	-0.1745569
91	0x3ccb4ffa	0.02481841
92	0x3a4ef175	0.0007894256
93	0xbd85ad08	-0.06527144
94	0xbe924e2a	-0.2857526
95	0x3e569452	0.20955017
96	0x3e287b06	0.1645318
97	0x3da68d69	0.081324406
98	0xbe058342	-0.13038352
99	0x3db0c2e1	0.0863092
100	0xbdad9282	-0.0847521
101	0x3db170e7	0.086641125
102	0xbde68b09	-0.112569876
103	0x3d2b4514	0.041813925
104	0xbc164abb	-0.009173091
105	0x3e510cb2	0.20414999
106	0xbe83f80f	-0.2577519
107	0xbe34f6ad	-0.17672224
108	0xbd85ff0d	-0.06542788
109	0xbce76932	-0.028248403
110	0x3d163e2e	0.036680393
111	0x3dd692a3	0.104771875
112	0xbe3b83fc	-0.18312067
113	0xbbeea6c9	-0.007283066
114	0xbea42585	-0.32059875
115	0xbd9afc16	-0.07567613
116	0x3d02ce52	0.031935044
117	0x3e8229f1	0.25422624
118	0xbda46f1a	-0.080290034
119	0xbd13b1dc	-0.03605829
120	0x3df67d65	0.12035636
121	0x3de405c9	0.11133916
122	0xbe2f392e	-0.17111656
123	0x3e7a8775	0.24465735
124	0xbdd4d1bd	-0.10391567
125	0xbe7d5aae	-0.24741623
126	0x3dbb6ec6	0.09151988
127	0x3d8c453b	0.06849142

a2c_network.actor_mlp.4.weight f4 [128, 128]
0	0x3db99546	0.09061675
1	0xbd14e9f3	-0.036355924
2	0xbcc683e0	-0.024232805
3	0x3d3b560b	0.045736354
4	0x3d67d117	0.056595888
5	0xbdbdfe63	-0.09277036
6	0xbe03890e	-0.12845251
7	0x3db84e4b	0.08999308
8	0xbd1ce6d2	-0.038306065
9	0xbe164966	-0.14676437
10	0xbd307b0e	-0.043086104
11	0xbe4c7898	-0.19967878
12	0x3caea4d3	0.021318829
13	0xbc923ce5	-0.017851302
14	0xbda8b96f	-0.08238494
15	0xbe18ef99	-0.14935149
16	0xbcdda31c	-0.027055316
17	0x3ba171de	0.004926904
18	0xbd37e329	-0.04489437
19	0xbe24477f	-0.16042899
20	0x3d6bdf3f	0.05758595
21	0x3d8171ab	0.063205086
22	0xbd19e632	-0.037573047
23	0xbda012fc	-0.07816121
24	0xbe20f426	-0.15718135
25	0xbd6411ac	-0.055680916
26	0x3e04698c	0.12930888
27	0xbe927eb7	-0.286123
28	0x3add8421	0.0016900339
29	0xbdeebaab	-0.11656698
30	0xbd0a93d2	-0.03383238
31	0xbc726ed5	-0.014796932
32	0x3d46b16a	0.04850904
33	0xbd9b39de	-0.07579397
34	0xbd5debfb	-0.054180127
35	0x3d74cbf9	0.059764836
36	0xbc14b7ba	-0.009077007
37	0x3c47b550	0.012189224
38	0x3d674821	0.05646527
39	0xbde11f0a	-0.10992248
40	0xbd9cedd0	-0.07662547
41	0xbd57ce09	-0.052686725
42	0xbde9e2c3	-0.114202045
43	0xbdafe226	-0.08588056
44	0x3e20e4b6	0.15712246
45	0xbd7f0f56	-0.062270485
46	0xbe397f50	-0.18114972
47	0x3e158d6a	0.14604726
48	0x3dcab641	0.098980434
49	0xbdd7d2cf	-0.105382554
50	0xbdf562a0	-0.11981702
51	0xbc4f51b1	-0.012653754
52	0xbcf7e1e8	-0.030259088
53	0x3dc7a342	0.09747936
54	0xbde7ad82	-0.11312391
55	0x3d7cf75e	0.061759345
56	0xbe13f382	-0.1444836
57	0x3d19e503	0.03757192
58	0xbd8538fc	-0.065050095
59	0x3cd3423f	0.025788425
60	0xbd299eea	-0.041411318
61	0x3db29a7b	0.08720871
62	0x3dc7402d	0.097290374
63	0x3d39c13e	0.045350306
64	0xbd442161	-0.047883395
65	0x3e4d2f1e	0.20037505
66	0xbe18dd5b	-0.1492819
67	0xbde04262	-0.109501615
68	0x3e0b9996	0.13632807
69	0x3d581142	0.052750833
70	0x3e13f14f	0.1444752
71	0x3da753c2	0.081702724
72	0x3c8dcb8f	0.017308978
73	0xbc34e374	-0.011040557
74	0x3d89614a	0.067080095
75	0xbda629c9	-0.08113439
76	0xbd338c7c	-0.04383515
77	0x3e5b4e1d	0.21416517
78	0xbd03023c	-0.031984553
79	0x3d6272c4	0.05528523
80	0x3d0b2fb7	0.03398105
81	0xbdc2d734	-0.09513703
82	0xbc3b014d	-0.011413884
83	0x3dcaa944	0.09895566
84	0x3db2bf27	0.08727866
85	0xbd729c42	-0.05923105
86	0xbe0a27ba	-0.13491717
87	0xbd640e13	-0.055677485
88	0xbd0f4957	-0.03498205
89	0xbd4ddc37	-0.05025884
90	0x3ce1fb7b	0.027585736
91	0xbd1a1c3d	-0.037624586
92	0x3df9889d	0.1218426
93	0xbd4f81f1	-0.05066103
94	0xbb7596db	-0.003747395
95	0x3d6817d4	0.05666335
96	0x3cf0d5c6	0.02939881
97	0xbe53a94d	-0.20670052
98	0xbd2ba68b	-0.041906875
99	0xbc0e6865	-0.008691882
100	0xbd862ada	-0.06551142
101	0x3daff4c2	0.08591606
102	0xbde037f6	-0.10948174
103	0xbe2b69fc	-0.16739649
104	0x3d8308f1	0.0639819
105	0xbcb821ca	-0.02247705
106	0xbe90e192	-0.28297096
107	0xbe5238e0	-0.20529509
108	0x3d558c88	0.052135974
109	0xbe54fe50	-0.20800138
110	0x3a85f519	0.001022014
111	0xbe5bbf63	-0.21459727
112	0x3daa080c	0.08302316
113	0x3c6eb938	0.014570527
114	0xbe3a37aa	-0.18185297
115	0xbd8b90bb	-0.068147145
116	0xbbaa3bab	-0.0051951013
117	0xbe069573	-0.13142948
118	0x3dc95c68	0.09832078
119	0xbdb265cf	-0.08710825
120	0xbd63c892	-0.0556112
121	0xbd0941aa	-0.033509888
122	0xbcf0dfaf	-0.029403536
123	0xbd263cdf	-0.040585395
124	0x3c9e27eb	0.019306144
125	0x3cc65709	0.024211423
126	0xbd481994	-0.04885252
127	0xbe4404e7	-0.19142495
128	0xbe2eeab0	-0.17081714
129	0xbdb57252	-0.088596955
130	0x3adcb837	0.0016839568
131	0x3d88bc86	0.06676583
132	0xbda5ba08	-0.08092123
133	0xbe230069	-0.15918125
134	0xbcfd6928	-0.030933931
135	0x3dcdd8f9	0.1005115
136	0xbe0c4bb4	-0.13700753
137	0xbe63692f	-0.22208093
138	0xbd7f5a1f	-0.062341806
139	0x3e14db57	0.14536797
140	0xbde0b98f	-0.109728925
141	0xbd70fb47	-0.058833387
142	0x3dd73435	0.105080046
143	0x3daa1468	0.083046734
144	0xbcd0c307	-0.025483621
145	0xbbb6490f	-0.0055629085
146	0xbe36358c	-0.17793864
147	0x3df3bc74	0.11901179
148	0xbe8e34a0	-0.27774525
149	0xbd388982	-0.045053013
150	0x3cbf42ce	0.023347285
151	0x3c99db86	0.018781435
152	0xbd8f9791	-0.07011331
153	0xbd312c8b	-0.04325537
154	0xbd214d71	-0.039380495
155	0x3d83f189	0.064425536
156	0xbd664610	-0.05621916
157	0x3d58513a	0.05281184
158	0xbd82c390	-0.06384957
159	0x3e0bcfed	0.13653536
160	0xbebb5cbd	-0.3659419
161	0xbe6dcdbd	-0.23223014
162	0xbe9959ae	-0.29951233
163	0x3dbf63f7	0.09345239
164	0xbe482303	-0.19544606
165	0x3df1dbc0	0.11809492
166	0xbe5f223b	-0.21790402
167	0xbe3a764f	-0.18209194
168	0x3d2bb60a	0.041921653
169	0x3d740385	0.05957367
170	0xbca3f828	-0.020015791
171	0x3dd98677	0.1062135
172	0xbba6ffe5	-0.005096423
173	0xbd1b0cf6	-0.037854157
174	0xbdac5232	-0.08414115
175	0xbd575fb6	-0.05258151
176	0x3d9ea0e9	0.07745535
177	0x3a9406db	0.0011293547
178	0x3d98ca74	0.0746049
179	0x3d89773f	0.067121975
180	0xbd62b590	-0.055348933
181	0x3e2cf6ca	0.16891018
182	0xbda46be5	-0.08028392
183	0xbdb3e6c0	-0.087842464
184	0xbe0492a7	-0.12946568
185	0xbd02e4f1	-0.031956617
186	0x3d06cc46	0.032909654
187	0xbe328ec9	-0.1743728
188	0xbdb9bdfb	-0.09069439
189	0x3db5d97f	0.08879375
190	0x3d314354	0.0432771
191	0xbd94c68a	-0.07264431
192	0xbe1f68dd	-0.15567346
193	0xbc0250aa	-0.007953802
194	0xbe4aa413	-0.19789152
195	0x3ce59acd	0.028027916
196	0xbd9a85cb	-0.0754505
197	0xbc490cd6	-0.012271127
198	0xbc8249cd	-0.015904332
199	0xbc879271	-0.01654932
200	0xbd42d935	-0.047570426
201	0xbe50721b	-0.20356028
202	0x3e2839bc	0.16428274
203	0x3e382add	0.17985101
204	0x3e74dc3e	0.2391214
205	0xbdd928bd	-0.10603473
206	0x3caa33f0	0.020776719
207	0x3e249b18	0.16074789
208	0x3df9a126	0.1218894
209	0x3de37f2f	0.11108243
210	0x3e19b29a	0.15009537
211	0xbe793b25	-0.24338968
212	0x3e42239c	0.18958896
213	0x3e8aa949	0.2708228
214	0x3dfac30f	0.12244236
215	0x3e20cdde	0.15703532
216	0x3e014b74	0.1262644
217	0x3e844a74	0.25838053
218	0x3dc8dfa8	0.09808284
219	0xbe34c2db	-0.17652456
220	0xbe28be66	-0.16478881
221	0xbdd1dd10	-0.102472425
222	0x3de18ec7	0.11013561
223	0xbddb97b5	-0.10722295
224	0xbe48bba1	-0.19602825
225	0xbe4c5fb0	-0.19958377
226	0xbc349d06	-0.011023765
227	0x3d775a9d	0.06038915
228	0x3e08c506	0.13356408
229	0xbd0206b5	-0.031744678
230	0x3d01a2e4	0.031649485
231	0xbd9ef850	-0.077622056
232	0xbc6b0370	-0.014344081
233	0xbd73f384	-0.059558406
234	0x3d6f44ab	0.058415096
235	0xbdd695ea	-0.104778126
236	0xbe4b3303	-0.19843678
237	0xbda6c9d2	-0.08143963
238	0xbdc01e36	-0.09380762
239	0xbd4d3eb9	-0.050108645
240	0xbe406385	-0.18787964
241	0x3e6dccba	0.23222628
242	0x3e3fb44f	0.18721126
243	0x3e021d65	0.12706526
244	0xbd6f34ad	-0.058399845
245	0x3d659fde	0.056060664
246	0x3e2b1072	0.16705492
247	0xbd5aba5d	-0.053400386
248	0xbe333ed3	-0.17504434
249	0xbd2e36d9	-0.042532776
250	0xbe2456d2	-0.16048744
251	0xbe2987c7	-0.16555701
252	0xbe2b5020	-0.16729784
253	0x3e0a0545	0.13478573
254	0xbe66c54b	-0.22536199
255	0x3e356f16	0.17718157

a2c_network.actor_mlp.4.bias f4 [128]
0	0x3dd46bea	0.103721455
1	0xbe737c0b	-0.23777787
2	0xbd113d6c	-0.035458967
3	0x3db24916	0.08705346
4	0x3cd281ce	0.025696661
5	0xbd582e32	-0.05277843
6	0x3d220c96	0.039562784
7	0xbdfdadce	-0.12386666
8	0xbea1ad12	-0.31577355
9	0xbe5d8884	-0.21634108
10	0xbde29f7d	-0.11065576
11	0x3bb8f5c2	0.005644531
12	0x3ce91ff0	0.028457612
13	0xbe2ca89e	-0.16861197
14	0x3c56cf3c	0.013110932
15	0x3d21e570	0.03952545
16	0x3cd0bd9b	0.025481036
17	0xbcb9430f	-0.022614984
18	0x3d025889	0.031822715
19	0xbe2c8752	-0.16848496
20	0xbddc2e5d	-0.107510306
21	0xbec5ef71	-0.38659242
22	0xbdcbe48f	-0.099557035
23	0xbe00f7fb	-0.12594597
24	0x3dd99970	0.10624969
25	0xbe04e080	-0.12976265
26	0xbc9e4890	-0.01932171
27	0x3d37feb1	0.044920627
28	0xbd441828	-0.0478746
29	0xbde08f62	-0.10964848
30	0xbddd97fc	-0.10820004
31	0xbe85d78e	-0.26141018
32	0xbdb3a2e2	-0.08771302
33	0x3d13b380	0.036059856
34	0xbdf38940	-0.11891413
35	0xbd4ddb6a	-0.050258078
36	0xbe0e2eeb	-0.13885085
37	0xbdf3e062	-0.11908032
38	0xbe11c351	-0.14234664
39	0x3dcfab87	0.10140138
40	0xbe81ba29	-0.2533734
41	0xbb1b4c40	-0.0023696572
42	0xbe554567	-0.20827256
43	0xbc1b5c48	-0.009482451
44	0xbcb37e58	-0.021910831
45	0xbccd677c	-0.02507376
46	0x3d5c9dc2	0.053861387
47	0xbda6fe0e	-0.08153926
48	0xbd0d9a98	-0.03457126
49	0xbe1aa25f	-0.15101002
50	0x3dfb9ba6	0.12285547
51	0x3d905ff9	0.07049555
52	0xbda4553e	-0.08024071
53	0x3dcd7ec5	0.10033945
54	0xbe12150c	-0.14265841
55	0x3d2cf81e	0.04222881
56	0xbdf96753	-0.12177911
57	0xbe33d172	-0.17560366
58	0xbc2732c9	-0.010204979
59	0xbe03c8b5	-0.12869532
60	0xbb9113fd	-0.0044274316
61	0xbe2a61d1	-0.16638876
62	0x3d509514	0.050923422
63	0xbe1d9842	-0.15390113
64	0x3dcdf930	0.10057294
65	0xbdbcbf50	-0.092161775
66	0xbd0b1720	-0.0339576
67	0xbe942624	-0.2893535
68	0x3caeeccb	0.021353146
69	0x3c43009d	0.011902002
70	0xbe880a0b	-0.26570162
71	0x3de3aae6	0.11116581
72	0x3d19a728	0.03751293
73	0x3db8bcea	0.090204075
74	0x3dd2aab3	0.102864645
75	0xbe89d156	-0.26917523
76	0xbe019b50	-0.12656903
77	0xbe7e5cf1	-0.24840142
78	0x3d3ec939	0.04657862
79	0xbddef238	-0.10886043
80	0xbdc15939	-0.09440846
81	0xbe44d2b7	-0.19221006
82	0xbdd26a7a	-0.10274215
83	0x3dc1acc5	0.09456781
84	0xbe86a2d8	-0.26296115
85	0xbe810bbd	-0.25204268
86	0x3b68639e	0.0035459767
87	0xbdbcffbc	-0.09228465
88	0x3d8f69d0	0.07002604
89	0x3d39c730	0.045355976
90	0x3d805032	0.06265296
91	0x3d21f465	0.039539713
92	0xbeba3ba8	-0.3637364
93	0x3da27793	0.07932963
94	0x3d1fc8ad	0.03900974
95	0x3da7ebb2	0.08199252
96	0x3c94a28e	0.018143918
97	0xbe5b1ea5	-0.21398409
98	0x3e01ab42	0.12662986
99	0xbe382aac	-0.17985028
100	0xbe90f474	-0.28311503
101	0xbccb9f12	-0.024856124
102	0x3d1dca22	0.038522847
103	0xbe333857	-0.1750196
104	0xbe3268ac	-0.17422742
105	0xbe3c883a	-0.18411341
106	0xbe1647d0	-0.14675832
107	0x3cce8c31	0.025213333
108	0xbc21a6cd	-0.009866429
109	0xbe37cc52	-0.17949036
110	0xbe55c3c3	-0.20875458
111	0x3e0f3296	0.13984141
112	0xbccca410	-0.024980575
113	0x3d8f1630	0.06986654
114	0xbe2c1215	-0.16803773
115	0x3d805dc7	0.062678866
116	0x3d9aacf8	0.075525224
117	0xbe5bf5cf	-0.21480487
118	0xbe271447	-0.16316329
119	0x3e1aa72d	0.15102835
120	0xbe4f1af8	-0.20225132
121	0xbd87fe8c	-0.06640348
122	0x3c6aca40	0.014330447
123	0x3ddad88b	0.106858335
124	0x3d7110cc	0.05885391
125	0xbe0f1e9f	-0.13976525
126	0xbcd12295	-0.025529185
127	0xbe41cb72	-0.18925264

a2c_network.value.weight f4 [1, 128]
0	0xbc31f397	-0.010861299
1	0x3c302b23	0.010752472
2	0xbd90e13c	-0.0707421
3	0x3a071ce0	0.0005154144
4	0x3cbbdf38	0.022933587
5	0x3a140529	0.0005646521
6	0x3cf3dbe3	0.029767936
7	0x3c23656d	0.009972912
8	0xbd846fae	-0.06466614
9	0xbc788e31	-0.01517062
10	0x3c591e4a	0.01325185
11	0xbe11cebc	-0.14239019
12	0x3c4abeb5	0.01237457
13	0x3ca0fed3	0.01965276
14	0xbc3fd834	-0.011709262
15	0xbc23d285	-0.009998922
16	0xbcaebd7b	-0.021330586
17	0xbc70045f	-0.01464948
18	0xbc8d8ede	-0.017280038
19	0x3c9ecac1	0.01938379
20	0x3cd4ac81	0.025961163
21	0xbe8cafe6	-0.2747795
22	0x3bb26834	0.005444551
23	0x3b77eb9c	0.0037829643
24	0xbe03b421	-0.12861682
25	0x3bd6a140	0.006549984
26	0xbba7af65	-0.005117344
27	0xbc7dfa78	-0.015501611
28	0x3b954a1d	0.004555954
29	0x3c244fda	0.010028804
30	0x3d14c401	0.036319736
31	0xbdc701bd	-0.097171284
32	0x3cb7eb3a	0.022451032
33	0x3cfe94e0	0.031076849
34	0x3c14a798	0.009073161
35	0x3c5f5bae	0.013632698
36	0x3dccd141	0.100008495
37	0xbd1929b1	-0.037393276
38	0x3b5ac370	0.003338065
39	0xbd5702fd	-0.052493084
40	0xbcf22676	-0.029559355
41	0x3c389378	0.011265628
42	0x3b5f2c78	0.0034053605
43	0x3b71839a	0.0036852122
44	0xbc385e57	-0.011252961
45	0xbd0c7df8	-0.03429982
46	0x3b81bb08	0.0039590634
47	0xbf04ab5c	-0.51823974
48	0xbcab317c	-0.02089762
49	0xbd52b7bc	-0.051444754
50	0x3c03a058	0.008033834
51	0x3cc1ccb6	0.023657184
52	0xbbda6e8e	-0.006666011
53	0xbc4e6e32	-0.012599515
54	0xbcac00b5	-0.02099643
55	0xbb9ddf38	-0.0048178695
56	0x3b94883e	0.004532843
57	0xbd8607c8	-0.06544453
58	0x3da6e72f	0.081495635
59	0xbc19bc5f	-0.00938329
60	0x3c38f4d1	0.0112888375
61	0xbb994d17	-0.0046783793
62	0x3c364373	0.01112448
63	0x3bfb3e41	0.0076673334
64	0x3db1a96f	0.08674895
65	0x3cd2bee5	0.025725791
66	0x3988c26c	0.00026084797
67	0xba975bfd	-0.00115478
68	0xbc3a0a68	-0.01135502
69	0xbde78aab	-0.11305746
70	0x3c7c67cf	0.015405609
71	0xbd1ebd4a	-0.03875474
72	0xbd038aaf	-0.03211468
73	0x3d794615	0.06085785
74	0x3aff0d0b	0.0019458843
75	0xbd950c3a	-0.07277723
76	0x3b806d52	0.003919282
77	0xbe493447	-0.19648848
78	0xbd47ee0f	-0.048811015
79	0xbc47147c	-0.01215088
80	0x3a884e2a	0.0010399271
81	0xbc999e63	-0.018752282
82	0x3b475c41	0.0030419978
83	0xbcaca9bf	-0.021077035
84	0x3bc78f0a	0.0060900496
85	0x3cddad1b	0.027060082
86	0xbc356cb9	-0.011073285
87	0xbc644238	-0.013931803
88	0xbc28ba77	-0.010298363
89	0xbbc49e00	-0.0060002804
90	0x3be4ad25	0.0069786482
91	0xbcd1df10	-0.02561906
92	0xbe5c798f	-0.21530746
93	0xbc55c2b8	-0.013046913
94	0x3c24cf9e	0.010059265
95	0x3c0615b1	0.008183883
96	0xbce62023	-0.028091496
97	0xbbd9273b	-0.006626991
98	0x3d82ddab	0.06389936
99	0x3c24bc81	0.010054708
100	0x3c9aee9b	0.018912604
101	0xbc697049	-0.014247962
102	0x3b54e7d8	0.0032486822
103	0xbc22d78a	-0.009939084
104	0xbce288e4	-0.027653165
105	0xbbd1ee2d	-0.0064065666
106	0xbc453522	-0.012036594
107	0x3d3990c8	0.04530409
108	0xbc1924eb	-0.009347181
109	0x3dab5033	0.08364906
110	0x3e6952bc	0.22785467
111	0xbd09ba33	-0.03362484
112	0xbc95d282	-0.018288855
113	0xbcf0dc02	-0.029401783
114	0xb9bc0137	-0.0003585906
115	0xbcc7f61a	-0.024409343
116	0x3db73d46	0.08947234
117	0x3c07a540	0.008279145
118	0x3ce94603	0.028475767
119	0xbc9d51ff	-0.019204138
120	0xbdd425e7	-0.10358792
121	0x3c5dd53e	0.01353961
122	0x3c8f109d	0.017463977
123	0x3c22feb8	0.009948425
124	0x3d671828	0.05641952
125	0x3bf691b0	0.0075246915
126	0x3b29d343	0.0025913275
127	0x3cf76a8c	0.030202173

a2c_network.mu.weight f4 [18, 128]
0	0x3e400aec	0.18754166
1	0xbc17eb10	-0.009272352
2	0x3e4efd84	0.20213896
3	0x3cc62d85	0.024191627
4	0x3d4052d2	0.046953984
5	0xbd1186e0	-0.035529017
6	0x3db741f9	0.0894813
7	0xbcb0947f	-0.021555183
8	0xbe5d237a	-0.21595564
9	0xbc230445	-0.009949748
10	0xbe208f3d	-0.15679641
11	0x3d470937	0.048592772
12	0xbbdd086f	-0.00674539
13	0xbc8abca8	-0.016935661
14	0xbdd0afb2	-0.10189761
15	0xbdf08b85	-0.11745361
16	0x3d1d90e3	0.038468253
17	0xbe223dd3	-0.15843897
18	0xbe17b490	-0.14814973
19	0xbe767aa8	-0.24070227
20	0xbd7ba67c	-0.06143807
21	0xbde76884	-0.11299232
22	0x3de0e993	0.10982051
23	0xbbba76cb	-0.0056904308
24	0x3d2afb7e	0.041743748
25	0xbe118cbc	-0.14213842
26	0xbdd353fc	-0.10318753
27	0xbd894bbf	-0.067039005
28	0x3d89f63f	0.06736421
29	0x3c329677	0.010900131
30	0x3d4e89a2	0.050424226
31	0xbcf58744	-0.029971726
32	0x3d4f81c8	0.05066088
33	0xbb5ff784	-0.003417463
34	0x3bb2f46f	0.0054612677
35	0x3cb26f80	0.021781683
36	0x3dd85404	0.105629
37	0xbe0d4683	-0.1379643
38	0xbe3c40eb	-0.18384139
39	0xbda1f2e4	-0.07907656
40	0x3e61ffd8	0.22070253
41	0x3d12e644	0.03586413
42	0xbe398e6e	-0.18120739
43	0xbe83baa3	-0.2572833
44	0x3e3fb681	0.18721963
45	0xbd8cb353	-0.06870141
46	0xbcc8b713	-0.02450136
47	0xbc2bd666	-0.010488128
48	0xbd641e5b	-0.05569301
49	0x3da3a30a	0.079900816
50	0x3df95b02	0.121755615
51	0xbd3df445	-0.04637553
52	0xbdeb3419	-0.11484546
53	0xbe907547	-0.28214476
54	0x3dbed1f6	0.093173906
55	0x3e157998	0.14597166
56	0xbda5c3fa	-0.0809402
57	0x3dca4fe9	0.09878523
58	0x3db3060f	0.0874139
59	0xbbc1f70c	-0.005919343
60	0x3d1a31f5	0.0376453
61	0x3e7922be	0.2432966
62	0x3e0b1136	0.13580784
63	0x3c36ff7e	0.0111693125
64	0xbabbb916	-0.0014322128
65	0xbe8bea0b	-0.27326998
66	0x3e4225b6	0.18959698
67	0x3cde0ca3	0.027105635
68	0x3ddf2942	0.10896541
69	0x3d09912a	0.033585705
70	0x3d22e7cc	0.03977184
71	0x3de29a57	0.11064594
72	0xbe279601	-0.16365816
73	0x3da76613	0.08173766
74	0x3d1bae1c	0.03800784
75	0x3cd63c7b	0.026151886
76	0x3d0d7aff	0.034541126
77	0xbde70ccf	-0.1128174
78	0x3d250185	0.040284652
79	0xbda84517	-0.08216303
80	0xbe134ad4	-0.14384013
81	0x3a9bc49a	0.0011884153
82	0x3e24698b	0.16055886
83	0xbdb70329	-0.089361496
84	0x3e80c953	0.25153598
85	0x3dc82e03	0.09774401
86	0x3c25cf5a	0.010120237
87	0x3ca298a3	0.019848173
88	0xbd952f0c	-0.07284364
89	0x3d74bfca	0.059753217
90	0xbe5c2b32	-0.21500853
91	0x3d5f51e7	0.054521468
92	0x3ca37b5b	0.019956281
93	0x3da7b815	0.08189408
94	0xbd888035	-0.066650786
95	0xbc66379f	-0.014051347
96	0xbd4edf57	-0.050505962
97	0x3d157237	0.036485877
98	0xbe16da90	-0.14731812
99	0x3b87c0c5	0.004142853
100	0xbd2e6d4f	-0.042584714
101	0x3e0b993f	0.13632677
102	0x3dfd498a	0.12367542
103	0xbd37a956	-0.044839226
104	0x3c96f7dd	0.018428737
105	0x3de8c177	0.113650255
106	0xbd88fbea	-0.06688674
107	0xbe381b79	-0.1797923
108	0x3d099c7b	0.033596497
109	0xbde7502b	-0.11294588
110	0xbc9d2423	-0.01918227
111	0xbe03b735	-0.12862857
112	0xbd27c164	-0.040955916
113	0xbd8907bf	-0.066909306
114	0xbd0c12af	-0.034197506
115	0x3d83c43f	0.06433915
116	0xbd4cd140	-0.050004244
117	0xbda865f8	-0.08222574
118	0xbe34e11b	-0.17663996
119	0x3de3d22d	0.11124072
120	0x3d319aa7	0.04336038
121	0xbe70276d	-0.2345254
122	0xbcfa56e9	-0.03055902
123	0xbd958f87	-0.07302766
124	0x3daa222a	0.083072975
125	0xbdffa9f3	-0.12483587
126	0x3d8d9125	0.0691245
127	0xbd0eba34	-0.034845546
128	0xbda09175	-0.07840244
129	0xbd24f289	-0.040270362
130	0xbd959346	-0.07303481
131	0x3d9a791e	0.075426325
132	0xbc432e2c	-0.011912864
133	0x39f093f1	0.00045886592
134	0x3cc7a7b1	0.024371954
135	0x3d9ee63e	0.07758759
136	0x3d5bc05b	0.05365024
137	0xbe0c5adf	-0.1370654
138	0x3db4a5ff	0.08820724
139	0xbbde607d	-0.0067864046
140	0xbdf47444	-0.119362384
141	0x3ce5511f	0.027992783
142	0xbcac7195	-0.021050254
143	0xbd17f010	-0.037094176
144	0x3d9d344c	0.076759905
145	0x3d69bf59	0.05706725
146	0x3c5f6d16	0.013636848
147	0x3dc33bfd	0.09532926
148	0x3cc79895	0.024364749
149	0xbd963ff7	-0.07336419
150	0x3c96421b	0.018342068
151	0x3d8860a2	0.06659056
152	0xbd8de157	-0.06927746
153	0xbe1cb832	-0.1530464
154	0x3d31fe38	0.043455333
155	0xbcd922fc	-0.02650594
156	0xbdbb976b	-0.0915974
157	0xbdc0f65b	-0.094219886
158	0xbdc4d894	-0.096116215
159	0x3d0f5493	0.034992766
160	0xbcf34a2b	-0.029698452
161	0xbd741693	-0.05959184
162	0xbe80831c	-0.2510003
163	0xbd8f5205	-0.06998066
164	0x3d2be674	0.041967824
165	0xbd7b28c7	-0.061318185
166	0x3dc729eb	0.09724792
167	0xbc00a08d	-0.007850778
168	0x3e061de8	0.13097346
169	0xbd9a31d2	-0.07529034
170	0x3dae80c4	0.08520654
171	0x3dc54b1d	0.09633467
172	0xbd585938	-0.05281946
173	0xbcadb667	-0.02120514
174	0x3c30a128	0.01078061
175	0xbc868f45	-0.016425738
176	0xbdd1871b	-0.102308474
177	0x3d34c51e	0.044133298
178	0x3dda96d5	0.106733
179	0xbd93ccf1	-0.07216824
180	0x3d45ae34	0.048261836
181	0xbca2d455	-0.019876638
182	0xbdb59ad2	-0.0886742
183	0x3d9bdaaa	0.07610066
184	0xbd8d5770	-0.06901443
185	0xbd880f1f	-0.06643509
186	0xbd92f28f	-0.07175171
187	0x3da0359a	0.07822724
188	0x3db3dd2a	0.08782418
189	0x3d66c858	0.056343406
190	0x3be90b0e	0.0071119135
191	0xbd48a0f2	-0.048981614
192	0xbd4ed91f	-0.05050003
193	0xbd650641	-0.055914167
194	0xbdb17f4e	-0.086668596
195	0xbd01827c	-0.03161858
196	0x3daf95b8	0.085734785
197	0x3d961e40	0.073299885
198	0x3d4edd37	0.050503936
199	0xbd4cf806	-0.05004122
200	0xbd5f108d	-0.054459143
201	0xbd0041cd	-0.031312753
202	0x3d8a8f24	0.06765583
203	0x3e01cf38	0.12676704
204	0xbdaa5ed9	-0.08318872
205	0xbd335942	-0.043786295
206	0x3e09f3bc	0.13471884
207	0xbdf6704c	-0.12033138
208	0x3e1d5789	0.15365423
209	0x3dbda4a8	0.09259921
210	0xbe25ea5d	-0.16202684
211	0x3e384bed	0.17997713
212	0x3cf62e2c	0.030051313
213	0xbe881374	-0.26577342
214	0xbde3832b	-0.11109003
215	0xbcf13035	-0.029441932
216	0x3d952502	0.07282449
217	0xbdb503df	-0.08838629
218	0x3d9e0b27	0.07716971
219	0xbddf3ba1	-0.10900045
220	0xbca7a1a2	-0.020462815
221	0x3d92c1fa	0.07165904
222	0x3dc76402	0.09735872
223	0xbda1fdff	-0.07909774
224	0x3dc1994c	0.09453067
225	0xbe9034a7	-0.2816517
226	0xbd12d2af	-0.035845455
227	0xbe1fa6c1	-0.15590955
228	0xbe42c1a7	-0.19019185
229	0x3cd214f3	0.025644755
230	0x3dcaeb1f	0.09908127
231	0x3dff4d34	0.12465897
232	0x3db1df15	0.08685128
233	0x3c937e5d	0.01800459
234	0x3b05c14c	0.0020409403
235	0x3e241980	0.16025352
236	0xbdd9284e	-0.10603391
237	0xbe087ad7	-0.1332811
238	0x3e128dc9	0.14311899
239	0x3db17b67	0.08666115
240	0xbde9fb98	-0.11424941
241	0xbda84288	-0.08215815
242	0x3b4c3a4a	0.0031162673
243	0x3daeacc9	0.0852905
244	0x3cea2deb	0.028586349
245	0x3ddcddd3	0.10784497
246	0xbdf96c37	-0.121788435
247	0xbdaf50a6	-0.08560304
248	0x3c538e64	0.012912367
249	0xbd0f44ca	-0.03497771
250	0x3daf8924	0.085710794
251	0xbdd41516	-0.10355584
252	0x3d16c235	0.036806304
253	0x3c84f39d	0.016229445
254	0x3dc1c4f0	0.09461391
255	0x3c883a0b	0.01662924

a2c_network.mu.bias f4 [18]
0	0x3c07a285	0.008278494
1	0x3c4a211a	0.012336994
2	0xbc1eeced	-0.009700042
3	0x3d1afb69	0.03783742
4	0x3cfb3c56	0.030668419
5	0xbd9dc6ae	-0.07703911
6	0x3da8d7bf	0.08244275
7	0x3cc9f631	0.024653526
8	0x3cabd01d	0.02097326
9	0x3cc5b51e	0.024134215
10	0xbd9c2a4c	-0.07625255
11	0x3e05e594	0.13075858
12	0xbb63ce4f	-0.003476042
13	0x3cf54985	0.029942283
14	0x3db3e426	0.0878375
15	0x3db928b6	0.09040968
16	0x3d4f57e6	0.050620936
17	0x3c7744f6	0.015092125

exp_avg f4 [18]
0	0x3978c89a	0.00023725853
1	0x3aed2e57	0.0018095475
2	0x3998fed2	0.00029181555
3	0xb9a541ed	-0.0003152037
4	0x38b32207	8.541723e-05
5	0xb88c3cc8	-6.6870416e-05
6	0x391a7427	0.00014729855
7	0x399e6ca7	0.0003021706
8	0x3a81555e	0.000986736
9	0x36e12a1b	6.7104243e-06
10	0x3991bd0b	0.00027797403
11	0xb95374e4	-0.00020166073
12	0xb9ec1b17	-0.0004503361
13	0x3993980e	0.00028151314
14	0xb8af3cdd	-8.355987e-05
15	0xb8cc9dc0	-9.756861e-05
16	0xba6874a7	-0.000886748
17	0xba8e74ec	-0.0010868586

exp_avg_sq f4 [18]
0	0x3726bc02	9.938145e-06
1	0x372542d3	9.850325e-06
2	0x3726d1a6	9.943184e-06
3	0x371e3ab0	9.431198e-06
4	0x3725523b	9.853912e-06
5	0x37182f59	9.07093e-06
6	0x37166ff2	8.966761e-06
7	0x372ed723	1.0421299e-05
8	0x3713f376	8.818568e-06
9	0x37258339	9.865319e-06
10	0x37152c53	8.891412e-06
11	0x372256ba	9.676145e-06
12	0x372ca503	1.0290419e-05
13	0x3714f3c3	8.878243e-06
14	0x370f82b4	8.553896e-06
15	0x3716442f	8.956572e-06
16	0x3721a274	9.634172e-06
17	0x3738a7e3	1.1006344e-05

exp_avg f4 [128, 66]
0	0x3800ac5f	3.067811e-05
1	0x3842ee44	4.6475107e-05
2	0x38148cec	3.5417193e-05
3	0xb997d149	-0.00028956894
4	0x389bfb77	7.437815e-05
5	0xb9742471	-0.00023283229
6	0x371b3bf9	9.252683e-06
7	0xb3964649	-6.997704e-08
8	0xb9c4dfaa	-0.00037550676
9	0x38d45034	0.00010123887
10	0xb5d21774	-1.5653045e-06
11	0xb920e89d	-0.00015345444
12	0x38491c87	4.7948703e-05
13	0x37f4579e	2.9127867e-05
14	0x37937754	1.7579332e-05
15	0xb81235df	-3.4859284e-05
16	0x36db3042	6.5323266e-06
17	0x388284d1	6.223622e-05
18	0x381de769	3.7647234e-05
19	0x386904be	5.5555945e-05
20	0x38925d14	6.97916e-05
21	0x3822257d	3.8658723e-05
22	0x3614bdb3	2.2164138e-06
23	0xb62337c1	-2.4321346e-06
24	0xb88f4f01	-6.833487e-05
25	0xb77b5b98	-1.4982092e-05
26	0xb570b62b	-8.9672056e-07
27	0x38288d8e	4.0186154e-05
28	0xb865798a	-5.4711047e-05
29	0xb7d07f03	-2.4854677e-05
30	0x38f0da4f	0.00011484755
31	0x3a09eda1	0.0005261545
32	0xb9980b0e	-0.00028999936
33	0xb9bc0214	-0.00035859703
34	0xba7462dc	-0.00093225925
35	0x3a2ba946	0.0006548356
36	0x399aadb6	0.00029502594
37	0xba917c4e	-0.0011099668
38	0xb893cbe4	-7.047484e-05
39	0x39c13795	0.0003685324
40	0xba47676a	-0.00076066575
41	0xb9f830b2	-0.00047338527
42	0xba0d772b	-0.00053964806
43	0xb9e2b2de	-0.00043239346
44	0x3a71cae6	0.00092236546
45	0x3a9dcbe7	0.0012038917
46	0xb99e0b87	-0.00030144697
47	0x3a53e1f5	0.00080826815
48	0x39922fb8	0.00027882843
49	0x39ad36d9	0.00033037996
50	0x39830241	0.00024987946
51	0xb9ca971b	-0.00038641025
52	0xb9846a2e	-0.00025256112
53	0x39f7020f	0.00047113045
54	0x393df668	0.00018116238
55	0xb98b0581	-0.00026516247
56	0x392867ec	0.00016060442
57	0x3910b873	0.00013801623
58	0xba0c5b14	-0.0005354148
59	0xb90448fb	-0.00012615688
60	0xb992d8d5	-0.00028008842
61	0x373f1174	1.1388551e-05
62	0x3863eb23	5.4340006e-05
63	0x39fe5d77	0.00048516292
64	0xb6950bfa	-4.4419403e-06
65	0x38ffe9dc	0.00012202907
66	0xb9812aaf	-0.000246366
67	0x38dd32e8	0.00010547583
68	0xb7735ab8	-1.4505051e-05
69	0x382cdd28	4.1213963e-05
70	0x390fdde6	0.00013720206
71	0xb85bea13	-5.2431667e-05
72	0x36819a5a	3.8624685e-06
73	0xb7a3921d	-1.9499153e-05
74	0xb9c78fe9	-0.0003806346
75	0xb97eada3	-0.00024288012
76	0x3751fd27	1.2516312e-05
77	0xb59e52fd	-1.179607e-06
78	0x3517b599	5.6516143e-07
79	0x36a9957d	5.053995e-06
80	0xb8798dd7	-5.9498325e-05
81	0x3815bb54	3.569883e-05
82	0xb7aa8822	-2.0328971e-05
83	0xb81f72d0	-3.801548e-05
84	0x372c4656	1.0268375e-05
85	0x373195fb	1.0584942e-05
86	0x37f83b1b	2.9591427e-05
87	0x3734431b	1.074446e-05
88	0x37aa2712	2.0283773e-05
89	0x37af3c85	2.0889807e-05
90	0x37b83fbb	2.1964186e-05
91	0x373adeac	1.1138309e-05
92	0xb8fe4d03	-0.000121260084
93	0x3742e6cb	1.1617037e-05
94	0xb8110cd5	-3.4582645e-05
95	0x378a09b2	1.6455397e-05
96	0x3a516990	0.00079884473
97	0x3979aec3	0.00023811594
98	0x3811bdd7	3.4747496e-05
99	0x39ad58a2	0.00033063168
100	0xba3f6811	-0.0007301579
101	0x38c22696	9.257828e-05
102	0xba03d509	-0.0005028998
103	0x3a222282	0.00061849516
104	0x3a6777d3	0.0008829806
105	0xb912f0c4	-0.00014013337
106	0x3a26625d	0.0006347055
107	0xb9fadb45	-0.00047847084
108	0x3a96bb84	0.0011499976
109	0xb9e6da77	-0.00044031788
110	0x389fabed	7.6137345e-05
111	0xb9c0605f	-0.00036692896
112	0x39f21a9e	0.00046177668
113	0xb9fcf651	-0.00048248706
114	0x39a6459f	0.0003171386
115	0xb91c864f	-0.00014927353
116	0xb9851c4d	-0.00025388823
117	0x393b68fc	0.0001787282
118	0x39065f21	0.00012814674
119	0xb9115925	-0.00013861487
120	0xb7b5f2ea	-2.1689997e-05
121	0xb995855c	-0.00028518855
122	0xb8a263bf	-7.743341e-05
123	0xb9b64670	-0.00034766225
124	0xb7e614dc	-2.742785e-05
125	0xb9e75b31	-0.00044127696
126	0x37c3e8b1	2.3354167e-05
127	0xb99ad304	-0.00029530388
128	0xba14d038	-0.0005676779
129	0xb914b4b3	-0.00014181696
130	0x39c0cd12	0.00036773883
131	0x38d95d50	0.00010364747
132	0xb8f42639	-0.00011641946
133	0x39348603	0.00017216061
134	0x3791fe5b	1.740379e-05
135	0xb8c5b178	-9.426748e-05
136	0x39a16618	0.0003078438
137	0xb9d56238	-0.00040699705
138	0x37ea4277	2.7925924e-05
139	0xb71de509	-9.411256e-06
140	0xb9872291	-0.0002577496
141	0xb9036294	-0.00012529857
142	0x38eb8090	0.0001122962
143	0xb8ce34c4	-9.832674e-05
144	0xb7018ede	-7.722263e-06
145	0xb8964ac4	-7.1664836e-05
146	0xb866909e	-5.497096e-05
147	0xb7fc2a03	-3.0060304e-05
148	0xb811d73c	-3.4771147e-05
149	0x37160c2d	8.943532e-06
150	0x38ae5768	8.313247e-05
151	0x388c6888	6.695191e-05
152	0x389bdca9	7.432077e-05
153	0xb7c4ae49	-2.3446179e-05
154	0xb813932b	-3.5184592e-05
155	0x373e12d9	1.1329271e-05
156	0xb7ebbed8	-2.8103052e-05
157	0xb8c78637	-9.514059e-05
158	0xb902906d	-0.00012451569
159	0x38cedd2f	9.864044e-05
160	0xb813b2c1	-3.521401e-05
161	0x385653b5	5.1099534e-05
162	0xbabbd672	-0.0014330877
163	0x37a18ec8	1.9259183e-05
164	0xb9117d66	-0.00013874992
165	0xb9d4d91f	-0.0004059756
166	0xb93fd8ee	-0.00018295992
167	0x3aa5b61a	0.0012642771
168	0x3a5b93bc	0.0008376201
169	0x390eee29	0.00013630897
170	0x3a44f7ea	0.0007513749
171	0xba1a5534	-0.000588733
172	0xba20259a	-0.00061091187
173	0xb947f965	-0.00019071026
174	0x3aa3de41	0.001250215
175	0xbad7891e	-0.0016444062
176	0x3aa07b60	0.00122438
177	0xbaa742ff	-0.0012761055
178	0x3a785b65	0.0009474068
179	0x3a16d05d	0.00057530944
180	0xb9e90443	-0.00044444398
181	0xb9c57b45	-0.0003766661
182	0xb9d7e8d4	-0.00041181466
183	0xb95256a1	-0.00020059432
184	0xb995d8ad	-0.0002858093
185	0x39d10da9	0.00039873764
186	0x3a18d303	0.0005829783
187	0x397bf451	0.0002402824
188	0x39ce445a	0.00039342308
189	0xb9bd621f	-0.00036121995
190	0xb9db3e3d	-0.00041817306
191	0xb904c585	-0.00012662083
192	0xb971b2ac	-0.00023050111
193	0xb933b89c	-0.00017139543
194	0xba407935	-0.000734228
195	0x3995da29	0.00028582037
196	0xba074956	-0.0005160769
197	0x39230d83	0.00015549925
198	0x38fcc640	0.00012053223
199	0x3901acd5	0.00012366784
200	0xb602da5b	-1.949861e-06
201	0xb86d469c	-5.6570963e-05
202	0xb95f2123	-0.00021279282
203	0xb8b0c1cc	-8.4284315e-05
204	0xb7c959d3	-2.4002895e-05
205	0xb6ac2a84	-5.130949e-06
206	0x3a2d59cc	0.0006612807
207	0x37fdd9da	3.0261395e-05
208	0x38f2b692	0.000115734656
209	0xb96d01c7	-0.00022602743
210	0x380ee972	3.407285e-05
211	0xb8056002	-3.1799085e-05
212	0xb75fc93a	-1.33386875e-05
213	0xb7471f42	-1.1868602e-05
214	0xb815575c	-3.5605728e-05
215	0xb7952608	-1.7779894e-05
216	0xb88b13a6	-6.631696e-05
217	0xb89eff44	-7.581574e-05
218	0xb8b8056e	-8.774815e-05
219	0xb708e75c	-8.160099e-06
220	0xb79e86a2	-1.8897761e-05
221	0xb710a2e1	-8.620992e-06
222	0x38aa9083	8.133149e-05
223	0x3831e4d0	4.2413187e-05
224	0xb58faa49	-1.070389e-06
225	0xb8d7298f	-0.0001025974
226	0xb88b6048	-6.64597e-05
227	0xb8eb8181	-0.00011229795
228	0x39c524d2	0.000376022
229	0x3a872443	0.001031049
230	0xbb02dfe4	-0.0019969875
231	0x3afa7b1f	0.0019110179
232	0xb9c3a6ef	-0.00037317674
233	0xba80c77d	-0.0009825077
234	0x3a081aba	0.0005191971
235	0x38fdfbe9	0.00012110902
236	0xba9b8714	-0.0011865818
237	0xb9981a03	-0.0002901108
238	0x3a05c697	0.00051031396
239	0x39c7950b	0.00038067283
240	0x39308538	0.00016834296
241	0xb96c90f2	-0.0002256071
242	0xb9922563	-0.00027875145
243	0xbac20c7d	-0.0014804747
244	0x3aeae8a6	0.0017922118
245	0xb99016ce	-0.0002748281
246	0x399cd259	0.0002991136
247	0x383ed1cf	4.549493e-05
248	0xb9f098ba	-0.00045890157
249	0x39903d5d	0.0002751154
250	0x377dc305	1.5125382e-05
251	0xba13e868	-0.0005642236
252	0xb8f64338	-0.000117427146
253	0xb897c29d	-7.236491e-05
254	0xba7ffccf	-0.00097651494
255	0xb960958b	-0.00021418014
