logs/rl_games/hexapod_flat_direct/2025-11-15_08-58-23/nn/last_hexapod_flat_direct_ep_1450_rew_48.96947.pth (torch, 545947 bytes, 33 tensors)

value_mean_std.running_mean f8 [1]
00000000: fab1 3400 e1eb 0540
2.7401752487260156

value_mean_std.running_var f8 [1]
00000000: 432f bf2e 710a ce3f
0.23469366819915125

value_mean_std.count f8 []
00000000: 0000 8000 00fe c041
570163201.0

a2c_network.sigma f4 [18]
00000000: 08fc 81bf 36f2 afbf 6cce d8bf 75ec efbf
00000010: 6edb d3bf b80a 74bf 78a4 69bf c519 50bf
00000020: 1f86 98bf 2d76 87bf 0664 73bf 61f1 8cbf
00000030: 22d4 1ebd 4b70 b1be 18ac 9fbe 9190 48be
00000040: 0b96 fbbd a6c1 13be
-1.0155039 -1.3745792 -1.6937995 -1.8744036 -1.655134 -0.95328856 -0.91266584 -0.8128932
-1.191593 -1.0582939 -0.950745 -1.1011163 -0.038776524 -0.34655985 -0.31185985 -0.19586398
-0.12284478 -0.1442934

a2c_network.actor_mlp.0.weight f4 [128, 66]
00000000: 1624 56be b21c 83bd 4e0a 213f 3f78 3bbe
00000010: 4452 76bd 8b18 5c3d b1a7 873e 6dba 0f3e
00000020: 3df0 9fbe 93f0 07bf 1bdb 2fbe cd0f 1a3d
00000030: 999c 333d 9d1c eabd 07c1 90be 2ef3 9ebe
00000040: 854c a73e 4207 d3bd 8265 5a3b a8f6 d3bd
00000050: 6ca8 8a3d 3413 163c 71a9 21be 0c2f 823d
00000060: 669b 5bbd cbe7 0f3d d073 1c3e 740d 41bc
00000070: 715b b83b 9f69 60be a785 8d3d c0c9 163c
00000080: ab42 2c3d b8b4 19bd 23d9 7ebd 52d9 9d3d
00000090: 32bb aabd 4dd7 10be a8a4 443d bbc7 95bd
000000a0: 0f14 2bbd f9ee 923c a012 1abd 9dbd c83c
000000b0: c700 473d 2b5a aa3c 83ef f83c 8f64 493c
000000c0: a7d6 3fbe a604 9bbd 4d58 eebc 71c7 96bd
000000d0: 39f8 07bd 00df 7ebd dd25 4abe 37e9 efbd
000000e0: d741 b0bc 827e 87bd 61b6 18be 03e1 d43c
000000f0: 983d c63b b43f 823d 27c1 2e3e c7d9 b53d
00000100: b14e 853c f8a6 853d da48 563e bce0 d6be
00000110: e600 86bd 8b94 fbbd 53e2 a5be 6227 f23c
00000120: 87aa 0fbf 8ca8 f13e 040b 4c3e b5f1 94be
00000130: e911 163f 4b10 18bf a1d1 44be d319 073f
00000140: 4e7f 84bd c6a6 343f 13d2 073e c482 a6bd
00000150: c85d 193d 7187 86bd 6875 27bd bc5b a3bd
00000160: 3476 cb3e 45eb f93a 485f 513e fa05 4d3d
00000170: 6e39 493c 1f61 723b 5117 2fbd 7276 e33d
00000180: 6946 a3bc 328d 09be 101a b83d df96 a73c
00000190: a5ef 45bd d8c8 a83d 9066 2a3d 770d dd3b
000001a0: a65c 673d 9c77 b63b 1dc3 cfbc 464b 423d
000001b0: f6cc 85bc e7f6 2e3c 5990 52bd 0700 c83d
000001c0: a2b4 27bc 13d9 83bc 46ad 1bbb 6112 8c3d
000001d0: 17e8 463d 00e6 843b f5b6 e33c b0d5 f83c
000001e0: bdb3 603c b65e 95bd dd2a 743d 1229 df3d
000001f0: b8c3 93bd e3a7 8d3d 729f 883d 699e ff3d
00000200: 4ccd dfbc 1e91 453d beb2 a3bd 8fbe 143d
00000210: f629 8ebe 9f1d e4be 22ef ed3e d827 a3be
00000220: d2ff 193f f922 1a3e 34f2 0f3f 793e 24bd
00000230: f5ac b23d d96e 3bbf 98a8 b8be 9d1c 163e
00000240: 360d 3b3e 7281 ce3e eb1b e53d 2657 803b
00000250: 9303 5bbf 4250 fa3d 2255 95bd cd14 54be
00000260: dab9 98bc c6e1 4cbe 9bb6 0bbe 6a88 72be
00000270: d79f 593d 7b9c 2cbe 4da4 4bbd 03de 923d
00000280: 82d8 b1bd 384a 373e 7e8c c2bd b864 6bbd
00000290: a5b5 f3bd d1e3 083e c244 86bd 402b 90bc
000002a0: 9803 a93d addf 9a3b f339 d3bc c2d4 debc
000002b0: 4830 9cbd 41f1 15be 5284 c5bd 7f71 03be
000002c0: 8a0a 883d b06a 8abd d56d 293d 8f83 f93a
000002d0: a9a3 01bd 04c0 423e be9b 8bbd 5aea 353d
000002e0: 4115 adbe e209 1fbd 0342 86bd 3253 06be
000002f0: 5a6f 823d 0328 e0bd 7b3f b03d f929 1cbf
00000300: e3d5 733b f66c 29bd 704b 023e dd7f 753d
00000310: e3b8 58bd fa6c afbd 8c65 903f 76fb a6be
00000320: aac5 513f 64c1 01be e474 80be 5178 8fbe
00000330: 324a 05bf 5ef1 e63f 391f 62bd 8067 4c3f
00000340: d1ef 253f 2056 62be dae9 11bf c7db 1f3f
00000350: 1751 9ebe f1f3 113e 6e3a 03bf b017 4e3f
00000360: 07e5 653e b8ff 2dbd a9ba aabe 65b2 2c3e
00000370: 221d 8ebb 6d3f 463d 8f43 1ebe 8aaa dd3d
00000380: 629e 383e 3d81 44bf b565 2abd 2a26 3dbe
00000390: 8b4d 1dbc 7b3d cabd 93c5 f73b e7ef 5cbd
000003a0: 5bf3 96bd 2713 cebd 9db7 403e 7df3 273e
000003b0: b25f b4bc 7550 a73b 874c dbbc 1114 073b
000003c0: 0093 f9bc f52c 04bd df17 07bd ea8f bb3c
000003d0: ef1e bc3d 873c 143d 3dda d5bd 116c 463e
000003e0: 0fb8 523e eafa 9fbd 735e 20bc 5901 8a3e
000003f0: e41b 2d3d 7219 1c3d d42e 5cbe bc0e f53c
-0.20912203 -0.064019576 0.6290635 -0.18307589 -0.06013705 0.053734343 0.26495126 0.1403596
-0.31237975 -0.5310146 -0.17173426 0.037612725 0.043850515 -0.11431239 -0.28272268 -0.31044906
0.32675567 -0.10304119 0.0033324664 -0.1034978 0.06770405 0.009159852 -0.15787293 0.0635663
-0.053614996 0.035133164 0.15278554 -0.011782993 0.005626135 -0.21915291 0.06910258 0.009203374
0.042055767 -0.037525862 -0.062218796 0.07707466 -0.08336486 -0.1414463 0.04800859 -0.07313486
-0.041767176 0.017936217 -0.03761542 0.024504477 0.048584726 0.020794949 0.030387646 0.012292041
-0.18734227 -0.07569246 -0.02909484 -0.07362259 -0.033195708 -0.062224388 -0.19741006 -0.11714404
-0.02151577 -0.06615926 -0.14913322 0.0259862 0.006049823 0.06359807 0.1706587 0.08879428
0.016272875 0.065259874 0.20926228 -0.41968334 -0.0654314 -0.12284192 -0.32399234 0.029559795
-0.5611958 0.47198904 0.19926077 -0.29090658 0.5862108 -0.5939986 -0.19220592 0.5277378
-0.06469594 0.70566976 0.1326373 -0.0813041 0.037442952 -0.06568802 -0.04088345 -0.07976481
0.3973862 0.0019067308 0.20446503 0.050054528 0.012281759 0.0036984158 -0.042746846 0.11106576
-0.019931035 -0.13432768 0.08989346 0.020457683 -0.048324246 0.08241433 0.041601717 0.00674599
0.05648484 0.005568458 -0.025361592 0.047435068 -0.016333085 0.010678983 -0.051407192 0.0976563
-0.010235937 -0.01609472 -0.0023754402 0.06839443 0.048561182 0.0040557384 0.027797202 0.030375332
0.013714728 -0.07293455 0.05961119 0.108965054 -0.07215065 0.069167875 0.06671037 0.12481386
-0.027319573 0.048234098 -0.07993077 0.036314543 -0.2776639 -0.4455385 0.46471506 -0.31866336
0.60155976 0.15052404 0.5622895 -0.04009864 0.08724395 -0.73216015 -0.36066127 0.14659353
0.18266758 0.40333134 0.111869656 0.003916639 -0.8555233 0.12222339 -0.072916284 -0.2071106
-0.018643308 -0.20008 -0.13643877 -0.2368485 0.05313095 -0.16856568 -0.049717236 0.071712516
-0.08683874 0.17899406 -0.09499453 -0.0574691 -0.1189988 0.13368155 -0.06556083 -0.017598748
0.082526386 0.0047263713 -0.025784468 -0.02720106 -0.076263964 -0.14642812 -0.09644379 -0.12836264
0.06642635 -0.0675863 0.04136451 0.00190364 -0.03165022 0.1901856 -0.06816815 0.04441295
-0.33805278 -0.038827784 -0.065555595 -0.13117674 0.06368895 -0.10945132 0.08605858 -0.61001545
0.0037206344 -0.04136368 0.1272409 0.059936393 -0.052910697 -0.085657075 1.128099 -0.32613724
0.81942236 -0.12671429 -0.2508918 -0.28021482 -0.5206634 1.804241 -0.055205557 0.7984543
0.64819056 -0.22103167 -0.56997454 0.6244473 -0.30921242 0.14253213 -0.5126103 0.80504894
0.22450648 -0.0424802 -0.33345535 0.16864927 -0.004336969 0.04840033 -0.15455459 0.10823543
0.18029168 -0.767597 -0.0416009 -0.1847159 -0.009601007 -0.09875008 0.0075613945 -0.053939726
-0.07370635 -0.10062247 0.18820043 0.16401477 -0.022018287 0.005106027 -0.02676989 0.0020611326
-0.030465603 -0.032269437 -0.03298175 0.022895772 0.091855876 0.036190536 -0.10442016 0.19377162
0.20578025 -0.0781153 -0.009788143 0.26954153 0.042262927 0.038110204 -0.21502239 0.029914252

a2c_network.actor_mlp.0.bias f4 [128]
00000000: 50bf 423e 7b37 1bbe feba 26be e928 073e
00000010: f0c2 95bd 1c65 473e b84f 1fbe 2945 dfbd
00000020: b0f1 883e 934c f2bd 620c 1cbd 220c 65bd
00000030: d567 843d 92e4 f63d 0ec2 27be 0415 e7bc
00000040: d57f 4b3e c7d9 253e 7bbb 8b3b b115 3bbd
00000050: c4d6 58be cd58 41bd b42d 0fbd 00b5 163e
00000060: 3af9 30be 0556 123e ed63 523d da20 113e
00000070: 01a0 993c 561e a03d 340c 123e 4425 babc
00000080: 9145 3a3e 9c95 63bd d56b 513d 9536 533d
00000090: 04ac f1bb 010b 083d 73ff fb3c 3288 2abe
000000a0: c3e0 99bd ae91 353e a406 8c3d 629c 053e
000000b0: 0d47 993c e0a7 9b3d cf53 33bd 3170 e13d
000000c0: b9c6 f3bd bb1c c33d fe38 8bbd a0d2 093e
000000d0: 15f5 1f3c 0223 73bd b80a 0bbd 906d fcbd
000000e0: cca9 21bd 7d18 483e 188a 953d 6851 f2bd
000000f0: 2ff2 fa3d 8c5b b8bd d044 85be b2ce b7bc
00000100: 25ee 513d c390 05be c6aa b7bd d83d c63d
00000110: 0e58 8ebd c3ba 873e e3e2 0d3d 8cab 5dbc
00000120: 0e2d 9a3e 2bf1 f1bd d938 c23d a532 083d
00000130: da44 b2bc aec0 30be ec92 27bd fb2b 6b3d
00000140: 4b47 71be 7625 2bbe 2db6 8a3e b8ad 3f3e
00000150: 0c87 86be 603d 1abd 334a 14be f1c5 81be
00000160: 9c8d c63d 7ba3 c5bc 7007 9a3e 78ef 7abd
00000170: 51ee 1a3d f1d8 1bbe 3785 f13d 1b61 67bd
00000180: 1d77 60bc 62a4 59bd 17dd b8bc e3b9 b5bc
00000190: ff27 84bd a45a 8abd 9124 8bbd dc9c 26be
000001a0: 5b50 adbb 03c3 233e e476 8e3d a91d 6dbe
000001b0: f4c5 003d 2392 733e 0e7d b6bd 128f 9d3d
000001c0: 1454 f7bd 63b0 02be 3c51 893d 154f 88bd
000001d0: e210 d4bd 634e 0abd d118 6e3d a126 f0bd
000001e0: 925d 0abe 9c3d efbd bddd 47be ce08 d53d
000001f0: a3ec 993d 8e61 a3bd e34c 5fbd cacb b5bd
0.19018292 -0.15157883 -0.1628227 0.131992 -0.07312572 0.19472164 -0.15557754 -0.10901863
0.26746893 -0.118310116 -0.038097747 -0.055919774 0.06465117 0.12055315 -0.1638262 -0.028208263
0.19872983 0.16196357 0.004264293 -0.045674983 -0.21175677 -0.047203828 -0.034955695 0.14717484
-0.17282572 0.14290626 0.051364828 0.14172688 0.018753054 0.07818286 0.14262468 -0.022722848
0.181906 -0.0555626 0.051128227 0.051565725 -0.007375242 0.03321362 0.030761456 -0.16653517
-0.07513573 0.17731354 0.06837204 0.13047937 0.018710637 0.07600379 -0.043781098 0.11007727
-0.11903138 0.09526964 -0.0679798 0.13459253 0.009763022 -0.059359558 -0.03394577 -0.12325585
-0.03946857 0.19540592 0.0730173 -0.11831933 0.12253224 -0.09001836 -0.26029062 -0.022437427
0.051252503 -0.13043503 -0.08968119 0.096797645 -0.06950389 0.26509675 0.034640204 -0.0135296695
0.301125 -0.11813577 0.09483499 0.033251423 -0.021761347 -0.17261001 -0.0409116 0.05741499
-0.23562352 -0.16713509 0.27092114 0.18718612 -0.26274908 -0.037656188 -0.1448143 -0.2534633
0.096949786 -0.024125805 0.300838 -0.06126353 0.037824932 -0.15219475 0.11792987 -0.05648909
-0.013700274 -0.053135283 -0.022566361 -0.022183364 -0.06452941 -0.067555696 -0.06794084 -0.16270775
-0.00528912 0.1599236 0.0695627 -0.23155846 0.031438783 0.23786215 -0.08910571 0.07693304
-0.120765835 -0.12762599 0.06704947 -0.06655709 -0.10354783 -0.03376616 0.058129136 -0.11726118
-0.13512257 -0.11681673 -0.1951818 0.1040207 0.07515838 -0.079775915 -0.054516684 -0.0887676

a2c_network.actor_mlp.2.weight f4 [128, 128]
00000000: 4f8c 9fbc d0f5 693e ea9d 27be a56c dfba
00000010: cf5d ccbb bf77 84be e6cd 4c3d 60d2 97bd
00000020: 1e54 ffbd 6a8e 14be 4957 33be c9cb 62be
00000030: ae2e fdbd a79a 3a3d 6d34 f5bd 0584 34be
00000040: e2e2 e5bd aed8 80be e2fe 413e eeb5 b3be
00000050: 973a 1c3e 9322 c0bd 0994 f43d 1b56 83bc
00000060: 6899 7e3e 64d1 99bd d0c1 febd 7d35 dc3c
00000070: 355f 553e f7cd 0abe d08a bdbd a2ae 0e3d
00000080: de67 7cbe 4304 bbbd 90cf e9bd 64d8 3bbd
00000090: 0492 0abe e37b 183e 11af 16bd b1cf 85bd
000000a0: 66a5 3e3b 68dc bc3b 3a26 ecbb 5ba7 4dbe
000000b0: 05c2 f4bd 28b7 5dbb e81c 32bd 38be ba3b
000000c0: 2cb1 babd 488c b83c 7e30 50be b96c 94bd
000000d0: a06b 543e 1d5e 753d 08d8 94bd 03de 0c3e
000000e0: 19e4 94bc 43a2 ba3c 54a4 3bbd b309 17bd
000000f0: e6e0 d5bd c4e4 8cbd eb9c 06bd 7870 35be
00000100: 738a 19be cc92 813e 19d7 a5bd 2290 6ebb
00000110: 561d 893e 6129 cebc 4a28 543d b11e 693e
00000120: 0a81 1cbd 64cb 3a3e b47e 8bbe 0c37 b83d
00000130: ba00 ff3a 36b1 353e ad69 f7bd 48f0 6abe
00000140: 6dcd a93d 5fde 0bbe 1479 8abd 1c11 a33c
00000150: 37cc 193c 0770 45be c93e 49be 2b7f 36bd
00000160: 4181 86be e27a 4dbd 7971 d4bd bd2e 9fbd
00000170: 0046 85be 7cb5 6d3b 1bd5 8bbd 114a 873e
00000180: 1511 16bd 1d2e a53d 00c8 b6bc ae79 873d
00000190: 4dd5 233e 2a6b 43be 8f1f 09be 7a23 803d
000001a0: 157d bb3e ce2d 9bbd b92a 27bd b5ee 2d3e
000001b0: 2c1e 263c 086b fabd db87 0d3e bb6f 5f3c
000001c0: 2cb5 cc3d 1b86 943c 428f e2bd edae 323e
000001d0: 0600 d73d 15fa ad3d e53c 2ebd 44bc 2b3e
000001e0: 7cb6 be3c 62b4 53bd f04a 903e cedb a3be
000001f0: 7950 033e a454 0c3d 9eb9 7a3b c7dd b13a
00000200: 9ac7 2f3d be78 74bd 37f3 c53c b332 c9be
00000210: cd65 4f3e d5f0 1d39 e452 90be 4363 57be
00000220: 85f6 b8bd ced6 ab3d 21fd e53b 455c 11bd
00000230: 5576 13be c25a 5d3c a674 ecba a7e2 3dbe
00000240: 2b11 93bc 9540 9b3d b793 49be f05f ee3d
00000250: 51c4 d43d 4154 b13d c6cd 0c3e f8db a7bd
00000260: dbab 413d 7aa2 923d ab28 4a3c 8043 eb3d
00000270: 42b5 4fbe abcd ae3d ee32 03be 7b7f 9bbd
00000280: c191 073d c6db 78be 1650 523d 8935 4e3d
00000290: d376 27be 3dbd c2be 2c95 2dbe f28e 7a3e
000002a0: 1fea 37be 512f 33bd 268a 85bc d0df 72bd
000002b0: 6455 33bd 3ffd 3abe 141f 7abd d249 17bc
000002c0: b5c9 81be 5d4a 42be 1774 d03d c8ec 81bd
000002d0: 30c8 38be 8e45 b23e 7fd1 9cbe 6657 95bd
000002e0: 9dcc 6cbe 7a6a 05bc 61a7 14bd db1e b9be
000002f0: 4b58 fdbd 0459 913e ce87 5abd 83d6 c83d
00000300: f4cc c7bd 9728 0fbe a6cb 393e 917b 7ebb
00000310: 58c7 cdbd 8241 50be 5fb5 c1bd 1425 10be
00000320: d03b ad3d 2c90 c4bd c8f8 f0bc d9e0 f83d
00000330: 3ceb fabd ec9d 2e3a d89e 4f3e a355 6ebc
00000340: cd95 303e 2338 8cbe 7436 1c3d 81b0 2aba
00000350: 5bdc 96bd a780 b8bd 68d5 d8bd 3a86 33be
00000360: 66e3 5dbd 8116 90be 12eb a2bd a389 05bd
00000370: 43db acbd 610c b03e b030 0bbc f84c 9c3e
00000380: 4f25 31be e7b2 a1be 1b23 b33d ea1e 0ebd
00000390: 66b8 22be 142a 2f3d f35a 823d b0a1 8cbd
000003a0: ec9c 543d 99bf 34be bc63 a4be 6120 523d
000003b0: 7793 e6bc 0e81 343e a699 ac3d dcb6 a2bc
000003c0: a973 ba3e a578 8a3d 5bfb bd3c 8b6b 5b3e
000003d0: 5ba4 80be 092c 323e 5818 ec3d aba2 203e
000003e0: acc7 a7bd e2e0 25be 117f 39bd 77ef 1dbe
000003f0: 5c15 edbd b1f5 5f3e bf54 9fbc 22eb a23d
-0.019476084 0.22847676 -0.16368833 -0.0017045928 -0.006236769 -0.2587261 0.050001048 -0.07413173
-0.12467216 -0.14507452 -0.17513765 -0.2214805 -0.12362419 0.045557644 -0.1197289 -0.17628486
-0.11224915 -0.25165313 0.18944886 -0.3509974 0.15256725 -0.093815945 0.11942298 -0.01603227
0.24863207 -0.07510641 -0.124393106 0.026880974 0.208371 -0.13555132 -0.09254992 0.03483451
-0.24648997 -0.09131672 -0.114165425 -0.045860663 -0.13532263 0.14891009 -0.03678805 -0.065337546
0.0029090284 0.005763579 -0.0072067054 -0.20083372 -0.11951069 -0.0033831093 -0.0434846 0.0056989454
-0.09115824 0.022527829 -0.20330998 -0.072473 0.2074418 0.059904207 -0.07267767 0.13756566
-0.018175172 0.02278245 -0.045811012 -0.036874484 -0.104432866 -0.06879571 -0.032864492 -0.17718685
-0.1499422 0.2530731 -0.08097667 -0.0036401828 0.26780194 -0.025166215 0.051796235 0.22765614
-0.038209 0.1824165 -0.27245104 0.08994874 0.0019455173 0.17743382 -0.12080703 -0.22943223
0.08291135 -0.13659047 -0.06761375 0.01990562 0.0093870675 -0.19281016 -0.19652857 -0.04455487
-0.26270488 -0.05016602 -0.10373206 -0.077725865 -0.26029968 0.0036271503 -0.06827756 0.26423696
-0.036637384 0.08065436 -0.022312164 0.066150054 0.15999337 -0.19083849 -0.13390945 0.062567666
0.36618868 -0.07577096 -0.040812228 0.16985591 0.0101390295 -0.12227446 0.13821356 0.013637478
0.09995493 0.018130353 -0.110624805 0.17449541 0.10498051 0.08494965 -0.042538542 0.16771036
0.023280375 -0.0516857 0.28182173 -0.32003635 0.12823667 0.034260407 0.003825761 0.0013570123
0.042914964 -0.05968546 0.024163825 -0.39296493 0.20253678 0.00015062404 -0.2818824 -0.21033959
-0.09031395 0.0839058 0.0070187007 -0.035488386 -0.14400609 0.013510408 -0.0018040135 -0.18543492
-0.017952522 0.075806774 -0.19685255 0.116393924 0.10389007 0.08658648 0.13750371 -0.081962526
0.047283035 0.07159896 0.012338798 0.11487484 -0.20283988 0.08535322 -0.12812397 -0.07592674
0.033097986 -0.24302587 0.051345907 0.050344024 -0.16353922 -0.38035002 -0.16951436 0.24468592
-0.17960404 -0.043746296 -0.016301226 -0.059295475 -0.043782607 -0.18260668 -0.061064795 -0.009233909
-0.25349203 -0.1897368 0.101783924 -0.063439906 -0.18045115 0.3481869 -0.30628583 -0.072920606
-0.23124929 -0.008143062 -0.036292437 -0.36156353 -0.12370356 0.28388226 -0.05335217 0.0980654
-0.097558886 -0.13980328 0.18144092 -0.0038830976 -0.100477874 -0.20337489 -0.09458422 -0.14076644
0.08458674 -0.09597811 -0.029415503 0.12152261 -0.12251899 0.00066611054 0.20275438 -0.014546785
0.17244644 -0.2738658 0.038137868 -0.00065112865 -0.07366248 -0.090089135 -0.10587579 -0.17531672
-0.054171942 -0.2814217 -0.07954992 -0.032601964 -0.08440258 0.34384444 -0.008495495 0.30527472
-0.17299388 -0.31581804 0.0874693 -0.03469745 -0.15890655 0.04276474 0.063650034 -0.06866777
0.051907465 -0.17651214 -0.3210734 0.05130041 -0.028146489 0.17627355 0.084277436 -0.019862585
0.36416367 0.06761292 0.023191145 0.21427743 -0.25125393 0.1739961 0.11528081 0.15687053
-0.08192381 -0.16199067 -0.045287196 -0.1542338 -0.115763396 0.21871068 -0.01944959 0.07955004

a2c_network.actor_mlp.2.bias f4 [128]
00000000: 7cbd 1abe ed13 0ebd 867a 84bd af7b 1cbe
00000010: 1076 08be 38cf 00be 185e 38be c60d 4cbe
00000020: c61a 1c3e 55d2 d6bd 9a7f 063e bc18 e0b9
00000030: 9d7f 30be 6a5a 17be ba4d f0bd 84c4 a1bd
00000040: 8b35 60be cf89 0c3e 3afc a9bd 01bb f1bd
00000050: e7ad c1bd 7ae1 02be ddaa bebb fb84 aebd
00000060: 93da a13d e758 b5bd 5e76 1b3d cea0 43be
00000070: 1b47 1fbe 98c5 0fbe b389 fcbd 3ff6 e1bd
00000080: bba0 d7bd 6592 d63d 0491 993c 7fd0 85bd
00000090: 4dd8 27be 2f38 f0bd e724 3f3d 9f36 20bd
000000a0: 213f c5bc 80c1 f8bd 044f 79bd 367d 9ebe
000000b0: b697 713e 7e41 f43d 5f3d c93d 7d54 9d3e
000000c0: cb92 5fbe ca86 2bbe f7e4 78be 7301 5ebd
000000d0: 1b91 9e3c d86a 81be 2ba4 cc3d 43f8 fdbd
000000e0: 0c79 48be 43ab 1fbe d3c2 61bb 3103 88bd
000000f0: 3c52 37be e3b6 20bd 2b10 9fbc c990 083e
00000100: 2143 cf3c 3830 aebd 5f88 363d f562 90bd
00000110: 2f9b 78bd 1b6c acbd 9baa 0bbe 3023 adbd
00000120: e86e 12bd 3ce3 3a3d 6a1d 36be f029 eb3c
00000130: 3d79 aebd e42a b03c d345 5cbd 7776 1ebe
00000140: 62a6 b2bd ce28 54be f90d 8abe 7dc8 94bc
00000150: eb33 0fbe d139 62be 094a a9bd b2c0 edbd
00000160: 2dea 393e dc68 42bc f9fa 33be b540 bd3c
00000170: 129e 89b8 c8dd 6fbd ba62 93be 62bb 583e
00000180: 1bb6 253e 7bdc 9f3d 1d46 05be d6ef ac3d
00000190: e9d6 9dbd 11af b43d cdf6 dabd cde1 323d
000001a0: 9639 55bc 3f1e 553e e052 86be fe2d 3cbe
000001b0: 8b5a 7abd 9dc7 f7bc b3da 013d dc16 dc3d
000001c0: dc60 36be 1328 bbbb d6f5 a5be 3016 a7bd
000001d0: 87a0 013d 91b8 823e 62ed 9ebd 109a 22bd
000001e0: dc34 093e 3fc3 d93d 7010 2cbe 3372 7c3e
000001f0: f521 dbbd 1297 7fbe deed b23d f22a 8a3d
-0.15111345 -0.03468697 -0.06468682 -0.15281557 -0.13326287 -0.12579048 -0.18004644 -0.19927129
0.15244588 -0.104893364 0.13134614 -0.00042743038 -0.1723618 -0.14780584 -0.11733575 -0.078988105
-0.21895425 0.13724445 -0.083000615 -0.11803246 -0.09456997 -0.12781325 -0.0058187083 -0.08521458
0.07903018 -0.088548474 0.03795468 -0.19104311 -0.15554468 -0.1404022 -0.123309515 -0.11033296
-0.10528704 0.10477141 0.018745907 -0.06533908 -0.16391106 -0.11729466 0.046666052 -0.03911459
-0.024077954 -0.12146282 -0.06086637 -0.30954903 0.2359303 0.11926554 0.09826159 0.30728522
-0.21833341 -0.16750637 -0.24306093 -0.0542006 0.019356301 -0.25276828 0.0999225 -0.12400868
-0.19577426 -0.15592675 -0.00344484 -0.06641234 -0.17902464 -0.039236914 -0.01941689 0.13336481
0.025300564 -0.08505291 0.044563647 -0.070501246 -0.06069487 -0.08419057 -0.136393 -0.08453977
-0.0357503 0.045626864 -0.17784658 0.02870652 -0.08519218 0.021504827 -0.053777527 -0.15474878
-0.08723141 -0.20718691 -0.26963785 -0.018162007 -0.13984649 -0.22092368 -0.08266074 -0.11609019
0.18155737 -0.011865821 -0.17576207 0.023102144 -6.562112e-05 -0.058561116 -0.2878626 0.21165231
0.16182749 0.07805725 -0.13015027 0.084441826 -0.077070065 0.08822454 -0.10691605 0.04367237
-0.013014218 0.20812319 -0.26235104 -0.1837692 -0.061121505 -0.03024655 0.03170271 0.107465476
-0.17810386 -0.0057115643 -0.3241412 -0.08158529 0.03164723 0.25531438 -0.07760121 -0.039697707
0.1339907 0.10632943 -0.16803145 0.24652939 -0.10699836 -0.24959973 0.08736776 0.067464724

a2c_network.actor_mlp.4.weight f4 [128, 128]
00000000: a141 b13d bfa1 4dbd 7a89 b43b 124e 2f3d
00000010: 433e 843d f8ab e4bd 978f 02be e393 b83d
00000020: 7b24 07bd ec56 0ebe 2fb1 4ebd 2b6f 5ebe
00000030: 9fff c83c 65c1 0a3b 2cfc 89bd 744d 23be
00000040: 00dc 02bd 7690 18bb 25f8 43bd a57f 39be
00000050: 2e3b 163d 2e72 653d 0130 d5bc a635 e0bd
00000060: 1088 f6bd e2c9 85bd 486a 083e fc02 9dbe
00000070: 3139 203d d0f9 f7bd 4459 32bd 823e 693b
00000080: a639 213d 0d55 89bd b662 f1bc 2940 423d
00000090: f2ee dbbb b07d ce3b b8ba 183d 5e37 b2bd
000000a0: e722 a2bd 5045 7abd 16e8 e5bd a527 b5bd
000000b0: f560 223e ca76 94bd 898c 24be c43b 133e
000000c0: a429 ba3d f3bd c2bd a964 17be 6a6e 9cbb
000000d0: 9556 42bd 6524 e13d a88e dfbd 7b20 4a3d
000000e0: 1f44 09be 748c 083d 85be a9bd 9d56 0e3d
000000f0: 1cca 1bbd c433 b73d 471f cc3d 9cc5 563d
00000100: 9f01 0dbd 247f 453e 86b3 29be 3a62 d2bd
00000110: 4345 103e 25c8 5a3d edac 193e 5a10 913d
00000120: b65e 973b 7c0a 1abd 69cb 683d 0c57 b3bd
00000130: 3a15 5abd 25c8 573e 565a 8cbd 2d78 663d
00000140: e085 763d 5096 c8bd b659 bfbc 1323 c33d
00000150: ebe3 c93d d5e5 89bd c7fc 0ebe 6618 8dbd
00000160: 2c37 4dbd 44c2 17bd d893 363c a1b1 e0bc
00000170: 4884 0e3e 7341 82bd 8578 d53b 9eec 783d
00000180: 645a f23c 1c6d 52be 26c9 4ebd 4dc7 8abc
00000190: f9ec 84bd 3fff cd3d ab6c d7bd 0027 3bbe
000001a0: cbe6 873d 1912 09bd 2b2d 95be ca13 65be
000001b0: 10c3 e73c 6bd3 60be b347 393c 123e 70be
000001c0: 3f7a 9f3d b870 423c d5c7 3ebe 9a40 79bd
000001d0: a781 7c3c 94d3 d8bd 3870 ca3d 263b d3bd
000001e0: 013b 78bd f185 79bc a6dc a6bb 4598 49bd
000001f0: d4d9 0f3d 45a6 763c 8b38 49bd 1ff6 38be
00000200: 7d4c 30be fcde a5bd 135e 7e3c 285f a23d
00000210: f1ad d2bd 2259 24be 318f 2abd 98ac d23d
00000220: e9f8 02be a8a8 62be a43c 12bd c940 033e
00000230: f125 debd 308b 6cbd b68c d23d 47f8 d73d
00000240: a6b0 1ebc 6538 473b 2ebd 37be 00bb df3d
00000250: daca 8ebe 7afb 31bd 943c c73c 00a3 f93c
00000260: 364c cebd 4f20 fabc 4465 00bd 72fa 8d3d
00000270: 4f39 6abd c008 333d 29af 7dbd 2760 1f3e
00000280: 244a b9be 91af 75be 7f1e 9cbe 288d d03d
00000290: d0ef 3abe e0b3 f63d bb09 52be c896 53be
000002a0: 33c2 773d f8a5 8c3d 5185 9fbc 9bb4 dc3d
000002b0: 7ff3 abbb 6ac2 a1bc f07f 9abd 89e9 82bd
000002c0: a2b9 983d 9a9a 013c a536 ad3d 36cb 813d
000002d0: cf39 83bd f03b 323e 9e57 a7bd df81 a4bd
000002e0: 8f2e e1bd 50c2 e0bc b0f4 fb3c 73ba 40be
000002f0: 2ad3 b2bd 37f0 aa3d 6ac3 253d 1375 62bd
00000300: 0fc7 15be c946 abbb 4566 45be e444 593c
00000310: 0870 86bd 3527 7cbc e026 b4bc f955 21bc
00000320: bab9 3cbd 5c9e 43be dd14 2f3e 00f7 353e
00000330: 939d 823e ae57 dfbd 32be e63c eb5c 2e3e
00000340: 02c3 f93d 7224 e23d e2bb 1d3e 67da 80be
00000350: 4891 353e eb57 893e 6fd7 e53d 9aea 223e
00000360: 35a4 013e 1adb 823e 7792 c53d 7e67 49be
00000370: 3a29 2bbe 68bb b9bd ae98 e83d a9db dfbd
00000380: f99c 38be b156 49be 12d9 3dbc a8ef 513d
00000390: 860d 093e 688a 00bd d9db bb3c e6f9 8fbd
000003a0: 349e 68bc b8d9 9abd 620b 7c3d 8c68 e3bd
000003b0: 9a51 4cbe 71a4 9abd c851 b5bd 9a29 59bd
000003c0: 5c91 3fbe 2f74 753e ef1b 473e f208 e23d
000003d0: ee66 92bd 7973 5f3d 63f5 223e 6a9c 78bd
000003e0: 4e36 30be 4dfe 34bd 6c55 13be 2792 21be
000003f0: 450d 2abe 7718 073e 6273 65be c4c3 323e
0.08655096 -0.05020308 0.0055095525 0.042799063 0.06457188 -0.11165613 -0.12750088 0.09012582
-0.032993775 -0.13900346 -0.050461944 -0.21722095 0.024535952 0.00211724 -0.06737551 -0.15947515
-0.03194809 -0.0023279465 -0.04784407 -0.18115099 0.036677532 0.056017093 -0.026023867 -0.109477326
-0.120376706 -0.06532647 0.13321793 -0.3066634 0.039117042 -0.12108195 -0.04354216 0.0035590236
0.03936162 -0.06705675 -0.029466014 0.04742447 -0.006711834 0.006301604 0.037287444 -0.08701967
-0.07916813 -0.061101258 -0.112259075 -0.08845452 0.15857299 -0.0724922 -0.16069235 0.14378268
0.090899736 -0.09508886 -0.14784493 -0.0047739046 -0.047445852 0.1099327 -0.109158814 0.049347382
-0.13404892 0.03333707 -0.08288292 0.03475057 -0.038034543 0.089454204 0.09966903 0.05243455
-0.034425374 0.19286782 -0.16572389 -0.102726415 0.14088921 0.05341353 0.15007372 0.07083197
0.0046194447 -0.037607655 0.056834612 -0.08756837 -0.0532429 0.21072443 -0.06853168 0.056266952
0.060186267 -0.09794295 -0.023358207 0.09528174 0.09857925 -0.0673329 -0.13963614 -0.06889419
-0.050101444 -0.0370505 0.011143647 -0.02742845 0.13917649 -0.0636014 0.006514611 0.06077253
0.029584117 -0.20549434 -0.0504848 -0.016940737 -0.064905114 0.1005845 -0.10518774 -0.18276596
0.06635817 -0.033464525 -0.29136023 -0.2237083 0.028291255 -0.2195565 0.011308598 -0.23461178
0.077869885 0.011867695 -0.18630917 -0.060852624 0.015411771 -0.1058723 0.09884685 -0.10314016
-0.060603146 -0.015229688 -0.0050922213 -0.04921748 0.035119846 0.01505429 -0.04912619 -0.18062638
-0.17216678 -0.080991715 0.015525359 0.07928306 -0.10287083 -0.16049626 -0.041640464 0.10286826
-0.12790264 -0.2213465 -0.035702363 0.12817682 -0.108470805 -0.057749927 0.10280745 0.10545402
-0.009685671 0.0030398604 -0.1794326 0.10924339 -0.27889138 -0.043452717 0.024320878 0.030473232
-0.1007313 -0.030532984 -0.031346574 0.06932534 -0.05718356 0.043709517 -0.061934624 0.15564023
-0.36189377 -0.23992755 -0.30492017 0.101831734 -0.18255544 0.12046027 -0.20511524 -0.20662987
0.060487937 0.068675935 -0.01947275 0.10776635 -0.005247533 -0.019746024 -0.075439334 -0.063921995
0.07457282 0.007910395 0.08457688 0.063375875 -0.064075105 0.17405677 -0.081710085 -0.080325834
-0.109952085 -0.027436405 0.030756325 -0.18821125 -0.087316826 0.083465986 0.040469564 -0.055287432
-0.14626716 -0.005226944 -0.19277294 0.013261054 -0.06564337 -0.015390207 -0.021991193 -0.009847158
-0.04607556 -0.19103378 0.17097802 0.17770004 0.25510845 -0.109053954 0.028166864 0.17027633
0.12195398 0.11042108 0.15403703 -0.25166628 0.17731202 0.2682489 0.11222731 0.15909806
0.12660296 0.25557786 0.096470766 -0.19668385 -0.16714945 -0.09068948 0.11357246 -0.10930569
-0.1802863 -0.19661976 -0.011587398 0.051253945 0.13384065 -0.031381994 0.02293198 -0.07030086
-0.014197875 -0.07561058 0.061534293 -0.11103925 -0.19953004 -0.07550896 -0.08853489 -0.05301819
-0.18707794 0.23970102 0.1944425 0.110368624 -0.071485385 0.054553483 0.1591392 -0.060696043
-0.17208216 -0.044187833 -0.14388055 -0.15778409 -0.16606624 0.13192926 -0.22407296 0.17457491

a2c_network.actor_mlp.4.bias f4 [128]
00000000: 27b3 dc3d 1ed4 74be 165f 39bd 3c47 b43d
00000010: cd78 023d 1e3b 5fbd 9feb 303d 06dc fabd
00000020: e77a 9fbe 24b9 5ebe de1f e6bd 1bd1 583c
00000030: 0c83 ea3c d1a0 2ebe bb14 623c 116f 183d
00000040: 0f63 013d 30f0 e8bc 8844 dc3c 3e30 2fbe
00000050: 857d e2bd 0cff c8be 290d ccbd d26c 02be
00000060: cb57 e13d aa4d 0bbe 51dc b6bc 8f50 4e3d
00000070: 9cb2 2dbd 6fec dfbd 4294 f0bd 18db 82be
00000080: 5293 c3bd 6b81 163d 44bb f3bd c26f 4cbd
00000090: c448 04be 7937 ebbd 8550 0fbe f42b d33d
000000a0: 6e36 79be e527 56bb 4c63 61be 8761 51bc
000000b0: 998b bfbc 11de 90bc e032 5e3d c311 d4bd
000000c0: 9e09 12bd 0d92 1ebe 2bdf f93d c657 8c3d
000000d0: a17d 9bbd 4b37 d33d e72d 15be 273c 243d
000000e0: e579 ffbd 0a6b 3cbe 5eb9 43bc 4d2c 05be
000000f0: d7e8 63bb bd7c 2fbe 00df 4f3d f5fd 23be
00000100: 0685 c33d 3245 bdbd 8b7e 2dbd efca 93be
00000110: 7a2e bd3c a580 3e3c 9ae9 88be b22e e63d
00000120: 1b92 f63c 3041 b03d 8a6c dc3d f197 89be
00000130: 6f63 0bbe 7b10 75be 0a31 363d 5df0 d9bd
00000140: d6c0 c1bd 2ecb 45be 6321 e5bd 0e24 bf3d
00000150: 749b 89be a1fd 81be e7cb 7eba c4f7 b5bd
00000160: 27f1 a43d 0f70 273d a33b 7c3d c640 153d
00000170: 22b1 b7be 984e a63d 29e0 273d a6de a33d
00000180: 5162 843c 386a 57be 6c54 fd3d 1949 36be
00000190: fd40 93be 24fa dabc c332 293d 05fa 38be
000001a0: 77d3 35be ac2b 35be e1e0 0dbe 9854 dc3c
000001b0: 5bce 99bb 4e02 37be 5db2 53be 809a 0d3e
000001c0: 4dd8 16bd 41ad 893d ef10 2fbe 8c83 863d
000001d0: 3489 a73d 9e75 5ebe e99a 30be 61ab 163e
000001e0: ab90 4dbe e074 54bd e03a 8d3c 26d0 d33d
000001f0: d532 693d 4a0e 15be a725 10bd 6c37 4bbe
0.10776358 -0.23909041 -0.045256697 0.088026494 0.031853486 -0.054499738 0.043193456 -0.122489974
-0.31148455 -0.21750313 -0.11236547 0.013233448 0.028626941 -0.17053534 0.013798888 0.037215296
0.03158861 -0.028434843 0.026888147 -0.17108247 -0.11059097 -0.39257085 -0.099634476 -0.12736824
0.11003073 -0.13603845 -0.022321852 0.050369795 -0.042406663 -0.10933768 -0.11747028 -0.2555778
-0.095495835 0.036744516 -0.119009525 -0.049911268 -0.12918383 -0.1148519 -0.1399556 0.10311118
-0.2433717 -0.0032677588 -0.22010535 -0.0127796 -0.023381995 -0.017684015 0.054247737 -0.1035495
-0.035653703 -0.15485401 0.12200769 0.06852679 -0.07592321 0.10313281 -0.14568292 0.04009643
-0.124744214 -0.18400207 -0.01194605 -0.1300518 -0.0034776235 -0.17137428 0.05074978 -0.16014846
0.095468566 -0.092417136 -0.04235701 -0.28865764 0.02309345 0.011627351 -0.26740724 0.11239375
0.030098965 0.086061835 0.1076289 -0.26873735 -0.1361215 -0.23932068 0.04448036 -0.10641549
-0.09460609 -0.19315788 -0.11188009 0.09333049 -0.26876414 -0.25388816 -0.0009719715 -0.08885148
0.08053809 0.04087835 0.06158031 0.036438726 -0.3587733 0.08120459 0.04098526 0.08001451
0.016160162 -0.21036613 0.12369618 -0.17801322 -0.2876052 -0.026730604 0.041308176 -0.18064125
-0.17756449 -0.17692441 -0.13855316 0.026895806 -0.004693789 -0.17871973 -0.20673509 0.13828468
-0.036827374 0.06722499 -0.17096303 0.06568059 0.08180466 -0.21724555 -0.17246594 0.14713813
-0.20074718 -0.051869273 0.017239988 0.103424355 0.056933243 -0.14556232 -0.035192158 -0.1984536

a2c_network.value.weight f4 [1, 128]
00000000: 18aa 28bc 5ed4 7a3c 1ee8 6cbd e9d0 5f3b
00000010: 44e2 b33c a126 c13a 9a30 153d 3e1d 193c
00000020: e34c 79bd 8ccd 01b8 02ea 443c 6567 1ebe
00000030: 1c9b 2739 e7fe af3c ced8 2dbc c263 23bc
00000040: e214 84bc 1383 b23a 5c65 d4bb 8e33 3d3c
00000050: 6302 a23c f2aa 83be 8352 a43b 2196 d2bb
00000060: 215c 00be 5ed9 473c efbb 67bc 0b98 8abc
00000070: 5491 efba c7b2 423c 37ce fa3c ca1a b4bd
00000080: fb69 9f3c 30a5 023d 39da 8c3c 3120 633c
00000090: e53d cc3d b49e 0bbd 9a9c d13b f214 19bd
000000a0: a7e9 dabc 662c 193c 90f9 76bb 8517 c13b
000000b0: d203 4bbb 593c ffbc e2bd b43a 3b6d 29bf
000000c0: 116c 00bd bb34 57bd dcbf b23c a790 e33c
000000d0: 1178 0dbc 699b 31bc b4ac debc 43ea 203b
000000e0: 345a 8f3c abc2 7cbd 02ca ba3d 93d5 32bc
000000f0: 2025 193c f886 a138 976a a83c b7f2 483b
00000100: 2f00 b53d 68bb 8d3c 29b7 50bc c83e d53a
00000110: 3447 a1bb 15e4 01be 777f 263c 3016 40bd
00000120: 55a1 27bd 9285 3f3d a849 1e3c af5c 90bd
00000130: 7c8c f2ba a6ef 47be 31c9 38bd 8ac3 96bc
00000140: ef98 ac3a a4db b4bc 0d5b 8fbb 0e89 c6bc
00000150: b96e 3d3a 3267 a23c 3471 663a a347 79bc
00000160: 4f9b 08bc 2a51 1bba 35db 293c 36df 05bd
00000170: 7ad1 53be 4990 22bc c79d ea3b 8e4a d33b
00000180: 0f4f 09bd 864a a0bb 40bd 623d cfd7 1c3c
00000190: 8cae 033d 8813 87bb 00a5 0bbc 23c2 26bc
000001a0: f74d 14bd cff4 22bc 2ac3 b0bb f6f8 173d
000001b0: 5354 3e3b 1e5b 8e3d 39b5 773e bcca cbbc
000001c0: 4afb bdbc b43f f4bc 8b67 efb9 bf5d e6bc
000001d0: 2039 8b3d e770 7c3b c594 eb3c 9417 b5bc
000001e0: b3ae c6bd f628 353c ad2e 0b3c ad77 d939
000001f0: 08a2 2d3d 9745 4e3b 0860 3b3c 7861 9a3c
-0.01029446 0.015309421 -0.05783855 0.003415162 0.021958478 0.0014736244 0.036423303 0.009345351
-0.06086434 -3.0947427e-05 0.012018682 -0.1546913 0.00015984144 0.021483852 -0.010610772 -0.009972515
-0.016123239 0.0013619385 -0.0064818095 0.011547936 0.019776529 -0.25716358 0.005014719 -0.006426588
-0.12535144 0.0121978205 -0.014143928 -0.016918203 -0.0018277564 0.011883444 0.030615909 -0.08794172
0.019459715 0.031895816 0.0171939 0.0138626555 0.09972743 -0.034086898 0.006396842 -0.03737349
-0.026722742 0.009348964 -0.0037685372 0.0058926963 -0.003097762 -0.031156706 0.00137895 -0.661823
-0.03135306 -0.052540522 0.021820001 0.027778937 -0.008634583 -0.010840275 -0.02718196 0.0024553693
0.017499067 -0.061709087 0.09120561 -0.010915178 0.00934723 7.702218e-05 0.020558638 0.0030662247
0.08837926 0.017301276 -0.012738981 0.0016269321 -0.004921818 -0.12684663 0.010162226 -0.04689616
-0.040925343 0.046758242 0.009661116 -0.07048928 -0.0018505002 -0.19525012 -0.045113746 -0.018403787
0.0013168136 -0.022077389 -0.004374868 -0.024235275 0.0007226277 0.019824598 0.00087906723 -0.015214833
-0.00833781 -0.0005924875 0.010367204 -0.032683574 -0.20685378 -0.009922096 0.007159922 0.0064480966
-0.03352266 -0.0048916964 0.055356264 0.009572937 0.032148883 -0.0041222014 -0.008523226 -0.010178122
-0.036207166 -0.009946062 -0.005394359 0.037102662 0.002904196 0.06950973 0.24190225 -0.024876945
-0.023191113 -0.029815532 -0.00045662778 -0.028120873 0.06798005 0.0038519443 0.028757462 -0.02210597
-0.0970129 0.011057129 0.008495015 0.0004147863 0.042390853 0.0031474584 0.01143647 0.018845305

a2c_network.mu.weight f4 [18, 128]
00000000: 71f2 3a3e 265c 86bb d12e 3f3e 55ff 723c
00000010: b1cb 743d f3cc ecbc 3228 b43d 1574 00bd
00000020: 165c 66be 7504 fdbb e751 1ebe d76c 8b3d
00000030: c4ff 12bc 6669 babb 202c a7bd c30c bbbd
00000040: 6457 1b3d e2c5 27be 748f 0bbe 4d5b 7abe
00000050: 9c2d 4dbd 8889 d5bd fa5e f33d 4ee0 de3a
00000060: 8a05 823d 493f 20be 3be9 dcbd 8305 66bd
00000070: 7edc 803d 14da a93c 31bc 293d 543c 8abc
00000080: 400e 133d 898b 4a39 acc5 bb3c b834 b23c
00000090: eee4 dc3d 7a08 0abe 5331 44be 3b9d 76bd
000000a0: afc5 623e ae36 bc3c b33a 2bbe 8a5b 81be
000000b0: e160 503e 7046 8ebd a538 1bbd 6895 5c3c
000000c0: 4319 54bd 9466 ae3d a90c e13d 6961 32bd
000000d0: a973 c6bd 22c6 91be 2a0d b53d 9d0e 1c3e
000000e0: 2e35 b2bd 725f d93d aa95 ae3d ee2c ffbb
000000f0: 423a af3c f2b4 733e c88f 023e 62ec a83c
00000100: 8996 41bc 4f66 8cbe 7205 543e a766 903c
00000110: 69ad c93d 1686 633d 1dfc 2a3d 76da f13d
00000120: 9d66 29be 1f69 ae3d 91b2 6e3d cdd9 d33c
00000130: 3c72 223d f5ff cdbd e18b 2c3d 1cb5 cabd
00000140: 5b47 1abe 2d2b 883b 91b4 243e 7b44 c7bd
00000150: b122 803e 503c be3d 2ccf ad3c f5d6 6a3c
00000160: e486 a2bd 5443 5c3d 83e2 59be 4be1 893d
00000170: ec74 b93c a660 ad3d fe75 80bd 5dc2 18bc
00000180: 71a8 56bd 860c 303d c6e4 24be e10a 2bbc
00000190: f96f 11bd fad3 0c3e b182 013e 7569 19bd
000001a0: 79e5 fc3c 3072 e43d 2cc4 83bd 73ac 34be
000001b0: a1d6 0b3d c589 e1bd 5b39 a5bc e883 fcbd
000001c0: f79f e7bc 4714 9ebd a292 35bd d7c1 823d
000001d0: c808 2ebd effb a1bd c2c7 34be 7660 d83d
000001e0: a110 053d 1b84 6dbe e731 02bd 91f0 a9bd
000001f0: 12a1 a23d aa73 fabd 7a54 a73d 1f5f 2abd
00000200: 4658 aebd 412c 57bd 62a2 a3bd ee04 a33d
00000210: 9cce a1bc 8e58 c23b d11c d33c ffeb 973d
00000220: 2d8f 303d 646a 10be 9336 c43d 425f 783b
00000230: 01fb 04be 1db7 f63c 90b1 e2bc 46fc 00bd
00000240: 1f61 9f3d dc05 8f3d 7036 ce3b e3c9 da3d
00000250: 0c74 d03c f18b 91bd 291e a63c 9f52 873d
00000260: faa7 58bd dacc 1bbe df3f 313d 2450 e8bc
00000270: c308 c6bd ac6e bebd 5ac3 c6bd 70af 4d3d
00000280: 2513 2cbd 1811 87bd 545f 83be 0297 8cbd
00000290: 1c3a 323d 941b 66bd cd59 d53d ee54 74bb
000002a0: 080e fb3d 8b49 9ebd 8783 a33d 036e cf3d
000002b0: c04b 5dbd 4598 93bc a227 8b3b a4ca 94bc
000002c0: 703d debd 8937 5a3d 6d64 f13d bc39 99bd
000002d0: c697 433d 4576 cfbc 7261 9dbd 9ced 983d
000002e0: 1eb6 97bd 8cc4 7fbd 3d8b 9bbd 8b69 993d
000002f0: 12d2 af3d 16f3 653d 46b3 763c 6f61 49bd
00000300: 8385 7ebd 5971 79bd 867d a5bd ed15 f7bc
00000310: f1d8 bc3d c8c3 953d 3d84 513d 8186 30bd
00000320: 8ea3 6bbd efdd 50bc 1c4d 7f3d fc87 f03d
00000330: 5457 c0bd 7a4b 0ebd 54bd 033e be77 ecbd
00000340: b7dd 1a3e d820 b73d 6073 20be 7365 3e3e
00000350: 3282 da3c 151a 91be 2f02 e5bd a24e e5bc
00000360: e0ef 943d 2575 a2bd 43b5 963d 1b9f e6bd
00000370: ef04 86bc 2b0b 913d e39f c43d 3996 a5bd
00000380: ba4c c13d 471e 93be e677 14bd 6f89 12be
00000390: 0e76 3abe d178 ac3c 7624 bb3d 2451 063e
000003a0: b967 c23d ab03 883c 49db 43ba a73d 273e
000003b0: 36ba edbd 8ccf 06be bf35 133e b5d6 b23d
000003c0: e133 00be 0b0a a4bd a1b8 6f3b 29ac 9a3d
000003d0: 7656 f33c aec4 bc3d 6ebe edbd e657 abbd
000003e0: c277 723c fea6 19bd d517 b63d d4b3 d2bd
000003f0: 00c0 183d 9b59 9a3c c444 b53d af9d b03c
0.18256547 -0.0041003404 0.18670203 0.014831384 0.059764568 -0.028906321 0.08796729 -0.031360704
-0.22496065 -0.0077214786 -0.15460931 0.06807869 -0.008972112 -0.005688834 -0.08162713 -0.091332935
0.03792514 -0.1638408 -0.13628942 -0.24448891 -0.050092325 -0.10426623 0.1188335 0.0017004104
0.06348713 -0.15649141 -0.10786673 -0.0561576 0.062920555 0.02073387 0.04143924 -0.01687447
0.03590226 0.00019316202 0.022921406 0.021753654 0.107858524 -0.13479796 -0.1915944 -0.06020854
0.22145723 0.022975292 -0.1672161 -0.2526515 0.20349456 -0.06947029 -0.037895817 0.013463356
-0.051781904 0.08515659 0.10988743 -0.04354993 -0.09690029 -0.28471476 0.088404015 0.1523995
-0.087015495 0.10613908 0.0852464 -0.0077873385 0.021390084 0.23799494 0.1275016 0.020620529
-0.0118156755 -0.27421805 0.20705202 0.017627073 0.098475285 0.055547796 0.04174434 0.11809246
-0.1654305 0.08516144 0.058275763 0.025860691 0.039659724 -0.100585856 0.042125586 -0.09897825
-0.15066282 0.0041555376 0.16084506 -0.097298585 0.25026467 0.092888474 0.021216951 0.014333476
-0.079358846 0.053775147 -0.21277814 0.06732424 0.02263876 0.084657 -0.06272505 -0.009323684
-0.052406732 0.042980693 -0.16102895 -0.010439605 -0.035507176 0.13752738 0.12647511 -0.037454087
0.03087114 0.11154592 -0.06433901 -0.17643909 0.034140233 -0.110126056 -0.02016895 -0.123298466
-0.02827452 -0.07718711 -0.044329293 0.06384628 -0.042488843 -0.07909381 -0.17654327 0.105652735
0.03248656 -0.23194925 -0.03178587 -0.082978375 0.07940878 -0.122290924 0.081704095 -0.04159462
-0.085129306 -0.05253244 -0.079899564 0.07959925 -0.01975184 0.0059309667 0.025770577 0.074180596
0.043105293 -0.14103085 0.09580722 0.0037898575 -0.12986375 0.030116612 -0.027672559 -0.031490587
0.07782196 0.069835395 0.0062931105 0.10683038 0.02544596 -0.0710677 0.020278053 0.066075556
-0.05289457 -0.15214863 0.043273803 -0.028358527 -0.0966964 -0.09298453 -0.09705229 0.05021614
-0.042010445 -0.06595057 -0.25658667 -0.0686474 0.04351245 -0.056178644 0.10417519 -0.0037282067
0.122585356 -0.07728871 0.07984071 0.10128405 -0.05402732 -0.018016944 0.004246668 -0.018163033
-0.10851562 0.05327562 0.11786733 -0.07481715 0.047752164 -0.02532495 -0.07684602 0.074671954
-0.07407783 -0.0624433 -0.07594917 0.07490834 0.085849896 0.056140028 0.015057391 -0.049165186
-0.062139045 -0.060899112 -0.08080582 -0.030161822 0.09221066 0.07312733 0.051151503 -0.043097023
-0.057529025 -0.012748226 0.062329397 0.11744687 -0.093916565 -0.03473995 0.12865192 -0.115462765
0.1512364 0.08941811 -0.15669012 0.18593387 0.02667341 -0.28340212 -0.11182057 -0.027991597
0.07272315 -0.079325 0.07358792 -0.11260816 -0.016359774 0.07082208 0.096008085 -0.08085293
0.094384626 -0.28734037 -0.036247157 -0.1431024 -0.18209097 0.021053704 0.09137814 0.1311689
0.0949244 0.016603312 -0.00074713357 0.16332112 -0.116077825 -0.1316511 0.14375971 0.08732358
-0.1251979 -0.08009728 0.0036578553 0.07552368 0.029704314 0.09217201 -0.11608587 -0.08366375
0.01479906 -0.03751277 0.08891264 -0.10288206 0.03729248 0.018841555 0.088510066 0.021559564

a2c_network.mu.bias f4 [18]
00000000: 4472 283c a613 713c ac65 3abc 5a59 253d
00000010: c929 013d 7b53 97bd 9897 a23d 964f b13c
00000020: 0599 9f3c 6305 cf3c ea4e 9abd 77e3 043e
00000030: c5b8 60bb ff9a 063d 4cfc b73d cf86 cb3d
00000040: ff56 713d fbd2 733c
0.010281149 0.014714157 -0.0113767795 0.040368415 0.03153399 -0.073889695 0.079390705 0.021644395
0.019482145 0.025271123 -0.07534583 0.12977396 -0.0034289819 0.03286266 0.08983669 0.09937822
0.058920857 0.014881845

exp_avg f4 [18]
00000000: 8c08 59b7 555e a536 5d5c 1aba 9a4d 8eba
00000010: 5461 22ba d65e b2b9 2f7f 0eb9 bea0 a1ba
00000020: a6bf d0b9 4d3b 5d3a 8c35 9aba 99d8 ae39
00000030: c0ab deb9 a5f0 24ba a4f5 af38 e1ac b938
00000040: b977 cbb9 177a b839
-1.2936198e-05 4.928365e-06 -0.0005888397 -0.0010856867 -0.00061943126 -0.00034021464 -0.00013589555 -0.001233123
-0.0003981564 0.00084393175 -0.0011765226 0.00033349244 -0.00042471103 -0.00062919623 8.3904044e-05 8.8536886e-05
-0.00038808378 0.0003518618

exp_avg_sq f4 [18]
00000000: c5b6 0537 2880 0237 f519 1837 2cab f936
00000010: 79d5 0b37 3512 ed36 3780 0b37 7292 0737
00000020: 5a6e 1d37 0d72 fd36 1ed9 0f37 a83c fa36
00000030: 4dcf 2037 2472 0737 ed79 1037 c799 fc36
00000040: f588 0437 b31c 0e37
7.969972e-06 7.7784425e-06 9.06595e-06 7.4407053e-06 8.334749e-06 7.06527e-06 8.314898e-06 8.080724e-06
9.3836225e-06 7.553265e-06 8.574016e-06 7.457642e-06 9.585009e-06 8.0732025e-06 8.611457e-06 7.5280873e-06
7.899701e-06 8.470542e-06

exp_avg f4 [128, 66]
00000000: bc3a e838 3a1f f6b6 8590 32b8 6bd2 c8b8
00000010: 4a1c eeb8 5f4f 3339 4084 86b6 1704 e135
00000020: c899 aab9 f41f 8039 1ef8 fc36 fb5d e038
00000030: ef33 d337 e9a1 3038 e579 d436 189b b3b7
00000040: d9c4 7f37 9d68 6bb6 212d 1738 2627 aa37
00000050: 332e 0cb5 abdb 8b38 746c 5238 65bf 4138
00000060: 2d30 d937 d36e 9838 079a 3838 5107 6db8
00000070: 500d 55b8 ac46 aeb7 3cfc 9039 11c3 90b9
00000080: 45c3 8db8 3c62 b5b9 4c8a d939 1d55 5a39
00000090: d166 4c3a 04ed ebb8 2bac 55b9 4c89 3ab7
000000a0: 3cce 923a d603 083a ce4d 6c3a f775 5039
000000b0: ffc8 773a 23ff 95b9 d046 c239 7377 0e39
000000c0: fcfb 8d39 7dfa 9039 ada6 9bb8 e191 00b9
000000d0: b048 ca38 be8f b2b8 2fe7 143a 5da4 c538
000000e0: 96cb beb9 8a37 1bb9 da1b 193a acee db39
000000f0: 6ec9 a339 28d5 3039 ad8c d939 6114 2ab9
00000100: 98f4 7fb9 75db 0339 ea87 47b9 9b7c 23b7
00000110: 55a1 0d38 e3ae 1bb9 5d7d 9438 5360 3939
00000120: 0875 50b6 6abd 49b7 408a ce39 d76f 7ab9
00000130: d598 81b7 2cca 7939 dabd f4b7 2ee6 9437
00000140: 2fca 61b4 8f28 a0b7 7cba a736 9c30 f836
00000150: 19e8 86b8 ecfa 48b8 1f42 e3b7 db7a 2fb8
00000160: 17c8 40b8 7f85 bcb7 457f 8738 3554 9138
00000170: 159e 2538 e11c 4ab8 e651 b038 5cfc 2438
00000180: fee5 78b9 fca5 46ba 06e1 c239 2cfe 09ba
00000190: ebfe e3b5 2482 aeb6 f050 e3b8 b8bf fab8
000001a0: 5978 efb8 8c72 0d3a aec5 58ba e8fb bfb9
000001b0: 7027 5638 c3e3 0cba 48af e439 b20a 3139
000001c0: 3b4d 8139 98bf d938 99bd 6ab9 710f 15b9
000001d0: 881e c538 8f92 20b9 dbc6 dd38 8487 7b37
000001e0: 77ad efb9 978b 64b9 8908 48b9 f710 2b39
000001f0: c917 afb9 a47c b7b9 75ac 0e3a a9ab 5f39
00000200: 31d3 f6b8 635e 0a39 0849 a739 b87f 1e39
00000210: 20a1 3eb9 5f1d 7fb9 afa9 a4b6 b179 9c37
00000220: 7a68 b839 a235 2ab9 0fc1 d437 bdfc d436
00000230: a52c 45b9 9eda 45b9 a198 b4b9 a7f2 43b9
00000240: cf91 1cb8 e6a0 9db5 1575 b9b3 f49e 68b7
00000250: 3078 88b7 8573 3338 c547 9838 9322 a138
00000260: 0f48 8138 0cce a137 5806 13b7 e1b1 84b5
00000270: 836d b1b8 bbe6 41b8 a501 01b9 25fc 0339
00000280: eee5 8c36 28de be38 5615 1739 94a0 c23a
00000290: 8cd8 45ba efa3 bb3a 6aa4 23bb b66f 463a
000002a0: f949 f139 583a 0c3a 0e80 f239 c5b0 74b6
000002b0: d769 b7b9 7d2f 10b9 bfc1 2f3a 9fa5 bcb9
000002c0: faa6 b3ba 41e2 613a eea4 7339 52c5 983a
000002d0: 0e3a 9fb9 402e a339 4c94 9338 1dd5 9038
000002e0: 519e 45ba 041e 243a 9d11 2c3a 7135 1e37
000002f0: 938e fe39 d246 0839 1122 ceb9 2127 69b9
00000300: 3fd6 e5b9 3c50 d038 d65e 47ba 7429 203a
00000310: eb8a 8a39 26b5 353a 5cf6 3838 d50e 4f39
00000320: d6bb d337 800c cd36 a444 ac37 407d 8c39
00000330: 5a78 17b7 e8b7 88b7 aa9c 2439 a959 2338
00000340: 19ef 5539 f835 2939 11d3 9db7 83c0 9e36
00000350: fed9 0bb8 ad7e 1a38 745a deb5 948d 83b8
00000360: faa8 2bb8 29f2 55b8 5e5d a3b6 2bfc 95b8
00000370: b332 ceb7 2d49 f5b6 c572 1637 3f7a ce37
00000380: dcc9 9eb7 3f9f 7c37 c6d8 92b7 2603 3db8
00000390: ea93 b03a a873 233a 1f2c 02bb d68a 093b
000003a0: 138a 08ba 3337 42ba 89f2 9fba 3ff7 5cb9
000003b0: 77c3 5239 db20 073a 664c dcb8 6a8f 8ab8
000003c0: a539 7fba 697d d9b9 cc92 123a 2200 033b
000003d0: edee 79ba 745e 5039 ef8f 1439 ac2b 9439
000003e0: f6c4 07ba a51b fc39 19d7 9db9 d051 03ba
000003f0: d5ba 33ba 10c4 6cb9 9e11 38b9 e2c5 2eb9
0.00011073562 -7.3350066e-06 -4.25731e-05 -9.5759366e-05 -0.000113539936 0.00017100338 -4.008907e-06 1.6764997e-06
-0.00032539503 0.0002443787 7.53907e-06 0.000106986576 2.5177344e-05 4.211246e-05 6.3322827e-06 -2.1410684e-05
1.5245017e-05 -3.5078622e-06 3.6043235e-05 2.028381e-05 -5.2221293e-07 6.668953e-05 5.0168906e-05 4.6193036e-05
2.589085e-05 7.2685674e-05 4.4012468e-05 -5.6512017e-05 -5.0795556e-05 -2.0775326e-05 0.0002765375 -0.00027611156
-6.759776e-05 -0.000345962 0.00041492505 0.00020821807 0.0007797303 -0.00011249821 -0.000203774 -1.1118431e-05
0.0011200379 0.000518856 0.00090142793 0.00019880371 0.0009452253 -0.00028609586 0.00037055323 0.00013586674
0.0002708136 0.0002765245 -7.422022e-05 -0.00012261375 9.64565e-05 -8.5144755e-05 0.0005680201 9.424307e-05
-0.00036391307 -0.00014802642 0.0005840637 0.0004194876 0.0003123986 0.00016864075 0.00041494277 -0.00016220055
-0.00024409813 0.00012574888 -0.00019028751 -9.744569e-06 3.376727e-05 -0.00014847102 7.080541e-05 0.00017678858
-3.1062536e-06 -1.2024635e-05 0.00039394386 -0.00023883521 -1.5449166e-05 0.00023821805 -2.9175473e-05 1.775016e-05
-2.1028312e-07 -1.9092373e-05 4.9986975e-06 7.396635e-06 -6.4328495e-05 -4.7917405e-05 -2.7091299e-05 -4.183767e-05
-4.5962715e-05 -2.247351e-05 6.4610074e-05 6.9298236e-05 3.948629e-05 -4.818745e-05 8.407589e-05 3.9335675e-05
-0.00023736802 -0.0007577834 0.0003717022 -0.000526401 -1.6987009e-06 -5.2007545e-06 -0.00010839279 -0.00011956639
-0.000114188246 0.0005395792 -0.00082692027 -0.00036618044 5.1058305e-05 -0.00053745153 0.00043618144 0.0001688402
0.0002466234 0.000103830534 -0.0002238661 -0.000142155 9.399379e-05 -0.00015313386 0.00010575141 1.4992318e-05
-0.00045714874 -0.00021795776 -0.00019076666 0.0001631415 -0.00033396322 -0.00034997344 0.0005442568 0.00021330886
-0.000117695316 0.00013195867 0.00031907135 0.00015115633 -0.00018179836 -0.00024329637 -4.9073346e-06 1.8653316e-05
0.00035173056 -0.00016232443 2.536227e-05 6.347515e-06 -0.00018804015 -0.00018868825 -0.00034445993 -0.00018687044
-3.7329093e-05 -1.1744239e-06 -8.636031e-08 -1.3865287e-05 -1.626843e-05 4.278451e-05 7.261293e-05 7.683518e-05
6.164621e-05 1.9288644e-05 -8.76336e-06 -9.886536e-07 -8.460416e-05 -4.622967e-05 -0.00012303011 0.00012587065
4.1990925e-06 9.101286e-05 0.0001440843 0.0014848881 -0.00075472216 0.0014315824 -0.0024969825 0.0007569747
0.00046022216 0.000534927 0.00046253245 -3.6461727e-06 -0.00034983337 -0.00013750601 0.00067045906 -0.00035981552
-0.0013706379 0.00086167833 0.00023235727 0.0011655486 -0.00030370097 0.00031124242 7.037129e-05 6.9061505e-05
-0.00075385446 0.0006260576 0.0006563904 9.429977e-06 0.0004855288 0.00012996353 -0.00039316763 -0.00022235188
-0.0004383791 9.933158e-05 -0.0007605379 0.00061096926 0.00026424913 0.0006931595 4.409846e-05 0.00019746584
2.5240628e-05 6.1109313e-06 2.0535961e-05 0.000267962 -9.028323e-06 -1.6298101e-05 0.0001569862 3.894573e-05
0.00020402334 0.00016137201 -1.8814144e-05 4.7311783e-06 -3.3343204e-05 3.6834437e-05 -1.6566614e-06 -6.272938e-05
-4.092695e-05 -5.1008687e-05 -4.868648e-06 -7.1518436e-05 -2.4580722e-05 -7.3100878e-06 8.967419e-06 2.4614039e-05
-1.8929066e-05 1.5057448e-05 -1.75055e-05 -4.5064044e-05 0.0013471816 0.00062351907 -0.0019862724 0.0020987294
-0.0005208563 -0.0007408738 -0.0012203018 -0.00021072941 0.00020099977 0.0005154737 -0.00010504648 -6.607066e-05
-0.0009736068 -0.00041482903 0.00055913324 0.0019989093 -0.0009534199 0.00019871612 0.00014168 0.00028261298
-0.0005179191 0.00048085782 -0.00030105634 -0.00050094444 -0.0006856148 -0.00022579753 -0.0001755417 -0.0001666765
