logs/rl_games/hexapod_flat_direct/2025-11-15_08-58-23/nn/last_hexapod_flat_direct_ep_900_rew_48.324234.pth (torch, 545947 bytes, 33 tensors)

value_mean_std.running_mean f8 [1]
00000000: beaf 216b 1dfc 0440
2.6231029863028814

value_mean_std.running_var f8 [1]
00000000: 6a42 e2bf 8374 d33f
0.30398648966460107

value_mean_std.count f8 []
00000000: 0000 0001 0018 b541
353894401.0

a2c_network.sigma f4 [18]
00000000: ec17 73bf 5865 a3bf 8118 b6bf eecb d4bf
00000010: 9414 b6bf f637 82bf b3ab 60bf a226 55bf
00000020: 6072 88bf 0edc 7dbf f39a 66bf e2f2 6abf
00000030: d49a 33be 72f2 07bf 085d e5be c8dc c9be
00000040: 9420 9fbe fcc7 93be
-0.94958377 -1.2765303 -1.4226228 -1.6624734 -1.422503 -1.0173328 -0.8776199 -0.83262074
-1.0659904 -0.991639 -0.90080184 -0.9177686 -0.17539531 -0.5310432 -0.4479754 -0.39426255
-0.31079543 -0.28863513

a2c_network.actor_mlp.0.weight f4 [128, 66]
00000000: 6e42 32be 34e4 98bd 2645 103f 22af 3fbe
00000010: 781c 84bd 7199 383d aebd 8b3e 56c9 253e
00000020: a9f8 a0be 3564 fdbe 54b5 14be 1141 d53c
00000030: cfaf 073e 7b68 06be ea6f 85be 923e 9dbe
00000040: fec7 913e 5aca fabd 8523 c23c 2747 f0bd
00000050: 783d 353d d337 58bc d0ba 2fbe 9e5b 253d
00000060: a993 12bd 0ec3 143d 306c 033e 7935 4e3c
00000070: 7615 843b 904c 57be 04f3 af3d cf3b 343c
00000080: a593 e63c 5fbc 14bd 7845 d0bc 9b54 bc3d
00000090: e11d 8fbd c503 20be eee6 873d 5af0 acbd
000000a0: 738b 5bbd fccb ba3c 88c4 68bd 8fdd 143d
000000b0: dc64 4c3d 2f42 253d 821d 373d 777a babc
000000c0: cefd d4bd 7ca2 d7bd b9ea 18bd 8922 9abd
000000d0: d795 0fbd f2c2 41bd 6002 08be 6411 1abe
000000e0: 7f1e f4bc 8d6e 7dbd 8bc2 22be 46d9 953c
000000f0: 80eb 423a 5560 2f3d 2b6e 213e 5d8a 9c3d
00000100: 04c1 053d 027d f43c 5ff8 5d3e 6412 dfbe
00000110: d37f b0bd 9174 f5bd 8a3a a5be d87e 203c
00000120: bd8f 0dbf 31d4 c03e 2413 473e cc6d 89be
00000130: 2afe 093f 190d 0fbf cea1 3ebe 68da fc3e
00000140: 7c3c c0bd 604e 2e3f a751 243e 7b4f e9bd
00000150: 7256 093d 9ffa a9bd 40fb 3ebd b528 b4bd
00000160: 760b ab3e cab4 0bba 9ba9 363e 8fe0 713d
00000170: 71d2 683c 57bb febc 32e6 2ebd 7039 b73d
00000180: 8465 05bd 1e9a d6bd b020 b33d bd44 123d
00000190: 6a0f 78bd c195 b13d db25 823d b015 9bbb
000001a0: bb10 8a3d 7af6 a03c 9753 3ebd bf92 0b3d
000001b0: b1d0 6fbc ee1e 97bb 1d46 52bd dcc4 933d
000001c0: b1c7 5cbc 9e1e 3fbd d67c 09bb 6dec b93d
000001d0: 575b d13c 52df 823c cb69 0e3d 10fd 433c
000001e0: 103c dc3c dd88 afbd 887d 8d3d 7c16 e53d
000001f0: 1e30 fcbd feb8 2a3d 1f8b 313d cac7 053e
00000200: d89f bdbc 50b8 143d 49e8 78bd c4f0 2b3d
00000210: a5b2 81be d64f f9be c2a8 fb3e fcda 8ebe
00000220: e415 143f 66d7 d43d d17b 1a3f 405e 093d
00000230: 41fe b13d 603d 39bf cb76 bdbe dc8f 2b3e
00000240: 4d1c 413e f2c6 e03e db41 2e3e e755 fbbb
00000250: fc08 4cbf 7b0c 523d 72b6 87bd e8f4 34be
00000260: ea43 35bc fc92 2dbe e988 2fbe 8cfe 91be
00000270: 7aaf 6fbc b692 59be b2ef 98bd 2d12 423d
00000280: 5f5b 1cbd ed66 663e 8b3b a0bd 958e 1abd
00000290: aaff e7bd 8c36 dc3d c377 50bd c51d a93b
000002a0: aa10 943d 8537 a83c e109 20bd 3019 92bc
000002b0: a7be 4dbd fc55 24be 6ef4 a1bd 909c e8bd
000002c0: 5f67 803d b25c 10bd 96f7 263c 97cf 523c
000002d0: 935b 23bd 1a9c 6e3e 26e0 52bc 5d28 d03c
000002e0: e93c 9fbe bef5 84bd cd63 5abd 9cc8 dcbd
000002f0: 9bde 7e3d 992c 90bd afed a13d 7f7d 19bf
00000300: 6add 02bd 1b3f 22bd beaa da3d d951 823d
00000310: 54e7 31bd 24df d8bc 6bf7 893f c32a a4be
00000320: 9db9 453f 3bf3 0fbe eed4 8abe 1329 a7be
00000330: 6b3d 07bf 800d da3f d791 4bbd 8fa1 403f
00000340: bd9a 1c3f 3c23 64be bd0c 23bf 1559 0b3f
00000350: b586 acbe 1817 053e 3267 01bf c8e5 503f
00000360: 26cf 4c3e e7b1 07bd bd8a b6be fd95 ed3d
00000370: ac00 04bd e358 963d 87b0 1bbe 5b9b a83d
00000380: 1136 d53d f11e 3dbf b0f1 91bc 9055 39be
00000390: 362a 6cbb ff41 7ebd 667b 993c 1fb3 8dbd
000003a0: ea82 a0bd df4f a6bd 5911 283e 6a0b 3b3e
000003b0: 1a92 19bc 1368 9e3b 91e8 6bbd a746 043d
000003c0: 78a5 dcbc cb46 22bd ddbc b0bc 88c9 3f3d
000003d0: 40e4 9e3d 488a 173d 57b4 08be bacd 4d3e
000003e0: 0711 273e 650d d7bd 4f24 a0bc fccc 933e
000003f0: 05df f03c 0f8c 9b3d 4410 63be e3d8 3dbc
-0.17408153 -0.07465401 0.5635551 -0.18719152 -0.064507425 0.045068208 0.27293152 0.16190085
-0.31439713 -0.49490514 -0.14522296 0.026032003 0.1325066 -0.13125794 -0.26061946 -0.307118
0.28472894 -0.12245627 0.023698578 -0.11732321 0.044248074 -0.013196903 -0.17161107 0.040370576
-0.03578535 0.03631883 0.12834239 0.012585991 0.0040308787 -0.210253 0.085912734 0.011000588
0.028146574 -0.036312457 -0.02542375 0.09195825 -0.06988121 -0.15626438 0.06635843 -0.08444281
-0.053599786 0.022802345 -0.05682805 0.036344107 0.049900874 0.04034632 0.044705875 -0.022763474
-0.10399972 -0.10529038 -0.037333224 -0.07526118 -0.035055008 -0.047305055 -0.13282156 -0.15045696
-0.029799698 -0.061873008 -0.15894525 0.01829208 0.0007435605 0.04281648 0.15764682 0.07643578
0.032654777 0.029844765 0.21676777 -0.43568718 -0.086181305 -0.11985124 -0.32271224 0.009795867
-0.5529745 0.3766189 0.19440895 -0.2684158 0.5390345 -0.5587936 -0.18616411 0.4938538
-0.093865365 0.6808834 0.16046773 -0.11392113 0.033529706 -0.08299755 -0.04662633 -0.08796827
0.33407182 -0.0005329369 0.17838137 0.059052046 0.014210329 -0.03109519 -0.0427 0.08946502
-0.032567516 -0.10478614 0.08746469 0.035710085 -0.060561575 0.086711414 0.063548766 -0.00473281
0.06741472 0.01964878 -0.046466436 0.034075495 -0.014637158 -0.0046118414 -0.051336396 0.07215282
-0.0134753445 -0.04666006 -0.002097895 0.09078298 0.02555625 0.015975628 0.03476886 0.01196219
0.026884109 -0.085710265 0.06908709 0.11185929 -0.12313865 0.04168033 0.043345567 0.13064495
-0.023147509 0.036308587 -0.0607684 0.04197766 -0.25331607 -0.48693722 0.4915219 -0.27901447
0.578459 0.103926465 0.6034518 0.03353715 0.08691073 -0.72359276 -0.37004694 0.16754097
0.18858452 0.43901783 0.1701731 -0.0076701525 -0.7970121 0.051281434 -0.066265956 -0.1767155
-0.011063555 -0.16950601 -0.17142071 -0.28514516 -0.014629239 -0.21247372 -0.07467593 0.047380615
-0.038173076 0.225002 -0.07823857 -0.037733633 -0.11328061 0.107525915 -0.050895464 0.0051610195
0.07229741 0.020534286 -0.03907192 -0.017834276 -0.05023065 -0.16048425 -0.079079494 -0.11357987
0.062697165 -0.03524465 0.010190865 0.012866876 -0.039882254 0.23301736 -0.012870824 0.025409872
-0.31101158 -0.06492184 -0.053317834 -0.10780451 0.062224012 -0.07039756 0.07906663 -0.59957117
-0.03194944 -0.039610963 0.10677098 0.063632675 -0.043433502 -0.02647359 1.0778631 -0.32063875
0.7723635 -0.14057629 -0.27115577 -0.32648525 -0.5282809 1.703537 -0.04969963 0.7524652
0.6117361 -0.22279066 -0.6369131 0.54432803 -0.33696523 0.12997091 -0.5054809 0.8160062
0.20000896 -0.033128645 -0.35652724 0.116008736 -0.032227203 0.073411725 -0.15204059 0.08232757
0.10410703 -0.7387534 -0.01781544 -0.18099046 -0.0036035902 -0.062074658 0.018735599 -0.0691893
-0.0783747 -0.08120703 0.16412868 0.18266073 -0.009373212 0.004834184 -0.05759484 0.03229394
-0.02693437 -0.039618295 -0.021574432 0.046823055 0.07758379 0.03699711 -0.13350044 0.2009801
0.16315089 -0.10500602 -0.019548563 0.28867328 0.029403219 0.075950734 -0.22174174 -0.011587354

a2c_network.actor_mlp.0.bias f4 [128]
00000000: 33c1 443e d23a 16be 7837 26be c95d 013e
00000010: 0eab b5bd 4c5e 4a3e b811 1fbe fbf4 c4bd
00000020: 2637 7a3e f96c efbd 362b 37bd 728c 5cbd
00000030: 0839 9a3d 6c5c 183e 6713 35be 671e dfbb
00000040: ac11 523e 4099 1c3e 19a4 d43c fb18 20bd
00000050: e1ca 5abe ba2b 04bd b0a9 4cbd beed fa3d
00000060: 3d6f 33be ea5d 133e da19 683d f21f 063e
00000070: a711 873c f3cb 8c3d cd2c 0e3e 731a 0fbd
00000080: 4b50 383e cd10 28bd 3763 5c3d 87cf 443d
00000090: 36cd a6bc 1e3a bf3c 2722 f63c 82d1 2fbe
000000a0: b13d b5bd adb0 1f3e c4b2 893d 9792 fb3d
000000b0: c0ac 4cba 35b3 753d 7f07 16bd 6687 e23d
000000c0: df16 e9bd 7116 9a3d 2d71 8ebd c979 003e
000000d0: 4bd2 433c 55e8 8bbd cf0f f1bc fe19 efbd
000000e0: efb5 ddbc c5a9 383e e19e 843d b458 fcbd
000000f0: 8720 c03d 538b b1bd 5ddf 82be 8fa3 1fbd
00000100: 1be3 2e3d e459 f1bd ae79 e6bd 5a4c f73d
00000110: 5c7a 6fbd b03a 893e bb93 ac3c 1f0e b9bc
00000120: 4eb9 943e 25b9 c2bd aa01 d33d febc 2e3d
00000130: 8215 bdbc f196 24be c13b bbbc 218a 7e3d
00000140: c660 78be 5daf 12be 9688 843e 3c84 3a3e
00000150: 8f6c 78be dbdd afbc 6993 00be 92e1 73be
00000160: b4fc a33d ba79 95bc 1d3c 8d3e 9b34 73bd
00000170: 8f11 3c3d b91b 0abe c502 0b3e b2be 8bbd
00000180: c1f8 e9bc 9ae3 4fbd 7664 2cbb 14eb d0bc
00000190: aecb 61bd 76cd 9fbd 51e8 96bd feab 26be
000001a0: 0028 58bc 7b38 263e 9313 b03d 4c25 70be
000001b0: c6af b63c 9d22 743e 87f3 9bbd 8fe5 953d
000001c0: 9a36 01be 761a 11be e26d 7b3d 8103 8dbd
000001d0: fe5c dfbd 5190 11bd 64a8 823d 1528 01be
000001e0: 7df7 01be 9ba6 c9bd d772 40be a988 023e
000001f0: 746b 803d 4c36 debd bb84 62bd 650f a5bd
0.19214325 -0.14670876 -0.16232097 0.12633432 -0.08870517 0.19762534 -0.15534103 -0.09617039
0.244351 -0.11690707 -0.044718944 -0.053844877 0.07530409 0.14879006 -0.17683183 -0.006809044
0.20514554 0.15292835 0.025957154 -0.039086323 -0.21366455 -0.032268263 -0.049966514 0.12252377
-0.17522903 0.14391294 0.05666528 0.13098124 0.01648791 0.06874838 0.13884278 -0.034937333
0.1799938 -0.041031647 0.053805556 0.048049476 -0.020361524 0.023343142 0.030045582 -0.17169765
-0.08849657 0.1559474 0.0672355 0.12283819 -0.0007807724 0.05998536 -0.036628243 0.110609815
-0.113813154 0.075238116 -0.0695518 0.12546457 0.011951993 -0.06831423 -0.029426483 -0.116748795
-0.027064292 0.18033512 0.06475616 -0.12321606 0.09381204 -0.08669152 -0.25561038 -0.03897434
0.042697053 -0.117847234 -0.11253677 0.1207511 -0.0584663 0.26802588 0.021066537 -0.022589741
0.29047626 -0.0950797 0.10303052 0.042660706 -0.023081545 -0.16073205 -0.022855641 0.06214345
-0.24255666 -0.14324708 0.25885457 0.18214506 -0.24260162 -0.021468094 -0.12556233 -0.23816517
0.08007184 -0.01824652 0.27584925 -0.05937634 0.045915183 -0.13487138 0.13575275 -0.068234816
-0.028560998 -0.050754167 -0.0026304997 -0.025502719 -0.055125885 -0.078028604 -0.073685296 -0.16276547
-0.0131931305 0.16232483 0.085974835 -0.23451728 0.022300612 0.23841329 -0.076148085 0.073191755
-0.12618485 -0.1417025 0.06138409 -0.06885434 -0.10906409 -0.03553802 0.06379774 -0.12612946
-0.12692066 -0.098462306 -0.18793808 0.12747444 0.06270495 -0.108502 -0.055302363 -0.08059577

a2c_network.actor_mlp.2.weight f4 [128, 128]
00000000: d731 c8bb 8e06 6f3e 5b11 26be ce14 863b
00000010: a79b 8fbd 24f1 69be 7975 af3c a412 aabd
00000020: f7dc c5bd f2f5 16be b9a1 29be 997c 56be
00000030: 4335 e5bd c3b5 543d 3ea7 10be 295b 1fbe
00000040: 8255 b0bd 2d24 42be f94d 333e 05b9 adbe
00000050: 4ebe 113e 12ef afbd 00e4 b83d 3aa8 19bd
00000060: 34df 633e ac0d dcbd 9700 bcbd 7521 983c
00000070: 9734 5b3e f680 16be 3cef bdbd 4cf8 71bc
00000080: 5874 68be 4359 f6bd f3ae 40bd 63d8 9abc
00000090: 1443 e1bd 0f2f 313e b5af 1ebd 1da1 5abd
000000a0: 37af 31bc 7166 d83b 9a97 dcbc 622a 4dbe
000000b0: cfa7 fbbd 38ce 5c3c 151d 1dbd 620c f63c
000000c0: 8cc6 28bd f9a9 12ba 9dc8 51be ad38 92bd
000000d0: 50de 633e 6ecd 293d cd40 febc 75f0 403e
000000e0: b054 bf3a 6f6b a33c 9c36 58bd c39b 06bd
000000f0: 0ada dcbd a767 63bd d22b 18bd 5fff 1fbe
00000100: eed5 03be 931d 843e f427 7bbd 502c 0abd
00000110: 4ce8 843e 4547 70bb 1493 8a3d a9f0 743e
00000120: c6de 1cbd 1d04 443e 446c 8bbe a793 323d
00000130: 4509 6d3c 0597 263e d422 12be 0f55 7fbe
00000140: ab92 c53d 6180 0bbe b9f3 14bd 2314 0c3d
00000150: c9d8 8b3c 5dd0 26be 9425 57be d486 90bd
00000160: 36bc 52be 0e69 4abd 0fe3 a7bd 9ff8 adbd
00000170: b1ea 8dbe 2d16 3cbc 394c 1bbd 35eb 893e
00000180: 4241 6ebd 2f24 8d3d 5694 9fbc 80ee b93d
00000190: 0971 393e 5eb6 56be 78e0 13be dd4c 903d
000001a0: 9b03 b73e 2b1f 71bd 13ee 67bd 7d96 243e
000001b0: b9b5 a33c f51a 06be ac35 043e 0f19 ce3c
000001c0: b4d1 ae3d bd76 8cbc 378b 0ebe e6e4 363e
000001d0: 67bd ac3d c3b8 c33d 9fea 3abd a936 1c3e
000001e0: 6e25 14bc da45 73bd 0630 8d3e 356d a2be
000001f0: 4d73 073e 14f6 c43c 662c 703b 7024 f13b
00000200: 2c5c f53c a44f a8bd fcff 33bc 2c3d cdbe
00000210: 09be 7d3e 6a73 153b b0f8 7ebe 2fa9 39be
00000220: f889 05be 7b35 653d f2f3 4b3c a20a 3abd
00000230: 04b9 f9bd 6da9 eb3b 3e2d 8abc cad3 29be
00000240: 6c6b f1bc 7814 8e3d 04ad 73be 59ad dd3d
00000250: c5be bc3d c510 c33d 67fa e53d dc27 43bd
00000260: f6c8 053d 8a45 8a3d 8b6b 64bc 78cd 053e
00000270: ca4c 4fbe f2ae ee3d 8f58 02be 810c 63bd
00000280: 46ef a23d 6a3d 8dbe 8e3d 903d c1f3 803d
00000290: b9ec 2abe ce7c a4be 1e9f 21be ccf3 7d3e
000002a0: 6f41 19be cda8 e6bc 0d19 0a3d 0018 91bd
000002b0: 6826 04bd e426 29be 1535 77bd f7a2 96bb
000002c0: 3a20 81be 3e50 53be 17fe bd3d 98ae 87bd
000002d0: e32e 3dbe 0fd2 ac3e 4264 90be 118e 5dbd
000002e0: 8c5d 3cbe 05ff c8bc cd33 06bd e874 bfbe
000002f0: 2952 03be 72bf 7a3e 8a69 6cbd 5a30 933d
00000300: 9f1f d7bd 3987 34be 5407 173e 7245 bdbc
00000310: 7850 ebbd b016 37be 8e6b b2bd 3aab 13be
00000320: af67 af3d 08fb d8bd 0bc5 c4bc ae2c ec3d
00000330: 3182 3dbe ca74 b03b 803b 823e e35b 8a3b
00000340: b570 223e c068 9bbe 0a9a 2b3d a069 1abd
00000350: 5741 84bd b86b bfbd 2be1 acbd 4c59 39be
00000360: 989f 17bd 440a 77be c0f4 abbd 6417 2fbb
00000370: ab04 a8bd 987c ac3e d8e0 7cbc 7cb2 a73e
00000380: 7a11 41be a57d a4be 2c7b e53d a4d2 953b
00000390: d52c 08be 5bf4 e93c 241a 903d ff74 8dbd
000003a0: 15e1 233c d872 4dbe b152 96be a29d 2e3d
000003b0: 1136 97bc fea0 2c3e 1691 9b3d 9e6a 99bc
000003c0: 9182 b83e ddb7 b23d a546 353c 5252 4d3e
000003d0: 0173 92be 78ec e53d 1d42 953d 16d7 0c3e
000003e0: 5865 aabd 3871 1cbe 4ab2 c7bd 48c1 1dbe
000003f0: 8675 e0bd 895d 4c3e 282e 1fbb 59a9 6b3d
-0.006109457 0.23342344 -0.16217558 0.0040918356 -0.0701211 -0.22845894 0.02141832 -0.08304337
-0.09661286 -0.14742258 -0.16565599 -0.20945968 -0.111917995 0.051931154 -0.14126298 -0.15562119
-0.08610059 -0.18959112 0.17510213 -0.3393022 0.14232752 -0.08590521 0.090278625 -0.03751395
0.22253114 -0.10744795 -0.091798 0.018570641 0.2140678 -0.14697632 -0.09274146 -0.014768671
-0.22700632 -0.12028744 -0.047041845 -0.01890201 -0.10999122 0.17303108 -0.038741786 -0.053376306
-0.010844997 0.006604009 -0.026927758 -0.20035699 -0.12287866 0.013476901 -0.038357813 0.030035201
-0.041204974 -0.0005594786 -0.20486684 -0.07139716 0.22252774 0.04145568 -0.031036759 0.18841727
0.0014597382 0.01994869 -0.052786455 -0.03286339 -0.10783775 -0.055518772 -0.037151165 -0.1562476
-0.12874576 0.25803813 -0.0613174 -0.033733666 0.25958478 -0.0036663574 0.06766334 0.2391993
-0.03829839 0.19142194 -0.27231038 0.043597843 0.014467542 0.16268547 -0.14271098 -0.24934791
0.09647115 -0.13623191 -0.036365245 0.03419889 0.017071145 -0.16290422 -0.21010429 -0.070569664
-0.2057961 -0.049416594 -0.08197605 -0.08494686 -0.27718118 -0.0114798965 -0.03791449 0.2693726
-0.058167703 0.06891667 -0.019479912 0.090786934 0.18109526 -0.20968005 -0.14441097 0.070459105
0.35744938 -0.058867615 -0.05662353 0.16073032 0.019984113 -0.13096221 0.12911099 0.025158433
0.085360914 -0.017146463 -0.13920294 0.17860755 0.08434563 0.09556725 -0.04563391 0.15255226
-0.009042127 -0.059392788 0.275757 -0.31723943 0.13227578 0.02404312 0.0036647557 0.00735908
0.029951178 -0.08218315 -0.010986324 -0.40085733 0.24779524 0.0022804388 -0.24899554 -0.18130945
-0.13040912 0.055959206 0.012448298 -0.045420296 -0.12193492 0.007191828 -0.016867276 -0.16584697
-0.029470168 0.06937498 -0.23796469 0.10824079 0.09216074 0.09524683 0.11229401 -0.047645435
0.032662354 0.06751545 -0.013941656 0.13066661 -0.20244136 0.11654462 -0.12729095 -0.055431847
0.07955794 -0.27585918 0.070429906 0.06296492 -0.16691865 -0.32126468 -0.15783355 0.24800032
-0.14966367 -0.028156662 0.033715297 -0.07084656 -0.03226319 -0.16518742 -0.060353357 -0.0045970636
-0.252199 -0.20636079 0.092769794 -0.06625098 -0.18474917 0.33754012 -0.2820149 -0.054090563
-0.1839506 -0.024535665 -0.032764245 -0.3739388 -0.1282431 0.24487093 -0.057717837 0.07186957
-0.10504078 -0.17629708 0.14748889 -0.023104403 -0.114899576 -0.17879748 -0.08711921 -0.14420786
0.08564698 -0.105947554 -0.024019739 0.115319595 -0.18506695 0.005385016 0.2543602 0.0042223795
0.15863307 -0.30353355 0.04189495 -0.037698388 -0.06457775 -0.093467176 -0.08441385 -0.1810047
-0.037017435 -0.2412501 -0.08396292 -0.0026716823 -0.08204015 0.33688807 -0.015434466 0.3275336
-0.18854323 -0.3212711 0.11205134 0.0045722295 -0.13298352 0.0285589 0.07036236 -0.06907081
0.010002394 -0.2006334 -0.29359964 0.0426308 -0.018458398 0.16858289 0.07596032 -0.018727597
0.36037114 0.087264754 0.011064206 0.20050934 -0.28603366 0.112267435 0.07288001 0.13753924
-0.08320111 -0.15277565 -0.09750803 -0.15405762 -0.10959916 0.19957556 -0.0024288986 0.05753455

a2c_network.actor_mlp.2.bias f4 [128]
00000000: 4d4b 08be ae0c 1cbd 4cd5 7abd 9639 2abe
00000010: ca7e febd 763c ecbd 0a06 1fbe 95a5 3dbe
00000020: 6059 1c3e c7ec dbbd 068e 073e 5f7d a1bc
00000030: 81eb 28be 72ae 13be 928e f1bd a38b 9bbd
00000040: aa99 59be cef5 123e 4308 a3bd 17d9 ffbd
00000050: 0dd7 a3bd 84d9 06be b039 64ba 16f9 b3bd
00000060: b987 953d fe2b b4bd 5724 fb3c ceac 48be
00000070: 5914 21be 76a8 02be cc9d e1bd 3ccd e1bd
00000080: 7ea5 cbbd 2370 c93d c086 a63c 24ef 1fbd
00000090: 1589 0fbe 016f edbd 1128 5a3d f6b3 13bd
000000a0: 11db d2bb 111e f5bd 7e0d 86bd 016a 9ebe
000000b0: 66f8 613e 6b1c ee3d 1892 9e3d 2834 923e
000000c0: e85d 52be 62db 1fbe 89c9 7ebe 7823 86bd
000000d0: 4cbe 273c 3b4b 73be 6fa5 e83d 2f80 e7bd
000000e0: da0c 39be f167 33be 37a7 393c 5ec2 5cbd
000000f0: 4555 38be 9911 16bd 29c6 1cbd 6048 183e
00000100: 9dd9 e83c e4bb bebd 6f0b 3b3d 5337 57bd
00000110: 7543 04bd b34d 9dbd dc17 0fbe 0e74 bbbd
00000120: fee4 95bc f71f 2b3d e9e9 22be eae2 353d
00000130: 5c36 6cbd 2d9a ce3c 19c4 3abd 6283 0dbe
00000140: e466 afbd 91f0 5fbe 7176 8abe c32c c9bc
00000150: 65d4 dbbd 89a5 6cbe 36ad b0bd 8764 cdbd
00000160: 1ba8 2d3e 0b90 e8bb e666 2ebe cef7 363d
00000170: c335 113b b3b6 67bd 0e9b 93be 6a63 533e
00000180: 6da1 253e b53f a63d 5a6b fdbd 5d7a c53d
00000190: 8a87 b3bd 55f1 bc3d ba99 dcbd f430 123d
000001a0: a61f 10b8 3c99 4b3e 7e9a 82be 0c14 27be
000001b0: 7a2a 5ebd 0021 90bc 82d6 e13c 39a1 d73d
000001c0: 2b17 46be d7e3 c7bb b8cc 9fbe f9a9 96bd
000001d0: 4742 c43c 36b3 793e 105b 9ebd 7f53 0abd
000001e0: d579 d53d 9b28 e73d 39f3 2ebe bd0d 663e
000001f0: bae9 d8bd 7c6e 78be 556d b53d c87f 803d
-0.13309975 -0.03809803 -0.061238572 -0.1662353 -0.12426527 -0.115349695 -0.15529647 -0.18520196
0.15268469 -0.10738521 0.13237771 -0.019713102 -0.16496088 -0.14422014 -0.11794771 -0.07594993
-0.21250024 0.1435158 -0.0796056 -0.124925785 -0.08000002 -0.13168913 -0.0008706106 -0.08787744
0.07301278 -0.08797453 0.030656977 -0.1959717 -0.15730418 -0.12759575 -0.110164255 -0.110254735
-0.099436745 0.098358415 0.020327926 -0.03904642 -0.14017136 -0.11593438 0.053260867 -0.036060296
-0.006434806 -0.11968625 -0.06545542 -0.3094025 0.22067413 0.11626514 0.07742709 0.28555417
-0.20543635 -0.15611032 -0.24881567 -0.06549734 0.010238241 -0.23759167 0.11359679 -0.11303746
-0.18071309 -0.17520119 0.011331371 -0.0538963 -0.18001278 -0.036637876 -0.038274918 0.14871359
0.028424079 -0.09313181 0.0456652 -0.052542996 -0.032290895 -0.076808356 -0.13973945 -0.09152995
-0.018297669 0.04177853 -0.15909542 0.044405855 -0.05766903 0.025220001 -0.04559717 -0.1381965
-0.08564547 -0.21869113 -0.2704349 -0.024557477 -0.107338704 -0.23110022 -0.08626787 -0.1002894
0.16958658 -0.0070972494 -0.1703144 0.04466992 0.0022157289 -0.05657072 -0.28829235 0.20643392
0.1617486 0.0811762 -0.12373991 0.096424796 -0.087660864 0.09225718 -0.107715085 0.035691217
-3.436175e-05 0.19882673 -0.25508493 -0.16316241 -0.054239728 -0.01759386 0.027568106 0.10528798
-0.19344775 -0.0061001587 -0.31210876 -0.073566385 0.023957385 0.2438477 -0.077322125 -0.033771034
0.10423628 0.11287042 -0.1708497 0.22466178 -0.10591455 -0.24260896 0.08858744 0.06274372

a2c_network.actor_mlp.4.weight f4 [128, 128]
00000000: 7b01 9a3d 155b b3bc 8e34 72bd 2ea0 193d
00000010: 9c04 553d f37f 94bd 3468 f7bd ea1c 9e3d
00000020: 8a03 efbc 11d6 0ebe 1147 0abd dad1 24be
00000030: 715b 073d ab29 15bd 0f3f cdbd 4535 1ebe
00000040: 1c14 2bbb de13 81bc e9c4 f9bc 3ce3 27be
00000050: 6fdd 843d e05f 243d 2a1f 60bd f828 31bd
00000060: 3bde 3dbe 6acb 5ebd 998e 163e 137c 8abe
00000070: e481 9bbc c55e f0bd 8a32 31bc 0869 1abb
00000080: 361c 613d bdb1 90bd 4716 90bd c4a5 3a3d
00000090: e545 c4bc cec9 8a3c e196 563d 98f4 08be
000000a0: b77f 92bd 6942 69bd 8a7b d6bd f6f5 a8bd
000000b0: 5e10 243e f7ca 79bd a714 2bbe a36d 093e
000000c0: e752 d73d cd91 c3bd afb3 aabd 685f 2ebd
000000d0: 95aa a3bc 3bc1 953d f9ee f7bd a941 ba3d
000000e0: 45ac 12be 7fd2 7b3d c38a 92bd 24d6 5e3c
000000f0: af96 c5bc ddf9 753d 30e6 ab3d f276 2b3d
00000100: bd2c 57bd 7756 563e f910 08be 11e9 dbbd
00000110: e258 ec3d ec5f 4e3d 93dd 1f3e 079a d33d
00000120: 352d bf3c 8ccf 703d bdf3 943d 6a84 9dbd
00000130: 41dd eebc 071f 493e f6a9 26bb 52b4 643d
00000140: d0db 293c d217 e6bd 4bb4 413b a250 c23d
00000150: 5285 9f3d db2a 0ebd b6c8 1bbe 3391 fbbc
00000160: cce3 d8bc f913 9dbd da9d 4f3d b3cf 02bd
00000170: e875 e43d 6281 21bd 72a4 c2bc 5f8f 063d
00000180: 7efb 2a3d 4f88 45be 9539 1cbd 2a85 06bc
00000190: 336b 84bd f1d2 953d 967d e0bd 6628 2dbe
000001a0: d4e4 783d 122f e53b 51d8 77be 6a59 1dbe
000001b0: 7a9b 8b3d 980f 5ebe c317 f1ba f2b4 48be
000001c0: d7db ce3d 168e 7d3b 2df8 13be 0d9b bcbd
000001d0: a4ef 2abd 38b3 14be f859 c63d bd7c f1bc
000001e0: 2716 60bd 375a 34bd c236 b5bc 3a15 36bd
000001f0: 195d b33b 0ef7 a23c 042e 9bbc b0fa 51be
00000200: 919a 2ebe 4304 cebd ba98 71bc 6aa2 423d
00000210: ff2b 67bd 13ca 23be b619 c9bc d39e c83d
00000220: 453b 02be f471 83be c661 4ebd 62c8 163e
00000230: 7f43 ecbd cae4 44bd 0585 d73d 1771 953d
00000240: 1171 83bd 4c38 09bd de0e 33be 9706 043e
00000250: d2a4 8fbe 18cd 81bd 8866 2a3d 458a c6bc
00000260: b672 95bd b0f1 84bd bcda 68bd e608 813d
00000270: f6ad 36bd 224f 873d c996 a6bd 49d9 da3d
00000280: 2a59 babe 48aa 67be 3219 9bbe ac63 9a3d
00000290: 38dc 32be fcad e83d 9175 5abe 7f7f 25be
000002a0: 4f5c 84bc 9801 063d 6f19 17bd d4bc d13d
000002b0: 287b 42bb 2ed5 67bd fd36 c4bd 5451 2bbd
000002c0: 057f 7f3d 602f b33b 5f8f 853d bb59 933d
000002d0: 5da8 5bbd 57a1 263e 0e03 a4bd 67f6 babd
000002e0: 9628 29be f6b8 82bc 30c5 d93c b76e 31be
000002f0: 6d76 aabd 1d55 c43d 4ab0 413d a729 aebd
00000300: c1fa 45be 8acb 9fbc 88d0 46be 3404 583d
00000310: e3a6 91bd 3d4d 0fbd 870d 05bd 07d1 05bd
00000320: db32 5ebd 2d83 4ebe b25c 2a3e 24b8 363e
00000330: 4edd 5e3e 7942 00be 2432 d63c 2864 1c3e
00000340: 5763 0e3e c1af e93d 8729 163e 39a5 83be
00000350: 9ac6 473e 6805 913e 64d3 f03d b517 213e
00000360: 9696 003e 7c8c 863e 829d 8f3d 33be 24be
00000370: ee7c 25be 016a dabd 26a3 e53d 9da3 b3bd
00000380: 5d82 50be 37c2 49be 72d5 8bbc 84f3 883d
00000390: 80cf 073e 9c77 22bd 2e10 ea3c 68a7 9abd
000003a0: 7958 26bd 24e0 26bd e3aa 5f3d 89a6 d4bd
000003b0: dfc4 48be 60f0 95bd 4b69 9fbd 5384 65bd
000003c0: 76c2 40be ecee 5c3e 4b1e 243e 7bea 353e
000003d0: d805 75bd 29c1 4b3d 9a96 293e d98b 33bd
000003e0: f466 45be 3a97 2fbd 399c 2abe 1b1d 18be
000003f0: 2823 febd 2a40 183e 5a66 6ebe a441 323e
0.075198136 -0.021894017 -0.05913215 0.037506275 0.05200635 -0.07250967 -0.12080422 0.07720359
-0.029176492 -0.13948847 -0.03375918 -0.16095677 0.03304619 -0.03641669 -0.10021793 -0.15450008
-0.0026104515 -0.015756544 -0.030489402 -0.16395277 0.064875476 0.040130496 -0.05471722 -0.04325196
-0.18541805 -0.05439321 0.14702834 -0.27047786 -0.018982835 -0.11736826 -0.010815272 -0.0023561139
0.054958545 -0.07065151 -0.07035499 0.045568243 -0.02395911 0.016941931 0.052389983 -0.13374555
-0.07153266 -0.0569481 -0.10472782 -0.08250038 0.16021869 -0.060984578 -0.16707097 0.1342073
0.10513859 -0.09549294 -0.08335053 -0.042571455 -0.0199788 0.073122464 -0.12106127 0.09094555
-0.14323528 0.06148004 -0.07155373 0.01360086 -0.024119703 0.06005274 0.08393514 0.041861482
-0.0525329 0.20931421 -0.13287725 -0.10737813 0.115403906 0.050384447 0.15611868 0.10332113
0.023336986 0.058791682 0.07273052 -0.076912716 -0.029158236 0.19640742 -0.0025430894 0.05583603
0.010367349 -0.11235012 0.0029556926 0.09488036 0.07789101 -0.03470884 -0.15213284 -0.030708885
-0.02647581 -0.07669825 0.05068765 -0.03193636 0.11155301 -0.03943003 -0.023760054 0.032851573
0.041743748 -0.19290279 -0.038140852 -0.00821046 -0.06465759 0.073156245 -0.109614536 -0.16909942
0.060765103 0.0069941366 -0.24203612 -0.1536614 0.06816764 -0.21685636 -0.0018393922 -0.19600275
0.10100525 0.0038689426 -0.1445014 -0.09209261 -0.041732445 -0.14521492 0.09685129 -0.029478425
-0.054708626 -0.044031348 -0.022120837 -0.044453837 0.0054737446 0.019893195 -0.01894284 -0.20505786
-0.1705115 -0.100594066 -0.0147458855 0.04751817 -0.056438442 -0.15995054 -0.024548393 0.09795918
-0.12717922 -0.25672877 -0.050386213 0.14724877 -0.11536311 -0.048069753 0.10523418 0.07296961
-0.0641805 -0.033500955 -0.1748614 0.12893139 -0.28055435 -0.06337947 0.041601688 -0.024235854
-0.0729727 -0.06491411 -0.056849226 0.06300525 -0.044599496 0.0660689 -0.08134229 0.10685975
-0.36396152 -0.22623551 -0.3029266 0.07538542 -0.1746682 0.1136131 -0.2133391 -0.16161917
-0.016157297 0.032716364 -0.03688949 0.10241094 -0.0029675458 -0.05659979 -0.09580801 -0.041825607
0.062376995 0.005468294 0.065214865 0.07194849 -0.05362736 0.16272484 -0.08008395 -0.09129029
-0.16519389 -0.015957337 0.026583284 -0.1732739 -0.08323369 0.095865466 0.047287263 -0.08504038
-0.19333936 -0.019506235 -0.19415486 0.052738383 -0.07111909 -0.03498577 -0.032483604 -0.032670047
-0.05424772 -0.20167227 0.16636923 0.17843682 0.21764109 -0.12525357 0.026146956 0.15272582
0.13905083 0.114104755 0.14664279 -0.25711992 0.19509354 0.28324437 0.117590696 0.157317
0.12557444 0.26279056 0.07012464 -0.1608818 -0.16160938 -0.1066475 0.11212759 -0.08771441
-0.2036223 -0.19702993 -0.017069552 0.06687072 0.13262749 -0.03966485 0.028572168 -0.075514615
-0.040611718 -0.0407411 0.05460633 -0.103833266 -0.1960635 -0.073212385 -0.07783755 -0.056034397
-0.18824181 0.21575516 0.16027181 0.17765228 -0.059820026 0.04974476 0.16561356 -0.04383454
-0.19277555 -0.04286883 -0.16661157 -0.14854853 -0.12409049 0.14868227 -0.23281232 0.17407852

a2c_network.actor_mlp.4.bias f4 [128]
00000000: 5ecd d13d a025 6fbe b078 acbc e1ee b03d
00000010: a00c 723c 6f72 27bd 1820 223d 8700 fabd
00000020: 9572 9fbe 58fc 59be 6f60 d0bd a69e 08bc
00000030: bc77 b23c 5efb 34be 3187 d03a fa19 673d
00000040: 7876 e13c a273 30bc e854 fb3c dbb1 28be
00000050: 431e eebd 1a4f c1be afac dfbd cccd ecbd
00000060: 3baa d43d c735 11be 0465 b6bc 7daf 2b3d
00000070: a774 15bd 423a d7bd 16b0 c2bd 816c 82be
00000080: 6de7 a2bd 71eb f93c 6bfb e4bd fc84 88bd
00000090: ef01 14be 61c8 f3bd ef38 1abe c957 d63d
000000a0: 7d73 82be ed59 64bc 10b6 51be d5c3 b83a
000000b0: ab8b 02bd 6d33 1fbd 655d 3b3d 058e 0ebd
000000c0: dfcc 25bd 9b19 17be ca89 ea3d d7c2 a03d
000000d0: f4e1 92bd 9724 d23d 3f19 05be 866f 4f3d
000000e0: 2f44 01be 9015 37be f615 a1b9 321d f0bd
000000f0: d656 dfb9 6826 2ebe 1eef 163d 2a41 14be
00000100: b845 d23d 0400 adbd 69e7 cfbc 3968 93be
00000110: 2ff2 893c 7d25 943c f904 86be 0775 ff3d
00000120: 5a99 383d 2b05 ae3d 808b e03d 4143 87be
00000130: 613d 02be a1ae 7fbe 8114 7c3d c268 d0bd
00000140: b44f 96bd 4ce7 43be ca17 cbbd 7855 cf3d
00000150: 716d 88be 814a 81be 1f8a 413c e90e adbd
00000160: f220 943d 12ce 643d cb16 6e3d 5caa 1a3d
00000170: 1896 adbe b9f3 a33d 3b4b 2b3d 50cf a83d
00000180: 9916 af3c ddba 57be 9e8a fd3d 502d 34be
00000190: e1f6 8dbe 6eae 63bc cf15 193d 079c 21be
000001a0: 54ce 37be 521c 30be 88f8 1ebe ec6c 0d3d
000001b0: f4e5 5bbc b4d4 3dbe ffa1 57be 2c93 073e
000001c0: b2d0 b0bc d31e 963d 3096 23be 1bfc 7f3d
000001d0: aa40 913d af6f 50be d2db 21be ebed 103e
000001e0: dbb7 4ebe b3c9 82bd 4e9b 923c 4860 e23d
000001f0: b839 763d fa84 13be 9bad 91bc a4a3 43be
0.10244249 -0.23354197 -0.021053642 0.086393125 0.014773518 -0.040880617 0.03958139 -0.12207132
-0.31142107 -0.21287668 -0.10174643 -0.008338606 0.02178561 -0.17674014 0.0015909431 0.056421258
0.02752231 -0.0107697565 0.030680135 -0.16474096 -0.11626866 -0.37755662 -0.10921609 -0.1156269
0.103840314 -0.1418067 -0.022264965 0.041915406 -0.0364882 -0.10509159 -0.09506242 -0.25473407
-0.07954297 0.030507775 -0.11180767 -0.0666599 -0.14453863 -0.119034536 -0.15060781 0.104659624
-0.25478736 -0.013937456 -0.20479608 0.0014096448 -0.03187148 -0.038867403 0.045743365 -0.03480341
-0.040478583 -0.14755861 0.114520624 0.07849663 -0.071720034 0.10260885 -0.12997912 0.050643466
-0.12623666 -0.17879319 -0.00030724675 -0.117243186 -0.00042598572 -0.17006838 0.036849134 -0.14477983
0.10267204 -0.084472686 -0.0253789 -0.28790453 0.016839115 0.018084282 -0.2617567 0.12473493
0.045068122 0.084970795 0.109641075 -0.26418498 -0.12718727 -0.2496896 0.06154299 -0.10176231
-0.07339421 -0.19131202 -0.09916647 0.10123724 -0.26645997 -0.25252154 0.011812716 -0.084501095
0.07232846 0.055860586 0.058127206 0.037760124 -0.33903575 0.08005471 0.041819792 0.08242667
0.02137308 -0.21067376 0.12379955 -0.1759541 -0.27727416 -0.013896568 0.037374314 -0.15782176
-0.17949802 -0.17198303 -0.15524495 0.034527704 -0.013421524 -0.18538171 -0.2105789 0.13239735
-0.021583889 0.07330098 -0.1597526 0.062496286 0.07092412 -0.20355104 -0.15806511 0.14153259
-0.20187323 -0.06386127 0.01789632 0.110535204 0.06011364 -0.14406195 -0.017782977 -0.19105393

a2c_network.value.weight f4 [1, 128]
00000000: 3093 3abc 9756 703c 608c 8ebd 3b70 f6bc
00000010: f9fe 123d f704 43bc 865f 463c bb0a 463c
00000020: ec1b 96bd b0da c7bc ff8f ae3b 59b5 09be
00000030: 4b55 9b3c 8ff2 ad3c 9fba 683b f76b 93bc
00000040: 72a5 8cbc 7691 1fbc 985c cdbc caf3 6d3c
00000050: 52ea 8a3c b398 90be 82c8 2d3c cc8b 8b3c
00000060: 3a16 f5bd 2b63 b53b 0667 1abc a4b0 96bc
00000070: bc3a 14ba e59a 743c 120b 3b3d 5485 01be
00000080: f22f 823d 1fa6 173d 274e 5c3a 2ee7 723c
00000090: 93c8 ae3d b7dc 38bd b98a e13b 1e01 94bd
000000a0: 8d07 2ebc d8ef f2ba ad0a fe3b 821b 753b
000000b0: d858 66bb 94af 08bd 248c 053b 7484 a3be
000000c0: d577 a4bb 38cc 4ebd 70fb b1ba 6c32 e93c
000000d0: 77bf b4bc bb46 4bbc 2fe5 1ebc c969 49bc
000000e0: 4f09 e7bb 9d1c 0bbd 128e 8b3d 1407 84ba
000000f0: ada4 d43b 632e d2bb fa2b bdbb cd2b 023c
00000100: a8d6 8f3d a2fe 0e3d 7a82 12bb e8ff 99bc
00000110: b6f3 0e3c 76bb b9bd f8b8 883c 8d93 24bd
00000120: 176d 07bd 6430 a33d 4631 863b c650 b9bd
00000130: 74c2 4dbb c2c7 3ebe 56a1 4bbd 6336 95bb
00000140: 74b2 a0bb f07f 65bc f1fd 803c 04ae 63bc
00000150: a8c2 323c 2c33 fb3c 005d 8ebc 9fba 6abc
00000160: bc9b adbb 142d 0a3c 77f7 263c 3888 8ebc
00000170: 7f4a 61be 5f93 26bc a168 8e3b 3512 6a3c
00000180: 6b2d c6bc 1b4a 2dbc 4fcf a13d e966 1ebb
00000190: 331e 9c3c 0938 41b9 23bc 3b3c 6095 e6bc
000001a0: 13f2 59bc db04 59bc b2f7 5abc 77b0 373d
000001b0: dae2 a6bc 3905 933d 90c6 3f3e 81d0 0abd
000001c0: f502 9dbc 9601 14bd 16c8 cf3a 6475 b0bc
000001d0: 43a7 fa3d b117 0a3b 70a7 c53c fc41 bcbc
000001e0: e4b2 b0bd 7e1f 8c3b e6e3 d33c 0402 ee3c
000001f0: 3fd6 683d 2a63 d7bb 4470 6039 75b1 043d
-0.011387631 0.014669082 -0.06960368 -0.030082813 0.035887692 -0.011903039 0.0121077355 0.012087519
-0.073295444 -0.02439627 0.0053272243 -0.13448085 0.01896157 0.021233825 0.0035511625 -0.017995818
-0.017168734 -0.00973927 -0.025068566 0.014523456 0.016957436 -0.282415 0.010606887 0.017034434
-0.1196713 0.0055355034 -0.009423977 -0.018394776 -0.0005654504 0.014929508 0.045664854 -0.12648517
0.06356801 0.03702366 0.00084039796 0.014825625 0.0853435 -0.045132365 0.006882992 -0.072267756
-0.010621917 -0.0018534614 0.0077527375 0.003740043 -0.003514817 -0.03337057 0.002037772 -0.3193699
-0.005019168 -0.050487727 -0.0013578963 0.028466426 -0.022063954 -0.012407 -0.009698196 -0.012293288
-0.00705067 -0.033962835 0.06814207 -0.001007291 0.0064893574 -0.006414221 -0.0057730647 0.007945013
0.07023364 0.034910806 -0.0022355602 -0.018798783 0.008725097 -0.090689585 0.016689762 -0.040179778
-0.03306302 0.07968214 0.0040952293 -0.090486094 -0.003139642 -0.18630889 -0.04971441 -0.0045536025
-0.004904086 -0.014007553 0.015746089 -0.013896469 0.0109106675 0.03066405 -0.01737833 -0.0143267205
-0.005298106 0.008433599 0.010190836 -0.017398939 -0.22001074 -0.010166972 0.004345969 0.014286567
-0.024191579 -0.01057675 0.07900869 -0.0024170226 0.019057369 -0.00018426789 0.0114584295 -0.0281474
-0.013302344 -0.013245787 -0.013364719 0.044846024 -0.020371843 0.071787305 0.1872809 -0.03389025
-0.01916645 -0.036134325 0.0015852477 -0.021540351 0.12238934 0.002107125 0.024127692 -0.022980683
-0.08627871 0.004276215 0.025865506 0.029053695 0.056844946 -0.0065731006 0.00021404127 0.0323958

a2c_network.mu.weight f4 [18, 128]
00000000: d743 3e3e ec19 89bc 4e68 5e3e 148d ef3b
00000010: 98ec 423d d5ac 23bd 6235 973d 7639 35bc
00000020: 452f 36be 0ceb e6bc 83d2 27be 4caf 0b3d
00000030: 4770 823b 5c53 90bc 9d78 f3bd 1742 08be
00000040: a162 993c ca02 07be c9c6 0fbe e6e5 5ebe
00000050: 814b 84bd 9f62 f7bd 49be 9e3d abd1 07bc
00000060: ef70 6a3c 18a2 01be 0ef4 e0bd 5005 b2bd
00000070: 4a4f a73d eb22 803a e37b 3a3d ddae 22bd
00000080: 5a11 8a3d 2754 423b 2826 a6bc fee4 383c
00000090: 1487 d43d 3bc8 01be 569f 1fbe bc09 b9bd
000000a0: de4d 703e 71f4 513d f933 3abe 73e6 7abe
000000b0: 7229 343e 4907 b3bd 70f4 7e3b b590 f4bc
000000c0: dbe9 49bd 9458 7a3d ed54 163e 78ea 14bd
000000d0: c4ed f9bd 9e52 81be f828 df3d 2511 143e
000000e0: 0e38 95bd cf8d c53d c4e9 d43d 1856 473c
000000f0: db38 2d3d 6b77 743e fe3e 0c3e bb09 32bc
00000100: 3e0a dc39 bb34 5ebe e5c8 463e 5372 1e3d
00000110: 10df ec3d d481 d63c 58bf 0a3d 57d7 c73d
00000120: 6c53 0bbe fb70 4f3d 9e70 ef3c 087c 653d
00000130: 3904 dc3c b5d0 e1bd 818b 253d 52ec a5bd
00000140: 2955 14be c11c 5abb 8391 283e 9b86 80bd
00000150: 0944 8a3e d078 fa3d 1a1a c63c 950e 593c
00000160: c949 1dbd b54d 613d 2e35 4dbe f9c9 273d
00000170: bcaf b13c 6920 a53d a497 6dbd 8e95 c2bb
00000180: 298c dfbc 51a8 263d 0646 0dbe e9dc 61bc
00000190: e396 5cbd edf9 f63d 29d5 093e daf0 7fbd
000001a0: 2c18 c23c a8ce cc3d 1849 83bd 667b 3bbe
000001b0: de75 173d 2b6d e5bd 8ba4 ddbc f532 fcbd
000001c0: b710 8dbd d1c1 4abd 35a1 19bd 115a 9b3d
000001d0: d2d6 89bd 2229 90bd 02a0 2abe c86b 003e
000001e0: 8680 2d3d 08d1 5bbe 0d78 06bd b910 42bd
000001f0: 766e 9b3d c1c8 e8bd e642 8d3d 5fc9 26bd
00000200: 70b5 a7bd 5086 dcbc 2cfe 7abd e0e5 a33d
00000210: ace9 ddbc 1e34 323c 8104 063d 5609 b13d
00000220: 9792 5b3d 0f23 e7bd 1506 9e3d b629 0bbb
00000230: 07ef f3bd d9e1 ee3c 1f1c 85bc 26ac 15bd
00000240: 2aeb a43d a5a4 6d3d d30f 0c3d caf6 943d
00000250: 538a 1e3c 385f c0bd 7d1e d43a 1e3d 753d
00000260: df6a b9bd 57de 16be 67ff 4a3d 3c87 f9bc
00000270: 869f c9bd f85d c4bd 9d86 b6bd 35ca 753c
00000280: a8b3 c2bb 6248 11bd 6ba2 85be f1d4 6abd
00000290: 68ea 113d ec43 86bd 67d6 d93d d9bc d1bb
000002a0: 2f25 f83d de2a a7bd 5a45 d63d 86f1 ea3d
000002b0: a332 43bd 19af d4bc fbac e33b 3aa4 41bc
000002c0: ce38 a7bd 9dca 613d be91 a93d 1df8 aebd
000002d0: 1f51 093d 0015 a5bc b50c dabd 3b8b a13d
000002e0: e6f9 66bd 8405 87bd fc2d 8cbd 3152 763d
000002f0: 5316 803d adcb 963d 4606 c33a ab5e 4abd
00000300: e50e 61bc e6c9 35bd f307 9cbd 518a 51bc
00000310: 972a 6e3d 15d5 6d3d 5a6c 533d acdb 3cbd
00000320: b17c 84bd 12ae 34bd b1fa 9a3d 7b96 f23d
00000330: b3e4 a6bd 43e2 4abd b426 053e 09ca f3bd
00000340: 438d 183e bff1 bb3d 483a 36be 9e0e 383e
00000350: 730f 063d 8091 84be 6e29 f1bd 8a54 3fbd
00000360: 8b8c 923d 273d a5bd eafc 9e3d 5398 d4bd
00000370: b7fe 03bd 9287 813d 06a6 c13d d32e 9abd
00000380: ddc9 bc3d 5109 8fbe 53d1 22bd 8506 04be
00000390: 7ca2 4ebe 8660 973c 31ee c33d 0c1e c83d
000003a0: d5c2 b03d fc25 a5ba 6f14 a939 8d6e 253e
000003b0: 1d2f c9bd 7f04 12be a40c 133e c26f cb3d
000003c0: b216 b4bd dcd1 afbd 698f bc3c e41a 993d
000003d0: b199 023d f0db f93d 6071 fcbd 7243 9cbd
000003e0: 56ff 183c 7203 abbc b42f a83d 2387 edbd
000003f0: 7850 0d3d 6e2d e93b 73eb b53d b902 b43c
0.18580566 -0.016735993 0.21719477 0.007310519 0.047588915 -0.039959747 0.07383229 -0.011061063
-0.1779147 -0.028188251 -0.16388898 0.034102723 0.0039806697 -0.017617874 -0.118882395 -0.13306461
0.018723788 -0.13184658 -0.14040674 -0.21767387 -0.06459714 -0.12079357 0.07751138 -0.008289735
0.014309152 -0.1265949 -0.1098405 -0.086924195 0.0816942 0.0009776031 0.045528304 -0.039717544
0.06741591 0.002965221 -0.020281866 0.011285065 0.103773266 -0.12674038 -0.15588126 -0.0903506
0.23467204 0.051258508 -0.18183888 -0.24501972 0.17593935 -0.08741624 0.003890302 -0.029854158
-0.049295288 0.06111963 0.14680834 -0.03635642 -0.12203553 -0.25258344 0.10896486 0.14459665
-0.07286082 0.096461885 0.1039615 0.012166522 0.04229055 0.2387368 0.13695905 -0.010866578
0.000419693 -0.21699803 0.19412573 0.038683247 0.11565983 0.026184954 0.033873886 0.0975787
-0.13606042 0.050644856 0.029228505 0.05602649 0.026857482 -0.11026136 0.040416244 -0.08101715
-0.14485611 -0.0033281299 0.16461758 -0.06275674 0.27005032 0.122300744 0.024182368 0.0132481055
-0.038400445 0.055005748 -0.20039818 0.0409641 0.021690242 0.08062822 -0.058005944 -0.0059382385
-0.027288513 0.040687863 -0.13796243 -0.013785579 -0.053854834 0.12059388 0.1346022 -0.062485553
0.023693167 0.10000354 -0.06410426 -0.18308792 0.03697764 -0.11202463 -0.027056 -0.12314407
-0.06887954 -0.049501244 -0.037507255 0.07585538 -0.06730427 -0.070390955 -0.166626 0.12541115
0.042358898 -0.21466458 -0.032829333 -0.04737923 0.07589428 -0.11366416 0.068975255 -0.040719386
-0.08188903 -0.026919514 -0.061277553 0.080028296 -0.027088962 0.0108766835 0.03271914 0.08644359
0.053606596 -0.11285984 0.07716004 -0.0021234578 -0.11910825 0.029160427 -0.01624876 -0.036541127
0.080526665 0.058018345 0.03419478 0.07273634 0.009676534 -0.093931615 0.0016183403 0.05987274
-0.09053587 -0.14733253 0.049559977 -0.030459993 -0.0984488 -0.095882356 -0.08912394 0.015001823
-0.005941827 -0.03546942 -0.26100478 -0.057331983 0.035623938 -0.06555924 0.10636597 -0.006400686
0.12116467 -0.08162473 0.104624465 0.11471848 -0.047655713 -0.0259624 0.006948111 -0.01181894
-0.081651315 0.055124868 0.08279751 -0.085434176 0.03352463 -0.020151615 -0.10646955 0.07887884
-0.056390665 -0.06592849 -0.06844708 0.060136978 0.06254258 0.07363067 0.0014879189 -0.04940669
-0.013736461 -0.044382 -0.07618704 -0.012789325 0.058146086 0.05806454 0.051617004 -0.046107933
-0.064690955 -0.04411132 0.07567347 0.11845108 -0.0814909 -0.049532186 0.13003045 -0.119037695
0.14897637 0.09176969 -0.1779567 0.17974326 0.032729577 -0.25892258 -0.1177548 -0.046711482
0.07155713 -0.080683045 0.07763083 -0.10380616 -0.032225337 0.06324686 0.094554946 -0.07528462
0.0921819 -0.27936795 -0.03975041 -0.12893112 -0.2017917 0.018478643 0.09566916 0.09771356
0.08630911 -0.0012599821 0.00032249416 0.16155453 -0.09823439 -0.14259528 0.14360291 0.099334255
-0.08793391 -0.085849494 0.023017602 0.07475832 0.031884853 0.12200153 -0.12326312 -0.07630052
0.009338221 -0.020875666 0.08212224 -0.11598041 0.03450057 0.0071160113 0.08882799 0.021973955

a2c_network.mu.bias f4 [18]
00000000: 9f5f b03b 9f9c 693c 606b 1bbc 286d 103d
00000010: fe7d dd3c 366c 90bd ec12 9b3d c6b8 dd3c
00000020: d07e d93c 0ac0 933c f98e 8cbd c629 0d3e
00000030: e1f5 51bc b605 313c fa57 8c3d 7cd3 6d3d
00000040: 30c5 003d e57b 323c
0.0053824927 0.014258533 -0.009486049 0.03526035 0.027037617 -0.070518896 0.075719684 0.027065646
0.026549727 0.018035907 -0.06863207 0.13785467 -0.01281497 0.010804584 0.06852718 0.058063015
0.031438053 0.010893797

exp_avg f4 [18]
00000000: ffb2 983a e2be 5bb9 9b40 e039 164d 4cb8
00000010: 45bf 3a3a 16a5 a3b9 7b8c 2a3a 10a4 fb39
00000020: a053 54b9 94e7 3639 d65c 5f3a 7912 9cba
00000030: f812 7938 9ac5 3b3a cdf5 0d3a 7634 123a
00000040: bb5a c5ba 0721 0ab8
0.0011650025 -0.00020956577 0.00042772744 -4.8709182e-05 0.00071238383 -0.0003121278 0.00065059186 0.00047996687
-0.00020249048 0.00017443142 0.00085206085 -0.0011907361 5.9383892e-05 0.0007162929 0.00054153503 0.00055772753
-0.0015056947 -3.2932523e-05

exp_avg_sq f4 [18]
00000000: 8deb 5537 9171 3b37 d97e 4837 cfc8 5237
00000010: 17aa 4637 0d3e 4f37 cfe4 5237 05e3 3a37
00000020: c5f6 4137 3633 4837 4da0 5737 3913 4d37
00000030: afb9 3d37 da98 5937 0dd8 4f37 fb9d 4f37
00000040: fb02 6d37 7cba 5a37
1.2750633e-05 1.117251e-05 1.1950463e-05 1.256373e-05 1.1841322e-05 1.2352609e-05 1.2570249e-05 1.1139321e-05
1.1561152e-05 1.1932852e-05 1.2852322e-05 1.2223428e-05 1.1308511e-05 1.2969796e-05 1.2388465e-05 1.2374944e-05
1.4126995e-05 1.3037232e-05

exp_avg f4 [128, 66]
00000000: 3863 00b8 7554 58b9 3aad 8b37 7228 dd38
00000010: 91b8 9f39 f92e d8b9 c90d 9937 7d2e 4137
00000020: 5124 aab9 cd10 adb8 78b2 0ab9 38e8 e6b9
00000030: ac0b 66b8 e71d 47b8 a30e e5b7 966d 2338
00000040: f370 e336 48f1 9b37 ca8f 9138 7bf5 8038
00000050: 95b4 8038 d813 7d37 d76e c3b5 c6cd 5235
00000060: 388b fdb7 348a 80b8 5b0c c7b7 45d2 0e37
00000070: 0be3 0039 bd6b 9638 adec 57b9 9247 99b7
00000080: f000 4238 643e 8239 68df a1b9 56fa 8739
00000090: 91f8 9639 9eb0 4d3a 234b 393a 6e3e 93b8
000000a0: 32ef 37ba 1f8b 4eba 4d93 5839 bded c2ba
000000b0: 4a8b 33ba e57b 5f3a 8eec 243a 23fb 3db9
000000c0: bf80 b9b9 e99c d2b9 abfa 13b9 77a2 0639
000000d0: bede eab8 c366 ae39 08bb b939 5df3 4cb9
000000e0: a404 533a f52e 7239 ce24 d8b9 2397 abb9
000000f0: 6578 50b9 0025 9fb7 96a1 21ba 3ad5 7fb7
00000100: 0d37 503a 01a9 6139 39bd 9139 240d 4eb9
00000110: 4b0b 9237 8021 2438 2a99 5db9 3481 93b9
00000120: a010 b8b7 1565 6237 b991 4a38 8351 9039
00000130: 3d73 2cb9 365f 60b7 773f c837 5424 6d37
00000140: 7f83 3b38 5134 15b8 5e10 e537 cc17 0738
00000150: e90f 19b8 80f4 52b8 1a1e 4eb8 c3e4 6b38
00000160: 42d4 aeb7 db05 5637 8402 87b6 9ca3 3938
00000170: 6de5 a638 c0e9 45b8 d3b9 55b9 1723 92b8
00000180: bc1b c6b9 c889 c339 d022 89b8 7bc8 873a
00000190: 5040 e33a 5b63 97b7 e10e 403a f754 0f3a
000001a0: 8fd8 b9ba a9e2 063a 45e4 8a3a a37f 783a
000001b0: ce3d 9239 3d18 da3a 1125 9eba 3b95 683a
000001c0: fde3 56ba 0e4a 86b9 2424 2d39 e0e8 7539
000001d0: 7fa6 b039 1754 3bb8 9b4d 533a fe1f a2b9
000001e0: 54e9 80b7 2cc0 083a a185 4fba 88cd 3eb8
000001f0: 97e0 0a3a bfa0 063a 908b 2438 f77e b138
00000200: a736 f738 ffb5 6bb9 63ef 85ba 38de 07ba
00000210: 4a82 d4b7 28a4 38b8 e722 2fb8 fb7d 09b9
00000220: e9ae 9bb7 3044 8739 d8ce 05b7 c6ea 07b7
00000230: 4e78 79b8 37b3 64b8 9c03 0bb9 d843 3e39
00000240: 5a20 10b7 1b7c a5b7 9187 2b38 0b2e 01b8
00000250: 1250 1bb7 b383 9538 d1c2 0b37 2bf5 2838
00000260: 0703 f337 a0fc 05b7 a207 b837 0bf6 6438
00000270: 1281 d537 8189 9338 2349 dab5 81d0 e3b7
00000280: d720 37b8 787a b8b8 0add 81ba dad3 ec38
00000290: 3571 8639 a65a 5cba 6615 193a d04a a43a
000002a0: 85c5 4d3a 0997 8cb9 c13e d438 0853 253a
000002b0: e15c 653a edee 2339 b79b 293a 73ca 9a3a
000002c0: d796 303a 532b bdba b66a a039 d5bf 5bba
000002d0: 2d70 0cb9 9222 18b9 3a71 8039 289d e1b9
000002e0: d2bc 1b38 e0c3 253a 2b6a 7b39 d6d3 bc36
000002f0: cf82 fa38 ef4f 1438 5c96 1239 125c 4338
00000300: d5d0 98b9 d57d 563a 56b8 96b9 2f1a 00ba
00000310: a3c5 6cb9 8f9b e8b9 c691 db38 4902 d0b7
00000320: a47a 6438 bdd5 cb38 fe0b 77b9 d75a 9eb8
00000330: 0ca6 d5b7 e062 8436 08fe 9138 5d28 d0b7
00000340: 0639 7137 d65d 1ab9 f711 cf37 cb8f c637
00000350: 3dba 64b7 40d4 0bb7 91d8 1b38 b237 1d36
00000360: 8025 03b8 f9a7 22b8 e6a9 efb7 313d 1838
00000370: 4e4c 7d37 bac2 10b7 10e3 fe37 0e4c 2538
00000380: 332d d838 8341 0fb9 2fb2 a8b7 a2dd 3eb7
00000390: 6fb5 4a39 af4a 74ba 8aa2 033a 7303 b2ba
000003a0: bfa6 d43a f508 f239 d7b9 a5ba 274b 2fb9
000003b0: 4935 94ba f6f5 6d39 4edc 683a 36de 4c3a
000003c0: b494 4dba 6d31 5839 7cab e83a 5a78 f1ba
000003d0: cc48 b63a a99a 85ba 1b4b de38 5244 a2b8
000003e0: 214d 17b9 b6eb 99b9 b6b1 753a c008 b236
000003f0: 6fcb 6fb9 667d 6338 7120 cab9 c33a 01b9
-3.0609983e-05 -0.00020630828 1.6650756e-05 0.00010545635 0.00030464356 -0.00041233728 1.824544e-05 1.151452e-05
-0.00032451985 -8.252412e-05 -0.0001322719 -0.00044042035 -5.4847143e-05 -4.7473146e-05 -2.7305743e-05 3.896429e-05
6.778276e-06 1.8589795e-05 6.9409216e-05 6.14924e-05 6.137152e-05 1.5084595e-05 -1.4560891e-06 7.8530536e-07
-3.0224779e-05 -6.129258e-05 -2.3728402e-05 8.512817e-06 0.00012291611 7.172625e-05 -0.00020592166 -1.8272349e-05
4.6254077e-05 0.00024842017 -0.00030874764 0.0002593572 0.00028795426 0.00078464474 0.0007068386 -7.021135e-05
-0.0007016539 -0.0007879007 0.00020654239 -0.0014871877 -0.0006849064 0.00085252366 0.0006291353 -0.00018118
-0.00035381873 -0.00040171228 -0.00014112394 0.00012839759 -0.000111994785 0.0003326443 0.000354253 -0.00019545616
0.0008049703 0.00023096411 -0.00041226152 -0.00032728267 -0.00019881276 -1.8971507e-05 -0.0006165741 -1.524883e-05
0.00079427735 0.00021520631 0.00027797537 -0.00019650586 1.7409815e-05 3.9131846e-05 -0.0002113326 -0.0002813429
-2.194225e-05 1.3494185e-05 4.8296268e-05 0.0002752655 -0.00016446128 -1.3373608e-05 2.3871411e-05 1.4134759e-05
4.470674e-05 -3.557309e-05 2.7306549e-05 3.220867e-05 -3.649286e-05 -5.029561e-05 -4.914226e-05 5.6241417e-05
-2.0841257e-05 1.2756757e-05 -4.0236064e-06 4.425981e-05 7.958231e-05 -4.7186157e-05 -0.00020382488 -6.9683585e-05
-0.00037786167 0.00037295953 -6.5391534e-05 0.001035943 0.0017337892 -1.8046869e-05 0.0007326436 0.0005467678
-0.0014178919 0.00051454693 0.0010596594 0.00094794686 0.00027893338 0.0016639304 -0.001206549 0.0008872335
-0.0008197425 -0.00025613647 0.00016512029 0.00023451773 0.00033693385 -4.466259e-05 0.00080605753 -0.00030922884
-1.5367441e-05 0.0005216624 -0.00079163356 -4.5490946e-05 0.0005297749 0.00051356474 3.9230625e-05 8.463667e-05
0.000117880576 -0.00022479145 -0.0010218438 -0.00051829545 -2.533304e-05 -4.40219e-05 -4.1755757e-05 -0.0001311227
-1.8558889e-05 0.0002580001 -7.975577e-06 -8.1012895e-06 -5.947827e-05 -5.4526343e-05 -0.00013257418 0.00018145086
-8.590601e-06 -1.9727324e-05 4.0895833e-05 -3.0798878e-05 -9.257363e-06 7.1294045e-05 8.330405e-06 4.028265e-05
2.8969267e-05 -7.986237e-06 2.1938064e-05 5.458858e-05 2.5451682e-05 7.035118e-05 -1.6263551e-06 -2.7157601e-05
-4.3661184e-05 -8.796615e-05 -0.0009907794 0.00011292817 0.00025642817 -0.00084058417 0.00058396754 0.0012534503
0.0007849562 -0.0002681541 0.000101206366 0.0006306623 0.0008749497 0.00015633898 0.00064700417 0.0011809602
0.0006736344 -0.0014432467 0.00030597084 -0.0008382772 -0.00013393229 -0.00014508728 0.00024498423 -0.00043032435
3.7130732e-05 0.0006323438 0.00023976776 5.6274976e-06 0.00011945294 3.5360394e-05 0.00013979658 4.657737e-05
-0.0002914729 0.00081822026 -0.0002874757 -0.0004886714 -0.0002258034 -0.00044366388 0.00010469886 -2.4796596e-05
5.4473654e-05 9.719606e-05 -0.00023560223 -7.550947e-05 -2.54689e-05 3.945417e-06 6.961456e-05 -2.4814328e-05
1.4377996e-05 -0.00014721541 2.4684688e-05 2.3670398e-05 -1.3633221e-05 -8.334464e-06 3.7156573e-05 2.3427242e-06
-3.126776e-05 -3.8780247e-05 -2.8570135e-05 3.6296613e-05 1.5097741e-05 -8.628407e-06 3.0384894e-05 3.9409897e-05
0.000103081016 -0.00013661948 -2.0110134e-05 -1.1376485e-05 0.0001933181 -0.000931899 0.00050214736 -0.001358135
0.0016224011 0.0004616451 -0.0012643886 -0.00016717297 -0.0011307384 0.00022693709 0.00088829256 0.00078150944
-0.0007842288 0.00020617778 0.0017751302 -0.0018422708 0.0013907193 -0.0010193187 0.000105997744 -7.7374876e-05
-0.00014429215 -0.00029358052 0.00093724893 5.305832e-06 -0.00022868601 5.4237804e-05 -0.00038552613 -0.00012324289
