logs/rl_games/hexapod_flat_direct/2025-11-15_08-58-23/nn/last_hexapod_flat_direct_ep_300_rew_44.55915.pth (torch, 545896 bytes, 33 tensors)

value_mean_std.running_mean f8 [1]
000000 97 af 36 51 2d 62 01 40
       2.172937998277074

value_mean_std.running_var f8 [1]
000000 df ba e6 91 ee e1 df 3f
       0.4981647896592402

value_mean_std.count f8 []
000000 00 00 00 04 00 20 9c 41
       117964801.0

a2c_network.sigma f4 [18]
000000 1b ea 18 bf c5 7c 69 bf 5b 05 5c bf 1f eb 82 bf
       -0.59732217 -0.9120601 -0.8594567 -1.0228003
000010 bf 3e 58 bf 38 5c 46 bf 12 9e 1b bf b0 bb 1d bf
       -0.8447074 -0.77484465 -0.6078807 -0.61614513
000020 f5 7c 2a bf 59 26 2d bf f9 79 31 bf da c0 24 bf
       -0.6659692 -0.6763664 -0.6932674 -0.6435677
000030 a4 5f 98 be 54 e5 d9 be 47 a1 e0 be 57 ca fe be
       -0.29760468 -0.42557776 -0.43873045 -0.49763748
000040 70 6b b3 be 65 bc bd be
       -0.35042906 -0.37057796

a2c_network.actor_mlp.0.weight f4 [128, 66]
000000 91 74 bf bd ca bc 93 bd 1b 9c dc 3e cf 68 3f be
       -0.09348405 -0.07213743 0.4308785 -0.18692325
000010 43 d9 8b bc 43 98 68 3d 9f d3 8b 3e 40 07 d5 3c
       -0.017071372 0.056785833 0.27309892 0.026004434
000020 20 6c 93 be 93 9d eb be 4c eb df bd e5 49 9e 3b
       -0.2879343 -0.46018657 -0.10933551 0.0048305863
000030 9a d0 79 3e 14 41 c4 bd f0 d7 23 be 0f 25 9a be
       0.24395981 -0.09582725 -0.16000342 -0.30106398
000040 88 bc 76 3e 18 9a 1c be 87 07 99 3c 67 2c 01 be
       0.24095356 -0.15293157 0.018680347 -0.12614594
000050 d2 93 2a 3d d4 4f 95 bd 32 8c 24 be 00 77 b0 3c
       0.04164488 -0.07290617 -0.16069105 0.021541119
000060 1e d4 0c bc 16 51 3b 3c 8c 16 a8 3d d6 ad cf bb
       -0.008595495 0.011432907 0.082074255 -0.0063378615
000070 14 ca 36 bd 06 64 84 be dc 6e 93 3d 99 d5 61 bc
       -0.04462631 -0.25857562 0.07198879 -0.013783836
000080 45 a7 d3 bb a5 a3 a9 bc e4 b0 49 bd ad 20 a6 3d
       -0.006459149 -0.020707915 -0.04924096 0.08111701
000090 c2 e5 47 bd 00 60 35 be 47 ea 0e 3d 51 16 8c bd
       -0.0488031 -0.17712402 0.034891393 -0.06840194
0000a0 8b 6e 16 bd 37 2d b9 3c 6a 19 81 bd 77 58 1a bc
       -0.036726516 0.022604568 -0.063036755 -0.009420506
0000b0 46 b6 b3 3d 95 31 91 3d 25 64 ce 3c 1c f8 85 bc
       0.08775 0.07089535 0.025194237 -0.01635366
0000c0 13 94 4d bd 1b b8 c1 bd 1d 65 4c bc 06 99 a3 bd
       -0.050190043 -0.094589435 -0.012475279 -0.07988171
0000d0 5c 6b 31 bd 9c 05 9e bd a7 9d 6a bd fe 64 17 be
       -0.043315277 -0.07715914 -0.057279255 -0.14784619
0000e0 04 a2 93 bd ad bf 72 bd 76 0d 3a be 3a 38 f5 3b
       -0.072086364 -0.059264828 -0.18169197 0.0074835094
0000f0 3c 76 28 bd 92 dd af bb 0b 0d 21 3e 39 27 5b 3d
       -0.041128382 -0.0053669894 0.15727632 0.053504203
000100 12 87 e7 3c c5 f8 5c bc c7 6e 38 3e 45 3a f3 be
       0.028262649 -0.013487046 0.18011008 -0.47505394
000110 c8 1f bf bd 68 12 f5 bd d0 33 8f be 86 85 13 bc
       -0.09332234 -0.11966401 -0.27969217 -0.009004002
000120 76 0b 06 bf a4 bb 3e 3e af d5 4d 3e 42 51 90 be
       -0.5236124 0.18626267 0.20101045 -0.28186995
000130 93 23 fa 3e d6 3d 0d bf f1 47 6d be c0 2e ea 3e
       0.48855266 -0.5517248 -0.23171975 0.45738792
000140 9b 74 25 be 62 5a 39 3f 00 9f f2 3d db 00 14 be
       -0.16157763 0.7240354 0.11846733 -0.14453451
000150 41 74 2e bc 80 48 e8 bd bc dc 89 bd 4c d1 10 be
       -0.010647834 -0.11341953 -0.06731555 -0.1414234
000160 6b 44 3d 3e 04 9e 89 bd 47 e6 19 3e 58 b3 b2 3d
       0.1848313 -0.06719592 0.1502925 0.08725613
000170 f2 18 34 3d 80 b7 8c bd 49 0f d5 3d 65 11 ad 3d
       0.043969102 -0.06870937 0.10403306 0.08450583
000180 e1 df 7e bc cf a8 c4 bd ba c7 86 3d d1 19 3e 3d
       -0.015556307 -0.0960251 0.065810636 0.04641134
000190 23 e1 bf bd a6 3b 4a 3d 11 65 41 3d 4f e0 ea bc
       -0.09369113 0.04937329 0.047215525 -0.028671412
0001a0 6b 4e 92 3d 72 8e c2 3c c9 35 a8 bc 97 cb d0 3b
       0.07143863 0.023749564 -0.02053346 0.006371926
0001b0 cc bf fb 3a 8e c9 15 bd de 36 1a bd a9 64 36 3d
       0.001920694 -0.03656917 -0.03764998 0.04452959
0001c0 da 3e 7b 3c a8 9c 7e bd 97 1f 04 bd 0d 89 cb 3d
       0.015334809 -0.062161118 -0.03225669 0.0993825
0001d0 fb 71 80 3c 4f 94 7f 3d 32 79 86 3c d8 72 89 bc
       0.01567935 0.062397297 0.016415212 -0.016778395
0001e0 c8 f0 fc 3b b8 df e2 bd 9f 6f ba 3d f6 6d d3 3d
       0.007719133 -0.11077827 0.09103321 0.10323708
0001f0 1f 94 fa bd 44 f6 08 bc 84 06 9b 3d 22 74 0b 3e
       -0.12235283 -0.008359496 0.07569602 0.1361852
000200 28 c1 c4 3c b9 d9 16 3d b0 4c 38 bd 8d ea bb 3d
       0.024017885 0.03682873 -0.04499501 0.091755964
000210 d2 92 83 be 44 35 0d bf 60 82 8f 3e 7e 48 87 be
       -0.25697953 -0.551594 0.28029156 -0.26422495
000220 c7 5d 09 3f e9 ba a2 3d 4d 8b 20 3f 73 a3 56 3d
       0.5365872 0.079458065 0.62712556 0.05240197
000230 a0 cb 89 3d b9 09 42 bf 11 f5 d2 be ae 85 2e 3e
       0.067282915 -0.75796086 -0.41202596 0.17043182
000240 e1 9c 01 3e 79 4b ec 3e 1d 96 61 3e cd f0 92 3c
       0.12657501 0.4615133 0.2202992 0.017937088
000250 a1 43 29 bf 90 28 14 bd de 33 58 bd fc 3c 16 be
       -0.6611882 -0.036171496 -0.05278384 -0.14671701
000260 0e 8d 53 3c a0 b9 f0 bd 86 f9 45 be 2b a5 89 be
       0.012912048 -0.11754155 -0.19333467 -0.26883826
000270 20 d1 b2 bd c5 72 71 be 28 2b e3 bd 9b 3f ce 3b
       -0.08731294 -0.23578937 -0.11092216 0.0062942035
000280 2c 6a 14 bd fc 81 61 3e 2d 3a 9e bd ba 72 85 bd
       -0.036234066 0.22022241 -0.0772594 -0.06516023
000290 09 90 b1 bd 6a 05 c3 3d 5e f2 25 bb ef e4 a8 3c
       -0.08670051 0.09522517 -0.0025321464 0.020616977
0002a0 12 4e 2d 3d e9 a2 5b 3d a4 c8 29 bd 12 57 dd bc
       0.04231078 0.05362216 -0.04145111 -0.027019057
0002b0 c9 9d 6f bd af 55 e6 bd 9c 89 2e bd f5 6c cd bd
       -0.058500085 -0.112468116 -0.042611703 -0.100305475
0002c0 6d bc 92 3d 8e 26 2f bb 24 d3 da 3a ad 4e 01 bd
       0.071648456 -0.0026725861 0.0016695005 -0.03156917
0002d0 4f d3 b0 bd 89 84 7e 3e 11 43 03 3d 5a 53 96 3d
       -0.08634054 0.24855246 0.03204638 0.07340117
0002e0 f6 54 a3 be 50 21 cd bd 37 6b f4 bc 63 d6 7f bd
       -0.31900758 -0.100161195 -0.02983628 -0.062460314
0002f0 a8 06 9c 3d 7c c5 09 bd 06 4d 9a 3d 97 d6 f8 be
       0.07618457 -0.0336356 0.07534222 -0.4860122
000300 9a 2d a7 bd 69 1b 12 bd 78 f6 ba 3d bf ba f1 3c
       -0.08162995 -0.03567067 0.091290414 0.029507993
000310 3d 2f 98 bd ce 15 36 3c ab 30 7d 3f f6 a0 ab be
       -0.07430885 0.011113597 0.98902386 -0.3352124
000320 64 35 25 3f 8e 9e f4 bd 16 01 86 be 82 7d aa be
       0.6453459 -0.119443044 -0.26172704 -0.3329888
000330 73 cd 05 bf 2a fd dc 3f 4d fa 80 bd 90 79 32 3f
       -0.52266616 1.726476 -0.06297741 0.6971674
000340 4c f6 12 3f 5e 0b 3d be 6e f2 2f bf 7e 22 c5 3e
       0.5740707 -0.18461367 -0.68729293 0.38502878
000350 1c ff 8d be eb 67 4b 3e a1 81 e7 be a0 cf 4e 3f
       -0.27733696 0.1986386 -0.45216087 0.8078556
000360 f6 74 58 3e b6 4d 7e bc 4b f2 ab be 38 2c dd 3d
       0.21138367 -0.015521457 -0.33583292 0.1079945
000370 2c e6 74 bd 93 ea 73 3d b4 df 49 be d1 69 6a 3d
       -0.05978982 0.05954988 -0.19714242 0.05722982
000380 0a 73 70 3d 0d 9d 2e bf cb 7a 22 bc 71 88 28 be
       0.05870346 -0.6820839 -0.009916971 -0.16458298
000390 b0 4c 55 3d 45 3a de bc 43 e7 56 bc 2f 99 5e bd
       0.052075088 -0.027127394 -0.0131166605 -0.054345306
0003a0 00 0c 8b bd 73 b9 bf bd a5 4a d1 3d 89 31 47 3e
       -0.06789398 -0.093615435 0.102193154 0.1945249
0003b0 ae 25 c2 3c 8b ef 3d bc e4 07 41 bd 5e c0 63 3d
       0.023699608 -0.011592756 -0.047126666 0.055603378
0003c0 32 46 ec bc 91 ea 39 3c 69 7a 9d 3a a1 53 10 3d
       -0.028842065 0.011347429 0.001201463 0.035236005
0003d0 9a 77 98 3d 4e 6b 10 3d f6 b5 26 be cc 1d 4c 3e
       0.07444687 0.035258584 -0.1628035 0.19933242
0003e0 94 2a 0f 3e 96 b0 b0 bd 20 1f 08 bb 6b f0 9b 3e
       0.13981086 -0.08627431 -0.0020770505 0.30456862
0003f0 af 8d 67 3d 1e cc 3b 3d f3 bc 39 be d5 5a 75 bc
       0.056531604 0.04584896 -0.18138485 -0.014975269

a2c_network.actor_mlp.0.bias f4 [128]
000000 96 96 29 3e 3c d2 1c be 20 01 12 be f6 ef 0e 3e
       0.1656135 -0.15314573 -0.14258242 0.13958725
000010 d7 fe 79 bd c1 74 38 3e 1f a8 1b be cf 92 9e bd
       -0.06103405 0.18013288 -0.15200852 -0.07742845
000020 88 83 4d 3e 79 73 d9 bd 98 5e e1 bc 0a 22 7c bd
       0.20069706 -0.10617728 -0.027510926 -0.0615559
000030 fe 01 a7 3d 94 bd 11 3e 91 7c 12 be 0a 21 12 3c
       0.08154677 0.14232475 -0.14305331 0.00891901
000040 2e a8 47 3e 5d b7 14 3e 89 cf b9 3c fd 06 48 bd
       0.19497749 0.14523073 0.022681968 -0.04883479
000050 a0 5c 3f be 53 97 84 bc 6d 34 7a bd 8e 01 a7 3d
       -0.18687677 -0.016185438 -0.061085153 0.081545934
000060 32 f1 25 be 98 a9 f8 3d 55 0c 57 3d 3b 44 d5 3d
       -0.1620529 0.121417224 0.052501995 0.104134046
000070 91 93 c5 bc 04 8d 30 3d f7 76 f9 3d b4 4d 0b bd
       -0.024118217 0.043103233 0.12180894 -0.03400965
000080 1b 7f 27 3e df 41 d8 bc 1d e2 76 3d a6 ea c1 3c
       0.1635708 -0.026398597 0.060274232 0.02367146
000090 e4 56 24 bc 99 cb ab 3c 9e 73 28 3d 35 42 29 be
       -0.010030482 0.020971106 0.041125886 -0.16529162
0000a0 31 9f 9a bd 48 43 15 3e f6 04 8c 3d b1 da de 3d
       -0.075498946 0.14576447 0.06836884 0.10881556
0000b0 21 9c 71 3c 1b 5f 02 3d 2c 61 6f bb 6a 0b f0 3d
       0.014746697 0.03182898 -0.0036526425 0.11720927
0000c0 9c c9 b3 bd 6e c2 06 3d 32 be 87 bd ad bd f6 3d
       -0.08778688 0.032900266 -0.06628074 0.120478965
0000d0 0a a1 4b 3c 36 cb 6d bd c4 5f b2 bc 08 e7 bb bd
       0.012428531 -0.058055125 -0.02177418 -0.09174925
0000e0 bc ac 0c bd 0a 99 2b 3e 86 57 5d 3d 85 5a f3 bd
       -0.03434442 0.16757599 0.054038547 -0.118824996
0000f0 b6 c1 d0 3d 2b d7 a6 bd ce e1 62 be 64 f7 31 bd
       0.101931974 -0.08146509 -0.2215645 -0.04344882
000100 06 41 f8 3c 28 7d e6 bd 66 fa f1 bd 4e 36 05 3e
       0.030304443 -0.112543404 -0.11815338 0.13008997
000110 2f 7a e5 bc b5 91 6d 3e 0d 66 58 3c 51 c8 09 bd
       -0.028012363 0.23200114 0.013207925 -0.033638302
000120 28 6d 83 3e 91 99 f5 bd 31 79 f8 3d 9c 11 fa 3c
       0.25669217 -0.11992181 0.121324904 0.030525975
000130 33 3d 17 bd 81 60 fe bd ea 77 2f 3b 88 c2 45 3d
       -0.0369236 -0.124207504 0.0026774355 0.048281223
000140 3b dd 60 be 70 c6 e5 bd fb 00 5d 3e ec 9b 1c 3e
       -0.21959393 -0.112194896 0.21582405 0.15293854
000150 25 57 52 be b6 63 f8 bc 46 8e b9 bd 3b 69 52 be
       -0.20541056 -0.030320983 -0.0906034 -0.20547955
000160 79 50 9b 3d 65 94 67 bc fa 92 6f 3e 0a a3 35 bd
       0.07583708 -0.014134501 0.23395911 -0.04434494
000170 d0 30 41 3d 2a cf ef bd 53 94 0c 3e a3 30 87 bd
       0.04716569 -0.11709435 0.13728456 -0.066010736
000180 6f 13 45 bd fb f2 45 bd 3c 17 4d 3c cd 46 45 bd
       -0.048114236 -0.048327427 0.012517747 -0.048163224
000190 e1 b9 53 bd 65 7b 8f bd 4b e4 60 bd 1a 85 10 be
       -0.05169094 -0.070059575 -0.054905217 -0.14113274
0001a0 39 c8 a5 bc 73 20 20 3e 06 4b da 3d dc ab 5d be
       -0.020237075 0.15637378 0.10658841 -0.2164759
0001b0 b9 9d f0 3c be 6f 5b 3e 09 aa 60 bd cf 3d e0 3d
       0.029372083 0.21429345 -0.05484966 0.10949289
0001c0 60 b8 df bd fd 30 22 be fe c9 aa 3d 2b 6a 54 bd
       -0.109238386 -0.15839 0.08339308 -0.051859062
0001d0 0a f3 df bd 8c 36 11 bd e2 fc 8b 3d fb 8f 04 be
       -0.10935028 -0.03545241 0.06835343 -0.12945549
0001e0 fd c2 b9 bd 50 32 ab bd 3d af 23 be 57 7f 17 3e
       -0.09070394 -0.08359206 -0.15984817 0.1479467
0001f0 d2 10 13 3d d3 1d b8 bd 74 ce f5 bc 43 c6 96 bd
       0.035904713 -0.089900635 -0.030005671 -0.07362034

a2c_network.actor_mlp.2.weight f4 [128, 128]
000000 70 7f ba bc d0 97 48 3e 51 4d 2e be 7c b0 3e 3d
       -0.022765845 0.19589162 -0.17021681 0.046555027
000010 06 cd 1c bd d1 00 1f be c4 b5 b5 3b ed 41 1f be
       -0.038281463 -0.15527655 0.00554535 -0.15552492
000020 be e3 9e bd 17 fb 42 be 98 92 e7 bd 94 4d 50 be
       -0.07758282 -0.19041096 -0.113072574 -0.20342094
000030 03 ae b4 bd 16 52 6a 3d d0 c1 1b be cd 12 10 be
       -0.088222526 0.05720719 -0.15210652 -0.14069672
000040 0a 4e 52 bd ef 9c 36 be 63 90 f6 3d 92 fc ae be
       -0.051343955 -0.17833303 0.12039258 -0.3417707
000050 c0 a1 2b 3e 42 e7 4d bd 3c f8 be 3d cd 0a 97 bd
       0.16760921 -0.050269373 0.09324691 -0.07375107
000060 0b 15 4d 3e 97 0b f6 bd 95 45 4d bd ad 9c 25 bb
       0.20027559 -0.12013929 -0.050115187 -0.0025270388
000070 ce 85 4e 3e 9d e1 09 be 1a ec 95 bd d4 04 1b be
       0.2016823 -0.13464971 -0.073204234 -0.1513856
000080 77 1f 56 be 25 4f 03 be f5 95 b7 bd e3 ae d1 bc
       -0.2091044 -0.1282316 -0.08964149 -0.025596088
000090 48 e4 c2 bd 00 6d d5 3d 83 5c e4 3c e2 93 ca bc
       -0.095161974 0.10421181 0.027876144 -0.02472872
0000a0 e5 65 c6 bc cb 72 97 bc 19 3c b1 3c 52 27 f8 bd
       -0.024218509 -0.018487355 0.021635102 -0.12116875
0000b0 8f d1 e1 bd 5b bd 3e bb 7a ea b6 b8 4f bd b6 3d
       -0.11026298 -0.0029104564 -8.722111e-05 0.089228265
0000c0 3b a4 02 bd 3a 19 9b 3c b6 41 4d be 92 87 ad bd
       -0.031894904 0.018932927 -0.20044598 -0.084731236
0000d0 3b 3b 84 3e 50 10 0f 3c e1 9b be 3c fc 07 44 3e
       0.2582644 0.008731917 0.023267688 0.19143671
0000e0 95 f8 d8 3b 27 d0 f1 bc aa 33 b4 bc 3f 80 ea bc
       0.00662143 -0.0295182 -0.021997292 -0.028625606
0000f0 d3 b8 ba bd 1e a3 8a bc 3f 26 1a bd 57 25 13 be
       -0.09117284 -0.016923483 -0.03763413 -0.14369713
000100 8e 13 d1 bd 53 21 84 3e 9c cf 07 bd 4a fa 79 bd
       -0.10208808 0.25806674 -0.033156976 -0.06102971
000110 1f 02 7e 3e a7 f2 22 3b 30 38 92 3c 1e e4 67 3e
       0.24805497 0.002486387 0.017849058 0.22645614
000120 76 cb 86 bc 0d a8 4e 3e 81 e7 88 be 0e f4 ef 3c
       -0.01645444 0.20181294 -0.26739123 0.029291179
000130 dc e0 e3 3c 43 90 12 3e 13 fc 2e be d8 02 7d be
       0.027817182 0.14312844 -0.17088346 -0.24708116
000140 dc ab f4 3d eb 98 01 be 8e 86 cb bc e1 03 36 3d
       0.11946842 -0.1265599 -0.024844434 0.044437293
000150 b2 8c 6c 3d 7c 25 47 be 1f 5a 2a be 26 7d 89 bd
       0.057751365 -0.19447893 -0.16635941 -0.06713323
000160 0e 30 f9 bd 42 6b ad bd 2a 85 ce bd ff dc a5 bd
       -0.12167369 -0.084677234 -0.10083993 -0.08098792
000170 f3 a6 8c be 17 c4 a2 3c db 65 b6 bd 5f f9 65 3e
       -0.27471122 0.019868894 -0.08906146 0.22458409
000180 2c 09 04 bd 19 68 7c 3d e3 60 00 bc a1 c9 8e 3d
       -0.03223531 0.061622713 -0.0078356 0.069720514
000190 4b 49 3b 3e fb d9 78 be 34 65 21 be e1 03 8b 3d
       0.18289678 -0.24301903 -0.15761262 0.06787849
0001a0 17 48 bd 3e ac 33 0c bd 40 c5 a8 bd 2e 78 08 3e
       0.36969063 -0.034228966 -0.082407475 0.13327095
0001b0 ac db 34 bd 06 ef 1c be 06 81 90 3d 45 47 92 bc
       -0.044154808 -0.15325555 0.07055859 -0.01785625
0001c0 7f 2a 0c 3e 24 f7 b3 bb 27 50 b0 bd 70 17 39 3e
       0.13688086 -0.005492108 -0.08609038 0.18075347
0001d0 64 39 93 3d a0 75 0c 3e 89 ce b2 ba 18 86 24 3e
       0.07188681 0.13716745 -0.0013641875 0.16066778
0001e0 8e bf 71 bd 07 b8 92 bd 6c 90 53 3e e4 4e 7f be
       -0.05902057 -0.07164007 0.20660561 -0.24932438
0001f0 04 9c b9 3d 63 3a 93 3c bc f2 2c 3d a8 5b ec 3a
       0.09062961 0.017972177 0.042223677 0.0018032687
000200 df 6b d6 bb 3b ab 17 be ea 37 12 bd e7 e0 d9 be
       -0.006543621 -0.14811413 -0.035697855 -0.425544
000210 6b a8 4d 3e 6f 27 a0 bb 17 8f 49 be e8 55 67 be
       0.20083778 -0.0048875134 -0.1968349 -0.22591364
000220 68 d8 0e be 3c 63 58 3d e5 d3 20 bc a3 e9 85 bd
       -0.1394974 0.052829012 -0.009816145 -0.06538703
000230 4f ef e2 bd ab 9c 14 3b 2f 08 a6 bc e9 68 08 be
       -0.11080801 0.002267639 -0.020267574 -0.1332127
000240 92 64 0e bc c5 82 29 3c 54 94 51 be b3 0d 9d 3d
       -0.00869097 0.010346119 -0.20466739 0.076686285
000250 68 00 66 3d 53 17 ad 3d 64 74 04 3e 57 ce 54 bd
       0.05615273 0.08451714 0.12935024 -0.051954594
000260 bf f7 35 3d 3c 3e b7 bc 16 50 ad bc d0 55 dd 3d
       0.044425722 -0.022368543 -0.021156352 0.10807383
000270 14 2e 26 be 39 db af 3d 3d 03 0b be d5 0c 56 bd
       -0.16228515 0.08586735 -0.13575454 -0.05225833
000280 e2 77 e3 3c 58 74 80 be f7 64 81 3d 35 34 bb 3c
       0.027767126 -0.25088763 0.06318086 0.022852043
000290 42 8a 3b be 27 5f 9e be c8 88 03 be fb 8b 4d 3e
       -0.1831446 -0.3093197 -0.12845147 0.2007293
0002a0 70 f2 3d be b1 62 44 bd 2a 5b 2f 3d 26 43 ac bd
       -0.18549514 -0.047945682 0.04281155 -0.08411245
0002b0 2a ba 79 bd 44 fe 11 be 92 b6 83 bd a6 cb 38 bc
       -0.060968556 -0.14257151 -0.06431307 -0.011279022
0002c0 9c 6a 72 be 5f c7 8b be e3 52 bb 3d 46 aa b4 bd
       -0.23673481 -0.27300546 0.09146669 -0.088215396
0002d0 29 6e 38 be cc 91 a0 3e c0 4e 8e be 80 ce 8b bd
       -0.18010773 0.31361234 -0.27794456 -0.06826496
0002e0 f3 5b 66 be 16 4c 06 bd 91 10 11 bd 7f fe b0 be
       -0.22496013 -0.032787405 -0.03541619 -0.34569165
0002f0 48 6b dc bd 70 1b 63 3e 5e 7b 9f bd 66 57 b1 3d
       -0.1076265 0.22178435 -0.07787202 0.08659248
000300 4f 6b d1 bd 7a 48 10 be 47 60 03 3e a1 5f 18 3c
       -0.102255456 -0.14090148 0.12829696 0.009300143
000310 e2 d8 19 be 03 2e 33 be 8a 3f dd bd fa 6c f3 bd
       -0.1502414 -0.17498021 -0.10803135 -0.1188602
000320 a9 d0 a9 3d 6a f3 98 bd 0a af cf bc c0 8e ee 3d
       0.08291752 -0.074683025 -0.02535202 0.11648321
000330 ef 5d 16 be 76 5a 4a 3c d4 ae 82 3e 63 1a 04 3c
       -0.1468427 0.012350669 0.25524008 0.008062932
000340 98 4a f5 3d c8 d3 8f be 94 84 34 3d 0e 5e 83 bd
       0.11977118 -0.28091264 0.04407175 -0.06414424
000350 f2 c2 0c bd e3 1d 0d be 65 08 0d be 8f 41 3d be
       -0.0343656 -0.13780932 -0.13772734 -0.1848204
000360 82 0e c2 bc 2e b9 62 be bd 44 ef bd 9a db dc bc
       -0.023688558 -0.22140953 -0.11683033 -0.026960183
000370 5b 50 95 bd 20 f9 73 3e d1 17 54 bd 52 23 bf 3e
       -0.07290717 0.23825502 -0.051780526 0.37331635
000380 ef 2a 13 be f6 a7 a3 be 9a 62 ce 3d 22 03 b3 3c
       -0.14371847 -0.31964082 0.100774005 0.02185208
000390 a9 cb c5 bd 15 e7 8b 3c 2b 88 be 3d 24 b2 82 bd
       -0.09657986 0.017077962 0.09303316 -0.06381634
0003a0 32 8c 85 3c c0 16 3c be a6 38 84 be 5a 77 42 bd
       0.016302202 -0.18368053 -0.2582447 -0.047477104
0003b0 e0 ff e9 bc e5 70 2b 3e e2 e4 67 3d c7 b9 a1 bd
       -0.028564394 0.16742285 0.056614764 -0.07896762
0003c0 64 e6 ae 3e c6 de db 3d 77 ce 94 3c 4a 04 55 3e
       0.3416015 0.1073585 0.018164856 0.20802417
0003d0 14 c1 86 be 95 be fa 3d 4f 5f 45 3d 74 1e 98 3d
       -0.26319182 0.12243382 0.048186596 0.074276835
0003e0 d1 60 66 bd 24 a4 0b be bb 0c 5d bd 23 a8 48 be
       -0.056244675 -0.13636833 -0.05396722 -0.19595389
0003f0 5a 2f d8 bd 5a ee 36 3e 8c ac 0e bd 5b fa dc 3c
       -0.105559066 0.17864361 -0.034832522 0.026974848

a2c_network.actor_mlp.2.bias f4 [128]
000000 7e ca 03 be c6 a0 4a bd ed 17 89 bd 98 bf 0e be
       -0.12870213 -0.04946973 -0.066940166 -0.13940275
000010 33 f9 f3 bd b0 66 bd bd 18 e5 22 be aa 19 21 be
       -0.11912765 -0.09248102 -0.15907705 -0.15732446
000020 0c 72 20 3e 8e 4c be bd 72 32 da 3d 8c 45 96 bc
       0.15668505 -0.092919454 0.10654153 -0.01834371
000030 13 a3 21 be 71 b6 fc bd ca b3 07 be f0 6c aa bd
       -0.15784864 -0.123394854 -0.13252178 -0.083215594
000040 ab fc 48 be 17 6f 01 3e f9 29 a3 bd d3 93 d9 bd
       -0.19627635 0.12640034 -0.0796699 -0.10623898
000050 d8 19 79 bd 5b 03 0b be 29 1b 26 3a e6 84 94 bd
       -0.060815662 -0.13575499 0.00063364446 -0.07251911
000060 cb 13 74 3d 4b d6 b4 bd 80 92 1b 3d 1b 15 36 be
       0.05958919 -0.08829936 0.03798151 -0.17781489
000070 ef 70 30 be cc c6 df bd a8 08 d1 bd 72 ff d3 bd
       -0.17230581 -0.10926589 -0.10206729 -0.10351457
000080 2f 2a a6 bd 2b 0d bf 3d ee f9 f1 3c 1f 94 e8 bc
       -0.08113515 0.093286835 0.029538121 -0.028390942
000090 82 1e d8 bd 76 34 cf bd 39 2e 37 3d 20 8c dc bc
       -0.10552694 -0.10117428 0.044721816 -0.026922286
0000a0 b6 62 5b bc 07 91 a7 bd 29 86 4a bd 85 7a 93 be
       -0.013390234 -0.08181959 -0.04944435 -0.28804412
0000b0 c1 e5 35 3e 6b 86 ce 3d 7e ae ae 3d 1a 3f 69 3e
       0.17763425 0.10084232 0.085293755 0.22777978
0000c0 20 46 51 be 47 5b 0b be 75 7c 6f be ee 85 96 bd
       -0.20436907 -0.13609038 -0.2338732 -0.07349764
0000d0 c9 2c b4 ba 43 20 5d be 65 25 b8 3d b6 3d a4 bd
       -0.0013746257 -0.21594338 0.089915074 -0.08019583
0000e0 6c f8 2a be 18 2b 3f be 07 9d b0 3c b0 b0 40 bd
       -0.16696328 -0.18668783 0.021559251 -0.047043502
0000f0 dc 58 36 be 7c 6e f9 bc 90 57 22 bd a1 d8 08 3e
       -0.17807335 -0.03044819 -0.039634287 0.13363887
000100 f5 b9 3c 3d 22 6a 9f bd 47 19 5c 3d ce 05 83 bd
       0.04607578 -0.07783915 0.053735044 -0.063975915
000110 68 e9 0c bd 3a 48 95 bd e9 bb 0e be be a8 a9 bd
       -0.03440228 -0.07289167 -0.1393887 -0.08284138
000120 4e d4 a6 bc 5b 76 0d 3d 73 7e 0f be c8 5f 6b 3d
       -0.020364907 0.0345367 -0.1401308 0.05746439
000130 da 21 81 bd 74 bf 29 3c 62 14 e9 bc 33 26 01 be
       -0.06305285 0.010360587 -0.028452102 -0.12612228
000140 da ac 91 bd 87 53 4e be a0 4d 8a be 7e ab b6 bc
       -0.07113047 -0.2014905 -0.27012348 -0.02229857
000150 77 69 b3 bd e7 f3 5f be 03 80 9f bd 5c 92 78 bd
       -0.0876035 -0.21870385 -0.07788088 -0.060686454
000160 59 dd 0c 3e 00 63 51 bb 5d 84 23 be c1 16 08 3d
       0.13756312 -0.0031949878 -0.15968461 0.033224825
000170 80 7b 94 3c e4 fa 15 bd 57 be 90 be 55 30 36 3e
       0.018125296 -0.03661622 -0.28270218 0.17791875
000180 e5 0c 16 3e f9 7f bb 3d 87 80 e5 bd 23 cc c4 3d
       0.14653356 0.09155268 -0.11206155 0.096092485
000190 7a 42 c0 bd f7 51 7b 3d 8b e8 b5 bd 82 e6 0c 3d
       -0.093876794 0.061357465 -0.08882245 0.034399517
0001a0 29 89 2f 3d ce f3 27 3e fa 46 6e be f9 ec 1d be
       0.042855415 0.16401598 -0.23269263 -0.15422429
0001b0 f0 f6 a4 bd 4f 4a 5f ba 5b 9d e1 3c 5b 62 b8 3d
       -0.08054912 -0.0008517848 0.027540853 0.09003135
0001c0 d3 ec 3c be 42 6c 9c 3c 3d 5c 91 be 61 3f 64 bd
       -0.18449716 0.01909459 -0.28390685 -0.055724505
0001d0 cc 29 18 3d 3e f0 42 3e db 49 0c bd e0 ea 95 bc
       0.037149236 0.19036958 -0.03425012 -0.018300474
0001e0 bc fb d8 3d 99 33 b2 3d 61 24 21 be 68 7e 3f 3e
       0.105948895 0.08701248 -0.15736534 0.18700564
0001f0 7f c8 b8 bd c6 e6 73 be e5 08 a4 3d ac e8 9b 3d
       -0.090226166 -0.23818502 0.08009509 0.07612738

a2c_network.actor_mlp.4.weight f4 [128, 128]
000000 db 39 cd 3d 48 2a a1 bd 2c a7 1b bd d9 c2 4a 3d
       0.10020801 -0.07869393 -0.038001224 0.049502227
000010 14 42 c4 3c e9 82 10 be 63 33 b2 bd a0 62 b5 3d
       0.02395729 -0.14112438 -0.087012075 0.08856702
000020 6a f9 8f bd cf d5 3e bd 8a bd ba 3a ec fb 8d bd
       -0.07029994 -0.046590623 0.0014247161 -0.06932816
000030 cd 1f 6a 3c db e1 96 3c 92 76 3b bd 39 57 21 be
       0.014289808 0.018418243 -0.045767374 -0.15755929
000040 c4 f2 30 3c 36 1a c5 bb 40 c0 10 bd ab 9f db bd
       0.010800067 -0.0060150875 -0.035339594 -0.107238136
000050 ae f8 d2 3c 6a 9e 53 3d 4d 97 5a bd 1f 3e 8a 3c
       0.025753345 0.051664747 -0.053366948 0.016875325
000060 89 4b 3c be bb 2c 69 bc c3 ac ef 3d 9a b9 15 be
       -0.1838819 -0.014231856 0.117028736 -0.14621583
000070 f8 69 45 3c 87 3a ea bd b3 1a 70 bc b4 67 d8 3d
       0.012049191 -0.114369445 -0.014654803 0.10566655
000080 04 bf 5a 3d c8 0d 8f bd 16 4e 04 bd 9a 2f c1 3c
       0.053404823 -0.069850504 -0.03230103 0.023582269
000090 bb 0f 02 bd 6d b1 c4 3b b8 e7 a2 3c 06 03 b5 bd
       -0.031753283 0.006002596 0.019885883 -0.08838467
0000a0 14 e0 91 bd 22 3f d1 bc c8 19 61 bd 76 53 b1 bd
       -0.07122818 -0.0255428 -0.054956228 -0.08658497
0000b0 4d 9c 04 3e b6 14 9e bd 06 a0 b9 bd f0 30 e1 3d
       0.12950249 -0.07718794 -0.09063725 0.10995662
0000c0 03 89 f0 3d 33 e0 8f bd ca 50 9d bd 54 3d ea bc
       0.11744883 -0.070251845 -0.07681425 -0.028593697
0000d0 b3 9d d9 3a f0 4c d6 3a e3 27 e0 bd 3d 39 c5 3d
       0.0016602784 0.0016349833 -0.10945108 0.09630058
0000e0 5b b1 f1 bd a4 28 b7 3d dc 7a d8 bc 4c 3d 66 bc
       -0.11801406 0.089432985 -0.026425771 -0.0140527
0000f0 4d ec ca 3c 66 43 30 3d cd 0f 1b 3d d7 74 ad 3d
       0.02477088 0.043033026 0.037856866 0.08469551
000100 4e f3 9b bc 8d f7 37 3e 2a bf b7 bd c5 7d 90 bd
       -0.019036915 0.17965527 -0.089720085 -0.07055239
000110 67 07 c3 3d 99 9b 2b 3d 63 fb 21 3e 66 42 db 3d
       0.09522896 0.041896436 0.15818553 0.10706024
000120 36 67 32 bc b6 f2 c1 3c 39 f7 ea 3d 37 a8 0d bd
       -0.010888865 0.023675304 0.11472935 -0.03458425
000130 2c 54 05 bd 28 36 0b 3e c7 08 0b 38 8f 2f 1e bb
       -0.032550976 0.13594878 3.3148357e-05 -0.0024137234
000140 0b 74 0e 3d b7 0b 37 bd f5 d5 06 3d df d0 7b 3d
       0.034778636 -0.044688907 0.03291889 0.061478492
000150 db df 12 3d ba 24 91 bd c4 f1 06 be bb 29 03 3d
       0.035858016 -0.07087083 -0.13178164 0.03202222
000160 68 02 18 bd c5 e7 cf bd 5d 56 52 3d 7e 13 05 bd
       -0.03711167 -0.101516284 0.051351894 -0.032489292
000170 64 fa c0 3d c2 84 88 bb 39 7b f5 bc 35 a4 13 3c
       0.09422758 -0.0041662166 -0.029965984 0.009011318
000180 00 d0 5a 3d b7 ea 27 be 03 b6 39 bd b4 0f 79 3b
       0.05342102 -0.1639813 -0.045339596 0.0038003745
000190 9a 92 a6 bd 4c 45 27 3d 3e 4d c5 bd b8 0c dd bd
       -0.08133431 0.04083757 -0.096338734 -0.107934415
0001a0 b2 9a a5 3d 85 5c 59 bc cb aa 11 be 29 a6 ba bd
       0.080861464 -0.013266687 -0.14225309 -0.09113724
0001b0 79 28 db 3c 55 bf 34 be 86 d4 ec bc 8f 7c 04 be
       0.026752697 -0.17651112 -0.028909933 -0.1293814
0001c0 9f 8d 9a 3d 79 0e a0 3c 83 e2 ec bd 56 88 f5 bd
       0.07546543 0.019538151 -0.11566641 -0.11988895
0001d0 e8 70 88 bd 98 37 0c be e2 46 0c 3e 5c 6a ea 3c
       -0.0666216 -0.13693082 0.13698915 0.02861517
0001e0 bd b7 d6 ba 2b 66 4a bd 4a cc fe 3c ba 5d 46 3c
       -0.0016381663 -0.04941384 0.031103272 0.012107307
0001f0 02 6d 2b 3b 11 66 ce bc 48 27 32 3c 52 36 06 be
       0.0026157503 -0.025195153 0.010873623 -0.13106659
000200 2e 54 04 be df 28 7b bd 30 80 71 bd ab f5 01 3d
       -0.12922737 -0.061318275 -0.05896014 0.031728428
000210 ca 05 72 bd 33 4d 38 be 3a 76 1a bc c6 3e c2 3d
       -0.059087552 -0.17998199 -0.0094276015 0.09484629
000220 90 f9 da bd 68 3f 64 be a7 38 7a bd 73 ed 46 3e
       -0.106921315 -0.22289813 -0.061089184 0.19426517
000230 86 d3 de bd 32 74 75 bd 34 af 00 3e 38 2c 58 3d
       -0.10880189 -0.059925266 0.12566835 0.052776545
000240 85 4c db bd 1f 4d 3c bd ce fa 14 be c2 99 c1 3d
       -0.10707954 -0.045971986 -0.145488 0.09453155
000250 18 fa a3 be 90 b4 bc bd 9f 6f a5 3c 1f c2 08 bd
       -0.32026744 -0.09214127 0.020194827 -0.033388253
000260 7e 34 9b bd cf 93 28 bd 7d 39 1c bd 45 d0 2a 3b
       -0.075783715 -0.041156586 -0.038140763 0.002606408
000270 af 19 49 bd 46 c0 87 3d 53 34 85 bd 9d 9c cc 3d
       -0.04909676 0.0662847 -0.06504121 0.09990809
000280 5a 5b 9e be ab e8 31 be cc 7d 8e be 87 39 86 3d
       -0.3092907 -0.17373912 -0.2783035 0.06553941
000290 f2 24 15 be de 2f 0b 3e 29 ec 20 be ee 1d 04 be
       -0.14564875 0.13592479 -0.15715088 -0.12902042
0002a0 80 48 73 bd 59 81 05 bd 01 f9 10 bd 3e 66 5b 3d
       -0.059395313 -0.03259406 -0.03539372 0.053564303
0002b0 bc 52 1b 3d bf 30 95 bd a0 e9 7d bd 12 21 0e bc
       0.0379207 -0.07284688 -0.06199038 -0.008674877
0002c0 d9 89 97 3c d0 f1 e9 bc e7 59 b6 3d cf b1 de 3c
       0.018498348 -0.028557688 0.08903866 0.027184395
0002d0 d4 18 85 bc 40 8e 05 3e ed 6e 92 bd 35 15 92 bd
       -0.01624719 0.13042545 -0.07150064 -0.07132951
0002e0 c6 a8 55 be ac 69 70 3c be cb 34 3d 13 62 2f be
       -0.20865163 0.014673632 0.044139616 -0.17127256
0002f0 07 06 42 bd 3e 91 e9 3d 6f b8 00 3d a3 00 9e bd
       -0.04736903 0.11404656 0.03142589 -0.07714965
000300 e8 24 27 be 09 4c bc bc a9 9f 3f be 5f 1e 0b 3e
       -0.16322672 -0.022985475 -0.1871325 0.13585804
000310 94 0c 9d bd ef 53 be 3c 9a 63 45 bd b1 05 7f bd
       -0.07668415 0.023233382 -0.04819069 -0.062261287
000320 71 ae 02 bc 37 5f 4b be 26 89 25 3e fe 9a de 3d
       -0.00797616 -0.1986054 0.16165599 0.10869406
000330 cc 35 2d 3e 24 6d 19 be d3 0e a9 3c ed 1d 0b 3e
       0.16915053 -0.1498304 0.020636952 0.13585635
000340 20 84 cf 3d 44 b9 de 3d 8a 6a d6 3d de 3e 54 be
       0.10132623 0.1087518 0.104695395 -0.20727107
000350 cf 88 25 3e 52 b7 91 3e 41 50 dd 3d 36 f5 1a 3e
       0.1616547 0.28460175 0.10806323 0.15132603
000360 36 e5 00 3e 95 8e 7e 3e 25 d8 d7 3c 91 21 08 be
       0.12587437 0.24859078 0.026348183 -0.13294055
000370 d9 ed 1b be ce 25 8d bd fc f5 12 3e 1e f2 4a bd
       -0.1522745 -0.06891976 0.14351648 -0.049547307
000380 9d 4f 20 be b2 ee 26 be ab fc d5 3a 14 20 d9 3d
       -0.1565537 -0.16301993 0.0016325911 0.106018215
000390 69 07 20 3e cd 10 69 bd 95 72 7a 3d 28 cb ca bd
       0.15627827 -0.056900788 0.06114443 -0.0990203
0003a0 42 0f e4 bd 63 c7 93 bd 13 80 39 bc cf e5 c2 bd
       -0.11135723 -0.072157644 -0.011322039 -0.09516489
0003b0 f3 d7 0c be 79 1a 7a bd 10 89 ba bd 9f 0f 6a bc
       -0.13754253 -0.061060403 -0.09108174 -0.014285951
0003c0 c1 7d 50 be 9d f7 40 3e 0f 2e dd 3d b2 fd 06 3e
       -0.20360471 0.18844457 0.107998006 0.13182715
0003d0 b2 35 cd bd 23 c6 19 3d b6 72 3f 3e a1 3b 79 3c
       -0.10020007 0.037542474 0.18696102 0.015211971
0003e0 5c a3 43 be d4 c0 37 bd d8 5b 3b be 40 93 d2 bd
       -0.19105285 -0.04486163 -0.18296754 -0.10281992
0003f0 7e 67 d3 bc 5a bf ce 3d 34 70 67 be 88 62 2e 3e
       -0.025806185 0.10095091 -0.22601396 0.17029774

a2c_network.actor_mlp.4.bias f4 [128]
000000 ac d4 da 3d 8e 9d 3b be e7 06 bc bc 6a 14 c2 3d
       0.10685095 -0.18321821 -0.02295251 0.0947655
000010 81 ac 89 3c 34 d2 40 bd 2b 21 fe 3c 79 cb 0b be
       0.01680589 -0.047075465 0.031021675 -0.13651837
000020 32 a9 99 be 1e c3 4d be 16 cd 7c bd fd 88 9f bc
       -0.30011898 -0.20093963 -0.061719023 -0.0194745
000030 f5 d5 b7 3c 7e 84 3a be da f7 b6 bb ed 62 85 3d
       0.02244089 -0.18214604 -0.0055837454 0.06513009
000040 38 1e 0e 3d 7d e5 d2 3c 77 4e 40 3d 55 b5 1b be
       0.034696788 0.025744194 0.04694983 -0.15205891
000050 64 60 e9 bd f3 86 a4 be b8 d8 f2 bd b3 64 c9 bd
       -0.11395338 -0.32134208 -0.11857742 -0.0983366
000060 2f 2e 92 3d 54 38 07 be bf af fc bc 5e 41 5f 3d
       0.07137715 -0.13205081 -0.030845521 0.0545057
000070 86 54 19 bd d7 06 d9 bd 71 2b 96 bd 49 19 73 be
       -0.037434123 -0.10597008 -0.073325045 -0.23740114
000080 d9 6f b1 bd c1 fe 5c 3d 89 d5 d0 bd 5e f4 51 bd
       -0.08663911 0.05395389 -0.101969786 -0.051258437
000090 f3 88 0f be d3 62 bf bd 55 a6 0a be cc 94 d0 3d
       -0.14017086 -0.09345021 -0.13540013 0.10184631
0000a0 ce a2 7e be ba 0b 91 bb 3e 00 4c be 01 f1 4e 3c
       -0.24866793 -0.0044264467 -0.19921967 0.012630702
0000b0 cc 44 43 bd d4 ea 43 bd eb df 09 3d 56 13 46 3d
       -0.04767303 -0.04783137 0.03366081 0.048358284
0000c0 49 f6 0e bd c1 d8 ff bd 5f 31 c4 3d 41 85 b7 3d
       -0.034902845 -0.124925144 0.09579729 0.08960963
0000d0 c7 76 a4 bd 5f 3c da 3d 18 75 cd bd f6 b7 54 3d
       -0.080304675 0.10656046 -0.100320995 0.05193325
0000e0 6a a0 12 be a4 60 2d be 47 c2 d9 bb 8c 0d da bd
       -0.14319006 -0.16931397 -0.006645474 -0.10647115
0000f0 86 43 0c 3c bf 1b 35 be d3 b9 4d 3d a5 89 1e be
       0.008561021 -0.17686366 0.050226044 -0.15482195
000100 1c 74 eb 3d 8a 3d af bd e9 8c a3 bc 66 cc 77 be
       0.114967555 -0.085566595 -0.019964652 -0.24199066
000110 d2 37 00 3d 9a 02 c3 3c 46 3f 6f be 1b a5 ca 3d
       0.031303234 0.023804951 -0.2336398 0.098947726
000120 9c ac 62 3d 92 55 ab 3d c4 f2 fb 3d d1 a4 68 be
       0.055340394 0.083659306 0.12302163 -0.22719122
000130 e1 74 f5 bd 66 2d 65 be 80 94 90 3d c6 02 be bd
       -0.119851835 -0.223806 0.07059574 -0.09277873
000140 00 d3 89 bd 81 1f 36 be 87 d1 c1 bd 75 f9 c2 3d
       -0.06729698 -0.17785455 -0.09463792 0.095202364
000150 07 f9 77 be b1 ca 6d be 59 2c 6f 3c a1 7a c4 bd
       -0.2421609 -0.23221852 0.014597976 -0.09593702
000160 97 ca 97 3d b8 ea a5 3d 8f ec 64 3d 70 80 09 3d
       0.07411688 0.0810141 0.055889662 0.033569753
000170 37 8a 8d be 35 d0 86 3d c1 a7 0e 3d 6b be 8f 3d
       -0.27644512 0.06582681 0.03482795 0.07018741
000180 76 dd 1f 3d f0 5f 4f be 30 9b f2 3d 4a 86 2d be
       0.03902956 -0.20251441 0.11846006 -0.16945758
000190 2a ae 61 be dd 65 e0 ba b5 7d f0 3c d9 49 e6 bd
       -0.22039095 -0.0017120201 0.029356817 -0.11244554
0001a0 99 5d 3d be 72 b7 1b be 0d 74 29 be ba 87 50 3d
       -0.18492736 -0.15206698 -0.16548176 0.05091069
0001b0 ab bc 9b bc 20 3a 40 be 60 da 5a be f2 bf eb 3d
       -0.019010862 -0.18772173 -0.21372366 0.1151122
0001c0 15 c9 73 3c 54 de c0 3d c1 24 12 be 96 85 6d 3d
       0.014879485 0.09417406 -0.14271833 0.057988726
0001d0 88 dd 8f 3d ae 7f 3c be 1d 97 13 be af 9e 1d 3e
       0.070246756 -0.18408081 -0.14413114 0.15392564
0001e0 05 13 59 be 9f eb 60 bd 4c 2b 70 3c b1 9d 0c 3e
       -0.21198662 -0.054912206 0.01465876 0.1373203
0001f0 62 fa 8d 3d db d9 f7 bd 96 c8 fa bc 36 a5 41 be
       0.06932522 -0.121020995 -0.030613225 -0.18910679

a2c_network.value.weight f4 [1, 128]
000000 46 70 76 3c 42 5e 20 3c 78 65 5e bd 5a 15 5c 3b
       0.0150414165 0.009788098 -0.054295987 0.0033582062
000010 75 a2 86 3a 9e 0d d3 bb 2e 99 9a 3c c1 9e cf 3b
       0.0010271805 -0.0064408323 0.01887187 0.0063360636
000020 fe 6d 29 be 7c b1 d4 ba 69 5c d0 3c c1 7f 8f bd
       -0.16545865 -0.0016227211 0.02543469 -0.07006789
000030 0e 06 27 3d 53 50 e6 3c ad 19 45 bc c9 99 82 bb
       0.04077726 0.028114473 -0.012030047 -0.003985618
000040 99 14 ac bb b5 e9 e9 bb 62 a8 12 bd 90 55 da 3b
       -0.005251479 -0.0071384558 -0.035805114 0.006663032
000050 79 5d 38 3d 7e bc 85 be fd ea be 3c ee d6 12 3d
       0.045011017 -0.2612037 0.02330541 0.035849504
000060 4a 1c 20 bd cd 37 b8 3b d0 7e 93 3a 29 b2 32 bc
       -0.03908948 0.0056218863 0.0011253003 -0.0109067345
000070 06 b4 a4 bc 85 12 61 bc d5 78 7f 3d 4a 82 18 be
       -0.020105373 -0.013737326 0.062371094 -0.14893451
000080 4c 8c 63 3d 88 db e7 3b c7 3c 38 bc ea 14 0f 3c
       0.05555372 0.0070757307 -0.011244959 0.008733014
000090 3b 44 30 3d e2 a3 c0 bc ff d2 78 bc 96 44 d6 bc
       0.04303382 -0.023515645 -0.015187024 -0.026155751
0000a0 8b cb 08 bc bc 17 bd ba 11 c4 99 bc c0 63 53 3c
       -0.00834931 -0.0014426629 -0.01877025 0.0129022
0000b0 9b ed 51 bc a6 84 84 bc 8c 5e 7f 38 46 81 b8 bd
       -0.012812997 -0.016176533 6.088479e-05 -0.09009032
0000c0 26 de 15 bc 47 a3 b3 bc 16 9b fc bb 09 45 bb 3c
       -0.009147203 -0.021928443 -0.0077089174 0.022860067
0000d0 3e 40 23 bd b5 54 be bc 2b 10 c8 bc a7 14 2a bb
       -0.039856188 -0.02323375 -0.024421772 -0.002595225
0000e0 8e 0e 32 3c bf b5 1a bd f6 9c 90 3d 83 9e 87 bc
       0.010867728 -0.037770983 0.07061188 -0.016555076
0000f0 96 22 9d bb 53 1f d0 39 68 0f aa 3b b2 ab 9e 3c
       -0.0047953827 0.0003969619 0.005189825 0.01936898
000100 1c 7e a8 3d 35 af 41 3b ed 9b 01 3c 9f c2 81 bd
       0.082271785 0.0029553894 0.007910711 -0.06335949
000110 2b 05 ad 3c 1f 68 20 bd d5 f7 33 3c 41 e2 06 bd
       0.021120628 -0.039161798 0.010984381 -0.032930616
000120 af fa 4e 3c 73 50 85 3d c9 a8 c2 bb f0 ab 79 bd
       0.01263301 0.06509485 -0.005940531 -0.060954988
000130 72 02 5d 3c 20 60 fb bd e6 0f bc bc e2 8c 12 bb
       0.013489353 -0.12274194 -0.0229568 -0.0022361805
000140 b1 cb 3d bc 1d 16 16 bc 05 a7 7b bb e7 e1 9b bc
       -0.011584208 -0.009160546 -0.0038399112 -0.019028617
000150 84 a2 96 3b c8 ec b8 3c 3d be 07 3c 5e c9 b8 bc
       0.00459701 0.022573844 0.008285102 -0.022556957
000160 6a c5 25 bc e6 e8 9a 3c 50 cd b9 3c 90 f7 a7 bc
       -0.010117868 0.018909883 0.022680908 -0.02050379
000170 df 26 80 be c3 6b 2f 3c 06 2a de 3c 1a c7 d6 3c
       -0.25029656 0.010706845 0.027119648 0.026217986
000180 a0 e9 fc bc 8c ea 36 bc a8 0c 82 3d b8 8b 8a bb
       -0.03087312 -0.011164319 0.0635007 -0.0042280816
000190 fb cd 51 3c e1 30 66 bc a1 ff 25 3c 09 61 16 bd
       0.012805457 -0.01404974 0.010131747 -0.036713634
0001a0 3e fc 40 3c 81 0d 6b 3c 08 d5 96 bc 17 83 4f 3c
       0.011778889 0.014346481 -0.018412128 0.012665532
0001b0 0b 33 af bc 9a 91 46 3d 92 1d e9 3d 6f c9 00 bc
       -0.021386644 0.0484787 0.11382593 -0.0078605255
0001c0 0e b1 02 bd 49 9a 7b bc cf d0 c4 38 1d 5d 80 bc
       -0.031907134 -0.015356609 9.384902e-05 -0.0156694
0001d0 fa 6f 6c 3d a9 9e c1 3b 17 7e 23 3c 9e 63 cc bb
       0.057723977 0.0059088063 0.009978793 -0.006237461
0001e0 ef b4 a9 bd 70 12 c8 bb 5b f4 b9 3c e2 7a f6 3c
       -0.082864635 -0.0061057135 0.022699526 0.030087892
0001f0 d6 79 38 3c e6 7d 0e 3c 4c 90 48 bc 50 a1 7e 3c
       0.011259517 0.008697009 -0.012241434 0.01554139

a2c_network.mu.weight f4 [18, 128]
000000 0c 30 01 3e 41 36 0c bd 0d 25 3a 3e 3f 59 0c 3d
       0.12615985 -0.034231428 0.18178196 0.0342648
000010 50 39 84 3c bd 56 85 bc 19 e4 8b 3d 87 c6 90 3c
       0.01614061 -0.016276712 0.068306156 0.01767279
000020 21 6c 50 bc bb 90 bb bc a4 33 0c be 14 8f 9d 3c
       -0.012721092 -0.022896161 -0.13691574 0.019233264
000030 59 65 3a 3d cf ff d9 bc 62 3e bb bd d9 f1 f4 bd
       0.04550681 -0.026611237 -0.09142758 -0.11960191
000040 84 98 17 3c f0 f5 0f be 63 f4 05 be 0c 73 72 be
       0.009252671 -0.14058661 -0.13081507 -0.236767
000050 e8 27 01 bd 9c 98 ce bd 98 63 62 3d 7f b2 1a 3c
       -0.0315322 -0.10087702 0.05527076 0.009441971
000060 c4 bb 58 3d e9 86 fb bd 97 66 bb bd bd 81 b2 bd
       0.052913442 -0.122815914 -0.09150427 -0.08716152
000070 ee 5c 2e 3d 7e b3 69 3c ba b7 17 3d 01 3e ef bc
       0.042569093 0.014263986 0.03704045 -0.02920437
000080 43 b9 66 3d 86 fa f4 ba 3a a0 db bc ae 24 ae 3c
       0.056329023 -0.0018690384 -0.0268098 0.021257725
000090 01 ee d9 3d a8 08 76 bd bd b3 f6 bd 41 a1 df bd
       0.10641099 -0.06006685 -0.12046001 -0.109194286
0000a0 38 b5 65 3e b0 d4 af 3d 8e cc 11 be 34 2f 5c be
       0.2243241 0.08585489 -0.14238188 -0.21502382
0000b0 ba 79 0a 3e f0 02 02 be 00 1a 98 3c 4f e6 49 bd
       0.13522997 -0.12696433 0.018567085 -0.049291905
0000c0 19 8b 3f bd ca 59 9c 3d f9 29 62 3e 71 bf 59 bc
       -0.046763513 0.076343134 0.22086324 -0.013290272
0000d0 7e 45 88 bd 38 6c 5f be e8 2d c8 3d 75 c3 ec 3d
       -0.066538796 -0.21818626 0.09774381 0.11560718
0000e0 4f 69 d7 bd ad 3b 73 3d fd f4 a9 3d 80 5f 8e 3d
       -0.10518133 0.059383083 0.08298681 0.06951809
0000f0 7f 9d 46 3c c6 d9 2c 3e 48 93 f2 3d 3a f8 01 bd
       0.012122511 0.16879949 0.11844498 -0.031730868
000100 78 b0 2a bd 80 c2 1b be b2 59 54 3e 0a cb 8d 3d
       -0.0416722 -0.15210915 0.20737341 0.06923492
000110 5b d1 23 3e 0f ef 58 3d de 25 ae bb 10 2d 59 3d
       0.15997832 0.05296236 -0.0053145727 0.05302149
000120 88 73 d7 bd 9a 22 a4 3c 0f ea 77 3d 8d 93 05 3e
       -0.10520083 0.02003603 0.06052595 0.13044567
000130 d6 dd 0b bc 49 09 e3 bd a2 68 2b 3d 7c ba 2c bd
       -0.0085367765 -0.110857554 0.041847833 -0.042170033
000140 d5 a9 d2 bd 41 b8 96 ba 8f 11 2d 3e ad d4 dd bc
       -0.10286299 -0.0011499004 0.1690123 -0.02707895
000150 cd 64 7d 3e ca be 0b 3e 51 50 33 bc 8b 8e 5a 3c
       0.24745484 0.13646999 -0.010944442 0.013339649
000160 28 29 76 bd 1f 79 94 3b 7c aa 2b be af 76 08 3d
       -0.060097843 0.0045310403 -0.16764253 0.03331631
000170 ac 90 fa bb 53 9d 75 3d 76 09 a7 bd 47 aa c7 3c
       -0.0076466408 0.05996449 -0.081561014 0.024373187
000180 84 aa 41 3d ca 97 84 3d 82 2d 0a be 37 7e 0f bc
       0.047281757 0.06474264 -0.13493922 -0.008758119
000190 47 4e 7d bd 26 15 01 3e be 68 2f 3e bf 42 92 bc
       -0.06184223 0.12605724 0.171298 -0.017854093
0001a0 34 8b 92 3c 04 f1 bb 3d 36 0f 27 bd 96 d3 23 be
       0.017888643 0.091768295 -0.04078599 -0.15998682
0001b0 97 89 44 3d 50 bc e2 bd 4c dd 85 bd 43 cf f2 bd
       0.04798278 -0.11071074 -0.0653635 -0.11855938
0001c0 f5 46 8a bd ad f2 10 bd cd f5 57 bd 53 ca ab 3d
       -0.06751815 -0.035387684 -0.05272465 0.083882
0001d0 f4 85 ac bd 1b 05 7e bd 77 ed 3b be 63 3f a9 3d
       -0.08423987 -0.062016588 -0.18352304 0.08264043
0001e0 36 6b 41 3d f0 f9 14 be 73 69 f8 bb fd a5 1c bd
       0.047221385 -0.14548469 -0.00758093 -0.038244236
0001f0 a3 52 8c 3d 18 a5 94 bd f7 35 87 3d 34 62 76 3a
       0.06851699 -0.07258052 0.0660209 0.00093987887
000200 79 fe b5 bd 27 08 b3 3b c7 5a e5 bc 85 3e d7 3d
       -0.088864274 0.0054636183 -0.027997388 0.105099715
000210 02 a7 9c ba d7 06 41 bc e6 9f 57 3d 50 1a 67 3d
       -0.0011951628 -0.011781416 0.052642725 0.056421578
000220 50 35 d1 3c 24 1f ad bd da ee 20 3d 68 fe 88 3c
       0.025538117 -0.08453205 0.039290287 0.016722873
000230 fa b1 04 be 5b be 67 3c b7 17 f3 ba 1c 56 98 bc
       -0.12958518 0.014144505 -0.0018546496 -0.018595748
000240 c3 15 9b 3d da d4 b8 3d 65 0a 09 3d 75 c4 fd 3c
       0.0757251 0.09024973 0.03345718 0.030977467
000250 37 c7 44 bc ef 1d 86 bd d5 11 2c 3d 96 53 67 3c
       -0.012010387 -0.06548678 0.042009193 0.0141190495
000260 a7 87 05 be b1 55 10 be af cc 74 3d 7f 97 c2 bc
       -0.13040029 -0.14095189 0.059765514 -0.02375388
000270 4e e6 c5 bd 0e 53 ba bd 03 0c 8e bd 77 d0 6f bc
       -0.09663068 -0.09097873 -0.06935885 -0.014637104
000280 e1 c2 90 3c 76 83 99 bc 05 f5 63 be 59 f3 8b bd
       0.01767105 -0.018739443 -0.22261436 -0.06833524
000290 de b1 11 3d fb 4e b4 bd b8 e6 a9 3d 8c d2 89 bb
       0.035570018 -0.08804127 0.08295959 -0.0042060073
0002a0 73 de c1 3d 90 b8 a9 bd e0 98 99 3d c0 32 04 3e
       0.09466257 -0.08287156 0.07499862 0.12909985
0002b0 cb 75 9f bb 74 2a 55 bc 80 92 b7 bc 0e c3 b2 bd
       -0.004866337 -0.01301061 -0.022408724 -0.0872861
0002c0 69 41 a8 bc 4a bb bd 3b 20 5b 5e 3d 87 e8 b3 bd
       -0.020539002 0.005790149 0.054286122 -0.087845854
0002d0 5b a5 2e 3c 65 14 29 bd 37 ce 1b be 41 77 71 3d
       0.010659541 -0.041279215 -0.15215383 0.05895162
0002e0 6a bc 95 bc 67 04 ab bc ee d9 78 bd c5 c3 47 3c
       -0.01827832 -0.020876123 -0.06075471 0.012192671
0002f0 c6 e3 87 3d f1 b4 1a 3e ef cd 80 3c 42 9e 7b bd
       0.06635241 0.15108086 0.015723197 -0.061430223
000300 cf 6a d0 3c a7 fd e9 bc 54 32 43 3c a5 84 ae bb
       0.025441555 -0.028563334 0.011913855 -0.005325871
000310 f1 13 91 3d 97 c3 48 3d 1a 0f 72 3d 2a 4e 5d bd
       0.07083882 0.049014654 0.059096433 -0.05402962
000320 ae 64 8c bd 9f 28 b0 bd e1 2a 9c 3d 8d 74 6d 3d
       -0.068551406 -0.08601498 0.07625366 0.05797248
000330 39 41 b1 bd e3 33 02 bd 91 d1 e0 3d 89 c8 ce bd
       -0.08655018 -0.031787764 0.109774716 -0.10096843
000340 90 09 2e 3e 46 94 c6 3d c7 c4 2b be 6e 00 1a 3e
       0.16995835 0.0969625 -0.16774283 0.15039226
000350 3a 69 5c 3d 88 96 3e be 89 7b b7 bd 35 02 86 bd
       0.05381129 -0.1861211 -0.08959109 -0.0654339
000360 f0 ed 88 3d b7 13 0b bd e5 95 d8 3d c5 df a3 bd
       0.06686008 -0.03395435 0.10575465 -0.08001665
000370 57 d1 81 bd d6 ae 8a 3d ae 46 cf 3d f7 e9 73 bd
       -0.063387565 0.067716286 0.10120903 -0.0595493
000380 f4 c6 b4 3d 53 bc 74 be 16 6e 24 bd ae c7 b6 bd
       0.0882701 -0.23899965 -0.04014405 -0.08924805
000390 31 16 3c be 89 b9 f5 bc f8 b4 f5 3d df 40 9b 3d
       -0.1836784 -0.029995697 0.11997408 0.075807326
0003a0 f4 fd 1d 3d 1f b3 97 39 69 bf 7b 3b 5c 4f 28 3e
       0.038572267 0.0002893442 0.003841365 0.16436523
0003b0 87 ce 00 be 77 7d 18 be 9a 9b 12 3e bd a2 b9 3d
       -0.12578784 -0.14891611 0.1431717 0.09064243
0003c0 9f ca 0b bb 12 bd 72 bd 65 6f 80 3b a8 a0 3d 3d
       -0.0021330488 -0.059262343 0.0039195293 0.046295792
0003d0 e7 f8 26 3d 98 fb a2 3d 11 50 b6 bd 70 6d 36 bd
       0.040764716 0.07958144 -0.0890199 -0.04453796
0003e0 35 31 ed 3c 8f ed 91 bc 36 ed ad 3d 7b f4 07 be
       0.028954128 -0.017813472 0.0849251 -0.13276856
0003f0 b8 65 bb bc 69 a3 1d 3a 95 6e 59 3d 91 5b bd 3c
       -0.022875652 0.0006013425 0.053083975 0.023114951

a2c_network.mu.bias f4 [18]
000000 04 b4 9e bc 80 2b 7b bb fd 3e df 3a 90 9c 01 3d
       -0.019372948 -0.0038325489 0.0017032322 0.03164345
000010 a9 56 02 3d 93 98 4c bd 5b e3 30 3d b2 e7 db 3c
       0.031820927 -0.049950194 0.043185573 0.02684388
000020 c7 d6 c1 3c af 0e a0 bb f1 28 26 bd f9 83 04 3e
       0.023661984 -0.004884563 -0.04056639 0.12940969
000030 b1 63 65 bc db ca 8e bc 6f 14 ec 3c 30 30 54 3b
       -0.014000819 -0.017430713 0.028818337 0.0032377355
000040 bf 03 cc 3c 92 bc 83 3c
       0.02490413 0.016081128

exp_avg f4 [18]
000000 93 7e c7 b9 f4 ec 9c 3a 3c b9 70 3a d2 dc 9f ba
       -0.00038050543 0.0011972473 0.00091828755 -0.0012196547
000010 66 92 0b b9 84 c5 3d 3a cc 1c 13 b9 9d 10 15 ba
       -0.0001331061 0.000723921 -0.0001402974 -0.00056863745
000020 cd c9 7c 3a f0 0f 5b ba 2e 05 9f 3a c5 f3 84 ba
       0.0009643108 -0.0008356562 0.0012132281 -0.001014345
000030 11 02 65 ba 2d 0e d3 b9 48 d8 9b 3a 3b 51 b5 39
       -0.00087359647 -0.00040255618 0.0011890018 0.00034583532
000040 82 fa c6 3a c5 8f 90 39
       0.0015180858 0.00027572937

exp_avg_sq f4 [18]
000000 be bd 1d 38 73 6f 27 38 9d c3 25 38 39 72 2c 38
       3.7608428e-05 3.9919698e-05 3.9521245e-05 4.1114374e-05
000010 ce f9 1a 38 b4 17 23 38 db cf 1f 38 a8 a4 1c 38
       3.694911e-05 3.8884304e-05 3.8102135e-05 3.7346646e-05
000020 c7 95 16 38 21 3a 02 38 6e b5 18 38 e6 4a 1c 38
       3.5902278e-05 3.1048552e-05 3.6408594e-05 3.7263053e-05
000030 54 84 1b 38 92 d0 17 38 fd 1a 1a 38 6d ed 0e 38
       3.707812e-05 3.619545e-05 3.6741596e-05 3.407656e-05
000040 44 7b 22 38 ad 9c 0b 38
       3.873861e-05 3.32861e-05
