logs/rl_games/hexapod_flat_direct/2025-11-15_08-58-23/nn/last_hexapod_flat_direct_ep_700_rew_47.491318.pth (torch, 545947 bytes, 33 tensors)

value_mean_std.running_mean f8 [1]
2.546467240501588
00000000: 4751 7237 2a5f 0440

value_mean_std.running_var f8 [1]
0.34872583245233174
00000000: 0dcd 6927 8651 d63f

value_mean_std.count f8 []
275251201.0
00000000: 0000 0001 0068 b041

a2c_network.sigma f4 [18]
-0.9087188 -1.2184988 -1.3072143 -1.5679657 -1.2500246 -1.0182755 -0.84340745 -0.7607495
-0.999095 -0.9257547 -0.8934737 -0.8302171 -0.25661668 -0.5708048 -0.48793834 -0.50696707
-0.35520208 -0.37191376
00000000: cca1 68bf c5f7 9bbf cc52 a7bf 1ab3 c8bf
00000010: ce00 a0bf da56 82bf 8de9 57bf 7bc0 42bf
00000020: b1c4 7fbf 43fe 6cbf b1ba 64bf 1c89 54bf
00000030: 4363 83be 4320 12bf 0ed3 f9be 98c8 01bf
00000040: 0cdd b5be 7b6b bebe

a2c_network.actor_mlp.0.weight f4 [128, 66]
-0.1359142 -0.06201959 0.5487388 -0.18420242 -0.057201084 0.05458874 0.28003353 0.1341016
-0.320228 -0.4715103 -0.12056222 0.024375394 0.16438687 -0.121649556 -0.22617623 -0.31099832
0.27189207 -0.13640884 0.03365946 -0.1180569 0.051033642 -0.02276288 -0.17420284 0.026308741
-0.028780984 0.023941543 0.10719446 0.01558575 0.014387878 -0.21564649 0.0912343 -0.001869974
0.020003805 -0.026601348 -0.039051585 0.09361206 -0.06359802 -0.16857776 0.053935148 -0.06886075
-0.043138478 0.024561381 -0.05679195 0.03729658 0.07124605 0.057927135 0.025185432 -0.018755762
-0.075225264 -0.09879772 -0.031370964 -0.07670343 -0.03842715 -0.06405033 -0.10439556 -0.15660086
-0.045501668 -0.074375704 -0.16962309 0.018328013 -0.003834658 0.01644081 0.16241197 0.074550286
0.048652202 0.030354815 0.20848691 -0.44972602 -0.077134304 -0.12289374 -0.33670777 0.0049838005
-0.5479748 0.3557199 0.19809324 -0.27566707 0.521952 -0.55807817 -0.17535363 0.46334377
-0.123726234 0.68273276 0.16904645 -0.11965635 0.022650985 -0.082358725 -0.05054443 -0.09807508
0.29867002 -0.0046183486 0.17617951 0.06900605 0.019540312 -0.044379577 -0.027666552 0.103478014
-0.038631592 -0.0990636 0.084597655 0.029444516 -0.062944524 0.0799994 0.06055707 0.0013672245
0.0620249 0.033220187 -0.036283858 0.03876393 -0.01338679 -0.009091119 -0.031542704 0.05564051
-0.006945812 -0.0383531 0.0045173247 0.08097547 0.017873164 0.014279141 0.042681854 0.009523512
0.008044505 -0.11384839 0.07213429 0.10882629 -0.13243003 0.027117906 0.050081264 0.13717847
-0.00015710181 0.02949771 -0.07209183 0.06727829 -0.23745885 -0.50532544 0.4342525 -0.29035702
0.578527 0.11678698 0.6015112 0.027526608 0.08308408 -0.71843046 -0.38704807 0.18383415
0.16978729 0.46051118 0.17525935 -0.008880786 -0.7800425 0.030732062 -0.06863643 -0.18051313
-0.0057312683 -0.16007651 -0.16016945 -0.2802418 -0.012392339 -0.21693812 -0.070948295 0.029246656
-0.03249561 0.21462244 -0.09609709 -0.035627846 -0.100313134 0.10105321 -0.039475687 0.0005781295
0.07407892 0.030506153 -0.027360529 -0.018974414 -0.05970658 -0.15190637 -0.076131105 -0.117892705
0.06327322 -0.024182234 0.010924082 0.008180091 -0.062582165 0.25076416 0.0023432216 0.02642284
-0.30997726 -0.08112956 -0.03894417 -0.11876592 0.07093611 -0.068596505 0.09226258 -0.57504404
-0.046068124 -0.03591654 0.10557925 0.048506938 -0.045466833 -0.0022219182 1.0591183 -0.3196142
0.75342005 -0.15426192 -0.28183454 -0.31916463 -0.53502244 1.6929121 -0.04868581 0.7365622
0.60665834 -0.19954766 -0.63731664 0.4908684 -0.33147392 0.1453342 -0.49022034 0.8221801
0.19878152 -0.023017181 -0.35742867 0.10265241 -0.031004297 0.07507042 -0.1566909 0.073224634
0.062061805 -0.74303406 -0.02520033 -0.19540106 0.006457295 -0.049652457 0.016004102 -0.06787555
-0.06979835 -0.09936163 0.13691838 0.20043369 0.0018558035 0.0012976392 -0.06392591 0.038907085
-0.024089206 -0.036903564 -0.00083623396 0.030454088 0.07022066 0.038629655 -0.13420823 0.18897295
0.1681818 -0.097111695 -0.022704896 0.29726997 0.026795752 0.061199483 -0.20711266 -0.027362013
00000000: 182d 0bbe 4108 7ebd 257a 0c3f 8f9f 3cbe
00000010: af4b 6abd 7198 5f3d 8e60 8f3e ee51 093e
00000020: edf4 a3be cc69 f1be 53e9 f6bd e8ae c73c
00000030: 0855 283e 6723 f9bd be9a 67be 2c3b 9fbe
00000040: 7035 8b3e c2ae 0bbe 80de 093d d1c7 f1bd
00000050: a708 513d 3879 babc 3b62 32be 6e85 d73c
00000060: 19c6 ebbc 0e21 c43c c588 db3d 605b 7f3c
00000070: 22bb 6b3c 6fd2 5cbe 0cd9 ba3d ea19 f5ba
00000080: 05df a33c 12eb d9bc 8ef4 1fbd aeb7 bf3d
00000090: ae3f 82bd a69f 2cbe 1aeb 5c3d dd06 8dbd
000000a0: f9b1 30bd f334 c93c ad9e 68bd 4cc4 183d
000000b0: 73e9 913d 0145 6d3d ae51 ce3c afa5 99bc
000000c0: b40f 9abd 7656 cabd d77e 00bd b016 9dbd
000000d0: ca65 1dbd d22c 83bd 57cd d5bd fa5b 20be
000000e0: f55f 3abd 4a52 98bd adb1 2dbe a124 963c
000000f0: e34e 7bbb e1ae 863c 534f 263e d2ad 983d
00000100: 8847 473d a9aa f83c 987d 553e 7d42 e6be
00000110: 97f8 9dbd b7af fbbd f664 acbe 264f a33b
00000120: 1448 0cbf eb20 b63e f4d8 4a3e 3c24 8dbe
00000130: a59e 053f 36de 0ebf e78f 33be 653b ed3e
00000140: 2e64 fdbd 93c7 2e3f 831a 2d3e 630e f5bd
00000150: 8f8e b93c b1ab a8bd ad07 4fbd 96db c8bd
00000160: 47eb 983e 8455 97bb 6768 343e 0b53 8d3d
00000170: 0113 a03c 5cc7 35bd f7a4 e2bc 48ec d33d
00000180: 293c 1ebd dbe1 cabd 8941 ad3d a035 f13c
00000190: 0fe9 80bd bad6 a33d b10a 783d 7134 b33a
000001a0: d20d 7e3d e411 083d 629e 14bd edc6 1e3d
000001b0: 4454 5bbc ebf2 14bc ec32 01bd 4ee7 633d
000001c0: b299 e3bb 2418 1dbd 1106 943b 78d6 a53d
000001d0: be6a 923c 0ff3 693c 2bd3 2e3d 8108 1c3c
000001e0: 19cd 033c 5829 e9bd 25bb 933d 51e0 de3d
000001f0: bd9b 07be 5f26 de3c 0322 4d3d 8378 0c3e
00000200: b2bb 24b9 2ea5 f13c e2a4 93bd 33c9 893d
00000210: 6a28 73be 025d 01bf 5856 de3e ada9 94be
00000220: 581a 143f 032e ef3d a3fc 193f 7b7f e13c
00000230: fc27 aa3d 0feb 37bf 2a2b c6be 053f 3c3e
00000240: b8dc 2d3e 1fc8 eb3e 3077 333e b780 11bc
00000250: deb0 47bf cec1 fb3c 4291 8cbd 6fd8 38be
00000260: 5dcd bbbb 19eb 23be 7603 24be da7b 8fbe
00000270: 3d09 4bbc 0725 5ebe 574d 91bd af96 ef3c
00000280: 1e1a 05bd fcc5 5b3e 8dce c4bd 81ee 11bd
00000290: f970 cdbd fcf4 ce3d 42b1 21bd 9d8d 173a
000002a0: b0b6 973d 0ae8 f93c 3023 e0bc 3b70 9bbc
000002b0: e38e 74bd 588d 1bbe a0ea 9bbd bb71 f1bd
000002c0: 6495 813d d219 c6bc ecfa 323c ca05 063c
000002d0: 142b 80bd 2964 803e bc90 193b b674 d83c
000002e0: 57b5 9ebe 4127 a6bd ec83 1fbd 8c3b f3bd
000002f0: f446 913d 537c 8cbd 2af4 bc3d 1636 13bf
00000300: eeb1 3cbd 391d 13bd ef39 d83d 36af 463d
00000310: 6e3b 3abd 9a9d 11bb 3091 873f 79a4 a3be
00000320: 23e0 403f d6f6 1dbe 9e4c 90be 8c69 a3be
00000330: 3bf7 08bf 58b1 d83f c66a 47bd 578f 3c3f
00000340: f64d 1b3f 3956 4cbe 2f27 23bf 1a53 fb3e
00000350: f3b6 a9be 7dd2 143e 29fe fabe 657a 523f
00000360: 628d 4b3e 878e bcbc e400 b7be 6d3b d23d
00000370: b9fc fdbc 85be 993d 9473 20be ccf6 953d
00000380: 8534 7e3d 7b37 3ebf ec70 cebc 3717 48be
00000390: b797 d33b 6060 4bbd 091b 833c 5602 8bbd
000003a0: 70f2 8ebd 1c7e cbbd 5534 0c3e 7d3e 4d3e
000003b0: 6f3e f33a 8c15 aa3a 96eb 82bd 095d 1f3d
000003c0: ba56 c5bc 3128 17bd b636 5bba da7a f93c
000003d0: d9cf 8f3d 213a 1e3d e26d 09be 2082 413e
000003e0: da37 2c3e 7fe2 c6bd 9eff b9bc c533 983e
000003f0: c482 db3c 4fac 7a3d 5715 54be 4d26 e0bc

a2c_network.actor_mlp.0.bias f4 [128]
0.19795872 -0.15039326 -0.15845814 0.12532957 -0.07344004 0.20104739 -0.16098183 -0.08501402
0.23896071 -0.117611095 -0.04819228 -0.053012244 0.07525665 0.15292811 -0.17556639 0.0028888667
0.20381828 0.15011229 0.030438907 -0.049174856 -0.20595454 -0.031677034 -0.047598653 0.12170988
-0.17313926 0.13639829 0.0560603 0.124555156 0.007969793 0.060289096 0.13454404 -0.03245669
0.18550205 -0.037690595 0.057137333 0.040023774 -0.020459307 0.024555782 0.03141824 -0.17023534
-0.0903791 0.159811 0.071320936 0.1225526 0.009621947 0.04844532 -0.029396975 0.1129391
-0.11221151 0.06169177 -0.07308121 0.12138782 0.018625775 -0.068279356 -0.025965055 -0.11059995
-0.018832056 0.18377194 0.06346206 -0.12179273 0.09752385 -0.08294829 -0.24573392 -0.045606244
0.034347504 -0.112358876 -0.119745694 0.11957516 -0.051538087 0.2672835 0.021474741 -0.022362616
0.2876888 -0.09880955 0.108307034 0.03987877 -0.029767498 -0.15063894 -0.018218292 0.0667346
-0.2422766 -0.13731527 0.25676757 0.17502071 -0.23283331 -0.018281981 -0.12611759 -0.22932796
0.07611385 -0.016806804 0.26256382 -0.05526624 0.03861308 -0.13386971 0.13726081 -0.078629635
-0.029976686 -0.046653356 -0.0068403874 -0.026467225 -0.05367507 -0.07920582 -0.07639564 -0.16230483
-0.015987108 0.16372347 0.09653068 -0.22725056 0.025168907 0.23648037 -0.07300063 0.08315349
-0.123282574 -0.14499263 0.06846378 -0.058964077 -0.11125199 -0.030278865 0.06434159 -0.1290309
-0.1272207 -0.09098913 -0.18723433 0.13556792 0.06188206 -0.10351418 -0.05275971 -0.08301213
00000000: b1b5 4a3e b100 1abe da42 22be 6556 003e
00000010: bb67 96bd 5edf 4d3e 6cd8 24be d51b aebd
00000020: 1eb2 743e 16de f0bd 4565 45bd 5e23 59bd
00000030: 2920 9a3d 3099 1c3e adc7 33be 2453 3d3b
00000040: bdb5 503e 09b7 193e 045b f93c 936b 49bd
00000050: bfe5 52be c7bf 01bd cef6 42bd 0843 f93d
00000060: 6b4b 31be feab 0b3e 7c9f 653d c616 ff3d
00000070: bc93 023c b3f1 763d eac5 093e 4ef1 04bd
00000080: 40f4 3d3e 7461 1abd d608 6a3d f8ef 233d
00000090: 479a a7bc 3529 c93c 6ab0 003d 2c52 2ebe
000000a0: ad18 b9bd 7fa5 233e b610 923d dcfc fa3d
000000b0: 5fa5 1d3c 9a6e 463d edd1 f0bc 9d4c e73d
000000c0: 26cf e5bd 82b0 7c3d 9aab 95bd 2d9a f83d
000000d0: 1595 983c 0cd6 8bbd abb4 d4bc 3a82 e2bd
000000e0: af45 9abc b62e 3c3e 66f8 813d 786e f9bd
000000f0: 96ba c73d cbe0 a9bd aca1 7bbe 9dcd 3abd
00000100: f8af 0c3d 691c e6bd 3b3d f5bd d2e3 f43d
00000110: 9a19 53bd 62d9 883e cceb af3c ce31 b7bc
00000120: f24b 933e a95c cabd 14d0 dd3d ec57 233d
00000130: f8da f3bc 1841 1abe 873e 95bc 26ac 883d
00000140: 5b17 78be 609c 0cbe 0a77 833e a138 333e
00000150: db6b 6ebe 18c4 95bc f824 01be f3d4 6abe
00000160: 94e1 9b3d 6cae 89bc c46e 863e da5e 62bd
00000170: c028 1e3d 2415 09be 198e 0c3e 9308 a1bd
00000180: ab91 f5bc 9717 3fbd 5425 e0bb cbd1 d8bc
00000190: 64da 5bbd a936 a2bd 5175 9cbd 3d33 26be
000001a0: 65f7 82bc 20a7 273e e1b1 c53d 5fb4 68be
000001b0: 062f ce3c e927 723e 5b81 95bd 614c aa3d
000001c0: 937b fcbd f378 14be bd36 8c3d 5184 71bd
000001d0: 15d8 e3bd 620b f8bc 86c5 833d ad20 04be
000001e0: 2546 02be 8258 babd 5bba 3fbe 51d2 0a3e
000001f0: 0b78 7d3d 3eff d3bd 911a 58bd 4302 aabd

a2c_network.actor_mlp.2.weight f4 [128, 128]
-0.019941112 0.23619018 -0.15630026 0.01814095 -0.062090244 -0.2141549 0.012769934 -0.090713345
-0.08806331 -0.16288188 -0.14524855 -0.23631673 -0.08752019 0.040912624 -0.14777339 -0.1491725
-0.0760722 -0.17826302 0.1748949 -0.36286885 0.16175233 -0.10180358 0.09374184 -0.027904583
0.22069749 -0.1321758 -0.078329995 0.015594093 0.22269778 -0.14121112 -0.09559901 -0.036773127
-0.21764527 -0.10430923 -0.038764223 -0.028339013 -0.11079231 0.13710639 -0.01040223 -0.061052553
-0.015566559 0.008306058 -0.01648111 -0.17689331 -0.12482485 0.005561068 -0.035058938 0.062897295
-0.042242613 0.02172762 -0.20376708 -0.07618348 0.23026 0.0448428 -0.0034836775 0.22541599
0.011952294 0.012881806 -0.035158817 -0.04363901 -0.10406505 -0.059456334 -0.036035944 -0.1727817
-0.13277587 0.2580759 -0.03984744 -0.041773517 0.25960374 -0.00043021256 0.068261474 0.23146187
-0.031129083 0.2008614 -0.2591015 0.03681369 0.005292163 0.14089423 -0.14561804 -0.24569367
0.117131 -0.119125746 -0.03575023 0.045817062 0.011561145 -0.18284722 -0.21355663 -0.08085178
-0.20656975 -0.0435957 -0.093480095 -0.06628666 -0.26785603 0.036164552 -0.041122727 0.26570296
-0.04627746 0.0706148 -0.025436107 0.08327003 0.1722076 -0.22622739 -0.13202885 0.07568232
0.37010717 -0.046810642 -0.073083736 0.16899082 -0.0022071537 -0.1328216 0.09772135 0.02165543
0.104215086 -0.021704124 -0.11390152 0.17878066 0.08600163 0.10562808 -0.026987942 0.14123867
-0.03749701 -0.059353143 0.24922703 -0.29942954 0.104574986 0.03433853 0.010770793 -0.0018802256
0.0080329785 -0.087204516 -0.019851908 -0.4000751 0.22415663 -0.0067919954 -0.23227489 -0.18558607
-0.13961747 0.06674133 0.0031634173 -0.050552152 -0.118184485 0.0063682282 -0.019317582 -0.15646872
-0.023302455 0.056908134 -0.24810407 0.1058607 0.08974742 0.08535937 0.11576 -0.06599609
0.0155350035 0.032611374 -0.039369766 0.12487367 -0.21617365 0.11207235 -0.13951464 -0.058538508
0.06514816 -0.28240353 0.07084833 0.060639776 -0.17050782 -0.29534453 -0.14246915 0.23560031
-0.15956828 -0.03137232 0.038851246 -0.07276753 -0.042722907 -0.15126519 -0.04058344 -0.0013092076
-0.23202825 -0.22797967 0.09854401 -0.07692899 -0.18115851 0.32461506 -0.27981988 -0.056941595
-0.20255063 -0.015589077 -0.046410765 -0.36649272 -0.13243271 0.24507202 -0.070844926 0.07814883
-0.10127639 -0.18457896 0.13047104 -0.024167072 -0.115513176 -0.18103355 -0.09616681 -0.16249433
0.06693253 -0.07930059 -0.013802237 0.11083253 -0.19403076 0.0033744366 0.2563663 -0.004511351
0.14893353 -0.3096796 0.039432447 -0.044134304 -0.04471513 -0.103321195 -0.07915687 -0.16928205
-0.0155368475 -0.24079095 -0.0957315 0.013887586 -0.09192801 0.29624507 -0.02180902 0.32876077
-0.1773552 -0.30614206 0.106886536 0.01950109 -0.12859344 0.014419476 0.07625345 -0.043757565
0.004188816 -0.20780435 -0.2942045 0.030002806 -0.012849385 0.1525282 0.06783949 -0.02771109
0.35231665 0.107943915 -0.004600342 0.1986466 -0.2859043 0.1118583 0.063799664 0.10499053
-0.0879509 -0.15268277 -0.08682712 -0.16008699 -0.10485286 0.2005377 -0.009289178 0.042260464
00000000: 8b5b a3bc d7db 713e 2d0d 20be 549c 943c
00000010: 5752 7ebd 6c4b 5bbe fc38 513c ebc7 b9bd
00000020: 895a b4bd 82ca 26be 09bc 14be 03fd 71be
00000030: c93d b3bd ff93 273d e851 17be adc0 18be
00000040: becb 9bbd 958a 36be a617 333e f2c9 b9be
00000050: 67a2 253e 657e d0bd b9fb bf3d 2798 e4bc
00000060: 86fe 613e 1859 07be 7a6b a0bd 5e7e 7f3c
00000070: e30a 643e a699 10be 6ac9 c3bd 6b9f 16bd
00000080: 67de 5ebe 14a0 d5bd 3cc7 1ebd 3827 e8bc
00000090: 14e7 e2bd 9e65 0c3e 1d6e 2abc 3e12 7abd
000000a0: e10a 7fbc 2216 083c 6503 87bc 8523 35be
000000b0: 2ca4 ffbd 9f39 b63b f699 0fbd 4cd0 803d
000000c0: 9706 2dbd 1ffe b13c 51a8 50be 1606 9cbd
000000d0: 47c9 6b3e 15ad 373d 694e 64bb 73d3 663e
000000e0: 8ed3 433c 360e 533c b102 10bd d2be 32bd
000000f0: 0f20 d5bd 7c88 73bd 6d9a 13bd b0ed 30be
00000100: 66f6 07be 8622 843e 1237 23bd b51a 2bbd
00000110: c8ea 843e 278e e1b9 accc 8b3d 5704 6d3e
00000120: 6b02 ffbc 9cae 4d3e f4a8 84be f4c9 163d
00000130: e269 ad3b 9446 103e e51c 15be 1f97 7bbe
00000140: 61e2 ef3d 33f8 f3bd d56e 12bd acaa 3b3d
00000150: f56a 3d3c 4d3c 3bbe 97ae 5abe 9e95 a5bd
00000160: 0587 53be 6891 32bd 7e72 bfbd 4dc1 87bd
00000170: 6d24 89be 4821 143d 4e70 28bd 380a 883e
00000180: 6f8d 3dbd 7e9e 903d 625f d0bc 7a89 aa3d
00000190: 3057 303e 27a8 67be 9232 07be 55ff 9a3d
000001a0: b07e bd3e 84bc 3fbd edac 95bd ee0b 2d3e
000001b0: e5a5 10bb 6302 08be 2222 c83d ba66 b13c
000001c0: b86e d53d d9cc b1bc 3345 e9bd 4712 373e
000001d0: 9f21 b03d 8953 d83d d115 ddbc dfa0 103e
000001e0: 7796 19bd 481c 73bd 5f35 7f3e d44e 99be
000001f0: 692b d63d 8fa6 0c3d fb77 303c e771 f6ba
00000200: c19c 033c 4898 b2bd 78a0 a2bc a5d6 ccbe
00000210: 5189 653e 638f debb 78d9 6dbe 460a 3ebe
00000220: e2f7 0ebe aeaf 883d 5651 4f3b c60f 4fbd
00000230: b50a f2bd 92ac d03b e83f 9ebc 5639 20be
00000240: cae4 bebc 8118 693d fe0e 7ebe 7fcd d83d
00000250: 7fcd b73d e5d0 ae3d 9413 ed3d f528 87bd
00000260: 8786 7e3c 8193 053d 3142 21bd c4bd ff3d
00000270: a05c 5dbe 3086 e53d eddc 0ebe 13c6 6fbd
00000280: 666c 853d 3297 90be ee18 913d 6a61 783d
00000290: 9a99 2ebe 6637 97be 6fe3 11be 3541 713e
000002a0: de65 23be 4380 00bd 7c22 1f3d 2507 95bd
000002b0: 37fe 2ebd 43e5 1abe d23a 26bd b899 abba
000002c0: d098 6dbe 8173 69be 71d1 c93d f28c 9dbd
000002d0: 9e81 39be f233 a63e 8d44 8fbe 973b 69bd
000002e0: 6f69 4fbe 5469 7fbc 3719 3ebd efa4 bbbe
000002f0: 719c 07be 29f4 7a3e 2517 91bd 7e0c a03d
00000300: ff69 cfbd 4402 3dbe 339a 053e 06fa c5bc
00000310: 2c92 ecbd dc60 39be 1bf3 c4bd ea64 26be
00000320: ec13 893d 5968 a2bd c722 62bc 2afc e23d
00000330: 00b0 46be a725 5d3b 7242 833e f5d3 93bb
00000340: 0882 183e 538e 9ebe eb83 213d 2cc6 34bd
00000350: 3627 37bd 109a d3bd ff1c a2bd 4658 2dbe
00000360: 438e 7ebc e791 76be e00e c4bd c288 633c
00000370: c144 bcbd 6fad 973e d4a8 b2bc 5553 a83e
00000380: 9a9c 35be a7be 9cbe 54e7 da3d c0c0 9f3c
00000390: 00ae 03be aa3f 6c3c c52a 9c3d 223b 33bd
000003a0: 5642 893b aaca 54be f9a1 96be 72c8 f53c
000003b0: 3a86 52bc 5a30 1c3e 6eef 8a3d 5e02 e3bc
000003c0: d962 b43e b311 dd3d 77be 96bb 046a 4b3e
000003d0: 0c62 92be f715 e53d 66a9 823d 4605 d73d
000003e0: 9a1f b4bd df58 1cbe 6bd2 b1bd d8ed 23be
000003f0: 19bd d6bd c159 4d3e a331 18bc 4f19 2d3d

a2c_network.actor_mlp.2.bias f4 [128]
-0.13503583 -0.045364086 -0.07104646 -0.17250493 -0.12139152 -0.11152476 -0.15450704 -0.17945057
0.15767129 -0.11056634 0.118048586 -0.018607805 -0.17144291 -0.1372336 -0.12163653 -0.08263663
-0.21316725 0.14016712 -0.08135051 -0.11821665 -0.076373175 -0.13738933 0.002100702 -0.08610831
0.070282735 -0.08955938 0.03400249 -0.19459666 -0.1518256 -0.12591402 -0.10792992 -0.10039831
-0.09125616 0.09985956 0.017688315 -0.036100127 -0.12964417 -0.10683891 0.04957105 -0.044631086
-0.0058274455 -0.1145632 -0.058241643 -0.3076594 0.21162237 0.0983449 0.07966235 0.2734605
-0.2027083 -0.15041 -0.24854825 -0.06593869 0.0038887046 -0.2323066 0.11342313 -0.10958453
-0.17407863 -0.18694548 0.013571421 -0.050871577 -0.18624386 -0.03679042 -0.03559552 0.14193477
0.0317726 -0.09318731 0.05136788 -0.06227594 -0.038019054 -0.07792087 -0.15055555 -0.09018178
-0.016046586 0.04039802 -0.14938927 0.042733964 -0.0593355 0.02307821 -0.046156477 -0.13203914
-0.08587204 -0.21805081 -0.2721376 -0.025602885 -0.099588364 -0.22675446 -0.08148882 -0.08510054
0.16440338 -0.012690404 -0.16652976 0.04813836 0.011865724 -0.056386795 -0.2888425 0.20315264
0.1555724 0.07956661 -0.12575616 0.10062117 -0.0881585 0.08659086 -0.10535286 0.03892131
0.0129176155 0.18877596 -0.25554794 -0.16541411 -0.052872058 -0.011677961 0.028180938 0.10932888
-0.18614621 0.0023673957 -0.31020236 -0.069028996 0.022842003 0.23580958 -0.05574476 -0.030480292
0.104769535 0.11051132 -0.1667449 0.21284814 -0.09915161 -0.24723336 0.08407209 0.063686706
00000000: d546 0abe b1cf 39bd ce80 91bd 22a5 30be
00000010: 1e9c f8bd 1867 e4bd 1837 1ebe e4c1 37be
00000020: 9574 213e 9b70 e2bd 75c3 f13d 656f 98bc
00000030: bb8e 2fbe f786 0cbe 931c f9bd 653d a9bd
00000040: 8448 5abe f887 0f3e 199b a6bd 921b f2bd
00000050: 8a69 9cbd caaf 0cbe eeab 093b 8e59 b0bd
00000060: 65f0 8f3d e96a b7bd 3246 0b3d 5944 47be
00000070: 2c78 1bbe 9bef 00be 5d0a ddbd a19d cdbd
00000080: 82e4 babd 2b83 cc3d 16e7 903c badd 13bd
00000090: 71c1 04be 5cce dabd 030b 4b3d 16cf 36bd
000000a0: 28f4 bebb 1ca0 eabd ca8e 6ebd 8885 9dbe
000000b0: 89b3 583e 0d69 c93d 0426 a33d 0403 8c3e
000000c0: c492 4fbe 1405 1abe 6f83 7ebe dd0a 87bd
000000d0: a3d9 7e3b c8e1 6dbe 634a e83d db6d e0bd
000000e0: ab41 32be a36e 3fbe aa5a 5e3c b75e 50bd
000000f0: b6b6 3ebe 8db1 16bd 9ccc 11bd 5957 113e
00000100: fc23 023d fdd8 bebd 2067 523d 0e15 7fbd
00000110: deb9 1bbd fa94 9fbd 3c2b 1abe 3ab1 b8bd
00000120: 2174 83bc 6578 253d 80f9 18be cf09 2f3d
00000130: c809 73bd 840e bd3c 930e 3dbd 4535 07be
00000140: aedd afbd b648 5fbe 9f55 8bbe 24bd d1bc
00000150: fcf4 cbbd 5232 68be 9ce3 a6bd 3149 aebd
00000160: 5c59 283e 6aeb 4fbc c786 2abe bb2c 453d
00000170: 7468 423c d7f5 66bd 2ae3 93be 3f07 503e
00000180: 5f4e 1f3e d2f3 a23d 39c6 00be 7912 ce3d
00000190: 728c b4bd 8c56 b13d 3ec3 d7bd f46b 1f3d
000001a0: 68a4 533c 7c4e 413e 2ed7 82be 5162 29be
000001b0: 5f90 58bd eb54 3fbc b6db e63c d2e7 df3d
000001c0: 1d9d 3ebe 4f26 1b3b d8d2 9ebe 135f 8dbd
000001d0: 271f bb3c 1178 713e 9e54 64bd ceb1 f9bc
000001e0: 6991 d63d c253 e23d 2dbf 2abe ddf4 593e
000001f0: 0010 cbbd be2a 7dbe fd2d ac3d 2d6e 823d

a2c_network.actor_mlp.4.weight f4 [128, 128]
0.07776477 -0.033334907 -0.07949273 0.034707595 0.056823682 -0.08872649 -0.12357909 0.08047119
-0.02492191 -0.098668635 -0.007066668 -0.14155307 0.03168758 -0.011519599 -0.09941822 -0.15168357
0.008636442 0.002860373 -0.030124478 -0.15195858 0.07805784 0.045413617 -0.051997814 -0.013939644
-0.18684289 -0.044652056 0.13806267 -0.24195242 0.0074576605 -0.11881269 0.017623741 0.008426826
0.06948729 -0.080579095 -0.067314036 0.042567242 -0.034022868 0.019253045 0.056281973 -0.14541653
-0.0733846 -0.054498702 -0.11585722 -0.08291179 0.14450547 -0.05367069 -0.14496562 0.13350715
0.117696725 -0.082727216 -0.08182807 -0.051734462 -0.0015112275 0.04571738 -0.12285447 0.11808883
-0.14354731 0.07742883 -0.07166429 0.015471995 -0.006797442 0.061228 0.07132876 0.055480123
-0.04039932 0.21512711 -0.120394334 -0.09200632 0.10507025 0.042643685 0.15372482 0.1100876
0.011989018 0.039355174 0.079547234 -0.09379805 -0.012320189 0.19357951 -0.0036075325 0.04063904
0.012480643 -0.104939304 0.018863173 0.09709298 0.05859899 -0.03534742 -0.14860056 -0.020891165
-0.027766157 -0.09521051 0.06761964 -0.0389588 0.10339714 -0.01916567 -0.009613407 0.03861555
0.043304123 -0.18691579 -0.042936143 -0.008798706 -0.069610044 0.08163021 -0.10544833 -0.14312342
0.057313517 0.0046567675 -0.20895639 -0.16670868 0.067424476 -0.2207007 -0.009146193 -0.18818302
0.114171356 0.016918262 -0.12013265 -0.10882752 -0.048412915 -0.15744025 0.10845116 -0.0005127363
-0.052051138 -0.05347209 -0.010712768 -0.027408946 0.024350343 0.014129244 0.007689974 -0.17664412
-0.15864053 -0.07636089 -0.038711935 0.031499084 -0.061751705 -0.17290592 -0.019122934 0.09795812
-0.10688131 -0.25516164 -0.06359866 0.168959 -0.097224385 -0.041558184 0.10981291 0.06268891
-0.100500464 -0.05262783 -0.16720851 0.122079045 -0.293482 -0.074148156 0.03173 -0.018467711
-0.06435099 -0.054062344 -0.052737184 0.046922255 -0.045194857 0.07010289 -0.071571514 0.12834747
-0.3544645 -0.20773478 -0.298813 0.07443195 -0.15897542 0.12294803 -0.20149966 -0.16406818
-0.030818818 0.015846169 -0.027581267 0.08428679 0.012894088 -0.06507463 -0.08743454 -0.02853219
0.03648507 0.002571401 0.073516786 0.063932136 -0.0343723 0.14480625 -0.07845166 -0.08614677
-0.21439834 -0.006515156 0.03466163 -0.16788091 -0.06293069 0.10954432 0.044329233 -0.08836055
-0.19347349 -0.01647347 -0.18510053 0.09948777 -0.06506313 -0.025767801 -0.045239996 -0.05503471
-0.036288954 -0.17738463 0.17301114 0.15508951 0.19971776 -0.13277858 0.020442883 0.12997341
0.13556196 0.10849149 0.13818933 -0.22436301 0.20494185 0.2802435 0.101169564 0.16027889
0.13480334 0.26409873 0.04277008 -0.15579666 -0.17340909 -0.11302778 0.11843186 -0.07723553
-0.19580178 -0.17244008 -0.009899494 0.09101832 0.14594422 -0.0384171 0.031649124 -0.08349591
-0.066341035 -0.03795236 0.02578483 -0.11072773 -0.1756238 -0.07311982 -0.07342771 -0.039237633
-0.19535096 0.2143888 0.14222154 0.18394247 -0.059434205 0.047619976 0.17879009 -0.035445932
-0.21697797 -0.03879834 -0.15646183 -0.13671625 -0.085478336 0.14584981 -0.23620944 0.17290735
00000000: 2343 9f3d 2f8a 08bd 16cd a2bd 8d29 0e3d
00000010: f3bf 683d 3cb6 b5bd 0917 fdbd 14ce a43d
00000020: 0929 ccbc c812 cabd 828f e7bb 4af3 10be
00000030: d6ca 013d b3bc 3cbc c89b cbbd f052 1bbe
00000040: dd7f 0d3c 1875 3b3b 9cc7 f6bc 089b 1bbe
00000050: cadc 9f3d a103 3a3d a9fb 54bd 1b63 64bc
00000060: be53 3fbe 13e5 36bd 4d60 0d3e 60c2 77be
00000070: 645f f43b 1154 f3bd aa5f 903c ac10 0a3c
00000080: 5a4f 8e3d a706 a5bd f1db 89bd fd5a 2e3d
00000090: 905b 0bbd 90b8 9d3c ed87 663d 12e8 14be
000000a0: aa4a 96bd 083a 5fbd 8d46 edbd a8cd a9bd
000000b0: 3ef9 133e ccd5 5bbd de71 14be 19b6 083e
000000c0: fb0a f13d e36c a9bd 7a95 a7bd 84e7 53bd
000000d0: 6114 c6ba 2642 3b3d 209b fbbd 8ed8 f13d
000000e0: 11fe 12be 0293 9e3d bac4 92bd 407e 7d3c
000000f0: 14bd debb 36ca 7a3d d014 923d 203f 633d
00000100: c279 25bd 484a 5c3e 4e91 f6bd cf6d bcbd
00000110: 122f d73d 25ab 2e3d 0a6a 1d3e 9c75 e13d
00000120: 966d 443c e432 213d a9e9 a23d 3119 c0bd
00000130: 9eda 49bc b539 463e 5a6c 6cbb 1f75 263d
00000140: 9c7b 4c3c 6bea d6bd f186 9a3c afd8 c63d
00000150: 7f05 703d 75c8 10bd bf2a 18be f323 abbc
00000160: da75 e3bc bafd c2bd 2a7c 8a3d 4393 1fbd
00000170: e1c1 d33d 5301 9dbc 8d81 1dbc 572b 1e3d
00000180: aa5f 313d da66 3fbe cfdd 2fbd 7328 10bc
00000190: b68f 8ebd bd2d a73d 4bf5 d7bd f28e 12be
000001a0: 94c1 6a3d cc97 983b aaf8 55be aeb5 2abe
000001b0: d815 8a3d 5dff 61be ead9 15bc 0db3 40be
000001c0: acd2 e93d 2b98 8a3c 1b08 f6bd f6e0 debd
000001d0: 9f4c 46bd 0438 21be a41b de3d 2769 06ba
000001e0: 9333 55bd 8d05 5bbd 9b84 2fbc ba88 e0bc
000001f0: 5f7a c73c 587e 673c 2dfc fb3b 32e2 34be
00000200: aa72 22be 1963 9cbd 6890 1ebd 2f05 013d
00000210: 5bef 7cbd 400e 31be b3a7 9cbc 449e c83d
00000220: 97e4 dabd 8ca4 82be 0440 82bd 9703 2d3e
00000230: 941d c7bd ea38 2abd 97e5 e03d 0b63 803d
00000240: 30d3 cdbd 4890 57bd b538 2bbe 9404 fa3d
00000250: 4643 96be fdda 97bd 51f7 013d 9949 97bc
00000260: 74ca 83bd 7a70 5dbd f202 58bd 8d31 403d
00000270: 3e1e 39bd 1b92 8f3d 1694 92bd 856d 033e
00000280: 5f7c b5be 6db8 54be 04fe 98be c76f 983d
00000290: 74ca 22be 2dcc fb3d ed55 4ebe 7d01 28be
000002a0: bf77 fcbc d3cf 813c 1cf2 e1bc 8d9e ac3d
000002b0: ba41 533c d945 85bd e110 b3bd 57bc e9bc
000002c0: 5e71 153d f384 283b f88f 963d daee 823d
000002d0: f8c9 0cbd 1748 143e 44ab a0bd b86d b0bd
000002e0: 3d8b 5bbe 177d d5bb 5af9 0d3d f9e8 2bbe
000002f0: cee1 80bd c658 e03d 9292 353d 60f6 b4bd
00000300: ea1d 46be 5ff3 86bc fe8a 3dbe 3ec0 cb3d
00000310: d13f 85bd ff16 d3bc 934d 39bd 136c 61bd
00000320: baa3 14bd 51a4 35be d529 313e c9cf 1e3e
00000330: d082 4c3e 1cf7 07be d577 a73c c017 053e
00000340: c1d0 0a3e c930 de3d 8181 0d3e 6bbf 65be
00000350: 47dc 513e 137c 8f3e fd31 cf3d 2620 243e
00000360: e309 0a3e f337 873e ae2f 2f3d 2989 1fbe
00000370: 2792 31be 1c7b e7bd 678c f23d a92d 9ebd
00000380: 4380 48be 2294 30be 7d31 22bc d067 ba3d
00000390: 6772 153e 405b 1dbd 83a2 013d e7ff aabd
000003a0: cfdd 87bd ef73 1bbd b53a d33c 38c5 e2bd
000003b0: bad6 33be d8bf 95bd 4461 96bd a4b7 20bd
000003c0: 150a 48be bd88 5b3e 86a2 113e 6a5b 3c3e
000003d0: 4871 73bd 2a0d 433d c014 373e c12f 11bd
000003e0: 792f 5ebe 02eb 1ebd 8837 20be 58ff 0bbe
000003f0: 440f afbd a759 153e e3e0 71be a00e 313e

a2c_network.actor_mlp.4.bias f4 [128]
0.10260823 -0.21501552 -0.021274276 0.091774814 0.012461812 -0.041538958 0.035634007 -0.11725324
-0.31677547 -0.21318124 -0.09256313 -0.0070364103 0.014253718 -0.18088776 0.0016511725 0.054070104
0.030259402 -0.0032233624 0.03155015 -0.15442786 -0.11992336 -0.3651968 -0.117095426 -0.112752795
0.09800369 -0.15110809 -0.026844889 0.041777045 -0.028170925 -0.11025795 -0.09328714 -0.24576102
-0.07955194 0.04008226 -0.110148504 -0.070795916 -0.14238818 -0.10751344 -0.14511056 0.10850789
-0.26055914 -0.0051272972 -0.21242833 -0.0048951963 -0.043571338 -0.052923243 0.042667817 -0.009154634
-0.036468696 -0.13942026 0.11167069 0.08606928 -0.08150923 0.10721986 -0.12214661 0.054314677
-0.1275242 -0.18177877 -0.0011436301 -0.116132244 1.531251e-05 -0.16754277 0.031111235 -0.1447841
0.10262933 -0.08150709 -0.020100912 -0.26965722 0.0153795425 0.023827933 -0.25823787 0.12476814
0.0546607 0.078738466 0.11924631 -0.25247732 -0.12295711 -0.24680775 0.07054719 -0.09336359
-0.06760436 -0.19105957 -0.099027604 0.0992148 -0.26287225 -0.250837 0.010814391 -0.08592153
0.07136941 0.06722623 0.052114353 0.03649733 -0.33111247 0.073982574 0.041653477 0.0833573
0.022147346 -0.2119226 0.120521456 -0.1690694 -0.26303 -0.017072447 0.03811366 -0.14833587
-0.17851743 -0.17260924 -0.15921053 0.045129944 -0.0090663675 -0.19117823 -0.21319123 0.121924974
-0.018639104 0.07887944 -0.14948164 0.060994457 0.062972724 -0.19827853 -0.16327688 0.146098
-0.20032315 -0.065706976 0.018049968 0.12036827 0.054567076 -0.13916932 -0.013339861 -0.19826598
00000000: 4424 d23d 072d 5cbe 6447 aebc 6ff4 bb3d
00000010: a12c 4c3c c124 2abd f7f4 113d 7722 f0bd
00000020: 6530 a2be 2f4c 5abe bd91 bdbd b091 e6bb
00000030: 6d88 693c a43a 39be 286c d83a 9d78 5d3d
00000040: 91e2 f73c 0c3f 53bb bb3a 013d 5622 1ebe
00000050: 619a f5bd 13fb babe bacf efbd f0ea e6bd
00000060: 29b6 c83d 14bc 1abe d0e9 dbbc 681e 2b3d
00000070: b6c6 e6bc ecce e1bd 540d bfbd c7a8 7bbe
00000080: 21ec a2bd 4c2d 243d 8a95 e1bd 73fd 90bd
00000090: 35ce 11be 0230 dcbd dd97 14be 6239 de3d
000000a0: 0268 85be e302 a8bb d086 59be e267 a0bb
000000b0: dc77 32bd 0bc6 58bd 73c4 2e3d 51fd 15bc
000000c0: 3360 15bd 2fc4 0ebe 9ab3 e43d 1745 b03d
000000d0: 50ee a6bd 1696 db3d 0028 fabd 1179 5e3d
000000e0: b495 02be 3724 3abe dce5 95ba bed6 edbd
000000f0: 5d73 8037 5590 2bbe fddc fe3c 4842 14be
00000100: 532f d23d 30ed a6bd abaa a4bc 8310 8abe
00000110: 7afa 7b3c cc32 c33c c137 84be 7086 ff3d
00000120: e6e3 5f3d a241 a13d 6937 f43d b544 81be
00000130: f0d0 fbbd 2cbb 7cbe 0c7b 903d 6935 bfbd
00000140: 2874 8abd 1fa5 43be fcce cabd 2131 cb3d
00000150: 3197 86be b56d 80be d82e 313c a1f7 afbd
00000160: 202a 923d e8ad 893d dc75 553d 397e 153d
00000170: 9387 a9be 2d84 973d d69c 2a3d 3bb7 aa3d
00000180: 5a6e b53c 3d02 59be f4d3 f63d 8720 2dbe
00000190: deab 86be 84db 8bbc 121d 1c3d 5ce5 17be
000001a0: 46cd 36be 7ac0 30be 1608 23be 2dda 383d
000001b0: 1a8b 14bc 3ac4 43be cd4e 5abe cdb3 f93d
000001c0: 09b1 98bc 8b8b a13d b711 19be 53d5 793d
000001d0: d8f7 803d 8709 4bbe 0e32 27be b79a 153e
000001e0: 8321 4dbe 6191 86bd 87dd 933c a483 f63d
000001f0: ba81 5f3d 6782 0ebe 6f8f 5abc 3d06 4bbe

a2c_network.value.weight f4 [1, 128]
-0.014626693 0.009085497 -0.059996627 -0.031804137 0.046207905 -0.018416112 0.008303877 0.0007559257
-0.08507059 -0.01448492 0.01728867 -0.11515068 0.030317578 0.019963475 -0.0031560718 -0.013162951
-0.010909212 -0.0068864734 -0.02583472 0.016110774 0.01217879 -0.26971847 0.019948184 0.02701599
-0.10440118 -0.00032033623 0.0056126397 -0.0057147834 -0.01252503 0.011561784 0.053360764 -0.14384447
0.062198084 0.032952547 -0.0043873196 0.024567457 0.074634984 -0.042943414 -0.008113361 -0.044257488
-0.021700855 0.0014484768 0.0013546332 0.0006395995 -0.016097033 -0.0119622005 -0.0029663735 -0.23458707
-0.008116893 -0.054183763 0.009908472 0.025343534 -0.020868653 -0.01210373 -0.012716929 -0.008178351
-0.0031699666 -0.025681691 0.068858 -0.009657971 -0.0014257005 -0.005414467 -0.008095534 0.020386592
0.0604437 0.019906867 -0.0038239323 -0.025298571 0.017439675 -0.07398117 0.016268296 -0.03761978
-0.03240471 0.06962146 0.0053518643 -0.08900745 0.0065550776 -0.14625041 -0.047494173 0.0083708465
-0.007942538 -0.017204309 0.009680051 -0.01596716 0.01080913 0.02593899 0.0037942212 -0.020396806
0.0030834842 0.011495484 0.011075149 -0.020596618 -0.20603833 -0.009474849 0.005167767 0.030382726
-0.02026371 -0.011625682 0.07198795 -0.0042475336 0.010588681 0.005099074 0.012035348 -0.027473524
-0.001811517 0.0032000327 -0.012389084 0.031280663 -0.022664223 0.05588593 0.15971977 -0.020275874
-0.0306007 -0.038584247 0.0051799384 -0.017703911 0.1110225 0.0023580736 0.014419744 -0.03470507
-0.093601495 0.0036478 0.024320794 0.025961975 0.03902711 0.004363364 0.008945606 0.029132904
00000000: cca4 6fbc 56db 143c 06bf 75bd 0e45 02bd
00000010: 8044 3d3d 63dd 96bc fc0c 083c 5129 463a
00000020: 7d39 aebd 2852 6dbc f8a0 8d3c 1fd4 ebbd
00000030: 925c f83c 718a a33c 19d6 4ebb 6ba9 57bc
00000040: 8dbc 32bc eda7 e1bb 56a3 d3bc befa 833c
00000050: 8c89 473c 8a18 8abe 606a a33c a350 dd3c
00000060: 49d0 d5bd cdf2 a7b9 3cea b73b 1443 bbbb
00000070: c935 4dbc a36d 3d3c d190 5a3d f74b 13be
00000080: 6bc3 7e3d 40f9 063d 81c3 8fbb b141 c93c
00000090: 3ada 983d 6fe5 2fbd e7ed 04bc 5747 35bd
000000a0: fec5 b1bc d1da bd3a f38d b13a ccaa 273a
000000b0: eddd 83bc 1bfd 43bc 7d67 42bb 9837 70be
000000c0: b7fc 04bc cbef 5dbd 2557 223c 3e9d cf3c
000000d0: bdf4 aabc b94e 46bc ab5a 50bc 7efe 05bc
000000e0: 37bf 4fbb 6962 d2bc 6c05 8d3d 773c 1ebc
000000f0: 92de baba d76b b1bb 21a3 04bc c801 a73c
00000100: d093 773d ba13 a33c f09a 7abb f33e cfbc
00000110: a6dd 8e3c 7183 97bd 1745 853c 3317 1abd
00000120: cdba 04bd b295 8e3d b15e af3b 8a49 b6bd
00000130: facb d63b abc2 15be 4089 42bd e025 093c
00000140: 6b21 02bc 0df0 8cbc 1499 1e3c 90cd 82bc
00000150: c718 313c 017e d43c 78a8 783b 3417 a7bc
00000160: 4814 4a3b 8e57 3c3c 8b74 353c 3dba a8bc
00000170: b6fb 52be 663c 1bbc 5f56 a93b 32e5 f83c
00000180: 1400 a6bc a579 3ebc 6b6e 933d e52e 8bbb
00000190: 267c 2d3c 2216 a73b e92f 453c 2810 e1bc
000001a0: 6d70 edba a4b7 513b 96fb 4abc 2720 003d
000001b0: 52aa b9bc a5e8 643d 948d 233e 9719 a6bc
000001c0: 52ae fabc 840a 1ebd 79bc a93b cb07 91bc
000001d0: c45f e33d e989 1a3b ca40 6c3c e726 0ebd
000001e0: 24b2 bfbd ee0f 6f3b 673c c73c 35ae d43c
000001f0: e4da 1f3d 8dfa 8e3b 9790 123c 21a8 ee3c

a2c_network.mu.weight f4 [18, 128]
0.18721588 -0.018376576 0.21798915 0.0067952354 0.04178441 -0.04600038 0.06537227 -0.00038110235
-0.14146288 -0.025592465 -0.169012 0.035049785 0.0049042506 -0.02100547 -0.1266747 -0.1377691
-0.0027582296 -0.127954 -0.13359956 -0.20193975 -0.06202905 -0.13430628 0.07766766 -0.013546939
0.016499572 -0.13957761 -0.10718678 -0.089381196 0.07825787 -0.0033282847 0.031740554 -0.03190531
0.07351167 0.018352062 -0.036062285 0.020604357 0.09792182 -0.08858799 -0.14352551 -0.098421104
0.23860152 0.07223852 -0.17137507 -0.23864684 0.17650683 -0.0986884 0.012691421 -0.02053081
-0.04056142 0.055584963 0.1627651 -0.04134259 -0.10224959 -0.24201906 0.12461495 0.13713665
-0.09085771 0.09211769 0.118755266 0.045728926 0.03637003 0.21103834 0.14694645 -0.018867495
-0.0053805006 -0.18909048 0.20369789 0.027777448 0.12438205 0.030665893 0.024534196 0.08859805
-0.13775355 0.05072888 0.037555475 0.09003823 0.006469926 -0.12932174 0.04944366 -0.077485435
-0.13079938 0.0040031075 0.16223569 -0.04240253 0.27659148 0.11837104 0.00851599 0.0154588735
-0.037158515 0.043756533 -0.19559975 0.029715696 0.025725648 0.07749699 -0.051718548 0.01197027
-0.011502555 0.04625835 -0.13540554 -0.013343268 -0.053032845 0.12345994 0.13935553 -0.06720182
0.022927191 0.10210419 -0.052127976 -0.18150342 0.041568443 -0.10705591 -0.04248561 -0.12569912
-0.08063014 -0.0543679 -0.052240077 0.09770324 -0.07300816 -0.05235637 -0.16696252 0.11233849
0.036065534 -0.19019786 -0.024095638 -0.038283583 0.0549519 -0.11984643 0.075809404 -0.03139918
-0.08416325 -0.010976882 -0.045852706 0.08709921 -0.029324513 0.00956056 0.038280554 0.08506756
0.03992034 -0.10218154 0.061397616 0.004948309 -0.11240299 0.03330445 -0.006111854 -0.035433333
0.065120846 0.05350077 0.038125064 0.062333204 0.002971401 -0.09498587 0.0055576707 0.048780598
-0.1110695 -0.15177834 0.052098226 -0.0473916 -0.10336526 -0.08987396 -0.07758253 0.0039286437
0.003996568 -0.03726738 -0.2647255 -0.05848681 0.031405773 -0.08442924 0.094158486 -0.003224495
0.11891619 -0.0856299 0.09633716 0.11688286 -0.05120529 -0.031304497 -0.0014964595 -0.038611803
-0.06540965 0.036146495 0.07858145 -0.09419551 0.024782255 -0.020993838 -0.1201641 0.07529842
-0.055596508 -0.057422332 -0.06874256 0.058070354 0.068408124 0.095405355 0.002879013 -0.04603132
0.002455434 -0.031924106 -0.06546682 0.0015710533 0.06589591 0.059251424 0.051851932 -0.042561736
-0.07323842 -0.069971494 0.080155745 0.11054332 -0.08749791 -0.049212627 0.1190972 -0.11329171
0.17221485 0.092943214 -0.18876742 0.18371996 0.043917745 -0.24245584 -0.11395887 -0.05061145
0.07719697 -0.074029155 0.096638635 -0.09268386 -0.048528466 0.061901573 0.09705178 -0.06889392
0.09502764 -0.26875705 -0.039115556 -0.12136524 -0.19897047 0.019184202 0.10188393 0.07651259
0.07660759 -0.010035528 -0.0045241984 0.15991208 -0.10846916 -0.1452438 0.13844113 0.097499855
-0.060304645 -0.08538321 0.03232393 0.056762464 0.03974118 0.11705354 -0.120757215 -0.077329956
0.01516353 -0.018160746 0.0760112 -0.13004938 0.018197358 0.006449649 0.08364478 0.035166137
00000000: 85b5 3f3e 798a 96bc 8c38 5f3e 91aa de3b
00000010: 2126 2b3d e56a 3cbd e6e1 853d b1ce c7b9
00000020: a5db 10be 4aa7 d1bc 7b11 2dbe 5d90 0f3d
00000030: d6b3 a03b aa13 acbc 03b7 01be 5813 0dbe
00000040: 6ac3 34bb 6006 03be 53ce 08be 4bc9 4ebe
00000050: 2c12 7ebd 9687 09be 3910 9f3d fbf3 5dbc
00000060: 1c2a 873c 6fed 0ebe be84 dbbd 7d0d b7bd
00000070: aa45 a03d 5a1f 5abb 6202 023d 24af 02bd
00000080: 498d 963d 1057 963c 0cb6 13bd 78ca a83c
00000090: 3c8b c83d 9f6d b5bd 5af8 12be 0191 c9bd
000000a0: f553 743e caf1 933d f27c 2fbe d65f 74be
000000b0: 35be 343e 251d cabd aeef 4f3c 3b30 a8bc
000000c0: bb23 26bd 0fad 633d e5ab 263e d956 29bd
000000d0: 3c68 d1bd d8d3 77be 1f36 ff3d 8d6d 0c3e
000000e0: 9b13 babd 33a8 bc3d f635 f33d 414e 3b3d
000000f0: bef8 143d 6f1a 583e 2179 163e 0190 9abc
00000100: e94e b0bb efa0 41be 2e96 503e 888d e33c
00000110: 04bc fe3d 0a37 fb3c f0fb c83c e572 b53d
00000120: 440f 0dbe 16c9 4f3d c5d3 193d f765 b83d
00000130: ac01 d43b eb6c 04be 6f85 4a3d afb0 9ebd
00000140: 46f0 05be 802c 833b 1d21 263e 46ae 2dbd
00000150: 669d 8d3e 846c f23d a786 0b3c 3747 7d3c
00000160: 8733 18bd 0d3a 333d 4d4b 48be 556e f33c
00000170: 98be d23c beb6 9e3d d4d6 53bd f41e 443c
00000180: 3675 3cbc 6579 3d3d c0a7 0abe b99d 5abc
00000190: f838 59bd 91d8 fc3d 37b3 0e3e 1ca1 89bd
000001a0: ced1 bb3c 001c d13d 2584 55bd 08dc 39be
000001b0: ac43 2a3d 2140 dbbd 6405 2ebd 45b7 00be
000001c0: 6a21 a5bd e0b0 5ebd b1f9 55bd a318 c83d
000001d0: 4d85 95bd a273 56bd 39f8 2abe b911 e63d
000001e0: 74b9 133d 3ac3 42be 3764 c5bc 3fcf 1cbd
000001f0: 3e15 613d 0c72 f5bd f641 9b3d 6d9c 00bd
00000200: c85d acbd 61d8 33bc 0cd0 3bbd 1261 b23d
00000210: f639 f0bc e5a3 1c3c 12cc 1c3d e737 ae3d
00000220: 8383 233d 8e44 d1bd 117c 7b3d 6d25 a23b
00000230: 8a33 e6bd 3f6a 083d f345 c8bb 8b22 11bd
00000240: 145e 853d a023 5b3d 0729 1c3d 1a51 7f3d
00000250: d6bb 423b f487 c2bd 1f1d b63b 2ace 473d
00000260: 6878 e3bd c86b 1bbe f364 553d b21d 42bd
00000270: 2ab1 d3bd d70f b8bd 97e3 9ebd dabb 803b
00000280: a4f5 823b aea5 18bd 1a8a 87be de8f 6fbd
00000290: 57a3 003d 3de9 acbd 2ad6 c03d 0d52 53bb
000002a0: 558a f33d bb5e afbd 6b4c c53d 4860 ef3d
000002b0: a3bc 51bd 2539 00bd d924 c4ba 6927 1ebd
000002c0: 7ff5 85bd 590e 143d 50ef a03d 93e9 c0bd
000002d0: 2804 cb3c 45fb abbc 9818 f6bd 0f36 9a3d
000002e0: 2ab9 63bd ae33 6bbd e6c8 8cbd 2edb 6d3d
000002f0: 8f19 8c3d e263 c33d d3ad 3c3b 568b 3cbd
00000300: 59eb 203b dac2 02bd 7813 86bd cdeb cd3a
00000310: 6ff4 863d 9fb1 723d b162 543d 3755 2ebd
00000320: 06fe 95bd 374d 8fbd b228 a43d 8964 e23d
00000330: 1b32 b3bd 2e93 49bd 3ce9 f33d 7c05 e8bd
00000340: 1759 303e 0359 be3d 3f4c 41be 1621 3c3e
00000350: 18e3 333d 5846 78be 4563 e9bd f44d 4fbd
00000360: 7219 9e3d 999c 97bd 7aea c53d 09d1 bdbd
00000370: c9c5 46bd 818c 7d3d 15c3 c63d 4118 8dbd
00000380: da9d c23d 869a 89be a237 20bd 578e f8bd
00000390: eabe 4bbe 3028 9d3c 86a8 d03d a2b2 9c3d
000003a0: 71e4 9c3d 0e6c 24bc ba3f 94bb febf 233e
000003b0: 1425 debd caba 14be 83c3 0d3e 01ae c73d
000003c0: 0102 77bd 64dd aebd 1966 043d c27f 683d
000003d0: a6c7 223d c4b9 ef3d 8f4f f7bd 2b5f 9ebd
000003e0: 7470 783c d8c5 94bc c3ab 9b3d aa2b 05be
000003f0: a012 953c 9457 d33b f44d ab3d 5e0a 103d

a2c_network.mu.bias f4 [18]
-0.006367321 0.011477269 -0.00450546 0.03542523 0.023618361 -0.06406123 0.071427 0.035407323
0.027433557 0.009439006 -0.05595278 0.14156069 -0.027152779 -0.0022846272 0.053923063 0.035534997
0.014742864 0.020563522
00000000: f6a4 d0bb 280b 3c3c 8aa2 93bb 0c1a 113d
00000010: 4b7b c13c 8932 83bd 5248 923d 4507 113d
00000020: 57bc e03c 10a6 1a3c be2e 65bd 49f5 103e
00000030: 816f debc afb9 15bb 6ede 5c3d 258d 113d
00000040: 0e8c 713c d574 a83c

exp_avg f4 [18]
0.0011697751 0.00030006707 0.00020934107 0.0006778452 0.00044762017 0.0014595182 0.0011007676 0.00088559574
-4.7631926e-05 1.7740458e-05 -0.0010349976 0.00031581442 -0.00018787052 3.4436714e-05 0.0006599163 0.000710263
-0.00019510221 0.00018963945
00000000: 2453 993a 5252 9d39 9182 5b39 6cb1 313a
00000010: 90ae ea39 4e4d bf3a a247 903a 5327 683a
00000020: 64c8 47b8 58d1 9437 c2a8 87ba e593 a539
00000030: 1cff 44b9 2470 1038 3cfe 2c3a f130 3a3a
00000040: 5a94 4cb9 f4d9 4639

exp_avg_sq f4 [18]
1.6796954e-05 1.6090553e-05 1.4324379e-05 1.7236112e-05 1.3977729e-05 1.7564389e-05 1.51141085e-05 1.5446618e-05
1.4098263e-05 1.3614038e-05 1.6449014e-05 1.6441187e-05 1.49489015e-05 1.4413844e-05 1.4409495e-05 1.5881951e-05
1.4064857e-05 1.6824744e-05
00000000: 2fe7 8c37 33fa 8637 bd52 7037 4596 9037
00000010: e481 6a37 3d57 9337 9a92 7d37 5c93 8137
00000020: 9487 6c37 d967 6437 fdfb 8937 2eeb 8937
00000030: 0bcd 7a37 fdd2 7137 4fc0 7137 3b3a 8537
00000040: 1af8 6b37 dd22 8d37

exp_avg f4 [128, 66]
0.000118085096 5.7208177e-05 -1.4381287e-05 4.2051957e-05 0.00022591208 0.00010127037 -3.2544083e-06 -8.750541e-06
-0.00018484672 4.628752e-05 -3.74671e-05 -4.8631588e-05 -1.0233691e-05 1.4802979e-05 -1.5315505e-05 -3.5708355e-05
-5.5960936e-06 6.041065e-06 -2.43563e-06 1.911752e-06 1.8016151e-05 3.4334375e-05 1.6103915e-05 3.2035547e-05
-2.9926614e-06 5.2764877e-05 5.960982e-06 -2.151281e-06 -3.6515463e-05 -2.778508e-05 -0.0008832401 -6.678487e-05
0.00033273883 -0.0006547395 0.0005816683 0.00042493746 -7.5498414e-05 0.00073269877 0.00070693495 0.00010349519
-0.00010925524 -0.000491775 -0.00015316371 0.0014853351 -0.00010848645 -0.0004845503 -0.0004846803 -7.010425e-05
-0.00030420304 3.0618536e-05 -0.00012980675 -0.00023372972 0.00021174243 1.3063159e-05 -2.5943607e-05 -3.3878263e-05
-5.6782534e-05 0.00020769979 -0.00027325813 7.1366867e-06 1.4919397e-05 0.0003880485 -0.00010168086 8.6637345e-05
-0.00042456645 -0.00015787817 -3.143909e-05 9.5954434e-05 2.6143334e-07 8.405256e-05 0.0003481661 -8.499487e-05
1.0265379e-05 -1.2442111e-05 0.0002923475 -0.000110020796 0.00025396704 -0.0002636138 -6.936064e-06 -2.5210607e-05
6.5939355e-05 -3.768526e-05 -4.4763077e-05 -1.420902e-05 -3.0988544e-05 -5.0234903e-06 -2.5044754e-05 -8.4820655e-05
-3.3107473e-05 -1.265215e-05 -2.8630371e-05 -9.722249e-05 -2.470595e-05 3.519627e-05 5.9913105e-05 1.8832894e-05
-0.00013302013 0.0012720238 -0.00023008433 0.0010603665 -0.0018422875 -0.0005389337 -0.00021884094 0.000909684
0.00020652828 -0.0007169312 0.0005545168 -0.0011466239 -1.36420995e-05 -0.0006660771 0.00035576578 -5.356998e-06
0.0007783454 -0.00015893515 -0.00012113094 0.00014507864 0.00030976738 2.484133e-05 -0.0007106332 1.146597e-06
-1.1887866e-05 0.00042209346 -0.00013136245 -0.00067275565 0.00028068913 -0.0003339187 -0.0006377012 -0.0004206721
-0.00028143293 1.2592275e-05 0.00041376322 0.00041615695 3.5280907e-05 -3.123955e-05 -3.161327e-05 0.00023648051
-0.00015781316 4.1195595e-05 -1.9930305e-05 6.7824312e-06 0.0007687368 -9.072453e-05 0.00015413071 0.00013877277
-2.0008285e-05 -3.5016088e-05 2.6140562e-05 -3.442203e-05 -9.587251e-06 -4.9266233e-05 -9.134519e-05 -8.981478e-05
-9.004358e-05 -3.7888156e-05 -1.2610943e-05 -6.4438274e-05 -2.9573754e-05 2.2985278e-05 2.3290486e-05 -5.0329487e-05
-9.983013e-06 -1.6566102e-05 0.00087732426 -0.0017433689 0.00023434493 -0.00015050895 0.00080576236 -0.0007888862
-0.00033214968 0.00038772798 0.00040430462 -0.00014185485 0.0010587821 0.0010608488 0.00040586968 0.0013556108
-0.0009802005 0.00015546868 0.0001270871 0.00027993773 0.00019794914 -0.00037721352 0.00016706654 -0.0002352756
9.0193564e-05 -0.0006522179 -0.00040674242 -9.3108414e-05 -0.00040732435 1.0162043e-05 0.00040633284 0.0001506132
-0.0003238764 9.7577766e-05 0.0003985433 -3.2210555e-05 -0.0003218328 -0.0002013222 -0.00013345479 -7.1147e-05
3.223862e-07 3.9580933e-05 2.7481185e-05 2.0188589e-05 7.55343e-06 -1.27885e-05 0.00017826381 -2.6575166e-05
-0.00023253029 0.00012205312 1.2899722e-05 -8.953524e-06 5.3898708e-05 3.3473083e-05 -1.5588606e-05 4.1543324e-05
-4.0943138e-05 -4.3193322e-05 -1.1802e-05 -5.5887762e-05 -3.4585144e-05 8.238172e-06 2.7186381e-05 -3.6191395e-05
-1.9771634e-05 2.5516865e-06 2.4001702e-05 2.4677023e-05 -0.0019002592 0.0011079505 0.00032888932 0.0010121443
-0.0016749975 0.0008224394 -2.1038e-05 -0.0007774188 -0.0007234947 1.7769115e-06 -0.00023090615 -0.000662608
-0.0009594842 -0.0014070516 0.00043075293 0.00033326718 -0.0014944463 0.00028723176 -0.00036889332 0.0001565182
0.00047092765 0.00040769312 -0.000403233 0.00052230235 -0.0002664834 -0.0002709517 2.0903923e-05 2.2976526e-05
00000000: 74a4 f738 d0f2 6f38 2847 71b7 f260 3038
00000010: d0e2 6c39 1e61 d438 4f66 5ab6 4acf 12b7
00000020: 6ad3 41b9 d924 4238 fe25 1db8 c5f9 4bb8
00000030: 5eb1 2bb7 505a 7837 cc79 80b7 8ec5 15b8
00000040: 14c6 bbb6 5ab4 ca36 ce73 23b6 a64b 0036
00000050: 6421 9737 4102 1038 e516 8737 e85d 0638
00000060: 88d5 48b6 db4f 5d38 7204 c836 ba5e 10b6
00000070: 2e28 19b8 0114 e9b7 3d89 67ba db0e 8cb8
00000080: 7373 ae39 d3a2 2bba 197b 183a 24ca de39
00000090: e754 9eb8 9512 403a 9a51 393a 8f0b d938
000000a0: f61f e5b8 76ea 00ba 929a 20b9 93af c23a
000000b0: 3883 e3b8 3e0b feb9 b01c feb9 ef04 93b8
000000c0: 717d 9fb9 676c 0038 bc1c 08b9 5815 75b9
000000d0: 2d07 5e39 d729 5b37 79a1 d9b7 8218 0eb8
000000e0: c829 6eb8 fdc9 5939 1644 8fb9 ac77 ef36
000000f0: 524e 7a37 fd72 cb39 7f3d d5b8 12b1 b538
00000100: 5898 deb9 198c 25b9 77dd 03b8 253b c938
00000110: 205b 8c34 6045 b038 108a b639 463f b2b8
00000120: 7839 2c37 76be 50b7 3846 9939 f7ba e6b8
00000130: e126 8539 a535 8ab9 56bc e8b6 5e7b d3b7
00000140: ec48 8a38 3d10 1eb8 fdbf 3bb8 4763 6eb7
00000150: b2f9 01b8 748f a8b6 3317 d2b7 bee1 b1b8
00000160: e1dc 0ab8 9244 54b7 412b f0b7 ede3 cbb8
00000170: a03f cfb7 b59f 1338 354b 7b38 55fb 9d37
00000180: 527b 0bb9 09ba a63a cb42 71b9 fffb 8a3a
00000190: e978 f1ba 3a47 0dba ab78 65b9 dc77 6e3a
000001a0: 838f 5839 70f0 3bba fe5c 113a 504a 96ba
000001b0: 5fe0 64b7 ad9b 2eba 1386 ba39 43c0 b3b6
000001c0: e009 4c3a d4a7 26b9 ae07 feb8 4020 1839
000001d0: 4668 a239 5a62 d037 c949 3aba c6e4 9935
000001e0: ff71 47b7 6d4c dd39 57be 09b9 de5b 30ba
000001f0: 7529 9339 cf11 afb9 672b 27ba a78d dcb9
00000200: 4a8d 93b9 6943 5337 5cee d839 a42f da39
00000210: 96fa 1338 3607 03b8 7d98 04b8 c1f7 7739
00000220: a67a 25b9 6fc9 2c38 0130 a7b7 a494 e336
00000230: 0e85 493a 5c43 beb8 269e 2139 8883 1139
00000240: 77d7 a7b7 3dde 12b8 6e48 db37 6060 10b8
00000250: eed8 20b7 37a3 4eb8 9390 bfb8 f15a bcb8
00000260: c7d5 bcb8 19ea 1eb8 9693 53b7 0923 87b8
00000270: 2715 f8b7 82d0 c037 f05f c337 e018 53b8
00000280: b77c 27b7 6ff7 8ab7 3cfc 653a c181 e4ba
00000290: 7dba 7539 f0d1 1db9 cc39 533a 42cd 4eba
000002a0: 6024 aeb9 f847 cb39 d9f8 d339 dfbe 14b9
000002b0: d5c6 8a3a 2e0c 8b3a e8ca d439 c0ae b13a
000002c0: 127a 80ba 4e05 2339 af42 0539 9bc4 9239
000002d0: 9190 4f39 bec4 c5b9 952e 2f39 50b4 76b9
000002e0: 4d26 bd38 9af9 2aba 0b40 d5b9 3343 c3b8
000002f0: 268e d5b9 a47d 2a37 1209 d539 eced 1d39
00000300: f4cd a9b9 aaa2 cc38 94f3 d039 d219 07b8
00000310: abbb a8b9 041a 53b9 ffef 0bb9 c134 95b8
00000320: 6c14 ad34 b403 2638 6587 e637 aa5a a937
00000330: 7873 fd36 308e 56b7 54ec 3a39 bced deb7
00000340: 60d3 73b9 c5f6 ff38 e26b 5837 1837 16b7
00000350: 4c11 6238 7365 0c38 47c4 82b7 ce3e 2e38
00000360: 5cba 2bb8 7a2a 35b8 3401 46b7 0769 6ab8
00000370: 840f 11b8 ae36 0a37 4f0e e437 37cc 17b8
00000380: 43db a5b7 a43d 2b36 4357 c937 8101 cf37
00000390: 1e12 f9ba a638 913a c76e ac39 eda9 843a
000003a0: 978b dbba f998 573a c37a b0b7 b1cb 4bba
000003b0: e8a8 3dba 377e ee35 661f 72b9 dfb2 2dba
000003c0: e585 7bba d16c b8ba aed6 e139 5dba ae39
000003d0: 4ce1 c3ba 9897 9639 0668 c1b9 091f 2439
000003e0: d7e6 f639 a5bf d539 0469 d3b9 1eeb 083a
000003f0: ccb6 8bb9 860e 8eb9 d55a af37 b7bd c037
