logs/rl_games/hexapod_flat_direct/2025-11-15_08-58-23/nn/last_hexapod_flat_direct_ep_1150_rew_48.14812.pth (torch, 545947 bytes, 33 tensors)

value_mean_std.running_mean f8 [1]
00000000: 047f dc81 a17f 0540
2.6873197694220625

value_mean_std.running_var f8 [1]
00000000: 0b8d 8418 7c00 d13f
0.26565458673776793

value_mean_std.count f8 []
00000000: 0000 0001 00f4 ba41
452198401.0

a2c_network.sigma f4 [18]
00000000: 2013 79bf c0e5 aabf 6bcb c4bf 7f9a e1bf
00000010: 3ab7 c5bf 3c6e 80bf 55df 6abf eb87 57bf
00000020: ab00 92bf b3e8 83bf 22fb 69bf 3748 83bf
00000030: 4d6d e2bd e945 f4be 6351 c3be 80b9 8abe
00000040: 77bb 78be 100f 70be
-0.9729481 -1.3351364 -1.5374578 -1.7625273 -1.5446541 -1.0033641 -0.9174703 -0.8419177
-1.1406454 -1.0305389 -0.91398823 -1.0256413 -0.11056004 -0.47709587 -0.3814803 -0.2709465
-0.24290262 -0.23443246

a2c_network.actor_mlp.0.weight f4 [128, 66]
00000000: 7f44 4bbe 60cb 9cbd 6042 1a3f a6ef 44be
00000010: c061 81bd 5406 533d ba36 8a3e ca0c 033e
00000020: 0f8a a1be e97c 03bf 4578 1fbe 85cf fe3c
00000030: ffa8 c33d d0f3 fbbd 5eb8 91be 417a 9abe
00000040: a6a3 963e c13a eabd 0d88 ff3b 248b fabd
00000050: 3ff7 3b3d bd15 a1bc e6f4 22be fbf2 593d
00000060: de2b 22bd a482 983c 70bd 113e 2824 8fba
00000070: 774f 713c 5c77 62be b990 b13d c874 3f3c
00000080: cb68 123d fa4b fcbc 5a8d f3bc 6828 a33d
00000090: 117c b5bd f3c1 10be 08a7 773d 6118 bebd
000000a0: f587 5dbd 94d6 e03c 6976 79bd 6330 ed3c
000000b0: 5b15 2d3d 7d9e 073d 0386 3b3d 1666 ebba
000000c0: f19c 13be d6cc b0bd befc 26bd a728 89bd
000000d0: a2ba f7bc d95d 6ebd 93ab 35be 03c4 0fbe
000000e0: 6344 c7bc 40b7 87bd f7d8 15be a6cb ef3c
000000f0: 0f69 313c a7a3 6a3d f1a1 253e 31f9 963d
00000100: 6163 c23c 3b21 523d ff86 5b3e 5ce4 e0be
00000110: 16cb c4bd 6db8 e2bd 3e84 a7be df65 9f3c
00000120: 469a 0ebf 2788 cf3e 1518 483e 49e0 89be
00000130: 16f0 0d3f 7ebc 17bf 4677 4abe 9e6b fd3e
00000140: 8cd4 9abd 99f9 2c3f f11a 1a3e 2afb d7bd
00000150: 5533 353d ca59 8cbd 87cf 2cbd 1e1c bcbd
00000160: 7bb2 be3e 41a7 deba fecc 4c3e 70c3 943d
00000170: a6df 353c 66b6 debb 57b5 dcbc 8609 c33d
00000180: 5238 7abc 1c4b f4bd ef81 b23d bc1e ef3c
00000190: 5857 76bd c5d2 a53d a4fd 513d e4ca 5e3c
000001a0: 5a24 793d 8bb0 c03b b17f 2ebd 9e70 2b3d
000001b0: 34cc 70bc 97f2 873b ac88 6cbd 31fe 943d
000001c0: 7c7f b6bc 4d34 e9bc 62fe 84ba ed77 863d
000001d0: 8cc9 dc3c ba77 f03b cf47 ef3c 2607 163b
000001e0: ea39 dd3c fb5c 95bd 0d1d 8b3d 0071 d53d
000001f0: 1be7 bbbd 16c9 4d3d 0212 513d cbb7 073e
00000200: 2941 eebc d1fa 3f3d 2c47 8ebd 580d cd3c
00000210: 56d8 86be b4fd f5be ffbd fa3e 5b09 a0be
00000220: 9e5a 1d3f 592f cf3d 6ad3 143f 3aba b43c
00000230: 0590 a63d e3ed 39bf c59d b9be b7ac 0d3e
00000240: 5444 253e 5389 dc3e 2fb4 173e 4f6a 023c
00000250: d401 4ebf 84cb ae3d a81b 84bd 9077 42be
00000260: d1f5 b0bc 6291 35be 3116 26be 09e9 94be
00000270: 3767 b83c ca04 43be c7fa 6dbd fa7c 3f3d
00000280: 94a5 3ebd bdd9 563e 68d1 93bd 6f8e 0fbd
00000290: 8912 fdbd ec58 f73d 8944 64bd 996d 38bc
000002a0: 1fd6 a23d b6ba e13c 3e2a febc 880a d1bc
000002b0: c5fe 5bbd 7694 25be bcfb aabd e88c 0bbe
000002c0: 2f62 803d 5acf 3ebd f132 c63c 2d99 4d3c
000002d0: eaf3 15bd 1f63 6b3e fcc2 15bd 01d9 f53c
000002e0: aa64 9dbe 7bb4 81bd 8d9e 49bd d90f f2bd
000002f0: b205 713d 57b1 abbd 35eb 9b3d f16d 1dbf
00000300: 6064 55bb 2ea2 22bd f5a9 fb3d bc00 513d
00000310: fa09 1fbd 1507 4abd 308c 8c3f acc0 a3be
00000320: 6628 4d3f 8723 0abe 350c 8abe 4e37 9abe
00000330: 1080 04bf 83f8 dc3f e2d8 73bd 5841 473f
00000340: 50c7 203f 0b79 6bbe 03b5 1bbf ce84 123f
00000350: 2a40 99be 0fa7 033e 7dcd fbbe f25e 4d3f
00000360: e540 6a3e 8225 95bc 8cd9 a6be e483 1c3e
00000370: 03fc e03b f948 a13d 4443 20be e235 e03d
00000380: 0862 0a3e 4005 3ebf e8e0 c5bc 49b0 3ebe
00000390: d774 67bc f9de abbd fdb5 bc3c c54a 8bbd
000003a0: e7cf 87bd dacf b5bd e563 2f3e 60ee 313e
000003b0: 35fc 94bb 3705 183c 44a9 05bd 1a41 fa3b
000003c0: 1e63 dabb c8c2 00bd 9fe5 dfbc 4da4 163d
000003d0: 5e9c a43d a880 1e3d 78a1 01be 738d 3b3e
000003e0: e0e6 493e 96d1 c8bd 8717 db39 ed8f 8e3e
000003f0: d77d 313d e712 473d ff90 59be 26c7 de3b
-0.19850348 -0.07655978 0.6025753 -0.19232044 -0.063174725 0.051519707 0.26994878 0.12797847
-0.31550643 -0.5136247 -0.15573223 0.031104812 0.09553718 -0.12302363 -0.28460974 -0.30171397
0.2942173 -0.11436988 0.007798201 -0.1223357 0.04589009 -0.019663686 -0.15913734 0.05321024
-0.039592616 0.018616982 0.14232421 -0.001092081 0.014728419 -0.22115844 0.08670182 0.011685558
0.03574447 -0.030797947 -0.029730488 0.07966691 -0.088615544 -0.14136486 0.060462028 -0.09281994
-0.054084737 0.027446069 -0.06090394 0.028953737 0.042256694 0.03311013 0.0457821 -0.0017959501
-0.14415337 -0.08632819 -0.040768377 -0.06697207 -0.03024036 -0.05819497 -0.17741232 -0.14039616
-0.024324602 -0.06626749 -0.14633547 0.029271912 0.010828271 0.057284977 0.16175057 0.07371748
0.023729028 0.051301222 0.21438216 -0.43924224 -0.09609048 -0.11070333 -0.3271808 0.019457756
-0.5570415 0.40533563 0.19540437 -0.26928928 0.5544447 -0.5927199 -0.19772062 0.49496168
-0.07560071 0.67568356 0.1504934 -0.105459526 0.044238407 -0.068530634 -0.0421901 -0.091850504
0.37245545 -0.0016987101 0.20000073 0.07263839 0.011100685 -0.006796646 -0.026941938 0.09523301
-0.015272217 -0.119283885 0.08716189 0.02918946 -0.06014189 0.08096842 0.05126728 0.013598178
0.060825683 0.0058804206 -0.042602245 0.041855447 -0.014697123 0.004148792 -0.057747528 0.07275046
-0.022277586 -0.028467322 -0.0010146613 0.06565843 0.026951574 0.0073384913 0.029209046 0.0022892444
0.027005155 -0.07293125 0.0679265 0.10421944 -0.09174939 0.0502406 0.051042564 0.13253705
-0.029083805 0.046870057 -0.06947169 0.025030777 -0.26336926 -0.48045123 0.4897308 -0.31257138
0.61466396 0.10116453 0.5813509 0.022061456 0.08132938 -0.7262861 -0.3625318 0.13835417
0.16139346 0.4307352 0.14814828 0.007959916 -0.8047154 0.08534911 -0.064505875 -0.18990922
-0.02160159 -0.1773124 -0.16219403 -0.29084042 0.022510154 -0.19044796 -0.058100488 0.046750046
-0.046544626 0.20981498 -0.072176754 -0.035047945 -0.12357051 0.120775074 -0.055729423 -0.011256599
0.079509966 0.027554851 -0.031026002 -0.025517717 -0.053709764 -0.16169915 -0.08348796 -0.1362797
0.06268727 -0.046584465 0.024194213 0.012548727 -0.036609568 0.2298703 -0.036562905 0.030010702
-0.30740863 -0.06333252 -0.04922347 -0.11819429 0.058843322 -0.08383434 0.076132216 -0.6149588
-0.003256105 -0.039705448 0.12288276 0.05102609 -0.038827874 -0.04932316 1.0980282 -0.31982934
0.8013977 -0.13490115 -0.26962438 -0.3012032 -0.5175791 1.726334 -0.059533007 0.7783408
0.62804127 -0.22995393 -0.60823077 0.57233894 -0.29931766 0.12856697 -0.49180213 0.80223
0.22876318 -0.018206362 -0.3258785 0.15284687 0.0068659796 0.078752466 -0.1565066 0.10947777
0.13513958 -0.7422676 -0.024155095 -0.18621935 -0.014126978 -0.08392138 0.023035998 -0.068013705
-0.06631451 -0.08877535 0.1712795 0.17376089 -0.004546667 0.009278587 -0.032632127 0.0076371552
-0.0066646477 -0.031435758 -0.027331172 0.036777783 0.08037637 0.038696915 -0.12659252 0.18315677
0.19716978 -0.098056 0.00041788464 0.27844182 0.0433329 0.04860201 -0.21246718 0.0067986427

a2c_network.actor_mlp.0.bias f4 [128]
00000000: 8fed 453e 3740 17be cf90 20be 4d84 0b3e
00000010: 73fc bbbd 1345 453e f639 21be 7a3e c4bd
00000020: a159 853e d0c0 e5bd 593a 2cbd 3325 4ebd
00000030: d9bd 8d3d 61a5 093e bfb4 2dbe e719 a9bc
00000040: 4d39 4d3e 05d1 233e 3779 893c 9513 39bd
00000050: e470 5dbe 61de 36bd b657 27bd bb36 103e
00000060: 7452 2fbe 440e 143e b91c 733d 1a1c 0b3e
00000070: 4e47 ba3c ed65 a53d 371b 173e 4b18 0bbd
00000080: 4fcc 373e 0406 36bd c5f8 413d 7b52 5f3d
00000090: 10f5 abbc 0764 c13c 039e fa3c ad19 30be
000000a0: 9819 a8bd c15d 293e 90cf 8d3d d58b 013e
000000b0: 8339 0c3c ad8f 8b3d 057f 17bd 41bf e33d
000000c0: cc06 f0bd f7e8 bb3d 2b39 89bd b938 023e
000000d0: 1a7e 123c 58d9 81bd d5c0 12bd fa54 00be
000000e0: 9c70 fdbc e9e3 423e a116 963d 9b10 00be
000000f0: 3fa3 e53d 86df c0bd 5a2f 82be 495d eebc
00000100: e07a 403d d34c 00be 9d68 ccbd 3fc7 eb3d
00000110: f06a 82bd fa84 873e a5a7 e63c 8e77 71bc
00000120: 2e4e 983e f6f3 d7bd 2644 d63d 0c73 203d
00000130: 294c 97bc d195 27be 57e7 e8bc 0b3f 843d
00000140: c90c 70be 42ae 1cbe 13a2 883e 2a81 403e
00000150: 5a6f 7dbe 4563 02bd e54c 06be f4e0 7dbe
00000160: 6cab b13d 2b8a a5bc df0e 943e 1ea6 6abd
00000170: e432 503d 8563 15be 4c5b fa3d cd97 80bd
00000180: 3b18 d9bc 997f 57bd 0d7a a5bc 6d14 d4bc
00000190: 504e 7fbd 387e 9abd dcfe 94bd b377 2abe
000001a0: cee8 66bc 7a82 203e d3f9 9e3d 3ad4 6bbe
000001b0: 5064 9b3c 6e37 713e 8baf a9bd d8a5 893d
000001c0: 0c58 04be 64c8 08be 5792 843d 6397 8dbd
000001d0: c25c d6bd 4816 21bd a9d8 5e3d 1477 f8bd
000001e0: c52f 0bbe 5455 e3bd 1d3c 47be 1d2f e53d
000001f0: 8ea9 753d 459c bbbd 58a4 5abd bc17 b2bd
0.19328903 -0.1477059 -0.1568024 0.13624687 -0.0917901 0.19264631 -0.15744767 -0.09582229
0.26044944 -0.11218417 -0.042047832 -0.050328445 0.06920976 0.13441993 -0.1696348 -0.020642234
0.2004139 0.15997703 0.016781433 -0.04518469 -0.21625096 -0.04464567 -0.040855132 0.14083378
-0.17121297 0.14458567 0.059353564 0.13584939 0.022739079 0.080760814 0.14756475 -0.033958714
0.17949031 -0.04443933 0.047356386 0.05452202 -0.020990878 0.023607267 0.030592924 -0.17197295
-0.082080066 0.1653967 0.06924355 0.12650998 0.008558634 0.06814513 -0.03698637 0.11120463
-0.117200464 0.09175294 -0.06700357 0.1271695 0.008941198 -0.06340283 -0.03582843 -0.12532416
-0.030937485 0.19032253 0.07328535 -0.12506334 0.11212777 -0.09417634 -0.2542675 -0.029097216
0.046992183 -0.12529306 -0.09980891 0.115126126 -0.06368053 0.2646864 0.028156111 -0.014737977
0.29747146 -0.10544579 0.10462217 0.039172217 -0.018468933 -0.16365744 -0.028430624 0.06457337
-0.23442377 -0.15300849 0.26686153 0.18799272 -0.24749509 -0.031832952 -0.1311527 -0.24792844
0.08675274 -0.020207485 0.28917596 -0.057287328 0.050829783 -0.14588745 0.12224445 -0.06278954
-0.026500812 -0.05261192 -0.0201998 -0.025888646 -0.062330544 -0.075436056 -0.07275173 -0.16647224
-0.014093591 0.15674773 0.07762494 -0.23030177 0.018968731 0.23556301 -0.08285435 0.06721085
-0.12924212 -0.13357693 0.064732246 -0.0691364 -0.10466911 -0.03932789 0.054405842 -0.12132087
-0.13592441 -0.111002594 -0.19456525 0.11190627 0.059976153 -0.091606654 -0.053379387 -0.08695933

a2c_network.actor_mlp.2.weight f4 [128, 128]
00000000: 87ba 25bc 9fe5 703e 0290 21be 0600 7ebc
00000010: bf79 7bbd a46d 6cbe 5720 b23c d6c4 b5bd
00000020: 79c4 e2bd 174f 1bbe d136 2fbe 78b1 57be
00000030: 0542 f3bd f2ef 5e3d 2532 05be f7cc 2bbe
00000040: 4ffc b9bd f92d 68be 85a5 423e 14f9 b3be
00000050: bec8 093e 8bed afbd fa78 a93d 400d f8bc
00000060: f297 703e de5e b3bd c1c7 cdbd ee08 bf3c
00000070: ae5e 583e 4066 08be f154 b8bd c25a c9ba
00000080: a499 77be 2086 d9bd f6d4 8fbd 90ad 23bd
00000090: 1cca 00be 8677 1e3e 2dba 64bd cd84 87bd
000000a0: e887 10bc 5b20 a03c a437 9ebc b695 47be
000000b0: 3fd7 f2bd 2164 ba3b 1a81 42bd a306 313c
000000c0: 488b 74bd 91d9 013c 615b 56be 7e2b 93bd
000000d0: 5759 513e f84a 553d 59ba 76bd 8c9f 2a3e
000000e0: 0a54 f7bb 6837 8b3c b4e1 35bd 71a7 03bd
000000f0: f1c0 d1bd e3cd 64bd c11b 12bd 18d9 24be
00000100: eb32 0abe 0dce 843e 9e89 97bd 073e a3bc
00000110: 777a 883e c813 3dbc 63be 8a3d 41c4 763e
00000120: 5b75 18bd 31b3 3f3e a052 95be becc 843d
00000130: 3867 b7ba c8d1 2d3e 34ec 0abe dacf 82be
00000140: f548 c43d 9b29 13be 67d5 46bd bb7c c03c
00000150: 21da 633c 8cf1 25be efc1 4bbe 3a00 85bd
00000160: d2f3 70be 6da3 20bd dad4 adbd 7480 b4bd
00000170: 7d8c 8cbe 3519 06bc e16a 4abd 9869 843e
00000180: 7804 4cbd e2d6 a23d 3918 93bc 907d 843d
00000190: e969 3b3e afce 4cbe db5e 09be e691 7e3d
000001a0: 4b34 ba3e 1015 7abd 7aca 3bbd a160 1c3e
000001b0: 8b95 823c d661 03be 922b 023e b754 583c
000001c0: 823d b33d 072f 93bb 888f 13be cc83 353e
000001d0: 4ec1 d33d 6dd2 b63d 6235 1bbd b982 293e
000001e0: 4c8c 653c c8c8 68bd 2379 8e3e 7929 a2be
000001f0: cb21 083e 0a10 d73c 9fdf 4d3b c12f ab3b
00000200: 8a88 eb3c 1660 5cbd 457e 293b 63c5 c9be
00000210: f96b 6c3e 4ff3 b6bb 3093 83be 9138 55be
00000220: d8c1 ecbd 1c29 943d b118 323c cbf8 46bd
00000230: 4693 12be c409 ea39 abcb d9ba 2206 36be
00000240: 675c 1abd 8df2 953d ba37 5dbe 8d24 da3d
00000250: 1db0 b93d c35d b73d e198 063e cf0e 9fbd
00000260: c455 2f3d 3dc1 853d 7e49 3abc 6e0c ef3d
00000270: ffdd 51be 222c c03d 670d 02be e2e3 89bd
00000280: bad2 463d 9f74 87be e3b2 523d aefd 633d
00000290: aae3 27be cf66 adbe 42e4 25be a761 793e
000002a0: e4b2 28be 64eb 2ebd 3e66 daba f022 9cbd
000002b0: c417 1bbd 7f6e 29be 49ec 7dbd aa81 d2bb
000002c0: 0e89 84be 2b98 52be 9920 c53d a7b3 77bd
000002d0: f4d6 33be e885 ac3e f935 95be 063b 98bd
000002e0: afb4 58be 1cc9 6dbc 0f94 d2bc 8315 b4be
000002f0: 07f5 0cbe 4ead 883e 30f1 4ebd 1e4b 983d
00000300: 93e7 e3bd 69e3 21be 621a 353e a1ac 2cbc
00000310: 3b0b e5bd 589f 40be 03d3 cdbd 9337 0ebe
00000320: 3a03 bf3d 742c e1bd 1d37 f3bc f8ba ec3d
00000330: 4207 1ebe 5849 b3bb 8e71 783e b0ed 84bc
00000340: 8a2a 203e ebf2 8ebe 47e5 283d c3bd a1bc
00000350: a674 a2bd 85af e3bd fa0c d9bd c5ce 38be
00000360: f879 42bd 1288 89be ca21 a4bd aa73 aabc
00000370: c527 bbbd 7857 b03e 5f4b 2dbb 15dc a33e
00000380: 386a 43be 9a92 a4be d534 c43d 96c3 12bc
00000390: 9be0 1fbe 7b01 c83c f69f 883d cb71 86bd
000003a0: 54a6 ca3c 67f3 46be 74ae 9abe 3ad6 6d3d
000003b0: 4fea e5bc c1c3 323e f877 a53d 6737 86bc
000003c0: f3db b43e 8ce2 a13d 5ec3 973c 8bb6 513e
000003d0: c21c 90be c3e6 213e e834 b43d ecde 073e
000003e0: 0135 b4bd cbf5 1bbe 5198 92bd 9b2c 21be
000003f0: 0178 02be cb2a 5b3e 68c7 e0bb e0e6 953d
-0.010115272 0.23525093 -0.15777591 -0.015502935 -0.061395403 -0.230887 0.021743936 -0.08875434
-0.110726304 -0.15166889 -0.17110755 -0.21063793 -0.118778266 0.05442805 -0.1300741 -0.16777407
-0.09081327 -0.22673787 0.19008453 -0.3515097 0.13455483 -0.085902296 0.082750276 -0.030279756
0.23495463 -0.08758329 -0.10047866 0.023319688 0.21129867 -0.13320255 -0.09000576 -0.0015362131
-0.24179703 -0.106212854 -0.07023041 -0.039960444 -0.12577099 0.15475282 -0.055841614 -0.066171266
-0.008821465 0.019546678 -0.01931364 -0.19490704 -0.11857461 0.005688206 -0.047486402 0.010804805
-0.05970314 0.007925407 -0.20933296 -0.0718603 0.20444237 0.05207345 -0.06023631 0.16662425
-0.00754786 0.016994193 -0.0444047 -0.032142106 -0.10241879 -0.05586041 -0.035671 -0.1609844
-0.13495986 0.25938454 -0.07399295 -0.019927038 0.26655933 -0.011540361 0.06774595 0.24098302
-0.037221294 0.187207 -0.291646 0.06484364 -0.0013992554 0.16974556 -0.13566667 -0.25549203
0.09584228 -0.1437134 -0.04854336 0.023496976 0.013906986 -0.16205424 -0.19898199 -0.06494184
-0.2353051 -0.039218355 -0.08487864 -0.08813563 -0.27450934 -0.008184721 -0.049418334 0.25861812
-0.04980895 0.07951142 -0.017955886 0.06469262 0.1830212 -0.20000719 -0.1341509 0.06215086
0.3636802 -0.061055243 -0.045847394 0.15271236 0.015940448 -0.1283029 0.12711933 0.013203791
0.08751966 -0.00449169 -0.14410222 0.17726058 0.10339604 0.08926854 -0.037892707 0.16553773
0.0140105 -0.056832105 0.27826795 -0.31672266 0.13294141 0.026252765 0.0031413806 0.0052241986
0.02875163 -0.053802572 0.0025862616 -0.39408407 0.23088063 -0.005583204 -0.25698233 -0.2082236
-0.1156041 0.072344035 0.010870145 -0.04857711 -0.14313993 0.00044639234 -0.0016616484 -0.17775777
-0.037685778 0.073216535 -0.21603289 0.10651503 0.09066794 0.089534305 0.13144256 -0.077664964
0.0428064 0.06530998 -0.011370061 0.11672293 -0.20494841 0.09383418 -0.12700425 -0.06732918
0.04854081 -0.26456162 0.05144013 0.05566185 -0.1639544 -0.338675 -0.16200355 0.24353658
-0.16474491 -0.042704955 -0.0016662551 -0.07623851 -0.03786446 -0.16546057 -0.061992917 -0.0064241486
-0.25885814 -0.2056586 0.09625358 -0.060474064 -0.17562467 0.33695912 -0.2914274 -0.07433133
-0.21162675 -0.01451328 -0.025705365 -0.35172662 -0.13765346 0.2669472 -0.050522983 0.074362025
-0.11128154 -0.15809406 0.17685845 -0.010539205 -0.11183783 -0.18810785 -0.10050013 -0.13888387
0.09326787 -0.10994807 -0.029689366 0.11559099 -0.15432456 -0.0054713897 0.24262068 -0.01622662
0.15641227 -0.27919707 0.04123428 -0.019743806 -0.07932405 -0.11117462 -0.10598178 -0.18047626
-0.0474796 -0.26861626 -0.08014257 -0.020807106 -0.09138445 0.34441733 -0.002644263 0.32003847
-0.19083488 -0.32143098 0.095803894 -0.008957764 -0.15613024 0.024414768 0.06671135 -0.06564673
0.024737515 -0.19428788 -0.30211222 0.05806563 -0.028065829 0.17457487 0.08079523 -0.01638384
0.35324058 0.079045385 0.018525776 0.20479791 -0.2814694 0.15810685 0.087991536 0.13268632
-0.08799172 -0.15230481 -0.07157958 -0.15739672 -0.1274109 0.21403043 -0.0068597086 0.073194265

a2c_network.actor_mlp.2.bias f4 [128]
00000000: 0616 0dbe 8cc6 26bd 327a 88bd 2b67 1dbe
00000010: 7c70 fabd 71a6 f7bd 6a32 2bbe c334 44be
00000020: 755a 193e c555 d2bd e6b2 0b3e f9d0 09bc
00000030: 9983 27be 4962 16be 6f35 eabd 8d24 9fbd
00000040: 2e65 5fbe 6b49 0d3e a827 a5bd 8f65 f4bd
00000050: 26ec b4bd 1155 04be fb91 85bb efb6 abbd
00000060: aca3 a23d 0e74 bcbd 7447 f63c 24d5 4cbe
00000070: 2d87 27be f457 0bbe 787b e3bd e1d7 ecbd
00000080: 6767 cdbd 59da ce3d 7dd5 b13c 1c51 54bd
00000090: 6d5b 1fbe a5e2 f9bd 7a81 493d 5059 1ebd
000000a0: d14d 68bc 45a6 01be bbfe 80bd a958 9abe
000000b0: 5bc4 663e 5492 eb3d 5b9c aa3d 13a0 953e
000000c0: c57e 5bbe 49d3 24be 2af0 7fbe bac5 6abd
000000d0: defe 473c cd99 75be 90db cd3d ab17 f2bd
000000e0: c964 3dbe 331c 2abe 17af e53b 8904 7cbd
000000f0: 3aa6 31be ccee 25bd 58ce debc 58f6 113e
00000100: a454 e53c bfd8 bebd ee15 2c3d e7f1 7bbd
00000110: eb39 4ebd a11d a7bd 5fe2 0abe 16d8 a4bd
00000120: 79cb b1bc 3161 313d 8f03 26be 634b 233d
00000130: a213 91bd c6d7 c83c d182 4ebd 994a 15be
00000140: 5c8b b5bd ad60 59be 5032 8cbe 82d3 a4bc
00000150: e1f1 05be d592 66be 544c a3bd b46e e2bd
00000160: 4065 2e3e 4672 babb 1cbe 33be e8f6 fd3c
00000170: 78cd a13a 2c58 83bd 9999 92be 77fc 553e
00000180: 24c3 223e b8be a63d 0975 03be 7e8b b43d
00000190: 982c b4bd c13d ad3d a110 e7bd 9af2 203d
000001a0: 2969 6dbb 2361 523e 8206 85be 8e39 31be
000001b0: 187d 82bd c55d ebbc 8308 0e3d 9747 d43d
000001c0: f832 3fbe 6aa9 4cbb 7513 a3be 2f5e aabd
000001d0: 952a ea3c c210 803e 7184 9ebd f630 08bd
000001e0: 2ce8 dd3d 9a1e e93d 5656 2cbe 2fda 733e
000001f0: 4fa1 d4bd ebed 7bbe 801b b73d 6b8b 7e3d
-0.13777933 -0.040716693 -0.06663932 -0.15371387 -0.12228486 -0.12092293 -0.1671845 -0.19160752
0.14975913 -0.102702655 0.13642463 -0.008411639 -0.16358794 -0.1468593 -0.11435973 -0.077706434
-0.2181594 0.13797538 -0.080642045 -0.11933433 -0.08834104 -0.12923075 -0.00407624 -0.08384501
0.07941374 -0.09201823 0.030063368 -0.20003182 -0.16360159 -0.1360777 -0.11107534 -0.11564613
-0.10029488 0.1010024 0.021708244 -0.051835164 -0.1556222 -0.12201432 0.049195744 -0.038659394
-0.014178709 -0.12661083 -0.06298586 -0.30145767 0.22535841 0.11502519 0.08330604 0.2922369
-0.21435077 -0.16096224 -0.24993959 -0.057317473 0.012206761 -0.23984452 0.10051644 -0.118209206
-0.18495478 -0.1661232 0.0070093977 -0.061527763 -0.17348567 -0.040510938 -0.027198002 0.14254129
0.027994461 -0.09318685 0.0420131 -0.061509993 -0.050348204 -0.08159948 -0.13562916 -0.080490276
-0.021703469 0.04330558 -0.16212295 0.039866816 -0.07083823 0.024516951 -0.050417725 -0.14579238
-0.08864471 -0.21228285 -0.27382135 -0.020120386 -0.1308055 -0.2251695 -0.07973543 -0.11056271
0.17030811 -0.005689892 -0.1755299 0.031001523 0.001234456 -0.06413302 -0.2863281 0.20897089
0.15894753 0.081418455 -0.12837614 0.088156685 -0.08797568 0.08459044 -0.112824686 0.039293863
-0.003622601 0.20544867 -0.25981528 -0.17307112 -0.06371516 -0.028731236 0.034676086 0.10365217
-0.18671787 -0.0031228908 -0.31850782 -0.08318745 0.028584758 0.25012785 -0.07740105 -0.033249818
0.10835299 0.1138279 -0.1682981 0.23813699 -0.1038233 -0.24602477 0.08940792 0.062144678

a2c_network.actor_mlp.4.weight f4 [128, 128]
00000000: e2d1 b63d 67c8 d3bc 5f71 13bd fc21 303d
00000010: 2e69 403d 0e70 9bbd 9ad8 fdbd 5224 b13d
00000020: 03e2 10bd c07a 11be 83ff 1abd 19d2 43be
00000030: f8df bb3c 330c c4bc 80ed acbd 4e82 1fbe
00000040: b8b0 89bc c106 303c 7b87 03bd 09ab 29be
00000050: b237 713d b829 8b3d 32ab 2ebd 5683 92bd
00000060: 82e0 40be 6cf1 69bd 9923 163e c96f 8dbe
00000070: f1a4 2ebc bc0c f5bd e42e 96bc 782d 92bc
00000080: 114a 443d 6c37 97bd 9456 81bd f4b2 593d
00000090: e2ef 9abc 349d 0c3c 75d1 5c3d ab12 e6bd
000000a0: ee80 b0bd f7c6 66bd badb e2bd d9fe b2bd
000000b0: 9e53 1f3e 6726 6bbd ee6f 3cbe ea8b 113e
000000c0: 1722 ea3d 0cfd cdbd f979 d6bd 4239 e6bc
000000d0: 0154 81bc 8790 ad3d c27f debd 23b2 9f3d
000000e0: b14a 19be 823c 3b3d 1592 81bd 1b6a a93c
000000f0: f365 0abd 4db7 9c3d c663 c93d be27 253d
00000100: c749 51bd f293 503e 46a7 11be f4c2 e8bd
00000110: d9e8 093e e3eb 563d d0b5 1b3e c7b7 b23d
00000120: ff3d a83c 273e d63c a021 8f3d 66c7 aabd
00000130: 2ba6 3bbd b3d6 5d3e 57e6 91bc be0c 813d
00000140: 7e39 0d3d 913a dbbd 4260 0abb 3474 c13d
00000150: b60f b03d 7079 68bd fca6 17be 61bd 39bd
00000160: d891 27bd f00c 6dbd 3cb5 0e3d 3e61 02bd
00000170: 882b f13d 03e4 04bd e524 45bc 4f2e 473d
00000180: 24f6 223d 3683 58be 0f32 23bd 0d70 68bb
00000190: fb75 7dbd ace0 ad3d c231 d4bd 071c 2cbe
000001a0: 423d 6d3d ac2f 1dbc 8127 8cbe fe42 3ebe
000001b0: 7e90 2d3d f4df 58be 4801 b63a 9ca6 56be
000001c0: f181 c33d 0dfc 773c e813 34be ebb7 8bbd
000001d0: 2334 7fbc d75c 1bbe b4b4 bf3d 295e 5ebd
000001e0: ac27 4dbd af92 1fbd 0a08 02bd 30b5 24bd
000001f0: 2b30 d03c 7d2c a73c 38cc 10bd 2f62 43be
00000200: 0819 31be 3177 cbbd a80f dbb9 4dc3 6b3d
00000210: 95ad 93bd a168 1ebe 184d cebc 3f7a c83d
00000220: 097c 0ebe f3ee 6fbe 1623 6dbd beb7 0d3e
00000230: 54d9 edbd 78c0 8abd e662 da3d 0aec 8f3d
00000240: d831 26bd 7359 a5bc 18b9 34be 68d2 fe3d
00000250: b19b 8ebe a516 55bd 7437 003d 9de7 b23b
00000260: 4247 88bd 68f6 6abd fd5b 39bd 0ed3 903d
00000270: 1fcf 57bd 1bce 683d 5859 9dbd 0518 ff3d
00000280: 884f bdbe 0791 6ebe 6d66 98be 49b9 b53d
00000290: c5c9 4dbe 4f67 ee3d 8baa 64be 4c12 2dbe
000002a0: 1840 113d a106 693d 1443 ebbc 91a2 d93d
000002b0: 743c cdbb 25de 52bd fba0 abbd cb95 56bd
000002c0: 5efa 973d 388e a53b 6598 903d 6820 8b3d
000002d0: 0697 89bd e36b 243e b69a 9cbd 011e c4bd
000002e0: 2840 0fbe c812 e3bc 5596 0e3d 4ada 2dbe
000002f0: 2054 bfbd 5d0c bc3d 8212 303d ac93 b7bd
00000300: d847 31be b4b2 53bc b3ea 4dbe 7745 333d
00000310: 001d 9abd 6a1f 77bc 118f 9fbc 063a dbbc
00000320: 23da 31bd 1cef 48be 49b5 283e 975e 423e
00000330: 900f 703e 50f3 ecbd fc4d 973c 236b 243e
00000340: 3d1b e23d 2d6d dd3d d390 163e 5919 77be
00000350: e508 433e 1ca0 883e 4404 023e 10d6 203e
00000360: 919b 033e 295f 843e b1b4 a43d 0ffc 2dbe
00000370: 5741 25be 3620 c7bd 29e6 de3d 1e1f d5bd
00000380: 6c58 58be a1de 49be c0a7 3dbc f6f5 8c3d
00000390: c15d 093e 559a 17bd 5f6b 0a3d ffbb 92bd
000003a0: 373d 65bc 20e9 64bd 41bf 593d 28e9 d0bd
000003b0: 4b70 49be 6adf 9dbd d3b4 a7bd 2c5e 50bd
000003c0: 6aa9 47be 3377 6f3e 7dfd 383e bf8e 0f3e
000003d0: 78df 83bd 13bc 643d a50e 2e3e a0b4 43bd
000003e0: fc6d 41be 4467 31bd 9f06 2abe edde 23be
000003f0: 7e07 20be 3c34 0f3e ee0c 6cbe 91c9 363e
0.08926751 -0.025852395 -0.03599679 0.04300116 0.046975307 -0.07589732 -0.12394829 0.08649506
-0.03537179 -0.14206982 -0.03784133 -0.19123115 0.022933945 -0.023931598 -0.08443737 -0.15577051
-0.016807899 0.010743798 -0.032111626 -0.16569151 0.058891006 0.067950666 -0.042643733 -0.071539566
-0.18835643 -0.057115003 0.14662017 -0.27624348 -0.010659442 -0.119653195 -0.018332906 -0.017843947
0.047922198 -0.07383618 -0.063153416 0.05314918 -0.018913213 0.008582402 0.05391069 -0.112340294
-0.086183414 -0.05634209 -0.11077066 -0.087400146 0.15559241 -0.05740967 -0.18402073 0.14213529
0.11432283 -0.100580305 -0.10472483 -0.028103475 -0.015787126 0.08474832 -0.108642116 0.07797649
-0.14969899 0.045712 -0.06326691 0.020680478 -0.033788633 0.07652149 0.098334834 0.040321104
-0.05109575 0.20368937 -0.14223966 -0.11365309 0.1346773 0.052471053 0.15206075 0.08726459
0.020537375 0.026152683 0.06988835 -0.083388135 -0.045812767 0.21663933 -0.01781003 0.063012585
0.034478657 -0.1070453 -0.0021114503 0.09445992 0.085967466 -0.056756437 -0.14809793 -0.04534662
-0.04091057 -0.057873666 0.034840807 -0.03183102 0.11775881 -0.03244401 -0.012032722 0.048628148
0.03978552 -0.21143803 -0.03984266 -0.0035467178 -0.061880093 0.084901184 -0.10361053 -0.16807567
0.057919748 -0.009593885 -0.2737389 -0.18580243 0.042374127 -0.21179181 0.001388588 -0.20961994
0.09546269 0.015135777 -0.17585719 -0.06822189 -0.015576395 -0.15172134 0.09360638 -0.054289017
-0.050086662 -0.038958248 -0.031745948 -0.040211856 0.025413593 0.020406956 -0.03535101 -0.19080423
-0.17294705 -0.09934843 -0.000417826 0.0575593 -0.072108425 -0.154696 -0.025183246 0.097889416
-0.13914503 -0.23430996 -0.05789479 0.13839623 -0.11613718 -0.06774992 0.10663395 0.07027443
-0.04057488 -0.020184254 -0.17648733 0.124424756 -0.27853158 -0.05202355 0.031302884 0.0054597394
-0.06654216 -0.057363898 -0.045253742 0.070715055 -0.05268776 0.056837182 -0.076830566 0.12455753
-0.3697474 -0.23297511 -0.29765645 0.08873231 -0.200965 0.11640798 -0.22330682 -0.16901511
0.035461515 0.056891087 -0.028718509 0.1062671 -0.00626331 -0.051481385 -0.08380314 -0.052388947
0.074208006 0.005052354 0.07060317 0.067932904 -0.067182586 0.1605678 -0.07646696 -0.09576035
-0.13989317 -0.027718917 0.034811337 -0.16977802 -0.093422174 0.091820456 0.0429864 -0.08963713
-0.17312562 -0.012921024 -0.20109062 0.04376742 -0.075250626 -0.015083173 -0.019477399 -0.026761066
-0.043420922 -0.19622463 0.16475405 0.18981396 0.23443437 -0.11569846 0.018469803 0.16056494
0.110403515 0.10811839 0.14703684 -0.24130763 0.19046362 0.26684654 0.1269694 0.15706658
0.12852313 0.2585385 0.08042277 -0.16990684 -0.16138206 -0.097229406 0.10883743 -0.10406326
-0.2112748 -0.19713832 -0.011575639 0.06882851 0.1341467 -0.037012417 0.033793803 -0.07164764
-0.013991646 -0.055886388 0.05316091 -0.10200721 -0.19671743 -0.077086285 -0.08188786 -0.05087106
-0.1949822 0.23385315 0.18065448 0.14019297 -0.06439108 0.055843424 0.16997774 -0.04777968
-0.18889612 -0.043311372 -0.16604088 -0.16003008 -0.15627858 0.1398477 -0.23051807 0.17850329

a2c_network.actor_mlp.4.bias f4 [128]
00000000: 83e8 d53d abfa 72be c395 01bd 8843 af3d
00000010: 83a4 b23c 71cf 44bd 92c3 223d ec2e 00be
00000020: e087 a0be 6ce3 5cbe f6ee dfbd 9cb0 0439
00000030: 2d4b fe3c 69f2 2cbe cca9 2e3c 21ad 383d
00000040: e59c da3c b0c4 75bc f1ed 083d ae1b 2fbe
00000050: 602c e6bd 5de9 c3be 7e46 d4bd 1d9d f6bd
00000060: 5462 d33d 3d48 09be 69d2 a4bc e126 353d
00000070: 2132 45bd c2d8 dbbd a87e d2bd 6c7f 84be
00000080: 9248 b6bd 1d63 0b3d c36b ebbd 8033 66bd
00000090: 399d 0cbe 6b50 00be ce52 18be 6ed9 d93d
000000a0: cf24 82be da4c a8bb c8db 50be ea4f d5bb
000000b0: d374 aebc 10c7 eabc 3e45 4a3d 1466 93bd
000000c0: f57c 0cbd eea8 1abe 93ee f33d 9fdf 923d
000000d0: c8f0 9abd 124c cd3d 354e 0fbe 1d20 343d
000000e0: 2ff1 01be 2eef 37be 4405 cdbb c620 01be
000000f0: 9151 eaba d722 2abe 3025 423d 5f34 16be
00000100: fb23 d03d 29a9 bebd a060 0cbd f252 95be
00000110: 4484 a13c 53d5 733c 2f5e 85be 40d1 e83d
00000120: f319 263d 0a7e b93d 378e d43d 9e33 8abe
00000130: 40f4 00be c625 7ebe d934 523d 20d3 e1bd
00000140: b6f5 b0bd 0c84 45be 6c54 ccbd 85c1 ca3d
00000150: 7e13 86be 66f5 7dbe e1df 963b 3a93 c1bd
00000160: 74be 8d3d b83a 463d ec85 863d d913 1a3d
00000170: e1f0 b5be 1116 a53d 425c 2d3d 2ff8 a93d
00000180: 32cc af3c 652d 5bbe 4eb3 043e 6c14 38be
00000190: 8f72 8fbe cc42 9fbc 39eb 243d ecfb 2abe
000001a0: 5733 30be a50c 3cbe 52b5 19be 7aaf c93c
000001b0: c5f9 26bc 7933 36be 2f5e 55be 1547 0e3e
000001c0: d957 c3bc f25f 8e3d 8f51 2ebe 3b30 913d
000001d0: 4865 9c3d 30dd 54be 76af 27be d9bf 153e
000001e0: 7070 50be 07be 84bd 6779 7d3c 0264 db3d
000001f0: 559e 673d 35b1 12be 5806 c4bc a9b7 40be
0.10444739 -0.23728435 -0.031636965 0.085578024 0.02180696 -0.048049394 0.03973729 -0.125179
-0.31353664 -0.2157113 -0.1093425 0.00012654293 0.031041706 -0.16889347 0.0106606 0.045086984
0.026686141 -0.015000507 0.033430044 -0.17100403 -0.112389326 -0.3826398 -0.10365008 -0.12041686
0.10321489 -0.13406463 -0.020119863 0.04422653 -0.04814351 -0.10734703 -0.10278064 -0.25878465
-0.089005604 0.03403007 -0.11495163 -0.056201458 -0.1373185 -0.12530677 -0.14875337 0.106371745
-0.25418708 -0.0051361145 -0.2039634 -0.0065097706 -0.02129594 -0.028659374 0.04938244 -0.07197204
-0.034298856 -0.15103504 0.11910739 0.071715586 -0.07565457 0.10024275 -0.13994677 0.043975938
-0.1268966 -0.17962334 -0.006256731 -0.12610158 -0.0017877092 -0.16614853 0.047398746 -0.14668415
0.10163113 -0.093096085 -0.034271836 -0.29164845 0.01971639 0.014882403 -0.2604842 0.11368036
0.04055209 0.09057243 0.10378688 -0.26992506 -0.12593174 -0.24819097 0.05131993 -0.11026597
-0.08640616 -0.19288653 -0.0997704 0.09900192 -0.26186746 -0.24800643 0.004604325 -0.09451909
0.06921092 0.048395842 0.06568512 0.037616584 -0.3553534 0.080608495 0.042324312 0.082992904
0.021459673 -0.21404035 0.12959024 -0.1797654 -0.2801709 -0.01944103 0.04026339 -0.16697663
-0.17207085 -0.18364199 -0.15010574 0.024619807 -0.010191386 -0.17793073 -0.2083671 0.13894303
-0.0238456 0.06951894 -0.170233 0.07089277 0.07636505 -0.20787501 -0.16375527 0.14623965
-0.20355392 -0.06481557 0.015470839 0.10712434 0.05654748 -0.14325412 -0.023928806 -0.18820061

a2c_network.value.weight f4 [1, 128]
00000000: a052 c3bb 11ce 7c3c 117e 80bd ca15 00bc
00000010: fc45 023d bda7 b7ba 0483 ba3c b93c 613c
00000020: 88c9 87bd c6c2 dbbc 786e 653c f069 12be
00000030: bd7a 533c d63e c83c 74b6 08bc a6ca bebb
00000040: d313 8abc 0e1e 66bc a7df a6bc f0d7 e03c
00000050: dd80 b53c a179 8fbe d1bc 933a d7fb 173c
00000060: 265f 0bbe 8f8c 08ba 36b6 26bc 68a3 7abc
00000070: 3061 4fbb 8b57 393c 8c03 1d3d 6a5e dcbd
00000080: 999d e23c 4871 153d 09eb 0f3c 1046 3d3c
00000090: 62f1 c23d 992b 20bd a585 893b 41df 78bd
000000a0: defe c8bc b443 703c a170 933b ecdd 843b
000000b0: 9709 91bb f199 1ebd da3e a63b 867e e1be
000000c0: 7318 8abc 9cc8 35bd 4990 863b 7543 ca3c
000000d0: 1187 b9bc 2536 cfbb ad69 a5bc 01e3 febb
000000e0: 6aca 693b 1110 79bd 1d82 9f3d ae7b c0bb
000000f0: 2b52 593c c9eb a1bb 2409 603c a403 ee3b
00000100: 3e20 a33d 6985 c43c 8fed 0f3c 19fc c0bb
00000110: 66fd 89bb 0c72 d2bd afe0 9e3c c766 28bd
00000120: 315b 19bd 39db 793d ac23 77bb bf21 a1bd
00000130: e7cc d93b 0d90 4bbe 7ebe 32bd f939 2abc
00000140: 4e0f b63a bcd5 d7bc 5572 e93b 3de8 f6bc
00000150: 7199 8d3b d54f d53c bc0f 80bc f884 a7bc
00000160: 3973 f2ba 3485 c2ba 66f7 973b d161 07bd
00000170: 6d61 58be bcc7 0dbc 2c2c c13b 4c6a 543c
00000180: c539 01bd ef29 f4ba 72af 893d 289f 563b
00000190: d156 a93c 7da8 26bc 1842 d53a c5ea b0bc
000001a0: 7662 cdbc 8ebb 94bc 8b8a b7bb 1879 273d
000001b0: d50c 59bc 5431 b13d 9a95 5c3e 6bdc cebc
000001c0: 7afb bebc d055 debc bd83 bbb9 d402 cabc
000001d0: 9957 d03d d5ec 3d3c 46a5 bd3c 0993 a2bc
000001e0: 9ac8 d5bd 88b8 423c f89a 9f3c 48ef 293c
000001f0: 04a2 8f3d 18a1 b03b cc49 b13a 8b1b ed3c
-0.0059607774 0.015429989 -0.06274045 -0.007817695 0.031805024 -0.0014011782 0.022767551 0.013747388
-0.06630236 -0.026826274 0.014003389 -0.14298224 0.012907681 0.024444025 -0.008344281 -0.0058224974
-0.016855156 -0.0140452515 -0.020370318 0.027446717 0.022156173 -0.28022483 0.0011271482 0.009276352
-0.13610515 -0.0005208933 -0.010175278 -0.015297748 -0.0031643622 0.011312376 0.03833346 -0.107601956
0.027663039 0.036484987 0.008784064 0.011552349 0.09518696 -0.039104078 0.00419684 -0.060759787
-0.024535593 0.014664579 0.0044995104 0.0040547755 -0.004426192 -0.03872103 0.0050734105 -0.44041842
-0.016857361 -0.04438077 0.0041065556 0.02469037 -0.022647412 -0.006323593 -0.020191992 -0.007778526
0.0035673627 -0.060806338 0.07788489 -0.005874119 0.013264219 -0.004941438 0.013674054 0.0072636176
0.07965134 0.023989396 0.008784666 -0.0058894274 -0.0042111157 -0.10275659 0.019394247 -0.04111364
-0.037440483 0.061000083 -0.003771047 -0.07867765 0.0066467407 -0.1987917 -0.0436387 -0.010389798
0.0013890059 -0.026347034 0.007124225 -0.030140037 0.00432127 0.026039043 -0.015632503 -0.020449147
-0.0018497474 -0.0014840723 0.0046376465 -0.03305227 -0.21130915 -0.008653577 0.0058951583 0.012964796
-0.031549234 -0.001862822 0.06722917 0.0032748673 0.02067128 -0.010172007 0.0016270308 -0.021596322
-0.025071364 -0.01815584 -0.0056012324 0.04088697 -0.013247688 0.08651987 0.21541443 -0.025251588
-0.023313273 -0.027140528 -0.00035765572 -0.024659552 0.10172958 0.01159211 0.023150098 -0.019845502
-0.10438652 0.011884816 0.019483075 0.0103719905 0.07013324 0.0053902976 0.0013526022 0.028943798

a2c_network.mu.weight f4 [18, 128]
00000000: a24c 463e d584 72bc 4c79 533e 34e5 973c
00000010: 3e53 3b3d 9ace 35bd e6d6 ab3d 798a b5bc
00000020: e07f 58be 1afe 60bc 185e 25be d9bc 1e3d
00000030: 5ca8 78bb ba6c 77bc fa2a d4bd 1d64 fbbd
00000040: fb2a 223d fff3 15be e55e 17be 031d 78be
00000050: a29c 75bd cab9 dfbd 89ad c73d e3f6 16bc
00000060: 2130 1b3d aed6 10be effd cfbd c1e2 96bd
00000070: 3493 953d 4d30 ed3b 4125 423d 48ab 00bd
00000080: 3cb0 6b3d 8eb4 33b9 931b 12ba fbfa b73c
00000090: 2a45 d83d 33d3 08be 87cf 34be b765 a7bd
000000a0: a8a1 643e 34f8 153d 9212 3cbe 08be 84be
000000b0: cf75 373e 256c 9bbd b20c 99bc b277 93bc
000000c0: 14ef 54bd eaaa a03d 22ff 043e d54e 46bd
000000d0: 8dc5 ffbd 281d 8ebe 1334 cf3d 0e34 1b3e
000000e0: 4fcd a4bd c9ed cb3d 1a56 af3d 19c4 6b3b
000000f0: 8ddb 263d 45ad 7c3e b176 093e bbe9 e73b
00000100: 54e2 b73b 624c 86be 624a 443e a04e f33c
00000110: 7eff e93d 2c85 ef3c 3bc0 073d 5412 d53d
00000120: 071c 1dbe 3909 9c3d fca5 0d3d 3f36 0e3d
00000130: be71 013d 1c30 e1bd 85ca 2c3d 9ec7 b9bd
00000140: b4e9 11be e361 263b c2f9 233e f551 a0bd
00000150: 3905 813e 94aa d53d c936 2a3c 8706 6e3c
00000160: 3bac 85bd 6e3c 763d 8459 5abe 0f33 6e3d
00000170: fa2d 923c 0d03 b03d 7682 86bd 4abd 6dbc
00000180: dfe9 23bd 8c49 083d d880 13be 3ea3 c53b
00000190: ee51 4cbd 6257 0c3e cab0 0a3e 1618 5dbd
000001a0: 9844 a53c 365f d93d 9333 99bd 5eae 37be
000001b0: 5815 033d 5c8e e9bd 9420 86bc 143a febd
000001c0: 86dd 52bd 1630 83bd 03fc ecbc 2a0e 943d
000001d0: bce3 5abd 7e8d a7bd 5bcd 33be f122 f03d
000001e0: 1ab9 443d f456 71be 7b1c 08bd 4c34 90bd
000001f0: 65fb a43d cc51 f3bd e900 8d3d a877 0bbd
00000200: 2d6a 98bd 59a5 f3bc 5bb0 7bbd ba5f 9c3d
00000210: 1582 72bc 369a 8cbb 4de3 ea3c 9b2f a53d
00000220: 9090 5b3d bc4d 0cbe 0dc5 ab3d 3949 23ba
00000230: 05d0 e4bd ba36 ee3c d232 81bc 77fd 29bd
00000240: 08f5 a23d e576 5d3d 973e 943c f5e5 c73d
00000250: 7e16 a23c e0a8 9fbd 3c7c 7b3c 05db 823d
00000260: 3383 a0bd 64c9 17be 633f 303d e65d eabc
00000270: 1192 c2bd e83b bcbd 01c4 d1bd 02c2 013d
00000280: 99bc a8bc f307 57bd e51f 81be 727e 89bd
00000290: d7e9 273d fbe5 8abd 2d22 ce3d 210d 13bc
000002a0: b5c0 033e af81 9bbd 1cdf c03d 7548 c13d
000002b0: bd0f 4abd ba6c 85bc 4f39 0c3c 49f7 21bc
000002c0: 6f95 c7bd addd 303d 69d1 d03d 5171 9fbd
000002d0: 5f26 483d 9136 65bc d10e c1bd fedb 913d
000002e0: e207 82bd 857f 87bd abab 94bd b678 963d
000002f0: 641c a23d 2d3e 863d ae28 c3b9 e1fa 43bd
00000300: 59c3 15bd 1061 41bd 8a00 b9bd e7dc 01bd
00000310: a610 b33d 2cdc 8a3d 1b92 3f3d 2170 46bd
00000320: ef7b 6cbd 8e22 32bd 94da 8f3d 3065 023e
00000330: 71f7 a8bd 0369 31bd f3a2 0b3e ec03 01be
00000340: c86e 1a3e fc1c bc3d 0819 2bbe d877 3e3e
00000350: 42d1 023d 9a29 89be 1cb3 e3bd 1889 0cbd
00000360: 2ef9 973d 9db4 acbd 3b8c a63d cfb0 e2bd
00000370: 4c16 c2bc c53c 913d 1f73 c23d fc14 9cbd
00000380: 0cba b53d 312b 91be 85c5 1abd 8933 1ebe
00000390: 1171 44be ab2b 943c a993 c93d 7797 f63d
000003a0: 94c3 af3d cc07 3d3c 33ee b63b fb57 1f3e
000003b0: a11c dcbd 307d 0abe dfe3 133e fe6a bb3d
000003c0: 7589 ecbd 3ef2 a6bd fec9 443b 48e3 b83d
000003d0: 378f d63c 8e32 e83d da59 01be aaa8 9abd
000003e0: 9e50 753c f365 07bd 4604 ae3d b763 d9bd
000003f0: ceee 1b3d 9dcc 6c3c 8803 ba3d f829 8b3c
0.1936517 -0.014802177 0.2065174 0.01854191 0.045733683 -0.044386484 0.08390598 -0.022160755
-0.2114253 -0.0137324575 -0.16149175 0.038754318 -0.0037942147 -0.015101606 -0.1035976 -0.122749545
0.03959177 -0.14643858 -0.14782293 -0.24229817 -0.05996383 -0.10924108 0.09749896 -0.009214136
0.037887696 -0.14144394 -0.10155856 -0.073674686 0.073034674 0.007238424 0.04739881 -0.031413347
0.057541117 -0.00017138032 -0.0005573567 0.022458544 0.10560067 -0.13361816 -0.1765729 -0.081736974
0.22327292 0.036613658 -0.18366459 -0.25926232 0.17916034 -0.07588986 -0.018682811 -0.018001411
-0.051985815 0.07845099 0.1298795 -0.048415024 -0.12488852 -0.2775662 0.10117354 0.15156576
-0.08046972 0.09957463 0.085613444 0.0035975038 0.040736724 0.24675472 0.13424183 0.0070774234
0.005611697 -0.2623015 0.19169 0.029700577 0.114256844 0.029238306 0.03314231 0.104038864
-0.15342723 0.076189466 0.034582123 0.0347197 0.031602614 -0.10995504 0.042185325 -0.09071277
-0.14249307 0.0025387935 0.16013244 -0.07828132 0.25199297 0.10432926 0.010389038 0.014527923
-0.06526991 0.060116224 -0.2132321 0.058154162 0.017844189 0.08594332 -0.06567852 -0.014510462
-0.04001796 0.033273265 -0.14404619 0.006031423 -0.04988282 0.13705209 0.13544002 -0.05397805
0.02017431 0.10613863 -0.0748054 -0.1793761 0.032002777 -0.11404106 -0.016372956 -0.12413421
-0.051480792 -0.06405656 -0.028928762 0.07229264 -0.05343984 -0.08181284 -0.17558806 0.117254145
0.04802809 -0.23568326 -0.033230286 -0.07041225 0.08055762 -0.11880836 0.06884939 -0.03404966
-0.074421264 -0.02974193 -0.061447483 0.07635446 -0.014801522 -0.0042908443 0.028672839 0.08065721
0.053604662 -0.13701528 0.08387194 -0.00062288676 -0.11172489 0.02907883 -0.015771303 -0.04150149
0.07956892 0.054068465 0.018096251 0.09760658 0.019786116 -0.07795882 0.015349444 0.06389431
-0.07837524 -0.14822918 0.0430292 -0.028609227 -0.09500516 -0.09191114 -0.10242463 0.03167916
-0.020597743 -0.052497815 -0.25219646 -0.06713571 0.04099449 -0.067821465 0.10065112 -0.008975298
0.1286648 -0.075930946 0.09417555 0.09437648 -0.049331415 -0.016287196 0.008558585 -0.0098856175
-0.09745299 0.043180156 0.10196192 -0.07785285 0.04886472 -0.01399006 -0.09426654 0.07122038
-0.0634916 -0.06616119 -0.072593056 0.073472425 0.07915571 0.06554828 -0.00037223607 -0.04784668
-0.03656325 -0.047211707 -0.09033306 -0.03170481 0.0874341 0.06780276 0.046770196 -0.04844678
-0.05773538 -0.043489985 0.07024112 0.12733912 -0.08250321 -0.043313038 0.13636379 -0.12599152
0.15081322 0.09185216 -0.16708767 0.18600404 0.031937845 -0.26789552 -0.11118147 -0.03431043
0.07420574 -0.08432887 0.081322156 -0.1106888 -0.023692273 0.07091669 0.09494614 -0.0762119
0.08873376 -0.28353265 -0.037786026 -0.15449347 -0.19183756 0.018087229 0.09842617 0.120406084
0.085822254 0.011537503 0.005582595 0.15560906 -0.10747648 -0.13524318 0.14442395 0.091512665
-0.11549655 -0.08151673 0.0030027623 0.090277255 0.026191337 0.113377675 -0.12631932 -0.07551701
0.014972834 -0.03305621 0.08496909 -0.10614722 0.03806954 0.0144530805 0.09082705 0.016987786

a2c_network.mu.bias f4 [18]
00000000: 8b26 1a3c 0882 7b3c ce32 1cbc 41f9 113d
00000010: 67e6 f63c 28cc 9ebd 726e ac3d a9f8 c53c
00000020: f882 bd3c 4298 bf3c 9e43 9cbd 9380 083e
00000030: 6193 01bb ab00 fc3c b96c a53d baeb a43d
00000040: aa01 323d 6097 413c
0.009408603 0.015350826 -0.009533597 0.035638098 0.030139161 -0.077537835 0.08419503 0.024166422
0.02313374 0.023388032 -0.076300845 0.13330297 -0.0019771683 0.030762037 0.08077378 0.08052774
0.04345862 0.011815876

exp_avg f4 [18]
00000000: ef1e 93ba 140d 1aba a52f eeb8 da8b 8c39
00000010: f8de 93b9 78d0 31b9 e38a e539 aa4e 2239
00000020: d780 4939 5f3c 89b9 6814 2e39 7e62 5aba
00000030: c54b ffb7 716f 47ba 6790 5cb9 cd16 aab9
00000040: 1b02 e4b9 22b5 3eb8
-0.0011224429 -0.00058765826 -0.00011357599 0.00026807078 -0.0002820415 -0.00016957696 0.00043781762 0.00015478829
0.0001921685 -0.00026175656 0.00016601535 -0.00083307165 -3.0433652e-05 -0.00076078536 -0.00021034629 -0.00032441915
-0.00043489118 -4.5468223e-05

exp_avg_sq f4 [18]
00000000: c487 1a37 bb7b 3337 0c1f 0e37 469c 1637
00000010: 87b7 1f37 d864 4537 0965 3437 e7d3 1a37
00000020: e765 2637 cc3a 1e37 c284 2a37 63fb 1f37
00000030: 8f44 2637 edf0 2d37 d7af 2f37 787b 2537
00000040: 5737 2d37 848c 3937
9.210726e-06 1.069804e-05 8.471088e-06 8.977082e-06 9.519869e-06 1.17655945e-05 1.075236e-05 9.228453e-06
9.918097e-06 9.431224e-06 1.01637e-05 9.535669e-06 9.910334e-06 1.0367698e-05 1.0471754e-05 9.863514e-06
1.0324488e-05 1.1059576e-05

exp_avg f4 [128, 66]
00000000: 4da4 55b9 bdaf 2437 82f0 1d38 fc76 52b9
00000010: 7ce4 c438 8f27 e8b8 407b 0338 24e1 e3b4
00000020: 8cdc 8a39 3c35 85b9 7d38 1039 9c87 dcb8
00000030: 9d71 5038 0c7b dfb7 ca25 deb7 3e79 7637
00000040: d992 06b8 d9ee c1b6 1d69 6a37 181a 1238
00000050: a25c 5437 a43d 7bb8 c342 52b8 39b3 2db8
00000060: 81fb 8eb8 a8aa 02b9 54d7 39b8 e0c6 e338
00000070: c264 aa38 a546 e138 35d6 59b9 39b2 2139
00000080: 8ea2 3c39 65d0 b839 2493 cab9 f84f d239
00000090: c229 8339 83a4 b8b9 eb96 5e38 a9e2 8e38
000000a0: 6783 02b9 c9ee 6637 43a3 bfb9 bab8 05b9
000000b0: 8a05 d639 e56a b0b8 b2f6 da39 6c27 1739
000000c0: af93 9339 d873 5cb9 84e1 c738 5338 1839
000000d0: 4056 bdb9 b79e 1e39 0d74 9639 e959 c239
000000e0: b181 9238 57f4 7db9 4910 c9b8 5670 a0b8
000000f0: fbdf 6eb9 7b44 8eb9 0a19 61b9 1fb4 9036
00000100: b7d0 f239 f2ae f539 4985 8639 2b50 12b6
00000110: db65 1f36 e554 22b9 ba3b 57b9 7016 5c39
00000120: 61f9 07b8 ce12 9637 75f4 4439 d3f9 6c39
00000130: eafa 79b8 9f1d 7939 52b4 7ab8 0239 9338
00000140: 5930 95b7 f20d be37 d4be c6b7 4e37 1638
00000150: 3b18 43b8 7062 8eb8 d68e 96b8 749f c937
00000160: d719 cc37 1f4b aab7 3cc7 f938 37b4 9e38
00000170: d38f 1639 7f6e f0b8 407e 33b8 ab33 5db8
00000180: b60e dfb9 64fa 743a d63b 00bb 2429 8f3a
00000190: c54d d8b8 fb05 1fba aca0 aeb8 787c 3a39
000001a0: 656d 02b9 dc75 5d3a 273f 1a3a 9605 7839
000001b0: d2eb ccb9 ed09 9237 d496 6c3a e914 f7ba
000001c0: 52cb 873a b98c 05ba fe86 07ba 6a3e 3a3a
000001d0: 70a9 01ba 9876 9a39 3583 fab8 3f92 6e37
000001e0: 4c41 bab9 2d21 aab9 8463 47b8 7f4d e039
000001f0: 04c8 8539 859a 76b8 0968 2d3a 0c28 cf38
00000200: 4ba4 c739 0aa5 40ba 1b82 13b9 8e0a 20b9
00000210: 439a f338 5d40 b338 2fcb 1eb7 b51e 9db8
00000220: 4cff 0438 d3f7 7c38 408c 04b6 e534 ca34
00000230: dd7e 8db9 364a 8238 52ee 1939 09fd 6439
00000240: 0552 8b36 5fa8 7e37 cb5a 07b6 1085 0137
00000250: e417 e6b6 814b db35 92a0 4e37 01ac 3c37
00000260: 402f 68b7 4a4e d0b7 068b 7337 1f3d 8737
00000270: c067 0d38 06d9 2038 bd59 4838 25c8 fbb6
00000280: cc74 41b8 d7cf c036 a8fc 1bba 2eb0 0e39
00000290: 0b65 28ba ba9e 4a3a 319e 8fba 45ef 9039
000002a0: 1cac d936 0f92 f839 be02 9eb9 a2c9 9fb9
000002b0: 45a0 043a ab26 dbb9 14db 763a d1c7 1eb9
000002c0: 826c 843a 6309 f1b9 a0d4 ce38 a61b c538
000002d0: 4446 63b8 90c9 7139 e2f7 24b9 2173 8539
000002e0: c18e feb9 c7f1 1d39 da0b 8538 652f 7739
000002f0: c021 11b9 e214 9fb9 865c d438 3f01 0239
00000300: 91fb 9bb7 af0b 7139 ec11 2739 1af5 8fb9
00000310: d8f3 2438 a361 8039 113c 3a38 ee9f 4039
00000320: 6ea0 10b8 1553 2939 00a6 46b9 e921 b3b8
00000330: af2c 4bb7 af74 2fb7 887d a439 df7e 0038
00000340: 0334 1538 c260 1bb9 f50c 5636 ed40 dfb5
00000350: dc52 0cb8 6fe0 2cb8 8925 8ab7 4424 5ab8
00000360: fe2e b3b7 3ee8 60b8 7bdd 17b7 7df9 99b5
00000370: e315 4337 2801 2bb7 d4e1 4a38 539d 19b8
00000380: 9107 51b8 bd77 a936 e335 83b7 3f7a b5b8
00000390: 0358 da39 e794 05b8 3d61 383a 68ef 6fba
000003a0: 1a05 9e3a ca99 12ba e787 7d39 b92a 7db8
000003b0: 41ab c5b9 99b2 6a3a 0751 083a 05dc 9239
000003c0: c790 60b9 5bb9 9039 7711 23b9 dada 2eba
000003d0: 48d3 aeb8 5804 8839 5d44 4a38 88af d8b5
000003e0: 2260 76b9 9620 bfb9 b40e 0c39 3f9e 0dba
000003f0: c338 e7b6 e4cc 54b8 6bb4 1f39 3f6d c239
-0.0002037447 9.816079e-06 3.7655707e-05 -0.00020071486 9.388567e-05 -0.000110699904 3.134762e-05 -4.2445856e-07
0.0002648573 -0.000254074 0.00013753954 -0.00010515677 4.9696875e-05 -2.664097e-05 -2.648206e-05 1.46909715e-05
-3.2084852e-05 -5.7796537e-06 1.39719605e-05 3.4833414e-05 1.2657752e-05 -5.990047e-05 -5.013008e-05 -4.141333e-05
-6.817934e-05 -0.0001246134 -4.4307977e-05 0.00010861247 8.124999e-05 0.000107419946 -0.00020774531 0.0001542055
0.00017989633 0.0003525048 -0.0003863807 0.00040113903 0.0002501738 -0.00035217786 5.3069478e-05 6.8133064e-05
-0.00012446717 1.3764665e-05 -0.00036551998 -0.00012752684 0.00040821388 -8.412245e-05 0.00041764003 0.00014415168
0.00028148058 -0.0002102399 9.531065e-05 0.00014516832 -0.0003611315 0.0001512718 0.00028696694 0.00037069552
6.9859794e-05 -0.00024218984 -9.58746e-05 -7.650319e-05 -0.00022780888 -0.00027135373 -0.00021467 4.3125033e-06
0.00046313342 0.00046860386 0.00025657777 -2.180236e-06 2.3752134e-06 -0.0001548115 -0.00020526248 0.00020989194
-3.241876e-05 1.789015e-05 0.00018783084 0.0002259978 -5.9599908e-05 0.00023757525 -5.977258e-05 7.020125e-05
-1.7784698e-05 2.2656259e-05 -2.36923e-05 3.5814293e-05 -4.651419e-05 -6.789423e-05 -7.179163e-05 2.4035318e-05
2.4330728e-05 -2.030056e-05 0.000119103555 7.567595e-05 0.00014358693 -0.00011464673 -4.2794505e-05 -5.2738626e-05
-0.00042544835 0.00093451724 -0.0019566915 0.0010922295 -0.00010314168 -0.000606626 -8.326894e-05 0.0001778471
-0.00012438519 0.00084480434 0.0005884044 0.00023653204 -0.00039085612 1.7409178e-05 0.00090251607 -0.0018850836
0.0010360277 -0.00050945167 -0.0005169957 0.00071046373 -0.00049462076 0.00029461528 -0.00011945368 1.4219956e-05
-0.00035525335 -0.00032449645 -4.753798e-05 0.00042782348 0.0002551676 -5.8794878e-05 0.0006614929 9.8779885e-05
0.00038078646 -0.00073488115 -0.0001406748 -0.00015262721 0.000116158764 8.547374e-05 -9.464841e-06 -7.492063e-05
3.1709016e-05 6.0312286e-05 -1.975117e-06 3.7663918e-07 -0.00026988136 6.212706e-05 0.00014679998 0.00021838037
4.152071e-06 1.5178782e-05 -2.0169416e-06 7.71998e-06 -6.8573154e-06 1.6338746e-06 1.23159425e-05 1.1245721e-05
-1.3839279e-05 -2.4831988e-05 1.4516298e-05 1.6121716e-05 3.3713644e-05 3.834909e-05 4.776729e-05 -7.503683e-06
-4.612356e-05 5.7462416e-06 -0.00059504295 0.00013607807 -0.0006423748 0.00077293406 -0.0010957179 0.0002764409
6.48714e-06 0.00047411068 -0.00030138151 -0.0003047707 0.00050592824 -0.00041799745 0.00094168005 -0.00015142492
0.0010103139 -0.00045974096 9.86245e-05 9.398842e-05 -5.4186457e-05 0.00023058639 -0.00015732602 0.00025453515
-0.00048553015 0.00015062756 6.344142e-05 0.00023573411 -0.0001384085 -0.00030342402 0.000101261816 0.0001239823
-1.8594585e-05 0.00022987904 0.00015933038 -0.000274577 3.9327744e-05 0.00024486808 4.4401797e-05 0.00018370125
-3.4481687e-05 0.00016148046 -0.00018944591 -8.5417014e-05 -1.2110147e-05 -1.045798e-05 0.00031374046 3.0635736e-05
3.5572808e-05 -0.00014817997 3.1896027e-06 -1.6633691e-06 -3.345577e-05 -4.1217016e-05 -1.646836e-05 -5.2009025e-05
-2.1360345e-05 -5.3622054e-05 -9.051869e-06 -1.1471999e-06 1.1628002e-05 -1.01926635e-05 4.837087e-05 -3.6624562e-05
-4.983653e-05 5.050532e-06 -1.564151e-05 -8.653523e-05 0.00041645774 -3.1848347e-05 0.00070335326 -0.0009152801
0.0012055964 -0.00055923744 0.00024178588 -6.035969e-05 -0.00037702362 0.0008953005 0.00052000623 0.00028011217
-0.00021416238 0.0002760392 -0.00015551398 -0.00066701847 -8.336321e-05 0.00025943178 4.822422e-05 -1.614434e-06
-0.000234962 -0.00036454637 0.00013356918 -0.00054023037 -6.8909444e-06 -5.0735558e-05 0.00015230633 0.00037083958
