logs/rl_games/hexapod_flat_direct/2025-11-15_08-58-23/nn/last_hexapod_flat_direct_ep_1000_rew_47.89752.pth (torch, 545947 bytes, 33 tensors)

value_mean_std.running_mean f8 [1]
2.651725372498182
00000000: 2bd3 c6ca bb36 0540

value_mean_std.running_var f8 [1]
0.28665408601161124
00000000: 2ad1 2b61 8a58 d23f

value_mean_std.count f8 []
393216001.0
00000000: 0000 0001 0070 b741

a2c_network.sigma f4 [18]
-0.9653119 -1.329208 -1.4572363 -1.7026677 -1.4893433 -0.9941288 -0.90245366 -0.83964825
-1.093895 -1.0166886 -0.9067804 -0.94493425 -0.17587465 -0.5117663 -0.41060808 -0.34699434
-0.29270297 -0.24445716
00000000: ae1e 77bf 7d23 aabf b886 babf 04f1 d9bf
00000010: cda2 bebf 3a7f 7ebf 3407 67bf 30f3 56bf
00000020: c004 8cbf da22 82bf c322 68bf 36e7 71bf
00000030: 7c18 34be 1e03 03bf 393b d2be 3ea9 b1be
00000040: 2add 95be fa52 7abe

a2c_network.actor_mlp.0.weight f4 [128, 66]
-0.18332939 -0.072793834 0.59382975 -0.17915682 -0.06576492 0.05102109 0.26515236 0.13237159
-0.3146903 -0.4950598 -0.15173966 0.0359407 0.11737485 -0.12388103 -0.27533758 -0.30789128
0.29090306 -0.11627058 0.014946347 -0.1251482 0.047479693 -0.018878313 -0.16318057 0.058380574
-0.030435372 0.02937914 0.13163841 0.0019344917 0.001451215 -0.21714437 0.090468384 0.0051144105
0.02603158 -0.03593522 -0.02415567 0.08737455 -0.08045948 -0.15145099 0.07815396 -0.08666934
-0.05210365 0.024937864 -0.07119823 0.03830666 0.040239748 0.042062305 0.048194803 -0.015800936
-0.11881809 -0.098129295 -0.043340072 -0.07534511 -0.02736533 -0.04647528 -0.1591157 -0.15607873
-0.024693606 -0.06995932 -0.15281306 0.029709378 0.008546944 0.057025082 0.1608785 0.06567423
0.017884374 0.036499526 0.21683262 -0.4408122 -0.095755085 -0.11670892 -0.33156377 0.0128042
-0.556661 0.3968796 0.19949925 -0.27221265 0.5412701 -0.5826141 -0.18841913 0.48955706
-0.07365957 0.6706915 0.15293477 -0.109068625 0.03737488 -0.08074995 -0.04653504 -0.092183165
0.34834024 -0.008055735 0.18577778 0.06331961 0.0110548865 -0.020400874 -0.04010269 0.08955639
-0.026949802 -0.109297134 0.086723864 0.033832345 -0.054074805 0.078299075 0.057161435 0.0059850044
0.058969613 0.008726527 -0.039052144 0.038734645 -0.010790451 0.0044761053 -0.06563081 0.081317104
-0.01848481 -0.045065694 0.0043618153 0.076359235 0.025189554 0.0114928335 0.039286464 -0.0018757803
0.026748383 -0.07741538 0.06530079 0.10834792 -0.11043897 0.04295249 0.043504585 0.12942132
-0.025404334 0.04338641 -0.06253445 0.02616623 -0.26509088 -0.48749766 0.4927643 -0.2944687
0.585492 0.10096082 0.59470665 0.021856422 0.08129033 -0.72934926 -0.36590326 0.15750253
0.17714244 0.4344439 0.15267636 -0.0049310983 -0.80270815 0.068541735 -0.064635366 -0.18679881
-0.01841264 -0.18169288 -0.16931564 -0.27756038 0.002200987 -0.20964509 -0.07206837 0.042151976
-0.040024545 0.23180395 -0.075083196 -0.043411728 -0.1106334 0.110176325 -0.048875406 -0.0016464755
0.0688334 0.026087185 -0.041648164 -0.02259323 -0.05778114 -0.15952624 -0.07465282 -0.12887955
0.062292594 -0.040784385 0.0104585895 0.016706102 -0.03316968 0.2262206 -0.022687737 0.022575894
-0.30683824 -0.06460592 -0.05171361 -0.12379368 0.058003053 -0.084921695 0.07740851 -0.6006697
-0.0069261272 -0.037595224 0.11851209 0.049969286 -0.0531293 -0.028553389 1.0828443 -0.3229953
0.78766847 -0.12603337 -0.27895012 -0.31631786 -0.52322584 1.7292837 -0.056284722 0.76240647
0.6181767 -0.23285219 -0.631473 0.56668884 -0.31955457 0.124690875 -0.48883727 0.81270105
0.22025208 -0.02249133 -0.33381718 0.14004686 -0.007768012 0.07585788 -0.1565645 0.097898215
0.1270825 -0.7466337 -0.013151564 -0.18154491 -0.012512723 -0.068971604 0.018618928 -0.0704041
-0.07436899 -0.09020016 0.16331154 0.18441819 -0.012629279 0.01732393 -0.041708052 0.021044765
-0.020594386 -0.03678885 -0.011474728 0.042697974 0.08030583 0.029494613 -0.13981502 0.20178968
0.17366283 -0.09898655 -0.00647744 0.27876118 0.03269781 0.068788916 -0.21553348 0.005542864
00000000: b3ba 3bbe ef14 95bd 3a05 183f e374 37be
00000010: c2af 86bd 7efb 503d 0dc2 873e 6b8c 073e
00000020: 161f a1be 7a78 fdbe a461 1bbe 8e36 133d
00000030: 3a62 f03d 56b5 fdbd 0cf9 8cbe eda3 9dbe
00000040: 3ff1 943e 451f eebd 86e1 743c da26 00be
00000050: 117a 423d b1a6 9abc cf18 27be 7820 6f3d
00000060: 9a53 f9bc 86ac f03c 38cc 063e c58e fd3a
00000070: b236 be3a 185b 5ebe 7d47 b93d c996 a73b
00000080: 2e40 d53c cf30 13bd 1de2 c5bc 6ef1 b23d
00000090: f1c7 a4bd f815 1bbe 2f0f a03d b27f b1bd
000000a0: a36a 55bd 7e4a cc3c 61d0 91bd 72e7 1c3d
000000b0: 6fd2 243d 8649 2c3d ea67 453d f770 81bc
000000c0: e656 f3bd 03f8 c8bd 5c85 31bd 894e 9abd
000000d0: 422d e0bc dd5c 3ebd 3aef 22be 1ad3 1fbe
000000e0: 3f4a cabc d546 8fbd 077b 1cbe 1561 f33c
000000f0: 7b08 0c3c 2293 693d 55bd 243e 3680 863d
00000100: 4082 923c 8780 153d 5f09 5e3e 23b2 e1be
00000110: 3e1b c4bd 1605 efbd bac2 a9be b5c8 513c
00000120: 5681 0ebf ce33 cb3e 8849 4c3e 755f 8bbe
00000130: ad90 0a3f 3326 15bf f2f0 40be 39a7 fa3e
00000140: d4da 96bd 70b2 2b3f ef9a 1c3e 5f5f dfbd
00000150: 6716 193d 3b60 a5bd 879b 3ebd 87ca bcbd
00000160: a759 b23e 34fc 03bc 883c 3e3e b6ad 813d
00000170: 8e1f 353c bc1f a7bc b842 24bd 5769 b73d
00000180: d5c5 dcbc 2dd7 dfbd 489c b13d c993 0a3d
00000190: 8b7d 5dbd 445b a03d 1c22 6a3d db1d c43b
000001a0: 1f8a 713d b5f9 0e3c 24f5 1fbd 38a8 1e3d
000001b0: 6fca 30bc 4bac 923b 7269 86bd 9589 a63d
000001c0: 756d 97bc ce96 38bd 8fed 8e3b 3b62 9c3d
000001d0: 535a ce3c 704c 3c3c d8ea 203d bedc f5ba
000001e0: 6d1f db3c f48b 9ebd 6cbc 853d 84e5 dd3d
000001f0: d42d e2bd f3ee 2f3d dd31 323d 0687 043e
00000200: c01c d0bc f3b5 313d 1012 80bd 905a d63c
00000210: feb9 87be 4b99 f9be 9a4b fc3e 9ac4 96be
00000220: cee2 153f 8cc4 ce3d b23e 183f 3d0c b33c
00000230: 8b7b a63d a2b6 3abf ac57 bbbe 5848 213e
00000240: d464 353e 6e6f de3e 3157 1c3e 0d95 a1bb
00000250: 487e 4dbf 9c5f 8c3d 8c5f 84bd 3048 3fbe
00000260: 1bd6 96bc b30d 3abe 1461 2dbe 651c 8ebe
00000270: 6f3e 103b 34ad 56be 9598 93bd 8da7 2c3d
00000280: c7f0 23bd 045e 6d3e 38c5 99bd 7fd0 31bd
00000290: c493 e2bd 20a4 e13d 9431 48bd 8dce d7ba
000002a0: 87f8 8c3d cbb4 d53c 4497 2abd 7015 b9bc
000002b0: ebab 6cbd d95a 23be 94e3 98bd 00f9 03be
000002c0: 8526 7f3d 870d 27bd 815a 2b3c 3cdb 883c
000002d0: eedc 07bd 5fa6 673e a2db b9bc 15f1 b83c
000002e0: e719 9dbe 1c50 84bd a6d1 53bd 8a87 fdbd
000002f0: 9c94 6d3d 6deb adbd 5a88 9e3d 7dc5 19bf
00000300: 91f4 e2bb 73fd 19bd 77b6 f23d 98ac 4c3d
00000310: 1c9e 59bd cce8 e9bc a49a 8a3f a45f a5be
00000320: a4a4 493f e40e 01be 8dd2 8ebe 6af4 a1be
00000330: 21f2 05bf 2b59 dd3f cf8a 66bd 122d 433f
00000340: d440 1e3f ce70 6ebe 37a8 21bf 8512 113f
00000350: a89c a3be ee5d ff3d e148 fabe 2d0d 503f
00000360: c389 613e bd3f b8bc 16ea aabe 7268 0f3e
00000370: cf8a febb 605b 9b3d 7252 20be dc7e c83d
00000380: ea21 023e 6323 3fbf a879 57bc e9e6 39be
00000390: 2a02 4dbc fc40 8dbd b986 983c 0630 90bd
000003a0: c54e 98bd ddba b8bd 243b 273e 1fd8 3c3e
000003b0: 09eb 4ebc eaea 8d3c 10d6 2abd 1266 ac3c
000003c0: 8fb5 a8bc e8af 16bd 7f00 3cbc 12e4 2e3d
000003d0: 6277 a43d b09e f13c ab2b 0fbe f4a1 4e3e
000003e0: abd4 313e 76b9 cabd b440 d4bb c9b9 8e3e
000003f0: 24ee 053d 34e1 8c3d cfb4 5cbe eaa0 b53b

a2c_network.actor_mlp.0.bias f4 [128]
0.19245617 -0.15181185 -0.15672305 0.13295776 -0.092882566 0.19717942 -0.15768217 -0.097741105
0.25298992 -0.115823075 -0.04455588 -0.054134887 0.075456075 0.14278634 -0.17767256 -0.011085886
0.20299906 0.16183451 0.024453903 -0.041049574 -0.21585082 -0.04200235 -0.04710463 0.13001174
-0.17118508 0.14919202 0.058776926 0.13356249 0.015658148 0.076333724 0.14338277 -0.032754496
0.17710315 -0.04477592 0.050600443 0.047811296 -0.022018977 0.024507077 0.028463574 -0.16974191
-0.08704045 0.16293462 0.06975758 0.12733123 -0.0017659833 0.06701294 -0.040620014 0.11332676
-0.1168173 0.08248484 -0.067592986 0.124351695 0.009244085 -0.06491651 -0.032806076 -0.11923174
-0.02958469 0.18594594 0.06719071 -0.12228416 0.10229834 -0.09142297 -0.25588012 -0.031135647
0.042593457 -0.124216184 -0.10478223 0.12122579 -0.0594426 0.26745617 0.025653012 -0.020697612
0.2978823 -0.09943755 0.098705515 0.038612727 -0.022310557 -0.16216727 -0.022272818 0.06015822
-0.2400482 -0.14349948 0.26170355 0.1854734 -0.24554054 -0.020755997 -0.12616447 -0.24190032
0.0798873 -0.021952357 0.28501093 -0.0594702 0.04666664 -0.14184701 0.12922753 -0.068296485
-0.028137976 -0.051912546 -0.013758178 -0.023096334 -0.05688314 -0.07876671 -0.074609466 -0.16462964
-0.010581404 0.16059345 0.079303116 -0.23566869 0.019506969 0.24044344 -0.07815083 0.0738072
-0.12591696 -0.13830644 0.05892148 -0.068227775 -0.11048591 -0.036117647 0.057867114 -0.124586724
-0.13292812 -0.103728786 -0.18967593 0.11596235 0.06108821 -0.10029023 -0.05626668 -0.08138721
00000000: 3b13 453e 9174 1bbe 027c 20be 1426 083e
00000010: 3739 bebd 67e9 493e 6f77 21be 7d2c c8bd
00000020: e587 813e a634 edbd 3a80 36bd 8bbc 5dbd
00000030: b788 9a3d 9536 123e ccef 35be 93a1 35bc
00000040: fcde 4f3e f2b7 253e 8d53 c83c 9923 28bd
00000050: ff07 5dbe a80a 2cbd c9f0 40bd cc21 053e
00000060: 244b 2fbe cbc5 183e 13c0 703d 9bc4 083e
00000070: 8445 803c db54 9c3d efd2 123e 9429 06bd
00000080: 875a 353e f566 37bd 6942 4f3d c7d5 433d
00000090: 2461 b4bc 11c3 c83c 712c e93c d3d0 2dbe
000000a0: 4342 b2bd 55d8 263e 10dd 8e3d 1e63 023e
000000b0: 9178 e7ba 153e 893d 2c61 26bd dc17 e83d
000000c0: e93d efbd d0ed a83d 316e 8abd 1aac fe3d
000000d0: 8174 173c f2f2 84bd aa5f 06bd c52f f4bd
000000e0: 985b f2bc 9d68 3e3e 489b 893d 1e70 fabd
000000f0: cb81 d13d f73b bbbd b802 83be 2f10 ffbc
00000100: 7a76 2e3d 0e65 febd 1198 d6bd 3a45 f83d
00000110: 157a 73bd 04f0 883e 4426 d23c 0a8e a9bc
00000120: 0784 983e eaa5 cbbd 1e26 ca3d 6128 1e3d
00000130: a1c4 b6bc 2d0f 26be 7c75 b6bc 7768 763d
00000140: 32cf 75be 87f1 12be 02fe 853e bdec 3d3e
00000150: fb6e 7bbe 7b08 aabc 4231 01be b8b4 77be
00000160: f49b a33d 6ed5 b3bc f4ec 913e 0697 73bd
00000170: 8525 3f3d 5840 11be 3954 043e 07df 8bbd
00000180: 9d81 e6bc 40a2 54bd fb69 61bc 8634 bdbc
00000190: 4cfe 68bd 7150 a1bd d9cc 98bd ac94 28be
000001a0: a05d 2dbc 9c72 243e ac69 a23d 2253 71be
000001b0: 14cd 9f3c ce36 763e 8b0d a0bd 3b28 973d
000001c0: 60f0 00be 34a0 0dbe a657 713d 01bb 8bbd
000001d0: 7046 e2bd 19f0 13bd 1106 6d3d 5327 ffbd
000001e0: 4f1e 08be c26f d4bd 683a 42be ab7d ed3d
000001f0: a237 7a3d f764 cdbd e477 66bd 56ae a6bd

a2c_network.actor_mlp.2.weight f4 [128, 128]
-0.010341394 0.23418237 -0.15928654 -0.005912295 -0.0619499 -0.23603033 0.019901961 -0.09138966
-0.101861775 -0.14853106 -0.16531122 -0.21081828 -0.11115118 0.04937694 -0.14363462 -0.16749361
-0.09296727 -0.19834001 0.17874163 -0.35704595 0.13931903 -0.09380517 0.08943547 -0.034276824
0.22685269 -0.10754114 -0.094273135 0.019032622 0.2143737 -0.13694756 -0.09253362 -0.010142531
-0.23161095 -0.121073745 -0.059152253 -0.02707273 -0.114333846 0.16317528 -0.041609295 -0.064804435
-0.014018386 0.017712891 -0.018232033 -0.19142728 -0.1258041 0.016604906 -0.049047146 0.02898109
-0.04831917 0.0030342885 -0.20902534 -0.07901404 0.21957076 0.053035058 -0.0374334 0.18057275
-0.0006688438 0.020638965 -0.04522675 -0.041738216 -0.10832901 -0.05494641 -0.038578443 -0.14624727
-0.13248837 0.25926197 -0.07181558 -0.024113776 0.26302734 -0.009949095 0.069766514 0.23931271
-0.034239527 0.18581803 -0.27777085 0.050856467 0.008782637 0.16449164 -0.13533568 -0.2525418
0.09265301 -0.1424225 -0.042771608 0.027195172 0.008037672 -0.16888706 -0.20676844 -0.0719297
-0.21242905 -0.038363617 -0.08127857 -0.08108033 -0.2809659 -0.010097938 -0.041290246 0.25952458
-0.057084896 0.078688435 -0.017470509 0.07966272 0.18106048 -0.21474154 -0.13348068 0.06521855
0.36526307 -0.059746563 -0.049406804 0.15401207 0.01591196 -0.123984925 0.12602636 0.019029578
0.08578408 -0.0127205225 -0.13960104 0.18184754 0.09129859 0.09370547 -0.049054094 0.14816967
-0.0017351473 -0.061863545 0.26851794 -0.31996858 0.12934102 0.023762066 0.0057560643 0.008879104
0.03363193 -0.07628684 1.9144116e-05 -0.4053835 0.23367533 -0.00033192642 -0.2532652 -0.18717831
-0.11988222 0.06776455 0.018902875 -0.053784467 -0.11991318 -0.0011420225 -0.009550672 -0.16746782
-0.039633863 0.07258336 -0.23079708 0.1139926 0.09695406 0.09262744 0.120697856 -0.059793267
0.043637868 0.0651381 -0.015335419 0.13058253 -0.2008761 0.10876965 -0.11783371 -0.061925076
0.06575613 -0.26240453 0.0676432 0.057220526 -0.1681035 -0.34211594 -0.1597235 0.246812
-0.14454682 -0.024305169 0.026269993 -0.07319443 -0.039819818 -0.16158547 -0.05639447 -0.008551962
-0.26839468 -0.20254834 0.08964814 -0.06277759 -0.17194103 0.34446386 -0.29345277 -0.058176767
-0.19401167 -0.012741582 -0.020417022 -0.37514928 -0.1331916 0.25292453 -0.053678084 0.04618913
-0.11183854 -0.1739995 0.16782448 -0.015824154 -0.11347843 -0.18995284 -0.09281834 -0.14572912
0.09055477 -0.107111394 -0.031332035 0.11906271 -0.181172 -0.001279055 0.24139473 -0.0033248158
0.1502089 -0.3011905 0.04016783 -0.035732668 -0.07110231 -0.09845398 -0.092796154 -0.17851497
-0.05094715 -0.24716428 -0.082439564 -0.018285207 -0.0886385 0.33738282 -0.007808766 0.32122102
-0.20415376 -0.31879213 0.10208655 -0.007089265 -0.1417862 0.030696865 0.07664832 -0.05708873
0.011115623 -0.19386704 -0.29030704 0.042643618 -0.021635113 0.17479515 0.0775882 -0.01296125
0.36157754 0.07736969 0.014315622 0.19683807 -0.2893549 0.100104265 0.0739731 0.1422325
-0.08603878 -0.14773783 -0.08206666 -0.1522285 -0.12070998 0.20803423 -0.00010881147 0.06552278
00000000: f36e 29bc 81cd 6f3e 031c 23be edbb c1bb
00000010: 2ebf 7dbd efb1 71be 7009 a33c 812a bbbd
00000020: e89c d0bd 8718 18be 5847 29be bfe0 57be
00000030: 3ba3 e3bd 793f 4a3d f414 13be 7283 2bbe
00000040: a065 bebd a519 4bbe 0c08 373e bace b6be
00000050: a6a9 0e3e ed1c c0bd f229 b73d db65 0cbd
00000060: 124c 683e 873e dcbd 4612 c1bd 4dea 9b3c
00000070: c784 5b3e fb3b 0cbe 4482 bdbd dc2c 26bc
00000080: 6c2b 6dbe 83f5 f7bd a249 72bd a1c7 ddbc
00000090: dd27 eabd 6c17 273e 826e 2abd 30b8 84bd
000000a0: 5fad 65bc a01a 913c 585b 95bc 8305 44be
000000b0: cad2 00be 0307 883c a9e5 48bd c069 ed3c
000000c0: 52ea 45bd eada 463b bd0a 56be 1dd2 a1bd
000000d0: 28d7 603e 4a3b 593d c453 19bd 10e8 383e
000000e0: 5955 2fba 0c13 a93c af3f 39bd b1f5 2abd
000000f0: 9adb ddbd 7d0f 61bd 6e04 1ebd d8c1 15be
00000100: 08ab 07be fcbd 843e 0c14 93bd 418a c5bc
00000110: 85ab 863e 8701 23bc bfe1 8e3d 640e 753e
00000120: bf3e 0cbd 1547 3e3e fb37 8ebe df4e 503d
00000130: 0de5 0f3c 7f70 283e 7095 0abe 294d 81be
00000140: dcc0 bd3d 34d7 11be 4831 2fbd 69c8 de3c
00000150: 71b0 033c bbf0 2cbe 1bbb 53be e14f 93bd
00000160: 0087 59be 2b23 1dbd 6175 a6bd 720d a6bd
00000170: c3da 8fbe d271 25bc f61f 29bd 68e0 843e
00000180: dad1 69bd 6727 a13d 501e 8fbc 3526 a33d
00000190: eb67 393e 35e5 5bbe 29af 08be 4e91 853d
000001a0: c303 bb3e d0b8 74bd ca5e 4abd 57b5 1d3e
000001b0: cc59 823c cfeb fdbd 0e0d 013e ebe3 9b3c
000001c0: 90af af3d bd69 50bc 93f3 0ebe 3e36 3a3e
000001d0: c1fa ba3d a7e8 bf3d f2ec 48bd cab9 173e
000001e0: e26d e3ba a164 7dbd 2f7b 893e ecd2 a3be
000001f0: f971 043e aaa8 c23c 5e9d bc3b a979 113c
00000200: a2c1 093d 463c 9cbd ad97 a037 6d8e cfbe
00000210: 9648 6f3e 6906 aeb9 faab 81be acab 3fbe
00000220: cf84 f5bd 24c8 8a3d 34da 9a3c 1a4d 5cbd
00000230: 0b95 f5bd ebaf 95ba 6c7a 1cbc af7c 2bbe
00000240: 1e57 22bd 96a6 943d 1256 6cbe f474 e93d
00000250: da8f c63d 75b3 bd3d 7030 f73d c9e9 74bd
00000260: 9fbd 323d 2067 853d 6941 7bbc 6db7 053e
00000270: 77b2 4dbe 9fc2 de3d cd52 f1bd 26a5 7dbd
00000280: 26ab 863d e359 86be 8588 8a3d 1260 6a3d
00000290: 5323 2cbe d229 afbe 8f8e 23be 49bc 7c3e
000002a0: 1504 14be a21b c7bc 2b34 d73c f6e6 95bd
000002b0: 1b1a 23bd a976 25be e3fd 66bd 871d 0cbc
000002c0: 076b 89be d568 4fbe 7299 b73d 8991 80bd
000002d0: 4f11 30be 915d b03e 713f 96be c34a 6ebd
000002e0: ffaa 46be 11c2 50bc 9941 a7bc 9113 c0be
000002f0: 6163 08be 537f 813e 8ddd 5bbd d030 3d3d
00000300: 9b0b e5bd ed2c 32be 2eda 2b3e a8a1 81bc
00000310: 6167 e8bd ff82 42be 8b17 bebd 043a 15be
00000320: c774 b93d 385d dbbd 0556 00bd 26d7 f33d
00000330: 2785 39be f7a5 a7ba 2e30 773e 27e5 59bb
00000340: 5dd0 193e a435 9abe 0687 243d 6b5c 12bd
00000350: 179e 91bd 3ea2 c9bd e90b bebd a1cc 36be
00000360: f5ad 50bd a218 7dbe 13d6 a8bd dcca 95bc
00000370: 1a88 b5bd 71bd ac3e ade0 ffbb 1577 a43e
00000380: af0d 51be b938 a3be c112 d13d 114d e8bb
00000390: 6730 11be fe77 fb3c cbf9 9c3d dfd5 69bd
000003a0: 4d1e 363c 1585 46be 20a3 94be 13ab 2e3d
000003b0: 1f3c b1bc 80fd 323e 90e6 9e3d 6c5b 54bc
000003c0: b120 b93e 0074 9e3d 128c 6a3c eb8f 493e
000003d0: 5326 94be 7703 cd3d 357f 973d 65a5 113e
000003e0: 1a35 b0bd 9648 17be 9112 a8bd cae1 1bbe
000003f0: cb36 f7bd ed06 553e b731 e4b8 cf30 863d

a2c_network.actor_mlp.2.bias f4 [128]
-0.13312843 -0.038922742 -0.061850764 -0.15926652 -0.12445761 -0.11584088 -0.15888335 -0.18599257
0.15355603 -0.106569335 0.13604416 -0.014148396 -0.16334227 -0.14670196 -0.12031626 -0.077548884
-0.21845841 0.14276576 -0.07646665 -0.12249729 -0.082875974 -0.1341505 -0.0025853696 -0.08253172
0.07277099 -0.08912977 0.031709448 -0.20047316 -0.1634255 -0.13018672 -0.11480223 -0.11394828
-0.10135744 0.096159264 0.020244721 -0.04198862 -0.14570557 -0.11936379 0.0491572 -0.03692536
-0.007981409 -0.12869516 -0.06777136 -0.31029826 0.22144595 0.11652374 0.07940313 0.28914708
-0.20919769 -0.15741995 -0.2479221 -0.05939003 0.011963003 -0.23856732 0.1027477 -0.11706311
-0.19081444 -0.16866179 0.01219645 -0.058171697 -0.18041147 -0.03799101 -0.035370048 0.14681658
0.032092977 -0.09463495 0.04906004 -0.057755996 -0.039195392 -0.07963229 -0.13897337 -0.088849
-0.020872688 0.042561885 -0.1573553 0.049514115 -0.06740008 0.03139205 -0.046545208 -0.14153899
-0.087014034 -0.2169531 -0.26936772 -0.025252895 -0.117297284 -0.22750407 -0.086106576 -0.103675485
0.16793497 -0.00488033 -0.17303784 0.040209606 0.0016454189 -0.060180947 -0.29126772 0.20799075
0.16568525 0.08531 -0.12199213 0.08757633 -0.088822335 0.09004223 -0.1089046 0.039762672
-0.004545556 0.1985241 -0.25539288 -0.16733809 -0.061542943 -0.020491097 0.0318574 0.10474866
-0.1875034 -0.007822322 -0.31281856 -0.08279678 0.02975453 0.24437648 -0.079135574 -0.03534575
0.10624318 0.1114098 -0.1676766 0.23198923 -0.104663454 -0.24358223 0.08796111 0.061122753
00000000: d252 08be 746d 1fbd 3a57 7dbd c316 23be
00000010: a2e3 febd fc3d edbd 51b2 22be d674 3ebe
00000020: cb3d 1d3e 0641 dabd 294f 0b3e adce 67bc
00000030: 3243 27be 0a39 16be 5f68 f6bd f3d1 9ebd
00000040: 90b3 5fbe 3031 123e 8c9a 9cbd dcdf fabd
00000050: e1ba a9bd c05e 09be 4e6f 29bb 6406 a9bd
00000060: f508 953d ab89 b6bd c4e1 013d d648 4dbe
00000070: 0459 27be ab4f 05be 6e1d ebbd b75d e9bd
00000080: 7d94 cfbd 26ef c43d 42d8 a53c 42fc 2bbd
00000090: d733 15be 0175 f4bd 0f59 493d 0c3f 17bd
000000a0: 75c4 02bc aac8 03be b6cb 8abd 6adf 9ebe
000000b0: bac2 623e 00a4 ee3d 1c9e a23d 160b 943e
000000c0: eb37 56be b232 21be 4adf 7dbe f642 73bd
000000d0: 7900 443c fe4a 74be 636d d23d c9be efbd
000000e0: dc64 43be adb5 2cbe 9ed3 473c 7245 6ebd
000000f0: c9bd 38be 769c 1bbd 2fe0 10bd 1657 163e
00000100: ed73 033d f8cf c1bd 2ef3 483d 8d91 6cbd
00000110: 598b 20bd 4116 a3bd 094f 0ebe 77f6 b5bd
00000120: 33fd aabc 5f55 2e3d bf21 21be 50cf 4a3d
00000130: 0e09 8abd f394 003d 30a6 3ebd 99ef 10be
00000140: 6a34 b2bd f428 5ebe 91ea 89be 29df cebc
00000150: 8f39 f0bd d4f6 68be a558 b0bd d053 d4bd
00000160: 25f7 2b3e 2deb 9fbb d530 31be d4b2 243d
00000170: 19ab d73a 4c80 76bd 0b21 95be 87fb 543e
00000180: 65a9 293e 02b7 ae3d 03d7 f9bd 385b b33d
00000190: 7ce8 b5bd 1068 b83d 6009 dfbd 2fde 223d
000001a0: e3f2 94bb e749 4b3e dbc2 82be ad5a 2bbe
000001b0: 7414 7cbd f2dc a7bc e87c 023d 7786 d63d
000001c0: e400 40be 3229 00bc c129 a0be 5c91 a9bd
000001d0: c6bf f33c d43d 7a3e d511 a2bd b5c6 10bd
000001e0: 0696 d93d d22a e43d 6ab3 2bbe 968e 6d3e
000001f0: cb59 d6bd 9f6d 79be f424 b43d da5b 7a3d

a2c_network.actor_mlp.4.weight f4 [128, 128]
0.080555044 -0.024401642 -0.043446176 0.041428823 0.05525574 -0.060359575 -0.11803205 0.07677942
-0.028555537 -0.14880212 -0.036993783 -0.17039649 0.028482093 -0.032480832 -0.09334825 -0.14391838
-0.007979843 -0.009170817 -0.031864483 -0.16189891 0.063711956 0.05083395 -0.05904219 -0.03699834
-0.18765655 -0.05464746 0.14564152 -0.27395356 -0.02390501 -0.12093933 -0.013570381 -0.020321157
0.05137455 -0.062257018 -0.06583381 0.052626744 -0.020341534 0.018878056 0.055542678 -0.13371141
-0.07895644 -0.061317902 -0.09911218 -0.08289642 0.1628011 -0.06562756 -0.17274465 0.13323139
0.10619309 -0.090334065 -0.08927014 -0.044885285 -0.015224758 0.07854618 -0.11095072 0.08790108
-0.14169039 0.057359315 -0.07751421 0.01785969 -0.029476427 0.066639826 0.08432645 0.040962208
-0.04722196 0.20300885 -0.13988942 -0.1095428 0.122609474 0.039629877 0.15023616 0.09677395
0.021219581 0.05163048 0.06415575 -0.07128386 -0.034152623 0.19481638 -0.0021837177 0.058371667
0.023284284 -0.1167878 -0.00416596 0.10355347 0.08158301 -0.044655114 -0.14846134 -0.03314635
-0.03681429 -0.068559095 0.040926315 -0.03685335 0.11348942 -0.030107623 -0.020314274 0.036467224
0.037380125 -0.20749252 -0.03481215 -0.0099139875 -0.063128024 0.072658315 -0.10655844 -0.17288728
0.059566647 0.008224106 -0.25805047 -0.15853994 0.06176633 -0.21755128 0.003286526 -0.19898202
0.095471874 0.0011773002 -0.1570896 -0.07867116 -0.039154172 -0.14215505 0.09781541 -0.03996491
-0.052654274 -0.046222344 -0.023573333 -0.053647663 0.009513966 0.016650954 -0.01682581 -0.20558074
-0.16761643 -0.09932841 -0.01757299 0.05353099 -0.060635548 -0.1548329 -0.019768598 0.096740216
-0.13214739 -0.24481928 -0.05736088 0.13846168 -0.11333466 -0.052441355 0.10615201 0.067434676
-0.05397394 -0.034675613 -0.178752 0.12833229 -0.27286294 -0.05469236 0.042168517 -0.019422384
-0.07273395 -0.0659622 -0.051911633 0.060969938 -0.047835257 0.06532083 -0.07840511 0.11453393
-0.36217287 -0.21370317 -0.3012128 0.085283026 -0.188619 0.11233979 -0.21816845 -0.16438371
0.0018292556 0.042993005 -0.04188139 0.10717481 -0.0060824766 -0.062436294 -0.093536906 -0.05136467
0.065204084 0.0042633247 0.07036196 0.07131653 -0.061146993 0.16651265 -0.077630565 -0.09534848
-0.153891 -0.01973991 0.03088911 -0.16947871 -0.09178631 0.09391632 0.048477482 -0.08559648
-0.19076167 -0.0129690785 -0.20317888 0.053104218 -0.072226755 -0.028864946 -0.025699783 -0.034159325
-0.064895555 -0.19980928 0.16455486 0.17968163 0.2178836 -0.12100911 0.02579651 0.15943918
0.1270755 0.11087369 0.15022299 -0.2525492 0.195746 0.27480042 0.114811495 0.15733849
0.12406306 0.26093554 0.07170796 -0.16852167 -0.16319162 -0.10661979 0.11432565 -0.09392209
-0.22063845 -0.19606394 -0.015419501 0.06873358 0.13599353 -0.03985967 0.030780882 -0.07738395
-0.03144317 -0.041398358 0.061277896 -0.09523853 -0.19378814 -0.078256026 -0.07657581 -0.057807807
-0.19195288 0.22485468 0.17332658 0.167305 -0.06798006 0.041479576 0.16513678 -0.036512505
-0.1880895 -0.040102765 -0.16614713 -0.15632412 -0.13482563 0.1485078 -0.23036832 0.18128212
00000000: 0bfa a43d f4e5 c7bc 9ef4 31bd 45b1 293d
00000010: d853 623d 9a3b 77bd caba f1bd 873e 9d3d
00000020: 4ded e9bc 955f 18be cb86 17bd 6b7c 2ebe
00000030: 4753 e93c 9f0a 05bd 5e2d bfbd 575f 13be
00000040: e3bd 02bc 3241 16bc 5584 02bd d4c8 25be
00000050: 6a7b 823d 4337 503d 39d6 71bd 928b 17bd
00000060: 0a29 40be 04d6 5fbd 0d23 153e a443 8cbe
00000070: 71d4 c3bc 0aaf f7bd 4e56 5ebc 8e78 a6bc
00000080: 1f6e 523d 3701 7fbd e0d3 86bd 248f 573d
00000090: 4aa3 a6bc 27a6 9a3c b880 633d a5eb 08be
000000a0: eab3 a1bd 7b28 7bbd 54fb cabd 99c5 a9bd
000000b0: 55b5 263e be67 86bd f9e3 30be cf6d 083e
000000c0: c37b d93d 1101 b9bd 43d3 b6bd a2d9 37bd
000000d0: 4371 79bc d2dc a03d 223a e3bd 7b05 b43d
000000e0: 4917 11be 9af1 6a3d c5bf 9ebd 7c4e 923c
000000f0: 8c78 f1bc 767a 883d 59b3 ac3d fdc7 273d
00000100: d06b 41bd 8de1 4f3e 2c3f 0fbe fa57 e0bd
00000110: ad1a fb3d f052 223d 82d7 193e 6c31 c63d
00000120: b0d4 ad3c 7b7a 533d 1764 833d 46fd 91bd
00000130: 9fe3 0bbd f27d 473e b41c 0fbb 2117 6f3d
00000140: afbe be3c 712e efbd 9b82 88bb d713 d43d
00000150: fe14 a73d 48e8 36bd 4006 18be 78c4 07bd
00000160: 95ca 16bd b668 8cbd 5aa2 273d 8af3 16bd
00000170: 246d e83d 43a4 f6bc 1f6a a6bc a85e 153d
00000180: e71b 193d eb78 54be 2f97 0ebd 476e 22bc
00000190: 4449 81bd e2cd 943d 503b dabd 5d09 31be
000001a0: 28fc 733d 67be 063c 311f 84be 4b58 22be
000001b0: b1fe 7c3d c3c5 5ebe c262 573b f1c1 4bbe
000001c0: c286 c33d a44f 9a3a 19dc 20be 581e a1bd
000001d0: 2060 20bd 1891 11be 7253 c83d 3fb2 23bd
000001e0: 02ac 57bd a453 3dbd dd1c c1bc a7bd 5bbd
000001f0: 77e0 1b3c 9567 883c 48d6 89bc c283 52be
00000200: a4a3 2bbe b26c cbbd 3bf5 8fbc 5043 5b3d
00000210: fb5c 78bd 848c 1ebe c1f1 a1bc bc1f c63d
00000220: a551 07be e8b1 7abe 3ef3 6abd e6c8 0d3e
00000230: 011c e8bd bfcc 56bd 3a66 d93d 311b 8a3d
00000240: c713 5dbd 0408 0ebd c40a 37be 8a69 033e
00000250: b1b4 8bbe 1905 60bd e5b8 2c3d b11b 9fbc
00000260: 8af5 94bd 3117 87bd 4ba1 54bd 9dbb 793d
00000270: e7ee 43bd edc6 853d dc92 a0bd c490 ea3d
00000280: b96e b9be 01d5 5abe 9038 9abe dea8 ae3d
00000290: 5725 41be 6712 e63d 8d67 5fbe 3454 28be
000002a0: a2c3 ef3a 6f19 303d d28b 2bbd 777e db3d
000002b0: 834f c7bb 33bd 7fbd 4790 bfbd c363 52bd
000002c0: b889 853d 5cb3 8b3b ee19 903d 670e 923d
000002d0: 4575 7abd 4b82 2a3e c6fc 9ebd 1046 c3bd
000002e0: 9a95 1dbe 97b5 a1bc 290b fd3c d48b 2dbe
000002f0: 76fa bbbd 3357 c03d 5390 463d 354d afbd
00000300: 0757 43be 427c 54bc 200e 50be cf83 593d
00000310: 9feb 93bd 2e76 ecbc 5a88 d2bc a6ea 0bbd
00000320: f6e7 84bd ce9a 4cbe 1281 283e 76fe 373e
00000330: e11c 5f3e a0d3 f7bd 3453 d33c 0644 233e
00000340: 1420 023e bf11 e33d 0ed4 193e 214e 81be
00000350: a471 483e a4b2 8c3e 4a22 eb3d 571d 213e
00000360: c614 fe3d 5899 853e 9fdb 923d f290 2cbe
00000370: b41b 27be 7a5b dabd 9123 ea3d 3a5a c0bd
00000380: 0cef 61be fcc4 48be 13a2 7cbc 31c4 8c3d
00000390: e341 0b3e e543 23bd 3028 fc3c 7a7b 9ebd
000003a0: 8eca 00bd 5391 29bd 88fe 7a3d 6b0c c3bd
000003b0: 6670 46be b244 a0bd c7d3 9cbd e1c7 6cbd
000003c0: 4c8f 44be 4e40 663e 867c 313e 0052 2b3e
000003d0: 2139 8bbd 7de6 293d 9e19 293e 238e 15bd
000003e0: 899a 40be cc42 24bd 7922 2abe 6e13 20be
000003f0: bb0f 0abe 6e12 183e ace5 6bbe 05a2 393e

a2c_network.actor_mlp.4.bias f4 [128]
0.101142175 -0.23905589 -0.024075644 0.08618709 0.018910607 -0.04207951 0.040766776 -0.12400951
-0.31692252 -0.2125712 -0.10545523 -0.0065212105 0.028577834 -0.17347243 0.0039758915 0.052448314
0.026898347 -0.01385703 0.031436015 -0.16556211 -0.11480158 -0.38244197 -0.104013994 -0.12083773
0.10578839 -0.14107858 -0.01934118 0.041628294 -0.03968864 -0.10541421 -0.10209451 -0.25168553
-0.083558664 0.03529436 -0.11258292 -0.063432775 -0.14303225 -0.119198576 -0.14827414 0.10348887
-0.25576058 -0.011118145 -0.20735323 -0.0029590388 -0.028074374 -0.03607966 0.04879468 -0.044482507
-0.03742581 -0.15075509 0.11904305 0.07464296 -0.072991274 0.09981857 -0.13110149 0.04502523
-0.12619741 -0.17891656 -0.0020424703 -0.121682465 -0.0024586641 -0.1672562 0.04437494 -0.143648
0.10013369 -0.09083186 -0.028922314 -0.28997755 0.01529736 0.017065492 -0.25524238 0.120404966
0.044790592 0.088253655 0.106307834 -0.26518914 -0.12209976 -0.25019503 0.05243664 -0.103977524
-0.07831329 -0.19414566 -0.0969424 0.09994442 -0.26338652 -0.25329602 0.008833934 -0.08635501
0.07140575 0.053940047 0.06343884 0.039233204 -0.34697518 0.08314906 0.042089812 0.08329312
0.024298837 -0.2118902 0.12640032 -0.17589724 -0.2804494 -0.016451538 0.038546544 -0.15641427
-0.17464422 -0.17930971 -0.15764317 0.02811832 -0.010773714 -0.18131045 -0.21121643 0.13360111
-0.02557471 0.06887307 -0.1608815 0.0636342 0.07004383 -0.20871986 -0.1607372 0.1436399
-0.20474818 -0.06513708 0.017434161 0.11212618 0.060204484 -0.14130968 -0.01872047 -0.19136013
00000000: a123 cf3d 11cb 74be 493a c5bc db82 b03d
00000010: 6bea 9a3c 905b 2cbd 10fb 263d b3f8 fdbd
00000020: ab43 a2be 44ac 59be e9f8 d7bd e1af d5bb
00000030: 101c ea3c c2a2 31be 3248 823b 0bd4 563d
00000040: ec59 dc3c 9908 63bc 0dc3 003d 1d89 29be
00000050: 171d ebbd 6fcf c3be 4a05 d5bd c679 f7bd
00000060: 95a7 d83d e776 10be 6571 9ebc 6e82 2a3d
00000070: 8e90 22bd 68e3 d7bd ed16 d1bd eddc 80be
00000080: ce20 abbd d290 103d e091 e6bd 0be9 81bd
00000090: 0c77 12be 621e f4bd 2dd5 17be f9f1 d33d
000000a0: 0df3 82be e128 36bc 6854 54be 6fec 41bb
000000b0: 3bfc e5bc 44c8 13bd eedc 473d 4a33 36bd
000000c0: ce4b 19bd 8b5f 1abe d8cc f33d 69de 983d
000000d0: 737c 95bd ae6d cc3d 783f 06be 606c 383d
000000e0: e539 01be e735 37be f7da 05bb a834 f9bd
000000f0: 8a21 21bb 3645 2bbe 7fc2 353d 7618 13be
00000100: e412 cd3d 0e06 babd 7dee ecbc f077 94be
00000110: c7a1 7a3c eecc 8b3c 21af 82be e196 f63d
00000120: 5776 373d 55be b43d ecb7 d93d dfc6 87be
00000130: 700f fabd 9019 80be cdc7 563d 2bf2 d4bd
00000140: b862 a0bd 1fce 46be bd89 c6bd a9af cc3d
00000150: 99da 86be 04b0 81be 34bc 103c e5da b0bd
00000160: 2e3d 923d 3df0 5c3d 39ec 813d ffb2 203d
00000170: bba6 b1be 0e4a aa3d 5e66 2c3d 9595 aa3d
00000180: 5b0e c73c bff9 58be 166f 013e 681e 34be
00000190: 1097 8fbe 60c5 86bc fbe2 1d3d 102b 20be
000001a0: efd5 32be f79c 37be 366d 21be 6458 e63c
000001b0: 3b84 30bc 72a9 39be 1f49 58be bbce 083e
000001c0: 0e82 d1bc 530d 8d3d 1fbe 24be a652 823d
000001d0: 2473 8f3d a9ba 55be 4b98 24be 5716 133e
000001e0: 82a9 51be 9766 85bd 16d2 8e3c 69a2 e53d
000001f0: fa98 763d 7cb3 10be ac5b 99bc e9f3 43be

a2c_network.value.weight f4 [1, 128]
-0.0070443996 0.015567265 -0.07135588 -0.02785729 0.039265838 -0.012097063 0.014954046 0.012001353
-0.061142966 -0.027665168 0.0113300625 -0.14370817 0.019244632 0.022728808 -0.002475668 -0.0065715117
-0.014024735 -0.018118959 -0.024420906 0.012021905 0.026105229 -0.2966341 0.0069399755 0.01847477
-0.12777768 0.0046381596 -0.0016841437 -0.015486059 -0.002360709 0.01188692 0.05234466 -0.11976808
0.04576448 0.03680514 0.003957917 0.009465629 0.08400378 -0.046128824 0.0051765395 -0.054477315
-0.014799619 0.0027343077 0.014173925 0.0040224083 0.0036580223 -0.027309118 0.011066366 -0.3590764
-0.010810219 -0.045386218 -0.001113012 0.023986738 -0.02136661 -0.0075679766 -0.018517474 -0.011843847
-0.0073856344 -0.04829051 0.07094103 -0.008859392 0.013068863 -0.0010640976 -0.00044387605 0.0075386465
0.0670477 0.023337848 0.001663712 -0.01422666 0.0009774872 -0.09778216 0.019535434 -0.037170768
-0.03455484 0.07440315 -0.0036217214 -0.08203851 0.0062174047 -0.18879443 -0.043819986 -0.0039640386
-0.004723061 -0.019856747 0.007710262 -0.018611206 0.0077100107 0.03098501 -0.018810924 -0.02280746
-0.012089831 0.0021778343 0.010999814 -0.018673087 -0.20951472 -0.010882401 0.0051462734 0.011026534
-0.023342518 -0.010406682 0.07121484 0.0027768326 0.02039851 -0.0030800109 0.008487569 -0.020963492
-0.018722888 -0.013703339 -0.011202127 0.04185958 -0.017471947 0.07892054 0.20389436 -0.028383767
-0.016593955 -0.027726596 0.0022937949 -0.02072436 0.10989295 -0.0006575886 0.02393913 -0.018918268
-0.09912646 0.008586842 0.025982192 0.018555833 0.071441546 -0.0035018513 0.0015201378 0.036334373
00000000: b5d4 e6bb d80d 7f3c 0823 92bd f934 e4bc
00000010: 37d5 203d c232 46bc d101 753c 53a1 443c
00000020: 0c71 7abd 10a2 e2bc baa1 393c 3c28 13be
00000030: eba6 9d3c c431 ba3c d13e 22bb d655 d7bb
00000040: 01c8 65bc 366e 94bc 5a0e c8bc 86f7 443c
00000050: a2da d53c 6de0 97be bc68 e33b 6758 973c
00000060: 27d8 02be b4fb 973b 7cbe dcba 3db9 7dbc
00000070: 20b6 1abb 5bc1 423c 5b67 563d f848 f5bd
00000080: 8973 3b3d fdc0 163d 6ab1 813b ba15 1b3c
00000090: 2c0a ac3d 94f1 3cbd f69f a93b 9b23 5fbd
000000a0: 1a7a 72bc 1232 333b c039 683c 68ce 833b
000000b0: 6ebb 6f3b 5fb7 dfbc b44f 353c ddd8 b7be
000000c0: 581d 31bc e6e6 39bd 7ce2 91ba d67f c43c
000000d0: 0709 afbc cafc f7bb f5b1 97bc b20c 42bc
000000e0: 3103 f2bb 45cc 45bd 8849 913d fc26 11bc
000000f0: c91e 563c 3179 8bba 09b8 e8b9 c006 f73b
00000100: 4e50 893d 042f bf3c e910 da3a f016 69bc
00000110: 071f 803a 0342 c8bd c608 a03c 6040 18bd
00000120: 6089 0dbd ae60 983d 675a 6dbb ce03 a8bd
00000130: 5fbb cb3b 5453 41be 967c 33bd c4e4 81bb
00000140: e8c3 9abb 9eaa a2bc 5ea6 fc3b 8776 98bc
00000150: 42a4 fc3b 47d4 fd3c 5e19 9abc b6d6 babc
00000160: 6d14 46bc ffb9 0e3b 9038 343c 4df8 98bc
00000170: 078b 56be 194c 32bc 12a2 a83b a3a8 343c
00000180: cf38 bfbc ca80 2abc 16d9 913d 85fb 353b
00000190: c71a a73c 02da 49bb 720f 0b3c a1bb abbc
000001a0: be60 99bc f883 60bc 2089 37bc f374 2b3d
000001b0: 5421 8fbc 18a1 a13d afc9 503e 1385 e8bc
000001c0: 0cf0 87bc e322 e3bc 7e53 163b 22c6 a9bc
000001d0: 8e0f e13d 0662 2cba ff1b c43c 7cfa 9abc
000001e0: d002 cbbd d3af 0c3c 9bd8 d43c 6702 983c
000001f0: f24f 923d 517f 65bb 5c3f c73a 5ad3 143d

a2c_network.mu.weight f4 [18, 128]
0.1893696 -0.016676994 0.21681668 0.014892636 0.045495883 -0.036232304 0.07532364 -0.015709536
-0.19340988 -0.021447774 -0.16079268 0.03246912 0.0010774385 -0.013392451 -0.10732188 -0.12975316
0.027028695 -0.1377222 -0.14471292 -0.22392191 -0.061846692 -0.117843084 0.08556457 -0.0082774
0.02295475 -0.13173728 -0.10103195 -0.08589219 0.08155515 0.0027443261 0.045664474 -0.03732585
0.060010694 0.007848542 -0.011058779 0.019018061 0.107226305 -0.12924613 -0.16277303 -0.088665545
0.228682 0.040221848 -0.18336526 -0.24306332 0.17610197 -0.082985304 -0.00028414093 -0.016463881
-0.04526977 0.065178104 0.14439206 -0.044103168 -0.12354476 -0.26264268 0.09618913 0.14698121
-0.07827742 0.09666766 0.102265626 0.0053627393 0.045466382 0.24235782 0.13004914 -0.00048182067
-0.0027348741 -0.23309232 0.1977617 0.037629098 0.117722385 0.02861053 0.03552312 0.08813698
-0.13909909 0.058283437 0.032531988 0.0477152 0.023171777 -0.107401356 0.044361323 -0.08339263
-0.14756602 -0.0015669861 0.15716358 -0.07174196 0.26617286 0.12083194 0.021876628 0.010081016
-0.051451385 0.056555055 -0.20316745 0.04815722 0.022446979 0.08890644 -0.057217572 -0.014295591
-0.03493918 0.03916706 -0.14415608 -0.003699543 -0.054283302 0.12585077 0.13754107 -0.06324499
0.022128256 0.09639851 -0.06921884 -0.18079796 0.03456781 -0.11376217 -0.021235103 -0.12396898
-0.069359265 -0.05693676 -0.032291014 0.072616264 -0.062492266 -0.07136921 -0.16716056 0.12367006
0.047467083 -0.22237813 -0.031824406 -0.060386207 0.07963542 -0.116708815 0.066333964 -0.043213084
-0.077604614 -0.029018862 -0.067650005 0.077269934 -0.023843244 0.0060102693 0.038074583 0.07939126
0.055191875 -0.12922218 0.07948398 -0.008023356 -0.11569305 0.029465301 -0.011936093 -0.037188858
0.077160366 0.052314322 0.02518243 0.08849891 0.01443772 -0.09040969 0.005018572 0.06082833
-0.09095727 -0.14398007 0.044105828 -0.023206294 -0.09325255 -0.0928803 -0.095437184 0.02009753
-0.011572313 -0.03957478 -0.2540419 -0.06855229 0.03768392 -0.07180856 0.104270704 -0.009760781
0.13144885 -0.08189225 0.097305045 0.11117335 -0.04800294 -0.021628594 0.008639078 -0.010003618
-0.09295018 0.057277706 0.08794552 -0.08606858 0.034801424 -0.017407209 -0.10457162 0.073406845
-0.058671273 -0.07027089 -0.07647223 0.062024403 0.07221707 0.07299004 0.0039771297 -0.04513136
-0.024198757 -0.044420976 -0.08574009 -0.028660435 0.06645873 0.056499448 0.046740394 -0.04737451
-0.06401637 -0.04266316 0.070970334 0.12247426 -0.08683208 -0.055435807 0.13103776 -0.11845856
0.14839703 0.09031547 -0.17728253 0.18308584 0.030458663 -0.25827727 -0.114342056 -0.047439437
0.07448326 -0.08211696 0.07570967 -0.10787874 -0.029568484 0.06422891 0.09075173 -0.0766197
0.0960667 -0.27973878 -0.03964741 -0.13632914 -0.19940263 0.022050254 0.09752268 0.11293164
0.08944026 0.008989254 0.004424186 0.15788479 -0.09842395 -0.14128445 0.14586876 0.09761489
-0.10139469 -0.08094188 0.014379134 0.08724014 0.028281346 0.1228027 -0.12563898 -0.07840155
0.014203918 -0.024277275 0.08448498 -0.1114901 0.039871477 0.00842463 0.089718945 0.01862503
00000000: 1bea 413e 319e 88bc 3105 5e3e 3e00 743c
00000010: e459 3a3d 5368 14bd 4843 9a3d 49b1 80bc
00000020: 3d0d 46be 3eb3 afbc d6a6 24be 57fe 043d
00000030: d638 8d3a 036c 5bbc 93cb dbbd 03de 04be
00000040: 486b dd3c 0c07 0dbe a02f 14be c94b 65be
00000050: f552 7dbd b757 f1bd 7a3c af3d ef9d 07bc
00000060: 9a0b bc3c 23e6 06be d7e9 cebd 3fe8 afbd
00000070: 6306 a73d 27da 333b ac0a 3b3d fee2 18bd
00000080: c6cd 753d 2c97 003c e22f 35bc c4cb 9b3c
00000090: 7799 db3d 1959 04be f9ad 26be 4896 b5bd
000000a0: 9d2b 6a3e aabf 243d 1ac4 3bbe 97e5 78be
000000b0: 1354 343e 33f4 a9bd c0f8 94b9 43df 86bc
000000c0: cb6c 39bd 197c 853d 83db 133e 86a5 34bd
000000d0: 0905 fdbd 1a79 86be cefe c43d 3e82 163e
000000e0: e94f a0bd b2f9 c53d a470 d13d ebb9 af3b
000000f0: f53a 3a3d a62c 783e 9a2b 053e e09c fcb9
00000100: 933b 33bb c1af 6ebe 0b82 4a3e f820 1a3d
00000110: 6f18 f13d a160 ea3c b180 113d 2981 b43d
00000120: fe6f 0ebe 9dba 6e3d 4340 053d 0371 433d
00000130: bdd2 bd3c 3ef5 dbbd 38b4 353d c1c9 aabd
00000140: 8c1b 17be 5463 cdba 7def 203e 73ed 92bd
00000150: cf47 883e bc76 f73d 9d36 b33c d92a 253c
00000160: b0be 52bd 46a6 673d 210b 50be 8140 453d
00000170: bae2 b73c 9414 b63d f95c 6abd 0e38 6abc
00000180: 631c 0fbd a46d 203d a79d 13be 0874 72bb
00000190: 2b58 5ebd 06df 003e 91d7 0c3e 9786 81bd
000001a0: 5146 b53c 956c c53d 9bc2 8dbd 1a23 39be
000001b0: fa96 0d3d 24fc e8bd 3df5 adbc 73e3 fdbd
000001c0: 3b0c 8ebd 8536 69bd 9543 04bd d6b7 943d
000001d0: e4f7 7fbd 052a 92bd 232c 2bbe ba46 fd3d
000001e0: d86c 423d 18b7 63be 4f5a 02bd 8757 77bd
000001f0: e517 a33d 0805 efbd 1ada 873d 3400 31bd
00000200: 2bef 9ebd f7b8 edbc 168c 8abd b33f 9e3d
00000210: e852 c3bc cbf1 c43b 18f4 1b3d e397 a23d
00000220: e010 623d d252 04be 7fc8 a23d 6574 03bc
00000230: 7af0 ecbd 3761 f13c 9a8f 43bc 5853 18bd
00000240: 4106 9e3d 8b47 563d 624b ce3c eb3e b53d
00000250: 308c 6c3c b728 b9bd d572 a43b 2127 793d
00000260: ce47 babd 836f 13be 50a8 343d 201b bebc
00000270: 31fb bebd 0738 bebd 9274 c3bd 93a3 a43c
00000280: cc99 3dbc 2a19 22bd c811 82be 2565 8cbd
00000290: 745a 1a3d 5e10 93bd e18b d53d afeb 1fbc
000002a0: 879a 063e 20b7 a7bd de47 c73d daae e33d
000002b0: bb9e 44bd 732e b1bc eb8a 0d3c 37e6 23bc
000002c0: aa5c bebd 079c 6a3d c81c b43d b944 b0bd
000002d0: f08b 0e3d 9099 8ebc a529 d6bd 5456 963d
000002e0: 4a51 70bd 2fea 8fbd 799d 9cbd 4d0d 7e3d
000002f0: 8be6 933d cd7b 953d 9552 823b a9db 38bd
00000300: 793c c6bc c5f2 35bd 8098 afbd 4ac9 eabc
00000310: 841b 883d f76b 673d db72 3f3d c60b 42bd
00000320: 041b 83bd 91bf 2ebd e558 913d c9d3 fa3d
00000330: 04d5 b1bd a810 63bd c32e 063e 679a f2bd
00000340: 64f5 173e 51f7 b83d 8d89 35be db7a 3b3e
00000350: 7284 f93c eb3c 84be 2b2c eabd db4f 42bd
00000360: ae8a 983d f02c a8bd ac0d 9b3d 87ef dcbd
00000370: 9b39 f2bc 728a 833d 0bdc b93d caea 9cbd
00000380: 9ebe c43d ec39 8fbe 5365 22bd de99 0bbe
00000390: 3430 4cbe bca2 b43c f9b9 c73d b448 e73d
000003a0: 742c b73d aa47 133c c3f8 903b 8dac 213e
000003b0: 7f92 c9bd dfac 10be 9f5e 153e 51ea c73d
000003c0: 05a8 cfbd dbc4 a5bd 7696 6b3c f5aa b23d
000003d0: 48ae e73c fb7f fb3d 81a7 00be fe90 a0bd
000003e0: 8db7 683c 23e1 c6bc 7606 ad3d ec54 e4bd
000003f0: 4650 233d 7607 0a3c 91be b73d 8593 983c

a2c_network.mu.bias f4 [18]
0.008074935 0.0130576 -0.010126113 0.035453305 0.028522084 -0.0719747 0.0822815 0.026937423
0.024202036 0.018435616 -0.07392486 0.1355592 -0.004235853 0.016245121 0.07408994 0.06597232
0.039046213 0.014545689
00000000: bb4c 043c 8bef 553c ffe7 25bc 7c37 113d
00000010: 25a7 e93c 7967 93bd 3483 a83d dfab dc3c
00000020: 5943 c63c 4a06 973c eb65 97bd 08d0 0a3e
00000030: e9cc 8abb 7d14 853c 77bc 973d 7f1c 873d
00000040: ecee 1f3d 0b51 6e3c

exp_avg f4 [18]
0.00029032203 -6.953906e-05 0.0002813294 -0.0004643567 -0.00029543243 0.0005500674 -0.0005529835 -0.00028664104
0.000227499 -0.00041054722 -0.0003559922 7.597016e-05 0.0007312617 -2.1938537e-05 0.00027891938 0.0010804228
-0.00038325915 -0.0003902629
00000000: 5d36 9839 80d5 91b8 657f 9339 e774 f3b9
00000010: 45e4 9ab9 6632 103a 18f6 10ba 4f48 96b9
00000020: cc8c 6e39 b73e d7b9 77a4 bab9 2b52 9f38
00000030: 24b2 3f3a a608 b8b7 ed3b 9239 f99c 8d3a
00000040: 2cf0 c8b9 339c ccb9

exp_avg_sq f4 [18]
1.0458785e-05 1.2230692e-05 1.2070163e-05 1.1572883e-05 1.14731965e-05 1.2507728e-05 1.191997e-05 1.1449719e-05
1.2830376e-05 1.04357905e-05 1.2839464e-05 1.2488575e-05 1.1329397e-05 1.2878018e-05 1.16905285e-05 1.1994971e-05
1.0611766e-05 1.1011739e-05
00000000: 2478 2f37 6c32 4d37 f580 4a37 2729 4237
00000010: 017d 4037 48d8 5137 e2fb 4737 2b18 4037
00000020: 0c42 5737 6115 2f37 1469 5737 0586 5137
00000030: 6413 3e37 ab0e 5837 7022 4437 023e 4937
00000040: 3009 3237 0fbf 3837

exp_avg f4 [128, 66]
-3.541085e-07 6.2929634e-05 8.800091e-06 -0.00016312575 8.822909e-05 8.042035e-05 -3.384529e-06 -1.2386696e-06
6.061271e-05 -2.9945013e-05 8.701344e-05 5.4977434e-05 -5.6752624e-06 -7.022798e-06 2.13711e-05 1.1932013e-05
-6.24382e-06 3.0778015e-06 4.7168916e-07 2.3337907e-05 -5.922488e-06 6.2157924e-06 -7.585008e-06 1.9564142e-05
-3.5531107e-06 -2.693503e-05 -9.460905e-06 2.0002615e-05 -3.1422205e-05 -1.3429197e-05 0.00035529444 6.307215e-05
-3.071384e-05 0.0010045867 -0.00030957375 1.9840742e-05 -0.0002631439 -0.0002876811 -0.0005167302 -0.00019771166
3.0334195e-05 0.00025767737 0.00024744484 -0.0013951677 -9.251298e-05 -9.607084e-05 0.00038932392 0.00022415616
4.0753494e-05 2.0065677e-06 9.47659e-05 0.00020568975 -0.00013152018 -4.7268255e-05 -0.00011371421 -6.7389425e-05
-8.9427704e-05 0.00016548755 -0.00016497391 -3.166648e-06 -4.537532e-05 -6.516134e-05 -0.00013185332 -5.4949272e-05
0.00019434857 0.00020554604 -0.00019124668 0.00014928781 -5.2637033e-06 -6.520682e-05 0.00014801731 -0.00050994864
-4.8220845e-06 6.663887e-06 -9.5524585e-05 -0.0002443846 0.00022570153 -0.0002626735 2.486622e-05 -4.1747768e-05
-2.9467607e-05 -1.4084078e-05 -1.4693383e-05 -2.2884607e-05 4.1272462e-05 1.0423703e-06 -7.830836e-06 1.1955469e-05
1.2089378e-05 6.468414e-06 -7.830196e-06 -4.6447385e-05 -2.3798046e-05 -3.767519e-06 -1.2583496e-05 -5.9055657e-07
-0.00021423843 -8.1341925e-05 -0.0007785599 4.4459786e-05 -0.0004303694 0.00017893953 0.00031409485 -0.00018011422
0.00025945445 -0.00019652511 0.000100740755 -0.00093233766 -0.0009833449 -0.00071450823 0.00066679367 -0.001503515
0.00059538014 -8.241283e-05 -6.9990397e-06 -0.00032845355 -0.0004596173 0.00011064599 6.37585e-05 -2.682196e-05
0.0004510437 -0.0003618879 0.00015277635 9.1704445e-05 9.965637e-05 -0.0002553278 -0.000281331 -0.000477798
-0.0002809056 -2.3838897e-05 0.00022899001 -1.7905046e-05 -2.6341648e-05 -1.2470889e-05 5.946275e-05 -0.0001650926
-3.639287e-05 -0.0001558494 -2.094764e-05 -1.4119951e-06 0.00037752083 4.7238424e-05 9.371483e-05 -0.0002080976
5.2968553e-06 -2.994691e-05 -2.3760645e-05 -2.0492467e-05 7.704963e-06 8.732553e-06 -6.5519605e-05 -6.453202e-05
-4.5409026e-05 -3.578904e-05 -1.2284364e-05 3.339056e-06 4.1786643e-05 7.369934e-05 5.964165e-05 2.9876771e-06
-6.954487e-05 -3.050108e-05 0.0012640761 -0.00022922373 0.00030226403 -0.0007081348 0.0006289582 -0.00040722013
0.00053963676 0.00021819113 -8.652398e-05 -5.9686397e-05 -0.00033768974 0.00064049906 0.00101396 0.0006506778
0.000111765185 -0.0010124347 -0.00040546936 -0.00083435926 0.0002725757 -0.00044293236 2.2048212e-05 -0.00032932148
0.00024822398 -7.00053e-05 -0.00022043932 -0.00022735198 -1.647642e-05 0.00014342651 3.5236164e-05 0.00010608358
0.000293331 -4.9695587e-05 0.00037932463 -0.00038074478 -0.00042179204 -0.00023613166 4.1456083e-06 9.8560726e-05
-6.6627144e-06 -5.735119e-05 0.00020931152 -7.339894e-05 9.959575e-06 -1.2761311e-05 -0.0001349972 7.329667e-05
8.593233e-05 5.0814124e-05 1.7798748e-05 2.2242783e-05 -3.567679e-06 1.4255609e-06 -1.4287848e-05 -1.00323905e-05
5.722399e-05 5.1685434e-05 2.7354665e-05 3.6173788e-05 4.9357765e-05 4.997196e-05 -2.7272781e-05 -6.0080115e-06
-2.3151075e-05 2.7249307e-05 -1.7612056e-05 -2.7020476e-06 -0.00086623925 3.613104e-05 0.0010143195 -0.0006158654
0.00080724736 -0.00051589106 0.0005512094 7.427625e-05 0.0003515528 -9.6765754e-05 -0.00056419993 -0.00016099968
0.00023502334 -0.0008743146 0.00038000458 -0.00066374236 0.0012219663 -4.6981655e-05 6.625059e-05 -5.9871586e-06
0.00020489829 -2.686656e-05 8.609511e-05 -0.00011881216 0.0003803019 -0.00020254905 0.00039243788 0.00027814758
00000000: 4d1c beb4 17f9 8338 1aa4 1337 bc0c 2bb9
00000010: a207 b938 59a7 a838 c421 63b6 5d40 a6b5
00000020: 673a 7e38 6d32 fbb7 fc7a b638 9297 6638
00000030: 226e beb6 60a5 ebb6 1646 b337 9b2f 4837
00000040: 0182 d1b6 3a8c 4e36 773c fd34 c6c5 c337
00000050: c9b9 c6b6 4091 d036 b982 feb6 ad1d a437
00000060: fa71 6eb6 89f2 e1b7 47ba 1eb7 4acb a737
00000070: 56cb 03b8 f64d 61b7 d046 ba39 9a45 8438
00000080: bcd2 00b8 56ac 833a 494e a2b9 ab6f a637
00000090: 94f6 89b9 e7d3 96b9 2d75 07ba d250 4fb9
000000a0: 3076 fe37 df18 8739 7cbb 8139 0fde b6ba
000000b0: 8703 c2b8 a479 c9b8 2c1e cc39 760b 6b39
000000c0: bbee 2a38 92a8 0636 0ebd c638 6cae 5739
000000d0: aee8 09b9 e741 46b8 da79 eeb8 6c53 8db8
000000e0: 228b bbb8 ba86 2d39 d9fc 2cb9 9982 54b6
000000f0: 6151 3eb8 3aa7 88b8 1b42 0ab9 5579 66b8
00000100: 0cca 4b39 d887 5739 6489 48b9 248a 1c39
00000110: de9e b0b6 a5bf 88b8 1835 1b39 13ae 05ba
00000120: 64cd a1b6 5a9a df36 5f54 c8b8 bf20 80b9
00000130: 4baa 6c39 71b7 89b9 cd97 d037 531a 2fb8
00000140: 3431 f7b7 a84a 6cb7 9983 76b7 52f8 bfb7
00000150: f81b 2d38 92e7 8b35 2f61 03b7 5994 4837
00000160: 7cd3 4a37 410b d936 705e 03b7 80d0 42b8
00000170: eaa1 c7b7 7cd5 7cb6 b41d 53b7 bd86 1eb5
00000180: 31a5 60b9 1d96 aab8 4518 4cba 557a 3a38
00000190: 34a3 e1b9 b7a1 3b39 19ad a439 0bdd 3cb9
000001a0: 6307 8839 4f12 4eb9 c844 d338 1f68 74ba
000001b0: 94e3 80ba d64d 3bba c4cb 2e3a 9811 c5ba
000001c0: 4913 1c3a 0dd5 acb8 4bd9 eab6 4a34 acb9
000001d0: caf8 f0b9 9d0a e838 16b6 8538 b8ff e0b7
000001e0: 107a ec39 c6bb bdb9 9732 2039 7351 c038
000001f0: 9bfe d038 84dd 85b9 9c7f 93b9 f680 fab9
00000200: 8346 93b9 a4f9 c7b7 0a1d 7039 cb32 96b7
00000210: 42f8 dcb7 0f3a 51b7 a467 7938 b51c 2db9
00000220: 8ca4 18b8 816b 23b9 b7b8 afb7 c883 bdb5
00000230: fded c539 df21 4638 c488 c438 c634 5ab9
00000240: a4bb b136 8036 fbb7 9951 c7b7 3de7 abb7
00000250: 9044 0137 0882 1237 9267 89b8 5d55 87b8
00000260: 9275 3eb8 301c 16b8 f118 4eb7 8c14 6036
00000270: 1144 2f38 088f 9a38 bc27 7a38 e77f 4836
00000280: 9ed8 91b8 92dc ffb7 5baf a53a c75b 70b9
00000290: 3179 9e39 1fa2 39ba ace0 243a 2980 d5b9
000002a0: 6976 0d3a 3cca 6439 3574 b5b8 c857 7ab8
000002b0: f30b b1b9 2ae7 273a dae6 843a 3f92 2a3a
000002c0: 7a63 ea38 acb3 84ba 2d95 d4b9 e7b8 5aba
000002d0: 7ee8 8e39 6039 e8b9 2df4 b837 c8a8 acb9
000002e0: 0f24 8239 cfcf 92b8 bb25 67b9 5565 6eb9
000002f0: d836 8ab7 c364 1639 8bca 1338 3079 de38
00000300: 38ca 9939 3b70 50b8 17e0 c639 b39e c7b9
00000310: f823 ddb9 1c9a 77b9 811a 8b36 63b2 ce38
00000320: 4890 dfb6 5f8c 70b8 a27a 5b39 c1ed 99b8
00000330: 0d18 2737 6a19 56b7 098e 0db9 dab6 9938
00000340: 9236 b438 4021 5538 854e 9537 0396 ba37
00000350: 426c 6fb6 e655 bf35 d7b5 6fb7 ca50 28b7
00000360: cb03 7038 d0c8 5838 b277 e537 4fb9 1738
00000370: 7f05 4f38 fc98 5138 dac7 e4b7 6d98 c9b6
00000380: 8e34 c2b7 7195 e437 9abd 93b7 d354 35b6
00000390: 5514 63ba 698b 1738 eaf2 843a 0772 21ba
000003a0: 749d 533a dd3c 07ba 097f 103a c2c4 9b38
000003b0: 9e50 b839 b8ee cab8 d1e6 13ba 06d2 28b9
000003c0: 9970 7639 4232 65ba 5a3b c739 fffe 2dba
000003d0: 632a a03a 2b0e 45b8 04f0 8a38 4de5 c8b6
000003e0: f7d9 5639 805f e1b7 f68d b438 cb2a f9b8
000003f0: 4263 c739 5963 54b9 1fc0 cd39 56d4 9139
