logs/rl_games/hexapod_flat_direct/2025-11-15_08-58-23/nn/last_hexapod_flat_direct_ep_100_rew_33.95381.pth (torch, 545704 bytes, 33 tensors)

value_mean_std.running_mean f8 [1]
0	0x3ff662ff8ecdd064	1.3991695001868942

value_mean_std.running_var f8 [1]
0	0x3fdaba1444308441	0.41760737094051953

value_mean_std.count f8 []
0	0x4182c00008000000	39321601.0

a2c_network.sigma f4 [18]
0	0xbe23ca92	-0.15995243
1	0xbebf8f5e	-0.37414068
2	0xbe9fa97b	-0.3118399
3	0xbeb1f40d	-0.34756508
4	0xbe667243	-0.22504525
5	0xbe6d9745	-0.23202236
6	0xbe657fbd	-0.2241201
7	0xbe91fc0b	-0.28512606
8	0xbe7e876c	-0.24856347
9	0xbe87edac	-0.26548517
10	0xbe800d23	-0.25010023
11	0xbe7f0120	-0.24902773
12	0xbe1365c6	-0.14394292
13	0xbe6220c9	-0.22082819
14	0xbe447e67	-0.19188844
15	0xbe58741e	-0.21138045
16	0xbdf7c3e9	-0.12097914
17	0xbdf27d24	-0.11840275

a2c_network.actor_mlp.0.weight f4 [128, 66]
0	0xbd024755	-0.03180631
1	0xbdc936d5	-0.098249115
2	0x3e8c294a	0.2737525
3	0xbe103dfc	-0.14086145
4	0xbc3435eb	-0.010999183
5	0x3db176a6	0.086652085
6	0x3ea7b8e7	0.32758257
7	0x3d676ac3	0.0564983
8	0xbe8b5aa6	-0.27217597
9	0xbec23507	-0.37931082
10	0xbdfabc01	-0.1224289
11	0x3c917053	0.017753756
12	0x3e51ddd1	0.20494772
13	0xbd1b0661	-0.03784788
14	0xbdd07066	-0.10177688
15	0xbe6bc71d	-0.23025174
16	0x3e775472	0.24153307
17	0xbdf05f5a	-0.11736937
18	0x3d7cfd37	0.061764922
19	0xbdd7d00e	-0.1053773
20	0x3d4ed68e	0.050497584
21	0xbd9134fc	-0.07090184
22	0xbde3915d	-0.1111171
23	0x3ca72e7f	0.020407913
24	0xbd044491	-0.032291953
25	0xbdc64aee	-0.096822605
26	0x3dc190ed	0.094514705
27	0xba8e230d	-0.0010844186
28	0xbdbe9eec	-0.09307656
29	0xbe630ba3	-0.22172408
30	0x3dd4e00b	0.10394295
31	0x3bd9fe99	0.006652665
32	0xbc0513bf	-0.008122384
33	0xbd31e3df	-0.043430205
34	0xbd214ca4	-0.03937973
35	0x3d75f314	0.06004627
36	0xbcc6f39a	-0.02428608
37	0xbe0ec45e	-0.13942096
38	0x3be0c1de	0.0068590483
39	0xbd6cffcd	-0.057861138
40	0xbd7c32f1	-0.06157202
41	0xbb993b26	-0.0046762405
42	0xbd7079f4	-0.058710054
43	0xbc9ef122	-0.01940209
44	0x3dbd11e0	0.09231925
45	0x3cae3412	0.021265063
46	0x3c88dbaa	0.016706306
47	0xbd3fdcfe	-0.046841614
48	0xbd30b7d3	-0.04314406
49	0xbd7885f4	-0.060674623
50	0x3cf12292	0.02943543
51	0xbdd002e6	-0.10156803
52	0xbd555052	-0.052078553
53	0xbd6155ac	-0.055013344
54	0xbc4ad889	-0.012380728
55	0xbe185dca	-0.14879528
56	0xbd9dffa3	-0.077147745
57	0xbd1c7d1b	-0.038205247
58	0xbe3bf97d	-0.18356891
59	0xbc80a181	-0.015702011
60	0xbcd403a1	-0.025880637
61	0xbbd62a57	-0.006535809
62	0x3dfd2375	0.123602785
63	0xbce40675	-0.02783511
64	0x3d3791ec	0.044816896
65	0x3bbda1c1	0.005787105
66	0x3e4dc381	0.2009411
67	0xbf0d03ed	-0.55084115
68	0xbe362cfb	-0.17790596
69	0xbdb6757e	-0.089091286
70	0xbe6174b2	-0.22017172
71	0x3b068ee4	0.0020531947
72	0xbed17761	-0.4091139
73	0x3dd69e65	0.1047943
74	0x3e3b1a94	0.18271858
75	0xbe796bea	-0.24357572
76	0x3ee04fa8	0.43810773
77	0xbefa8025	-0.48925892
78	0xbe1e3387	-0.15449344
79	0x3ee28053	0.4423853
80	0xbe55d65f	-0.20882557
81	0x3f3e4d6d	0.7433689
82	0x3d9c59ef	0.07634341
83	0xbdda1876	-0.10649197
84	0xbc981295	-0.018563548
85	0xbde12248	-0.10992867
86	0xbdb9f999	-0.0908081
87	0xbe144250	-0.14478421
88	0x3dfd1781	0.12357999
89	0xbd9fe421	-0.07807184
90	0x3e16d484	0.14729506
91	0x3d3023d3	0.043002915
92	0x3d9d59e6	0.076831624
93	0xbe008a14	-0.12552673
94	0x3e0e6f7a	0.13909712
95	0x3dee6504	0.11640361
96	0xbcb77a9f	-0.022397337
97	0xbddf51bc	-0.109042615
98	0x3d6c5803	0.057701122
99	0x3d2d146b	0.0422558
100	0xbdc7c3fd	-0.09754179
101	0x3d05000f	0.03247076
102	0x3cc5a152	0.024124775
103	0xbd6ea0e4	-0.058258906
104	0x3d19ac20	0.037517667
105	0x3c8a39c1	0.016873242
106	0xbc8fc82b	-0.017551502
107	0xbc9500d8	-0.018188879
108	0xbc4ffe1e	-0.012694864
109	0xbd2d13e4	-0.042255297
110	0xbd2e8cb5	-0.042614657
111	0x3cd6ee48	0.026236668
112	0x3bffea8e	0.0078099435
113	0xbd263b1d	-0.04058372
114	0x3c37fde5	0.011229967
115	0x3df03e0e	0.11730586
116	0x3c431ce4	0.0119087435
117	0x3dd7ac46	0.105309054
118	0x3c9f399c	0.01943665
119	0xbbda9883	-0.006671013
120	0xbc31e9fc	-0.010859009
121	0xbe00b1b7	-0.12567793
122	0x3d596b60	0.053080916
123	0x3de2819a	0.11059876
124	0xbdc04d8d	-0.09389792
125	0xbc4ec204	-0.012619499
126	0x3d9b1d8a	0.075739935
127	0x3e179ae5	0.14805181
128	0x3c2e5d11	0.010642306
129	0xba77593f	-0.0009435601
130	0xbcb7297b	-0.022358647
131	0x3dff2e68	0.12460023
132	0xbe7a7de3	-0.24462084
133	0xbf0e2c2c	-0.5553615
134	0x3e7002e7	0.23438607
135	0xbe4b29f6	-0.19840226
136	0x3ebd4a4e	0.36970752
137	0x3cf07a51	0.0293552
138	0x3f2d6716	0.6773542
139	0x3d4dfc5f	0.050289508
140	0x3d3a3b5e	0.045466773
141	0xbf394a63	-0.7237913
142	0xbec5bdf7	-0.38621494
143	0x3e2c5dad	0.1683261
144	0x3e49f3f3	0.19721965
145	0x3ebe9ab3	0.372274
146	0x3e3d7f1e	0.18505523
147	0x3cca9be0	0.02473253
148	0xbf0e904a	-0.5568892
149	0xbcf069cd	-0.029347325
150	0xbce2bd3d	-0.027678126
151	0xbdd7c91e	-0.10536407
152	0x3d3d46e3	0.04621018
153	0xbe0f7750	-0.14010358
154	0xbe4e89d7	-0.20169769
155	0xbe800d2d	-0.25010052
156	0xbde5f881	-0.11229039
157	0xbe835085	-0.2564737
158	0xbe262123	-0.16223578
159	0x3ce240e2	0.02761883
160	0xbc15e749	-0.009149381
161	0x3e49fed6	0.19726118
162	0xbd94cb3f	-0.072653286
163	0xbda24b3f	-0.07924508
164	0xbd620b73	-0.0551867
165	0x3d418729	0.04724804
166	0x3cd2f2dc	0.02575057
167	0x3d849526	0.0647376
168	0x3d5bdb59	0.053675983
169	0x3cf5e246	0.030015122
170	0xbcb93f58	-0.022613212
171	0xbd437153	-0.047715496
172	0xbd8ef61c	-0.069805354
173	0xbde76dcd	-0.1130024
174	0x3997cb81	0.00028952587
175	0xbd8133e1	-0.06308723
176	0x3d33ac95	0.04386576
177	0xbc465196	-0.012104413
178	0x3aa088b7	0.0012247775
179	0xbd7ff105	-0.062485714
180	0xbd668683	-0.056280624
181	0x3e4038e4	0.18771702
182	0x3d4addef	0.04952806
183	0x3d9e0c97	0.07717245
184	0xbe8d1798	-0.27557063
185	0xbd4a4d68	-0.049390227
186	0xbbcdc450	-0.006279506
187	0xbd8cd0a4	-0.068757325
188	0x3d9e0f8e	0.077178106
189	0xbdce74b8	-0.10080856
190	0x3e0238a0	0.12716913
191	0xbee5c4ec	-0.44876802
192	0xbd91430e	-0.07092868
193	0xbcd7ab1f	-0.026326714
194	0x3d67a2e3	0.056551825
195	0x3c58dc87	0.013236172
196	0xbd4f0ec9	-0.05055121
197	0xbb88cb0b	-0.0041745952
198	0x3f7c2a77	0.98502296
199	0xbec2aab9	-0.38020876
200	0x3efb0daa	0.49033862
201	0xbdda2e78	-0.106533945
202	0xbe8a40ff	-0.27002713
203	0xbec19bc7	-0.3781416
204	0xbef62cb6	-0.48080987
205	0x3fd39059	1.6528426
206	0xbd7f4cda	-0.06232915
207	0x3f22e745	0.6363414
208	0x3f08ad0a	0.53389037
209	0xbe532625	-0.2062002
210	0xbf1e88b9	-0.6192737
211	0x3e9f6f4b	0.31139597
212	0xbe6b65c7	-0.22988044
213	0x3e3c47e8	0.18386805
214	0xbeac4a71	-0.33650544
215	0x3f4ae2a5	0.7925208
216	0x3e3a92ff	0.18220137
217	0xbcf85f91	-0.030319007
218	0xbe98d8d8	-0.2985294
219	0x3dd665ea	0.10468657
220	0xbd9f0a40	-0.07765627
221	0x3d3a826a	0.04553453
222	0xbe53ab4c	-0.20670813
223	0x3cc31c93	0.023817336
224	0x3d625928	0.055260807
225	0xbf15a72f	-0.58458227
226	0x3d96688c	0.073441595
227	0xbe4c4c19	-0.19950904
228	0x3d067caf	0.03283375
229	0xbd9484bb	-0.07251879
230	0xbcf0edc5	-0.029410252
231	0xbd81e032	-0.0634159
232	0xbceed048	-0.02915205
233	0xbdb4739f	-0.088111155
234	0x3c3072b5	0.010769536
235	0x3e07c8d0	0.13260198
236	0x3d5eb445	0.054371137
237	0xbc3b1a79	-0.011419886
238	0xbdb4cdec	-0.08828339
239	0x3d5a3c34	0.05328007
240	0xbc959d29	-0.018263416
241	0x3c22086b	0.009889702
242	0xbbd01e49	-0.0063512665
243	0x3d577fc2	0.052612074
244	0x3dba724c	0.09103832
245	0x3d567be1	0.052364234
246	0xbe0891bf	-0.13336848
247	0x3e20c63f	0.15700625
248	0x3dca98d0	0.09892428
249	0xbd61cbd0	-0.05512601
250	0x3d376e91	0.04478318
251	0x3e9b64d2	0.30350357
252	0x3d87023a	0.065922216
253	0x3d88915c	0.0666835
254	0xbe4290d9	-0.19000567
255	0x3cbccc2c	0.023046575

a2c_network.actor_mlp.0.bias f4 [128]
0	0x3e199a1d	0.15000196
1	0xbe0a00e2	-0.134769
2	0xbdf75433	-0.120766066
3	0x3e0e4857	0.13894783
4	0xbd9f2ba1	-0.077719934
5	0x3e238848	0.15969956
6	0xbe078c07	-0.1323701
7	0xbd7ca144	-0.061677232
8	0x3e275cb3	0.16343956
9	0xbde24faf	-0.11050355
10	0xbc74de22	-0.014945539
11	0xbd40d11a	-0.047074415
12	0x3d8555d6	0.065105125
13	0x3e0610c9	0.1309234
14	0xbe16bc0d	-0.14720173
15	0x3c072068	0.008247472
16	0x3e19ee5d	0.15032335
17	0x3df901db	0.12158557
18	0xbc8b8353	-0.017030394
19	0xbd40a60c	-0.047033355
20	0xbe1fefcc	-0.15618819
21	0xbceb4b02	-0.02872229
22	0xbd9947f0	-0.07484424
23	0x3d4314e8	0.04762736
24	0xbe14af29	-0.14519943
25	0x3e0077d5	0.12545712
26	0x3d1329f5	0.035928685
27	0x3daf76bd	0.085675694
28	0xbd0c43da	-0.034244396
29	0x3d15d0e6	0.036576174
30	0x3de51df2	0.11187352
31	0xbd56132e	-0.052264385
32	0x3e085499	0.13313521
33	0xbcbb87e6	-0.02289195
34	0x3d338ffe	0.043838494
35	0x39e81d4c	0.00044272316
36	0xbcd53083	-0.026024109
37	0x3c800170	0.015625685
38	0x3d4adb19	0.049525354
39	0xbe26d085	-0.16290481
40	0xbda8a32f	-0.0823425
41	0x3dc72506	0.097238585
42	0x3d2af944	0.041741624
43	0x3dc84598	0.09778899
44	0x3cd656aa	0.026164372
45	0x3bd4b1a9	0.0064909053
46	0x3c3af195	0.011410137
47	0x3de5566b	0.111981235
48	0xbdaf6b39	-0.08565373
49	0x3d3b5722	0.045737393
50	0xbd5f6730	-0.054541767
51	0x3df01d89	0.117243834
52	0xbb58ca28	-0.003307948
53	0xbd492fab	-0.049117725
54	0xbd2689cf	-0.04065877
55	0xbdbd742a	-0.09250672
56	0xbd0b6261	-0.03402937
57	0x3df9808c	0.121827215
58	0x3d6e1096	0.058121286
59	0xbe04b344	-0.1295901
60	0x3dc720ca	0.09723051
61	0xbdb31b14	-0.08745399
62	0xbe2c5415	-0.1682895
63	0xbd72f811	-0.059318606
64	0x3c518011	0.012786881
65	0xbdea4f50	-0.11440909
66	0xbde50ba1	-0.11183859
67	0x3e0280a5	0.12744386
68	0xbbecb028	-0.007223148
69	0x3e2eac6d	0.17057963
70	0x3acba3ee	0.0015536526
71	0xbcc4d0c2	-0.024025325
72	0x3e36a1b7	0.17835127
73	0xbde712e0	-0.11282897
74	0x3dddaa00	0.108234406
75	0x3d217e04	0.03942682
76	0xbc0feb78	-0.0087841675
77	0xbdc2ff7e	-0.095213875
78	0x3c18e4d1	0.009331898
79	0x3d306fcb	0.043075364
80	0xbe4677f8	-0.19381702
81	0xbda138a5	-0.07872132
82	0x3e231fc2	0.15930083
83	0x3e05e17e	0.130743
84	0xbe2b944c	-0.1675579
85	0xbd4f8666	-0.05066528
86	0xbd57481f	-0.052559014
87	0xbe276556	-0.1634725
88	0x3d548df2	0.051893182
89	0xbd084161	-0.033265475
90	0x3e3968a7	0.18106328
91	0xbcc3e963	-0.023914998
92	0x3d68201c	0.056671247
93	0xbdb9cf7c	-0.09072778
94	0x3dc33c8b	0.09533032
95	0xbd852a55	-0.06502215
96	0xbd4788e2	-0.048714526
97	0xbc8c8a1f	-0.017155705
98	0x3cf722f3	0.030168032
99	0xbd294db4	-0.04133387
100	0xbd80fbf0	-0.06298053
101	0xbda153a4	-0.07877281
102	0xbd0aba98	-0.033869356
103	0xbe034a3f	-0.12821291
104	0xbcac547b	-0.021036377
105	0x3df87a32	0.12132682
106	0x3dee810e	0.11645709
107	0xbe416e42	-0.18889716
108	0x3cacc3de	0.02108949
109	0x3e217188	0.15765965
110	0xbd755238	-0.059892863
111	0x3dd60fac	0.10452208
112	0xbdd7101f	-0.10501122
113	0xbe08ae2c	-0.13347691
114	0x3dbd4ce0	0.09243178
115	0xbd6b9d07	-0.0575228
116	0xbdcac967	-0.09901696
117	0xbd1daeff	-0.038496967
118	0x3d9b205e	0.07574533
119	0xbdebe93f	-0.115190975
120	0xbd8e8892	-0.069596425
121	0xbd952dc3	-0.07284119
122	0xbe0f8866	-0.14016876
123	0x3e07f135	0.13275607
124	0x3d269fd7	0.04067978
125	0xbd8706d9	-0.06593103
126	0xbb49d0a5	-0.0030794528
127	0xbd3fc593	-0.04681928

a2c_network.actor_mlp.2.weight f4 [128, 128]
0	0xbc843944	-0.016140588
1	0x3e1e5b37	0.15464483
2	0xbe153271	-0.14570023
3	0x3d279d7b	0.04092167
4	0xbd3cc163	-0.046082865
5	0xbe02f5d1	-0.12789084
6	0x3c116c24	0.00887588
7	0xbe1e55f3	-0.15462475
8	0xbd28e75f	-0.041236278
9	0xbe046492	-0.1292899
10	0xbd250a62	-0.040293105
11	0xbe3d60e7	-0.18493997
12	0xbd1bd610	-0.038045943
13	0x3d8270af	0.06369149
14	0xbe235ccb	-0.15953366
15	0xbe055d3e	-0.1302385
16	0xbcafa1aa	-0.021439392
17	0xbe2caa9a	-0.16861954
18	0x3db04e6a	0.08608706
19	0xbe9d5f2e	-0.3073668
20	0x3dd9f2fe	0.1064205
21	0xbd0bd4ce	-0.034138493
22	0x3de84729	0.11341698
23	0xbd7c13dc	-0.061542377
24	0x3e44fd63	0.19237284
25	0xbdff0ff9	-0.124542184
26	0xbd3140e5	-0.04327478
27	0xbbc9121f	-0.0061361934
28	0x3e38a9fb	0.18033592
29	0xbe10c6b7	-0.14138304
30	0xbd9f6240	-0.077824116
31	0xbe2264b4	-0.15858728
32	0xbe3974ca	-0.18110958
33	0xbe0d26e7	-0.13784371
34	0xbbcd2dce	-0.006261564
35	0xbc8da392	-0.01728991
36	0xbe0ac944	-0.13553339
37	0x3dd46ebc	0.103726834
38	0x3b4a9cce	0.0030916217
39	0xbd31d324	-0.04341425
40	0xbc8c4158	-0.017121002
41	0xbd03e1e7	-0.03219786
42	0x3cad2c86	0.021139394
43	0xbd8367c0	-0.06416273
44	0xbe0d23f2	-0.13783243
45	0xbcb0315e	-0.021507915
46	0xbc18418b	-0.00929297
47	0x3df40c6c	0.11916432
48	0x3bf9bbbe	0.0076212576
49	0x3d0515d9	0.03249154
50	0xbe2bb4fd	-0.1676826
51	0xbda515c5	-0.08060793
52	0x3e6490e0	0.2232089
53	0x3d6f60d6	0.05844196
54	0x3d53a934	0.051675037
55	0x3e1b4f2d	0.15166922
56	0xbccb4f66	-0.024818134
57	0xbc50b846	-0.012739247
58	0xbd6b7c98	-0.05749187
59	0xbda359d7	-0.0797612
60	0xbdb41ace	-0.08794175
61	0x3c69a7f1	0.014261232
62	0xbd88c36d	-0.066778995
63	0xbe1e3668	-0.15450442
64	0xbd40fdfb	-0.047117215
65	0x3e4dfc9c	0.20115894
66	0xbd5d2624	-0.05399145
67	0xbdf84164	-0.12121847
68	0x3e7e64c9	0.24843134
69	0xbcbfe413	-0.023424184
70	0xbc6ce1c1	-0.014458121
71	0x3e371ff8	0.17883289
72	0xbc2b95ab	-0.010472695
73	0x3e39c5d1	0.18141867
74	0xbe3d5b31	-0.18491818
75	0x3da9651d	0.08271239
76	0x3ce2ac1b	0.027669957
77	0x3e0dcbfd	0.13847347
78	0xbe60d48f	-0.21956085
79	0xbe7e0d1d	-0.2480969
80	0x3db5a785	0.088698424
81	0xbe38d218	-0.18048894
82	0xbd0c83e6	-0.034305476
83	0x3cf194fe	0.02948999
84	0x3d0e84e1	0.034794692
85	0xbe01631b	-0.12635462
86	0xbe1d58f4	-0.15365964
87	0xbdc7edec	-0.09762177
88	0xbd463d0e	-0.04839807
89	0xbdade1bc	-0.08490321
90	0xbda9afab	-0.08285459
91	0xbdb0c22a	-0.08630784
92	0xbe8046e2	-0.2505408
93	0xbda58324	-0.08081654
94	0xbd6a9dcf	-0.057279404
95	0x3e093b29	0.13401474
96	0xbd12a8c4	-0.03580548
97	0x3dc31c4a	0.0952688
98	0xbcd47675	-0.025935391
99	0x3d0f81d7	0.035035934
100	0x3e4f8627	0.20266019
101	0xbe3ae31a	-0.18250695
102	0xbe28d0c1	-0.16485883
103	0x3d5ba5b5	0.053624827
104	0x3ea05dfa	0.31321698
105	0xbc0c28f0	-0.008554682
106	0xbd8475c3	-0.06467774
107	0x3deaff12	0.11474432
108	0x3d192e02	0.037397392
109	0xbe08724e	-0.13324854
110	0x3cee7e01	0.029112818
111	0xbda1d7df	-0.07902502
112	0x3e35bc81	0.1774769
113	0x3cb4da18	0.022076651
114	0xbda16baa	-0.078818634
115	0x3e2b39b6	0.16721234
116	0x3ce3a10e	0.027786758
117	0x3e17b949	0.14816774
118	0xbc7c97ab	-0.01541702
119	0x3e0e33b8	0.13886917
120	0xbda332e4	-0.07968691
121	0xbd8f61c6	-0.07001071
122	0x3e4a2912	0.1974223
123	0xbe68f4a2	-0.2274957
124	0x3dcdc8c1	0.100480564
125	0x3d297935	0.041375358
126	0x3d2e042d	0.04248445
127	0xbccfdc10	-0.025373489
128	0xbc1f8e01	-0.009738446
129	0xbe0711c2	-0.13190368
130	0x38db43b9	0.00010455348
131	0xbecf0e1c	-0.40440452
132	0x3e37a2a0	0.1793313
133	0xbc009c33	-0.007849741
134	0xbe6331a9	-0.22186913
135	0xbe5699c7	-0.20957099
136	0xbe0bc8ef	-0.13650869
137	0x3d84cc9b	0.06484338
138	0xbc098c27	-0.008395231
139	0xbd82446d	-0.063607074
140	0xbdcd4df9	-0.10024638
141	0x3c9b0ff6	0.01892851
142	0xbc400558	-0.011720024
143	0xbdcf80c1	-0.1013198
144	0xbbdfb972	-0.0068275267
145	0x3b71d756	0.0036902032
146	0xbe46fbba	-0.19431964
147	0x3e0bc80a	0.13650528
148	0x3d508029	0.050903473
149	0x3dc42f8e	0.09579383
150	0x3e1a14c9	0.15046991
151	0xbd4a29ac	-0.049356148
152	0x3d30b636	0.04314252
153	0xbccf7ba5	-0.025327513
154	0xbd11e530	-0.03561896
155	0x3ddfa32e	0.10919796
156	0xbdf1ea46	-0.11812262
157	0x3d9a7798	0.07542342
158	0xbe05f8c1	-0.13083173
159	0xbda80aef	-0.082052104
160	0x3d09fda1	0.033689145
161	0xbe443e49	-0.19164385
162	0x3cff80e2	0.031189386
163	0x3d175da1	0.036954526
164	0xbe037db6	-0.12840924
165	0xbe976c70	-0.2957492
166	0xbe03aaad	-0.12858076
167	0x3e4d52b9	0.20051087
168	0xbe70d20c	-0.23517627
169	0xbda36d1b	-0.079797946
170	0x3ceb308a	0.028709669
171	0xbdbfdb44	-0.093679935
172	0xbcc29182	-0.023751024
173	0xbe23bc7a	-0.15989867
174	0x3c4c25e4	0.012460206
175	0xbcd2c95a	-0.025730778
176	0xbe66be3d	-0.22533508
177	0xbe9def41	-0.308466
178	0x3dbe08e9	0.09279043
179	0xbda7f587	-0.082011275
180	0xbe4d9070	-0.2007463
181	0x3e92ccf4	0.28671992
182	0xbe676b18	-0.22599447
183	0xbda92af0	-0.08260143
184	0xbe530e0d	-0.20610829
185	0xbd371093	-0.04469354
186	0xbd04a4b2	-0.03238363
187	0xbe971f18	-0.2951591
188	0xbdaef28f	-0.08542358
189	0x3e5f1f44	0.2178927
190	0xbd69c900	-0.057076454
191	0x3d94a419	0.07257862
192	0xbddc281f	-0.1074984
193	0xbddcbe97	-0.1077854
194	0x3dd4ab03	0.103841804
195	0x3cc7b7e7	0.024379684
196	0xbe122a33	-0.1427391
197	0xbe242219	-0.16028632
198	0xbe01c723	-0.12673621
199	0xbcd1ce14	-0.025610961
200	0x3d8d4a53	0.06898942
201	0xbd8c8f27	-0.06863242
202	0xbcf621c4	-0.030045398
203	0x3de9418a	0.11389454
204	0xbdc09cd0	-0.094049096
205	0x3ccc29ed	0.024922336
206	0x3e8841d9	0.26612738
207	0x3cc9e56b	0.024645528
208	0x3e01716c	0.12640923
209	0xbe87275e	-0.26397222
210	0x3d57d0e9	0.052689467
211	0xbdba6e35	-0.091030516
212	0x3d19f393	0.037585806
213	0xbe1f8548	-0.15578187
214	0xbddc67a8	-0.10761958
215	0xbe4ba9ab	-0.19888942
216	0xbc82b577	-0.01595567
217	0xbe60e6ca	-0.21963039
218	0xbde2a6f2	-0.110669985
219	0xbcfc6cc3	-0.03081358
220	0xbce19912	-0.02753881
221	0x3e363ce8	0.17796671
222	0xbd1a264e	-0.037634186
223	0x3ec9a052	0.39380127
224	0xbddbba58	-0.107289016
225	0xbe9a75ef	-0.301681
226	0x3df96ee7	0.12179356
227	0x3d54951a	0.051900007
228	0xbde7f5ea	-0.11326201
229	0x3d2fa7aa	0.042884506
230	0x3ddd7b1a	0.108144954
231	0xbd5c6e49	-0.053816114
232	0xbbf7e182	-0.0075647244
233	0xbe4fa5bf	-0.20278071
234	0xbe70e3a5	-0.2352434
235	0xbdc22bb9	-0.09480996
236	0xbd52e1e2	-0.05148495
237	0x3e2f9c75	0.17149527
238	0x3d883375	0.0665044
239	0xbd8d410c	-0.06897172
240	0x3e906c37	0.2820756
241	0x3e12a061	0.14318992
242	0x3c209dfd	0.009803292
243	0x3e371f3f	0.17883013
244	0xbe60f06d	-0.21966715
245	0x3e03cfc0	0.12872219
246	0x3d5a4d32	0.053296275
247	0x3db7e211	0.089786656
248	0xbd48ffe3	-0.049072158
249	0xbda3ba3c	-0.07994506
250	0xbdade519	-0.084909625
251	0xbe202307	-0.15638362
252	0xbddd2595	-0.10798184
253	0x3e23390e	0.15939733
254	0x3b9cd037	0.0047855633
255	0x3d125f8d	0.035735656

a2c_network.actor_mlp.2.bias f4 [128]
0	0xbdde0a7c	-0.108418435
1	0xbd34b3ef	-0.04411691
2	0xbd834ac1	-0.064107426
3	0xbe14cb51	-0.14530684
4	0xbdbbea1a	-0.09175511
5	0xbda3f139	-0.08004994
6	0xbe3a2b73	-0.18180637
7	0xbe0c2df0	-0.13689399
8	0x3df6add9	0.120448776
9	0xbdb0f594	-0.0864059
10	0x3dc91d0f	0.098199956
11	0xbba49257	-0.005022328
12	0xbdeda48c	-0.116036505
13	0xbdc2d7d2	-0.09513821
14	0xbe0a26c3	-0.13491349
15	0xbd76c810	-0.06024939
16	0xbe3b587f	-0.18295477
17	0x3de03ca4	0.10949066
18	0xbdb82df4	-0.0899314
19	0xbdc16282	-0.09442617
20	0xbd527fe2	-0.05139149
21	0xbdd893f7	-0.10575097
22	0xbc18e52d	-0.0093319835
23	0xbd8de93c	-0.069292516
24	0x3d63c160	0.05560434
25	0xbdc865b1	-0.09785021
26	0x3cdb810c	0.026794933
27	0xbe25e55d	-0.16200776
28	0xbe38b098	-0.18036115
29	0xbdee203e	-0.116272435
30	0xbdf52b1b	-0.11971112
31	0xbddda52e	-0.10822521
32	0xbd4b41af	-0.049623188
33	0x3dbc91c4	0.0920749
34	0x3ce7500f	0.028236417
35	0xbcfa0c56	-0.03052346
36	0xbdb3cf27	-0.087797455
37	0xbd8c5713	-0.068525456
38	0x3d18065d	0.037115443
39	0xbd562c39	-0.052288268
40	0xbcc3b829	-0.023891525
41	0xbd67f7b3	-0.05663271
42	0xbd270958	-0.040780395
43	0xbe61024e	-0.21973535
44	0x3deb9e5e	0.115048155
45	0x3dcb64fe	0.09931372
46	0x3dacfb6c	0.084463924
47	0x3e1790bf	0.1480131
48	0xbe480b0e	-0.19535467
49	0xbdff1595	-0.12455288
50	0xbe4692fe	-0.1939201
51	0xbd768cea	-0.06019298
52	0x3c9ccc0c	0.019140266
53	0xbe42e452	-0.1903241
54	0x3da32247	0.07965522
55	0xbd512d9d	-0.05106889
56	0xbe10f535	-0.14156039
57	0xbe0f624f	-0.14002346
58	0x3d0ad7e4	0.033897296
59	0xbd314fbb	-0.043288928
60	0xbe3c1b1f	-0.18369721
61	0xbcdc8609	-0.026919382
62	0xbd3c4103	-0.045960438
63	0x3de522c8	0.111882746
64	0x3d23d1bf	0.03999495
65	0xbd523739	-0.051322196
66	0x3d2f019a	0.042726137
67	0xbd41eb09	-0.047343288
68	0xbc066722	-0.0082033
69	0xbd68a62c	-0.0567991
70	0xbe0f2a46	-0.1398097
71	0xbd5107d9	-0.051032875
72	0xbcc201bf	-0.023682473
73	0x3c345226	0.011005914
74	0xbe081a9a	-0.13291398
75	0x3d44588b	0.047936004
76	0xbcffbbfc	-0.031217568
77	0x3cecb9a5	0.028897116
78	0x3b0486aa	0.0020221868
79	0xbdd7b845	-0.105331935
80	0xbd983c83	-0.07433417
81	0xbe2c5a05	-0.16831215
82	0xbe69b72c	-0.22823781
83	0xbc73eac2	-0.014887514
84	0xbd9a8186	-0.07544236
85	0xbe4d05e6	-0.20021781
86	0xbd827af1	-0.063711055
87	0xbd417a17	-0.047235575
88	0x3dec2c55	0.11531893
89	0x3c332ba3	0.010935697
90	0xbe0f801b	-0.14013712
91	0xbb169c95	-0.0022981514
92	0x3b67d8cc	0.0035377024
93	0xbd3a1041	-0.045425657
94	0xbe76cf6f	-0.24102567
95	0x3e2041c8	0.15650094
96	0x3dd95552	0.10611977
97	0x3dd1171c	0.10209486
98	0xbdd9e8fc	-0.10640141
99	0x3da87624	0.082256585
100	0xbdef19a7	-0.11674815
101	0x3d68e4dc	0.056858882
102	0xbd981207	-0.074253134
103	0x3c8e6ec9	0.01738681
104	0x3d0e64df	0.034764167
105	0x3e00fbf9	0.1259612
106	0xbe5f5fe3	-0.21813922
107	0xbe2a95b5	-0.16658671
108	0xbdb2ac26	-0.08724241
109	0x3ab05c9c	0.0013455334
110	0x3d0fd6e1	0.035117034
111	0x3d9a03b1	0.07520235
112	0xbe2a2740	-0.16616535
113	0x38d77344	0.00010273469
114	0xbe6b1664	-0.2295776
115	0xbd3c6fc5	-0.04600503
116	0x3c84cd18	0.016211078
117	0x3e099132	0.13434294
118	0xbcffaae9	-0.031209426
119	0xba6f654e	-0.0009132222
120	0x3dc6ec07	0.097129874
121	0x3da489a2	0.08034064
122	0xbe07d88b	-0.13266198
123	0x3e094ccf	0.13408206
124	0xbde11fd0	-0.10992396
125	0xbe503933	-0.2033432
126	0x3d8968d1	0.06709445
127	0x3d976a5c	0.07393333

a2c_network.actor_mlp.4.weight f4 [128, 128]
0	0x3d7277c2	0.05919624
1	0x3c8be51f	0.017077027
2	0xbc87dbca	-0.016584296
3	0x3d58633f	0.052829023
4	0x3d214580	0.03937292
5	0xbe2fd79b	-0.1717209
6	0xbbf257e6	-0.007395732
7	0x3dafc5e7	0.08582669
8	0xbdc93738	-0.09824985
9	0xbcf62838	-0.030048475
10	0x3d325265	0.04353561
11	0xbcf9c337	-0.030488594
12	0xbc0357aa	-0.008016506
13	0x3d563927	0.0523006
14	0xbd3cd248	-0.046098977
15	0xbdb2f4c2	-0.0873809
16	0xbbfaba5d	-0.0076516108
17	0x3cc85a95	0.024457255
18	0xbd420e6e	-0.047377042
19	0xbda8ecc8	-0.082482874
20	0x3d1c5726	0.03816905
21	0x3d3f141a	0.04665003
22	0xbd10d33d	-0.035357703
23	0x3ca8a6d4	0.020587362
24	0xbd7e75d9	-0.062124107
25	0x3d412d97	0.04716262
26	0x3db2d237	0.087315015
27	0xbdab252c	-0.08356699
28	0x3cd45456	0.02591912
29	0xbdf095fb	-0.117473565
30	0xbd527a1e	-0.05138599
31	0x3d91a4f8	0.071115434
32	0x3d27b4ba	0.04094384
33	0xbd6efa9b	-0.058344465
34	0xbd349c1a	-0.044094183
35	0x3d510996	0.051034532
36	0x3ca07fc0	0.019592166
37	0xbcc3c3f0	-0.023897141
38	0xbc6c91e8	-0.014439084
39	0xbd66b7a8	-0.056327492
40	0xbd858607	-0.06519704
41	0xbbec8c1f	-0.007218852
42	0xbd8aebfe	-0.06783293
43	0xbd8b8cf5	-0.06813995
44	0x3d8ada2f	0.067798965
45	0xbd97e745	-0.07417158
46	0xbd9a400f	-0.075317495
47	0x3d7475e9	0.05968276
48	0x3dc62489	0.09674937
49	0xbd84e73d	-0.06489418
50	0xbd8821c7	-0.066470675
51	0xbd24c32f	-0.040225204
52	0xbd2a4069	-0.041565333
53	0x3b8363da	0.004009706
54	0xbde6df4b	-0.112730585
55	0x3d8bdfd1	0.06829799
56	0xbd870f26	-0.06594686
57	0x3e0312db	0.12800162
58	0xbd247f5c	-0.040160522
59	0xbc268369	-0.010163167
60	0x3d144990	0.036202967
61	0x3c6f20fe	0.014595268
62	0x3d88361d	0.06650946
63	0x3d712b88	0.058879405
64	0x3c1edf25	0.0096967565
65	0x3e18205e	0.14856097
66	0xbda50c68	-0.08059007
67	0xbd9fe3b8	-0.07807106
68	0x3de4ea2b	0.111774765
69	0x3d5c163f	0.053732153
70	0x3e07c968	0.13260424
71	0x3d8ecc34	0.069725424
72	0xbce9881f	-0.02850729
73	0x3b1f9850	0.002435226
74	0x3dd702d9	0.1049859
75	0xbb965823	-0.0045881434
76	0xbdb85b8e	-0.09001838
77	0x3d1c2670	0.038122594
78	0xbbab833e	-0.005234151
79	0x3c7989f9	0.015230649
80	0x3d194702	0.037421234
81	0x3d75327c	0.0598626
82	0x3d425cdd	0.047451843
83	0x3d489300	0.048968315
84	0x3cab0588	0.020876661
85	0xbda094f3	-0.0784091
86	0xbd6edccb	-0.058316033
87	0x3c988ff2	0.018623326
88	0xbda1be84	-0.07897666
89	0xbdba0d09	-0.090845175
90	0x3d6c9cc4	0.05776669
91	0xbd448865	-0.04798164
92	0x3d9e28bd	0.07722614
93	0x3cbbc1b8	0.02291952
94	0xbcbfb1b0	-0.023400158
95	0x3d2ff447	0.04295757
96	0x3c7b4254	0.015335638
97	0xbdee53b2	-0.11637057
98	0xbd584a36	-0.052805148
99	0xbd26d249	-0.040727887
100	0xbdc1c305	-0.09461025
101	0x3ce52e88	0.02797629
102	0xbdc81104	-0.097688705
103	0xbd9c3612	-0.076275006
104	0x3d593057	0.053024616
105	0xbd59fafe	-0.05321788
106	0xbdc15b23	-0.09441211
107	0xbd508339	-0.050906394
108	0x3c8387b1	0.016055914
109	0xbdc06d19	-0.09395809
110	0xbbd44645	-0.0064781033
111	0xbd928983	-0.071551345
112	0x3d960a25	0.07326154
113	0xbcb6415e	-0.022247966
114	0xbdd30e3c	-0.10305449
115	0xbdd22d64	-0.10262564
116	0xbd96ab6b	-0.07356914
117	0xbd8a1e5b	-0.06744071
118	0x3ddd999f	0.108203165
119	0x3ca4d01d	0.020118767
120	0x3ca4e379	0.020127999
121	0xbd16b225	-0.036790986
122	0x3cf57006	0.029960644
123	0x3d10dc11	0.03536612
124	0xbd3816f2	-0.044943757
125	0xbc98b315	-0.01864008
126	0xbcabe39c	-0.020982556
127	0xbe170069	-0.1474625
128	0xbe43d061	-0.19122459
129	0xbd92cabc	-0.07167575
130	0xbd9d1a28	-0.076710045
131	0x3c821070	0.015876979
132	0xbcc929e6	-0.024556112
133	0xbe210ef2	-0.15728357
134	0xbc0dbc4e	-0.008650852
135	0x3dfde624	0.123974115
136	0xbdee7617	-0.116436176
137	0xbe200265	-0.15625913
138	0xbd39def0	-0.045378625
139	0x3e519e49	0.20470537
140	0xbdd99e56	-0.10625903
141	0xbd00bc3f	-0.031429525
142	0x3dc8f23e	0.09811829
143	0x3d77e873	0.060524415
144	0xbd78928c	-0.060686633
145	0x3c7292f8	0.014805548
146	0xbdc48ff9	-0.09597773
147	0x3d80cda8	0.06289226
148	0xbe96d829	-0.29461792
149	0xbde5cdaf	-0.11220872
150	0x3d0663df	0.03281009
151	0xbd51073c	-0.05103229
152	0xbd6b62f7	-0.057467427
153	0xbd91f139	-0.07126088
154	0xbd7a7307	-0.061144855
155	0xbd09bbb0	-0.03362626
156	0x3caf900b	0.02143099
157	0x3dad610b	0.08465775
158	0xbc9cbb3b	-0.019132247
159	0x3d574c60	0.05256307
160	0xbe9675f1	-0.29386857
161	0xbdd18d75	-0.10232059
162	0xbe8d88e0	-0.2764349
163	0x3ccea3dd	0.02522462
164	0xbe181526	-0.14851817
165	0x3e3513d4	0.17683345
166	0xbe3aa3d2	-0.18226555
167	0xbdaeb4eb	-0.08530601
168	0xbdb23649	-0.0870176
169	0xbcdef1a5	-0.027214834
170	0xbcd8d4e4	-0.026468702
171	0x3d4722ca	0.04861716
172	0x3d270772	0.040778585
173	0xbd09b796	-0.033622347
174	0xbd625711	-0.055258814
175	0xbd7b55a3	-0.061360966
176	0x3d3c8608	0.04602626
177	0xbd9637c0	-0.07334852
178	0x3e18dd7a	0.14928237
179	0x3c8460da	0.016159464
180	0xbc3de753	-0.0115907965
181	0x3df5b043	0.1199651
182	0xbd16a70d	-0.036780406
183	0xbd708a4b	-0.058725636
184	0xbe0eee1c	-0.13958019
185	0x3d01f32a	0.03172604
186	0x3d82fe11	0.063961156
187	0xbe178fd0	-0.14800954
188	0xbd767a15	-0.06017502
189	0x3e17054d	0.14748116
190	0x3d6d2bc5	0.05790307
191	0xbdeb675c	-0.114943236
192	0xbdc1f325	-0.09470204
193	0xbd41d3ea	-0.047321238
194	0xbe28544c	-0.16438407
195	0x3dfa288f	0.12214767
196	0xbd5dab70	-0.054118574
197	0x3d8438ce	0.06456147
198	0x39fc24f5	0.0004809272
199	0xbd4a21d1	-0.049348656
200	0xbabe0e11	-0.0014500042
201	0xbe64eae9	-0.22355236
202	0x3dfd3405	0.123634376
203	0x3ddda84d	0.108231165
204	0x3e4b36bb	0.19845097
205	0xbe58e9f3	-0.21182995
206	0x3b92c79d	0.004479362
207	0x3e0e061d	0.1386952
208	0x3ddf90b1	0.109162696
209	0x3de90128	0.11377174
210	0x3dbbe277	0.09174054
211	0xbe324129	-0.17407669
212	0x3e69564b	0.22786824
213	0x3e93e259	0.28883627
214	0x3df80752	0.12110771
215	0x3e11e68d	0.14248104
216	0x3dd593d7	0.10428589
217	0x3e819272	0.2530704
218	0x3d437718	0.047721
219	0xbe0b4911	-0.13602091
220	0xbe0cc992	-0.13748768
221	0xbd65bd19	-0.05608854
222	0x3e1e3e3b	0.15453427
223	0xbd32413e	-0.04351925
224	0xbdced931	-0.1010002
225	0xbe15e817	-0.14639316
226	0x3c6d9612	0.014501112
227	0x3dfb4c9f	0.12270474
228	0x3e450d0e	0.19243261
229	0xbd2a3b90	-0.04156071
230	0x3d898f33	0.06716766
231	0xbdbe6d6c	-0.09298214
232	0xbe062a30	-0.13102031
233	0xbd83a292	-0.06427492
234	0x3d1f4436	0.03888341
235	0xbdb53abd	-0.08849094
236	0xbe26b6e1	-0.162807
237	0xbd80a702	-0.06281854
238	0xbe11162c	-0.14168614
239	0x3c32f657	0.01092299
240	0xbe23e554	-0.1600545
241	0x3e3d85ab	0.18508022
242	0x3daf501f	0.08560204
243	0x3dd5bdeb	0.104366146
244	0xbe34af4e	-0.17644998
245	0x3c2f02f0	0.010681853
246	0x3e5224b4	0.20521814
247	0x3c87d2eb	0.016580066
248	0xbe125836	-0.14291462
249	0xbd9682aa	-0.07349141
250	0xbe2cc54c	-0.16872138
251	0xbd58f33b	-0.052966338
252	0x3c12e4b1	0.008965657
253	0x3db981be	0.090579495
254	0xbe56cbcd	-0.20976181
255	0x3e24ac88	0.1608144

a2c_network.actor_mlp.4.bias f4 [128]
0	0x3db44010	0.088012815
1	0xbe38534b	-0.18000524
2	0xbccf4e90	-0.025306016
3	0x3db5fe76	0.08886425
4	0x3b5473bd	0.0032417618
5	0xbcc35537	-0.023844345
6	0x3d0563af	0.03256577
7	0xbdd188f2	-0.10231198
8	0xbe6c86b8	-0.23098266
9	0xbe2b6a9b	-0.16739886
10	0xbd43bc5f	-0.047787067
11	0xbd2ff837	-0.042961325
12	0x3d3ff0dd	0.046860565
13	0xbe2ebab3	-0.17063408
14	0xbbe5fd66	-0.007018733
15	0x3daa3394	0.08310619
16	0x3d5401f2	0.051759668
17	0x3ceacb72	0.028661463
18	0x3d8c1d10	0.06841481
19	0xbe036108	-0.12829983
20	0xbdb0af04	-0.086271316
21	0xbe6573a0	-0.22407389
22	0xbdc33ba0	-0.09532857
23	0xbdd54b21	-0.1041472
24	0x3d8b2459	0.06794042
25	0xbe0386b5	-0.12844355
26	0xbd17386e	-0.03691905
27	0x3d9721de	0.073795065
28	0xbd01415a	-0.031556465
29	0xbdde3a1e	-0.10850929
30	0xbdb21594	-0.08695522
31	0xbe75fe49	-0.24022783
32	0xbd330c5b	-0.043712955
33	0x3d6dec59	0.058086727
34	0xbdc8b64a	-0.09800394
35	0xbd0b5c1d	-0.034023393
36	0xbdfd26e9	-0.12360937
37	0xbdab2a6f	-0.08357703
38	0xbdf73bd4	-0.12071958
39	0x3df6164e	0.12015973
40	0xbe55de72	-0.20885637
41	0x3c4ad1b9	0.012379103
42	0xbe326d5b	-0.17424528
43	0x3d0653d3	0.032794785
44	0xbcd72dea	-0.02626701
45	0xbd3df2bc	-0.046374068
46	0x3d5cbf4d	0.053893376
47	0x3d60aa9f	0.054850217
48	0xbd1d5ae5	-0.038416762
49	0xbdc93180	-0.098238945
50	0x3dbe8ecb	0.09304579
51	0x3dcb65cd	0.09931526
52	0xbd992ba5	-0.07479028
53	0x3dd56526	0.10419683
54	0xbd80ab33	-0.06282654
55	0x3d576f34	0.052596286
56	0xbe1e4d34	-0.15459138
57	0xbe046484	-0.12928969
58	0x3b8621a3	0.0040933653
59	0xbdbebd78	-0.09313482
60	0x3c820685	0.01587225
61	0xbe2d125c	-0.16901535
62	0x3daff131	0.085909255
63	0xbe085a2b	-0.13315646
64	0x3e01b6c4	0.12667376
65	0xbd67d4fa	-0.056599595
66	0xbc8baca2	-0.017050091
67	0xbe4b33cb	-0.19843976
68	0x3d1f2b97	0.03885993
69	0x3c88e4c0	0.016710639
70	0xbe52fe54	-0.20604831
71	0x3db78f85	0.08962921
72	0x3d89a7ae	0.067214355
73	0x3dcccab9	0.09999604
74	0x3de6d1e2	0.11270501
75	0xbe4857d5	-0.19564755
76	0xbdf4d3cd	-0.1195446
77	0xbe20bbf0	-0.15696692
78	0x3d9146ec	0.070936054
79	0xbd90fddb	-0.07079669
80	0xbd513acc	-0.051081464
81	0xbe2fc567	-0.17165147
82	0xbda3bb0a	-0.07994659
83	0x3dd34754	0.10316339
84	0xbe52f677	-0.20601831
85	0xbe4556cb	-0.1927139
86	0x3d118299	0.03552494
87	0xbdac8565	-0.084238805
88	0x3dca80ab	0.09887823
89	0x3db6f77a	0.08933921
90	0x3d9a3f72	0.075316325
91	0x3cec0d90	0.02881506
92	0xbe5c2e03	-0.21501927
93	0x3dbcf73b	0.09226843
94	0x3d1b997b	0.037988167
95	0x3d8328eb	0.06404289
96	0x3d79cb72	0.060985036
97	0xbe4c9d6f	-0.19981931
98	0x3e0c273f	0.13686846
99	0xbe1d97df	-0.15389965
100	0xbe3a6789	-0.18203558
101	0x3ae9b49c	0.0017830315
102	0x3d46ea1a	0.0485631
103	0xbdbc9399	-0.092078395
104	0xbe213e9d	-0.15746541
105	0xbdf324e7	-0.11872273
106	0xbe3d1253	-0.18464021
107	0x3d8da7da	0.06916781
108	0xbc8cb32a	-0.017175276
109	0xbe3207b6	-0.17385754
110	0xbe53a587	-0.20668612
111	0x3ddec5d9	0.1087758
112	0x3d0b02d1	0.033938233
113	0x3db55f86	0.0885611
114	0xbe1272c5	-0.14301594
115	0x3da49456	0.08036105
116	0x3d7c2475	0.061558206
117	0xbe1ee1fc	-0.15515894
118	0xbdf3534b	-0.11881121
119	0x3e217d8b	0.15770547
120	0xbe5a9325	-0.21345194
121	0xbd42d9e3	-0.047571074
122	0x3d0ea21b	0.034822565
123	0x3df79a48	0.12089974
124	0x3dae3748	0.08506638
125	0xbdc469bc	-0.0959048
126	0xbc24c19d	-0.010055927
127	0xbe3865d6	-0.18007597

a2c_network.value.weight f4 [1, 128]
0	0x3cee2d70	0.0290744
1	0xbb13b0b9	-0.0022535755
2	0xbd2727dd	-0.0408095
3	0x3cab985a	0.02094667
4	0x3ba1a6dd	0.0049332217
5	0x3c3a4c48	0.011370726
6	0x3b2994e5	0.0025876102
7	0xba1b7b11	-0.0005931119
8	0xbe35b6bb	-0.17745487
9	0xbd460bf8	-0.048351258
10	0xbb9a5d28	-0.004710812
11	0xbc6e7a63	-0.014555546
12	0x3d0044bc	0.03131555
13	0xbbb048f0	-0.0053797886
14	0x3cbcbbeb	0.023038825
15	0x3bf99334	0.007616425
16	0x3c3a4db9	0.01137107
17	0x3c529313	0.012852448
18	0xbc02ee97	-0.007991455
19	0x3bc1d602	0.0059154043
20	0x3bca348c	0.006170815
21	0xbe319619	-0.17342414
22	0xbb971e75	-0.004611785
23	0x3cff6637	0.03117667
24	0xbca05e46	-0.019576203
25	0xbceb34b0	-0.028711647
26	0x3c4d5b28	0.01253394
27	0xbc203e94	-0.009780545
28	0xbbc68f20	-0.0060595423
29	0x3c01c9ca	0.007921645
30	0x3c75b389	0.014996418
31	0xbe4ac265	-0.19800718
32	0x3a154b9c	0.00056951656
33	0x3c0502cf	0.008118345
34	0x3972d327	0.00023157579
35	0x3b8a8139	0.0042268303
36	0xbd0ec4da	-0.0348557
37	0xbcc0abf8	-0.023519501
38	0xbd0b4541	-0.034001593
39	0x3d865778	0.06559652
40	0xbd486857	-0.04892763
41	0xbc300787	-0.010743982
42	0xbd832ebf	-0.064054005
43	0x3c50df6f	0.012748583
44	0xbb47f73b	-0.003051235
45	0xbb927caf	-0.00447043
46	0x3c989bfe	0.01862907
47	0xbbb9b217	-0.005666982
48	0xbcde6d20	-0.027151644
49	0xbcc46514	-0.023973979
50	0x3c2eafeb	0.010662059
51	0x3d19e55d	0.037572253
52	0xbcc7f28d	-0.02440765
53	0x3bfce58e	0.0077177947
54	0x39cfc5a3	0.00039629368
55	0x3c2c380f	0.010511412
56	0xbcac4459	-0.021028684
57	0xbd9cbd77	-0.07653325
58	0x3ce61373	0.028085446
59	0xbd2ff1ac	-0.042955086
60	0x3cf43156	0.029808681
61	0xbbc14b5a	-0.005898875
62	0x3cc42ad6	0.023946207
63	0xbae6a2ee	-0.0017596164
64	0x3d854bbd	0.065085866
65	0x3c748cb1	0.014926122
66	0x3bec6356	0.00721399
67	0xbe02b705	-0.12765129
68	0x3cb8f694	0.022578515
69	0xbcb26151	-0.02177492
70	0xbd1f8480	-0.03894472
71	0xbb68e9c8	-0.0035539735
72	0x3c86b8be	0.016445514
73	0x3d700a6e	0.058603697
74	0x3d4ef39e	0.0505253
75	0xbdaefbee	-0.085441455
76	0xbb5563ae	-0.0032560634
77	0xbe0c96aa	-0.13729349
78	0x3d296e79	0.04136512
79	0xbc36eeb4	-0.01116531
80	0xbc803b2b	-0.015653213
81	0xbd8a4bd0	-0.06752741
82	0xbc02616b	-0.007957797
83	0x3cdf3eb0	0.027251571
84	0xba91798a	-0.0011098844
85	0xbbf7102e	-0.0075397706
86	0xb8f16f78	-0.00011512538
87	0xbc8e391f	-0.017361222
88	0x3ce2ec08	0.02770044
89	0x3cb44847	0.02200712
90	0x3c2ede17	0.0106730675
91	0xbc181cef	-0.009284242
92	0xbe437adc	-0.19089836
93	0xbb51c0a8	-0.0032005701
94	0xbc52c693	-0.012864727
95	0x3ca20501	0.019777777
96	0xbb919518	-0.004442822
97	0x3aebe9c5	0.0017998746
98	0x3d53792e	0.051629238
99	0xbc91d42b	-0.017801365
100	0xbc02e839	-0.0079899365
101	0x3c597f04	0.013274912
102	0x3c2ba4ec	0.010476332
103	0xbc8e0e03	-0.017340666
104	0xbd395793	-0.045249533
105	0xbba6fbed	-0.00509595
106	0xbd69188c	-0.056908175
107	0x3ca7aa1a	0.020466853
108	0xbd2572f8	-0.040392846
109	0xb9cb5ec6	-0.0003878979
110	0xbcaa5171	-0.020790787
111	0x3cc6f039	0.024284469
112	0x3a75b059	0.0009372286
113	0x3c4225e4	0.011849854
114	0x3c8c72a1	0.017144503
115	0x3c40ca96	0.01176705
116	0x3d2653cd	0.040607262
117	0xbd4f255d	-0.05057274
118	0x3acf1adb	0.001580085
119	0x3dcca9fb	0.09993359
120	0xbe281863	-0.16415553
121	0x3bd5ac69	0.006520797
122	0xbc8cfb6f	-0.017209737
123	0x3d953dfb	0.072872125
124	0xbc374c81	-0.011187674
125	0xbbbf7c93	-0.005843708
126	0x3beda6a0	0.0072525293
127	0xbd080cec	-0.03321545

a2c_network.mu.weight f4 [18, 128]
0	0x3da81c02	0.08208467
1	0xbcf015bc	-0.029307239
2	0x3e14eaca	0.1454269
3	0x3c32e308	0.010918386
4	0x3cdac485	0.026705036
5	0x3bb6350f	0.0055605243
6	0x3d3ef880	0.046623707
7	0x3d482ce9	0.048870955
8	0xbc085db8	-0.008323126
9	0xbbbf5724	-0.0058392454
10	0xbdeda6a8	-0.11604053
11	0x3c88d071	0.016700955
12	0x3d7d5608	0.061849624
13	0xbd37f361	-0.04490984
14	0xbdaa4b21	-0.08315111
15	0xbdb8a22f	-0.09015309
16	0xbd140b2e	-0.036143474
17	0xbdda52ad	-0.106603004
18	0xbdc8276f	-0.09773146
19	0xbe683381	-0.22675897
20	0xbcbfd109	-0.023415105
21	0xbdada3a7	-0.0847848
22	0x3d5bb8bb	0.05364297
23	0x3c2dd13c	0.010608967
24	0xbcd1bd4d	-0.025602961
25	0xbd2d7d1d	-0.042355645
26	0xbdaf2b6b	-0.08553203
27	0xbd5a719c	-0.053331003
28	0x3d2aea47	0.04172733
29	0xbcffa1fe	-0.031205174
30	0x3d4879c4	0.04894425
31	0xbcfa1b2e	-0.030530538
32	0x3ca6c28a	0.020356435
33	0xbc3393ef	-0.010960563
34	0xbcbb20f9	-0.022842871
35	0x3cd5ec83	0.026113754
36	0x3d956696	0.07294957
37	0xbc8efe87	-0.017455352
38	0xbdb9779d	-0.090560175
39	0xbdb7a954	-0.08967844
40	0x3e5440b8	0.20727813
41	0x3d882894	0.06648365
42	0xbe1bed50	-0.15227246
43	0xbe4e1b37	-0.20127569
44	0x3dc6459e	0.09681247
45	0xbe045334	-0.12922364
46	0x3c9782a1	0.018494906
47	0xbc95fce9	-0.018309074
48	0xbbdee25d	-0.006801887
49	0x3d24bc05	0.040218372
50	0x3e452868	0.19253695
51	0xbd0131f0	-0.031541765
52	0x3acbf795	0.0015561456
53	0xbe182afc	-0.14860147
54	0x3d7956a2	0.060873635
55	0x3daf39ae	0.085559234
56	0xbde06e97	-0.10958593
57	0x3d9a3952	0.07530464
58	0x3d6a6e76	0.05723425
59	0x3da1a0cc	0.07891998
60	0xbb9457e0	-0.004527077
61	0x3e146c80	0.14494514
62	0x3e1313d8	0.14363039
63	0xbce88719	-0.028384732
64	0xbc97f677	-0.01855014
65	0xbdcc50b2	-0.09976329
66	0x3e71e8e7	0.23624001
67	0x3c6e8474	0.0145579465
68	0x3da45409	0.08023841
69	0x3d39fda2	0.0454079
70	0x3c3c537b	0.011494513
71	0x3cbdbb00	0.023160458
72	0xbd84cd53	-0.06484475
73	0x3d30b631	0.0431425
74	0x3d410382	0.047122486
75	0x3d968a6f	0.07350623
76	0xbcdbd1b3	-0.02683339
77	0xbd76a05f	-0.060211536
78	0xbb90704d	-0.0044079185
79	0xbc84d135	-0.016213039
80	0xbdbd0685	-0.09229759
81	0x3c1d1e7c	0.009589788
82	0x3e2947c4	0.16531283
83	0xbcd43a6e	-0.025906768
84	0x3e5d86e4	0.21633488
85	0x3e01c28d	0.12671871
86	0xbbaa5ab9	-0.0051988033
87	0x3cd720db	0.026260784
88	0xbd57ff88	-0.052733928
89	0xb970f87f	-0.00022980756
90	0xbe2015a3	-0.15633254
91	0x3cf0f69e	0.029414471
92	0xbb45d331	-0.0030185694
93	0x3c642248	0.013924189
94	0xbda3972e	-0.079878196
95	0x3d390824	0.04517378
96	0x3c6cb220	0.014446765
97	0x3d6498b5	0.055809695
98	0xbe18c63c	-0.1491937
99	0x3c74375c	0.014905777
100	0xbd46ce1f	-0.048536416
101	0x3dc8c79b	0.09803697
102	0x3e48a5ee	0.19594547
103	0xbcc5769b	-0.024104407
104	0x3c433b61	0.0119160125
105	0x3dd37fe0	0.103271246
106	0xbd46ea59	-0.048563335
107	0xbe16f2de	-0.14741084
108	0x3cfd99ee	0.030957188
109	0xbd9438d9	-0.07237405
110	0xbd81442b	-0.0631183
111	0xbe017bd2	-0.1264489
112	0x3ccb92c0	0.02485025
113	0xbd93f173	-0.07223787
114	0xbd63a8b4	-0.05558081
115	0x3d444ab8	0.04792282
116	0xbdaf527b	-0.08560654
117	0xbda4b340	-0.08042002
118	0xbe1e8aa6	-0.15482578
119	0x3d954ccc	0.072900385
120	0x3d4007c5	0.04688241
121	0xbe2964fe	-0.16542432
122	0x3c378b45	0.011202638
123	0xbd52803c	-0.051391825
124	0x3d53b636	0.05168744
125	0xbd5348e6	-0.051583193
126	0x3d4e3dd1	0.05035192
127	0xbc785def	-0.015159114
128	0xbcfb6020	-0.030685484
129	0xbc3c2cbd	-0.011485276
130	0xbd0e6a69	-0.03476945
131	0x3d870de4	0.06594446
132	0xb816bc0e	-3.5937926e-05
133	0xbc99485e	-0.018711265
134	0x3d5fdac9	0.05465201
135	0x3c9deaa1	0.019276919
136	0x3d7a226f	0.061067995
137	0xbd807376	-0.062720224
138	0x3c02aff0	0.007976517
139	0x3ae477f9	0.0017430774
140	0xbde3890d	-0.11110125
141	0x3cb54e89	0.022132175
142	0xbcd6074a	-0.026126523
143	0xbbedb09b	-0.007253719
144	0x3dc21198	0.09476012
145	0x3dab5b28	0.08366996
146	0x3d11c0e2	0.035584338
147	0x3ad4993a	0.0016219981
148	0xbce40de6	-0.027838659
149	0xbd640d58	-0.055676788
150	0x3c946153	0.018112814
151	0xbca205c9	-0.01977815
152	0xbdf7e93d	-0.121050335
153	0xbe10ab8a	-0.14127937
154	0x3da4a5f8	0.080394685
155	0xbcfee7ed	-0.03111645
156	0xbe021dd1	-0.12706687
157	0xbdb40d23	-0.08791568
158	0xbd879202	-0.06619646
159	0xbcbb9092	-0.022896085
160	0x3c224dd6	0.009906253
161	0x3ab5cbb7	0.0013869916
162	0xbe61e608	-0.22060406
163	0xbd50c670	-0.050970495
164	0x3ccf747e	0.025324102
165	0xbd8cdaa0	-0.06877637
166	0x3d706ffb	0.058700543
167	0xbbe9ad57	-0.0071312594
168	0x3dbe58f3	0.092943095
169	0xbd9e5c3f	-0.07732438
170	0x3d6625f9	0.056188557
171	0x3e22afd9	0.15887393
172	0x3c840d89	0.016119735
173	0x3d0e7e92	0.034788676
174	0xbd0e25ef	-0.034704145
175	0xbe0308f7	-0.12796389
176	0x3c9de430	0.019273847
177	0xbd280228	-0.04101768
178	0xbcc7934e	-0.024362233
179	0xbdad604a	-0.08465631
180	0xbccd8b14	-0.025090732
181	0x3c36c4e5	0.011155342
182	0xbe349af7	-0.1763724
183	0x3d3f8b68	0.046763808
184	0xbcf593c4	-0.029977687
185	0xbcc2936c	-0.023751937
186	0xbd10ead5	-0.035380203
187	0x3c57f7f8	0.013181679
188	0x3db7aff7	0.089691095
189	0x3d96555f	0.07340502
190	0x3ca8e0d7	0.020615024
191	0xbd87eccf	-0.066369645
192	0x3cbc087c	0.022953264
193	0xbd28bafd	-0.04119395
194	0x3d68d3f8	0.056842774
195	0x3c3f4d45	0.011676137
196	0x3d6dadbd	0.058027018
197	0x3d202735	0.03909989
198	0x3d047e07	0.03234675
199	0xbda7e538	-0.08198017
200	0xbcd221eb	-0.025650939
201	0xbdb23fd7	-0.08703583
202	0x3c63ce1a	0.013904119
203	0x3d92797e	0.07152079
204	0xbd89fc8f	-0.06737625
205	0xbc9f18b2	-0.019420955
206	0x3dc81d9a	0.09771271
207	0xbdb0fe86	-0.086422965
208	0x3e1f00e0	0.15527678
209	0x3dc63593	0.09678187
210	0xbe0c59f9	-0.13706197
211	0x3e066693	0.13125066
212	0x3d62ef49	0.05540398
213	0xbe076540	-0.13222218
214	0xbd5270f7	-0.051377263
215	0xbd5dc8ca	-0.054146565
216	0x3da67094	0.08126941
217	0xbd51976c	-0.051169798
218	0x3d800a09	0.06251914
219	0xbdbb4549	-0.091440745
220	0xbd44e3f7	-0.048068967
221	0x3c82b82f	0.015956966
222	0x3da7f8ca	0.082017496
223	0xbd97a8cf	-0.074052446
224	0x3daf0e86	0.08547692
225	0xbe7138ca	-0.2355682
226	0xbd2455cc	-0.040120885
227	0xbdd9aba5	-0.10628442
228	0xbe15cff1	-0.14630105
229	0xbc3a483f	-0.011369764
230	0x3e09a1da	0.13440648
231	0x3d6bfedd	0.057616103
232	0x3cfd1876	0.030895453
233	0xbb8b6f55	-0.004255215
234	0x3d2d0c79	0.042248223
235	0x3e1097db	0.14120428
236	0xbe019c3b	-0.12657253
237	0xbe1bc422	-0.15211537
238	0x3e11823d	0.14209838
239	0x3d8ad996	0.067797825
240	0x3cd9994a	0.026562352
241	0xbd94ea40	-0.07271242
242	0xbaa324fd	-0.0012446936
243	0x3d9161d6	0.07098739
244	0x3d62b85a	0.055351593
245	0x3da13e65	0.07873229
246	0xbdc9fa3e	-0.09862183
247	0xbc9bfbab	-0.019040903
248	0x3d8c2376	0.06842701
249	0xbd515bca	-0.051112927
250	0x3dfdfbdb	0.12401553
251	0xbdf24d14	-0.11831108
252	0xbca82af2	-0.02052829
253	0x3b21931f	0.0024654341
254	0x3c36efaf	0.011165543
255	0x3c7d77e7	0.0154704815

a2c_network.mu.bias f4 [18]
0	0xbcb743fa	-0.022371281
1	0xbc359b96	-0.011084458
2	0xbb6713f4	-0.0035259696
3	0x3cbdf77c	0.023189299
4	0x3d093f41	0.03350759
5	0xbd0a4906	-0.033761047
6	0x3d3c679e	0.045997255
7	0x3bdb9bc3	0.006701918
8	0x3c56973a	0.013097579
9	0xbc577812	-0.013151186
10	0xbc9fa6c8	-0.019488707
11	0x3dc25f9c	0.09490892
12	0xbc3483ae	-0.011017723
13	0xbd041347	-0.032244947
14	0x3d0a52a1	0.033770207
15	0xbd0c1106	-0.034195922
16	0x3cf853d9	0.03031342
17	0x3cdb906d	0.026802266

exp_avg f4 [18]
0	0xb9645e7d	-0.00021778974
1	0x3a1b9a7e	0.0005935802
2	0x3aad3124	0.0013213498
3	0x3a0ad909	0.0005296623
4	0x3a389bb8	0.0007042247
5	0x39a2c5ce	0.00031046424
6	0x3a506b46	0.00079505553
7	0xbad55f91	-0.0016279091
8	0x3a6554ec	0.0008748311
9	0xb9b4e4b8	-0.00034502684
10	0x3adc4d6b	0.001680774
11	0xba08b38f	-0.00052147446
12	0x3a12cd79	0.0005600076
13	0xbb33ef2d	-0.0027455792
14	0xba072117	-0.0005154772
15	0x3b133082	0.0022459333
16	0xb8bcc57d	-9.0013236e-05
17	0x39b3ba17	0.00034280188

exp_avg_sq f4 [18]
0	0x38883575	6.4949425e-05
1	0x388fb739	6.852899e-05
2	0x389c5aaa	7.455547e-05
3	0x38a4806a	7.8440484e-05
4	0x3889051d	6.5336215e-05
5	0x388d118b	6.7266716e-05
6	0x3899fb84	7.342457e-05
7	0x3899bbdd	7.330601e-05
8	0x389501ce	7.10521e-05
9	0x388c7d34	6.699041e-05
10	0x3898a05b	7.277793e-05
11	0x389fda0e	7.622327e-05
12	0x38956946	7.124482e-05
13	0x38910e5f	6.9168156e-05
14	0x3885541c	6.357601e-05
15	0x38aa5eb2	8.12387e-05
16	0x388beb06	6.671813e-05
17	0x3880d4dd	6.1431645e-05

exp_avg f4 [128, 66]
0	0xb8e5bcfc	-0.00010954772
1	0xb7fc007a	-3.0040963e-05
2	0x382d223f	4.127831e-05
3	0xb8d03923	-9.9288554e-05
4	0x39a143b4	0.00030758756
5	0xb9090952	-0.0001306881
6	0x3695ddb9	4.466358e-06
7	0x3685e154	3.9899405e-06
8	0x3850a11f	4.974112e-05
9	0xb94c9a7f	-0.0001951251
10	0x36c3aee1	5.8318114e-06
11	0xb906d08a	-0.00012856923
12	0xb64afae8	-3.0246392e-06
13	0x370fa5d2	8.562072e-06
14	0x37461021	1.1805475e-05
15	0x33a6fa9a	7.7755615e-08
16	0xb7af83af	-2.0922946e-05
17	0xb753f7e8	-1.26343e-05
18	0x3597157e	1.1256632e-06
19	0x383ef897	4.5531047e-05
20	0x36b36e78	5.347476e-06
21	0xb67486a2	-3.64372e-06
22	0x376fb82a	1.4288389e-05
23	0xb7203035	-9.547967e-06
24	0xb758586b	-1.289519e-05
25	0x38c7c001	9.524823e-05
26	0xb837deac	-4.383798e-05
27	0xb6d593b1	-6.365088e-06
28	0x382930a2	4.0338033e-05
29	0x3813f728	3.5277713e-05
30	0xba9d8857	-0.0012018782
31	0x3975fcfd	0.00023459266
32	0xb9a345e9	-0.0003114187
33	0x3ae9566b	0.0017802244
34	0x39aa565f	0.00032489278
35	0xb9dc7d19	-0.00042054875
36	0x39c6b101	0.0003789738
37	0x39895e92	0.00026201137
38	0x383f98f1	4.5680386e-05
39	0x38e20ebe	0.00010779266
40	0xba3201f6	-0.00067904533
41	0xba436e0d	-0.00074550585
42	0xb9e9c2dd	-0.00044586408
43	0xba86027a	-0.0010224127
44	0xba3194c8	-0.00067741843
45	0xba297d4d	-0.00064655097
46	0xb942fabc	-0.00018594688
47	0xba20695b	-0.0006119215
48	0xb9870ca9	-0.0002575864
49	0x391608cf	0.00014308396
50	0x3834eac9	4.3134005e-05
51	0x39c97029	0.00038421273
52	0xb8f68f2c	-0.00011756862
53	0xb83672f2	-4.3499233e-05
54	0xb8bb72f5	-8.938267e-05
55	0x39218fd1	0.00015407732
56	0xb8b385f2	-8.5603344e-05
57	0xb7c5bcec	-2.3572204e-05
58	0xb7c0c13e	-2.2978169e-05
59	0xba121670	-0.00055728015
60	0x38c6b56e	9.47517e-05
61	0x396fc084	0.00022864534
62	0xb8e77c51	-0.00011038094
63	0xb9459723	-0.00018843687
64	0x38a4da34	7.860773e-05
65	0x39a1ab34	0.0003083587
66	0x39b6d02a	0.0003486884
67	0xb6df4e10	-6.6550056e-06
68	0xb7fe6c5a	-3.0329615e-05
69	0xb8132a85	-3.508713e-05
70	0xb69711ec	-4.502237e-06
71	0xba24b205	-0.00062826305
72	0xb81a1ac5	-3.6741392e-05
73	0xb7b10be3	-2.110558e-05
74	0x3906af53	0.00012844549
75	0x3a4505f7	0.00075158424
76	0xb89242ba	-6.974251e-05
77	0xb9a40cdc	-0.000312901
78	0x3708eb60	8.161034e-06
79	0x36d7c029	6.4298697e-06
80	0x382aa375	4.068339e-05
81	0xb8a1a26a	-7.70733e-05
82	0x368ec9c8	4.25542e-06
83	0xb80152b0	-3.0833005e-05
84	0xb86703e8	-5.507833e-05
85	0xb88f27eb	-6.826207e-05
86	0xb801a182	-3.0906413e-05
87	0x367639fd	3.669061e-06
88	0x380d765b	3.3727247e-05
89	0x3784221c	1.575151e-05
90	0x39229d4a	0.00015508119
91	0x38f0ea0b	0.00011487686
92	0x3874bfdc	5.8352816e-05
93	0xb82731ff	-3.9862465e-05
94	0xb856f46f	-5.1249222e-05
95	0xb8cc2a20	-9.7353244e-05
96	0x3b132f1a	0.0022458495
97	0xba80cf5e	-0.0009827425
98	0x3a8bf7b5	0.0010678681
99	0xbb2ddb71	-0.0026528502
100	0x3a9a6c4e	0.0011781545
101	0x390502bc	0.00012684887
102	0x395b21ce	0.00020898061
103	0xba163225	-0.0005729518
104	0xba33809c	-0.00068474724
105	0xb97ade9f	-0.00023924791
106	0x38ee240d	0.00011355439
107	0xb9736923	-0.00023213452
108	0x3b2dc19c	0.0026513105
109	0x3ac69fb5	0.0015153798
110	0xb897cb64	-7.2381255e-05
111	0xb983ef0a	-0.00025164365
112	0x39d0cd66	0.00039825885
113	0xba675a1e	-0.0008825379
114	0x3a2ca210	0.00065854285
115	0x3897d255	7.2394185e-05
116	0x3955e248	0.0002039756
117	0xba51c2e7	-0.000800176
118	0x395b0195	0.00020886057
119	0xb969adc1	-0.0002228534
120	0xb999a66c	-0.00029306428
121	0xb9adabdc	-0.00033125177
122	0xb92b596f	-0.00016341147
123	0x39668a9f	0.0002198615
124	0xb775154c	-1.46080965e-05
125	0xb8f5cd66	-0.00011720769
126	0x3a317b23	0.0006770363
127	0xb879fb28	-5.9600134e-05
128	0x3862467a	5.3948235e-05
129	0xb89b10c6	-7.3941e-05
130	0xb9e61a3f	-0.00043888573
131	0xb8fe7323	-0.0001213311
132	0x3805a78f	3.1865722e-05
133	0x392c0ccc	0.00016407965
134	0x37cb0fd4	2.4206856e-05
135	0xb8a5b35f	-7.9012236e-05
136	0x38e10a48	0.00010730751
137	0xb98f0595	-0.00027279244
138	0x367d3eee	3.7736568e-06
139	0xb616b570	-2.2457352e-06
140	0xb92bbd81	-0.00016378427
141	0xb84ad39e	-4.8357637e-05
142	0x3917c0a2	0.00014472243
143	0xb8d3037d	-0.00010061914
144	0x37520745	1.2518668e-05
145	0xb7aa494e	-2.0299714e-05
146	0xb83c326c	-4.4869652e-05
147	0xb6141a5e	-2.2069066e-06
148	0xb7a0215f	-1.9089026e-05
149	0x38249f96	3.9249273e-05
150	0x379c9e6e	1.8670424e-05
151	0x3818c415	3.642224e-05
152	0x37a6e915	1.989728e-05
153	0x363e0c72	2.831945e-06
154	0x37eff20c	2.8603732e-05
155	0xb76cf43a	-1.412356e-05
156	0xb8106073	-3.44221e-05
157	0xb7b4adc6	-2.1538592e-05
158	0xb816a029	-3.5911948e-05
159	0xb8405a27	-4.5860328e-05
160	0xb7f6bf78	-2.9414645e-05
161	0xb87fe129	-6.1006434e-05
162	0x3a72c5e0	0.0009261053
163	0xba92ab8b	-0.001119004
164	0xba0285b0	-0.00049790274
165	0x38e8543b	0.00011078311
166	0x3a2e541d	0.0006650107
167	0x38872345	6.443871e-05
168	0x3a4fe185	0.00079300284
169	0x3a3a5eee	0.00071094825
170	0x38bf8017	9.131448e-05
171	0xb9e0bb69	-0.0004286424
172	0x3a0c707b	0.0005357337
173	0xbab595ee	-0.0013853887
174	0x3a8a9b24	0.00105748
175	0xb9a96090	-0.00032306137
176	0xbb042c57	-0.002016803
177	0xba892e4f	-0.0010466072
178	0x3844af21	4.6893143e-05
179	0xb8a9b52d	-8.0922946e-05
180	0x39878c9a	0.00025853963
181	0xb8ff5a2d	-0.00012176144
182	0xb99dbaa0	-0.0003008442
183	0x397d454a	0.00024153772
184	0x3950d19c	0.00019914511
185	0x3895e345	7.147206e-05
186	0x394bf773	0.0001945177
187	0xb91d6f40	-0.0001501413
188	0x39c4b929	0.00037521988
189	0xb9f711ef	-0.00047124873
190	0x39e27f06	0.0004320072
191	0xba15a18e	-0.00057079725
192	0x38e47881	0.00010894333
193	0xb82dc1eb	-4.1427014e-05
194	0xba30ebc4	-0.0006748999
195	0xb9fca765	-0.00048189904
196	0x3892a3f9	6.992365e-05
197	0x398a62a2	0.00026394898
198	0xb8c7d692	-9.529026e-05
199	0x361fc005	2.3804616e-06
200	0xb7c59497	-2.3553423e-05
201	0xb95ba369	-0.00020946343
202	0xb9f5977f	-0.00046842915
203	0xb9c0670e	-0.00036697875
204	0xb74582da	-1.1772581e-05
205	0xb78c1507	-1.6699092e-05
206	0xb9b0b6b0	-0.0003370545
207	0xb99fdc15	-0.00030490817
208	0xb7c8d223	-2.393971e-05
209	0xb96ce4ce	-0.0002259195
210	0xb730883f	-1.052214e-05
211	0x370cdbf4	8.395862e-06
212	0x38556a13	5.0881947e-05
213	0xb7e23ffc	-2.6971094e-05
214	0x3651390e	3.1176637e-06
215	0x364ad26e	3.0222832e-06
216	0xb699acbb	-4.579864e-06
217	0xb765bd2c	-1.3693509e-05
218	0x377f528c	1.5218404e-05
219	0x384fb36d	4.951975e-05
220	0x377daad0	1.51197455e-05
221	0x3805a4cb	3.1863146e-05
222	0x36d8e0cc	6.4634714e-06
223	0xb680bbb8	-3.8365506e-06
224	0xb7f8c8b8	-2.965737e-05
225	0x386c5aad	5.6351233e-05
226	0xb73b447e	-1.1162016e-05
227	0x38356337	4.3246164e-05
228	0xbaa22528	-0.0012370693
229	0x3b0b8149	0.0021286777
230	0x3b1569d0	0.0022798665
231	0xba13e809	-0.0005642181
232	0x3a946b66	0.0011323511
233	0x396fcd9c	0.00022869412
234	0x389a43d7	7.3559284e-05
235	0xba09aee5	-0.00052521966
236	0xba99e6ad	-0.001174172
237	0x3a49f362	0.00077038084
238	0x3a9dae9b	0.0012030186
239	0x39ac4bbf	0.00032862832
240	0x3a1d37ab	0.000599737
241	0x3a8602f2	0.0010224266
242	0xb97d7e52	-0.00024175018
243	0x3a9bc113	0.0011883102
244	0xba708d9b	-0.00091763743
245	0xba98b580	-0.0011650771
246	0xb99ea5ac	-0.00030259544
247	0x3a04f5b0	0.00050720107
248	0x3a24af9b	0.0006282271
249	0xb9eeba40	-0.00045533665
250	0x396f6ae3	0.00022832635
251	0x38024033	3.1054205e-05
252	0x3903b80b	0.00012561695
253	0x394ee037	0.00019729217
254	0xb9a8bacd	-0.00032182634
255	0x3a0b156e	0.00053056225
