logs/rl_games/hexapod_flat_direct/2025-11-15_08-58-23/nn/last_hexapod_flat_direct_ep_1200_rew_49.100433.pth (torch, 545998 bytes, 33 tensors)

value_mean_std.running_mean f8 [1]
000000 44 bd 08 cc e5 94 05 40
       2.6977039280097035

value_mean_std.running_var f8 [1]
000000 a5 f2 7e 43 ed 9d d0 3f
       0.2596390875949431

value_mean_std.count f8 []
000000 00 00 00 01 00 20 bc 41
       471859201.0

a2c_network.sigma f4 [18]
000000 27 c4 7d bf c3 01 ad bf 91 61 c7 bf c4 93 e4 bf
       -0.9912743 -1.3516163 -1.557665 -1.7857594
000010 6b 2c c8 bf ec d0 7e bf d0 11 6b bf 5a 13 51 bf
       -1.5638555 -0.9953754 -0.91824055 -0.81670153
000020 cc 7d 93 bf b0 35 83 bf 1c 27 63 bf 36 4f 84 bf
       -1.1522765 -1.0250759 -0.8873155 -1.0336673
000030 1f 91 ec bd 19 85 ec be fd 55 ba be f9 45 74 be
       -0.11551117 -0.46195295 -0.3639373 -0.23854817
000040 d3 14 6c be 54 76 62 be
       -0.23054819 -0.22115451

a2c_network.actor_mlp.0.weight f4 [128, 66]
000000 a3 b9 4f be 93 9e 96 bd f3 28 1b 3f 5c d0 42 be
       -0.20285659 -0.073544644 0.6060936 -0.19024795
000010 06 07 86 bd ba 3f 6a 3d 6e c5 8a 3e 8c 1f f1 3d
       -0.06544308 0.05718968 0.27103752 0.11773595
000020 30 01 a1 be 14 5d 04 bf 14 54 20 be a4 38 f8 3c
       -0.31446218 -0.51704526 -0.15657073 0.030300446
000030 1a d3 ca 3d 07 55 06 be f2 48 8f be fb cf 97 be
       0.09903546 -0.13118373 -0.2798534 -0.29650864
000040 45 f1 95 3e 8c 97 fc bd 07 86 32 3c 86 bf ea bd
       0.29285637 -0.12333593 0.010896212 -0.114623114
000050 29 1a 43 3d 11 f2 7e bc 88 67 24 be e0 94 7b 3d
       0.04763237 -0.015560643 -0.16055119 0.061421275
000060 f2 6a 29 bd f8 1d 64 3c d9 ab 11 3e 2c 99 5d 3b
       -0.041361757 0.013923161 0.14225711 0.0033813221
000070 8b 48 b0 3b a2 2a 5f be 74 b6 a5 3d ec 29 f2 3b
       0.0053797415 -0.21793607 0.08091441 0.0073902514
000080 40 40 07 3d 24 d6 15 bd 03 f0 0c bd e9 6f a7 3d
       0.033020258 -0.036581174 -0.03440858 0.08175642
000090 42 c9 aa bd 9e f9 14 be 5d fa 59 3d bf 21 b6 bd
       -0.08339168 -0.14548346 0.05321728 -0.08893155
0000a0 8c bc 6a bd 77 1d 14 3d 32 64 70 bd 42 1a ca 3c
       -0.05730872 0.036160912 -0.058689304 0.024670724
0000b0 d6 c4 26 3d 6e c1 00 3d fd 2e 16 3d 4b 80 99 3b
       0.04071506 0.03143447 0.036665905 0.004684483
0000c0 f2 dd 19 be f6 7b b7 bd 57 6f 27 bd f6 c9 8b bd
       -0.15026072 -0.089591905 -0.040877666 -0.0682563
0000d0 56 65 0e bd e2 6c 84 bd 99 be 37 be d8 6f 0a be
       -0.03476461 -0.0646608 -0.17943801 -0.13519228
0000e0 a6 aa d6 bc e9 8b 7a bd 96 43 1b be 20 af 17 3d
       -0.026204418 -0.061168585 -0.151625 0.037032247
0000f0 ed d3 0a 3c 90 4f 81 3d ae 93 25 3e be b7 a3 3d
       0.008473379 0.063140035 0.16169617 0.079940304
000100 c2 63 b1 3c 46 46 60 3d c6 78 55 3e 7b e9 dc be
       0.021654014 0.054754518 0.20846853 -0.4314688
000110 28 52 b0 bd a9 a4 e1 bd 7f 92 a8 be 56 ff db 3c
       -0.0860942 -0.110177346 -0.32924268 0.026855152
000120 f3 13 10 bf 47 e7 d5 3e 67 82 4b 3e 70 f9 8b be
       -0.5628044 0.41778013 0.19873963 -0.27338743
000130 71 a3 0f 3f 58 96 16 bf ae 5f 4b be 0a 88 00 3f
       0.56108767 -0.58823156 -0.19860718 0.5020758
000140 59 b9 96 bd 60 99 2c 3f 71 bf 11 3e 31 a6 d2 bd
       -0.07359571 0.6742153 0.14233185 -0.10285605
000150 33 be 26 3d 99 75 8e bd 0d 41 33 bd 10 c9 ba bd
       0.04070873 -0.06956024 -0.04376321 -0.09120381
000160 9f 98 bf 3e d2 99 f6 3a 76 95 4f 3e 9e a1 8b 3d
       0.37421128 0.0018814153 0.20271859 0.068179354
000170 5a d4 41 3c 00 b0 48 bc a9 9e 0c bd f6 0d c5 3d
       0.011830414 -0.012248993 -0.034330998 0.096218035
000180 ba 29 8c bc de bd ff bd e8 b2 ba 3d 92 57 c9 3c
       -0.01710974 -0.12487386 0.09116155 0.02457789
000190 a1 3a 68 bd 6d 20 a9 3d 77 64 50 3d b4 8e 23 3c
       -0.056696538 0.08258138 0.05087706 0.009982754
0001a0 71 4d 6e 3d 04 ba 0b bb 09 c0 15 bd c5 8b 1e 3d
       0.058179323 -0.002132059 -0.036560092 0.038707513
0001b0 e4 ec 36 bc 9a ee 15 ba b3 c3 72 bd 96 cd 8f 3d
       -0.011164878 -0.00057194533 -0.059268665 0.07021634
0001c0 15 cd 95 bc 54 28 f5 bc 73 8b 46 bb a2 72 81 3d
       -0.018286267 -0.029926457 -0.003029552 0.063206926
0001d0 d3 2f f7 3c c7 80 13 3b 54 78 ff 3c ca 61 2b 3c
       0.030174172 0.0022507177 0.031185307 0.010460326
0001e0 10 3d e1 3c b9 e2 a5 bd aa 14 89 3d a7 6a d4 3d
       0.027494937 -0.080998845 0.066933945 0.10371905
0001f0 18 5f b8 bd e7 61 4c 3d 63 2e 82 3d 2c 4f 0e 3e
       -0.09002513 0.049898054 0.06356504 0.13897389
000200 f7 7b f1 bc ce b6 21 3d cc 43 8d bd 00 e5 e3 3c
       -0.029478056 0.039480977 -0.06897697 0.027819157
000210 f0 7a 88 be 03 c8 f1 be 75 86 ff 3e 64 16 a9 be
       -0.26656294 -0.4722291 0.4990727 -0.33024895
000220 f4 be 1f 3f 56 d8 d3 3d 97 b0 13 3f 5c d8 8b 3b
       0.62400746 0.10343997 0.5769133 0.0042677354
000230 78 0b a9 3d 3c d0 39 bf d6 0e b9 be 97 31 0c 3e
       0.082541406 -0.72583365 -0.3614413 0.13690792
000240 f1 e9 29 3e 04 b6 dd 3e d0 d9 14 3e a0 1c 08 3c
       0.16593148 0.4330293 0.14536214 0.008307606
000250 f0 f0 52 bf 47 69 b6 3d 4b 91 89 bd 01 83 44 be
       -0.8239889 0.08906799 -0.067171656 -0.19190599
000260 05 ed a6 bc bc 7d 37 be c8 98 18 be 19 c0 88 be
       -0.020376692 -0.17919058 -0.14902031 -0.2670906
000270 30 91 07 3d d8 ac 3b be c2 56 6d bd fc 30 47 3d
       0.033097446 -0.18327653 -0.057944067 0.0486307
000280 d4 37 6d bd e4 cc 4c 3e cf 0d aa bd cb 84 1c bd
       -0.05791457 0.20000035 -0.08303415 -0.03821258
000290 35 1b fb bd ca 70 00 3e 1e 90 51 bd f5 ed 3b bc
       -0.12261049 0.12543026 -0.05116283 -0.011470308
0002a0 12 df aa 3d 83 31 c6 3c 18 cd e5 bc e6 75 ad bc
       0.083433285 0.02419353 -0.028051898 -0.021174382
0002b0 47 4b 7d bd 9a e6 23 be 3e 47 b0 bd 1e 37 07 be
       -0.06183937 -0.16005936 -0.08607338 -0.1320462
0002c0 17 75 7a 3d 5a 64 5b bd 52 b7 0a 3d 51 9a 33 3c
       0.06114682 -0.0535625 0.033866234 0.010962085
0002d0 00 ab 1b bd 1c 6e 6c 3e 11 ca 28 bd 0f 22 09 3d
       -0.038004875 0.23088878 -0.04120833 0.033479746
0002e0 62 4b a1 be 3b 89 78 bd 3b aa 66 bd 36 68 e9 bd
       -0.31502825 -0.06067775 -0.05631469 -0.1139683
0002f0 26 0d 7e 3d ed 41 a7 bd d5 98 9f 3d 44 d9 1b bf
       0.062024258 -0.08166871 0.07792822 -0.60878396
000300 f2 77 9e 3b 36 04 12 bd aa 19 fe 3d 1b 81 56 3d
       0.004836076 -0.035648547 0.12407239 0.05236922
000310 dc f7 14 bd 16 22 6c bd 14 b8 8c 3f b0 55 a2 be
       -0.03636919 -0.057649694 1.0993676 -0.31706
000320 15 ca 48 3f f4 34 08 be a2 be 88 be 17 0b 98 be
       0.7843335 -0.1330145 -0.2670794 -0.2969596
000330 12 4c 04 bf 7b 18 df 3f 82 ba 6d bd 79 05 48 3f
       -0.51678574 1.7429346 -0.058039196 0.7813335
000340 05 c9 21 3f ae db 63 be c8 b3 1b bf 1c 29 14 3f
       0.63197356 -0.2225177 -0.608212 0.5787523
000350 55 1e 9e be 9f e7 01 3e 98 dd fb be 5d 3b 4d 3f
       -0.30882517 0.12686013 -0.491925 0.80168706
000360 0b 10 6b 3e a2 03 dd bc 18 c9 a7 be 15 2e 1f 3e
       0.22955339 -0.026979271 -0.3277061 0.15544923
000370 b7 bf e5 3b ca 39 97 3d 94 ff 27 be 58 0e db 3d
       0.0070113796 0.07384069 -0.16406089 0.10696095
000380 eb 16 09 3e 3a db 3e bf 8e 70 a5 bc 9d f8 3c be
       0.13387649 -0.74553263 -0.020195272 -0.18454213
000390 61 7b 93 bc 9b cf b9 bd bd 51 97 3c c8 f2 88 bd
       -0.018003168 -0.09072801 0.018471593 -0.06686932
0003a0 bc f6 80 bd 5a be a5 bd bf e0 36 3e 04 54 30 3e
       -0.06297061 -0.08092947 0.17859171 0.1721955
0003b0 f9 a8 99 bc 41 04 69 3b c1 e2 f7 bc 95 72 b9 3a
       -0.01875733 0.0035555514 -0.030259492 0.0014148528
0003c0 58 0b 4e bc 35 e1 13 bd b3 56 00 bd 5b cd 1f 3d
       -0.012575947 -0.036103446 -0.031332683 0.0390142
0003d0 33 99 a4 3d 0a f0 28 3d 37 90 07 be e9 84 39 3e
       0.08037033 0.041244544 -0.13238607 0.18117107
0003e0 9c 41 49 3e 83 bb ce bd 52 49 fd 3b a4 50 90 3e
       0.19653934 -0.10094359 0.0077296877 0.28186524
0003f0 89 5c 33 3d 0d f1 1c 3d 8c 9a 57 be 29 99 f2 3b
       0.04378942 0.03831582 -0.21055049 0.007403512

a2c_network.actor_mlp.0.bias f4 [128]
000000 e3 e0 44 3e 3e ab 1a be 79 d5 21 be 14 01 0a 3e
       0.19226412 -0.15104386 -0.1580409 0.13476974
000010 f0 0d bb bd ab f0 46 3e 92 c8 22 be 36 c0 c7 bd
       -0.09133518 0.19427745 -0.15896824 -0.09753458
000020 df 9a 86 3e 59 76 ea bd 2b e6 2d bd f8 9c 58 bd
       0.26290032 -0.11448354 -0.042455833 -0.052884072
000030 8a 06 8d 3d 1e d6 0b 3e 33 ff 2b be a3 2d a3 bc
       0.06886013 0.13655898 -0.1679657 -0.019919222
000040 e7 2a 4a 3e 47 6d 27 3e a7 eb 6e 3c e1 40 3c bd
       0.19742928 0.1635028 0.014582551 -0.04596031
000050 ef b8 5a be 9e 87 4c bd 98 b8 23 bd 93 bb 0f 3e
       -0.21359609 -0.049934022 -0.039970964 0.14036398
000060 44 a3 31 be ed 73 16 3e 3f 08 69 3d 36 c8 09 3e
       -0.17347437 0.1469266 0.05689263 0.1345528
000070 c3 ee ab 3c 0e d2 a2 3d b5 e6 14 3e a8 c8 0d bd
       0.020987874 0.07950221 0.14541133 -0.03461519
000080 8c 70 39 3e 16 a6 2e bd 92 a0 40 3d 02 a1 51 3d
       0.1810934 -0.04263886 0.04702813 0.05117894
000090 03 dc 99 bc df c6 c7 3c 13 6e f4 3c 63 b7 30 be
       -0.018781668 0.024386821 0.029837644 -0.17257456
0000a0 1d 3b a2 bd ae 66 29 3e a7 12 9b 3d b0 51 03 3e
       -0.07921431 0.16543075 0.07571917 0.1282413
0000b0 ff ec 08 3c 2a 2c 91 3d 97 2e 11 bd ec 33 df 3d
       0.0083572855 0.07088502 -0.035444822 0.10898575
0000c0 0d 18 f4 bd 32 3a bb 3d 8a 9b 8a bd a8 e3 03 3e
       -0.1191865 0.09141959 -0.06767948 0.12879813
0000d0 4d 62 14 3c d0 aa 7e bd e6 3b 1c bd 95 51 01 be
       0.00905664 -0.06217462 -0.03814306 -0.12628777
0000e0 42 34 19 bd c7 3d 41 3e e1 43 97 3d 27 68 fe bd
       -0.037403353 0.18871222 0.07385994 -0.12422209
0000f0 2f 10 e8 3d d0 f0 b8 bd 83 98 82 be cd 49 f5 bc
       0.11331212 -0.09030306 -0.25506982 -0.029942418
000100 71 25 4e 3d 4e 60 02 be 04 ff cd bd 42 54 eb 3d
       0.050328676 -0.1273205 -0.10058406 0.1149068
000110 62 b3 8b bd db e3 86 3e 7c 8b ec 3c 24 b7 7f bc
       -0.06821324 0.26345715 0.028875105 -0.015607629
000120 63 e4 97 3e 7e b8 dc bd 60 1b d3 3d 16 d7 18 3d
       0.29666433 -0.107773766 0.10307956 0.037314497
000130 8c 4d bf bc 66 b8 2a be 60 4b da bc cd 16 84 3d
       -0.023352407 -0.16671905 -0.02664727 0.064496614
000140 a5 0c 71 be b9 9e 20 be f4 ff 88 3e 0c 0d 3f 3e
       -0.2353998 -0.15685548 0.26757777 0.1865732
000150 9a 39 80 be 3e 82 07 bd af 55 06 be f5 f8 7f be
       -0.25043947 -0.033083193 -0.13118623 -0.24997313
000160 fb e1 ba 3d 3a 42 b8 bc c3 3f 95 3e 19 6c 6a bd
       0.091251336 -0.022492517 0.2915021 -0.057231996
000170 f2 ae 4e 3d b4 13 19 be ad 6f fc 3d 4d f6 77 bd
       0.05045981 -0.14948922 0.12325988 -0.060537625
000180 4a da b9 bc 7e b9 64 bd 6c 3a 8a bc 42 16 d8 bc
       -0.022687096 -0.05584096 -0.01687356 -0.0263778
000190 d9 31 83 bd 52 24 96 bd 5c 86 8f bd 23 b6 28 be
       -0.06405992 -0.07331146 -0.07008049 -0.1647573
0001a0 0f 47 51 bc a7 1f 20 3e fc 10 96 3d 55 2f 6e be
       -0.012773289 0.15637074 0.07327458 -0.23260243
0001b0 24 7e a8 3c ce c9 75 3e 2b 0d a9 bd bb 8a 95 3d
       0.020567961 0.24002764 -0.08254465 0.07301851
0001c0 44 e9 02 be 18 e9 05 be b2 5f 87 3d d5 ac 8c bd
       -0.12784296 -0.130772 0.06610049 -0.068689026
0001d0 02 2f d5 bd dd 0a 19 bd f2 f3 63 3d 4e f7 fc bd
       -0.10409357 -0.037363876 0.055652566 -0.12351857
0001e0 a0 73 0c be e6 ae df bd 26 af 49 be 9d 0f da 3d
       -0.13715982 -0.10922031 -0.1969572 0.10647509
0001f0 ad f4 74 3d 13 dd b6 bd 24 68 62 bd 85 0d b9 bd
       0.059803654 -0.08928885 -0.055275097 -0.09035782

a2c_network.actor_mlp.2.weight f4 [128, 128]
000000 4f c5 7f bc 14 4e 6f 3e da e4 1d be 91 bd 85 bc
       -0.015611007 0.23369628 -0.15419331 -0.016325744
000010 6f d8 4b bd 71 b9 7d be ae 38 9f 3c c5 0d 9e bd
       -0.049766954 -0.24777772 0.019436207 -0.0771747
000020 0b ed e9 bd 81 5b 16 be db ab 2a be 4e 7a 58 be
       -0.114221655 -0.14683343 -0.1666712 -0.21140406
000030 9f 1f f3 bd 75 4a 48 3d d2 3e 04 be e4 8a 30 be
       -0.118712656 0.048899133 -0.12914589 -0.17240483
000040 53 42 cc bd e0 68 6a be 08 0f 3e 3e 5a 32 b2 be
       -0.09973588 -0.22891569 0.18560421 -0.3480404
000050 85 dc 10 3e c6 49 b4 bd 81 65 b2 3d ea 40 f5 bc
       0.14146622 -0.08803134 0.087107666 -0.02993818
000060 14 e2 75 3e 77 96 c6 bd 63 35 d6 bd 2b f1 8f 3c
       0.24012023 -0.09696668 -0.104594015 0.017571053
000070 64 7d 5a 3e 76 8d fd bd 09 99 c1 bd 3b 08 85 ba
       0.21336895 -0.12380497 -0.09453017 -0.0010149548
000080 09 19 79 be c6 4b d3 bd ca 71 a0 bd e2 e1 0f bd
       -0.24325956 -0.10317187 -0.078342035 -0.035127528
000090 d3 ed 06 be f3 cf 1d 3e 69 1e 44 bd 97 a9 86 bd
       -0.1317666 0.15411358 -0.047880564 -0.065753154
0000a0 a7 d2 54 bc 3e 33 28 3c 0c f7 90 bc b8 5e 41 be
       -0.012989677 0.010266123 -0.017695926 -0.18883789
0000b0 e8 95 f3 bd 86 b4 ed 3b b2 25 4d bd e9 41 1e 3c
       -0.11893827 0.007254186 -0.050084777 0.009659269
0000c0 af f9 77 bd fb a2 0e 3c 35 67 4f be 13 a7 96 bd
       -0.06054085 0.00870585 -0.20254214 -0.07356086
0000d0 c7 3c 4e 3e 66 1b 76 3d a1 ad 65 bd 7c 27 27 3e
       0.20140372 0.060084723 -0.05607379 0.16323656
0000e0 5c 6e 18 bc 33 eb 9b 3c 93 a1 2b bd 7e 7a fc bc
       -0.0093036555 0.01903305 -0.041902136 -0.030820128
0000f0 f4 ff e0 bd c5 52 5e bd bd cb 10 bd b9 8f 1d be
       -0.10986319 -0.054278154 -0.03535055 -0.15386857
000100 3c 02 0f be 58 8c 83 3e 8d 73 8e bd 26 51 a7 bc
       -0.13965696 0.2569301 -0.06955633 -0.020424437
000110 c3 72 86 3e fc 5a b6 bc bc 59 83 3d fe ac 71 3e
       0.2625943 -0.022260182 0.064136 0.23601148
000120 21 5c 29 bd 99 69 42 3e 6e 98 90 be 39 fa 81 3d
       -0.041347627 0.18985595 -0.28241295 0.06346554
000130 3b 80 8e bb 5c 3d 27 3e 36 93 0d be d8 a5 7f be
       -0.0043487824 0.16332 -0.13825688 -0.24965608
000140 cb 2d cb 3d 53 7a 17 be 3a dc 5e bd 24 4b b8 3c
       0.09920844 -0.14792757 -0.054409243 0.022496767
000150 00 56 4a 3c 38 65 2d be 4a fb 4c be 44 52 81 bd
       0.012349606 -0.16933143 -0.20017734 -0.06314519
000160 d3 b3 78 be bb df 1a bd 0c 53 b2 bd b3 59 a8 bd
       -0.24287347 -0.037811022 -0.08707246 -0.08220234
000170 1b 08 89 be c2 8a 80 bb b1 95 56 bd cc 79 82 3e
       -0.26763996 -0.003922791 -0.05238885 0.2548355
000180 7f 69 46 bd 07 cc a4 3d 5a 44 8c bc 44 d8 8d 3d
       -0.048440453 0.08046728 -0.017122436 0.06926015
000190 74 66 30 3e f5 03 4b be 9c a5 08 be 5b 53 87 3d
       0.17226583 -0.19825728 -0.13344425 0.06607696
0001a0 da c6 b7 3e 0e b5 8d bd e6 fb 56 bd f3 44 2b 3e
       0.358939 -0.06919299 -0.052486323 0.16725521
0001b0 cf 67 e1 3b 1f de 00 be 2d 8c 0a 3e d1 bb 3b 3c
       0.00687883 -0.12584732 0.13530035 0.011458353
0001c0 2f ea b8 3d 69 f8 e1 ba af d3 0b be 36 45 32 3e
       0.09029042 -0.001724017 -0.1365497 0.17409214
0001d0 35 0a d6 3d e3 b5 c2 3d fb 13 15 bd f0 79 2a 3e
       0.104511656 0.095073484 -0.036396008 0.16648078
0001e0 34 5c 91 3c b7 f1 55 bd 00 92 91 3e e7 e6 a2 be
       0.017744161 -0.05223247 0.28431702 -0.3181679
0001f0 17 47 07 3e be b8 0a 3d 3f fe 7c bb 4f f4 21 3a
       0.13210712 0.03386759 -0.003860369 0.00061780674
000200 48 3c 0d 3d e9 80 4e bd 54 52 9b 3b e4 87 c9 be
       0.034481317 -0.050415907 0.004740039 -0.3936149
000210 33 03 6f 3e 0e 82 b4 3b de 2c 89 be 6d 3f 5f be
       0.23341064 0.005508668 -0.26792043 -0.21801539
000220 47 30 d7 bd 66 a9 8e 3d eb 47 64 3c ea 0b 44 bd
       -0.10507255 0.06965904 0.013933162 -0.047862925
000230 9c 02 18 be ba 83 b0 3b ec e1 8e bb ca e7 37 be
       -0.14844745 0.005386797 -0.004360428 -0.17959514
000240 54 e1 02 bd 74 18 ad 3d 0b 7d 55 be 56 b6 dc 3d
       -0.03195317 0.0845193 -0.20848481 0.10776965
000250 af 47 a8 3d dc 2b b3 3d 6e df 01 3e 29 17 a6 bd
       0.082167976 0.087486 0.12682888 -0.08109886
000260 b3 f7 35 3d 16 0c 9a 3d d4 2c 0a bc dd 2e ec 3d
       0.044425678 0.075218365 -0.008433539 0.11532376
000270 1c d2 57 be 2a 6d c1 3d 7a a8 fe bd 1b 92 9b bd
       -0.21076244 0.094446495 -0.12434478 -0.07596227
000280 c3 32 4d 3d ff ae 87 be d7 d1 5f 3d 95 d4 82 3d
       0.05009724 -0.265007 0.05464348 0.06388203
000290 df f5 2a be 78 ac b6 be ba f5 24 be f5 6c 7d 3e
       -0.16695355 -0.35678458 -0.16109362 0.24748595
0002a0 4e 09 33 be 71 9d 45 bd de b4 75 bc 0a 24 9e bd
       -0.17484018 -0.04824585 -0.014996735 -0.07721718
0002b0 de 88 27 bd e3 95 2d be cf 93 76 bd 05 10 a4 bb
       -0.04090201 -0.16951708 -0.060199555 -0.0050067925
0002c0 a7 63 85 be c2 d8 4e be 57 a6 cf 3d 5f 34 7c bd
       -0.2605259 -0.20199874 0.10139149 -0.061573382
0002d0 ea df 3d be 18 48 ab 3e c7 ec 92 be 8a e7 86 bd
       -0.18542448 0.3345344 -0.28696272 -0.06587131
0002e0 7a 60 59 be d2 c6 b7 bc c7 37 01 bd be 18 b4 be
       -0.21228209 -0.022433672 -0.031547334 -0.35175127
0002f0 a8 43 12 be ad 27 8a 3e b0 c5 4e bd 7b f0 8d 3d
       -0.14283621 0.26983395 -0.0504815 0.06930634
000300 32 4a d7 bd 32 e8 1b be 12 94 40 3e 33 0c 35 bc
       -0.105121985 -0.15225294 0.18806484 -0.011050272
000310 84 35 dc bd 6e 5d 46 be 90 a3 c5 bd c5 09 03 be
       -0.10752395 -0.19371578 -0.09650338 -0.12796696
000320 ca ed cb 3d 75 c6 e2 bd dc 55 01 bd e6 cd f1 3d
       0.09957464 -0.11073009 -0.031576023 0.1180685
000330 70 3b 23 be 41 64 85 3b b5 70 71 3e dd dc 7e bc
       -0.15940642 0.004070789 0.2357815 -0.015555588
000340 4e 3f 27 3e 6e 77 8b be 8a b7 38 3d 34 a6 84 bc
       0.16332743 -0.27239555 0.04509691 -0.016192533
000350 8e 5b a5 bd 02 72 d7 bd a2 62 d8 bd f8 0d 3c be
       -0.08074103 -0.10519792 -0.10565688 -0.18364704
000360 ec 60 4a bd 1b 40 8d be 39 d8 a1 bd 62 36 bc bc
       -0.04940884 -0.2758797 -0.07902569 -0.02297515
000370 1b c9 c5 bd f3 91 b5 3e d8 fc 7e 3c 0a f7 9b 3e
       -0.096574984 0.35462913 0.015563212 0.30461913
000380 5d 25 38 be d2 45 a6 be 6b 93 c0 3d fc 5b 1d bc
       -0.17983003 -0.32475144 0.09403118 -0.00960445
000390 df ab 1d be f2 6e ab 3c 70 02 86 3d 32 4c 85 bd
       -0.15397595 0.020926926 0.06543434 -0.06508674
0003a0 7d 43 ca 3c dc 28 43 be 4a f1 98 be 34 61 83 3d
       0.024690384 -0.19058555 -0.2987159 0.064150244
0003b0 4f 85 04 bd a5 6a 31 3e 28 71 9c 3d 42 b5 5d bc
       -0.032353695 0.17325838 0.0763877 -0.013531985
0003c0 e4 ab b0 3e ea 6c 8b 3d 5f b3 aa 3c 75 cb 4e 3e
       0.34506142 0.06807883 0.020837484 0.201948
0003d0 9a 62 8c be b5 e2 25 3e 7d c1 c8 3d 90 56 05 3e
       -0.27418977 0.16199763 0.0980253 0.13021302
0003e0 75 92 b8 bd 6e 2f 13 be 08 d4 90 bd 01 87 1e be
       -0.090123095 -0.14373562 -0.07071692 -0.15481187
0003f0 7b 93 05 be 66 b3 5d 3e f5 df f8 bb 61 4a 9e 3d
       -0.1304454 0.21650466 -0.007595057 0.077290304

a2c_network.actor_mlp.2.bias f4 [128]
000000 0e 82 13 be c4 e6 1b bd b4 c9 91 bd 8b bc 1e be
       -0.1440508 -0.038061872 -0.0711855 -0.15501611
000010 25 25 03 be 5e be f9 bd ff 93 2a be f2 46 46 be
       -0.12807138 -0.12194513 -0.16658019 -0.19363001
000020 70 85 18 3e 0a e0 d0 bd 6f 37 08 3e ca 03 09 bc
       0.14894652 -0.10198982 0.13302396 -0.00836272
000030 92 7c 29 be f9 5e 14 be a7 40 e7 bd ff 28 9d bd
       -0.16551426 -0.14489354 -0.11291628 -0.07673835
000040 62 78 5e be 13 29 0f 3e 09 0e a8 bd f1 53 f5 bd
       -0.2172561 0.13980512 -0.08205802 -0.11978901
000050 a7 ca ad bd 06 a0 04 be 39 7a b3 bb 61 99 b1 bd
       -0.084859185 -0.12951669 -0.0054772166 -0.08671833
000060 a7 d9 a1 3d b2 ba b6 bd a0 f0 00 3d d1 5d 4c be
       0.07902842 -0.08922328 0.031479478 -0.19957663
000070 5e c1 26 be cf 3f 0c be d4 b1 f1 bd 5a c7 e9 bd
       -0.16284701 -0.13696216 -0.11801496 -0.114149764
000080 87 89 d0 bd 8b a4 d3 3d 33 88 ae 3c f7 61 54 bd
       -0.10182481 0.103341185 0.02130518 -0.05185124
000090 85 52 20 be 44 df f6 bd 01 36 49 3d a8 8a 24 bd
       -0.15656479 -0.12054303 0.049123768 -0.040171295
0000a0 af be 7e bc ad 99 fb bd c8 db 82 bd 7f b9 98 be
       -0.015548392 -0.12285171 -0.06389576 -0.29829022
0000b0 b0 3b 6a 3e 55 52 ea 3d dc 9b b6 3d f8 da 97 3e
       0.22874331 0.11441485 0.089164466 0.29659247
0000c0 cd 0f 5d be eb 67 29 be 44 db 7d be 9f bc 62 bd
       -0.21588059 -0.16543548 -0.24790674 -0.055355664
0000d0 e7 bf 3d 3c 25 b9 77 be 16 09 d2 3d c0 14 f3 bd
       0.011581398 -0.24191721 0.10255639 -0.11869192
0000e0 40 65 3f be 1c f1 28 be 3c f4 a9 3b fe 9b 7e bd
       -0.18690968 -0.16498226 0.0051865857 -0.062160484
0000f0 6f cc 36 be a7 51 26 bd 1b c2 c5 bc 99 c5 0d 3e
       -0.17851423 -0.040605213 -0.024140408 0.13844909
000100 c8 02 de 3c 33 8c c3 bd 83 6d 2c 3d 6f d2 84 bd
       0.027100936 -0.09548225 0.042096626 -0.064854495
000110 b2 94 59 bd 83 95 a7 bd 9c 7d 07 be ae 5d a3 bd
       -0.053120323 -0.08182814 -0.1323151 -0.07976852
000120 95 26 c7 bc 39 ec 35 3d 60 3e 28 be 24 f9 1a 3d
       -0.02431039 0.044414733 -0.16430044 0.037835255
000130 1a 6e 94 bd 3b c4 b4 3c 9b 75 44 bd cc b1 15 be
       -0.07247563 0.022066226 -0.04796372 -0.14618605
000140 f2 e4 af bd 0b 0c 5b be 43 6a 8c be bc 1c a0 bc
       -0.0858859 -0.21391313 -0.2742482 -0.019544952
000150 ba 25 09 be d1 4b 60 be e7 f8 a1 bd b2 4b e6 bd
       -0.13393298 -0.21903922 -0.079088025 -0.112449065
000160 b9 af 30 3e 63 99 0e bc 11 a6 34 be 97 93 eb 3c
       0.17254533 -0.008703562 -0.17641474 0.0287569
000170 d7 63 ea 38 5c 54 81 bd 7a 22 92 be 46 6f 57 3e
       0.00011176586 -0.063149184 -0.2854193 0.21038541
000180 93 ea 26 3e e1 64 a7 3d a9 42 03 be 16 73 af 3d
       0.1630042 0.08173538 -0.12818398 0.08566873
000190 31 25 b2 bd 70 35 b2 3d b2 0b e3 bd 9a f2 2e 3d
       -0.086985 0.08701599 -0.11086215 0.04271183
0001a0 09 da da bb 7e 72 53 3e 31 4e 85 be ed c1 34 be
       -0.006678824 0.20649144 -0.26036218 -0.17652102
0001b0 a2 43 83 bd 5e 6f fa bc 0b eb 0a 3d 44 77 d4 3d
       -0.06409384 -0.030570682 0.03391556 0.103743106
0001c0 19 f9 3d be 76 91 92 bb 83 f0 a2 be f8 23 a3 bd
       -0.18552054 -0.0044729067 -0.3182412 -0.07965845
0001d0 73 36 02 3d 62 d6 80 3e 95 f0 a0 bd 99 8e 0c bd
       0.031790208 0.2516356 -0.078583874 -0.03431568
0001e0 38 31 f0 3d f3 e0 e2 3d 01 55 2e be 72 2d 78 3e
       0.11728138 0.11078062 -0.17024614 0.24236086
0001f0 60 00 d4 bd cb 53 7d be 90 63 b8 3d f1 48 86 3d
       -0.10351634 -0.24738996 0.09003365 0.06556881

a2c_network.actor_mlp.4.weight f4 [128, 128]
000000 7e 25 b7 3d 95 d6 05 bd 35 b2 f9 bc 60 20 3d 3d
       0.08942698 -0.032675344 -0.030480484 0.046173453
000010 60 2e 40 3d dd 89 bb bd a0 bd 05 be 26 7b b0 3d
       0.046919227 -0.09157155 -0.13060617 0.08617239
000020 4e cb 20 bd 55 d2 10 be 09 26 2f bd 8d 93 48 be
       -0.039256386 -0.14142735 -0.042760883 -0.19587536
000030 ec 04 be 3c f4 9c b8 bc f7 56 b0 bd 1f 50 19 be
       0.023195706 -0.022535779 -0.08610337 -0.1497197
000040 18 20 ba bc 65 56 14 3c c2 33 1e bd fb 7e 2d be
       -0.022720382 0.009053801 -0.03862358 -0.1694297
000050 3d 0b 64 3d 99 f3 72 3d f8 c6 23 bd 74 b0 9f bd
       0.05567478 0.059314344 -0.039984673 -0.07797328
000060 c6 8a 29 be 13 63 5b bd 7f 27 09 3e 2a d8 91 be
       -0.16556844 -0.05356128 0.13393973 -0.28485233
000070 b0 da 8b ba c7 66 f1 bd f1 4f e8 bc fd 08 71 bc
       -0.0010670032 -0.11787181 -0.028358432 -0.014711616
000080 64 1d 40 3d c4 e6 9a bd d9 30 73 bd 61 b6 6e 3d
       0.04690303 -0.07563546 -0.059372757 0.0582794
000090 b3 ac 98 bc 0f cf 4d 3c 6c 7b 59 3d 4a 1c db bd
       -0.018637037 0.012561574 0.05309622 -0.10698755
0000a0 9c 7b a2 bd d9 eb 69 bd 56 b9 e0 bd 79 69 b2 bd
       -0.07933733 -0.057109687 -0.1097285 -0.087115236
0000b0 de d8 1d 3e 53 f8 81 bd 50 8d 3a be ef d2 14 3e
       0.1541476 -0.06346192 -0.18217969 0.1453359
0000c0 7e 76 d8 3d 7c e6 d2 bd 1c 0e e9 bd 59 38 cc bc
       0.105694756 -0.10297868 -0.11379644 -0.024929212
0000d0 65 99 c8 bc 5d 51 bb 3d c5 c4 df bd e5 fb 89 3d
       -0.024487207 0.09146378 -0.10926203 0.06737498
0000e0 e0 04 13 be 9a 2a 16 3d b8 88 5a bd fc 47 c5 3c
       -0.14357328 0.03666172 -0.05335304 0.024082176
0000f0 45 0c 2a bd c9 89 a7 3d 9b 27 c8 3d 71 b0 2f 3d
       -0.041515607 0.08180577 0.09773179 0.042892877
000100 ac ea 44 bd 4f 5d 4e 3e 35 30 16 be 78 a0 e0 bd
       -0.048075363 0.20152782 -0.14666827 -0.10968107
000110 57 55 09 3e eb 42 55 3d d4 fb 17 3e c5 2f ae 3d
       0.13411461 0.05206577 0.14842159 0.08505205
000120 fd cc b2 3c 0b e7 68 3b 28 f1 8c 3d b2 dd a4 bd
       0.021826262 0.0035538103 0.068819344 -0.080500975
000130 94 76 37 bd 57 4e 5e 3e dc 8c db bc 18 69 5c 3d
       -0.04479082 0.21709572 -0.026800565 0.053811163
000140 32 41 1e 3d ba 12 d5 bd f3 6c cc bb e2 b4 c2 3d
       0.038636394 -0.104039624 -0.0062385737 0.09507157
000150 99 ce b4 3d ca f8 7c bd 7c 00 17 be 04 bb 67 bd
       0.08828468 -0.0617607 -0.14746279 -0.056574836
000160 3e 68 19 bd 46 5d 64 bd d8 f6 ec 3c 0f 40 18 bd
       -0.03745293 -0.055753015 0.028926298 -0.037170466
000170 c9 35 f7 3d d3 59 2b bd 6f f2 06 bc e8 26 60 3d
       0.120708056 -0.04183371 -0.008236512 0.054724604
000180 0e 61 11 3d 74 f7 50 be 8c 49 30 bd bd 98 b8 ba
       0.03549295 -0.20406896 -0.04303889 -0.0014083605
000190 9c 80 83 bd 45 4f aa 3d 59 a3 e3 bd af 10 2b be
       -0.06421015 0.08315901 -0.111151405 -0.16705583
0001a0 09 23 83 3d 6f 7e 8f bc 08 ea 8e be 48 61 48 be
       0.06403167 -0.017516343 -0.27912927 -0.1956836
0001b0 18 78 40 3d 8a 92 57 be 42 3f b9 3b d0 fe 58 be
       0.04698953 -0.21051994 0.005653293 -0.21190953
0001c0 f8 b5 b6 3d 6f 49 73 3c 1e 6b 38 be e0 11 8e bd
       0.089214265 0.014849051 -0.18009612 -0.06937003
0001d0 59 19 ed bb c8 ef 0c be 93 03 c4 3d 59 5b 97 bd
       -0.0072356877 -0.13763344 0.09570994 -0.0739047
0001e0 24 28 50 bd 24 6b 0f bd d7 ce fb bc 38 29 2b bd
       -0.05081953 -0.035014287 -0.030738277 -0.041787356
0001f0 5c 85 bb 3c e8 e3 98 3c 5c 65 39 bd 19 73 43 be
       0.02289074 0.018663362 -0.04526268 -0.19086875
000200 f0 cf 29 be a1 db b4 bd 3a ea 71 39 70 69 72 3d
       -0.16583228 -0.088309534 0.00023070807 0.059182584
000210 0f 8d a0 bd b7 d6 25 be 4c 8f e4 bc 44 36 d0 3d
       -0.07839405 -0.16195188 -0.02790036 0.101666
000220 eb 5a 0f be 1e a7 62 be 75 58 69 bd 87 ef 0e 3e
       -0.13999526 -0.22134063 -0.056969125 0.1395856
000230 b4 3d ee bd 7d dc 80 bd c7 ec da 3d 15 f7 a5 3d
       -0.11632863 -0.06292055 0.10689693 0.08103768
000240 09 6f f6 bc d8 04 33 bc 8b 75 39 be 8c 08 fe 3d
       -0.030082243 -0.010926448 -0.18111245 0.12403974
000250 7a 1f 8e be 06 9f 44 bd 7f 62 dd 3c 62 d1 69 3c
       -0.2775839 -0.04800322 0.027024506 0.014271112
000260 a0 12 8d bd d7 01 50 bd ca 79 34 bd b7 bd 8c 3d
       -0.06888318 -0.050783005 -0.04406146 0.06872123
000270 d0 67 69 bd 93 4c 5e 3d 72 66 8b bd a8 09 05 3e
       -0.05698377 0.054272246 -0.06806649 0.12991965
000280 5a 2c bc be 94 76 71 be ff 3d 98 be e6 53 c3 3d
       -0.36752588 -0.2358039 -0.297348 0.09537487
000290 90 5e 4a be cc 19 f3 3d b8 8c 60 be 3d e5 3a be
       -0.19762635 0.11870155 -0.2192868 -0.1825151
0002a0 f1 1e 38 3d 01 31 79 3d de 16 cf bc e0 f6 db 3d
       0.044951383 0.06083775 -0.025279459 0.10740447
0002b0 d6 df 18 bc 15 57 2c bd e7 0d b0 bd e9 0f 57 bd
       -0.00933071 -0.042075235 -0.08596402 -0.052505407
0002c0 11 8e 9c 3d 23 ff ef 3b 00 5f 94 3d d5 28 89 3d
       0.076442845 0.007324116 0.07244682 0.06697241
0002d0 11 4c 6f bd a6 04 27 3e 06 81 a3 bd 1d 54 b7 bd
       -0.058422152 0.16310367 -0.07983594 -0.0895159
0002e0 d2 53 0a be c0 82 ee bc 19 4c 1a 3d 13 d7 2f be
       -0.13508537 -0.02911508 0.03767023 -0.17171888
0002f0 0a a6 c4 bd a4 d8 b9 3d 91 d2 2d 3d b7 2a a7 bd
       -0.09601982 0.09074524 0.04243714 -0.08162444
000300 27 81 2b be 5a 22 4f bc f4 7f 4d be 52 6a 2f 3d
       -0.16748486 -0.012642467 -0.20068341 0.042826004
000310 fd 24 99 bd a4 b8 30 bc 7a e1 b4 bc f1 11 a3 bc
       -0.07477758 -0.010786209 -0.022080172 -0.019906016
000320 66 b7 42 bd 24 81 4d be 7c 11 25 3e 98 5d 3e 3e
       -0.047538184 -0.20068794 0.16119951 0.1859039
000330 f6 c2 79 3e cd aa e5 bd ad 46 ca 3c f5 0a 22 3e
       0.24390778 -0.11214218 0.024691904 0.15824492
000340 4c 95 e6 3d 1c e8 e1 3d 4b 16 1c 3e 76 3a 77 be
       0.11258945 0.110305995 0.15242879 -0.24143395
000350 6d 3a 42 3e ae 4f 8a 3e 2f 63 f7 3d 22 3f 20 3e
       0.189676 0.27013916 0.12079465 0.15649083
000360 42 ce 03 3e e0 13 83 3e 7d ec b6 3d 2f ed 32 be
       0.1287165 0.256011 0.08931825 -0.17473291
000370 18 7d 2a be a8 0e c7 bd f4 e5 de 3d b8 87 d8 bd
       -0.16649282 -0.09719592 0.10883704 -0.10572761
000380 97 fb 4f be 68 f0 47 be 81 d5 48 bc 67 36 7e 3d
       -0.20310818 -0.19525301 -0.012257935 0.0620636
000390 e8 1b 08 3e de 4e 0b bd 49 25 01 3d a7 08 99 bd
       0.13291895 -0.03401076 0.0315297 -0.074723534
0003a0 4b 8b 2d bc 5f 50 66 bd 32 4b 75 3d 33 af c1 bd
       -0.010592292 -0.05622899 0.059886165 -0.09457245
0003b0 1b 7e 4a be a1 c7 9c bd c5 76 b4 bd 9c a2 4e bd
       -0.19774668 -0.07655264 -0.08811716 -0.050448045
0003c0 f9 a7 42 be 8c 06 6c 3e 10 5d 3f 3e a1 9a 0a 3e
       -0.19009389 0.23049372 0.18687844 0.13535549
0003d0 b7 d4 78 bd 66 21 66 3d 10 f0 2b 3e 15 79 50 bd
       -0.060749736 0.056184195 0.16790795 -0.050896723
0003e0 84 fb 38 be 4e c8 32 bd 65 b1 25 be 29 91 28 be
       -0.18064696 -0.043648057 -0.16180952 -0.16461624
0003f0 dc 5f 2b be ea 98 0d 3e 9a 89 66 be 5a bc 34 3e
       -0.16735786 0.13827863 -0.22513428 0.17649975

a2c_network.actor_mlp.4.bias f4 [128]
000000 44 76 d6 3d fd 4d 74 be 9e 30 11 bd aa 21 b3 3d
       0.10471776 -0.23857875 -0.035446756 0.08746655
000010 89 c7 b7 3c 15 7d 4e bd 51 38 27 3d 56 34 fd bd
       0.022434013 -0.050412256 0.040825192 -0.12363498
000020 36 9f a1 be 5a 0f 5f be 83 af de bd 26 13 9d 3b
       -0.3156678 -0.217832 -0.1087332 0.0047935424
000030 fc 3d f2 3c f8 f1 2c be a8 ae 43 3c c8 a8 29 3d
       0.029570572 -0.16889179 0.011943497 0.041420728
000040 f1 56 df 3c d2 e6 92 bc 2e 53 05 3d ba b8 2c be
       0.027263137 -0.01793233 0.03255003 -0.16867343
000050 61 bc e0 bd 53 0b c5 be 69 5a cf bd 72 17 fd bd
       -0.109734304 -0.38485202 -0.10124666 -0.123579875
000060 49 27 d5 3d 60 ce 07 be 22 f6 a7 bc 4a 2c 38 3d
       0.10407884 -0.1326232 -0.020503107 0.044964112
000070 79 00 45 bd 51 96 de bd f1 af d4 bd e3 75 84 be
       -0.048096154 -0.10868514 -0.10385121 -0.2587119
000080 9b bb b3 bd f4 b6 0e 3d 54 e2 f2 bd 60 b3 61 bd
       -0.08776017 0.034842446 -0.11859575 -0.055102706
000090 4b a9 0d be 0a f3 fa bd c1 da 11 be 5b 5f d1 3d
       -0.13834111 -0.12253387 -0.14243604 0.10223266
0000a0 88 1d 82 be 6a ce a5 bb c6 c1 54 be 3c 67 02 bc
       -0.25413156 -0.005060007 -0.20777044 -0.007959183
0000b0 bb af a5 bc a8 63 d5 bc 42 17 4d 3d a6 f5 a7 bd
       -0.020225396 -0.026048496 0.05007101 -0.082011506
0000c0 04 7f 10 bd c3 dc 1a be ab 02 fb 3d 2a 6b 90 3d
       -0.03527738 -0.15123276 0.12256368 0.0705169
0000d0 38 91 9f bd db 59 cc 3d a5 e2 10 be e3 dd 2a 3d
       -0.0779137 0.09978076 -0.14148958 0.041715514
0000e0 f4 70 fc bd 48 4f 36 be 62 23 dc bb 22 31 02 be
       -0.123262316 -0.17803681 -0.006718085 -0.12714055
0000f0 4a 1c 8c bb 45 12 2a be f0 79 4e 3d bc fb 17 be
       -0.0042758333 -0.16608532 0.050409257 -0.14842123
000100 3d 27 d1 3d 82 cb c1 bd 7e ff 07 bd 37 94 95 be
       0.10212562 -0.09462644 -0.03320264 -0.2921464
000110 dc c8 ad 3c ce a0 56 3c 97 8f 85 be e5 9a e8 3d
       0.021213941 0.013099862 -0.26086113 0.11357669
000120 02 c9 10 3d c0 90 b9 3d 39 c6 d2 3d 79 75 89 be
       0.035347946 0.09060812 0.10291714 -0.26847437
000130 57 6c 01 be cd 39 7e be 73 a0 47 3d cb 10 df bd
       -0.12638985 -0.24826737 0.048737 -0.10891875
000140 af 09 b5 bd 00 8a 45 be 79 06 d0 bd 0b 75 c7 3d
       -0.088397376 -0.19290924 -0.101574846 0.09739121
000150 3e fa 85 be e2 d0 7e be 70 ae 9b 3b 13 e0 ba bd
       -0.26167482 -0.2488437 0.004751019 -0.0912477
000160 cc 96 8d 3d a9 ea 38 3d 94 6c 84 3d 28 77 24 3d
       0.06913528 0.045145664 0.06466022 0.0401527
000170 8d ba b7 be 27 ba a5 3d a5 63 27 3d 00 6b a9 3d
       -0.35884514 0.08092146 0.040866513 0.08272362
000180 67 41 98 3c fe e0 5a be cf a4 02 3e ce 54 36 be
       0.018585874 -0.2137489 0.12758182 -0.17805788
000190 94 63 8f be 13 07 d4 bc 16 a1 21 3d 2a ea 2e be
       -0.2800566 -0.02588228 0.039460264 -0.17081514
0001a0 52 07 30 be 44 99 3b be 9d 3a 19 be 16 56 c3 3c
       -0.17190292 -0.18320185 -0.14963765 0.02384476
0001b0 9d 9f 38 bc f5 42 37 be b9 fa 53 be fd 2f 0e 3e
       -0.0112685235 -0.17896636 -0.20701112 0.13885494
0001c0 ef ff c4 bc 54 da 90 3d d2 a5 2d be bd eb 86 3d
       -0.02404782 0.07072893 -0.16957787 0.06587932
0001d0 6d 26 98 3d 8a 95 58 be c2 f1 27 be 16 c8 19 3e
       0.07429204 -0.21150795 -0.16400817 0.15017733
0001e0 cf 5c 50 be 51 ca 83 bd 7e e2 80 3c c0 7c d7 3d
       -0.20347904 -0.06435073 0.015733 0.10521841
0001f0 17 d2 6c 3d 42 a6 10 be 46 f9 d0 bc 80 82 41 be
       0.057817545 -0.14125922 -0.025509488 -0.18897438

a2c_network.value.weight f4 [1, 128]
000000 97 fb 20 bc 42 eb 58 3c d3 e4 8b bd fc 22 b5 bb
       -0.009825609 0.013239684 -0.06830754 -0.005527852
000010 87 5a c5 3c da 84 91 b9 ea b0 e3 3c 13 26 5b 3c
       0.024091018 -0.00027755537 0.02779432 0.013375777
000020 e5 c4 85 bd 1d 6a 83 bc 7b af 6d 3c 06 80 08 be
       -0.06531695 -0.01604181 0.01450717 -0.13330087
000030 23 41 48 3c e1 aa a5 3c c7 83 28 bc a2 62 1b bc
       0.012222561 0.020223083 -0.010285324 -0.009483965
000040 f7 71 8c bc 4f 31 25 bc be 55 73 bc 26 a0 b1 3c
       -0.017144186 -0.010082557 -0.0148519855 0.02168281
000050 5c 5c b3 3c 7c 0d 8e be 97 1f bc 3a 7d a6 06 3c
       0.021894626 -0.27744663 0.0014352676 0.008218405
000060 66 58 07 be a6 e6 df 39 1d 6c 1a bc b2 c2 9a bc
       -0.13217315 0.0004270572 -0.00942519 -0.018891666
000070 85 49 20 bb 5f 87 59 3c 93 44 12 3d e1 f9 c5 bd
       -0.0024457884 0.013276904 0.03570993 -0.09666801
000080 08 06 ea 3c 99 56 f3 3c 2f 54 36 3c de 6d 2d 3c
       0.028567329 0.029704379 0.011128469 0.010585276
000090 71 cc c4 3d a6 53 2a bd c7 63 ad 3b 55 dc 76 bd
       0.096093066 -0.04158368 0.0052914354 -0.06026872
0000a0 4f 1f dc bc e8 dd 32 3c 5a ad db 3a 3f 81 c4 3b
       -0.026870398 0.010917164 0.0016760037 0.0059968526
0000b0 fc e9 05 bc 34 ab 0e bd e1 1f ce 3b c4 bf f0 be
       -0.008173462 -0.03483124 0.0062904214 -0.47021306
0000c0 66 4f bf bc 6f e6 34 bd f1 3a a2 3b 1c d0 e8 3c
       -0.02335329 -0.04416507 0.004950874 0.028419547
0000d0 96 a8 44 bc 6d 2e f5 bb 06 fc 74 bc 1b 90 a9 bb
       -0.012003085 -0.007482341 -0.014952665 -0.0051746494
0000e0 d6 66 9b 3b bb 6d 6d bd 91 57 9d 3d f6 2c 0a bc
       0.0047424836 -0.057965975 0.076827176 -0.008433571
0000f0 f5 43 0e 3c 3d 10 92 bb a3 06 67 3c 9e 0c c3 3b
       0.008683194 -0.004457502 0.014100703 0.005952432
000100 ad 54 9a 3d fc b8 c7 3c bc 4c d1 3b c9 03 16 39
       0.07535682 0.0243802 0.0063873213 0.00014306525
000110 1c db e6 bb 51 fa e2 bd de cb 5b 3c ad f9 2d bd
       -0.007045163 -0.110829 0.013415305 -0.042474438
000120 43 2b 03 bd 82 9e 62 3d fa 39 10 3b 31 d7 a7 bd
       -0.03202368 0.055326946 0.0022007213 -0.081953414
000130 dc c8 16 3b 72 d6 54 be 23 a6 51 bd d2 9d 19 bc
       0.0023007905 -0.2078493 -0.05118383 -0.009376006
000140 ad 5d 8a 3b 7d 46 b1 bc fd 89 62 3b 58 d8 b4 bc
       0.004222593 -0.021640057 0.003456711 -0.022075817
000150 7c b4 ef 3b 40 96 c9 3c 7c 22 19 bc d8 f6 6c bc
       0.0073152166 0.024607778 -0.009346601 -0.014463149
000160 4a 6d 88 bb 84 64 dc ba ca fe 06 3c 25 dd d1 bc
       -0.004163419 -0.0016814624 0.008239457 -0.025618145
000170 0c d0 5a be ed 04 7e bc de 06 b4 3b a1 55 42 3c
       -0.21368426 -0.015504104 0.0054939827 0.011861236
000180 d4 3d fb bc 2f 76 ad bb 48 92 8d 3d 86 89 e4 3b
       -0.03066913 -0.0052936296 0.069126666 0.006974402
000190 fc d5 b2 3c 65 29 0c bc be b2 14 3b 2e cf 95 bc
       0.021830551 -0.008554791 0.0022689546 -0.018287268
0001a0 15 31 f6 bc c7 a3 c0 bb 55 68 1e bc 10 d2 19 3d
       -0.030052701 -0.005878899 -0.009668429 0.037553847
0001b0 0b 81 07 bc c7 5c b3 3d 07 53 5d 3e 42 5b 00 bd
       -0.008270512 0.0875793 0.21613704 -0.03133703
0001c0 eb 82 8b bc 1e 2a d6 bc 24 52 4f 3a 95 ef ee bc
       -0.0170302 -0.02614313 0.0007908663 -0.029166976
0001d0 81 a8 bf 3d be c4 2e 3c 01 9b b6 3c fc c2 a4 bc
       0.093583114 0.010667024 0.022290708 -0.020112507
0001e0 00 a4 c3 bd aa 5d 45 3c 5e 27 83 3c 84 23 85 3c
       -0.09552765 0.012046257 0.016009983 0.016252287
0001f0 0c 3e 83 3d ac f8 08 3b 44 d7 87 3b 8c 77 d7 3c
       0.06408319 0.0020900173 0.0041455347 0.026302122

a2c_network.mu.weight f4 [18, 128]
000000 68 c8 40 3e cb bd 4c bc e4 69 51 3e 2b e8 ce 3c
       0.18826449 -0.012496422 0.2045055 0.02525719
000010 db be 30 3d b6 da 26 bd d7 01 b0 3d 02 12 b1 bc
       0.043150764 -0.040735923 0.08594101 -0.021615032
000020 96 31 5a be d4 fc ed bb d7 05 21 be 90 b9 2c 3d
       -0.21307978 -0.0072628055 -0.15724884 0.042169154
000030 48 12 76 ba 28 19 7c bc 83 3c d5 bd f1 7c f1 bd
       -0.00093868794 -0.015386857 -0.10411932 -0.11791409
000040 af 6a 00 3d 8f 49 1e be ec 31 1a be 7a ca 75 be
       0.03135174 -0.15457748 -0.15058106 -0.2400302
000050 37 20 7c bd 59 db e3 bd 82 3e d8 3d 8c 3c ae bb
       -0.06155416 -0.111258216 0.105587974 -0.0053172763
000060 bf 1b 1a 3d fa 47 14 be bc c7 d8 bd f4 1e 97 bd
       0.037624117 -0.14480582 -0.10584971 -0.07378951
000070 30 0a 90 3d 5e 6f 21 3c 5d 67 42 3d 69 e4 ed bc
       0.07033193 0.009853212 0.047461856 -0.029039579
000080 7c 2f 65 3d 31 a2 57 3b 8e aa 61 3b cd 4a b2 3c
       0.055953488 0.003290307 0.0034433934 0.021764183
000090 e3 fe d8 3d e7 49 0c be ce 1b 38 be 8d 3e a9 bd
       0.10595491 -0.13700067 -0.17979357 -0.08263884
0000a0 b3 1d 5f 3e b4 d4 13 3d b9 90 39 be 21 64 83 be
       0.21788673 0.03609152 -0.18121614 -0.2566233
0000b0 67 65 39 3e d7 1d 93 bd 12 ac c1 bc 6c 92 59 bc
       0.18105088 -0.07183426 -0.02364162 -0.013279539
0000c0 61 ba 6e bd 9b 87 b3 3d f5 93 01 3e 3c e5 47 bd
       -0.058283214 0.08766099 0.12654097 -0.0488026
0000d0 ad a5 f5 bd 9d e1 8f be 56 e3 ca 3d 89 e4 18 3e
       -0.11994491 -0.28101817 0.09906642 0.14930929
0000e0 30 ab aa bd 21 be c9 3d 98 3b b0 3d db 06 09 bb
       -0.08333433 0.09850717 0.086051166 -0.0020908627
0000f0 f8 7d 23 3d 27 de 7b 3e ee 9b 10 3e 6c 39 00 3c
       0.039915055 0.24596463 0.14121982 0.00782619
000100 54 7c ca 3a 24 9a 87 be c9 aa 41 3e 37 99 d9 3c
       0.001544843 -0.26484787 0.18912806 0.026562316
000110 6d 14 dd 3d 79 fa ed 3c f8 85 1f 3d 71 8f da 3d
       0.107949115 0.029050099 0.038946122 0.106718905
000120 df 5c 24 be a6 3e 9a 3d 15 7e 0e 3d 0d 3b 07 3d
       -0.16051053 0.075314805 0.03478821 0.0330153
000130 48 d8 08 3d 34 5f e8 bd 8f a7 25 3d fa 47 b2 bd
       0.033409387 -0.113462836 0.040443 -0.08705135
000140 cd dc 15 be 05 21 17 3a fd 8a 25 3e 7a 65 a2 bd
       -0.1463501 0.0005765113 0.16166301 -0.07929511
000150 6b 2e 7f 3e d7 75 d4 3d 35 c7 0e 3c 6f 9c 8e 3c
       0.24920051 0.10374039 0.008714487 0.017408578
000160 46 a8 8b bd fa fa 75 3d 55 67 5a be bf 03 73 3d
       -0.06819205 0.060053803 -0.2132848 0.059329744
000170 9c 9a 99 3c 05 11 a7 3d 78 8c 86 bd 25 2b 68 bc
       0.018750481 0.08157543 -0.06569761 -0.014170443
000180 d3 e5 32 bd ec e1 0b 3d 95 42 16 be 2a 47 87 3b
       -0.04367621 0.034151003 -0.14673837 0.0041283565
000190 c5 e7 39 bd 76 f9 0b 3e ba 68 04 3e d2 24 4d bd
       -0.04538705 0.1366938 0.12930575 -0.050083943
0001a0 44 50 90 3c b2 a6 d8 3d 37 5a 87 bd 48 31 37 be
       0.017616399 0.105786696 -0.06609004 -0.17889893
0001b0 78 7a 0b 3d fb 5a e8 bd 41 cf 94 bc 87 95 01 be
       0.034052342 -0.11345478 -0.018165233 -0.12654696
0001c0 e6 89 40 bd 4c 3f 89 bd 60 bc f4 bc da 0c 84 3d
       -0.04700651 -0.06701526 -0.02987498 0.06447764
0001d0 fb e2 57 bd 86 72 a3 bd 93 9d 35 be 03 17 eb 3d
       -0.0527067 -0.07980828 -0.17735891 0.114789985
0001e0 aa ba 35 3d 8e 3d 6d be df b5 06 bd 5b df 92 bd
       0.04436747 -0.23168012 -0.03288829 -0.07171508
0001f0 9a 54 b0 3d 68 08 fd bd af 8a 89 3d c4 cd 0c bd
       0.086098865 -0.12355119 0.06715905 -0.03437592
000200 59 0e 9e bd b7 6c 11 bd d4 6f 84 bd 41 05 9d 3d
       -0.0771758 -0.03550407 -0.06466642 0.07667018
000210 6d cf 50 bc 6f 8a 19 bb 25 2f dc 3c 5c 7b a4 3d
       -0.012744767 -0.002342846 0.026877949 0.080313414
000220 fd 77 6b 3d f4 8a 0c be ea 6b b1 3d 6d d2 d5 ba
       0.057487477 -0.13724881 0.08663161 -0.0016313322
000230 64 d3 ea bd bc 9c e0 3c 6d 33 a6 bc 88 a5 1b bd
       -0.11466101 0.027418487 -0.020288194 -0.03799966
000240 62 db 9f 3d c8 cd 5e 3d 1d 9b 8e 3c 33 4f c0 3d
       0.07805516 0.054395467 0.017407948 0.09390106
000250 ff 88 c5 3c 90 a8 96 bd 67 2d 96 3c 49 27 82 3d
       0.024113176 -0.073563695 0.018332196 0.06355149
000260 e7 0e 91 bd 94 59 1a be 31 29 31 3d 4c d7 de bc
       -0.070829205 -0.15073234 0.043252174 -0.02720227
000270 69 4e bd bd 6a 02 c0 bd 41 86 d4 bd ad 33 09 3d
       -0.09243471 -0.093754604 -0.103771694 0.033496547
000280 cf ee ce bc f4 d7 7b bd 94 15 80 be 64 68 96 bd
       -0.025260357 -0.061485246 -0.25016463 -0.0734413
000290 bf 70 28 3d 63 5c 82 bd a6 50 c9 3d 4b 7c 1a bc
       0.041123148 -0.063652776 0.098298356 -0.009429048
0002a0 3e 1e 05 3e 46 ab 9c bd ca b3 b6 3d b6 30 c6 3d
       0.12999818 -0.07649855 0.08921011 0.096772596
0002b0 bb f7 51 bd 58 3b a3 bc a9 f1 08 3c 4a d1 41 bc
       -0.051261645 -0.019925758 0.0083583975 -0.011829684
0002c0 9a bb c7 bd b3 0c 2d 3d 40 29 d7 3d 56 ec 98 bd
       -0.09752579 0.04224844 0.10505915 -0.074669525
0002d0 e4 1b 4a 3d 3d bf 84 bc 7f 88 c1 bd 74 d1 99 3d
       0.049343005 -0.01620447 -0.09449863 0.07510653
0002e0 c8 a0 87 bd e7 80 84 bd 2f e0 91 bd c0 0e 9b 3d
       -0.066224635 -0.06469899 -0.07122838 0.07571173
0002f0 7d 1a a6 3d 3a 4f 7c 3d 14 78 94 3b 99 1d 48 bd
       0.08110521 0.061598994 0.004530916 -0.04885635
000300 d5 89 38 bd a1 1f 52 bd 93 a8 b1 bd 44 97 0b bd
       -0.045053322 -0.051299695 -0.08674731 -0.034079805
000310 1d 15 ae 3d 40 64 98 3d 69 1d 47 3d 64 06 59 bd
       0.08500121 0.07440996 0.048612032 -0.05298461
000320 3d 03 5f bd d4 72 1a bd e6 d7 8a 3d 2b 2f 03 3e
       -0.054446448 -0.037707165 0.067794606 0.12810962
000330 46 4f a7 bd 35 cc 2c bd c7 b0 07 3e 04 dc fa bd
       -0.08169417 -0.042186935 0.13251029 -0.12248996
000340 16 d5 1d 3e 91 e2 b8 3d 98 58 28 be 76 7f 3b 3e
       0.15413317 0.09027589 -0.16440046 0.18310341
000350 37 02 05 3d 3e 51 89 be f5 14 e3 bd 3d bb 03 bd
       0.032472815 -0.26819795 -0.110879816 -0.032160986
000360 54 89 9b 3d 50 a5 b1 bd c4 3e a3 3d 5a 07 e0 bd
       0.07594553 -0.08674109 0.07970956 -0.10938902
000370 6a 2f b2 bc bc a8 8d 3d bb 19 c4 3d 5b 78 9e bd
       -0.021751124 0.06916949 0.0957522 -0.077378
000380 47 ad bf 3d 14 44 90 be 96 35 19 bd c8 fa 1d be
       0.09359222 -0.2817694 -0.03740462 -0.15427697
000390 fd 00 45 be fa fe ac 3c 2a 3d c9 3d 6c 4f f5 3d
       -0.19238658 0.021117676 0.09826119 0.11978039
0003a0 20 35 af 3d af db 6c 3c 63 20 21 3a 2e 87 25 3e
       0.08555055 0.0144566735 0.00061464886 0.16164848
0003b0 bb 81 db bd 84 0b 0a be 27 fc 13 3e 62 1a ba 3d
       -0.107181035 -0.13480955 0.14451657 0.09087063
0003c0 9f be e4 bd 1b 0a aa bd 79 30 a1 3b cf 73 af 3d
       -0.111691706 -0.08302709 0.0049191085 0.085670106
0003d0 17 5e e6 3c 33 78 e8 3d a1 a6 01 be d2 33 9f bd
       0.028121037 0.11351051 -0.1266122 -0.07773556
0003e0 60 41 63 3c e6 dc 0a bd 5c 57 ae 3d ec a0 d7 bd
       0.013870567 -0.03390207 0.08512756 -0.1052874
0003f0 cf 76 21 3d ac 6c 67 3c 5e 7c ba 3d d5 60 9c 3c
       0.039419945 0.0141250305 0.091057524 0.019089142

a2c_network.mu.bias f4 [18]
000000 c7 f1 fd 3b c5 fa 74 3c 6b c9 0f bc 36 86 18 3d
       0.0077497694 0.014952366 -0.008776049 0.03723737
000010 18 d4 f8 3c 1f d7 9e bd 71 cd a9 3d 53 f8 bd 3c
       0.030374572 -0.07755875 0.08291138 0.0231897
000020 de fd a9 3c 87 d3 c3 3c 9a d5 9e bd 70 c1 07 3e
       0.020750936 0.023904575 -0.07755585 0.13257384
000030 10 7f 60 bb 74 41 e9 3c f9 33 ac 3d 4a bb aa 3d
       -0.0034255423 0.028473593 0.084083505 0.08336504
000040 f3 3a 43 3d 36 7b 3e 3c
       0.04766364 0.011626055

exp_avg f4 [18]
000000 70 8a f3 39 10 d0 d0 39 13 b2 e5 b9 50 d9 19 3a
       0.00046451716 0.0003982787 -0.0004381096 0.0005868869
000010 be a7 84 39 99 9e 24 3a de e6 3f 3a ef c2 88 b9
       0.0002530198 0.00062797364 0.00073204737 -0.00026085178
000020 78 0a 7d 39 1a 8d f9 b7 fc 6c 89 39 b3 02 ec b9
       0.0002413186 -2.9748819e-05 0.00026211876 -0.0004501544
000030 34 4b 87 ba f7 b4 3b 3a dc 97 94 b9 be 0a f1 39
       -0.0010322095 0.000716045 -0.00028341904 0.00045975106
000040 2d 98 1f ba fa b0 a7 39
       -0.00060880446 0.0003198458

exp_avg_sq f4 [18]
000000 51 db 0c 37 d3 45 0b 37 ca 06 16 37 24 88 19 37
       8.395714e-06 8.301303e-06 8.942277e-06 9.151208e-06
000010 78 d3 16 37 8e 67 20 37 5f e8 17 37 6c 25 1c 37
       8.989933e-06 9.560854e-06 9.0544045e-06 9.3070375e-06
000020 1f e6 06 37 0e 39 0e 37 67 00 1a 37 8a 7a 0c 37
       8.040602e-06 8.477144e-06 9.179209e-06 8.373181e-06
000030 15 9f 17 37 b8 d3 20 37 3b b5 15 37 d4 fe 16 37
       9.0373405e-06 9.586038e-06 8.923288e-06 9.0000285e-06
000040 07 31 21 37 c1 92 2b 37
       9.607763e-06 1.0226563e-05
