logs/rl_games/hexapod_flat_direct/2025-11-15_08-58-23/nn/last_hexapod_flat_direct_ep_1500_rew__48.276337_.pth (torch, 546100 bytes, 33 tensors)

value_mean_std.running_mean f8 [1]
00000000: 5f0d bbb4 a3fa 0540
2.7473825568755923

value_mean_std.running_var f8 [1]
00000000: 5366 2720 7785 cd3f
0.23063553876891038

value_mean_std.count f8 []
00000000: 0000 8000 0094 c141
589824001.0

a2c_network.sigma f4 [18]
00000000: df91 82bf 25ce afbf 4940 dabf 5cad f3bf
00000010: b3b4 d5bf b113 71bf 4c95 65bf 9133 51bf
00000020: ee27 99bf 1d04 89bf a86d 75bf 7e7d 8fbf
00000030: 38c5 5fbc 7b92 a9be eb67 99be d84f 44be
00000040: 863b 04be 4cf3 f4bd
-1.0200766 -1.3734785 -1.7050868 -1.903728 -1.669577 -0.9417067 -0.89680934 -0.8171931
-1.196531 -1.070438 -0.9587045 -1.1210172 -0.01365786 -0.33119568 -0.29962096 -0.19171083
-0.12913331 -0.11960468

a2c_network.actor_mlp.0.weight f4 [128, 66]
00000000: 77d0 61be 9428 85bd 8c73 243f 4d23 42be
00000010: f5e0 66bd 97fe 4f3d a98c 883e b38d 013e
00000020: ecf9 9ebe 14ef 08bf 1a5d 32be 2245 173d
00000030: 4a99 273d 0fcf f0bd 8369 9bbe baf9 a0be
00000040: d2a0 a93e c3ff c8bd fea3 bcb7 70de d2bd
00000050: f82d 953d a7ba 0f3c fdf5 1cbe 0bca 843d
00000060: 105f 65bd a129 163d c2be 173e 94ec 4abc
00000070: 7034 a73c d291 63be ec9d 923d 78c3 a23b
00000080: db1b 343d 3fa9 25bd 8ccf 85bd 47d1 9e3d
00000090: 7b4c b8bd f534 0cbe 2477 483d 9471 8ebd
000000a0: 7bce 18bd ba50 953c 76bb 43bd e7e9 bf3c
000000b0: 82c3 423d 9ddf 7f3c a015 df3c 7bc2 453c
000000c0: c467 41be c3e0 a4bd 1d99 0cbd 7faf 9fbd
000000d0: dc3d 0cbd 14be 6cbd eb73 53be 0481 e3bd
000000e0: acaf bdbc 9fe4 87bd e2f3 18be f1ee f03c
000000f0: dbd8 b339 916b 823d 5a30 303e a02f c13d
00000100: 7531 c73c af70 803d 93de 573e 643a d8be
00000110: 4324 51bd c81e 00be 2070 a8be 959d ae3c
00000120: 35c0 0fbf 8b14 003f 8c41 4b3e 984f 95be
00000130: 256b 163f 517b 19bf 47b6 49be d7b7 053f
00000140: e3d2 5ebd f532 373f 9935 033e 8ee5 9fbd
00000150: bfcc 203d 7800 87bd 5793 35bd 49d7 97bd
00000160: 7184 c93e 62d6 8dbb 0bf0 4c3e adf8 513d
00000170: 1813 793c 3e82 33bb bc93 39bd 517b f73d
00000180: 8b47 aebc 44b8 0abe 077f c53d a7e2 ac3c
00000190: f7a9 43bd d1fb a43d 395c 3b3d 8376 6439
000001a0: c2c8 5b3d a315 273b 9d27 c4bc d70a 3b3d
000001b0: 6729 95bc 5bd8 2a3c a568 48bd cc85 ba3d
000001c0: 313d eabb ed0c dfbb 14ec afbb 6403 833d
000001d0: 2967 673d 99e4 c53b b46a e03c 8f76 f83c
000001e0: 6f40 883c 63e5 94bd a57a 633d f15c d83d
000001f0: 47c2 86bd 464a 883d e032 8c3d e442 003e
00000200: 6f19 cabc a478 383d 6a03 a1bd 4cc6 3a3d
00000210: edae 8cbe 8a7e e3be b98f f43e d404 a4be
00000220: 38ff 183f 19c6 1d3e 036b 0e3f ad6c 18bd
00000230: 6787 b33d 6899 3cbf a09f b7be 27ce 123e
00000240: a3bf 443e 150a ce3e 378b e23d 1326 a1bb
00000250: 2e99 5abf 7caf 053e c9b1 9fbd 457c 56be
00000260: fc25 c7bc 57ee 4abe 2595 08be bd0c 78be
00000270: 425f 7c3d 8a72 20be e3be 25bd 3aa6 933d
00000280: 8cbc b2bd 8be7 363e 05c3 cfbd b3fa 78bd
00000290: bbf4 e8bd c35a 0b3e 79af 92bd 014e 9ebc
000002a0: d1d2 9e3d 7e3c 773c 02e8 ffbc 0622 dabc
000002b0: 12c3 99bd 6e68 18be ac66 c4bd bce4 01be
000002c0: 9123 6e3d 4771 87bd 13a6 223d e22f 863b
000002d0: e065 c0bc ad7d 3d3e c3b6 87bd 7f9c 1b3d
000002e0: cf07 aebe 84aa 1abd e7f0 8dbd cc9e 05be
000002f0: 471c 733d e622 d8bd 988b ae3d 32cf 1cbf
00000300: 8820 663c 70ea 11bd 7af4 0a3e 4581 833d
00000310: e83c 3cbd 59d5 c3bd 5511 913f 7c1f a6be
00000320: ffd6 503f 2162 fbbd d16e 79be efa6 93be
00000330: 3ba9 04bf 3d1c e93f 4f1d 66bd 3537 4e3f
00000340: 4f76 263f 4a98 65be 41a6 0fbf 4961 203f
00000350: 6e53 a4be beed 1b3e 0f1b 03bf 1e82 4c3f
00000360: b1aa 683e 95a6 26bd 40ba aabe b536 313e
00000370: 1e63 04bc 50d4 3d3d 9d8b 22be 3959 dd3d
00000380: e252 363e 95e3 43bf ae9e 2cbd 709c 3cbe
00000390: 3703 01bc 897a c0bd 0423 053c eab1 5ebd
000003a0: e5fb 8ebd 373b dcbd e1c7 3a3e 3d4c 273e
000003b0: c78e c8bc 54fb 83ba 7395 01bd 3d92 b63b
000003c0: 35ba c5bc 34f6 debc 8de2 fdbc b41c 033d
000003d0: 3082 bb3d 9c34 1e3d 3d03 c8bd aabc 463e
000003e0: bf4d 4e3e 943c 96bd 9d1e 27bc 4b40 863e
000003f0: 7103 243d 2008 283d cbf9 59be 29ab ff3c
-0.2205218 -0.0650188 0.6423881 -0.18958779 -0.05636688 0.050779905 0.26669815 0.1265171
-0.3105005 -0.53489804 -0.17418328 0.036931165 0.040917672 -0.11758243 -0.30353937 -0.31440526
0.3313051 -0.09814408 -2.2487711e-05 -0.10296333 0.072841585 0.008772529 -0.15328212 0.06483849
-0.05599886 0.036660794 0.14818862 -0.012385506 0.020410746 -0.22223595 0.071590275 0.0049671493
0.043971878 -0.04044461 -0.06533727 0.0775476 -0.089989625 -0.13692077 0.048941746 -0.06955257
-0.03730629 0.01822697 -0.0477862 0.023426963 0.047549732 0.015617278 0.027231991 0.012070294
-0.1888724 -0.080506824 -0.034325708 -0.07797145 -0.03423868 -0.05779846 -0.20649688 -0.11108592
-0.023155056 -0.06635403 -0.14936784 0.029410811 0.0003430311 0.06368173 0.17205945 0.09432912
0.024315575 0.06271493 0.21080999 -0.4223205 -0.051059972 -0.12511742 -0.32898045 0.021315375
-0.5615266 0.50031346 0.19849223 -0.29162288 0.5875724 -0.5995379 -0.1969844 0.5223364
-0.054400336 0.7156213 0.12813415 -0.07807456 0.03925776 -0.06591886 -0.044329967 -0.07414109
0.39358857 -0.004328535 0.20013444 0.051262546 0.015202306 -0.0027390863 -0.045306906 0.120840676
-0.021274349 -0.13546854 0.09643369 0.02110417 -0.047769513 0.08055843 0.045742247 0.00021787923
0.053658254 0.0025495074 -0.02394467 0.045664635 -0.018208219 0.01042756 -0.04892792 0.09107551
-0.007148408 -0.006806961 -0.005368719 0.06397131 0.056494866 0.006039214 0.02739463 0.03032997
0.016632287 -0.072703145 0.055536885 0.10564602 -0.06580024 0.066547915 0.06845641 0.12525517
-0.02467033 0.045036927 -0.07861979 0.045599267 -0.27477208 -0.4443248 0.47765902 -0.32034934
0.5976443 0.154076 0.55632037 -0.037213016 0.0876606 -0.7367158 -0.35863972 0.14336453
0.19213729 0.40242067 0.110617094 -0.004917869 -0.85389984 0.13055223 -0.07797582 -0.20945843
-0.024310105 -0.19817482 -0.13338144 -0.2422361 0.061614282 -0.15668693 -0.040465247 0.072094396
-0.08727369 0.17861764 -0.10144619 -0.06078596 -0.11374804 0.13608842 -0.07162375 -0.019324305
0.07755054 0.015090106 -0.03123856 -0.026627552 -0.0750791 -0.14883587 -0.095898956 -0.12684911
0.058139388 -0.06613403 0.039709162 0.0040950635 -0.023486078 0.18504973 -0.06626656 0.037991043
-0.33990332 -0.037760273 -0.06930714 -0.13048857 0.05935314 -0.10553531 0.08522719 -0.61253655
0.014045842 -0.035623968 0.13569823 0.064211406 -0.045956522 -0.09562177 1.1333414 -0.32445896
0.8157806 -0.12274576 -0.2435868 -0.28838298 -0.51820725 1.8211743 -0.056180295 0.8055299
0.65024275 -0.22421375 -0.5611306 0.62648445 -0.32094902 0.1522741 -0.51213163 0.79886043
0.22721364 -0.04068621 -0.33345222 0.17306025 -0.008080272 0.046345055 -0.1587357 0.108080335
0.17805055 -0.7651914 -0.042143516 -0.18419051 -0.007874302 -0.09398372 0.008126024 -0.05436889
-0.06981639 -0.10753482 0.1824031 0.16337676 -0.024482144 -0.0010069408 -0.031636667 0.005571632
-0.024136642 -0.027217008 -0.030991817 0.032009795 0.09155691 0.03862439 -0.09766243 0.19407907
0.20146845 -0.07335773 -0.01020017 0.26220927 0.040042344 0.041023374 -0.21286695 0.031209545

a2c_network.actor_mlp.0.bias f4 [128]
00000000: a8cf 403e 4c6d 1abe ab2a 27be 7a2c 083e
00000010: aaa5 95bd 9530 443e 4a9f 20be 420e e7bd
00000020: 1794 8a3e dc51 f0bd e45d 19bd 6143 67bd
00000030: 3c06 833d 863c f33d a207 29be b32d cfbc
00000040: d347 493e 9049 263e 66d5 ea3b d6c9 32bd
00000050: 63c6 54be b17d 49bd ccb3 0cbd cdb6 183e
00000060: 9233 30be ce0e 123e 94c2 433d 0e5b 103e
00000070: 1234 8d3c be4c a13d 09d7 103e 3a02 ddbc
00000080: 244a 3b3e 72a0 61bd 75cc 523d f3ad 593d
00000090: 3864 ecbb 1a15 0b3d d5f7 093d 6d9f 2cbe
000000a0: 7146 a0bd 13cb 363e 0c7b 8b3d 4a33 073e
000000b0: 5718 ac3c 2b22 9b3d bd7c 31bd 66b6 eb3d
000000c0: 5eed f7bd c149 c23d e900 8cbd 8399 0c3e
000000d0: 1f4e 693b 87d0 72bd 6afd 02bd 419a fbbd
000000e0: 0b0b 27bd 5767 483e 0303 933d dcfe f4bd
000000f0: 82e3 f23d 76f4 bebd a6f1 85be 7799 b2bc
00000100: 112d 4d3d 04d3 05be 4339 b9bd 5e1a cb3d
00000110: f9b1 86bd f635 873e 8d11 153d 47cf 3cbc
00000120: ccfa 9a3e 862c ecbd 0275 c73d 431d 093d
00000130: fa9b a7bc 8ef5 2ebe 4e29 25bd 93db 5a3d
00000140: d2c7 71be f635 2abe fbc5 8a3e 8b27 443e
00000150: f343 89be adf8 1fbd 0d6e 14be e8c2 82be
00000160: efbc c83d 1814 d5bc f736 9b3e a393 6dbd
00000170: c251 1b3d 596d 1ebe cf74 f43d 5695 64bd
00000180: f507 34bc 33e3 5cbd a723 a0bc cb7a a0bc
00000190: 5415 81bd 2da3 8cbd 1806 82bd bce0 22be
000001a0: 6d3b a1bb b935 243e 3686 953d 5e64 6bbe
000001b0: 3a5b 083d 7dca 743e 00be c0bd 7191 a53d
000001c0: 8fdf f7bd 4b86 01be 3148 833d 72ed 88bd
000001d0: 07e2 cebd 4213 fdbc 6df0 6f3d 3d3e ebbd
000001e0: 85fc 07be 7a8e f2bd 5637 48be d854 ce3d
000001f0: 0017 a13d b1cb 9fbd 46db 57bd fadf b0bd
0.18829215 -0.15080756 -0.1632487 0.13298216 -0.073069885 0.19159158 -0.15685764 -0.11282016
0.2706611 -0.117343634 -0.037443057 -0.056460742 0.063976735 0.11876778 -0.16506818 -0.025290346
0.19656305 0.16239 0.0071665524 -0.043649517 -0.20778804 -0.049192134 -0.034351155 0.14913483
-0.17207173 0.1426346 0.047792986 0.14097235 0.017236743 0.078759655 0.1414453 -0.0269786
0.18290001 -0.055084653 0.051464517 0.053144407 -0.0072140954 0.03395567 0.033683617 -0.16857691
-0.07825936 0.17850904 0.06810579 0.13203159 0.0210077 0.075748764 -0.04333185 0.11509399
-0.12105821 0.09486724 -0.06836111 0.13730435 0.0035599542 -0.0592809 -0.031979956 -0.12285281
-0.040782016 0.19570671 0.07178309 -0.11962673 0.118598 -0.09323971 -0.26160926 -0.021801693
0.050091807 -0.13068777 -0.09044125 0.099171385 -0.06576914 0.26408356 0.03639369 -0.011524028
0.30269468 -0.1153193 0.09739114 0.03347517 -0.020460118 -0.17085859 -0.040322594 0.05343206
-0.23611382 -0.16622147 0.27104172 0.1915571 -0.26809654 -0.039055515 -0.14495106 -0.25539327
0.09801661 -0.026010558 0.30315372 -0.058002125 0.037919767 -0.154714 0.11936342 -0.05580648
-0.010988225 -0.05392761 -0.01954825 -0.019589802 -0.06302896 -0.06867061 -0.063488185 -0.15906042
-0.004920414 0.16036119 0.07300989 -0.22987506 0.033290125 0.23905368 -0.094112396 0.08084381
-0.12103187 -0.12648885 0.06410254 -0.06685914 -0.10101705 -0.030892972 0.058578897 -0.114864804
-0.13279922 -0.118435815 -0.19552359 0.100747764 0.07865715 -0.07802523 -0.05269935 -0.0863647

a2c_network.actor_mlp.2.weight f4 [128, 128]
00000000: 7b58 a1bc 9d22 683e fd0e 28be 6c83 29bb
00000010: 070c c5bb 5314 81be c140 513d f98b 99bd
00000020: 1048 fcbd 54a6 0fbe 08ae 37be b9d5 68be
00000030: 9026 05be b39e 483d 40df e2bd f9e0 2fbe
00000040: 9ba8 e3bd 6771 80be e087 483e 3abc b1be
00000050: bd19 1a3e 1ae9 bbbd 6bdb ea3d cad5 41bc
00000060: 6245 823e ee2e 97bd b6a2 f2bd e4f2 eb3c
00000070: b0d6 5b3e f8a0 0dbe af57 b2bd 6178 103d
00000080: 636c 81be 58ea aabd 89d9 ecbd f6e8 4abd
00000090: 92d1 03be 20c7 193e f55a 34bd 08c2 95bd
000000a0: 1797 7a3b bd6e ee3b 1b24 4dba a0fd 4dbe
000000b0: 0603 fcbd 5742 4dba 3657 31bd 68dc a33b
000000c0: 3794 bbbd 3204 c83c d810 54be c688 7dbd
000000d0: 8d0b 4e3e 08c2 6c3d e442 95bd fcc9 0f3e
000000e0: df85 b1bc 3c6b 9f3c 7832 57bd 2ca4 e3bc
000000f0: 4c5d cabd f877 83bd 4671 04bd f382 37be
00000100: b4c3 25be 4ebf 823e 88b7 92bd 81fe d3ba
00000110: c508 8a3e 8eac b5bc 9cc5 5e3d d6ce 6c3e
00000120: 5a5e 1bbd 575a 363e 8440 90be 6cdd c83d
00000130: dfd9 5fba c846 393e b423 03be f72c 6bbe
00000140: db7b a83d de75 07be db69 84bd 3aa4 993c
00000150: ddd6 233c 6922 3cbe 6cb7 4ebe aac0 0ebd
00000160: 9bb7 88be 8b8e 33bd 259f d4bd 172c aabd
00000170: 88b3 84be 78da 833a cbec 81bd 3178 863e
00000180: 673a 01bd 82d4 a13d c599 cdbc 1f20 7e3d
00000190: c65d 273e fb2a 41be 9bbf 0cbe 538d 773d
000001a0: 65c7 be3e 8ec6 87bd 7d6e 2bbd 980e 283e
000001b0: d20b 0d3c 595a f3bd 679c 113e b220 c13c
000001c0: 1f20 cb3d ae52 ad3c 9532 e5bd ebd6 323e
000001d0: a6fe da3d 4714 b63d a093 1bbd 9272 263e
000001e0: adb4 ec3c 92ce 50bd ef82 903e fe13 a2be
000001f0: ab63 053e 640f 0b3d 3f4f cab8 d06a 933b
00000200: c2a0 4d3d c74d 5dbd 889f d83c 8066 c7be
00000210: f5b4 523e dbeb 893b fb15 91be 0726 5bbe
00000220: a816 bbbd a765 a33d 5999 d33b 4ce7 bdbc
00000230: ea8a 10be a191 8d3c 34c6 91bb dfa0 3abe
00000240: 231a 66bc b99a 993d 05ff 43be cafe e63d
00000250: f230 e33d ab5a a93d 4767 0c3e 508c a0bd
00000260: 4dd5 4a3d 38e0 9a3d 7f97 833c 6dd9 e43d
00000270: fdc0 51be 3f09 b03d b95f 0cbe ab1a a4bd
00000280: 1007 f43c b4c3 77be b47e 593d 5fab 553d
00000290: 4e93 2ebe a24b cabe c871 28be b760 7a3e
000002a0: 0e4e 3cbe 426b 31bd eb31 27bc b429 6bbd
000002b0: 4756 36bd d725 3abe a35c 85bd 0d72 3abc
000002c0: d6c2 7fbe 7ac3 3ebe 9031 cf3d 5525 84bd
000002d0: 4f17 30be a7c9 b23e 9755 9dbe 2bb1 89bd
000002e0: f742 70be 4eda 1abc 7d5e 0fbd f5a0 bcbe
000002f0: a5c6 f1bd e6b0 953e 34fa 6dbd a9a4 c03d
00000300: b436 b8bd 0736 0bbe b6d0 333e 04ff 9abb
00000310: 395e cebd 0210 4dbe bec3 c5bd 01e7 12be
00000320: 0280 af3d 58f9 c5bd 9e94 d2bc c62d fb3d
00000330: bf91 f5bd edfa 7b38 3057 4d3e 3c7e 77bc
00000340: e8ab 323e 2123 8abe b6a1 2b3d f979 473a
00000350: bcaa 90bd 884a babd c927 c7bd 6d11 37be
00000360: fa1e 60bd b068 8ebe c058 a5bd 7e3d 14bd
00000370: 2a76 b8bd 0b41 b43e 6c29 debb 1139 973e
00000380: 7718 30be b852 a0be 87ae b13d 99b3 f8bc
00000390: ae5d 1fbe b15b 273d 4236 713d 6701 9dbd
000003a0: 0494 613d f27d 2fbe 3687 a7be daa6 3c3d
000003b0: e21d d7bc 14c1 353e 9700 b53d 9971 b6bc
000003c0: 3e55 b93e a061 993d 7b63 c03c 4ad6 553e
000003d0: 5974 81be e96f 3b3e 00be e63d 1f79 1d3e
000003e0: 8dee a9bd 83a8 22be b774 31bd 7fa7 1ebe
000003f0: 8e4b f5bd 9a93 653e 024d b1bc 40ec a83d
-0.019695511 0.22669454 -0.16411968 -0.0025865687 -0.0060133967 -0.2521082 0.051087145 -0.07497401
-0.12318432 -0.14028293 -0.17937481 -0.22737779 -0.13002992 0.048979472 -0.11077738 -0.17175664
-0.11116143 -0.2508652 0.19583082 -0.34713918 0.15048881 -0.0917532 0.11467632 -0.011830756
0.2544356 -0.07381998 -0.11847441 0.028802343 0.21468616 -0.13830936 -0.087081306 0.035271052
-0.25278005 -0.08345479 -0.11564929 -0.049538575 -0.12872913 0.15017366 -0.044032056 -0.07312399
0.003823703 0.0072763846 -0.00078255095 -0.20116282 -0.12305264 -0.0007830015 -0.04329606 0.0050006397
-0.09159129 0.024416063 -0.2070955 -0.061898015 0.20121594 0.05780223 -0.07288149 0.14041895
-0.02167028 0.019460313 -0.052538365 -0.027788244 -0.09881076 -0.064193666 -0.03233459 -0.17921047
-0.16187936 0.2553658 -0.07163912 -0.001617387 0.26959816 -0.022177007 0.054387674 0.23125777
-0.037931778 0.178079 -0.28174222 0.09807858 -0.000853924 0.18093407 -0.12806588 -0.22966371
0.082267486 -0.13228557 -0.06465503 0.018755067 0.009999958 -0.18372501 -0.20187157 -0.034851708
-0.2670258 -0.04383711 -0.10381917 -0.08309191 -0.2591822 0.0010059616 -0.06343993 0.26263574
-0.031549837 0.07901861 -0.025097737 0.06204235 0.16344365 -0.18864052 -0.13744967 0.06043751
0.372615 -0.06629668 -0.041853417 0.16411817 0.008608775 -0.11882467 0.14219819 0.02357516
0.09918236 0.021157589 -0.111912884 0.17464797 0.106931016 0.08890586 -0.037982583 0.16254643
0.028894747 -0.05097825 0.28224894 -0.31655878 0.13026302 0.033950225 -9.646871e-05 0.004498817
0.05020214 -0.054029252 0.026443258 -0.3894539 0.20576842 0.0042090244 -0.28337082 -0.21401225
-0.09135181 0.07978373 0.0064574894 -0.02318158 -0.14115492 0.017281355 -0.0044486765 -0.1822543
-0.014044317 0.07500214 -0.19140251 0.11279066 0.1109332 0.08269247 0.13711272 -0.078392625
0.049519826 0.075622976 0.01606345 0.11174283 -0.20483775 0.085955136 -0.1370839 -0.08012899
0.029788524 -0.24195749 0.05309935 0.052165385 -0.1704838 -0.39510828 -0.16449654 0.24450956
-0.1838915 -0.04331518 -0.010204772 -0.057412818 -0.044515874 -0.18178497 -0.0651181 -0.011379731
-0.24976668 -0.18629256 0.10116875 -0.06452433 -0.17196392 0.34919474 -0.30729362 -0.06723245
-0.23463045 -0.009451462 -0.03500222 -0.3684155 -0.118054666 0.29236525 -0.05809994 0.094064064
-0.08994809 -0.13594829 0.17560086 -0.0047301073 -0.10076565 -0.20025638 -0.096564755 -0.14345933
0.085693374 -0.09666699 -0.025705632 0.1226459 -0.119906895 6.0076756e-05 0.2005279 -0.01510578
0.1744839 -0.26979926 0.041902266 0.0007609423 -0.07063815 -0.09096247 -0.09724385 -0.17877741
-0.05471704 -0.27814245 -0.08073568 -0.036191456 -0.09006913 0.35205874 -0.00677984 0.29535726
-0.17196833 -0.3131311 0.086758666 -0.030359076 -0.1556308 0.040858928 0.058889635 -0.07666283
0.0550728 -0.17137888 -0.32720345 0.04605756 -0.026259366 0.17749435 0.08838003 -0.022270964
0.36197847 0.074893236 0.023484936 0.20882526 -0.2528408 0.18304409 0.112667084 0.15378235
-0.08297453 -0.15884595 -0.0433242 -0.15493582 -0.119773015 0.22419587 -0.021643165 0.08248186

a2c_network.actor_mlp.2.bias f4 [128]
00000000: 2ef4 18be 34c4 06bd 917c 85bd af2f 1dbe
00000010: 1586 09be 10ed 02be e92a 3abe d59e 4bbe
00000020: 790b 1c3e b4a4 d6bd 0857 0a3e d63b 223b
00000030: f764 2fbe 0ba0 14be 5b02 eebd b3c6 a2bd
00000040: 9830 5fbe 824a 0b3e b045 a9bd b51d eabd
00000050: 136a c4bd 6137 03be d3a5 b8bb f2c7 aebd
00000060: 0fe2 a03d 2419 b1bd 3e92 173d cafb 41be
00000070: f9c9 1fbe d334 16be 3ba9 03be 0ac0 edbd
00000080: 09f5 dcbd 9820 d13d 32b7 913c 128f 88bd
00000090: 3440 2cbe df17 e8bd 05b0 3e3d 4325 1cbd
000000a0: cb3c d4bc 9f85 f8bd b618 83bd 8e0c 9fbe
000000b0: 96b6 713e 65d3 f83d 07ac c23d 1ae9 9d3e
000000c0: bcb2 60be 1778 2abe 1cae 76be a0a4 67bd
000000d0: dbf3 913c b0c2 81be a138 c83d 5e67 febd
000000e0: a79f 49be c4f1 1fbe 258d 3abb 7b69 85bd
000000f0: 3371 38be a234 1cbd db7d adbc f90f 0b3e
00000100: f45b bf3c ea92 aabd ea53 353d ecb6 8ebd
00000110: 6fd1 7cbd c33e b1bd a768 04be 9f39 b0bd
00000120: c168 16bd a5d9 3e3d f4f0 36be cc42 f43c
00000130: 9e63 afbd 15ae b33c e7f9 4dbd 2593 1fbe
00000140: ed14 b2bd 3f95 53be 5752 89be c761 8bbc
00000150: df20 13be 30f4 5fbe 2cfc a7bd f155 e8bd
00000160: c25f 3b3e f208 44bc d6a2 33be dfcb d73c
00000170: d5ee 5739 3049 6fbd 313c 94be 384b 593e
00000180: 486f 263e dfe6 a43d 5380 05be e44a b03d
00000190: 68ef 98bd 1f4e b23d 0486 dcbd de2a 353d
000001a0: 3517 6bbc 72eb 543e 41cd 88be 2575 3dbe
000001b0: b939 7fbd 636f 02bd 6333 063d 777c d93d
000001c0: adc5 36be a3e8 8bbb 8941 a6be 9f6d aabd
000001d0: 1aa4 113d e12b 823e 052f aebd d260 26bd
000001e0: c588 093e d5c1 d83d 0798 2abe 3904 7b3e
000001f0: 1539 dabd 0ed6 7dbe 07c1 b03d 66dd 833d
-0.14936897 -0.032901958 -0.065179 -0.15350221 -0.13430054 -0.12785745 -0.18180431 -0.19884808
0.15238751 -0.104806334 0.13509762 0.0024754903 -0.17128359 -0.14514177 -0.11621543 -0.07948055
-0.21795881 0.13602641 -0.08265245 -0.114314474 -0.095905446 -0.12814094 -0.005635002 -0.0853423
0.07855617 -0.08647373 0.0370047 -0.18943706 -0.1560439 -0.14668588 -0.12857525 -0.11608894
-0.10788924 0.10211295 0.01778755 -0.066679135 -0.16821367 -0.11332678 0.046554584 -0.038121473
-0.025907895 -0.12134861 -0.064011976 -0.31064266 0.23604807 0.12149695 0.09505468 0.30841905
-0.21943182 -0.16647373 -0.24089855 -0.056553483 0.017816475 -0.25343847 0.09776426 -0.124220595
-0.19689809 -0.1561957 -0.0028465476 -0.065142594 -0.18011932 -0.038136132 -0.021178177 0.13580312
0.023359276 -0.08328803 0.04426948 -0.06968483 -0.06172317 -0.08654549 -0.12930547 -0.0860474
-0.036720995 0.04659428 -0.17865354 0.029817007 -0.08563922 0.021933595 -0.050287154 -0.15583475
-0.086953975 -0.20662402 -0.26820633 -0.017014397 -0.14368008 -0.21870494 -0.08202395 -0.11344517
0.18298247 -0.011965023 -0.17542586 0.02634233 0.0002059297 -0.058419406 -0.28952172 0.212201
0.16253388 0.08051848 -0.13037233 0.08608034 -0.07467538 0.08706307 -0.10767749 0.044230334
-0.014348795 0.2079294 -0.26719096 -0.18501718 -0.062310908 -0.031844508 0.03276385 0.10619443
-0.17848845 -0.004269676 -0.32471874 -0.0832169 0.03555689 0.25424102 -0.08505062 -0.04061968
0.1343108 0.105838455 -0.16659556 0.2451333 -0.10655419 -0.24788687 0.08630567 0.06438713

a2c_network.actor_mlp.4.weight f4 [128, 128]
00000000: ba0f aa3d f242 5bbd 4656 5e3b e81c 363d
00000010: cb60 8a3d 3189 e3bd 1a10 00be b1ba b33d
00000020: 5f9c 0dbd 0ae4 09be 2315 58bd b995 67be
00000030: d343 ae3c cfeb 903a 597b 6fbd f2ab 27be
00000040: d062 04bd 17b7 80ba 1666 38bd 4513 3bbe
00000050: aaa6 e23c 6026 6f3d 9a02 f1bc 41c1 f2bd
00000060: 81fd e6bd c47e 8dbd 01b6 023e 11b0 9ebe
00000070: 8781 1a3d 711b f7bd 628d 25bd 6a5d 563b
00000080: 2bb8 133d 2f80 81bd d8ad d3bc 7ef4 273d
00000090: 810c 30bc c035 883b d4c8 183d 2fe5 b5bd
000000a0: ed32 9dbd 536e 5bbd 31d1 e3bd 3b8b b4bd
000000b0: ad53 203e 3d1b 91bd fea6 21be a1bd 123e
000000c0: 9991 b93d 3388 b5bd 6cc0 18be 874d 01bb
000000d0: fb25 5dbd b900 ed3d aec4 e6bd 3215 4d3d
000000e0: f1dc 05be d153 103d 486f aebd eb9d 033d
000000f0: c16f 1ebd 80a6 b73d a00b d73d 6bf6 563d
00000100: ca75 2ebd 99e0 3f3e 93c0 29be 3aaf c5bd
00000110: 61c2 0f3e ec54 5e3d 85e4 1c3e 057d 8d3d
00000120: 195a 9939 5a27 2ebd 0884 5a3d 4002 ccbd
00000130: c40b 7bbd 195b 543e b87c 94bd 21cd 633d
00000140: 7967 753d 7bf7 d2bd e73f ecbc ec18 c13d
00000150: 2a84 ce3d 9868 96bd 9731 10be 90ea 86bd
00000160: 09ba 44bd 4e37 14bd 374a 4f3c c09a efbc
00000170: b503 123e 089d 6bbd a478 653b a068 883d
00000180: d30f d93c 57df 4dbe 29e2 41bd ca9a 64bc
00000190: 1407 8bbd 794b c63d e331 d4bd 3c2f 48be
000001a0: 1067 963d cd3a 1abd 6a18 92be 7a9f 64be
000001b0: a477 b83c d446 68be e80f 7e3c 8188 74be
000001c0: c9f0 a73d 1ba3 443b 694a 40be a7b3 79bd
000001d0: d7a1 333c bae0 cdbd 3bb9 c13d 33d5 cabd
000001e0: 96b3 68bd 4624 6bbc 3139 b0bb 58d3 57bd
000001f0: 69a1 1d3d 27ec 563c f996 51bd d267 38be
00000200: 9771 32be ed0e a4bd b7ee 7d3c 125e a53d
00000210: 5375 d2bd e3eb 20be d6d7 1ebd e813 ce3d
00000220: d6f3 04be 37a5 60be 4710 21bd 96cd 013e
00000230: 18b4 debd 36e4 5dbd d3b2 c73d e046 da3d
00000240: 31cf 19bc ee68 5fbb e7ec 37be d70e dd3d
00000250: 207d 8dbe 1754 3fbd 1859 d43c df7a 0c3d
00000260: 0e1e cdbd e10f bcbc 86c9 fdbc dcd7 863d
00000270: ff7b 69bd 5cd2 283d 2963 72bd 7ceb 203e
00000280: 3f12 b9be ae07 7abe 3555 9ebe 1d51 d33d
00000290: 4fc4 3dbe 9e64 fb3d 065d 57be 7bec 58be
000002a0: de10 733d 93a7 843d 6398 abbc 74e9 e43d
000002b0: a1d3 f8bb 5c37 5ebc 99a1 97bd 7ad8 92bd
000002c0: 9104 8f3d db61 2a3c ac46 b83d 0a6c 803d
000002d0: d7b8 69bd 2a3a 383e 7ac8 a6bd 3e6b a1bd
000002e0: 2977 dbbd 2cc7 d6bc ec09 dc3c e0b8 40be
000002f0: e04b a4bd bda5 a03d a6af 2d3d c88b 6dbd
00000300: 3609 12be a12e 18bb 6bbe 47be fc79 643c
00000310: ea8e 8abd 7f9c 3fbc f839 c2bc bd27 d9bb
00000320: a0fa 2cbd 7b0e 46be 11c1 2d3e 9258 363e
00000330: 7b21 833e ba36 dbbd 4448 033d 3dd5 2b3e
00000340: 2280 f03d d76a d93d 2e66 213e d271 84be
00000350: 8464 323e 2b4e 893e 5469 e43d cdfb 243e
00000360: 3846 003e 1d71 843e e9a9 ca3d feeb 4fbe
00000370: 7474 2dbe 4678 b6bd 2ac4 e53d e89b e7bd
00000380: 8f53 3dbe 1865 47be 3052 49bc f45d 593d
00000390: 8f81 0b3e cae0 10bd b6eb b03c dd7d 8cbd
000003a0: e2ba 8dbc 4e8b a7bd 577d 843d 0059 e4bd
000003b0: 20b5 4fbe 1975 9ebd 512a b6bd ba6c 66bd
000003c0: 7a50 40be 8b85 753e 6074 4a3e 75b2 d83d
000003d0: b273 84bd 66eb 513d 8aff 203e c1b7 5abd
000003e0: 0705 35be 5d67 44bd ddd9 13be 517d 26be
000003f0: 7272 27be 6a8f 083e 854f 66be 1394 333e
0.08303781 -0.05353064 0.0033925935 0.04446116 0.06756743 -0.111101516 -0.12506142 0.08775843
-0.034572955 -0.13465896 -0.052754533 -0.22615708 0.021272575 0.0011056605 -0.058467243 -0.16374186
-0.032320797 -0.000982019 -0.04501923 -0.1826907 0.027667362 0.058386207 -0.029420186 -0.118532665
-0.11278821 -0.06908944 0.12764741 -0.30993703 0.037721183 -0.12065781 -0.040418036 0.0032709488
0.036064308 -0.06323277 -0.025839731 0.04100465 -0.010745169 0.004156798 0.0373009 -0.08881604
-0.07675729 -0.05357201 -0.111238845 -0.088156186 0.1565692 -0.070852734 -0.15786359 0.1433015
0.09060974 -0.088638686 -0.14917153 -0.0019730048 -0.0539913 0.115724035 -0.112679824 0.05006904
-0.13072564 0.035236184 -0.08517319 0.032133024 -0.038680796 0.08967304 0.10500264 0.052481096
-0.0425928 0.18738021 -0.16577367 -0.096525624 0.14038993 0.054280207 0.15321548 0.06908611
0.00029249562 -0.042517997 0.05334857 -0.09961367 -0.061290517 0.20737876 -0.07250351 0.055615548
0.059913132 -0.103011094 -0.028839065 0.094285816 0.10083802 -0.073441684 -0.14081417 -0.06587708
-0.04802898 -0.036185555 0.012651972 -0.029248595 0.14259227 -0.057522804 0.0035014534 0.06660581
0.026496803 -0.20104729 -0.047334824 -0.01395292 -0.067884594 0.09682364 -0.10361078 -0.19549268
0.07343876 -0.037653733 -0.2853425 -0.2232646 0.022517987 -0.22683269 0.015506722 -0.23880197
0.08200223 0.0030004445 -0.18778385 -0.060962345 0.010963879 -0.10052629 0.09459158 -0.09903946
-0.05681189 -0.01435191 -0.0053779115 -0.052691787 0.03848401 0.013117827 -0.05116937 -0.18008354
-0.17426144 -0.08010659 0.015498809 0.08074583 -0.10276284 -0.15714984 -0.038780056 0.100623906
-0.12983641 -0.21938024 -0.039322164 0.12676081 -0.10874194 -0.054172717 0.09750905 0.106580496
-0.009387777 -0.0034089643 -0.17961465 0.10793846 -0.27634525 -0.046711054 0.02592139 0.034296867
-0.10015498 -0.02295679 -0.030979883 0.06584141 -0.057003018 0.04121624 -0.059176598 0.1571483
-0.36146733 -0.24416992 -0.30924383 0.103182055 -0.18531917 0.122750506 -0.2103158 -0.2118396
0.059342258 0.06477275 -0.020946687 0.1117734 -0.0075935875 -0.013563003 -0.07403869 -0.07170196
0.06983293 0.010399307 0.089978546 0.06270607 -0.057061043 0.17990938 -0.081437066 -0.07881783
-0.10716087 -0.02621802 0.0268602 -0.18820524 -0.080222845 0.07844112 0.04240384 -0.057994634
-0.14261326 -0.0023221152 -0.19506232 0.013945099 -0.0676554 -0.011695026 -0.023709282 -0.0066270516
-0.042231202 -0.19341461 0.1696818 0.17807224 0.2561148 -0.10703798 0.03205134 0.16780563
0.117431894 0.10616081 0.15761635 -0.25868088 0.17421156 0.2681745 0.11152902 0.1611168
0.12526786 0.2586755 0.09895689 -0.20304868 -0.16938955 -0.08909659 0.11219056 -0.11309034
-0.18488906 -0.19472158 -0.012287661 0.053068116 0.13623641 -0.035370626 0.02159677 -0.06859944
-0.017301027 -0.08180867 0.06469219 -0.11149788 -0.20283937 -0.07737178 -0.0889479 -0.056256033
-0.187807 0.23976724 0.19770956 0.10580913 -0.0646738 0.051249884 0.1572248 -0.053397898
-0.17677699 -0.047950137 -0.14438577 -0.16258742 -0.16352251 0.13335958 -0.22491272 0.17536955

a2c_network.actor_mlp.4.bias f4 [128]
00000000: b6a5 db3d a2bf 78be 58d8 47bd 8bac b13d
00000010: 7a70 ff3c 10cc 5cbd dfab 333d 7665 f8bd
00000020: 5dce 9fbe b537 5fbe fe66 edbd 53d0 5f3c
00000030: ed7c ea3c 8069 2dbe 2c17 5c3c 00a0 1a3d
00000040: 09ec 013d 78f9 d0bc 0c84 d43c 8d2a 31be
00000050: ff8c e5bd df91 cabe f832 cbbd e38c 00be
00000060: d828 e23d 5c71 0dbe c677 9cbc 19db 543d
00000070: e882 2bbd 67e1 dbbd 3f10 f1bd 9df0 82be
00000080: 7806 c7bd 9c77 1e3d ee4d f8bd 7e02 48bd
00000090: 2a0d 04be afba e0bd e1b9 10be 7600 ce3d
000000a0: 05a8 78be 7f77 2abb 82ad 61be 566e 64bc
000000b0: 91ac c5bc 3075 85bc 7f0b 553d 9b88 e1bd
000000c0: 3799 11bd a449 1ebe cee1 fa3d 1209 8f3d
000000d0: de4d 99bd 5b53 d33d be57 13be 3987 1e3d
000000e0: 2415 fabd d804 3fbe 0a8c 35bc 559f 03be
000000f0: 2b32 07bb a6c9 31be 8c18 513d 84e5 24be
00000100: eb5b c73d 3b0f c0bd 4e73 2dbd 4b24 93be
00000110: 9a6b ad3c 69c5 493c 8591 89be 848a e93d
00000120: 39ae eb3c 32a8 af3d fc6a dc3d 3de9 8abe
00000130: 9c23 0bbe 79d5 73be 9c6f 403d c5d0 d7bd
00000140: 0f8e c5bd d571 46be 90fa e6bd 4989 ba3d
00000150: 452a 8abe 37eb 81be a058 80bb 4e7a b1bd
00000160: 62fe a23d 86c5 163d 349b 763d ff02 163d
00000170: 0931 b8be 9cd6 a13d 4078 243d 836d a53d
00000180: 650c 7f3c 8f82 58be 6c9b fc3d 7278 37be
00000190: 2dab 92be f20c ccbc 49cd 253d 9b45 38be
000001a0: dbb9 35be 1bdc 37be 9858 0ebe b1ed e03c
000001b0: 2dc0 a1bb 6f25 38be 012a 52be ae21 0e3e
000001c0: 8886 11bd 629b 893d fbb4 2dbe bc1a 863d
000001d0: d28b a93d b346 5abe 123a 2fbe 31f6 123e
000001e0: eba7 4bbe e172 52bd ce05 8c3c 0cb8 d33d
000001f0: c130 6c3d 8276 18be d2b8 05bd 0cf3 49be
0.10724966 -0.24291852 -0.048790306 0.08675488 0.031181563 -0.053905547 0.04386508 -0.12128727
-0.3121213 -0.21798594 -0.1159191 0.013660508 0.028624022 -0.16934776 0.013433259 0.037750244
0.03171924 -0.025509581 0.025941871 -0.17301388 -0.112085335 -0.39564416 -0.09921831 -0.12553744
0.110429466 -0.13812774 -0.019100081 0.05196676 -0.04187289 -0.107363515 -0.11770677 -0.25574198
-0.09718031 0.038688287 -0.12124239 -0.0488305 -0.12895647 -0.10973107 -0.14133407 0.10058682
-0.24282844 -0.0026011167 -0.22038844 -0.013942322 -0.024130138 -0.01629123 0.052012917 -0.110123836
-0.035546508 -0.15457779 0.122501 0.06984152 -0.07485555 0.10318633 -0.1438894 0.038703177
-0.122110635 -0.18654191 -0.011080751 -0.12853749 -0.0020629268 -0.17362079 0.0510488 -0.16103178
0.09734329 -0.09377905 -0.04234629 -0.28738627 0.021169472 0.012315133 -0.26868835 0.11403373
0.0287696 0.085770026 0.10762593 -0.27131072 -0.13587803 -0.23811902 0.04698144 -0.105378665
-0.09646236 -0.19379361 -0.1127826 0.09108216 -0.26985374 -0.25374767 -0.003916815 -0.08665906
0.07958676 0.036809467 0.060206607 0.03662395 -0.3597491 0.079022616 0.04015374 0.08077528
0.01556692 -0.21143554 0.12334332 -0.1791704 -0.28646222 -0.024908517 0.04047898 -0.17995302
-0.1774668 -0.17955057 -0.13900983 0.02745709 -0.004936239 -0.1798303 -0.20523836 0.13880035
-0.03552869 0.0671909 -0.1696357 0.06548068 0.08278622 -0.21316032 -0.17111996 0.14351727
-0.19888274 -0.05137909 0.017092612 0.103378385 0.057663683 -0.14888957 -0.03264696 -0.19721621

a2c_network.value.weight f4 [1, 128]
00000000: 2478 3bbc fc8f 743c 70c9 6dbd edba 4e3b
00000010: ad19 a93c c67b 37ba e986 323d e970 353b
00000020: c724 6ebd 9a55 3d3b b262 643c 3c4f 1ebe
00000030: 25fe 113a d274 ba3c ac6b 20bc c915 15bc
00000040: 79d2 9ebc a7fe 303b 08fe f7b8 9028 723c
00000050: f28f 803c 1ea4 82be 25ed 8a3b 8530 a9bb
00000060: 9854 05be 550e 993c 9994 67bc a7c1 90bc
00000070: 9770 92b8 c772 2c3c a258 fe3c fef1 b0bd
00000080: 965a a93c 5d21 ee3c 24a3 8e3c aa7a 143c
00000090: 3e31 c63d 64c4 0fbd 234a 153c 24b2 22bd
000000a0: fd67 c5bc fa5d 1b3c d8d7 d7ba 447d 603c
000000b0: 72a1 44ba 8489 e6bc 30e1 f1ba a6a6 32bf
000000c0: e4ed 0dbd 4e3d 4ebd 8266 bd3c c407 de3c
000000d0: 0f72 81bb 9f81 70bc 16f6 d1bc 90df 543b
000000e0: 6098 b03c 6e53 8cbd 08f2 c93d 443c 18bc
000000f0: eaae 0b3c b1b5 743a 26ec b73c 1621 c73b
00000100: 770f a93d 989c a23c d422 8dbc 9651 963a
00000110: 6f63 46bb fdcc f6bd c2e0 993b 1dac 3bbd
00000120: f160 1fbd dc71 463d ccbd 3c3c c179 92bd
00000130: 28fc 3e3b 3217 4abe 4438 33bd 0e38 b3bc
00000140: 10d9 743b 274f c3bc bfa0 e4bb c1ae c0bc
00000150: 0d00 22bb 6bc6 943c e88a e0b9 c804 75bc
00000160: bc77 2abc d500 5b3b 0a0c ff3b 30fe 0abd
00000170: 4b8e 4fbe 21d6 eebb 6685 263c dd35 e13b
00000180: e491 05bd 38a3 fd3a b03e 683d 6f3f 5f3c
00000190: c080 113d 94aa 11bc cf80 14bc aba1 2cbc
000001a0: 5702 1abd 07ab 3fbb a893 91bb a45e f53c
000001b0: 4e21 af3b 5497 903d 3693 783e bd77 b1bc
000001c0: 4cc6 d3bc 1e44 04bd d319 4a3a 1743 d1bc
000001d0: 214d 793d 569f c33b 8d7d af3c b334 debc
000001e0: 4e60 c5bd 9b36 463c 7f6f 083c d9f5 71bb
000001f0: 63b3 443d dcfe 60bb 470d 073c ba39 693c
-0.011442218 0.014926907 -0.058053434 0.0031544522 0.020642126 -0.00069993397 0.04358569 0.0027685708
-0.058140542 0.0028890134 0.013939546 -0.15459913 0.00055691815 0.022760782 -0.009791296 -0.009099432
-0.01938747 0.0027007253 -0.00011825195 0.014780179 0.015693638 -0.25515836 0.0042396956 -0.0051632547
-0.13020551 0.018683592 -0.01413455 -0.017670466 -6.982794e-05 0.010525412 0.031048123 -0.08639906
0.020673078 0.029068643 0.017411776 0.0090624485 0.09677361 -0.035099402 0.009111914 -0.03972067
-0.024097437 0.009482855 -0.0016467525 0.013701741 -0.0007500864 -0.028141744 -0.0018453952 -0.69785535
-0.0346507 -0.050351433 0.023120169 0.027103312 -0.0039503644 -0.014679342 -0.025630038 0.0032481886
0.021557033 -0.068518505 0.09860617 -0.009291712 0.0085255895 0.00093349355 0.022451472 0.006076942
0.08254903 0.01985006 -0.017228521 0.0011468406 -0.003027167 -0.12050817 0.0046959827 -0.045818437
-0.03891081 0.04844843 0.0115198605 -0.07152129 0.0029141996 -0.19735411 -0.04375483 -0.021877315
0.0037360825 -0.023841454 -0.0069771702 -0.02352083 -0.0024719269 0.01816102 -0.00042828103 -0.014954753
-0.010404523 0.0033417244 0.0077834176 -0.03393382 -0.20269124 -0.0072887097 0.010163641 0.006872876
-0.032609835 0.0019351011 0.05670041 0.013625964 0.035523176 -0.008890767 -0.0090639135 -0.0105365915
-0.037599888 -0.0029246227 -0.004442651 0.029952355 0.0053445464 0.070601135 0.24274907 -0.021663541
-0.025851391 -0.032291524 0.00077095366 -0.025544686 0.06086457 0.005969922 0.021422172 -0.027124738
-0.09637509 0.01209798 0.008327364 -0.0036920218 0.04802264 -0.0034331596 0.008242912 0.0142349545

a2c_network.mu.weight f4 [18, 128]
00000000: 2215 393e b714 79bb fbed 383e 54d8 4d3c
00000010: f879 743d c124 d8bc 1a35 b03d ad65 ffbc
00000020: d874 66be 7052 9cbb 1cef 20be 9426 a03d
00000030: c9dd 12bc 1b90 0fbc faf8 a3bd a8c5 bfbd
00000040: f134 293d bcc7 24be 28e5 0abe fba8 77be
00000050: f0f0 35bd 99fe cebd 1c65 ef3d ca4d 003b
00000060: fa2c 8b3d 3214 20be bbdd dabd 7642 4fbd
00000070: 75b6 7e3d 3b15 a23c 8c0f 203d 80e2 99bc
00000080: c78d 123d 8716 133b 431c c83c d239 813c
00000090: 43ed d33d 7b73 07be c020 44be d288 67bd
000000a0: cc99 5e3e 6ebf 693c d5e5 31be 41ec 81be
000000b0: 923e 483e 4a27 93bd 4e84 34bd 4c10 8f3c
000000c0: cde6 5dbd 534a bd3d f72a da3d e757 46bd
000000d0: 33f9 c2bd 2e68 8fbe 4edc bf3d f262 1b3e
000000e0: 790c b1bd c1a1 df3d 1b96 a03d 2610 2dbc
000000f0: 1586 963c d4cc 753e 4ba7 043e dd9c 803c
00000100: fee2 2bbc ba6e 8dbe 3133 503e 166a 973c
00000110: 6a9b ca3d 33d5 753d aa5b 463d 9a7a f33d
00000120: 5d15 2dbe e83c 9d3d 7755 643d 7a09 e43c
00000130: 9285 2c3d 4b6d c3bd d2b0 1e3d 942a cabd
00000140: 55c7 1ebe e597 893b 3409 283e 2bb4 cebd
00000150: ea2c 7d3e 0888 bd3d ebcd 9b3c 8766 ac3c
00000160: 392c adbd a9c1 623d cfa6 56be c516 893d
00000170: c3fe cb3c 0c6f a63d 61b0 85bd bf85 4dbc
00000180: 464b 4dbd 2206 463d 618f 22be 0c83 81bc
00000190: d1ca 0bbd 8597 0e3e fd7f f53d 52c8 f1bc
000001a0: 5afc e93c 396b fa3d 9077 7fbd b7a0 35be
000001b0: 22a1 fd3c 078a dbbd c8d9 aebc 55db fcbd
000001c0: 0424 07bd 583e aabd b710 32bd 25e3 6e3d
000001d0: b60a 1fbd f428 9cbd cf29 2ebe c76e d03d
000001e0: c53d f33c cb6c 6fbe af00 08bd a5bc b4bd
000001f0: 4378 9d3d 7fd6 ffbd 2d16 a93d 063c 2fbd
00000200: f8fb b0bd e099 44bd 24c5 a5bd c55c a93d
00000210: 8344 91bc 5736 8f3b ada3 b33c fca2 9e3d
00000220: f8a0 253d efaf 0fbe 1a03 c93d b5b4 973b
00000230: e34a 05be 57ec e43c a77d ddbc ed08 00bd
00000240: 9a30 9c3d b9fa 8e3d e640 bc3b 3e6b d63d
00000250: 05b3 de3c b10a 93bd 5e0b c83c b95e 863d
00000260: 0b40 50bd e94f 1bbe da9b 2e3d 7d2b eabc
00000270: 1e6d c2bd 5de6 b9bd d446 c1bd 3395 4e3d
00000280: fa54 35bd 6b49 78bd a345 81be 8898 93bd
00000290: f283 2a3d dfe5 5fbd bcee d03d b837 54bb
000002a0: 1de1 fb3d 4163 9fbd d891 a23d 1e40 c83d
000002b0: ca76 57bd 8c4e adbc 6310 813b 5e21 9fbc
000002c0: c484 ddbd b0b3 6c3d 64d9 f63d 6b4e a1bd
000002d0: 3ef6 333d fc51 bbbc 6e54 95bd d083 9a3d
000002e0: 136f 95bd 4cf4 75bd 9933 9fbd 9179 993d
000002f0: 4b3a b43d 3ac9 693d db8d 9a3c c459 4abd
00000300: 03ba 78bd 2a09 6bbd 6f57 b5bd b491 f4bc
00000310: fb1a c73d 24b5 953d 7e51 583d 7101 47bd
00000320: 65be 76bd 43e8 07bc a4a2 823d 180b ef3d
00000330: 4d64 c1bd b1c4 09bd 4612 073e 2288 debd
00000340: 1e52 183e b97f b43d 7d28 22be e0f9 3f3e
00000350: 76ec c73c 53dc 91be dfb2 e7bd 09ca b0bc
00000360: c211 973d 0057 9fbd 4cfa 933d 8474 ebbd
00000370: 3907 19bc 7d09 903d 84ab ca3d 45a0 a7bd
00000380: 537c be3d 75a5 93be 4c83 19bd 3f62 14be
00000390: e370 37be 8281 b13c 6a49 b73d 658e 0a3e
000003a0: da1b cb3d 5294 ac3c 7051 83bb aed9 273e
000003b0: bab2 eebd 6276 06be 61d7 133e 9e88 ad3d
000003c0: d2fa 01be cdf1 a1bd e6d7 b33b 7693 913d
000003d0: 10f2 063d a37f b63d 1573 efbd 2c19 abbd
000003e0: 64e7 883c 8676 1bbd 23e7 b53d 0473 d2bd
000003f0: 4319 103d 1e54 a03c d643 b13d 1605 b03c
0.18074468 -0.0038006732 0.18059532 0.012563784 0.05968663 -0.026384713 0.08603878 -0.031176412
-0.2250551 -0.0047705695 -0.15716213 0.07819858 -0.0089640105 -0.008762385 -0.08006473 -0.09363872
0.041310254 -0.16091818 -0.13563979 -0.24185555 -0.04441923 -0.101071544 0.11689207 0.0019577616
0.06795688 -0.15632704 -0.10686823 -0.05060049 0.062185723 0.019785514 0.039077327 -0.018784761
0.03577974 0.0022443847 0.024427539 0.015774641 0.103479885 -0.13227646 -0.19153118 -0.056526966
0.21738356 0.014266832 -0.1737283 -0.2537556 0.19555119 -0.07185228 -0.044071488 0.017463826
-0.054175187 0.09242692 0.10652726 -0.048423674 -0.09520187 -0.2800917 0.09368192 0.15174463
-0.08644957 0.10919524 0.0784113 -0.010562932 0.018374482 0.24003917 0.12954442 0.015699798
-0.010491131 -0.2762354 0.20332028 0.018483203 0.09892924 0.060017776 0.04842726 0.11888619
-0.1690268 0.076776326 0.055745568 0.02783655 0.04211957 -0.0954233 0.038742848 -0.098714024
-0.15505727 0.0041990154 0.1640976 -0.10092958 0.24724165 0.092544615 0.019019088 0.021044983
-0.084557004 0.05536047 -0.2096207 0.06693796 0.024901753 0.08126649 -0.06527782 -0.012544095
-0.050120614 0.048345692 -0.15875007 -0.015809558 -0.034128968 0.13924988 0.119873025 -0.029514465
0.028562713 0.12227482 -0.062369883 -0.17737089 0.030960623 -0.10719686 -0.02134408 -0.12346522
-0.03299333 -0.083126724 -0.04347297 0.05832209 -0.038828574 -0.07624999 -0.17008136 0.10177379
0.02969254 -0.23381345 -0.033203777 -0.088250436 0.07688954 -0.12492084 0.08256183 -0.042781852
-0.08641809 -0.04799831 -0.08094242 0.082696475 -0.017732864 0.0043704915 0.021928633 0.077459306
0.040436715 -0.14031957 0.09815045 0.0046296963 -0.13016848 0.027944727 -0.027037455 -0.031258512
0.076264575 0.06981415 0.005745041 0.104696736 0.027184973 -0.071797736 0.024419483 0.06561036
-0.050842326 -0.15167202 0.0426291 -0.02858519 -0.09493469 -0.090771414 -0.094373375 0.050435256
-0.044270493 -0.06061689 -0.2524844 -0.072068274 0.04162974 -0.05466258 0.10201785 -0.0032381844
0.12298796 -0.07782603 0.07937974 0.097778544 -0.05260352 -0.021155618 0.003938721 -0.01942509
-0.10816339 0.05778855 0.12053183 -0.07876285 0.043936007 -0.022866242 -0.07291494 0.075446725
-0.07296576 -0.060047433 -0.07773513 0.0749389 0.08800181 0.05707667 0.01886647 -0.049402013
-0.06072427 -0.057381786 -0.08854567 -0.029854633 0.09721943 0.073099405 0.052812092 -0.04858536
-0.060240168 -0.008295122 0.063786775 0.11672038 -0.09442959 -0.033634845 0.13190565 -0.10865809
0.14875075 0.08813424 -0.15835758 0.18747663 0.024404746 -0.28488407 -0.11313414 -0.021580713
0.07376434 -0.07780266 0.07225475 -0.11496833 -0.009340101 0.0703306 0.09895995 -0.08184866
0.09301057 -0.2883717 -0.03747873 -0.14490603 -0.17914157 0.0216682 0.089495495 0.13530882
0.09917422 0.021066818 -0.004007511 0.16391632 -0.11655183 -0.13131097 0.1443763 0.08473323
-0.12693337 -0.07907448 0.0054883836 0.07108204 0.032945693 0.089110635 -0.11691872 -0.083544105
0.016711898 -0.03795483 0.088819765 -0.10275844 0.03518034 0.01957136 0.08655517 0.0214868

a2c_network.mu.bias f4 [18]
00000000: a0cb 1b3c 453d 703c 30d7 31bc d44c 243d
00000010: 1f01 033d bf1d 95bd b984 9b3d f372 b43c
00000020: db4f 963c 3e0e c13c 406d 99bd 1b6f 033e
00000030: 5685 763a 00c1 033d 8199 ba3d 124d d63d
00000040: c6fb 6f3d 374f 8c3c
0.009508997 0.014663045 -0.010854527 0.04011233 0.03198349 -0.07281064 0.07593674 0.022027468
0.018348625 0.023566362 -0.07491541 0.12835352 0.0009404024 0.03216648 0.0911131 0.10463919
0.05858972 0.017127616

exp_avg f4 [18]
00000000: bb94 8e39 53e3 843a 1e77 5b3a 124f 4e3a
00000010: 1004 063a 7623 1f3a 1fdf be39 6ba8 ea38
00000020: caa9 cfb9 2c81 1a39 4f0b 893a 8116 8639
00000030: 1972 283a a758 53b9 7fc9 9bb8 9b75 21b8
00000040: 2957 e2b9 1756 32b9
0.00027195163 0.0010138549 0.0008371937 0.0007870059 0.00051122997 0.0006070653 0.00036405862 0.0001118936
-0.0003960862 0.00014734705 0.0010455641 0.00025575238 0.0006425693 -0.00020155554 -7.4285075e-05 -3.849492e-05
-0.00043171018 -0.00017007474

exp_avg_sq f4 [18]
00000000: b31e 1837 b998 0537 3b6b fc36 2cf2 0a37
00000010: 1317 f236 3fe8 0837 40a7 0637 ab97 0837
00000020: cdd7 0a37 29e8 0437 99b6 0637 4949 fa36
00000030: c2e0 1937 9b2b 0a37 2418 0e37 d7b5 f436
00000040: be52 0637 b4f4 1037
9.067054e-06 7.962976e-06 7.5226685e-06 8.281826e-06 7.214848e-06 8.160306e-06 8.025963e-06 8.141545e-06
8.275686e-06 7.921867e-06 8.029537e-06 7.459112e-06 9.171841e-06 8.235594e-06 8.46948e-06 7.2929356e-06
8.006287e-06 8.640043e-06

exp_avg f4 [128, 66]
00000000: 6a0d f738 fb07 84b8 7c11 d7b7 f0b6 7f38
00000010: 005d a838 b5cc 0837 fc38 9fb7 7cbc 00b7
00000020: 591a cf39 17d3 9439 2443 9ab8 0880 b137
00000030: 8f22 18b8 fc41 ae37 6ed4 02b7 d828 9fb6
00000040: 0125 4f37 cfe7 d836 0b45 97b8 3fbd 5ab8
00000050: 81b4 49b8 ca33 66b6 777a bab6 ad66 94b7
00000060: eae5 8138 1c12 b938 235b ea37 2cd8 d9b8
00000070: 57c9 ec36 7946 d3b7 6f8c 87b7 5787 0b3a
00000080: 704b 29ba d3e9 633a 68ba c338 2a3e a5ba
00000090: 4142 41b9 d113 d839 8231 b4b9 b081 d6b9
000000a0: 2700 21b7 fcb8 0539 42c4 0d39 9871 f1b9
000000b0: 4d35 13ba b252 9638 c6e5 613a e911 d139
000000c0: 8000 66b9 1863 9b39 fae5 58b9 1f1f 0639
000000d0: 107b ca38 b98b a4b9 4b38 c0b9 6095 a539
000000e0: a86a 1fb9 9b83 6eb8 c23e 4c39 ade3 91b8
000000f0: 6b0d be39 b715 1e36 ef70 1738 054f 0aba
00000100: d7d6 95b9 3dcb 1b39 5f52 5438 e8eb d438
00000110: 0cf4 6237 9b06 afb8 66d0 1037 a9df 0439
00000120: 01f8 9037 b9d0 c136 1320 7c39 84f2 4e38
00000130: 9f1a 1239 7cde 2239 2f0a dd37 957c 39b7
00000140: 9382 0a37 0eb5 6638 c9e1 ab33 7564 ecb7
00000150: 7519 84b7 aa4c fc37 b35b d136 1cdd fbb7
00000160: f77f bdb7 a0ab ebb7 cd13 03b8 2dd5 2bb8
00000170: 2e11 0ab8 25a5 55b8 f3ad 0b35 e7cd 1338
00000180: 1b33 1fba c54d 893a a08f 36ba b9fe ba3a
00000190: 0c1f a939 0424 24ba f057 2e3a bad3 9c3a
000001a0: 48d1 2739 9078 1cba 817c 193a 0575 20ba
000001b0: aa10 2a3a 184b 863a cba6 4dba b440 8d38
000001c0: 75bc 9538 a2fd 29b9 e6bb ff38 1618 9039
000001d0: a7bf e4b8 741a 173a ef7d 0f39 cb3d e2b9
000001e0: 46ba 15b9 5db7 1c3a a54c 2339 d2bc f3b9
000001f0: 3da7 e439 a190 cbb9 846e 0eb9 1482 3339
00000200: 857c 52b9 417d 04ba 5041 9a39 1f78 d039
00000210: fd92 cfb6 b354 aab8 3fa8 6b37 dcea 72b8
00000220: 629b 34b8 bb2a 25b9 31e3 7a37 9974 6537
00000230: 3024 43b8 4e8e 8737 a8db 9eb8 d85f c337
00000240: 1f47 1eb8 afe7 1437 7751 d037 ba53 57b7
00000250: dba0 d6b7 4a46 1e37 2c75 ab37 a716 fd37
00000260: baec 2837 d19d f337 0ad6 c5b7 e360 08b8
00000270: 1108 38b8 58af a1b8 3915 85b8 e7be 9db7
00000280: e023 3438 91b1 0838 34fe efb9 9bf9 993a
00000290: 35be 39ba ad44 673a 7254 b2b9 914e f63a
000002a0: cdc8 5eb7 c532 66ba 728d 6138 5991 dd38
000002b0: 1d5b d4b8 9bee 4eba 85d7 d7ba eff1 11ba
000002c0: 4eb3 743a 6b5c c538 cbbc 3e39 7fbf 083a
000002d0: aa16 e7b9 2e10 cb39 f1bf ccb7 3d05 2539
000002e0: 6783 84b9 388c ee39 a5a0 1738 b575 7cb8
000002f0: b725 84b7 4ac2 3939 c0b9 b9b9 3724 87b9
00000300: f0c7 62b8 d69d 53b9 9cf3 7ab9 2462 e438
00000310: d455 7fb8 b84b 8737 0362 2d36 4769 8538
00000320: 6e07 1638 6a60 df38 7309 28b9 a171 ce38
00000330: 31f5 2b36 1269 0cb7 2e54 2fb9 a7f0 aab8
00000340: ca1f 0bb6 a718 1639 90e7 a537 dba5 af37
00000350: 10a9 b437 9d08 fe37 437d beb7 39e7 5f37
00000360: c242 f636 72f8 6636 6c59 c037 8cd5 a4b7
00000370: 9aeb b837 f40d d237 c6e4 5738 735c 0db8
00000380: 8447 3238 aa87 e337 a20a 90b5 7e22 b437
00000390: a0a6 0f39 7cbb 903a bea7 1eba 3080 52b9
000003a0: 2fda 32ba 1cad a9b9 55c4 17ba e511 9eb8
000003b0: 5e5d 8d39 d26f a7b9 ed72 2e39 3567 70ba
000003c0: 648e a73a 471b 16ba 3623 82b7 669d 20b8
000003d0: 4f36 943a adc4 96b9 7c09 0e39 e094 ee39
000003e0: 217c 8db8 03ad 3639 4f4c 5cb9 363b d137
000003f0: db6c 2fb9 97fb 2438 0a50 afb8 894c dcb9
0.000117803764 -6.295737e-05 -2.5638139e-05 6.096711e-05 8.028187e-05 8.153894e-06 -1.8980812e-05 -7.6732795e-06
0.00039501747 0.00028386034 -7.355798e-05 2.1159663e-05 -3.627181e-05 2.0773143e-05 -7.798064e-06 -4.743324e-06
1.2346777e-05 6.4642877e-06 -7.213101e-05 -5.21515e-05 -4.809024e-05 -3.4302816e-06 -5.5574887e-06 -1.7690787e-05
6.194024e-05 8.8248606e-05 2.7937413e-05 -0.000103876315 7.056787e-06 -2.5185976e-05 -1.6158649e-05 0.00053225964
-0.00064580794 0.00086942053 9.3330455e-05 -0.0012607027 -0.00018430596 0.00041213495 -0.00034369162 -0.00040913885
-9.596383e-06 0.0001275278 0.0001351992 -0.00046051736 -0.00056155474 7.1679606e-05 0.0008617308 0.0003987693
-0.00021934696 0.00029637734 -0.00020685038 0.0001279083 9.655033e-05 -0.0003138462 -0.00036663035 0.00031582545
-0.00015203154 -5.686619e-05 0.00019478335 -6.956547e-05 0.0003624962 2.3556474e-06 3.6106383e-05 -0.0005276057
-0.00028579563 0.00014857664 5.0621453e-05 0.00010152889 1.3527471e-05 -8.3458806e-05 8.63159e-06 0.00012671821
1.7281624e-05 5.7761467e-06 0.00024044541 4.9340088e-05 0.00013933562 0.00015532406 2.6349995e-05 -1.1055866e-05
8.255843e-06 5.5004894e-05 8.003878e-08 -2.8180171e-05 -1.574748e-05 3.007644e-05 6.2393606e-06 -3.0024494e-05
-2.2590144e-05 -2.8094102e-05 -3.1251275e-05 -4.0968112e-05 -3.2917764e-05 -5.093696e-05 5.2034665e-07 3.5239293e-05
-0.0006072984 0.0010475448 -0.0006964151 0.0014266587 0.00032257324 -0.000626147 0.0006650677 0.0011964955
0.00016004324 -0.0005968893 0.00058550393 -0.0006120953 0.00064874685 0.0010245768 -0.00078449835 6.735456e-05
7.1399765e-05 -0.00016211582 0.00012194346 0.00027483766 -0.00010907585 0.00057641347 0.00013684457 -0.00043152118
-0.0001427914 0.0005978251 0.00015573444 -0.00046489254 0.0004361215 -0.00038826934 -0.00013583346 0.00017119228
-0.00020073548 -0.00050540647 0.0002942183 0.0003976235 -6.1861924e-06 -8.122008e-05 1.4046264e-05 -5.7916026e-05
-4.3060056e-05 -0.00015751545 1.4954058e-05 1.3676611e-05 -4.6525325e-05 1.615952e-05 -7.574941e-05 2.3290442e-05
-3.7736372e-05 8.8754305e-06 2.4833467e-05 -1.2834493e-05 -2.5585692e-05 9.433899e-06 2.0439351e-05 3.0170499e-05
1.00686975e-05 2.9041346e-05 -2.35839e-05 -3.251516e-05 -4.387653e-05 -7.7097386e-05 -6.345887e-05 -1.8804754e-05
4.2948755e-05 3.25903e-05 -0.00045775028 0.0011747362 -0.0007085533 0.0008822184 -0.00034013722 0.0018791725
-1.3278984e-05 -0.0008781369 5.377591e-05 0.00010565174 -0.00010125919 -0.00078938314 -0.0016467428 -0.0005567362
0.000933458 9.410906e-05 0.00018190143 0.00052165234 -0.0004407664 0.00038731232 -2.4408075e-05 0.00015737578
-0.00025274904 0.0004549937 3.6150817e-05 -6.0191105e-05 -1.5753189e-05 0.00017715353 -0.00035424344 -0.0002577619
-5.4068805e-05 -0.00020181327 -0.0002393261 0.00010890167 -6.087667e-05 1.6128513e-05 2.583606e-06 6.361544e-05
3.5769706e-05 0.00010651427 -0.00016025249 9.8440105e-05 2.5623706e-06 -8.369114e-06 -0.0001672066 -8.151057e-05
-2.0731118e-06 0.00014314298 1.9777362e-05 2.0938858e-05 2.1536398e-05 3.028317e-05 -2.2708095e-05 1.33456715e-05
7.339143e-06 3.4417285e-06 2.2929824e-05 -1.9649764e-05 2.204422e-05 2.5040448e-05 5.1473056e-05 -3.370312e-05
4.250511e-05 2.7123682e-05 -1.0731931e-06 2.1473734e-05 0.00013699615 0.0011042203 -0.0006052217 -0.00020074914
-0.0006822673 -0.00032363168 -0.00057894486 -7.53736e-05 0.0002696318 -0.00031936035 0.00016636746 -0.00091706525
0.0012783525 -0.00057261105 -1.5513604e-05 -3.829356e-05 0.0011307689 -0.00028756764 0.00013545708 0.00045505818
-6.746525e-05 0.00017421324 -0.00021009262 2.4942314e-05 -0.00016729852 3.933496e-05 -8.359559e-05 -0.00042018693
