logs/rl_games/hexapod_flat_direct/2025-11-14_22-48-05/nn/hexapod_flat_direct.pth (torch, 544557 bytes, 33 tensors)

value_mean_std.running_mean f8 [1]
-0.10795705805089635
00000000: fd72 b3e1 12a3 bbbf

value_mean_std.running_var f8 [1]
0.016476029241827637
00000000: 16de 0b9b 17df 903f

value_mean_std.count f8 []
271122433.0
00000000: 0000 0001 0029 b041

a2c_network.sigma f4 [18]
-1.2010078 -1.7708396 -0.6453857 -0.4402544 -1.9433571 -1.9189522 0.18826744 0.2843779
0.2631898 -2.1383946 0.3401116 0.1785509 0.47768205 0.19445421 0.3591683 0.2692049
0.5426944 0.41062748
00000000: a0ba 99bf dfaa e2bf ff37 25bf 0669 e1be
00000010: edbf f8bf 3aa0 f5bf 2ec9 403e fb99 913e
00000020: d0c0 863e 75db 08c0 1c23 ae3e 0cd6 363e
00000030: be92 f43e 011f 473e e8e4 b73e 3ad5 893e
00000040: 05ee 0a3f c43d d23e

a2c_network.actor_mlp.0.weight f4 [128, 66]
0.3300894 -0.0850393 -0.18678306 -0.27454445 0.048613682 0.050892085 0.19432636 0.03053515
-0.17525998 -0.16509157 -0.2522039 0.2786433 -0.10059337 0.31155086 0.09632051 -0.35261372
0.2932285 0.11180789 0.076199904 -0.05070112 0.032525722 -0.11282201 -0.127868 0.016917335
0.05046301 -0.10969142 0.08984701 0.07947071 -0.07859239 -0.11252654 0.04689816 -0.07509267
0.032883093 -0.27780467 0.0038857667 0.039069496 0.013338014 -0.053187493 -0.040309936 -0.083499886
-0.09717174 -0.05173773 -0.08713423 -0.013899643 0.044710606 -0.020127261 -0.003310122 -0.106473014
-0.19714262 0.046847932 0.12509283 -0.20621069 0.07363549 -0.04045156 0.031113314 -0.054398667
0.011443328 -0.053453866 -0.045527976 -0.033834632 -0.050979547 -0.121222824 0.06766302 -0.091413006
0.11800498 0.007423109 0.14016438 0.06700876 -0.2424825 -0.114771254 -0.17833407 -0.07576588
0.18041994 0.16498014 0.013956083 -0.09238213 0.176221 -0.340906 0.07252565 0.06864817
0.0019465897 0.24758631 0.15866977 0.1654676 0.058349304 -0.09247035 -0.007956185 -0.05796842
0.022170275 -0.13919917 0.099749826 0.11944193 0.05719594 -0.060444288 0.12457904 0.03969149
-0.011520905 -0.08183627 0.044365834 -0.08601782 -0.035438146 0.065874085 0.051738955 -0.037987523
-0.01865706 -0.011025178 0.05903385 -0.02959682 -0.049757987 -0.014405054 -0.06786335 0.021851243
0.054197386 -0.09001904 0.08517182 0.113546744 -0.034064632 0.023117367 0.094310716 0.1545816
0.06751922 -0.059432447 0.11712849 0.1276588 -0.12324265 -0.04731166 0.059661895 0.19142096
-0.073120356 -0.09801672 -0.027380416 -0.04920456 -0.017411029 0.12027633 -0.2278256 -0.06123956
0.07238113 0.00023107203 -0.044473674 -0.049777705 -0.16211633 -0.2076085 -0.025834573 0.46294114
-0.09133676 0.06626777 -0.11623922 -0.029168773 -0.10209979 -0.005493781 -0.008614738 -0.1391433
-0.017368227 -0.24941085 -0.124524914 -0.007940164 0.021560658 -0.10870988 -0.0044292137 0.12418235
0.1870065 0.08783906 -0.09012371 -0.084269576 -0.07559697 0.08468592 0.025170062 0.11652388
0.046821393 0.04409416 0.0006328741 -0.062520415 -0.11614596 -0.13246389 0.060307633 -0.07112097
-0.015387378 -0.048077404 0.0069266753 -0.0758327 -0.21243626 0.072398484 -0.06651561 0.0939472
-0.1050585 -0.108165234 -0.004027219 -0.110961564 -0.05416654 -0.22533011 0.09997874 -0.1518703
0.020084463 -0.042850114 0.123066485 -0.060703907 0.08605314 -0.03353126 0.120127544 0.3011477
-0.22052851 -0.04577629 0.040707193 -0.192496 0.48722434 0.0024657089 0.13487315 0.041479338
0.11220398 -0.047529347 -0.0064806025 0.06322543 0.07699776 -0.08295056 -0.022037702 0.011407559
0.082923286 0.07484907 0.06540713 0.06640252 0.071387134 0.18932594 -0.010237048 -0.1361707
-0.20392264 -0.13654102 -0.20545168 -0.27388823 -0.0031702165 -0.04584311 -0.050422136 -0.09261004
-0.026331956 0.00074952014 0.0060858307 -0.03460728 -0.054448664 -0.022204518 -0.08468132 0.11272245
-0.021451233 0.034098938 -0.03917966 -0.020644603 0.059151623 0.031749677 -0.11439626 0.088198535
0.15571314 0.055705037 0.102172434 0.18370457 -0.009927038 -8.2690916e-05 -0.14612919 -0.061986886
00000000: 7a01 a93e 1629 aebd 0f44 3fbe 1791 8cbe
00000010: 241f 473d 3874 503d 7dfd 463e da24 fa3c
00000020: 5a77 33be c40d 29be df20 81be 56aa 8e3e
00000030: e603 cebd 9883 9f3e b043 c53d c989 b4be
00000040: 0c22 963e 89fb e43d b20e 9c3d faab 4fbd
00000050: b139 053d 3a0f e7bd d4ef 02be 3996 8a3c
00000060: 4db2 4e3d e5a5 e0bd b601 b83d 8ac1 a23d
00000070: 0cf5 a0bd 5174 e6bd 4918 403d 30ca 99bd
00000080: 6cb0 063d 6a3c 8ebe 59a8 7e3b 5607 203d
00000090: af87 5a3c 21db 59bd 081c 25bd fd01 abbd
000000a0: fa01 c7bd f1ea 53bd 6e73 b2bd 54bb 63bc
000000b0: 7822 373d ede1 a4bc a2ee 58bb 860e dabd
000000c0: c1df 49be 9ee3 3f3d 5618 003e e528 53be
000000d0: 34ce 963d 89b0 25bd 59e1 fe3c 23d1 5ebd
000000e0: cc7c 3b3c 71f2 5abd 8b7b 3abd 2f96 0abd
000000f0: eecf 50bd ac43 f8bd e992 8a3d be36 bbbd
00000100: 98ac f13d 8d3d f33b 4087 0f3e e43b 893d
00000110: 554d 78be 310d ebbd 359d 36be 242b 9bbd
00000120: 01c0 383e 8ef0 283e 0ea8 643c d832 bdbd
00000130: 4773 343e 3b8b aebe 5488 943d 6997 8c3d
00000140: b624 ff3a 4487 7d3e 547a 223e 5770 293e
00000150: aeff 6e3d 1861 bdbd a95a 02bc 4b70 6dbd
00000160: 709e b53c 3a8a 0ebe a349 cc3d f89d f43d
00000170: 4a46 6a3d 6e94 77bd 4c23 ff3d 8b93 223d
00000180: 2ec2 3cbc c699 a7bd f3b8 353d 1c2a b0bd
00000190: 9727 11bd fee8 863d 3aec 533d ce98 1bbd
000001a0: b1d6 98bc f3a2 34bc 7acd 713d 0875 f2bc
000001b0: 08cf 4bbd 2d03 6cbc f1fb 8abd 6101 b33c
000001c0: 14fe 5d3d e75b b8bd 906e ae3d 328b e83d
000001d0: 5b87 0bbd a260 bd3c fa25 c13d a44a 1e3e
000001e0: 8447 8a3d 706f 73bd 10e1 ef3d fdb8 023e
000001f0: a466 fcbd dfc9 41bd 0860 743d db03 443e
00000200: 20c0 95bd fdbc c8bd e54c e0bc b98a 49bd
00000210: 93a1 8ebc 7053 f63d 1d4b 69be 55d6 7abd
00000220: 8f3c 943d ed4b 7239 072a 36bd b5e3 4bbd
00000230: d301 26be 5397 54be 07a3 d3bc 9f06 ed3e
00000240: c40e bbbd 66b7 873d d40e eebd 5af3 eebc
00000250: b219 d1bd 2d05 b4bb d424 0dbc 957b 0ebe
00000260: d047 8ebc 8f65 7fbe eb06 ffbd 7617 02bc
00000270: fa9f b03c 49a3 debd f022 91bb 5153 fe3d
00000280: a27e 3f3e f7e4 b33d c892 b8bd 8795 acbd
00000290: 96d2 9abd d06f ad3d 7231 ce3c 12a4 ee3d
000002a0: cac7 3f3d 149c 343d 76e7 253a b40a 80bd
000002b0: efdd edbd 9da4 07be 2305 773d dfa7 91bd
000002c0: 571b 7cbc d0ec 44bd 2af9 e23b 2d4e 9bbd
000002d0: e488 59be a845 943d 5639 88bd 6467 c03d
000002e0: e928 d7bd bc85 ddbd c3f6 83bb d13f e3bd
000002f0: bcdd 5dbd f0bc 66be a7c1 cc3d e383 1bbe
00000300: 2c88 a43c 9a83 2fbd 480a fc3d a9a4 78bd
00000310: a13c b03d 1358 09bd 6e05 f63d 0830 9a3e
00000320: 3ad2 61be eb7f 3bbd 96bc 263d ac1d 45be
00000330: 7875 f93e bb97 213b 301c 0a3e 3de6 293d
00000340: 33cb e53d 22ae 42bd 3c5b d4bb 567c 813d
00000350: 00b1 9d3d fce1 a9bd 6988 b4bc c5e6 3a3c
00000360: afd3 a93d 784a 993d 2cf4 853d 0bfe 873d
00000370: 6b33 923d a9de 413e 4bb9 27bc 5570 0bbe
00000380: 19d1 50be 69d1 0bbe ed61 52be 143b 8cbe
00000390: 68c3 4fbb fcc5 3bbd 7187 4ebd 55aa bdbd
000003a0: 1db6 d7bc 727b 443a a66b c73b 5dc0 0dbd
000003b0: 9005 5fbd 40e6 b5bc 666d adbd 07db e63d
000003c0: 7fba afbc 54ab 0b3d da7a 20bd df1e a9bc
000003d0: f948 723d f30b 023d 9648 eabd 6fa1 b43d
000003e0: 4473 1f3e f72a 643d c83f d13d 0d1d 3c3e
000003f0: 04a5 22bc 596a adb8 e4a2 15be f6e5 7dbd

a2c_network.actor_mlp.0.bias f4 [128]
0.053525787 0.03386183 0.0865376 -0.058343668 0.120880775 -0.08085684 -0.025518462 0.20337193
0.04290183 0.0020116288 -0.0056091063 0.09411891 -0.028965224 0.113987975 -0.12839337 0.08090973
0.08108466 0.11722761 0.1574609 0.14160703 -0.059721008 0.06329628 0.0965516 0.08862441
0.00047408103 0.10272791 -0.039085414 0.12085695 0.1406584 0.0018596714 0.13590579 -0.07125141
0.11842406 0.05940832 -0.15114968 0.031106865 0.02063836 0.15219377 -0.033577092 -0.013103719
0.022027701 0.05551266 -0.020893158 0.04589701 -0.09599503 0.14107673 -0.08501442 0.043426327
0.13976963 0.07366969 -0.106290415 0.075554885 0.008652515 0.06058372 -0.11030013 0.055859648
0.110405244 0.039956108 0.08281887 0.16353934 0.12209465 -0.01453688 0.16573264 -0.05877546
0.060250524 0.123269565 0.23386206 0.1187149 0.18357782 0.07387212 0.21276718 0.0027137233
0.13514432 0.0016150079 0.11998738 -0.12623629 -0.17585672 0.09278367 -0.035403535 -0.084943205
-0.17114568 -0.09504259 0.026497968 0.17282817 0.14150316 0.054391 -0.08152911 0.064288475
-0.15882188 0.16517535 0.104922995 -0.04844089 0.08943915 0.11856448 0.085034505 -0.021066137
0.14341138 -0.03801344 -0.026682636 0.03920858 0.05429057 -0.20554629 0.09267181 -0.03535829
0.092192784 0.15376866 0.2555319 0.07597264 0.20702374 0.12532455 0.14721543 0.08213345
0.1175309 0.06545271 0.115662254 0.08103528 0.09365624 0.090858206 0.1110592 0.0069352123
0.13648534 -0.015039954 0.16524947 0.03694913 0.010009895 0.13481182 -0.115971126 0.26245195
00000000: db3d 5b3d b4b2 0a3d a03a b13d c5f9 6ebd
00000010: 5790 f73d 4598 a5bd 180c d1bc bb40 503e
00000020: d4b9 2f3d 88d5 033b 98cc b7bb 6ac1 c03d
00000030: 7a48 edbc 8772 e93d 8d79 03be 00b4 a53d
00000040: b70f a63d 0715 f03d 6e3d 213e 6f01 113e
00000050: 049e 74bd 7ba1 813d d8bc c53d b780 b53d
00000060: 148e f839 0363 d23d 0718 20bd d983 f73d
00000070: c108 103e 38c0 f33a e32a 0b3e 42ec 91bd
00000080: 5088 f23d 2356 733d fbc6 1abe d3d3 fe3c
00000090: c711 a93c afd8 1b3e 2288 09bd fbb0 56bc
000000a0: 7073 b43c 3e61 633d 2128 abbc 81fe 3b3d
000000b0: 0b99 c4bd 6b76 103e 0a1c aebd cedf 313d
000000c0: c51f 0f3e 22e0 963d caae d9bd 85bc 9a3d
000000d0: 47c3 0d3c a326 783d 09e5 e1bd 16cd 643d
000000e0: 251c e23d 04a9 233d f19c a93d db76 273e
000000f0: c30c fa3d 182c 6ebc d1b5 293e 89be 70bd
00000100: 41c9 763d c174 fc3d 8979 6f3e cc20 f33d
00000110: d3fb 3b3e 444a 973d a4df 593e b9d8 313b
00000120: 4663 0a3e acae d33a f2bb f53d 1644 01be
00000130: c913 34be 5d05 be3d 4c03 11bd b4f6 adbd
00000140: d040 2fbe b0a5 c2bd 4412 d93c def9 303e
00000150: 34e6 103e 19c9 5e3d bcf8 a6bd ada9 833d
00000160: 34a2 22be ba23 293e dee1 d63d f469 46bd
00000170: e02b b73d efd1 f23d 9226 ae3d e492 acbc
00000180: 6fda 123e fbb3 1bbd 8b95 dabc 2d99 203d
00000190: ca5f 5e3d ba7a 52be b8ca bd3d dbd3 10bd
000001a0: 92cf bc3d 8875 1d3e 14d5 823e 8b97 9b3d
000001b0: 08fe 533e 1455 003e a4bf 163e 9535 a83d
000001c0: 0ab4 f03d 120c 863d 55e0 ec3d d3f5 a53d
000001d0: d8ce bf3d de13 ba3d 0173 e33d c740 e33b
000001e0: d0c2 0b3e 246a 76bc 2837 293e f957 173d
000001f0: 8b00 243c 1c0c 0a3e 4582 edbd 1a60 863e

a2c_network.actor_mlp.2.weight f4 [128, 128]
0.051025167 0.099331565 -0.06527142 -0.024190534 -0.087417535 -0.08540746 0.012058948 -0.030393034
0.0066274246 -0.10262595 0.026472617 -0.03492682 0.038022563 -0.040809076 -0.045397285 0.030292016
-0.03765274 -0.14248063 -0.01483706 -0.13620809 0.09390128 0.05895848 -0.0078122593 -0.069553986
0.05527861 -0.12170165 -0.018886946 0.004231071 0.04739186 -0.00055504445 0.04151002 0.0026513084
-0.12802307 0.059215948 -0.010739713 0.039522264 0.0045229048 0.038690202 -0.0076432535 0.04357982
-0.011952175 -0.015217664 -0.18552324 0.16229904 0.07526996 -0.1331449 -0.009822605 0.11723115
-0.036080364 0.040301252 0.014337165 0.002531133 0.20755878 0.00669635 0.018936219 0.010376084
0.0438875 -0.1036472 -0.046753988 -0.022031944 -0.06867696 0.080893494 -0.19642252 -0.0703146
-0.10817487 0.020778297 0.007087848 -0.06993541 0.079337426 -0.04236825 -0.10481769 0.027003845
-0.06974642 -0.0033040273 -0.070138626 0.06278084 0.0059120664 0.091248654 -0.07942133 -0.07864049
-0.033717755 0.031519968 -0.04371537 -0.08116522 0.087826155 -0.029984603 0.008706252 -0.14133756
-0.0042630173 0.022770425 0.062184464 -0.13618352 -0.12652127 0.026559833 0.06984188 0.00528336
-0.08775902 -0.09364304 0.03528739 0.02366245 0.074200645 -0.062401593 -0.02676623 0.0880611
-0.0071975547 -0.01295353 0.058493823 0.029183555 9.698081e-06 -0.15193695 0.15810964 -0.08950987
0.10474467 0.06510006 -0.14260153 -0.094828315 -0.02481838 0.08769906 0.055359222 0.03522503
0.027667016 0.050770674 0.030954106 -0.052250907 0.07691725 -0.028685281 0.065240644 -0.017683381
0.06771796 -0.12513085 0.0023929237 -0.096662916 0.001342852 0.060269795 -0.15547067 -0.117611945
-0.06881856 -0.004262529 -0.0030812745 -0.042394448 -0.0211525 -0.0542886 -0.001123229 0.014345851
0.038715538 -0.021673344 -0.071530044 0.09504504 0.0037636529 -0.062306773 0.037919488 -0.022371035
0.028470581 0.0654792 0.03611904 0.09796151 0.044807564 0.13462295 -0.078602456 -0.0074030655
0.031203255 0.0009888754 0.11779654 -0.056885853 0.07867235 -0.20700195 0.0011238293 0.043567363
-0.0578743 -0.019748561 0.13616739 -0.038367834 0.011363093 -0.07530566 0.056393724 -0.029665612
-0.15532936 -0.12030978 0.03835476 -0.062383294 -0.105699845 0.030007994 0.01356042 -0.08838469
-0.03159019 0.07048238 0.026176428 -0.14634407 -0.08757008 0.13712066 -0.045775257 -0.058985565
-0.0516644 -0.038444363 0.050347134 0.03783626 -0.07097236 -0.12478557 -0.14888887 0.02264986
0.02179855 0.07888805 -0.029285599 0.02294062 0.03300655 -0.07132918 0.0758227 0.07509085
0.055781037 0.064318985 -0.0103894835 -0.0061317077 0.10682607 -0.10659818 0.051838316 -0.07919991
-0.020232163 -0.12045113 -0.08287634 0.07017823 -0.14601679 0.05477102 0.05188451 0.10790864
-0.081003465 -0.1218244 0.022928664 0.001592274 0.034508824 0.06710874 -0.00097631523 0.016208109
-0.12435318 -0.13348418 -0.160129 -0.08219227 -0.016177239 0.0836718 0.035345323 -0.07386145
-0.004496978 0.12364027 -0.019853663 -5.3722877e-05 -0.091612086 0.022239398 0.055739917 -0.009953153
-0.080975525 0.079345405 -0.04738034 -0.033307478 -0.030126065 0.055411052 0.03357567 -0.04039927
00000000: c4ff 503d 596e cb3d 06ad 85bd 3a2b c6bc
00000010: f707 b3bd 1bea aebd e592 453c d0fa f8bc
00000020: de2a d93b 8e2d d2bd 1add d83c 6d0f 0fbd
00000030: 8cbd 1b3d 6b27 27bd 81f2 39bd f626 f83c
00000040: c239 1abd 71e6 11be 2417 73bc 227a 0bbe
00000050: 504f c03d 727e 713d fbfd ffbb 5272 8ebd
00000060: d36b 623d b73e f9bd ccb8 9abc cca4 8a3b
00000070: f81d 423d 6780 11ba 6906 2a3d 93c1 2d3b
00000080: 7b18 03be 6c8c 723d 9ff5 2fbc 19e2 213d
00000090: e034 943b 9e79 1e3d 4274 fabb c180 323d
000000a0: 0ed3 43bc 8253 79bc cef9 3dbe b831 263e
000000b0: 2327 9a3d 2357 08be feee 20bc e316 f03d
000000c0: 01c9 13bd ed12 253d 6ee6 6a3c 5de1 253b
000000d0: 4a8a 543e 0e6d db3b 2120 9b3c 7300 2a3c
000000e0: 61c3 333d fc44 d4bd 1c81 3fbd 567c b4bc
000000f0: 82a6 8cbd 7dab a53d fc22 49be 1a01 90bd
00000100: c98a ddbd 3f37 aa3c 2e41 e83b 4c3a 8fbd
00000110: a97b a23d 558a 2dbd a8aa d6bd 2b37 dd3c
00000120: 36d7 8ebd 6188 58bb d7a4 8fbd 3e93 803d
00000130: 02ba c13b 93e0 ba3d a6a7 a2bd 440e a1bd
00000140: a11b 0abd 151b 013d e30e 33bd f339 a6bd
00000150: 33de b33d 45a2 f5bc aba4 0e3c cbba 10be
00000160: c8b0 8bbb 0b89 ba3c 23b5 7e3d b173 0bbe
00000170: cb8e 01be 0294 d93c 4209 8f3d 0920 ad3b
00000180: 00bb b3bd ecc7 bfbd 8389 103d c1d7 c13c
00000190: 82f6 973d d098 7fbd da44 dbbc 6159 b43d
000001a0: 77d9 ebbb 0b3b 54bc 3897 6f3d 5a12 ef3c
000001b0: f1b4 2237 5c95 1bbe 7ee7 213e f350 b7bd
000001c0: 6084 d63d 2e53 853d 2306 12be 5935 c2bd
000001d0: ea4f cbbc 919b b33d 5ac0 623d 1f48 103d
000001e0: f0a5 e23c e9f4 4f3d 7793 fd3c 0c05 56bd
000001f0: cb86 9d3d 65fd eabc e39c 853d bddc 90bc
00000200: b7af 8a3d 4d22 00be 99d2 1c3b 35f7 c5bd
00000210: a302 b03a 76dd 763d b433 1fbe 88de f0bd
00000220: bff0 8cbd afac 8bbb 35ef 49bb cda5 2dbd
00000230: 0248 adbc b95d 5ebd 5039 93ba dc0a 6b3c
00000240: 2f94 1e3d 4c8c b1bc 587e 92bd f9a6 c23d
00000250: 9ea7 763b 6335 7fbd 7751 1b3d 7643 b7bc
00000260: 233b e93c f519 863d 8ff1 133d 0ba0 c83d
00000270: 2388 373d 99da 093e 53fa a0bd 6a95 f2bb
00000280: f89d ff3c 279d 813a 503f f13d 2401 69bd
00000290: f81e a13d 52f8 53be 744d 933a b173 323d
000002a0: 9a0d 6dbd bcc7 a1bc 776f 0b3e 9727 1dbd
000002b0: 442c 3a3c db39 9abd 1bfd 663d 4c05 f3bc
000002c0: a90e 1fbe f964 f6bd e119 1d3d a085 7fbd
000002d0: 2979 d8bd 53d3 f53c 862c 5e3c 0803 b5bd
000002e0: b764 01bd 1159 903d f36f d63c 38db 15be
000002f0: f157 b3bd 5c69 0c3e d67e 3bbd d99a 71bd
00000300: 0d9e 53bd d677 1dbd cc38 4e3d 32fa 1a3d
00000310: f559 91bd 948f ffbd 5376 18be 338c b93c
00000320: df92 b23c 0f90 a13d 5ae8 efbc f8ed bb3c
00000330: e031 073d 0815 92bd ef48 9b3d 3bc9 993d
00000340: a87a 643d acb9 833d a738 2abc 7eec c8bb
00000350: a0c7 da3d 2650 dabd 6a54 543d 9033 a2bd
00000360: ecbd a5bc 15af f6bd 12bb a9bd 9bb9 8f3d
00000370: 6d85 15be 9457 603d da84 543d 34ff dc3d
00000380: 25e5 a5bd 127f f9bd e5d4 bb3c dab3 d03a
00000390: 2059 0d3d 4f70 893d 68ef 7fba dec6 843c
000003a0: e1ac febd 14b0 08be dbf8 23be 6c54 a8bd
000003b0: 2186 84bc 1f5c ab3d 42c6 103d ac44 97bd
000003c0: 635b 93bb 1c37 fd3d 26a4 a2bc 8054 61b8
000003d0: 1e9f bbbd 662f b63c 8a4f 643d 8d12 23bc
000003e0: 7fd6 a5bd d87f a23d e311 42bd 6c6d 08bd
000003f0: f0ca f6bc b3f6 623d a486 093d b479 25bd

a2c_network.actor_mlp.2.bias f4 [128]
-0.018619496 -0.107466176 -0.0037550586 7.057262e-05 0.05580885 0.015083473 0.062002387 0.09908828
-0.11678777 -0.0108565 -0.10573387 -0.027704233 -0.01783694 -0.08986138 -0.05241175 -0.06634824
0.0062769265 -0.0611208 0.009153299 -0.034647483 -0.16896598 0.08795601 0.009124556 -0.083546974
-0.19079615 -0.05263733 -0.007882721 -0.004804794 -0.21698093 0.030264197 -0.021053342 -0.08169279
0.026562791 0.06769757 0.05410643 -0.16109106 0.024248544 0.03086687 -0.13800965 -0.04163699
0.06591254 -0.026782205 0.021427399 -0.017445672 0.012716202 -0.035459097 -0.17441799 -0.064918734
-0.015904237 -0.011343474 -0.017674292 -0.12033182 -0.009885682 0.06694018 -0.14438306 0.006984607
0.014483291 -0.034908444 0.098261416 -0.085689254 -0.124533184 0.08886589 0.064287044 0.046533696
-0.039701834 -0.034937404 0.09285693 -0.023748433 0.01671428 0.018666215 0.083293065 -0.004162768
0.06164747 -0.121872604 0.049136642 -0.184164 -0.12235319 -0.12631288 0.015968643 0.060106486
0.047130957 0.053426635 -0.013632823 -0.07657235 -0.115819804 0.06969809 -0.14867899 -0.12682237
0.04876364 0.006132126 -0.03415613 -0.04503032 0.01633531 0.12471713 0.089413635 -0.092210636
0.009520506 0.0118542295 0.05960917 0.06955941 0.024984254 -0.033392157 -0.023782402 -0.016048847
0.06950922 0.04055437 -0.034859687 0.015464658 0.09285956 -0.041058235 0.021504743 -0.08728743
0.0437449 -0.011874416 0.010793216 -0.030870842 0.06792423 -0.09819917 -0.054521613 -0.019362422
-0.058764827 0.007780565 -0.0194309 0.054432373 -0.007019443 0.021093352 0.02762196 -0.029261928
00000000: ea87 98bc 3a17 dcbd 6e17 76bb 6300 9438
00000010: d297 643d ac20 773c 37f6 7d3d ccee ca3d
00000020: 6d2e efbd 76df 31bc 008b d8bd fdf3 e2bc
00000030: c61e 92bc 3e09 b8bd b4ad 56bd 96e1 87bd
00000040: adae cd3b ce59 7abd b8f7 153c 85ea 0dbd
00000050: 6b05 2dbe 4822 b43d 297f 153c ad1a abbd
00000060: 1160 43be 3e9a 57bd 8726 01bc 8971 9dbb
00000070: 4030 5ebe 9fec f73c 0f78 acbc 8d4e a7bd
00000080: 369a d93c 06a5 8a3d b49e 5d3d 0ef5 24be
00000090: e2a4 c63c 85dc fc3c 6752 0dbe 8c8b 2abd
000000a0: 27fd 863d 5b66 dbbc 8388 af3c 3aea 8ebc
000000b0: 9e57 503c 8f3d 11bd a19a 32be 1df4 84bd
000000c0: 9a49 82bc fad9 39bc adc9 90bc 8770 f6bd
000000d0: 8ef7 21bc ef17 893d 27d9 13be 21df e43b
000000e0: 534b 6d3c 28fc 0ebd 483d c93d d97d afbd
000000f0: 410b ffbd 52ff b53d eda8 833d 1e9a 3e3d
00000100: 649e 22bd 861a 0fbd c62b be3d 138c c2bc
00000110: 63ec 883c e4e9 983c 8e95 aa3d d467 88bb
00000120: 0f82 7c3d 5898 f9bd 8143 493d 7d95 3cbe
00000130: 4f94 fabd 2a58 01be acd0 823c 3832 763d
00000140: 640c 413d e3d5 5a3d 345c 5fbc f7d1 9cbd
00000150: ef32 edbd dfbd 8e3d 4e3f 18be b9dd 01be
00000160: 62bc 473d 00f0 c83b 4ce7 0bbd b671 38bd
00000170: a1d1 853c b26b ff3d 7f1e b73d eed8 bcbd
00000180: e5fb 1b3c 3e38 423c bf28 743d 2a75 8e3d
00000190: c7ab cc3c 37c6 08bd 50d3 c2bc df78 83bc
000001a0: da5a 8e3d 571c 263d 08c9 0ebd 7a5f 7d3c
000001b0: 272d be3d ae2c 28bd b72a b03c c1c3 b2bd
000001c0: da2d 333d e98c 42bc 07d6 303c d9e4 fcbc
000001d0: dc1b 8b3d a51c c9bd 0e52 5fbd f19d 9ebc
000001e0: 63b3 70bd 1cf4 fe3b 8d2d 9fbc 7bf4 5e3d
000001f0: 5b03 e6bb f7cb ac3c 7347 e23c b6b6 efbc

a2c_network.actor_mlp.4.weight f4 [128, 128]
-0.013158618 -0.05742464 -0.04113739 0.006220844 0.036315616 -0.1290215 -0.042163156 0.06828427
-0.050866257 0.030038 0.050023146 0.012731268 0.011604578 -0.091585055 0.001287728 0.017345257
0.0016470666 -0.035886582 -0.04163699 -0.08526624 0.027285324 0.054506753 0.023663867 0.002177747
-0.041210406 0.053846356 0.009220414 -0.038666837 -0.027403058 -0.053429868 -0.10038433 0.09881384
0.048255377 -0.07529653 -0.0101139685 0.034154464 -0.018009417 -0.032011874 -0.11114192 -0.0752405
-0.02022661 -0.04299217 -0.057327636 -0.05207306 0.051032733 -0.060928024 -0.13169897 0.052323658
0.06021603 -0.04531417 -0.0062401798 -0.022823848 0.03965025 -0.009824928 -0.1100959 0.07370427
-0.079073295 -0.0004622169 -0.023607256 -0.07951723 -0.01462856 0.032047916 0.0072844164 0.13746926
0.11226661 0.07041361 -0.042291075 -0.049610287 0.09953633 0.017354654 0.08103866 0.116783015
-0.029837972 0.034563422 0.034288075 -0.027108096 -0.071974464 -0.008614069 0.08648917 -0.009309198
0.023801208 0.029857904 0.03401263 0.08668338 0.0006633251 -0.0030657405 -0.060204044 -0.03154201
-0.07381833 0.044995528 0.0439211 -0.039457448 0.038569123 -0.008018499 -0.064060524 -0.009026098
-0.017469807 -0.03925948 0.09413792 0.020496976 -0.074779145 -0.005973687 -0.029438552 -0.08336119
0.057789616 0.011217942 -0.0037554877 -0.033386048 -0.013092812 -0.07047949 -0.0123933675 -0.047897365
0.024092576 0.01614479 -0.1062307 -0.09296936 -0.04545701 0.03874566 0.07656703 0.03420425
0.04970077 0.061910138 -0.063296564 0.096326016 -0.08630318 -0.027497457 0.0102416845 -0.11006846
0.015626006 0.03792074 -0.015337571 0.047087867 0.07673168 -0.041796662 -0.057521228 0.035441235
-0.045010634 -0.056918338 0.0048817126 0.060819387 -0.074904874 -0.036418922 -0.0547167 0.122514084
0.070328675 -0.026443645 -0.10957661 0.06600174 -0.10748236 -0.043620974 0.14714305 -0.004317215
-0.0259672 -0.09622575 -0.075019665 -0.00878999 0.02570294 -0.013417389 -0.049691416 -0.043100685
-0.0033711786 0.027625203 -0.048102144 -0.05256807 -0.07901519 0.06438324 -0.060189214 -0.11862363
-0.033486467 -0.09011876 -0.10062141 -0.04999296 0.062402982 -0.09056188 -0.0843658 0.032336906
0.07175941 0.009754968 0.1282932 0.046656936 -0.057066318 -0.009773876 -0.06365963 0.11765613
-0.0057185916 0.061676186 -0.04225762 -0.07585254 -0.07557106 0.08944188 -0.07343522 0.0015334408
0.020164387 -0.08165142 -0.02783527 0.05161912 0.10198621 -0.0047113895 -0.020953316 0.0018755342
-0.021747557 -0.018518448 0.016623698 0.032176968 0.14625934 -0.05002745 0.053819418 0.0758771
0.019948043 -0.013417811 0.0035735115 0.026009873 0.052588228 0.050257344 -0.036772426 0.01959427
0.08233281 0.06280283 0.006815797 -0.1126891 0.059755735 -0.02162801 0.06436419 0.038376596
-0.06773629 -0.0150137795 -0.024693003 -0.08562782 0.022866052 0.104284935 0.09348963 -0.04763246
-0.018544188 -0.018331788 0.050748535 -0.07295052 0.015735492 -0.08597892 0.01875998 0.03139836
-0.085986115 0.0888501 -0.040809877 0.062350944 -0.11589087 0.072944775 0.13104202 0.044492237
0.0020263072 0.008051232 -0.09843338 0.02314618 0.04559468 0.05326658 -0.05478218 0.020070415
00000000: 3e97 57bc 1936 6bbd ae7f 28bd 39d8 cb3b
00000010: afbf 143d 361e 04be 46b3 2cbd a0d8 8b3d
00000020: 2359 50bd 4012 f63c 12e5 4c3d cf96 503c
00000030: 2121 3e3c f290 bbbd fbc8 a83a a417 8e3c
00000040: 62e2 d73a cffd 12bd 8c8b 2abd 11a0 aebd
00000050: 7985 df3c 7942 5f3d bada c13c 88b8 0e3b
00000060: 3ecc 28bd ff8d 5c3d 3811 173c 1e61 1ebd
00000070: 617c e0bc 47d9 5abd 4d96 cdbd e95e ca3d
00000080: 6ea7 453d 1135 9abd 0fb5 25bc 8de5 0b3d
00000090: 7c88 93bc e21e 03bd 609e e3bd b117 9abd
000000a0: 47b2 a5bc 8f18 30bd 62d0 6abd 904a 55bd
000000b0: b307 513d aa8f 79bd 18dc 06be 5551 563d
000000c0: 15a5 763d 5a9b 39bd 6c7a ccbb 14f9 babc
000000d0: 4d68 223d bcf8 20bc f679 e1bd 44f2 963d
000000e0: 2ef1 a1bd b455 f2b9 0164 c1bc eed9 a2bd
000000f0: a1ac 6fbc ad44 033d 1db2 ee3b bec4 0c3e
00000100: 09ec e53d 0335 903d 6839 2dbd 2834 4bbd
00000110: b4d9 cb3d 592b 8e3c 99f7 a53d ef2b ef3d
00000120: c36e f4bc 6092 0d3d a771 0c3d cc11 debc
00000130: 5967 93bd 0622 0dbc 3c21 b13d 9b85 18bc
00000140: c0fa c23c 9098 f43c d450 0b3d 0e87 b13d
00000150: fee2 2d3a 97ea 48bb 8498 76bd 3232 01bd
00000160: 112e 97bd 3b4d 383d 9de6 333d 229e 21bd
00000170: a8fa 1d3d 0660 03bc 2a32 83bd 33e2 13bc
00000180: d71c 8fbc 8cce 20bd 62cb c03d 46e9 a73c
00000190: cf25 99bd ebbe c3bb 1e29 f1bc 46b9 aabd
000001a0: ceb4 6c3d 76cb 373c a11e 76bb cfbf 08bd
000001b0: 3c83 56bc 8d57 90bd 8d0d 4bbc 0730 44bd
000001c0: cb5d c53c 1442 843c 7b8f d9bd b866 bebd
000001d0: 2131 3abd c5b3 1e3d 2dcf 9c3d c119 0c3d
000001e0: 0993 4b3d 7c95 7d3d a1a1 81bd 9346 c53d
000001f0: b9bf b0bd 5942 e1bc bdcc 273c 936b e1bd
00000200: 1c02 803c c752 1b3d 6f4a 7bbc 35df 403d
00000210: 8025 9d3d fa32 2bbd 619b 6bbd d42a 113d
00000220: 125d 38bd 3423 69bd c6f6 9f3b c01d 793d
00000230: ba67 99bd 022c 15bd 9e1e 60bd aae8 fa3d
00000240: 7b08 903d 58a0 d8bc b469 e0bd ec2b 873d
00000250: b61f dcbd e8ab 32bd abac 163e 6d77 8dbb
00000260: 2ab9 d4bc 0212 c5bd e9a3 99bd e403 10bc
00000270: f98e d23c 9cd4 5bbc 3a89 4bbd 588a 30bd
00000280: feee 5cbb 404e e23c c106 45bd 9e51 57bd
00000290: b7d2 a1bd 5cdb 833d f788 76bd f2f0 f2bd
000002a0: 1b29 09bd 2f90 b8bd 9912 cebd 6bc5 4cbd
000002b0: 459a 7f3d 8278 b9bd fac7 acbd b473 043d
000002c0: 99f6 923d 4dd3 1f3c 4b5f 033e 581b 3f3d
000002d0: 5fbe 69bd 9b22 20bc fb5f 82bd b2f5 f03d
000002e0: 0663 bbbb 2ba0 7c3d 5316 2dbd 9458 9bbd
000002f0: 00c5 9abd 4e2d b73d 3465 96bd bcfd c83a
00000300: c92f a53c dc38 a7bd cb06 e4bc 926e 533d
00000310: 25de d03d 0062 9abb 4aa6 abbc 7cd4 f53a
00000320: ef27 b2bc 00b4 97bc 6c2e 883c ffcb 033d
00000330: 02c5 153e 95e9 4cbd c071 5c3d 7465 9b3d
00000340: 146a a33c 61d6 5bbc 9331 6a3b a812 d53c
00000350: c166 573d a5da 4d3d af9e 16bd 2a84 a03c
00000360: 1b9e a83d c59e 803d 0d57 df3b 8bc9 e6bd
00000370: 6ec2 743d 392d b1bc 5fd1 833d c730 1d3d
00000380: 53b9 8abd 5bfc 75bc fb48 cabc a35d afbd
00000390: 9651 bb3c 5793 d53d 7e77 bf3d 411a 43bd
000003a0: fbe9 97bc 8c2c 96bc b2dd 4f3d 1567 95bd
000003b0: b8e7 803c b715 b0bd 88ae 993c 919b 003d
000003c0: 7d19 b0bd 0bf7 b53d 4228 27bd b463 7f3d
000003d0: 3158 edbd 1264 953d e12f 063e 7e3d 363d
000003e0: cbcb 043b 51e9 033c 7197 c9bd 0f9d bd3c
000003f0: 7dc1 3a3d 0f2e 5a3d 4763 60bd b66a a43c

a2c_network.actor_mlp.4.bias f4 [128]
0.05206732 0.04017647 -0.058216695 -0.08643042 -0.10926229 0.010589384 0.06822626 0.023036962
0.026433837 0.05856685 0.023662038 -0.026973777 -0.038960613 0.0556109 -0.04218937 -0.004527556
-0.03796289 -0.05958171 -0.052037444 -0.056306094 0.03866732 -0.014240756 0.016980704 0.010247426
0.002932809 -0.0636816 -0.14008573 -0.030116733 0.09675776 0.062103745 -0.05335503 0.0076874937
0.10963574 -0.03628768 -0.024321426 -0.12309449 0.020070544 0.06225938 -0.035205074 -0.041897517
0.010956396 -0.0096010575 0.015061041 -0.03321161 0.0038441303 0.020880928 -0.08272604 0.13223939
0.05195264 0.08969809 -0.043863386 -0.09420467 0.068220995 -0.071457155 0.0713971 -0.11557002
0.050223727 -0.10788108 -0.10679632 0.035585165 0.06555906 -0.044030644 -0.009149113 0.10923369
-0.036132153 0.026105264 0.07496009 -0.013814261 0.060020175 -0.15314712 0.028712349 0.008410553
-0.030731026 0.0014709152 -0.0038634639 -0.019993007 0.080350086 -0.0099500865 -0.03584797 -0.07220226
-0.12915069 0.07428431 -0.040835686 -0.092322126 -0.0188098 0.06278938 -0.013388584 0.09238511
-0.100335516 0.0057131783 0.072784536 -0.061502498 0.038900074 -0.07645898 -0.027654847 0.03835724
-0.020159725 -0.016438002 -0.04461325 -0.016930467 -0.026108885 0.020619458 -0.0585489 -0.011386634
0.052046657 -0.033172835 -0.019834684 -0.07388886 0.12464091 0.03961234 0.07497461 -0.034472473
-0.054729626 -0.0039507 0.06603986 -0.14410436 -0.06388231 0.03994465 0.036131017 -0.07437242
-0.02396023 0.056801412 -0.022377187 0.014964119 0.07504134 -0.048898667 0.04235028 0.024003476
00000000: 8b44 553d 1590 243d a174 6ebd 6f02 b1bd
00000010: e8c4 dfbd 187f 2d3c 36ba 8b3d 03b8 bc3c
00000020: c68b d83c cbe3 6f3d e4d6 c13c 1cf8 dcbc
00000030: 2a95 1fbd 41c8 633d c3ce 2cbd e45b 94bb
00000040: fa7e 1bbd f30b 74bd 3725 55bd 38a1 66bd
00000050: a061 1e3d 0f52 69bc 1e1b 8b3c d2e4 273c
00000060: 5f34 403b 806b 82bd a272 0fbe 5eb7 f6bc
00000070: ef28 c63d 7f60 7e3d ce8a 5abd 5fe7 fb3b
00000080: b488 e03d 64a2 14bd ba3d c7bc f718 fcbd
00000090: fb6a a43c b103 7f3d 3233 10bd bb9c 2bbd
000000a0: 7582 333c c14d 1dbc 96c2 763c e608 08bd
000000b0: ceed 7b3b 7b0e ab3c 456c a9bd c369 073e
000000c0: 4bcc 543d a2b3 b73d 18aa 33bd 61ee c0bd
000000d0: 73b7 8b3d 2158 92bd a538 923d faaf ecbd
000000e0: 65b7 4d3d c1f0 dcbd 07b8 dabd c0c1 113d
000000f0: d443 863d 7a59 34bd 29e6 15bc eab5 df3d
00000100: 4fff 13bd b5da d53c ad84 993d 3655 62bc
00000110: b7d7 753d 99d2 1cbe 2936 eb3c 6bcc 093c
00000120: a2bf fbbc b9cb c03a 2b32 7dbb 60c8 a3bc
00000130: 968e a43d b005 23bc 52d5 12bd c7de 93bd
00000140: 1440 04be 5f22 983d 5243 27bd 6213 bdbd
00000150: 0217 9abc b897 803d cb5b 5bbc 6834 bd3d
00000160: b57c cdbd 9d35 bb3b 0f10 953d 0bea 7bbd
00000170: af55 1f3d 8796 9cbd 6b8c e2bc 7b1c 1d3d
00000180: 0226 a5bc fda8 86bc 62bc 36bd c3b1 8abc
00000190: 4de2 d5bc 23ea a83c f9d0 6fbd 018f 3abc
000001a0: e02e 553d 3de0 07bd 597c a2bc 0b53 97bd
000001b0: bc43 ff3d 8d40 223d 4a8c 993d 0233 0dbd
000001c0: 2c2c 60bd e074 81bb e83f 873d 1890 13be
000001d0: bbd4 82bd 009d 233d 1efe 133d 9150 98bd
000001e0: 3f48 c4bc 99a8 683d 5d50 b7bc 102c 753c
000001f0: 46af 993d f849 48bd 7d77 2d3d f0a2 c43c

a2c_network.value.weight f4 [1, 128]
0.0077076196 -0.0320019 0.014909438 -0.040916923 0.029757103 0.044810906 -0.047862794 0.017897822
-0.054575734 -0.012135398 0.007970743 0.052455626 0.02531957 -0.019570746 0.0012123792 0.08852702
-0.026209032 0.048068017 0.09916082 -4.3898905e-05 0.0082017835 -0.098314025 -0.085138395 0.02869779
-0.0027337116 -0.05376304 0.015484126 -0.027376633 0.064676136 -0.038509298 -0.01821751 -0.10910696
-0.00028185273 0.03641603 -0.07081348 -0.012747267 0.013476757 -0.016189506 0.018560011 0.111149766
-0.01209104 0.07549665 -0.036325797 -0.017833363 0.01240862 -0.020590665 0.094518535 -0.0545807
0.013507306 -0.047844112 -0.02262449 0.023890302 -0.0023826112 0.031855464 -0.024582453 -0.00077246496
-0.08447163 -0.011568156 0.037041854 0.09004455 -0.078629464 -0.03526882 0.019030795 -0.038115032
0.07448293 0.043932956 0.005353185 -0.087137744 0.017260142 0.027871912 -0.052790537 0.02855745
-0.00045872733 0.0648247 0.0033354037 -0.047609214 -0.07118474 0.032089368 -0.0016645049 0.02392426
-0.08345708 -0.09024408 -0.033954732 -0.013179943 -0.09485244 -0.053654708 0.0006138854 0.047109127
0.050106768 0.042174235 0.0036079572 0.028588645 -0.18718141 0.005222669 0.035104983 0.018676793
-0.02591371 -0.06837395 -0.016836295 -0.0751677 -0.07655054 -0.03245611 0.14235193 0.006988989
0.01751909 -0.05925359 -0.15500033 0.038784668 -0.0031167523 -0.0190624 0.03908493 0.042252395
-0.03153647 0.05014695 -0.016546298 0.055040937 0.03427298 -0.046428118 -0.042030886 0.032190435
-0.0020407743 -0.044585597 0.05105868 0.116593264 0.020562043 -0.029995257 -0.07752149 0.049524326
00000000: 3390 fc3b 6d14 03bd b746 743c 8198 27bd
00000010: 2bc5 f33c a48b 373d c70b 44bd 749e 923c
00000020: ce8a 5fbd 8cd3 46bc b897 023c b6db 563d
00000030: fd6a cf3c d452 a0bc b2e8 9e3a a74d b53d
00000040: 53b4 d6bc f8e2 443d d414 cb3d 1720 38b8
00000050: c660 063c dd58 c9bd 0a5d aebd a117 eb3c
00000060: 1228 33bb a236 5cbd 22b1 7d3c f644 e0bc
00000070: ec74 843d edbb 1dbd e33c 95bc 7873 dfbd
00000080: a2c5 93b9 fa28 153d a806 91bd ead9 50bc
00000090: 9ecd 5c3c db9f 84bc 2a0b 983c 7da2 e33d
000000a0: 7f19 46bc fd9d 9a3d 5cca 14bd 4617 92bc
000000b0: 864d 4b3c c1ad a8bc ef92 c13d 0390 5fbd
000000c0: bf4d 5d3c 30f8 43bd ff56 b9bc 98b5 c33c
000000d0: 9525 1cbb e07a 023d 2461 c9bc 3f7f 4aba
000000e0: 76ff acbd 5d88 3dbc 33b9 173d 4769 b83d
000000f0: 7c08 a1bd 0a76 10bd 78e6 9b3c 821e 1cbd
00000100: 828a 983d 0bf3 333d c569 af3b 4675 b2bd
00000110: 2465 8d3c a353 e43c e43a 58bd 50f1 e93c
00000120: 5781 f0b9 d0c2 843d ca96 5a3b e101 43bd
00000130: 4ec9 91bd 2470 033d 842b daba cffc c33c
00000140: 8ceb aabd e3d1 b8bd 1e14 0bbd b0f0 57bc
00000150: ff41 c2bd 0ac5 5bbd 27ed 203a 80f5 403d
00000160: c13c 4d3d e4be 2c3d 7a73 6c3b bc32 ea3c
00000170: 7cac 3fbe ec22 ab3b 3eca 0f3d 1300 993c
00000180: fd48 d4bc a407 8cbd 45ec 89bc 86f1 99bd
00000190: 88c6 9cbd b3f0 04bd b4c4 113e e403 e53b
000001a0: 3284 8f3c e4b3 72bd 68b8 1ebe acdc 1e3d
000001b0: 6d42 4cbb c028 9cbc 8517 203d d910 2d3d
000001c0: 632c 01bd e366 4d3d 1a8c 87bc 9b72 613d
000001d0: d361 0c3d 692b 3ebd 9428 2cbd 1eda 033d
000001e0: 83be 05bb 639f 36bd e822 513d 73c8 ee3d
000001f0: bb71 a83c 9db8 f5bc 96c3 9ebd 05da 4a3d

a2c_network.mu.weight f4 [18, 128]
-0.0053837616 0.0149936145 -0.025430547 0.15636079 0.10301447 0.03572161 -0.044197235 0.011972508
-0.073465765 -0.16518393 0.021812974 -0.122637175 -0.04298414 -0.08024736 0.15432334 0.030158836
0.0093857385 0.08027621 -0.015699215 -0.119712494 -0.0997301 -0.023258755 -0.01945593 0.04205078
-0.06606923 0.04878857 -0.009707637 -0.0740459 0.103681795 0.022680162 0.08715596 -0.07870511
-0.040154804 -0.096471794 -0.100715585 0.021117475 0.061278667 -0.11933521 0.028701335 -0.10180336
0.06574127 0.10541352 -0.04716304 -0.14363462 0.011747711 -0.18310632 0.05029975 -0.005845054
0.035707865 -0.005422957 0.15802823 -0.018013977 -0.08211214 -0.044905286 -0.10054263 -0.022805503
0.103150375 0.0804113 0.10229784 0.043295026 -0.044001427 0.012908566 0.08104921 -0.0037948932
0.089033514 -0.04430163 0.21769252 0.020384496 -0.08756913 -0.0008274838 0.06783364 0.018795675
-0.020363554 0.11201745 0.15615511 0.056250777 -0.09378588 -0.07683521 0.045311682 0.042880237
-0.011910594 0.03625733 0.026836805 -0.111149155 0.033176724 0.061238043 0.038608674 0.056880817
-0.007376934 -0.07513313 -0.07100257 0.03556709 -0.015035474 0.04427081 0.041197862 0.0099652605
0.094846494 -0.034037095 -0.064152606 0.09240698 0.0009815558 0.06672564 0.03206033 0.08955963
0.10202899 0.03911033 -0.041780513 -0.057661563 -0.087863885 0.037932254 -0.062380802 -0.12642832
0.15817744 -0.08234361 -0.028842349 0.036261037 -0.024110934 -0.08709477 -0.19987777 0.13348505
0.04420368 -0.12542173 0.07903422 -0.054083824 -0.10563882 0.09394623 -0.005290073 -0.0961984
-0.0018689948 -0.09762357 -0.019221898 0.1956495 0.15092635 -0.012193914 0.08000903 -0.08611819
0.11457773 -0.15637244 0.016096808 -0.11813646 -0.013357802 -0.086433284 -0.019820085 -0.023101049
-0.0039315536 0.019405518 -0.0065817875 -0.049170073 0.08581671 -0.022514857 0.022527311 0.14619248
-0.13328563 -0.012405424 0.017550612 -0.06657187 -0.092245944 -0.06550592 -0.016817786 -0.07177029
-0.07845489 -0.058675945 -0.0678753 0.010250793 0.17820388 -0.109144665 0.121275626 -0.110490814
0.08911358 0.022620609 0.075801544 0.11046968 -0.005529601 0.0065900637 0.025124084 -0.06516649
0.02911634 -0.06361592 -0.03990393 0.001931272 0.042060398 -0.0057833367 -0.17185031 -0.030633776
0.022370204 0.09185974 0.17516924 0.03303289 -0.021299656 0.0057666856 0.015346198 -0.052736793
0.107881755 0.04914665 0.005258475 0.0864232 0.021573704 0.11263597 0.02114799 -0.05255638
0.021012 -0.029663766 -0.039282523 0.048406757 -0.08636147 0.0585183 0.08827431 -0.02775019
0.035794634 0.18044879 -0.03311008 0.046233214 0.037975464 -0.11553221 -0.09389253 -0.07992471
0.11275272 -0.01623483 0.019854244 -0.057076167 -0.010824741 -0.1048018 0.09769349 -0.08126937
0.14922543 -0.009083061 0.03463499 -0.03394998 0.042136304 -0.01822391 0.15329567 0.03288834
0.14678109 0.0041345824 0.06502613 0.09931128 -0.1342432 0.030712336 0.055377755 -0.03124991
0.025086861 0.0147114005 -0.007688427 0.08220683 -0.039057977 -0.008840778 -0.08802321 0.0684463
0.14316319 -0.07878752 0.057517547 -0.113912866 0.021257112 0.04036736 0.06527756 -0.004687292
00000000: 446a b0bb c7a7 753c b953 d0bc 0b1d 203e
00000010: 40f9 d23d d350 123d 2908 35bd 5728 443c
00000020: 3875 96bd fa25 29be 1fb1 b23c 3329 fbbd
00000030: 2310 30bd ba58 a4bd f006 1e3e aa0f f73c
00000040: a4c6 193c db67 a43d a49b 80bc d32b f5bd
00000050: 4b3f ccbd 2589 bebc 0b62 9fbc 703d 2c3d
00000060: 4e4f 87bd 86d6 473d c80c 1fbc 60a5 97bd
00000070: 1f57 d43d bfcb b93c d37e b23d 2530 a1bd
00000080: 5d79 24bd 0193 c5bd f943 cebd 8efe ac3c
00000090: 57ff 7a3d 0566 f4bd 101f eb3c 487e d0bd
000000a0: 5ca3 863d 0be3 d73d 082e 41bd f414 13be
000000b0: 7979 403c 3980 3bbe 1c07 4e3d de87 bfbb
000000c0: 6942 123d 0fb3 b1bb 27d2 213e 0c92 93bc
000000d0: 692a a8bd 9bee 37bd 4be9 cdbd 9bd2 babc
000000e0: 8140 d33d aeae a43d 8881 d13d 2056 313d
000000f0: d73a 34bd 737e 533c 21fd a53d beb3 78bb
00000100: 3457 b63d a075 35bd caea 5e3e 63fd a63c
00000110: 7257 b3bd 7feb 58ba 5dec 8a3d 63f9 993c
00000120: 78d1 a6bc 6869 e53d 20e7 1f3e 3767 663d
00000130: d012 c0bd c75b 9dbd be98 393d 30a3 2f3d
00000140: a724 43bc 9182 143d dcd8 db3c 2ba2 e3bd
00000150: 51e4 073d bed4 7a3d 2124 1e3d dcfb 683d
00000160: 35ba f1bb 66df 99bd cc69 91bd ccae 113d
00000170: 5957 76bc 4f55 353d 17bf 283d 5545 233c
00000180: e13e c23d 7b6a 0bbd 7162 83bd df3f bd3d
00000190: 8ca7 803a 74a7 883d b151 033d 0a6b b73d
000001a0: 93f4 d03d 2732 203d 0b22 2bbd 882e 6cbd
000001b0: fbf1 b3bd da5e 1b3d 0383 7fbd 6d76 01be
000001c0: 44f9 213e c4a3 a8bd ca46 ecbc 7486 143d
000001d0: 4b84 c5bc be5e b2bd c2ac 4cbe 4eb0 083e
000001e0: eb0e 353d 8e6e 00be b1dc a13d 0087 5dbd
000001f0: 2a59 d8bd e266 c03d 5958 adbb ab03 c5bd
00000200: 0ff9 f4ba deee c7bd 3e77 9dbc 5858 483e
00000210: 708c 1a3e fbc8 47bc c6db a33d bc5e b0bd
00000220: bba7 ea3d 1920 20be 74dd 833c 87f1 f1bd
00000230: afda 5abc ef03 b1bd bb5d a2bc 693e bdbc
00000240: 43d4 80bb 52f8 9e3c 09ac d7bb 8f66 49bd
00000250: acc0 af3d 1471 b8bc 328b b83c 7bb3 153e
00000260: 077c 08be 1f40 4bbc 4dc6 8f3c d556 88bd
00000270: 71eb bcbd f827 86bd 74c5 89bc 4dfc 92bd
00000280: f5ac a0bd 3056 70bd 3502 8bbd f1f2 273c
00000290: 147b 363e 3d87 dfbd 5b5f f83d 0249 e2bd
000002a0: 2e81 b63d db4e b93c d73d 9b3d ed3d e23d
000002b0: a831 b5bb 76f1 d73b 06d1 cd3c 0276 85bd
000002c0: 6485 ee3c 1049 82bd 4e72 23bd bc22 fd3a
000002d0: 8647 2c3d 2582 bdbb 87f9 2fbe aff3 fabc
000002e0: b841 b73c f620 bc3d 915f 333e 7f4d 073d
000002f0: 9e7c aebc 77f6 bc3b 9f6e 7b3c 8902 58bd
00000300: 1cf1 dc3d ff4d 493d 494f ac3b a6fe b03d
00000310: 56bb b03c b0ad e63d 8d3e ad3c 5c45 57bd
00000320: 5c21 ac3c 6d01 f3bc b6e6 20bd 2a46 463d
00000330: 48de b0bd e3b0 6f3d 29c9 b43d 5e54 e3bc
00000340: 659d 123d 91c7 383e 6f9e 07bd 0a5f 3d3d
00000350: 298c 1b3d 279c ecbd ba4a c0bd 91af a3bd
00000360: e6ea e63d e8fe 84bc 5ea5 a23c b3c8 69bd
00000370: 415a 31bc 53a2 d6bd 8613 c83d 8e70 a6bd
00000380: 8dce 183e 1ed1 14bc 6bdd 0d3d 220f 0bbd
00000390: 1e97 2c3d 4f4a 95bc 8af9 1c3e edb5 063d
000003a0: c84d 163e 647b 873b 6b2c 853d b663 cb3d
000003b0: 0d77 09be 7098 fb3c c9d3 623d d0ff ffbc
000003c0: f682 cd3c 1608 713c 33ef fbbb 0e5c a83d
000003d0: 42fb 1fbd e9d8 10bc 8345 b4bd 932d 8c3d
000003e0: 5f99 123e 5a5b a1bd 8597 6b3d 264b e9bd
000003f0: 6523 ae3c 3f58 253d 3eb0 853d db97 99bb

a2c_network.mu.bias f4 [18]
-0.038180184 -0.046756003 0.003342436 0.060894113 0.0006448764 0.022118853 0.090302035 0.08940594
0.048674207 0.035386644 0.088010706 0.06665435 -0.1239883 -0.06722631 -0.10028185 -0.11705548
-0.15260598 -0.098231316
00000000: d362 1cbd 3983 3fbd c50c 5b3b 1b6c 793d
00000010: ec0c 293a 9932 b53c 46f0 b83d 761a b73d
00000020: 9b5e 473d 96f1 103d f53e b43d 1382 883d
00000030: 94ed fdbd f3ad 89bd 9260 cdbd c9ba efbd
00000040: be44 1cbe 802d c9bd

exp_avg f4 [18]
-0.00024347904 0.000500614 -0.0015079873 0.00029823152 0.0022885848 0.00033892159 0.00016663547 -0.00035121027
-0.0015735126 -0.00046242785 -0.001661047 -0.0015408002 -3.3331708e-05 0.0017813619 -0.0010810273 -0.0007537427
-0.0010458677 -0.001449099
00000000: 684e 7fb9 a33b 033a a8a7 c5ba f55b 9c39
00000010: 15fc 153b 49b1 b139 deba 2e39 a522 b8b9
00000020: 523e ceba 0472 f2b9 7db7 d9ba adf4 c9ba
00000030: a6cd 0bb8 967c e93a 42b1 8dba d196 45ba
00000040: 7f15 89ba b2ef bdba

exp_avg_sq f4 [18]
6.034235e-06 7.24997e-06 6.008824e-06 7.407671e-06 6.1834508e-06 6.8780587e-06 6.25672e-06 6.998489e-06
5.9610215e-06 6.7951078e-06 6.5049194e-06 6.2111526e-06 7.089117e-06 6.3636526e-06 5.746085e-06 7.1172763e-06
5.7915113e-06 5.5748956e-06
00000000: af79 ca36 c544 f336 689f c936 698f f836
00000010: 707b cf36 13ca e636 d1f0 d136 90d4 ea36
00000020: c904 c836 8801 e436 d544 da36 6569 d036
00000030: 0ddf ed36 5c87 d536 7fce c036 f0d0 ee36
00000040: b454 c236 fd0f bb36

exp_avg f4 [128, 66]
-1.0316297e-06 5.311261e-07 6.593404e-05 7.249688e-05 -1.6433787e-06 -2.2018077e-05 -5.9273873e-07 -1.1129108e-06
0.00016386191 -4.9700724e-05 -0.00016731088 -0.00046677986 7.656096e-05 3.8487746e-05 2.7351145e-05 -2.1502416e-05
5.218776e-05 7.011386e-05 3.1158368e-05 3.8890215e-05 2.6680855e-05 4.389529e-05 4.352018e-05 2.557382e-05
2.4861874e-05 9.519262e-06 2.285079e-05 2.2700697e-05 1.8615025e-05 1.30577755e-05 0.00019828734 -9.6721065e-05
-7.506968e-05 6.636306e-05 0.000110481466 -6.3462385e-06 0.00027580114 0.0017284582 0.0010158906 -0.00028170078
0.0018901856 0.0015188784 7.574333e-05 -0.0003698602 -0.00016009205 -7.4565425e-05 -0.00015808249 -0.0002957949
0.0001668148 6.561986e-05 3.5716424e-05 -3.7614704e-05 9.1151356e-05 0.00014113593 1.8263121e-05 0.00016229115
0.00013610515 -2.0413888e-06 0.00038226627 0.00026474698 5.2780633e-05 -7.9122465e-06 3.7398688e-05 4.173106e-05
2.4463112e-05 3.1478394e-06 -7.3906085e-06 -3.0695923e-05 -0.00057014095 6.924486e-05 -3.8757833e-05 -0.00048169415
-1.023507e-06 -5.529981e-06 -0.00055077154 -0.00018735384 0.00027681087 -0.000539573 0.0003133621 0.00012677502
-0.00019341156 0.00030995221 0.00030674963 0.00038793444 0.00011251807 9.810633e-05 0.00019212441 -6.8219438e-06
0.00022658089 0.00018925795 -0.00029692912 -0.0002868652 -0.00028315332 -0.00029379135 -0.00030621453 -0.00030135713
0.0028012993 0.0025889745 0.004896809 -0.00046230142 -0.0011244566 0.0012971828 -0.0055348277 -0.005868435
-0.0055571226 -0.007123458 -0.0038267556 -0.0049669137 0.00093819 -0.0013754974 0.00018076216 0.00060199754
-0.00028399218 9.026648e-05 0.00080415385 0.00045706145 0.00026733876 0.0005886836 0.00051259325 0.00085476396
-0.00035266406 -0.00042318818 -0.00033613143 -0.0006262984 -2.5790521e-05 -0.00020984592 -0.00053508603 -0.0006735304
-0.00056194153 -0.0005427558 -0.00063047284 -0.00060561625 1.1043784e-06 -9.214495e-06 0.00021935072 -2.2119252e-06
4.2673117e-05 -9.597636e-06 4.5971802e-07 -4.8730664e-07 0.00042005096 3.8106165e-05 1.9236024e-05 -0.0001586267
8.385327e-05 8.1893544e-05 0.00012842497 -0.00013921164 -9.0046924e-05 -0.00010237498 -0.000112370166 -9.7714365e-05
-0.00010323224 -5.189473e-05 -0.00013795414 -0.0001116781 0.0001351344 8.687759e-05 0.00012877355 0.00013343946
0.000134073 0.0001479086 0.00092367106 0.00067371485 1.0354864e-06 -0.0006424005 4.4437824e-05 -0.0005704234
0.0011821558 0.001838297 0.0011391351 0.0022300987 -0.00010707043 0.00038904542 0.00037066036 0.0013703803
0.0014878644 0.0006555501 0.00079789304 0.00046411125 0.00022487939 0.00019757648 0.00018605383 -0.00031763158
-0.00015066382 -0.00024068217 -1.2837347e-05 6.052616e-06 -5.2091164e-06 0.00014375681 -0.00020591173 -0.00012791147
0.00029306998 0.0002846308 0.0003687531 0.00031124882 0.00032054595 0.0003233636 -3.986391e-06 -1.1147915e-05
-0.0002740709 8.1086786e-05 -2.6985574e-06 -0.0003103967 -1.4666092e-06 -3.4768414e-06 -0.00017189689 -6.629436e-05
0.00043914202 -0.00046585896 0.00023373404 0.00011682781 -6.36976e-05 0.00014264282 0.00015232476 0.00015793556
1.4755914e-05 4.9809387e-05 4.605197e-05 -6.129545e-06 9.8751065e-05 9.608471e-05 -0.00012957846 -0.00016412893
-0.00014864853 -0.00014317507 -0.0001477299 -0.00015265093 0.0015541341 0.0012405787 0.0022347015 0.0002954923
0.00055165915 0.00061818986 -0.0021729858 -0.0008537254 -0.0018079617 -0.0025590742 -0.0010142515 -0.0013102602
-0.00036779785 -0.000950159 0.00017904087 -0.00044492414 -0.00077121134 -0.0012416223 0.0005655437 0.00033501818
0.00017971027 0.00030627113 0.00032390672 0.00035389146 -0.00015631958 -2.1586344e-05 -0.00011725854 -0.00025401966
00000000: 8776 8ab5 b592 0e35 1146 8a38 7709 9838
00000010: 1092 dcb5 76b3 b8b7 b21c 1fb5 535f 95b5
00000020: 59d2 2b39 bf75 50b8 2c70 2fb9 22ba f4b9
00000030: 5a8f a038 e76d 2138 2370 e537 1660 b4b7
00000040: 2ee4 5a38 180a 9338 0bb0 0238 0d1e 2338
00000050: b3d0 df37 351c 3838 7089 3638 5c87 d637
00000060: 788e d037 ebb4 1f37 b3af bf37 606d be37
00000070: 7627 9c37 b812 5b37 5aeb 4f39 bad6 cab8
00000080: ba6e 9db8 662c 8b38 49b2 e738 c6f1 d4b6
00000090: 6799 9039 6f8d e23a a227 853a 3db1 93b9
000000a0: 1bc0 f73a 1a15 c73a 64d8 9e38 cce9 c1b9
000000b0: 62de 27b9 0260 9cb8 f2c2 25b9 eb14 9bb9
000000c0: 02eb 2e39 659d 8938 38ce 1538 7bc4 1db8
000000d0: 8328 bf38 e3fd 1339 c133 9937 b32c 2a39
000000e0: 73b7 0e39 cbfe 08b6 e96a c839 bdcd 8a39
000000f0: c660 5d38 d7be 04b7 89dc 1c38 6208 2f38
00000100: 2236 cd37 783f 5336 d8fc f7b6 7fbf 00b8
00000110: 8375 15ba 8d37 9138 e88f 22b8 e58b fcb9
00000120: 6f5f 89b5 2d8e b9b6 a761 10ba 6a74 44b9
00000130: ed20 9139 2272 0dba c04a a439 e9ee 0439
00000140: 85ce 4ab9 1581 a239 3dd3 a039 ae63 cb39
00000150: aef7 eb38 6fbe cd38 0175 4939 0de8 e4b6
00000160: 5896 6d39 8b73 4639 27ad 9bb9 6566 96b9
00000170: 3274 94b9 0208 9ab9 6b8b a0b9 78ff 9db9
00000180: 0196 373b c9ab 293b 6975 a03b 0c61 f2b9
00000190: 8162 93ba 3b06 aa3a 805d b5bb 004c c0bb
000001a0: 8618 b6bb e66b e9bb 4eca 7abb 7ec1 a2bb
000001b0: ddf0 753a 094a b4ba f98a 3d39 5fcf 1d3a
000001c0: c9e4 94b9 734d bd38 dacd 523a c0a1 ef39
000001d0: 9a29 8c39 e351 1a3a 8d5f 063a 3d12 603a
000001e0: c5e5 b8b9 5bdf ddb9 cc3a b0b9 2d2e 24ba
000001f0: b958 d8b7 160a 5cb9 0445 0cba dc8f 30ba
00000200: 424f 13ba ba47 0eba 5146 25ba 38c2 1eba
00000210: 273a 9435 f497 1ab7 8301 6639 9670 14b6
00000220: e9fb 3238 8805 21b7 2acf f634 75cf 02b5
00000230: 493a dc39 2fd4 1f38 0c5d a137 0855 26b9
00000240: 62da af38 43be ab38 d1a9 0639 57f9 11b9
00000250: 93d7 bcb8 26b2 d6b8 46a8 ebb8 00ec ccb8
00000260: 637e d8b8 8ba9 59b8 c8a7 10b9 b934 eab8
00000270: ddb2 0d39 0d32 b638 6307 0739 e2eb 0b39
00000280: f295 0c39 ea17 1b39 8422 723a 3d9c 303a
00000290: 0bfb 8a35 c566 28ba c062 3a38 7788 15ba
000002a0: 91f2 9a3a 03f3 f03a 084f 953a d926 123b
000002b0: 008b e0b8 cbf8 cb39 3155 c239 559e b33a
000002c0: 7204 c33a 39d9 2b3a b229 513a f553 f339
000002d0: 9acd 6b39 882c 4f39 7217 4339 ca87 a6b9
000002e0: 83fb 1db9 a15f 7cb9 fc5f 57b7 9317 cb36
000002f0: f8c9 aeb6 6dbd 1639 02ea 57b9 f91f 06b9
00000300: 30a7 9939 803a 9539 3455 c139 1c2f a339
00000310: f30e a839 2189 a939 d7c2 85b6 ee07 3bb7
00000320: 2cb1 8fb9 230d aa38 dd18 35b6 bdbc a2b9
00000330: 4fd8 c4b5 ae53 69b6 383f 34b9 8307 8bb8
00000340: a53c e639 883e f4b9 8116 7539 7401 f538
00000350: 6395 85b8 6492 1539 5eb9 1f39 819b 2539
00000360: 2b90 7737 6cea 5038 ed27 4138 64ac cdb6
00000370: 9318 cf38 1681 c938 74df 07b9 061a 2cb9
00000380: 89de 1bb9 4421 16b9 f1e7 1ab9 ec10 20b9
00000390: 16b4 cb3a ea9a a23a 1274 123b 4eec 9a39
000003a0: 389d 103a 050e 223a a768 0ebb 8bcc 5fba
000003b0: 21f9 ecba 24b6 27bb a2f0 84ba 09bd abba
000003c0: fed4 c0b9 1714 79ba ebbc 3b39 b544 e9b9
000003d0: 1e2b 4aba eebd a2ba ff40 143a 61a5 af39
000003e0: 9c70 3c39 0493 a039 06d2 a939 828a b939
000003f0: b8e9 23b9 5214 b5b7 b3e8 f5b8 f12d 85b9
