logs/rl_games/hexapod_flat_direct/2025-11-14_22-48-05/nn/last_hexapod_flat_direct_ep_600_rew_-0.15845196.pth (torch, 546049 bytes, 33 tensors)

value_mean_std.running_mean f8 [1]
0	0xbfc22f7201cce0fa	-0.14207291686921747

value_mean_std.running_var f8 [1]
0	0x3fa221c18e49f43c	0.03541378843235818

value_mean_std.count f8 []
0	0x419c200004000000	117964801.0

a2c_network.sigma f4 [18]
0	0xbf6abf02	-0.91697705
1	0xbf80e219	-1.0069
2	0xbf43f242	-0.7654153
3	0xbf300332	-0.68754876
4	0xbfbd8f39	-1.4809333
5	0xbfc0006b	-1.5000128
6	0xbe03b8c5	-0.12863453
7	0xbdcbb24c	-0.09946117
8	0xbe0d8603	-0.13820653
9	0xbfc6e2c7	-1.5537957
10	0xbd993b83	-0.07482054
11	0xbe63c5b5	-0.22243388
12	0x3c857322	0.016290251
13	0xbe462a1c	-0.19352001
14	0x3d0bdd3f	0.034146544
15	0xbe30895c	-0.17239898
16	0x3df1beef	0.11803996
17	0x3abd49f6	0.0014441598

a2c_network.actor_mlp.0.weight f4 [128, 66]
0	0x3ea3ab16	0.31966466
1	0xbd97b18b	-0.074069105
2	0xbe389259	-0.18024577
3	0xbe878f12	-0.2647634
4	0x3d7ada70	0.061243474
5	0x3d95b1cf	0.07309305
6	0x3e1d18d3	0.15341501
7	0x3c4670da	0.012111867
8	0xbe33fb47	-0.17576323
9	0xbe350976	-0.1767939
10	0xbe48169b	-0.19539873
11	0x3e8eb404	0.27871716
12	0xbdb073f6	-0.08615868
13	0x3e996581	0.29960254
14	0x3dbbdd9f	0.0917313
15	0xbeb41ef9	-0.3517988
16	0x3e891c40	0.26779366
17	0x3dd64c46	0.10463767
18	0x3d9c61dd	0.076358534
19	0xbd63dd89	-0.055631194
20	0x3cdba677	0.026812775
21	0xbdc36766	-0.09541206
22	0xbdc94c80	-0.09829044
23	0x3c208506	0.00979734
24	0x3d4c9892	0.04995019
25	0xbde03a75	-0.1094865
26	0x3db6e3ba	0.08930154
27	0x3da5f809	0.081039496
28	0xbda15199	-0.07876892
29	0xbde06a2a	-0.10957749
30	0x3c6aceb6	0.01433151
31	0xbdca0e48	-0.09866005
32	0x3c80d959	0.01572864
33	0xbe839529	-0.25699738
34	0xbc0a41f6	-0.008438578
35	0x3d2972f7	0.041369405
36	0x3c136daa	0.008998314
37	0xbd662a3a	-0.056192614
38	0xbd29a2b4	-0.04141493
39	0xbdb35b96	-0.08757703
40	0xbdd1e4ac	-0.10248694
41	0xbd57c901	-0.052681927
42	0xbdc692c2	-0.096959606
43	0xba482200	-0.0007634461
44	0x3d58e3e0	0.052951694
45	0xbb80e2ac	-0.0039332714
46	0xbb90d73a	-0.0044201883
47	0xbdcff2fb	-0.10153767
48	0xbe3fcc46	-0.18730268
49	0x3d042e77	0.032270875
50	0x3de61e00	0.11236191
51	0xbe514605	-0.20436867
52	0x3d87d598	0.06632537
53	0xbd3ed5e2	-0.046590693
54	0x3d068876	0.032844983
55	0xbd3edb59	-0.046595905
56	0x3bb4dc28	0.0055194087
57	0xbd44837b	-0.047976952
58	0xbd560e36	-0.052259646
59	0xbd194d4a	-0.037427224
60	0xbd54a8e9	-0.051918898
61	0xbdf2e91b	-0.118608676
62	0x3d8b3bc9	0.067985125
63	0xbdb3c9fd	-0.087787606
64	0x3df05a5b	0.11735984
65	0x3c2fa807	0.010721213
66	0x3e0d693f	0.1380968
67	0x3d87d6ea	0.066327885
68	0xbe723b39	-0.23655404
69	0xbdd7ed00	-0.10543251
70	0xbe3c8584	-0.18410307
71	0xbdaa8e9b	-0.08327981
72	0x3db15535	0.0865883
73	0x3e141c37	0.14463888
74	0x3c5da91e	0.01352909
75	0xbda40b03	-0.08009913
76	0x3e403ac4	0.18772417
77	0xbeaf3eef	-0.34227702
78	0x3da6b9c6	0.08140902
79	0x3d395cfc	0.045254692
80	0x3bdbec3e	0.006711512
81	0x3e79f118	0.24408376
82	0x3e15564d	0.14583702
83	0x3e228c87	0.1587392
84	0x3d2b8353	0.041873287
85	0xbde37bac	-0.11107573
86	0xbc972b3a	-0.01845323
87	0xbd88b6a3	-0.0667546
88	0x3ce7c40a	0.02829172
89	0xbe17c3c4	-0.14820772
90	0x3dd3cb41	0.10341502
91	0x3dfbcfa6	0.12295465
92	0x3d7e9c6b	0.06216089
93	0xbd6a78d8	-0.05724415
94	0x3e02700f	0.1273806
95	0x3d275368	0.040851027
96	0xbc01491a	-0.007890964
97	0xbda21391	-0.07913888
98	0x3d46fdae	0.04858177
99	0xbdb4ff7b	-0.088377915
100	0xbd1d85e0	-0.03845775
101	0x3d9b2399	0.07575149
102	0x3d4c1075	0.049820382
103	0xbd24da5a	-0.0402473
104	0xbc9fe9e9	-0.019520717
105	0xbc403fd2	-0.011733966
106	0x3d74685a	0.05966983
107	0xbcf3c69d	-0.029757792
108	0xbd3ed779	-0.04659221
109	0xbc284ec4	-0.010272685
110	0xbd7a8763	-0.06116427
111	0x3cbfc094	0.023407258
112	0x3d63915e	0.055558555
113	0xbdb4932b	-0.088171326
114	0x3dbfaecd	0.093595125
115	0x3dcf2738	0.10114902
116	0xbcd184ce	-0.025576022
117	0x3ca04680	0.019564867
118	0x3dbb9706	0.09159665
119	0x3e1b79ef	0.15183233
120	0x3d81237b	0.063055955
121	0xbd7dec37	-0.06199285
122	0x3ddeca91	0.1087848
123	0x3e031276	0.12800011
124	0xbe01dd6d	-0.12682123
125	0xbd4d934e	-0.05018931
126	0x3d82c05e	0.063843474
127	0x3e472146	0.19446287
128	0xbd8937f3	-0.067001246
129	0xbdc2c17e	-0.09509562
130	0xbcce6b7e	-0.02519774
131	0xbd42931c	-0.047503576
132	0xbc19dc3c	-0.009390887
133	0x3df4eeab	0.11959585
134	0xbe6e840f	-0.23292564
135	0xbda17b6a	-0.078848675
136	0x3daad6f3	0.083417796
137	0x3c25c4eb	0.01011775
138	0xbce47ede	-0.027892526
139	0xbd70ba0c	-0.058771178
140	0xbe2f2644	-0.17104441
141	0xbe4d8371	-0.20069672
142	0xbba9f5ec	-0.005186787
143	0x3eddd8bb	0.43329415
144	0xbd5ecf0a	-0.054396667
145	0x3d739b56	0.05947431
146	0xbdfc6359	-0.123236366
147	0xbcb589ec	-0.022160493
148	0xbda4d3eb	-0.08048233
149	0xbaeac204	-0.0017910604
150	0x3b0ecdbb	0.0021790105
151	0xbe08958f	-0.13338302
152	0xbc0e5c1e	-0.008688955
153	0xbe74d148	-0.2390796
154	0xbdf0ba2e	-0.11754261
155	0x3b86c23e	0.004112511
156	0x3c248f02	0.010043861
157	0xbdf73a24	-0.12071636
158	0xbc52ee9b	-0.012874271
159	0x3defaa1c	0.11702368
160	0x3e3797ed	0.17929049
161	0x3da2d75f	0.07951235
162	0xbdc9c42b	-0.09851869
163	0xbdafda5a	-0.08586569
164	0xbda2bfc5	-0.079467334
165	0x3db1dc4c	0.086845964
166	0x3cb78d50	0.02240625
167	0x3deeb279	0.11655135
168	0x3d2e5cd4	0.042568997
169	0x3d128a70	0.035776556
170	0xbb58721a	-0.0033026994
171	0xbd8f7b5d	-0.070059516
172	0xbdfd2d3f	-0.12362146
173	0xbe0c5336	-0.13703617
174	0x3d6ae18b	0.057344
175	0xbd9ba705	-0.07600216
176	0xbc8428ca	-0.016132731
177	0xbd4add7f	-0.04952764
178	0x3b87fca0	0.0041499883
179	0xbda200b0	-0.079102874
180	0xbe40d929	-0.1883284
181	0x3d867f75	0.06567279
182	0xbd9d0261	-0.07666469
183	0x3dcc38e6	0.0997179
184	0xbdc67817	-0.09690874
185	0xbdd7e4fe	-0.10541724
186	0x3ae3ca6a	0.001737905
187	0xbdee6d85	-0.11641983
188	0xbd452b42	-0.048136957
189	0xbe67c74b	-0.22634618
190	0x3dd188cd	0.10231171
191	0xbe19fe61	-0.15038444
192	0x3c2ba2c2	0.010475816
193	0xbd56692b	-0.05234639
194	0x3deeedf5	0.116664805
195	0xbd87bf8a	-0.0662833
196	0x3da312cc	0.079625696
197	0xbd2338fc	-0.039849266
198	0x3de343af	0.11096894
199	0x3e9977b4	0.2997414
200	0xbe5c05f1	-0.21486641
201	0xbd3186e0	-0.043341517
202	0x3d6ccf45	0.057814855
203	0xbe43316a	-0.19061819
204	0x3eda7210	0.42665148
205	0xbc7be63d	-0.015374717
206	0x3e0237ff	0.12716673
207	0x3d3ab4c1	0.045582537
208	0x3dd5c905	0.10438732
209	0xbd47d659	-0.048788402
210	0x3c6825be	0.014169155
211	0x3d149456	0.036274277
212	0x3da03c16	0.078239605
213	0xbdac22e3	-0.084050916
214	0xbd0cfdcd	-0.03442173
215	0x3bb7b387	0.005606118
216	0x3da5a870	0.080887675
217	0x3d74ac4b	0.059734624
218	0x3d7e9f9e	0.06216394
219	0x3d91a54b	0.07111605
220	0x3da9d261	0.0829208
221	0x3e3cca37	0.18436514
222	0xbc36667f	-0.011132835
223	0xbe0bf9fb	-0.13669579
224	0xbe51594a	-0.20444217
225	0xbe0adce2	-0.13560823
226	0xbe52dece	-0.20592806
227	0xbe8c880b	-0.27447543
228	0xbb279a35	-0.0025574092
229	0xbd55b2a8	-0.052172333
230	0xbd44d414	-0.048053816
231	0xbdbd70d4	-0.09250036
232	0xbcf45820	-0.029827178
233	0x3b5d0679	0.0033725782
234	0x3ba07127	0.0048963013
235	0xbd1dbcdd	-0.038510192
236	0xbd5ffd72	-0.054685064
237	0xbcedf8c7	-0.02904929
238	0xbdb17f3f	-0.086668484
239	0x3de1d6ef	0.110273235
240	0xbcacea0f	-0.021107702
241	0x3d0fcc6a	0.035107054
242	0xbcea1367	-0.028573705
243	0xbc9141fd	-0.017731661
244	0x3d80eda0	0.06295323
245	0x3d04461d	0.032293428
246	0xbdc50350	-0.096197724
247	0x3d82974f	0.06376516
248	0x3e21bf8e	0.15795729
249	0x3d5fe642	0.05466295
250	0x3dcf6470	0.10126579
251	0x3e375c9e	0.17906424
252	0xbc17e925	-0.009271895
253	0xbba9b055	-0.005178491
254	0xbe1a96ab	-0.15096538
255	0xbd78e696	-0.06076678

a2c_network.actor_mlp.0.bias f4 [128]
0	0x3d5d4b09	0.054026637
1	0x3d0c7666	0.0342926
2	0x3dc3881a	0.09547444
3	0xbd4f6a4a	-0.050638475
4	0x3decef67	0.115691
5	0xbdaea4d5	-0.08527533
6	0xbc913eee	-0.017730203
7	0x3e4ce29b	0.20008318
8	0x3d469fd8	0.048492283
9	0x3c0d1f63	0.00861344
10	0x3b58b74b	0.0033068235
11	0x3dbc2dd2	0.09188427
12	0xbcc1e650	-0.023669392
13	0x3de3868a	0.11109646
14	0xbdfdfb1b	-0.1240141
15	0x3da5cc7c	0.08095643
16	0x3d9fe4c7	0.07807308
17	0x3de5a7fe	0.112136826
18	0x3e1b3d40	0.15160084
19	0x3e0b8a29	0.13626923
20	0xbd42a232	-0.047517963
21	0x3d65d579	0.056111787
22	0x3db8bb36	0.09020083
23	0x3da93047	0.08261161
24	0x3c0671cc	0.008205842
25	0x3dc7cf62	0.09756352
26	0xbd177d06	-0.036984466
27	0x3de99422	0.11405207
28	0x3e10d438	0.14143455
29	0x3b509534	0.0031827213
30	0x3e0aa738	0.13540351
31	0xbd887c98	-0.06664389
32	0x3df192f9	0.11795611
33	0x3d80527b	0.06265732
34	0xbe168e3d	-0.14702697
35	0x3cfc69ff	0.030812262
36	0x3c8876dd	0.01665824
37	0x3e1a4cb4	0.15068322
38	0xbcee7018	-0.029106185
39	0xbc43e654	-0.01195677
40	0x3ccd6dd7	0.02507679
41	0x3d67b884	0.056572452
42	0xbca2c157	-0.019867582
43	0x3d487cec	0.04894726
44	0xbdc6ef26	-0.09713583
45	0x3e0bece0	0.1366458
46	0xbda9363a	-0.08262296
47	0x3d35c760	0.044379592
48	0x3e07ecb5	0.1327389
49	0x3d8cc820	0.06874108
50	0xbdd8a83e	-0.10578965
51	0x3d9c4160	0.07629657
52	0x3c605f67	0.013694621
53	0x3d67edf1	0.056623403
54	0xbdcdf852	-0.10057129
55	0x3d6178d5	0.055046875
56	0x3ddc6f6f	0.10763442
57	0x3ceec8be	0.029148456
58	0x3d9f77bc	0.077865094
59	0x3e22c7b6	0.15896496
60	0x3def5135	0.11685411
61	0xbbc4f3d1	-0.0060105105
62	0x3e25951c	0.16170162
63	0xbd6041c2	-0.05475021
64	0x3d626649	0.055273328
65	0x3df752ba	0.12076326
66	0x3e63bfbb	0.22241108
67	0x3de79365	0.1130741
68	0x3e3767d3	0.179107
69	0x3d9908ed	0.074724056
70	0x3e5140c9	0.2043487
71	0xba845294	-0.0010095411
72	0x3e02e54e	0.12782785
73	0x3ad2dba7	0.001608719
74	0x3df24cdf	0.11831068
75	0xbdf7faa7	-0.12108355
76	0xbe2feae4	-0.17179447
77	0x3db73b6f	0.08946883
78	0xbd085400	-0.033283234
79	0xbda5b70f	-0.08091556
80	0xbe2c01db	-0.16797583
81	0xbdb0ae79	-0.08627028
82	0x3cc84719	0.024447965
83	0x3e2b9c05	0.16758735
84	0x3e02c84a	0.12771717
85	0x3d84ad7d	0.06478403
86	0xbd997607	-0.07493215
87	0x3d802a68	0.06258088
88	0xbe1971bd	-0.14984794
89	0x3e24a74a	0.1607944
90	0x3dd9d786	0.10636811
91	0xbd3c149e	-0.0459181
92	0x3dad6661	0.08466793
93	0x3df94391	0.121710904
94	0x3da836c9	0.082135744
95	0xbc3c61b6	-0.0114979055
96	0x3e0ec2b3	0.1394146
97	0xbd2f9972	-0.042870946
98	0xbcf22e8d	-0.029563213
99	0x3d205cf5	0.03915115
100	0x3d595dcd	0.05306797
101	0xbe46808c	-0.19384974
102	0x3dcf6216	0.1012613
103	0xbd055e95	-0.032560904
104	0x3db2a7d2	0.087234154
105	0x3e188994	0.14896232
106	0x3e8111a8	0.25208783
107	0x3d958a13	0.07301726
108	0x3e4b634b	0.19862096
109	0x3de60391	0.11231149
110	0x3e19d9e4	0.15024525
111	0x3da96b30	0.082723975
112	0x3deaf829	0.11473114
113	0x3d8c5cc5	0.06853632
114	0x3de64cb4	0.11245099
115	0x3d9ceb8d	0.07662115
116	0x3dc4242d	0.095772125
117	0x3dbd7ffd	0.092529275
118	0x3dde4e12	0.108547345
119	0x3b041ecd	0.002015996
120	0x3e0c2810	0.13687158
121	0xbc949b24	-0.018140383
122	0x3e282487	0.16420184
123	0x3d0facba	0.035076834
124	0x3c6bf619	0.014401936
125	0x3e037667	0.12838136
126	0xbdde58b8	-0.108567655
127	0x3e834fc0	0.25646782

a2c_network.actor_mlp.2.weight f4 [128, 128]
0	0x3d5bf2c3	0.053698312
1	0x3dcb38c6	0.09922938
2	0xbd81b708	-0.063337386
3	0xbcc441f5	-0.023957232
4	0xbd98b9ae	-0.074572906
5	0xbd9f00af	-0.07763802
6	0x3be47aee	0.006972662
7	0xbcf0d98e	-0.029400613
8	0x3b8bfaaa	0.004271825
9	0xbdd04b44	-0.10170606
10	0x3c2da9b2	0.010599541
11	0xbcd83cb1	-0.026396127
12	0x3cff20ee	0.031143632
13	0xbc8130ce	-0.015770342
14	0xbd485d28	-0.048916966
15	0x3d241cc6	0.040066503
16	0xbc9bc060	-0.01901263
17	0xbe08dec7	-0.13366233
18	0xbc3f52d6	-0.0116774645
19	0xbde9e5d1	-0.11420787
20	0x3dc6fbe6	0.097160146
21	0x3d8c2644	0.06843236
22	0xbad2fe75	-0.0016097563
23	0xbd6867a6	-0.05673947
24	0x3d619750	0.055075943
25	0xbddfe758	-0.10932797
26	0xbc21b72d	-0.009870333
27	0x3c792fae	0.015209122
28	0x3d85db7a	0.065360025
29	0x3bc03eec	0.005866876
30	0x3d0e81de	0.03479182
31	0x3b7686e8	0.0037617031
32	0xbdfd64d1	-0.12372745
33	0x3d83a949	0.06428773
34	0xbba4d79d	-0.005030586
35	0x3d321a2b	0.043481987
36	0x3b008007	0.001960756
37	0x3d2bc64a	0.04193715
38	0xbcdc88b0	-0.026920646
39	0x3d35fe8d	0.04443221
40	0xbc5bd2f8	-0.013416998
41	0xbc39107e	-0.011295436
42	0xbe37487c	-0.17898744
43	0x3e077b3e	0.13230607
44	0x3d9112fb	0.07083698
45	0xbe037492	-0.12837437
46	0xbb977a95	-0.004622767
47	0x3df0f3af	0.11765229
48	0xbd0650df	-0.03279197
49	0x3d2c6fb0	0.0420987
50	0x3c93eb38	0.018056497
51	0x3b43e59f	0.0029891504
52	0x3e483288	0.19550526
53	0x3cb0f8e1	0.02160305
54	0x3ca25857	0.019817514
55	0x3c547da3	0.012969407
56	0x3d83e41d	0.064399935
57	0xbdc9adb5	-0.09847585
58	0xbd08887e	-0.033333294
59	0xbcc35d42	-0.02384818
60	0xbd8aec76	-0.067833826
61	0x3dc102c8	0.094243586
62	0xbe493c6b	-0.19651954
63	0xbd92abd8	-0.07161683
64	0xbde3cd64	-0.111231595
65	0x3cb0747d	0.021539921
66	0x3b681607	0.003541352
67	0xbda18315	-0.0788633
68	0x3d954f4c	0.07290515
69	0xbd47f85c	-0.04882084
70	0xbdbd4874	-0.09242335
71	0x3ce85cdc	0.028364591
72	0xbd812529	-0.06305916
73	0x380ac8d9	3.3088818e-05
74	0xbd7db7cd	-0.061942864
75	0x3d5cdc15	0.053920824
76	0x3c8f31d7	0.01747982
77	0x3dafe60e	0.08588801
78	0xbda16e33	-0.07882347
79	0xbd9d53b9	-0.076819845
80	0xbd12202e	-0.03567522
81	0x3ce64ad8	0.02811186
82	0xbce0e32d	-0.027452076
83	0xbda3870e	-0.07984744
84	0x3d8ffb22	0.07030322
85	0xbcf30d80	-0.029669523
86	0x3ba5c9d8	0.005059462
87	0xbe05ddbb	-0.13072865
88	0x3b314b7c	0.0027053049
89	0x3cc02d74	0.023459174
90	0x3d6b696b	0.05747358
91	0xbe0f7717	-0.14010273
92	0xbdd5dcd7	-0.104425125
93	0x3cc66721	0.024219098
94	0x3d57913d	0.052628744
95	0x3c0ab0a5	0.008464967
96	0xbd96dc17	-0.073661976
97	0xbdba7cdb	-0.091058455
98	0x3ce5da87	0.028058304
99	0xbb96aa1b	-0.004597915
100	0x3d9962c8	0.07489544
101	0xbd80a495	-0.062813915
102	0xbd1d055e	-0.038335197
103	0x3d9de9b5	0.07710592
104	0xbbcc7ea3	-0.006240682
105	0x3a4270f8	0.00074173464
106	0x3d7c447f	0.06158876
107	0x3cca7fc1	0.024719121
108	0x3bce3f05	0.0062941336
109	0xbe12e520	-0.14345217
110	0x3e1aeb8f	0.15128921
111	0xbda99649	-0.08280618
112	0x3de146b4	0.10999814
113	0x3d8aa5a4	0.06769875
114	0xbe054ad9	-0.13016833
115	0xbdcb372b	-0.09922632
116	0xbcdcbc4d	-0.026945258
117	0x3dbc9f75	0.092101015
118	0x3d55b091	0.05217034
119	0x3d193d68	0.037412077
120	0x3ca39d92	0.019972596
121	0x3d5b4243	0.05352999
122	0x3d1aef60	0.037825942
123	0xbd61ed72	-0.055158086
124	0x3d69dc97	0.057095136
125	0xbcb64276	-0.022248488
126	0x3d74feac	0.059813187
127	0x3b13127a	0.0022441433
128	0x3d25bc73	0.040462922
129	0xbdd5810a	-0.10425003
130	0xbb8efd2a	-0.0043636756
131	0xbda26a5b	-0.07930442
132	0xbc622e3a	-0.013804967
133	0x3d478418	0.04870996
134	0xbda492c5	-0.080358066
135	0xbe06c44f	-0.13160823
136	0xbd92dc87	-0.071709685
137	0x3adb28a8	0.001672049
138	0xbcec6dfa	-0.028861035
139	0xbd63b4aa	-0.055592217
140	0xbc56e2b9	-0.013115578
141	0xbd71bbbb	-0.059016924
142	0xbaffa90f	-0.001950534
143	0x3b1cf229	0.002394805
144	0x3ce14fdd	0.027503902
145	0xbd543a4d	-0.051813412
146	0xbd95085b	-0.07276984
147	0x3d9ae003	0.07562258
148	0x387916e2	5.9387537e-05
149	0xbd860710	-0.06544316
150	0x3d4fe2a1	0.05075324
151	0x3948db1f	0.00019155115
152	0x3c5b45d6	0.013383349
153	0x3d61f7ae	0.055167846
154	0x3ce73587	0.028223766
155	0x3d9abac2	0.075551525
156	0x3cfcaf98	0.030845448
157	0x3dee365f	0.11631464
158	0xbdc3d93a	-0.09562917
159	0x3cba4734	0.02273903
160	0x3c2c2954	0.0105079
161	0xbc9921b5	-0.01869283
162	0x3e01f079	0.1268939
163	0xbce83f7b	-0.028350582
164	0x3dacd195	0.08438412
165	0xbe227e40	-0.15868473
166	0xbcc56fca	-0.024101157
167	0x3d20e239	0.039278243
168	0xbd32a3ee	-0.043613367
169	0xbc9adb70	-0.018903464
170	0x3df5ce76	0.1200227
171	0xbd841077	-0.06448453
172	0x3d00c508	0.031437904
173	0xbd647b14	-0.05578144
174	0x3d3237f7	0.043510403
175	0xbd0a32ed	-0.033739973
176	0xbde456f3	-0.11149397
177	0xbdd5a829	-0.10432465
178	0x3d3f0304	0.046633735
179	0xbd7384c7	-0.0594528
180	0xbdc5590d	-0.09636126
181	0xbc3e4a1f	-0.0116143515
182	0x3b06c016	0.002056127
183	0xbdb77c6f	-0.08959281
184	0xbd22f2dc	-0.03978239
185	0x3d765c05	0.06014635
186	0xbd468127	-0.048463013
187	0xbdf959b9	-0.12175316
188	0xbd807a91	-0.06273378
189	0x3dea3e97	0.11437719
190	0xbce525e2	-0.027972165
191	0xbd7e6882	-0.062111385
192	0xbdbf23fa	-0.09333034
193	0xbd4837c7	-0.04888132
194	0x3d377780	0.0447917
195	0x3c31f0f6	0.010860672
196	0xbd996163	-0.07489278
197	0xbe07efa6	-0.13275012
198	0xbe0bb861	-0.13644554
199	0xba7da88e	-0.00096763007
200	0x3c92ee92	0.017936025
201	0x3db1e2ad	0.08685813
202	0xbd0476ae	-0.032339744
203	0x3c1d3f2a	0.009597579
204	0x3d1bf71a	0.03807745
205	0xbd12cc04	-0.035839096
206	0x3d88ed5a	0.06685896
207	0x3d98b612	0.07456602
208	0x3d7de8bc	0.06198953
209	0x3d8299ca	0.06376989
210	0xbc42883f	-0.011873304
211	0xbcbadd7e	-0.022810694
212	0x3dead686	0.11466698
213	0xbddf41af	-0.109012
214	0x3d235902	0.039879806
215	0xbd930879	-0.071793504
216	0xbc6ef8b9	-0.014585667
217	0xbde018cb	-0.10942229
218	0xbd8ee281	-0.06976796
219	0x3d324ac7	0.043528344
220	0xbe200a4d	-0.1562893
221	0x3d2f7b33	0.0428421
222	0x3c9dab97	0.01924686
223	0x3dd132fe	0.10214804
224	0xbd9c4ed1	-0.076322205
225	0xbdabc242	-0.08386661
226	0x3c5d905f	0.01352319
227	0x3b553208	0.0032531042
228	0x3d1123b2	0.035434432
229	0x3d8542d9	0.06506891
230	0x3b74dd8a	0.0037363493
231	0x3cf7989d	0.030224139
232	0xbdef62ca	-0.116887644
233	0xbe0671e5	-0.13129385
234	0xbe26fa76	-0.16306481
235	0xbd951d42	-0.07280971
236	0xbc3f1c0c	-0.011664402
237	0x3d73c486	0.05951359
238	0x3ce4aa92	0.027913366
239	0xbdbd5de0	-0.09246421
240	0x3a976f90	0.0011553634
241	0x3deeab2c	0.11653742
242	0xbc593dda	-0.0132593755
243	0xbbea0a64	-0.007142352
244	0xbdbe2e72	-0.092862025
245	0xbb65fdd2	-0.0035093916
246	0x3d3ddc1e	0.0463525
247	0xbb5a0217	-0.0033265406
248	0xbd9a2caa	-0.0752805
249	0x3d8fc90a	0.07020767
250	0xbd0378a2	-0.032097466
251	0xbd0010ca	-0.03126601
252	0xbab3a5b7	-0.0013706003
253	0x3d3f7572	0.046742864
254	0x3cf08305	0.02935935
255	0xbd946e63	-0.07247617

a2c_network.actor_mlp.2.bias f4 [128]
0	0xbc59dc60	-0.01329717
1	0xbde73884	-0.112900764
2	0xba92713f	-0.0011172666
3	0x3b5ec400	0.0033991337
4	0x3d6e8dc2	0.05824066
5	0x3ca3b80c	0.019985221
6	0x3d68be84	0.056822315
7	0x3db9a0e5	0.09063891
8	0xbde26a4b	-0.1105543
9	0xbc625bcf	-0.013815834
10	0xbdcf78d6	-0.101304695
11	0xbd0ee044	-0.034881845
12	0xbc904a6c	-0.017613612
13	0xbdb2854b	-0.0871683
14	0xbd5b9f1a	-0.053618528
15	0xbd876409	-0.06610877
16	0x3c244ce3	0.010028097
17	0xbd7f03ee	-0.062259607
18	0x3c05dd2b	0.008170406
19	0xbcef077d	-0.029178375
20	0xbe25cee8	-0.1619221
21	0x3da1414c	0.078737825
22	0x3bd7f7c6	0.006590816
23	0xbda1520c	-0.07876977
24	0xbe3448d4	-0.17605907
25	0xbd35e178	-0.044404477
26	0xbbf87907	-0.007582787
27	0xbb73d990	-0.0037208535
28	0xbe54339f	-0.20722817
29	0x3cf2afce	0.029624846
30	0xbcb15b80	-0.021650076
31	0xbdb195d5	-0.08671156
32	0x3cfd9042	0.030952577
33	0x3d7e0549	0.06201676
34	0x3d4b9cf9	0.049710248
35	0xbe1f52ee	-0.15558979
36	0x3c9af9c5	0.018917928
37	0x3d0ff14e	0.035142235
38	0xbe0baf1b	-0.13641016
39	0xbce845a2	-0.028353516
40	0x3d7879a1	0.06066287
41	0xbc99d0b6	-0.018776279
42	0x3cac3289	0.02102019
43	0xbb965383	-0.004587592
44	0x3bc3a0af	0.0059700827
45	0xbd0cab00	-0.034342766
46	0xbe19668a	-0.14980522
47	0xbd70576a	-0.058677115
48	0xbc684dbc	-0.01417869
49	0xbc49b9b4	-0.0123123415
50	0xbc635009	-0.013874062
51	0xbdec7057	-0.115448646
52	0xbc8613f4	-0.016366936
53	0x3d7fb3e7	0.062427428
54	0xbe079637	-0.13240896
55	0x3bd2693f	0.0064212377
56	0x3c8bd124	0.0170675
57	0xbd0e1554	-0.03468831
58	0x3dc0e1b9	0.09418053
59	0xbd9deccf	-0.07711183
60	0xbdef78dc	-0.11692974
61	0x3db62cb0	0.08895242
62	0x3d82dbb0	0.06389558
63	0x3d336cd8	0.043804973
64	0xbd06b5b4	-0.03288813
65	0xbd15219e	-0.036409013
66	0x3daf9a60	0.085743666
67	0xbcb17456	-0.021661919
68	0x3c379357	0.011204562
69	0x3cad58b0	0.021160454
70	0x3d99cb9b	0.07509538
71	0xbbfdbaf7	-0.007743235
72	0x3d80dc63	0.062920354
73	0xbdeeb4c1	-0.1165557
74	0x3d3c67f3	0.04599757
75	0xbe3ba709	-0.18325438
76	0xbdf2be20	-0.1185267
77	0xbdebd3c7	-0.11515003
78	0x3bc7c2ce	0.0060962206
79	0x3d79b490	0.060963213
80	0x3d422178	0.0473952
81	0x3d4546da	0.048163272
82	0xbbd24f40	-0.0064181387
83	0xbda0f29f	-0.07858776
84	0xbde44e8e	-0.111477956
85	0x3d8f5587	0.06998735
86	0xbdfa8060	-0.12231517
87	0xbde1b6eb	-0.11021217
88	0x3d4633bc	0.04838918
89	0x3bc14943	0.005898626
90	0xbd1b9941	-0.03798795
91	0xbd35d468	-0.04439202
92	0x3c9825ea	0.018572766
93	0x3de06c3f	0.10958146
94	0x3da20382	0.07910825
95	0xbdb8234e	-0.08991109
96	0x3c371e5e	0.011176674
97	0x3c2e72c7	0.010647482
98	0x3d50914c	0.050919816
99	0x3d85b38e	0.06528388
100	0x3c8c6f56	0.017142933
101	0xbd163443	-0.036670934
102	0xbd0e39a3	-0.034722935
103	0xbc456532	-0.012048053
104	0x3d804e9d	0.06264994
105	0x3d09fcf4	0.0336885
106	0xbce9fc20	-0.028562605
107	0x3c8f2152	0.017471943
108	0x3db030da	0.08603068
109	0xbd39a304	-0.04532148
110	0x3cacdbf1	0.02110097
111	0xbda5d00b	-0.08096322
112	0x3d1de1fc	0.038545594
113	0xbc2dc376	-0.010605684
114	0x3bd10e6c	0.006379893
115	0xbcfffb58	-0.03124778
116	0x3d84c791	0.06483377
117	0xbdc4b611	-0.09605039
118	0xbd658f83	-0.056045067
119	0xbcb2165c	-0.021739177
120	0xbd6ad00c	-0.057327315
121	0xbbbc255b	-0.005741758
122	0xbc8daea7	-0.017295195
123	0x3d4b27f0	0.049598634
124	0xbbc757ff	-0.006083488
125	0x3c9f5ad7	0.019452496
126	0x3cb123c0	0.021623492
127	0xbcc116a8	-0.023570374

a2c_network.actor_mlp.4.weight f4 [128, 128]
0	0xbbbced04	-0.005765559
1	0xbd6c81af	-0.057740863
2	0xbd1b4768	-0.037909895
3	0x3c395410	0.011311546
4	0x3d23e93c	0.04001735
5	0xbdf2aef6	-0.118497774
6	0xbd5396ea	-0.051657595
7	0x3d83952f	0.06424939
8	0xbd3e7815	-0.046501238
9	0x3d07f70b	0.033194583
10	0x3d5ab399	0.053393934
11	0x3c243fd8	0.010024987
12	0x3c4fe5ef	0.012689098
13	0xbda8ebd0	-0.08248103
14	0x3c3f8fa4	0.011691961
15	0x3ccf211a	0.025284339
16	0x3bf3a3ff	0.0074353213
17	0xbd001334	-0.031268314
18	0xbd4a7c54	-0.049434975
19	0xbd9a96df	-0.075483076
20	0x3d078df7	0.033094373
21	0x3d8d2cad	0.06893287
22	0x3d03803c	0.032104716
23	0x3c1b1095	0.009464403
24	0xbd122b08	-0.03568557
25	0x3d684314	0.056704596
26	0x3c170c99	0.009219312
27	0xbd3d767a	-0.046255566
28	0xbcb38b8c	-0.021917127
29	0xbd621a13	-0.055200648
30	0xbdb7f0ff	-0.08981513
31	0x3dbebb7d	0.09313104
32	0x3d7aa084	0.061188236
33	0xbd8fb60a	-0.07017143
34	0xbc7c29ee	-0.015390856
35	0x3d290373	0.041263055
36	0xbcd27bcd	-0.025693798
37	0xbca1c511	-0.019747289
38	0xbdd57eed	-0.104246
39	0xbd849987	-0.064745955
40	0xbcedccab	-0.029028257
41	0xbd1c8fe4	-0.038223162
42	0xbd71acea	-0.059002794
43	0xbd388126	-0.04504504
44	0x3d3fac4e	0.046795182
45	0xbd736a36	-0.059427463
46	0xbe012136	-0.12610325
47	0x3d65f574	0.056142285
48	0x3d8e4d25	0.06948308
49	0xbd232ed1	-0.03983957
50	0x3b1fbbb9	0.0024373366
51	0xbcaebd42	-0.02133048
52	0x3d2886e7	0.041144278
53	0xbbff2695	-0.0077865818
54	0xbdd37dbd	-0.10326717
55	0x3d96b4d2	0.073587075
56	0xbd937866	-0.072006986
57	0x3c4723b7	0.012154511
58	0xbcbfe244	-0.023423322
59	0xbd9dbd1d	-0.07702086
60	0xbc428b08	-0.011873968
61	0x3cedb27c	0.029015772
62	0x3b11b058	0.0022230353
63	0x3e112c04	0.14176947
64	0x3dec25b9	0.115306325
65	0x3d96570e	0.07340823
66	0xbd3f2e50	-0.046675026
67	0xbd5005cb	-0.050786775
68	0x3dc63396	0.09677808
69	0x3c7a8926	0.015291488
70	0x3d9bcc5b	0.07607337
71	0x3df25493	0.118325375
72	0xbd17d9ab	-0.03707282
73	0x3d083dad	0.033261944
74	0x3d1e1fb7	0.038604464
75	0xbcb94b31	-0.022618862
76	0xbd826735	-0.063673414
77	0xbbc71d48	-0.0060764886
78	0x3dbaf08f	0.09127914
79	0xbb85b988	-0.004080955
80	0x3cab79d9	0.020932125
81	0x3c91ff33	0.017821884
82	0x3d2f8c0a	0.04285816
83	0x3dc41e73	0.0957612
84	0x3c21c596	0.009873768
85	0x3b38946f	0.0028164645
86	0xbd619268	-0.055071265
87	0xbcd6b093	-0.026207244
88	0xbd8cdc42	-0.06877948
89	0x3d3f44da	0.04669652
90	0x3d45be6e	0.04827731
91	0xbd3d7301	-0.046252254
92	0x3d30b4d8	0.043141216
93	0xbc6d1717	-0.014470837
94	0xbd8219c7	-0.06352573
95	0xbaedbdea	-0.0018138264
96	0xbc7bc7ea	-0.015367487
97	0xbd0693ed	-0.032855917
98	0x3dc6cd42	0.097071186
99	0x3c803e9b	0.015654853
100	0xbda0206a	-0.078186825
101	0x3b2593f2	0.0025265184
102	0xbc9d1e32	-0.019179437
103	0xbd9d3bdf	-0.07677435
104	0x3d64245c	0.055698738
105	0x3c408947	0.0117514795
106	0xbb91e034	-0.004451776
107	0xbca5d859	-0.020244764
108	0xbc908e7a	-0.017646063
109	0xbd964a90	-0.073384404
110	0xbbd64c65	-0.0065398687
111	0xbd215d13	-0.039395403
112	0x3cda9e5c	0.02668684
113	0x3c0295ae	0.007970257
114	0xbdde3a00	-0.10850906
115	0xbdb3b780	-0.08775234
116	0xbd4eef05	-0.050520916
117	0x3d412675	0.047155816
118	0x3daa63a8	0.08319789
119	0x3d097849	0.03356198
120	0x3d5f25a4	0.054479256
121	0x3d6b7435	0.05748387
122	0xbd7461dd	-0.059663642
123	0x3db20bd6	0.08693664
124	0xbda0f8c3	-0.078599475
125	0xbcaa90c4	-0.020820983
126	0x3c2743b5	0.010209014
127	0xbdbfe5ad	-0.09369979
128	0x3c0de379	0.008660191
129	0x3d1861c6	0.03720262
130	0xbcba2bb0	-0.02272591
131	0x3d3939e0	0.04522121
132	0x3d947f00	0.07250786
133	0xbd3aab32	-0.04557342
134	0xbd6e64b3	-0.058201503
135	0x3cfa527c	0.03055691
136	0xbd1d0f67	-0.038344767
137	0xbd62db0c	-0.05538468
138	0x3c8bf3de	0.017084058
139	0x3d81d995	0.063403286
140	0xbd898d55	-0.0671641
141	0xbd3f8665	-0.046759028
142	0xbd1b4a9d	-0.037912954
143	0x3df8c8a7	0.121476464
144	0x3d90cc60	0.070702314
145	0xbccc645f	-0.024950204
146	0xbde7b0d8	-0.11313027
147	0x3d804c93	0.062646054
148	0xbdcf6957	-0.10127514
149	0xbd359122	-0.044327863
150	0x3e1bea95	0.15226205
151	0xbb0f7da4	-0.0021894956
152	0xbcb1e663	-0.021716302
153	0xbdc1acee	-0.09456812
154	0xbd8bc4e0	-0.0682466
155	0xbc265c23	-0.010153803
156	0x3d009eff	0.03140163
157	0xbc9d5ba0	-0.01920873
158	0xbd541dcc	-0.05178623
159	0xbcdcb217	-0.026940389
160	0xbcacdf8f	-0.021102695
161	0x3cb97df3	0.022643065
162	0xbd580b77	-0.05274531
163	0xbd39dbb0	-0.045375526
164	0xbd91c680	-0.07117939
165	0x3d83cc12	0.06435408
166	0xbd72dc55	-0.059292156
167	0xbdfcc644	-0.12342504
168	0xbccbb04f	-0.024864344
169	0xbdb82be3	-0.08992746
170	0xbdc339ec	-0.09532532
171	0xbd5d2e19	-0.05399904
172	0x3d84cbeb	0.06484207
173	0xbdae05d3	-0.08497205
174	0xbda37517	-0.079813175
175	0x3d10d430	0.035358608
176	0x3d8dc1fa	0.06921764
177	0x3b999d72	0.0046879584
178	0x3df31c5c	0.118706435
179	0x3d359791	0.044333998
180	0xbd5f8ac2	-0.05457569
181	0xbbb30c6c	-0.0054641273
182	0xbd6b4ae9	-0.057444487
183	0x3dd97e12	0.10619749
184	0xbc500b81	-0.012698055
185	0x3d5a0467	0.053226855
186	0xbd2a027f	-0.041506287
187	0xbd933c75	-0.07189266
188	0xbd8f31ff	-0.06991958
189	0x3d9f9064	0.07791212
190	0xbd97a2af	-0.07404076
191	0xbb045009	-0.0020189306
192	0x3ca2f289	0.01989104
193	0xbda7d8d4	-0.081956536
194	0xbcecbe6e	-0.028899398
195	0x3d6f1a1b	0.058374505
196	0x3ddbefbc	0.10739085
197	0xbc01b856	-0.007917484
198	0xbcb7f234	-0.022454359
199	0x3b599427	0.0033199878
200	0xbcdb81df	-0.026795326
201	0xbc9804c9	-0.01855697
202	0x3c81c2e1	0.015839996
203	0x3d11c88d	0.03559165
204	0x3e153425	0.14570673
205	0xbd416faf	-0.04722565
206	0x3d6e1ddc	0.058133945
207	0x3d98a69f	0.074536555
208	0x3b974f94	0.0046176407
209	0xbcb5916a	-0.022164065
210	0x3c130751	0.008973912
211	0x3d0b7560	0.034047484
212	0x3d5eca3b	0.05439208
213	0x3d4b53e5	0.049640555
214	0xbd04649e	-0.03232252
215	0x3cc25f85	0.023727188
216	0x3db41341	0.08792735
217	0x3d6780fd	0.056519497
218	0x3c266555	0.010155995
219	0xbdcc5438	-0.09977001
220	0x3d3eb6c1	0.046561006
221	0xbcaeb2ec	-0.021325551
222	0x3d633f74	0.055480435
223	0x3d329848	0.043602258
224	0xbd675949	-0.056481633
225	0xbbd732c4	-0.006567331
226	0xbcd1885d	-0.025577718
227	0xbd95695a	-0.07295485
228	0x3cd8b30c	0.026452564
229	0x3dd1ead7	0.1024987
230	0x3da8c40b	0.08240517
231	0xbd5d64e9	-0.054051314
232	0xbc7a3b30	-0.0152729
233	0xbc2ef529	-0.010678568
234	0x3d6171aa	0.05504004
235	0xbd8f5335	-0.06998292
236	0x3c30a32b	0.01078109
237	0xbdb6f245	-0.08932928
238	0x3c3dc5cd	0.011582804
239	0x3d176bd6	0.036968075
240	0xbdb20a6d	-0.08693395
241	0x3db81827	0.08988982
242	0xbd0e34c0	-0.034718275
243	0x3d83574c	0.06413135
244	0xbdc5511b	-0.0963461
245	0x3d945da2	0.072444215
246	0x3df7d3ec	0.12100968
247	0x3d37ce45	0.04487445
248	0x3b07cbe0	0.0020720884
249	0x3c13edf4	0.0090289
250	0xbdbad256	-0.0912215
251	0x3cc0425d	0.023469144
252	0x3d270624	0.04077734
253	0x3d4a89d7	0.04944786
254	0xbd50135c	-0.050799713
255	0x3cacaa2a	0.021077234

a2c_network.actor_mlp.4.bias f4 [128]
0	0x3d3bdd51	0.04586536
1	0x3d111604	0.035421386
2	0xbd45a731	-0.04825515
3	0xbd9e771f	-0.07737564
4	0xbdd947c7	-0.106093936
5	0x3bed62b8	0.007244434
6	0x3d6c8439	0.057743285
7	0x3cd4555f	0.025919614
8	0x3d055fdb	0.032562118
9	0x3d77d33c	0.060504183
10	0x3cc08469	0.023500638
11	0xbca92c0a	-0.020650882
12	0xbd127214	-0.035753325
13	0x3d5a74fe	0.05333423
14	0xbd2cb411	-0.042163912
15	0xbba2d26d	-0.0049689324
16	0xbd3005ef	-0.04297441
17	0xbd530597	-0.051519003
18	0xbd42cdd9	-0.047559593
19	0xbd553ad5	-0.05205806
20	0x3d2ec31c	0.04266654
21	0xbb9f89f4	-0.00486874
22	0x3c8b15f8	0.016978249
23	0x3c38aa73	0.011271107
24	0x3b8c1eab	0.004276117
25	0xbd574f50	-0.052565873
26	0xbe0786d6	-0.1323503
27	0xbceac47c	-0.028658144
28	0x3db2bc0d	0.08727274
29	0x3d4a2017	0.04934701
30	0xbd29abf3	-0.04142375
31	0x3c5fe8cf	0.013666346
32	0x3dd5db2e	0.10442196
33	0xbd11bd2e	-0.035580806
34	0xbc364a32	-0.011126088
35	0xbdec6d49	-0.11544282
36	0x3cb11e4a	0.021620888
37	0x3d828b20	0.06374192
38	0xbd0c4fa5	-0.034255642
39	0xbd1f1e00	-0.03884697
40	0x3c14fbc5	0.00909323
41	0xbbb8dafb	-0.005641339
42	0x3ca56e9b	0.020194342
43	0xbd00b4fa	-0.031422593
44	0x3b7a8c37	0.0038230547
45	0x3cdd7643	0.02703393
46	0xbd918555	-0.07105509
47	0x3df71209	0.12063987
48	0x3d597da5	0.05309834
49	0x3daeb56f	0.085306995
50	0xbd3680f2	-0.044556566
51	0xbdb6e59a	-0.08930512
52	0x3d78ca38	0.060739726
53	0xbd84188a	-0.06449993
54	0x3d8e61d9	0.06952257
55	0xbdc4812f	-0.09594952
56	0x3d3de7c6	0.046363614
57	0xbdb107d8	-0.08644074
58	0xbdcff2af	-0.1015371
59	0x3d1b0bac	0.037852928
60	0x3d7f2a2d	0.06229608
61	0xbd2b3e58	-0.041807503
62	0xbc008d99	-0.0078462595
63	0x3dcb6320	0.09931016
64	0xbd0f000d	-0.034912158
65	0x3cc16855	0.02360932
66	0x3d89417f	0.067019455
67	0xbc50785c	-0.012724008
68	0x3d621bda	0.055202343
69	0xbe03d527	-0.1287428
70	0x3cd47935	0.025936702
71	0x3bc7f46e	0.0061021363
72	0xbcfea6a2	-0.031085316
73	0xbba73ea7	-0.0051039043
74	0xbc4c7eec	-0.012481432
75	0xbc164b37	-0.009173206
76	0x3d92cf67	0.07168465
77	0xbb989fb1	-0.0046577086
78	0xbd157f96	-0.03649863
79	0xbd619a55	-0.055078823
80	0xbdec57c8	-0.115401804
81	0x3d8d16c1	0.068891056
82	0xbd1bcfc7	-0.03803995
83	0xbdb1c78d	-0.086806394
84	0xbc93bbde	-0.018033918
85	0x3d6a51ca	0.057206906
86	0xbc93ccc8	-0.018041983
87	0x3dbbefb8	0.09176582
88	0xbdaff961	-0.08592487
89	0x3ab0e04f	0.0013494584
90	0x3d81712f	0.06320416
91	0xbd634b40	-0.055491686
92	0x3d112496	0.03543528
93	0xbd9b5ce4	-0.07586077
94	0xbccae5d4	-0.024767794
95	0x3cf12515	0.029436627
96	0xbce1e339	-0.027574169
97	0xbc505037	-0.012714437
98	0xbd21e38a	-0.03952364
99	0xbc0b2b75	-0.008494248
100	0xbcb4921e	-0.02204233
101	0x3c553973	0.013014185
102	0xbd6ba4d6	-0.057530247
103	0xbb71d4c8	-0.003690051
104	0x3d4731a1	0.048631314
105	0xbcea8a93	-0.02863053
106	0xbc6fac16	-0.014628431
107	0xbd856279	-0.06512923
108	0x3deb034f	0.114752404
109	0x3d1a6dc7	0.037702348
110	0x3d8f46b6	0.06995909
111	0xbd08fe2c	-0.033445522
112	0xbd605ba4	-0.054774895
113	0xb9dc104f	-0.0004197382
114	0x3d7ccf63	0.061721217
115	0xbdea1625	-0.11430005
116	0xbd783074	-0.060593084
117	0x3d1c6d68	0.038190275
118	0x3d03392b	0.03203694
119	0xbd8d5b4b	-0.069021784
120	0xbcb5b603	-0.022181517
121	0x3d53bf3f	0.05169606
122	0xbcc37e03	-0.023863798
123	0x3ba2f9b0	0.0049736127
124	0x3d93e2b3	0.07220974
125	0xbd5d524b	-0.05403356
126	0x3d1aa3f1	0.037754003
127	0x3ce11e5f	0.027480302

a2c_network.value.weight f4 [1, 128]
0	0x3be1f414	0.0068955515
1	0xbcb11fa2	-0.021621529
2	0xbba1fc8b	-0.0049434355
3	0xbc847d87	-0.016173137
4	0x3d07b1dc	0.033128604
5	0x3cdf964e	0.02729335
6	0xbba1c859	-0.0049372134
7	0x3cc4403a	0.023956407
8	0xbd0e6e80	-0.03477335
9	0xbc0f8bca	-0.008761356
10	0x3c03292c	0.008005422
11	0x3d28af46	0.04118278
12	0x3cfadc45	0.03062261
13	0x3b22220e	0.0024739536
14	0xbb1e75ff	-0.0024179218
15	0x3d2b24ec	0.04178326
16	0xbc278f33	-0.010227012
17	0x3c922e80	0.017844439
18	0x3d4d3b9d	0.05010568
19	0xbbc9a7b7	-0.0061540264
20	0x3b9a7600	0.0047137737
21	0xbdaeef23	-0.085417055
22	0xbd39f668	-0.045401007
23	0x38bebcd9	9.0950816e-05
24	0x3c219630	0.009862468
25	0xbd887158	-0.066622436
26	0x3bfbb3ff	0.0076813693
27	0xbcc89f2f	-0.024489967
28	0x3cd12fd6	0.025535505
29	0xbca33a57	-0.01992528
30	0xbc5bea0c	-0.0134225
31	0xbd84bc5d	-0.0648124
32	0xbb8fd50e	-0.004389412
33	0x3c705bdd	0.014670339
34	0xbd09476e	-0.033515386
35	0xbcea5dc3	-0.028609162
36	0x3be40fb6	0.0069598807
37	0x3c573fa1	0.013137729
38	0x3c880bbc	0.016607158
39	0x3d6df825	0.058097977
40	0xba7bbbe0	-0.00096028857
41	0x3ccf7cd6	0.025328081
42	0xbc70f563	-0.014706942
43	0xbd395b86	-0.0452533
44	0xbc44c9b1	-0.012010978
45	0xbc75a7a1	-0.014993579
46	0x3d7dfa7d	0.062006462
47	0xbcb1de23	-0.021712368
48	0x3c961b1c	0.018323474
49	0xbcecc7ef	-0.02890393
50	0x3b2f8b59	0.0026785939
51	0xbb94d46d	-0.0045419247
52	0xbc62de38	-0.013846926
53	0x3cf52508	0.029924884
54	0xbcd72bd0	-0.026266009
55	0x3b7ccbf0	0.0038573705
56	0xbcf3f360	-0.029779136
57	0xbc57dff5	-0.013175954
58	0x3cb7fe96	0.022460263
59	0x3d6839a9	0.056695614
60	0xbcf22a0f	-0.02956107
61	0xbc4e4b1a	-0.012591148
62	0x3cd5a0df	0.026077686
63	0xbca7b60b	-0.020472547
64	0x3d4c1637	0.049825873
65	0x3c1e2f74	0.009654868
66	0xbbe62b98	-0.0070242397
67	0xbd5c00d6	-0.053711735
68	0x3cb42044	0.021988042
69	0x3c91d6cb	0.017802617
70	0xbcc00037	-0.023437602
71	0x3d0b7c31	0.034053985
72	0x3c1265d6	0.008935412
73	0x3d240ce3	0.040051352
74	0x3c0754c9	0.00825996
75	0xbd23d014	-0.03999336
76	0xbcfd5b22	-0.030927245
77	0x3cc93768	0.024562553
78	0x3c1ad409	0.009449967
79	0x3c64dd45	0.01396877
80	0xbd52f257	-0.051500645
81	0xbd5aff5b	-0.053466182
82	0xbcd834a6	-0.026392292
83	0xbbefebe2	-0.0073218206
84	0xbd73a7e1	-0.059486274
85	0xbcb9e1e8	-0.022690728
86	0x3bac744d	0.0052628876
87	0x3bfa2407	0.0076336893
88	0x3d15a27a	0.036531903
89	0x3cb49226	0.022042345
90	0xbb18ce7d	-0.0023316436
91	0xbb168ba9	-0.0022971428
92	0xbd880a88	-0.06642634
93	0x3bb96685	0.0056579732
94	0x3d1044b0	0.035221756
95	0x3cac88b8	0.021061286
96	0x3c20d565	0.009816502
97	0xbd4751a1	-0.04866183
98	0x3c2fba99	0.010725641
99	0xbd79b37d	-0.06096219
100	0xbd5c7349	-0.053820882
101	0xbd1aadf8	-0.037763566
102	0x3d808a96	0.06276433
103	0x3c28b5e4	0.010297272
104	0x3c6707d1	0.014100985
105	0xbd72de88	-0.059294254
106	0xbdba394a	-0.09092958
107	0x3c843844	0.01614011
108	0xbbde2d2a	-0.0067802863
109	0x3b675ce7	0.0035303177
110	0x3cb31203	0.021859175
111	0x3cf85491	0.030313762
112	0xbd17dadb	-0.03707395
113	0x3c842f07	0.016135706
114	0xbc2da8ad	-0.0105992975
115	0x3d1111a3	0.03541721
116	0x3c9a2c4e	0.018819954
117	0xbcee33b8	-0.029077396
118	0xbcdcdc35	-0.026960472
119	0x3d021dcd	0.0317667
120	0xbc102366	-0.008797502
121	0x3a9d6f3f	0.0012011303
122	0x3d4247a2	0.047431596
123	0x3d98b0f8	0.07455629
124	0x3cc12605	0.0235777
125	0xbc8c8e95	-0.017157832
126	0xbc720ebd	-0.014774022
127	0x3d00651f	0.031346437

a2c_network.mu.weight f4 [18, 128]
0	0xbbe467a8	-0.0069703646
1	0x3c41fcfa	0.0118400995
2	0xbcb144c3	-0.021639233
3	0x3e2598f0	0.16171622
4	0x3dd5127a	0.10403915
5	0x3d1529a1	0.036416654
6	0xbd32f01b	-0.043686014
7	0x3c824433	0.01590166
8	0xbda95996	-0.0826904
9	0xbe2245d6	-0.15846953
10	0x3c95d429	0.018289642
11	0xbe0014eb	-0.1250798
12	0xbd383fc8	-0.0449827
13	0xbda1220a	-0.078678206
14	0x3e221cad	0.15831251
15	0x3d243aaa	0.04009501
16	0x3c371f57	0.011176906
17	0x3dab1ce9	0.083551235
18	0xbc76058a	-0.015015969
19	0xbdeddc8b	-0.11614331
20	0xbde55308	-0.111974776
21	0xbcdf4c05	-0.027257929
22	0xbcafb21b	-0.021447232
23	0x3d452082	0.048126705
24	0xbd8d494f	-0.06898748
25	0x3d4d5e56	0.050138794
26	0xbc14515a	-0.009052599
27	0xbd950835	-0.07276956
28	0x3de021d5	0.10943953
29	0x3cb3febd	0.021972055
30	0x3db602d1	0.08887256
31	0xbda87225	-0.08224896
32	0xbd306e57	-0.04307398
33	0xbdc65fe4	-0.096862584
34	0xbdd3f499	-0.10349388
35	0x3cb2b254	0.02181355
36	0x3d6cc59a	0.057805635
37	0xbe015421	-0.12629749
38	0x3cd82103	0.026382929
39	0xbddf7ff4	-0.10913077
40	0x3d9028fe	0.07039069
41	0x3dd9f47d	0.106423356
42	0xbd3c289f	-0.045937177
43	0xbe0fc347	-0.14039336
44	0x3c932ce3	0.01796574
45	0xbe424d8b	-0.18974893
46	0x3d530a6a	0.051523603
47	0xbc400b75	-0.011721482
48	0x3d3a4669	0.045477305
49	0xba68fc10	-0.0008887658
50	0x3e25b38d	0.16181774
51	0xbc92f87d	-0.017940754
52	0xbdb283a6	-0.08716516
53	0xbd3fa9c0	-0.046792746
54	0xbdda7cf3	-0.106683634
55	0xbcc21368	-0.023690894
56	0x3de2962b	0.110637985
57	0x3da69bc5	0.081351794
58	0x3dcd0648	0.10010964
59	0x3d35e8c4	0.044411436
60	0xbd4a74d9	-0.04942784
61	0x3bddb95d	0.006766482
62	0x3db19157	0.086702995
63	0xbbae385d	-0.0053167776
64	0x3dc25756	0.09489314
65	0xbd2e8439	-0.042606566
66	0x3e64064f	0.22268032
67	0x3ca0c262	0.019623939
68	0xbdb06a14	-0.08613983
69	0x3991723b	0.00027741664
70	0x3d8f266f	0.069897525
71	0x3c0ad2b3	0.008473086
72	0xbc97b4cb	-0.018518826
73	0x3dec29f7	0.11531442
74	0x3e233abb	0.15940373
75	0x3d680763	0.05664767
76	0xbdc126b8	-0.09431213
77	0xbd9b9bec	-0.07598099
78	0x3d190f88	0.037368327
79	0x3d371cce	0.044705205
80	0xbc0246a0	-0.007951409
81	0x3cf8d08c	0.03037288
82	0x3ceb3822	0.02871329
83	0xbde025b7	-0.109446935
84	0x3d13aebf	0.036055323
85	0x3d7d89bd	0.061898936
86	0x3ce1e09c	0.027572922
87	0x3d76e97c	0.06028126
88	0xbb694978	-0.003559677
89	0xbd9f113f	-0.07766961
90	0xbd94c9fa	-0.072650865
91	0x3d1c2b71	0.038127366
92	0x3a02debc	0.00049922965
93	0x3d33d31f	0.043902513
94	0x3d3d0eb0	0.046156585
95	0x3c1e8f34	0.009677697
96	0x3dbc3f68	0.09191781
97	0xbd077723	-0.033072602
98	0xbd87da06	-0.066333815
99	0x3dc5b93e	0.09654473
100	0x3b433c9e	0.002979077
101	0x3d99b94c	0.07506046
102	0x3d0cec06	0.034404777
103	0x3db41366	0.087927625
104	0x3ddcb277	0.10776227
105	0x3d120aba	0.03565476
106	0xbd266060	-0.040619254
107	0xbd6b06f4	-0.057379678
108	0xbdae179d	-0.085005976
109	0x3d31b8e9	0.043389235
110	0xbd85e082	-0.06536962
111	0xbe02da45	-0.12778576
112	0x3e23c733	0.15993957
113	0xbdc0d1af	-0.09414994
114	0xbca10a02	-0.019658092
115	0x3d198d4f	0.037488278
116	0xbce4e085	-0.02793909
117	0xbdb9a699	-0.09064979
118	0xbe48851e	-0.1958203
119	0x3e0bb4ce	0.1364319
120	0x3d4c46e7	0.049872305
121	0xbe02c686	-0.12771043
122	0x3da7bf4b	0.08190783
123	0xbd6b5e94	-0.057463244
124	0xbdf5ab8b	-0.1199561
125	0x3dc50cce	0.09621583
126	0xbc86ecc1	-0.016470315
127	0xbdbd78f7	-0.09251588
128	0xbae8561f	-0.0017725861
129	0xbdca98a0	-0.09892392
130	0xbc788274	-0.015167821
131	0x3e490f25	0.19634683
132	0x3e2bfd5e	0.1679587
133	0xbc9ee148	-0.019394532
134	0x3dab92a6	0.0837758
135	0xbdaae825	-0.08345059
136	0x3de851ac	0.11343703
137	0xbe0dea98	-0.13859022
138	0x3c9df967	0.019283963
139	0xbe02130c	-0.12702578
140	0xbc16126b	-0.009159665
141	0xbdbf1860	-0.09330821
142	0xbcf5219d	-0.029923255
143	0xbcee6dcf	-0.029105095
144	0x3b84adda	0.004049045
145	0x3d05a4ea	0.032627977
146	0x3acd5bba	0.0015667595
147	0xbd4e4278	-0.05035636
148	0x3dda97fd	0.10673521
149	0xbc99a381	-0.018754723
150	0x3d1f624c	0.038912103
151	0x3e14265b	0.14467756
152	0xbe07d201	-0.13263704
153	0xbc5dea51	-0.013544635
154	0x3c8ad961	0.016949357
155	0xbd862115	-0.06549279
156	0xbddae55d	-0.10688279
157	0xbd6a0165	-0.057130236
158	0xbc968c4a	-0.018377442
159	0xbd972100	-0.07379341
160	0xbda13224	-0.07870892
161	0xbd694819	-0.056953523
162	0xbd5720d7	-0.052521553
163	0x3c5c8228	0.013458766
164	0x3e451b4b	0.19248693
165	0xbdcde584	-0.10053542
166	0x3e020fde	0.12701365
167	0xbde2b89b	-0.11070367
168	0x3dad0beb	0.08449539
169	0x3d06e2b0	0.03293103
170	0x3d9ec944	0.07753232
171	0x3de908cf	0.11378633
172	0xbb0ab64c	-0.0021165786
173	0x3d192430	0.037388027
174	0x3cd29c12	0.025709186
175	0xbd82aead	-0.06380973
176	0x3cb557b7	0.022136552
177	0xbd7658fd	-0.06014346
178	0xbd51a890	-0.051186144
179	0x3acdf120	0.001571212
180	0x3d2b986e	0.041893415
181	0xbb5ddc03	-0.003385306
182	0xbe3380c7	-0.17529593
183	0xbcdf1017	-0.027229352
184	0x3c8ab136	0.016930204
185	0x3dba601d	0.091003634
186	0x3e30820b	0.17237107
187	0x3d02a1cd	0.031892586
188	0xbcb1e58d	-0.021715904
189	0x3c0e29cb	0.008676956
190	0x3c12b422	0.00895408
191	0xbd4b0586	-0.049565814
192	0x3de492e4	0.1116083
193	0x3d827833	0.063705824
194	0x3bf38163	0.0074311956
195	0x3dafba91	0.085805066
196	0x3c92ccc2	0.017919902
197	0x3de3b566	0.111185834
198	0x3cc24932	0.023716543
199	0xbd1ae4dc	-0.037815914
200	0x3ccb1e1f	0.024794636
201	0xbd126319	-0.03573904
202	0xbd1e0899	-0.038582418
203	0x3d45e322	0.048312314
204	0xbdb56be1	-0.08858467
205	0x3d74e2e9	0.05978671
206	0x3dcdc397	0.100470714
207	0xbce8ac2a	-0.028402407
208	0x3cea95b3	0.028635835
209	0x3e419aa2	0.18906644
210	0xbd188b79	-0.037242386
211	0x3d15f5ab	0.03661124
212	0x3cfceeeb	0.030875644
213	0xbdea1068	-0.114289105
214	0xbd984619	-0.07435245
215	0xbda6e0ee	-0.08148371
216	0x3de1e000	0.11029053
217	0xbc990590	-0.01867941
218	0x3cb0a75d	0.02156418
219	0xbd464af6	-0.048411332
220	0xbccd700e	-0.025077846
221	0xbde8a7e4	-0.113601476
222	0x3dda2165	0.10650901
223	0xbdac18fa	-0.084032014
224	0x3e2a0799	0.16604461
225	0xbc4e8d5d	-0.012606946
226	0x3d29829c	0.041384324
227	0xbd058d44	-0.032605425
228	0x3d263a5c	0.040583
229	0xbd0aa329	-0.033847008
230	0x3e1a27ac	0.15054196
231	0x3d529861	0.05141485
232	0x3e27cc16	0.16386446
233	0x3c0acb55	0.00847133
234	0x3d8348f8	0.06410402
235	0x3de1c8b9	0.11024613
236	0xbe0e7349	-0.13911165
237	0x3cc2223d	0.023697967
238	0x3d63b79f	0.055595037
239	0xbcfd4a35	-0.030919174
240	0x3ccbcb54	0.024877228
241	0x3c8cf0f0	0.017204732
242	0xbbff314a	-0.007787858
243	0x3da9cfb9	0.08291573
244	0xbd367ea6	-0.044554375
245	0xbba070f5	-0.004896278
246	0xbdae3f4b	-0.08508166
247	0x3da43637	0.08018153
248	0x3e1304a9	0.14357246
249	0xbda5030d	-0.080572225
250	0x3d72b084	0.05925037
251	0xbdea111d	-0.11429045
252	0x3d1e280d	0.038612414
253	0x3d130db0	0.035901725
254	0x3d915301	0.0709591
255	0xbaa3e4b7	-0.0012504075

a2c_network.mu.bias f4 [18]
0	0xbd20afe4	-0.039230242
1	0xbd3b0fde	-0.04566943
2	0x3b6c9243	0.003609792
3	0x3d3ae54d	0.045628835
4	0x3aa2670f	0.0012390333
5	0x3cc6290e	0.024189498
6	0x3d90a916	0.070635006
7	0x3d88f86f	0.0668801
8	0x3d261c1b	0.040554147
9	0x3d16fa11	0.036859576
10	0x3da8b1c7	0.08237033
11	0x3d8fbf96	0.07018964
12	0xbdb9d0ef	-0.09073054
13	0xbd458dc3	-0.048230898
14	0xbda23c54	-0.07921663
15	0xbdbc7b2c	-0.09203181
16	0xbde81300	-0.11331749
17	0xbd9d6176	-0.07684605

exp_avg f4 [18]
0	0x3856c031	5.1200568e-05
1	0x3a82aacd	0.0009969115
2	0xba057e3f	-0.00050923595
3	0x38a3358a	7.782418e-05
4	0x3a61227e	0.00085882086
5	0x3b0b109f	0.0021219624
6	0x38df6397	0.00010652019
7	0xb9aeddf7	-0.00033353243
8	0x3a06d7a7	0.0005143829
9	0x3ae47d23	0.0017432313
10	0xb9df2fee	-0.00042569585
11	0xb991fbbc	-0.00027844112
12	0xb96e2482	-0.00022711049
13	0xb9eb9ed8	-0.0004494104
14	0xbad7f3bf	-0.001647584
15	0xb9f50d4d	-0.0004673995
16	0x39fe245a	0.0004847374
17	0xbabd49cb	-0.0014441548

exp_avg_sq f4 [18]
0	0x3761bafd	1.3454582e-05
1	0x37a24200	1.9342639e-05
2	0x3751b1c1	1.2498757e-05
3	0x37a9de75	2.024996e-05
4	0x37950049	1.7762317e-05
5	0x37916d0d	1.7336128e-05
6	0x37856f31	1.5906613e-05
7	0x37579728	1.2850192e-05
8	0x3761b41b	1.3452979e-05
9	0x379112bb	1.7294069e-05
10	0x375e993d	1.326791e-05
11	0x374fd661	1.2388075e-05
12	0x3791dbaf	1.7387645e-05
13	0x376325e4	1.35390765e-05
14	0x3788f094	1.6324491e-05
15	0x374fd6af	1.2388146e-05
16	0x37636d4b	1.3555701e-05
17	0x375e6266	1.3255141e-05

exp_avg f4 [128, 66]
0	0xb6292955	-2.520702e-06
1	0xb61b940e	-2.318298e-06
2	0x38438657	4.6616737e-05
3	0x382d48a7	4.1314077e-05
4	0xb7b6f24d	-2.180892e-05
5	0xb8b3a16b	-8.5654516e-05
6	0xb5b17856	-1.322255e-06
7	0xb5602eb6	-8.3514476e-07
8	0xb8a2e93e	-7.768207e-05
9	0xb8886896	-6.504466e-05
10	0x3911e70d	0.0001391435
11	0x37a4e27f	1.9655794e-05
12	0x388bccdf	6.666197e-05
13	0x36c06c2d	5.734639e-06
14	0x37836b96	1.5666516e-05
15	0xb7a10899	-1.91967e-05
16	0xb6bb4b41	-5.581795e-06
17	0x38143195	3.5332127e-05
18	0x36637c75	3.389808e-06
19	0x3606d46b	2.00912e-06
20	0xb5ba02d6	-1.3858905e-06
21	0x37a15cfd	1.9235997e-05
22	0x373348d6	1.068619e-05
23	0x36c334a8	5.817583e-06
24	0x37c62950	2.3622677e-05
25	0x378860c2	1.625752e-05
26	0x37cacc85	2.4175513e-05
27	0x37c55a7b	2.3526363e-05
28	0x37adb4b2	2.070735e-05
29	0x37b8996a	2.2005948e-05
30	0x39050c67	0.00012688489
31	0x39fe224c	0.00048472208
32	0x3a34c7e9	0.0006896244
33	0xb8644f87	-5.44335e-05
34	0x383493ec	4.3053107e-05
35	0x3a0b131f	0.00053052785
36	0x386d00bd	5.650589e-05
37	0x39b02abe	0.0003360118
38	0x39a66713	0.00031738784
39	0x391e5c80	0.00015102513
40	0x3a1228cf	0.0005575539
41	0x39f1c758	0.00046115625
42	0x37ab513f	2.0422622e-05
43	0x3939c84c	0.00017717591
44	0xba0e262e	-0.00054225593
45	0x38b13ea5	8.451686e-05
46	0x3896e27f	7.1947456e-05
47	0xb8ad470e	-8.262518e-05
48	0x39136203	0.00014055525
49	0x383a0c76	4.435746e-05
50	0x393be38e	0.0001791848
51	0xb82d13db	-4.1264906e-05
52	0x36ab5472	5.106028e-06
53	0x38de8653	0.00010610805
54	0x383366ff	4.277285e-05
55	0x38c62a5f	9.449268e-05
56	0x381dd9ac	3.763444e-05
57	0xb795ddce	-1.786547e-05
58	0x3889a970	6.564229e-05
59	0x37d54728	2.5424713e-05
60	0x38590d27	5.174908e-05
61	0x38422f30	4.629715e-05
62	0x37894e2d	1.6368076e-05
63	0x3872af24	5.786041e-05
64	0x383d40ab	4.512134e-05
65	0x381077aa	3.444372e-05
66	0x3495060f	2.775782e-07
67	0x373e82f9	1.1355377e-05
68	0x39c67bd2	0.00037857756
69	0x387857c2	5.920954e-05
70	0xb79743b9	-1.8032139e-05
71	0xb90650b3	-0.00012809299
72	0xb546d6ca	-7.4073307e-07
73	0x34157e4d	1.3922654e-07
74	0x39977797	0.00028890066
75	0xb9171027	-0.000144065
76	0xb9263f6d	-0.00015854622
77	0x379dc39b	1.8806944e-05
78	0xb7c8553f	-2.3881554e-05
79	0x387d7663	6.0430157e-05
80	0x391144b5	0.00013853873
81	0xb939f4fc	-0.00017734239
82	0xb92a2723	-0.00016227043
83	0xb88bafb6	-6.660765e-05
84	0xb8279a02	-3.9959334e-05
85	0xb64d55d1	-3.0597332e-06
86	0xb836f3c3	-4.3619202e-05
87	0x38297c71	4.0408635e-05
88	0xb892dfae	-7.003486e-05
89	0xb8a2ab6d	-7.7566925e-05
90	0x394cfde1	0.00019549533
91	0x38f2d20e	0.00011578585
92	0x397cd938	0.00024113513
93	0x3927ad5a	0.0001599094
94	0x3938a522	0.00017609124
95	0x394b65c0	0.00019397493
96	0xb8aeff88	-8.344563e-05
97	0x3a5de536	0.0008464636
98	0xbaf5261c	-0.0018703374
99	0x3a52ae81	0.00080368674
100	0x3ac2889f	0.0014841742
101	0x3b0cc619	0.002148038
102	0x3bb21ba7	0.0054354253
103	0x3b9ea88b	0.004841869
104	0x3bad1d70	0.0052830502
105	0x3bc17ccb	0.005904769
106	0x3b912179	0.004429039
107	0x3ba328ab	0.0049792132
108	0xba521ba8	-0.00080149854
109	0xbb07f069	-0.002074266
110	0xba8fbd58	-0.0010966463
111	0xba66b748	-0.0008801115
112	0xb9df57b1	-0.0004259921
113	0x38a67b42	7.9384554e-05
114	0xb84354e7	-4.6570694e-05
115	0x396e05f5	0.00022699668
116	0x391c8b9f	0.00014929332
117	0xb99e16c6	-0.00030153076
118	0xb9636091	-0.00021684381
119	0x3744e76f	1.1736395e-05
120	0x3a12400a	0.00055790006
121	0x39d2ab14	0.00040181784
122	0x3a0524d2	0.0005079034
123	0x3a24f5eb	0.0006292748
124	0x399a1a67	0.0002939284
125	0x39d32904	0.00040275615
126	0x39ae82a6	0.00033285207
127	0x3807fe2d	3.2423228e-05
128	0x39c9c0c2	0.00038481323
129	0x398b6681	0.00026588517
130	0x39b26a73	0.00034030117
131	0x39cf6d85	0.00039563715
132	0xb5dfe924	-1.6682648e-06
133	0xb5bf4221	-1.4249855e-06
134	0xb8b3a225	-8.565587e-05
135	0xb7938f24	-1.759042e-05
136	0xb7b9ffbb	-2.2172802e-05
137	0x3694ede3	4.4384374e-06
138	0xb5e4cfb6	-1.7047776e-06
139	0xb4429b2d	-1.812411e-07
140	0xb8ea0a37	-0.00011159892
141	0xb8876321	-6.455766e-05
142	0x381f553f	3.7987946e-05
143	0xb72df116	-1.0367736e-05
144	0x38274941	3.9884126e-05
145	0xb7a60f5e	-1.9795898e-05
146	0xb7c8adb5	-2.3922747e-05
147	0x381ad39f	3.691355e-05
148	0x380cdc73	3.358391e-05
149	0x3658b923	3.2294272e-06
150	0xb799cd64	-1.8334664e-05
151	0xb7fcef5b	-3.01522e-05
152	0xb7312710	-1.0559117e-05
153	0xb70a1584	-8.2304505e-06
154	0x37072346	8.05484e-06
155	0x3769bc13	1.3931672e-05
156	0xb8265786	-3.9658997e-05
157	0xb82b3342	-4.0817315e-05
158	0xb7cd9d89	-2.4511262e-05
159	0xb7e12017	-2.6837033e-05
160	0xb7faef50	-2.9913761e-05
161	0xb870b4ae	-5.738873e-05
162	0x390b2a82	0.00013271908
163	0xba11fd58	-0.0005569062
164	0x3a5ac1e4	0.0008344932
165	0xb88383ad	-6.271093e-05
166	0xba0eea74	-0.00054518064
167	0xb8d3bf60	-0.000100969104
168	0xbafb0a9e	-0.0019152944
169	0xbabf6873	-0.0014603272
170	0xbae68d5a	-0.0017589733
171	0xbabe9e33	-0.0014542997
172	0xbab09535	-0.0013472202
173	0xba92ee29	-0.0011209893
174	0x39088c8d	0.0001302233
175	0x3a6649bd	0.00087847916
176	0x3904647d	0.00012625936
177	0x39a6161a	0.00031678454
178	0x390bc045	0.00013327699
179	0xb943d8d1	-0.0001867742
180	0x38aef975	8.3434315e-05
181	0xb8b9d48a	-8.861076e-05
182	0x38c76ed0	9.5097e-05
183	0x389581d1	7.129054e-05
184	0x36d20d41	6.2600307e-06
185	0xb6a28ef1	-4.844617e-06
186	0xb98f9d25	-0.00027392167
187	0xb91adcc1	-0.00014768822
188	0xb9818e95	-0.0002471103
189	0xb9236ca6	-0.00015585366
190	0xb913fc8e	-0.00014113096
191	0xb915ddf9	-0.00014292439
192	0xb8931bd7	-7.014692e-05
193	0xb7a23a25	-1.933898e-05
194	0xb7d410a6	-2.5280122e-05
195	0xb80f4371	-3.4156667e-05
196	0xb83b3bd0	-4.463998e-05
197	0xb900769c	-0.00012251217
198	0xb5c909d8	-1.4978532e-06
199	0x350d2164	5.2575183e-07
200	0x3978630d	0.00023688022
201	0x38f95696	0.00011889373
202	0xb806fff5	-3.2186468e-05
203	0xb8ed6165	-0.00011319182
204	0xb5a65c49	-1.2394822e-06
205	0xb61d01be	-2.3395837e-06
206	0x3929365a	0.00016137343
207	0xb954985a	-0.00020274651
208	0xb88c3408	-6.685412e-05
209	0xb7b3a97b	-2.1417383e-05
210	0x380db3ca	3.378446e-05
211	0x38386bb6	4.3969332e-05
212	0x38ac9edc	8.231189e-05
213	0xb8bfe09a	-9.149425e-05
214	0xb8537dd3	-5.0423503e-05
215	0xb8546e57	-5.06475e-05
216	0x370fb72d	8.566113e-06
217	0x380c8160	3.349909e-05
218	0x37ed3af0	2.8280047e-05
219	0x3884b96f	6.32879e-05
220	0x37232a40	9.725394e-06
221	0xb624b578	-2.4543533e-06
222	0x38d76e60	0.00010272558
223	0x38932a8b	7.0174305e-05
224	0x3900755a	0.00012250748
225	0x38ad6189	8.26745e-05
226	0x38ceef22	9.8673874e-05
227	0x38c0d5e7	9.195116e-05
228	0x3924b817	0.00015708838
229	0x39f253cc	0.0004622027
230	0xb9cc450f	-0.00038961365
231	0x39b693b0	0.0003482378
232	0x3aa652c4	0.0012689461
233	0x3a45fb14	0.0007552367
234	0x3b210de3	0.0024574928
235	0x3b2a1147	0.002595024
236	0x3b80118c	0.0039083418
237	0x3b43b903	0.0029864914
238	0x3b5473d5	0.0032417674
239	0x3b5578ab	0.0032573144
240	0xba26cf0b	-0.0006363249
241	0xba3dcfda	-0.000724075
242	0xba9557ff	-0.0011394023
243	0xb9bcfdbf	-0.0003604721
244	0x386d1013	5.6520174e-05
245	0x3853e72c	5.0521616e-05
246	0x38a1d8b9	7.717446e-05
247	0x3913c5ad	0.00014092652
248	0x394ecaca	0.00019721236
249	0xb9286575	-0.00016059524
250	0xb740a1aa	-1.1481732e-05
251	0xb84c4e77	-4.8710466e-05
252	0x39922d0f	0.0002788086
253	0x39a25f86	0.00030970218
254	0x39f63ed5	0.0004696759
255	0x39d1d2c2	0.00040020613
