logs/rl_games/hexapod_flat_direct/2025-11-14_22-48-05/nn/last_hexapod_flat_direct_ep_1050_rew_-0.15016624.pth (torch, 546100 bytes, 33 tensors)

value_mean_std.running_mean f8 [1]
00000000: 8c71 9143 5cc8 bdbf
-0.11633850717175259

value_mean_std.running_var f8 [1]
00000000: c35c 179b 8bc2 953f
0.02124994405843662

value_mean_std.count f8 []
00000000: 0000 0002 009c a841
206438401.0

a2c_network.sigma f4 [18]
00000000: e852 8dbf 85a9 c3bf c3b9 3abf 626e 01bf
00000010: 7b1d e9bf d0fd e2bf ef8a 083d d518 e93d
00000020: be35 ca3d f5df fabf 1e9f 563e f06e 5ebc
00000030: 1d1f a23e 32c9 2d3d 3c56 753e 2c98 893d
00000040: 9d16 b73e dd84 7f3e
-1.1040926 -1.5286108 -0.729397 -0.50559056 -1.8212122 -1.7733707 0.033335622 0.113816895
0.09873532 -1.9599596 0.20959136 -0.013576254 0.31664363 0.042428203 0.23958677 0.067184776
0.3575944 0.24953027

a2c_network.actor_mlp.0.weight f4 [128, 66]
00000000: 9022 a53e e4e6 b3bd 7434 3bbe 5308 8cbe
00000010: 5ee0 533d 9993 6f3d f3cd 463e b627 ab3c
00000020: 4989 31be 382b 35be a4f0 63be a328 8e3e
00000030: 7cb4 c4bd 2628 a03e 89a7 c73d ac94 b5be
00000040: a3c2 8e3e 937a e33d 9f6f a53d b4e9 4fbd
00000050: 3cbb 033d 2380 e0bd 6333 fcbd 77d0 353c
00000060: cdfc 553d c66c dbbd 2265 bd3d 1855 a83d
00000070: 7eeb 9bbd d3b4 debd e644 363d 7e8f a3bd
00000080: b4b8 d53c 80a3 8cbe 089b 59bb 9823 303d
00000090: 27c8 5a3c 72e4 4ebd 252f 2ebd 38e7 a6bd
000000a0: 93b5 c8bd 918b 53bd c07e aabd 8c67 46bc
000000b0: e2e5 3b3d 057a a1bb 5c1b 103b e2d9 cbbd
000000c0: b0de 45be d7a5 423d 1236 fc3d 05fe 54be
000000d0: b23f 823d c7d9 25bd 6854 fc3c 3614 53bd
000000e0: e216 d43b ef80 4dbd 6448 3dbd 5efe 13bd
000000f0: 87c9 48bd 4d30 f2bd 7a2b 903d 8fe2 b2bd
00000100: 0674 f73d 32af 3c3c 4b0f 0e3e 5455 8a3d
00000110: acf1 74be 814c efbd 4d42 3fbe 55ea a5bd
00000120: e757 1b3e 3502 233e abc4 723c 4c29 bcbd
00000130: 43b0 383e f94d afbe cbe3 963d ea79 8b3d
00000140: d49e 8b3b bf90 7b3e 351c 1e3e dace 2b3e
00000150: db9a 5d3d 0069 c5bd 99eb 33bc 7b64 78bd
00000160: ef8c c13c 31c3 11be aac7 d03d 3f3b fd3d
00000170: 0b63 763d 818d 70bd 91b7 013e e0e5 233d
00000180: d4c7 0abc 3d50 a4bd 2073 3c3d 6ce0 b2bd
00000190: 5ea3 0cbd 7409 8f3d 96f4 4f3d 21ec 20bd
000001a0: 4cd5 a6bc e325 40bc 5cdf 6f3d 657f 00bd
000001b0: 356d 4abd 3b32 3abc b534 83bd 8d89 c33c
000001c0: d834 613d 9100 b5bd 8e4a b23d 7680 ea3d
000001d0: ef1d efbc c564 ad3c 72ad c03d bb51 213e
000001e0: bee9 853d 61e5 7fbd a587 e73d fa65 033e
000001f0: 395a 01be 0fd5 4cbd 6f49 7c3d d30a 483e
00000200: 7c03 8ebd 198c c4bd f577 d2bc 9f52 45bd
00000210: e140 8abc fee2 f53d 86d4 6dbe 9521 89bd
00000220: 4f95 a13d 9cda 923b 9cbd 16bd 46ef 43bd
00000230: 3ebd 29be 0d2d 58be d7d9 53bc 091a e83e
00000240: 6e61 aebd 157c 803d 4d3e f7bd b761 ccbc
00000250: b9a6 c1bd 58a4 42bb 7fc6 3fbb a46b 0cbe
00000260: 43d0 69bc 457e 7cbe 8819 f9bd a477 69bb
00000270: 6d8d 823c 994a edbd 71fc 26bc 4d4a f63d
00000280: 9c44 3a3e a10f ab3d cd5d bdbd 1642 aebd
00000290: 2b12 a0bd 46be b03d c82b be3c bbf8 f13d
000002a0: 563d 3d3d c4f1 2e3d 0ee0 8fba bd8c 81bd
000002b0: 4b7c f1bd dd15 0abe 5739 783d d13f 97bd
000002c0: b4b6 88bc 3dcb 42bd 0121 7a3b 5b35 9dbd
000002d0: cfcb 55be b37d 8e3d 3687 93bd 1fd5 c73d
000002e0: 20a9 d1bd ed69 d8bd cffd 46ba 1cba e3bd
000002f0: a510 58bd 1487 65be 230e d13d ee3f 1bbe
00000300: c329 833c 7935 47bd 2b87 f23d 51cd 81bd
00000310: 0a7e a63d 3e7b 16bd 2aca ef3d 75c2 9a3e
00000320: 5dbd 60be aac5 3fbd 607f 3f3d 92d0 42be
00000330: 49dc f53e 3eec a4bb 70c3 063e 23fc 2a3d
00000340: 5ab5 e53d 0c98 3cbd 648b 2dbc df9d 6d3d
00000350: 6b2a 9a3d af85 a8bd a280 ddbc 6009 333c
00000360: 03c9 ae3d 8edb 9b3d b39b 873d 9477 8b3d
00000370: 6072 9c3d 1af0 413e ef7f 3abc 4018 0dbe
00000380: f404 53be 7335 0dbe 82c0 53be 28f1 8cbe
00000390: bcc9 bfbb c002 3ebd c566 58bd ef58 bcbd
000003a0: 9e7f e6bc a0b1 cf3a b49d c23b 5c94 0cbd
000003b0: c8da 62bd b554 c3bc ba7a aebd a03f e23d
000003c0: 774a b1bc 816c 0c3d 4ae0 09bd 9419 9dbc
000003d0: e371 713d 594c 063d faf1 f2bd 4649 ac3d
000003e0: 5a9c 1e3e 09e8 663d fbe1 ce3d 00e2 3b3e
000003f0: 7c6b 11bc 776e 2bbb 9086 16be 8c04 77bd
0.32252932 -0.08784273 -0.18281728 -0.273501 0.051727645 0.05849037 0.19414501 0.02089296
-0.17337526 -0.17692268 -0.22259766 0.27765378 -0.09604737 0.3128063 0.09748752 -0.3546499
0.2788287 0.111073636 0.08077931 -0.050759986 0.032160982 -0.1096194 -0.12314489 0.011097065
0.052243043 -0.10714106 0.09247805 0.08219355 -0.07613276 -0.10874333 0.0444993 -0.07986353
0.02608905 -0.2746849 -0.0033203978 0.043002695 0.013353384 -0.05051083 -0.04252543 -0.0814957
-0.098002575 -0.051646773 -0.08324957 -0.012109648 0.04587353 -0.004927876 0.0021988964 -0.09953667
-0.1932323 0.04752144 0.123150006 -0.20800026 0.06359805 -0.04049089 0.030801967 -0.051532947
0.0064724544 -0.05017179 -0.046211615 -0.036131255 -0.049020316 -0.11825619 0.070395425 -0.08734619
0.120826766 0.011516379 0.13873021 0.06754556 -0.23920316 -0.11684514 -0.18677635 -0.08101336
0.15170251 0.1591881 0.014817397 -0.09187564 0.18035989 -0.34239176 0.07367667 0.06810363
0.004260877 0.24566935 0.15440448 0.16778126 0.05410276 -0.09639168 -0.010981464 -0.0606427
0.023626773 -0.14234616 0.10194333 0.12364816 0.06015305 -0.0587287 0.12667681 0.040014148
-0.008470494 -0.08023117 0.04600823 -0.08734211 -0.034335487 0.06984225 0.050770365 -0.03928769
-0.02036538 -0.011727783 0.05856262 -0.031371493 -0.049420554 -0.011364515 -0.064065374 0.0238693
0.054982036 -0.08837999 0.087056264 0.11450283 -0.029189078 0.021166215 0.09408082 0.15753834
0.065387234 -0.062474612 0.11305169 0.1283187 -0.12632073 -0.050007876 0.06159347 0.19535379
-0.06934258 -0.09597034 -0.025691966 -0.048174497 -0.01687664 0.12006186 -0.23225603 -0.066958584
0.078898065 0.0044816267 -0.03680192 -0.04783561 -0.16576096 -0.21110936 -0.012930355 0.45332363
-0.08514677 0.06273667 -0.1207243 -0.024948938 -0.09455628 -0.0029700007 -0.00292626 -0.13712937
-0.014270845 -0.24657543 -0.12163073 -0.003562429 0.015936578 -0.11586494 -0.010192023 0.120258905
0.18190235 0.0835259 -0.09246407 -0.08508699 -0.07815965 0.08630042 0.023214236 0.1181502
0.046201073 0.042711034 -0.0010976808 -0.06325672 -0.11791285 -0.13484903 0.06060156 -0.07385219
-0.016688682 -0.047557104 0.0038166645 -0.076761924 -0.20878528 0.06957569 -0.07203524 0.097574465
-0.10237336 -0.10567079 -0.0007590921 -0.11119482 -0.05275025 -0.2241481 0.102077745 -0.15161106
0.016011124 -0.04863498 0.118421875 -0.06337989 0.08129509 -0.036738627 0.117084816 0.30226484
-0.21947236 -0.046819367 0.046752334 -0.19024876 0.48019627 -0.005033045 0.13160491 0.041744363
0.11216231 -0.04604344 -0.010592315 0.058011886 0.07527622 -0.08228623 -0.027038876 0.010927528
0.08534434 0.07610236 0.06621494 0.06809917 0.07639003 0.18939248 -0.011383041 -0.13778782
-0.20607358 -0.1378992 -0.20678905 -0.27527738 -0.005852906 -0.04638934 -0.052832384 -0.0919665
-0.028137024 0.0015845783 0.00593921 -0.034321174 -0.055384427 -0.023844102 -0.08519502 0.11047292
-0.021641953 0.034283165 -0.033661164 -0.019177236 0.0589465 0.032787655 -0.118625596 0.08412413
0.15489331 0.05637363 0.10101696 0.18347931 -0.008875724 -0.0026158371 -0.14699769 -0.06030707

a2c_network.actor_mlp.0.bias f4 [128]
00000000: ba85 533d 572c 073d 71b2 b83d df98 61bd
00000010: 65d0 f43d fb54 a9bd 75cc c3bc 8413 503e
00000020: a5f7 333d c0b7 2e3b 7440 96ba f38c c03d
00000030: f08d d0bc ea92 e73d 6842 02be 4136 a53d
00000040: d49f a33d fe03 ef3d 7d13 1d3e bbdd 0e3e
00000050: 8608 68bd d7f2 7a3d 02bb bd3d bc09 b53d
00000060: d10d 543b 7255 cb3d 491b 1cbd 9bbb f43d
00000070: 00be 0e3e ea6b 1c3a 14dc 093e 133f 8dbd
00000080: 3bb7 f53d 404d 723d cfa4 1abe ef22 063d
00000090: f26b c13c 5aa3 193e 6f07 01bd ad19 43bc
000000a0: 1b46 b43c c371 663d a893 a6bc 2466 3b3d
000000b0: 9dbc c0bd 32c6 0f3e e69c a7bd 8c18 2e3d
000000c0: 48a0 0b3e 282b 943d d51a d9bd c390 9b3d
000000d0: dbae 243c 31f7 743d 0f8e dcbd 22b7 653d
000000e0: 742d e03d 1408 193d 97e3 a83d e397 253e
000000f0: 863c f23d d1c7 56bc 5019 293e 2882 6cbd
00000100: 22f5 713d c831 fa3d f37c 6c3e acc3 f43d
00000110: ee9a 3a3e efaa 943d 958a 573e d453 9c3a
00000120: 9231 093e 842a 4f3a ce83 f13d 502b 00be
00000130: d180 32be ef29 bb3d 8185 12bd eba7 aebd
00000140: e491 2fbe 087f b5bd bcb0 d33c a72f 2f3e
00000150: 0b36 0b3e 8555 6e3d c5c1 a5bd e346 813d
00000160: a53b 21be 8c5a 273e ee4a d83d eacd 43bd
00000170: 0c70 b43d 6aad f53d 36bc ab3d a6c1 89bc
00000180: e557 123e 48af 25bd 7232 e9bc 6adb 183d
00000190: 3176 5c3d d8e1 4fbe 1123 c43d 409e 11bd
000001a0: bd8c b93d 260c 1c3e 4304 823e 4e7e 9a3d
000001b0: 83bb 513e de10 f73d 0c0a 183e 4295 ac3d
000001c0: 2174 ee3d 0e50 873d c63d ef3d c67d a23d
000001d0: e699 c03d a2e5 bc3d 09a9 e03d f3d5 b03b
000001e0: ce39 0c3e 1f0d 8cbc 40ac 293e 3fbf 123d
000001f0: 1dfd 2d3c fe93 063e 11bf e9bd d04e 853e
0.051641203 0.03300127 0.0901841 -0.05507743 0.119538106 -0.08268162 -0.023901204 0.20319945
0.043937344 0.0026659817 -0.00114633 0.09401884 -0.025458306 0.113073185 -0.12720644 0.08066989
0.07989469 0.11670683 0.15339465 0.13951771 -0.056648754 0.061266746 0.092641845 0.08839747
0.0032356868 0.09928407 -0.03811196 0.119498454 0.13939667 0.0005967008 0.1346286 -0.06896796
0.11997839 0.059155703 -0.15101932 0.03274816 0.023611043 0.1500372 -0.03150123 -0.011907977
0.022006085 0.056260835 -0.02033408 0.045751706 -0.09410975 0.1404045 -0.08184223 0.04250388
0.13635361 0.07234794 -0.10600821 0.075959705 0.010051454 0.059806053 -0.10769283 0.056082852
0.109461695 0.03736122 0.08246534 0.16171221 0.1182795 -0.013109163 0.16513562 -0.057741314
0.059071667 0.12216526 0.2309454 0.11951384 0.18223163 0.072591655 0.21048959 0.0011926838
0.13397816 0.00079027587 0.11792718 -0.12516522 -0.17431952 0.091388576 -0.03577185 -0.085281216
-0.17145497 -0.0886212 0.02584111 0.17108022 0.13594835 0.058187027 -0.08093599 0.06312349
-0.15745409 0.16343135 0.10561167 -0.047803797 0.08810434 0.11995967 0.08385508 -0.016815972
0.14291342 -0.040450364 -0.028466437 0.037318625 0.053823654 -0.20300996 0.09577001 -0.03555131
0.09060047 0.1523901 0.25393876 0.07543622 0.20481686 0.12063764 0.14847583 0.08426906
0.116432436 0.06607066 0.11681704 0.07934146 0.09404354 0.092234865 0.10969741 0.0053965985
0.13693926 -0.0170961 0.16569614 0.035826918 0.010619429 0.13142392 -0.11413396 0.26036692

a2c_network.actor_mlp.2.weight f4 [128, 128]
00000000: 38f0 543d fd9b d13d 2513 87bd 8a4a c5bc
00000010: 1fce a7bd ca6a a5bd f774 203c 4a1e f5bc
00000020: 80a6 733b 8e4f cebd b417 9f3c dc42 14bd
00000030: 737d 093d c59d 03bd 7d71 3cbd cc43 ff3c
00000040: 22e2 01bd ec82 11be 3d34 49bc 4581 03be
00000050: 109a bf3d d2d5 883d 4a97 f3bb e53e 87bd
00000060: 6058 643d fe03 f1bd 42c1 81bc 49e1 d03b
00000070: 562a 573d ec81 5f3b 20a6 1f3d ddcd 373b
00000080: 3ec5 01be f3c3 783d 78b4 0fbc 9036 253d
00000090: 514e c53b fde8 253d cb29 8abc 5602 293d
000000a0: a1c9 2bbc a44e 8fbc 2f37 3abe 81d1 253e
000000b0: b5ee 993d f39a 07be 56ef 12bc d0df ef3d
000000c0: 813a 11bd e9ee 233d d97c a23c 3c8c 08ba
000000d0: 31b6 4c3e 5b90 583c edda 713c 1b65 323c
000000e0: 78ae 4a3d c90b c6bd c6c2 14bd 84a5 afbc
000000f0: 06b0 8bbd 7251 c13d fc31 48be be6a 88bd
00000100: a734 dfbd 97d8 9b3c a13a d93b 0322 95bd
00000110: d44f 9e3d 1655 34bd 84b6 cbbd 7ec1 e93c
00000120: 0bcd 8abd 0279 0aba c6c3 86bd 0bdf 933d
00000130: f2ed 2f3c 2149 c63d 53b4 9fbd 0e6e 9dbd
00000140: b56e 07bd 0a6b f83c bbf9 febc 6444 9bbd
00000150: 4d14 a73d f9ed 06bd a655 0e3c c6ed 0dbe
00000160: 1ab9 1dbb 1daa c33c b729 793d 24fa 0abe
00000170: 8c51 ebbd 4f33 d13c 55f0 923d 6d69 c13b
00000180: 20cd abbd 6aa1 babd 7900 0f3d 5925 263c
00000190: 0740 9d3d c424 80bd 990b 03bd 069d a93d
000001a0: 58b4 cebb dbdb 06bc 178b 6c3d 836b de3c
000001b0: 66be df3b 6ca5 18be d4d9 1e3e 6d10 b4bd
000001c0: 1a09 db3d 376c 883d dd64 13be 31d7 c6bd
000001d0: abbc dbbc 002f b23d 1251 5f3d d53f 1c3d
000001e0: 7520 bf3c 9b75 563d c927 0e3d 1f71 6cbd
000001f0: 388e 8f3d 4ad9 d0bc ab49 813d a306 a2bb
00000200: 719e 523d 901d f2bd 579c 57bb e28d b1bd
00000210: 139d aabb 3c7d 673d cb60 e8bd a79a 00be
00000220: 01c3 90bd b24e feba 1520 6fbc cf96 49bd
00000230: c710 8fbc b309 72bd 2596 e4bb 317d 413c
00000240: c2cf 0e3d 141e 15bd cd1b 98bd f58e af3d
00000250: 5bb6 a73b eb26 76bd 5ea5 2c3d c32b 4fbc
00000260: 84c1 ab3c 16c8 683d ca28 083d 5f78 ac3d
00000270: 1261 2d3d c89a fb3d 78ac b4bd d1c2 d73b
00000280: 128f a73c 3216 24bc e18b fc3d 2f06 3bbd
00000290: 96d7 a33d 1cf0 3dbe 7e37 1fbc e202 273d
000002a0: 1322 3bbd 108f b9bc 623a 043e 7ed7 55bd
000002b0: 4146 c93c 86c3 8bbd 81d2 443d 6fb9 04bd
000002c0: 79db 0abe 4aca ecbd bb3f 2f3d f1c9 70bd
000002d0: 6b5e d2bd e3bc 4d3c 8f7a a43b f557 b3bd
000002e0: e758 15bd 807c 863d 9ecb 19bc 9023 10be
000002f0: 6820 aabd 14de 013e 20d2 1dbd 2326 78bd
00000300: 02af 93bd 2b28 2cbd 0f14 3b3d 10df be3c
00000310: d8ef 95bd f417 07be 58f8 14be b779 863c
00000320: a723 9d3c b6e6 a73d 6fb5 fdbc 0df1 bf3b
00000330: 6c4e 123d 2592 7ebd e9c8 953d 0508 943d
00000340: 0fe1 783d d72a 903d f331 64bc 56d7 95bc
00000350: 4b27 e13d c39b dfbd 58b6 243d 21ef a0bd
00000360: 62c6 8bbc 2438 e8bd 2db1 a4bd 2b0f 723d
00000370: 9ebe 1abe 1e1a 543d 263a 183d a31c d33d
00000380: 87f2 9ebd 7839 cfbd 4580 9b3c b89f 303b
00000390: 3497 f83c 8d37 833d 257b 143b 4681 c03c
000003a0: 8751 fabd c30b 07be 0530 26be 3249 9bbd
000003b0: 0cbe 57bc bcf3 933d edd6 043d ad47 adbd
000003c0: 9be6 72bb e672 f53d 4716 82bc 65c7 263a
000003d0: 5d71 babd c483 203c a195 633d 6789 05bc
000003e0: 121c a0bd ee29 a03d 3206 23bd 54e8 00bd
000003f0: 7fac 7dbc 7fa5 5b3d f9ba f03c e432 62bd
0.051986903 0.102348305 -0.065954484 -0.024083395 -0.08193611 -0.08077009 0.009793512 -0.02992167
0.00371781 -0.100737676 0.019420482 -0.036196575 0.033566903 -0.032132883 -0.04600667 0.031160258
-0.031709798 -0.14210099 -0.012280521 -0.12842281 0.09355557 0.06681408 -0.0074338065 -0.06603793
0.055748343 -0.117683396 -0.015839223 0.0063745123 0.05253061 0.003410454 0.03897679 0.0028046288
-0.12672898 0.060733747 -0.008771054 0.040335238 0.006021299 0.040505398 -0.016865632 0.041261993
-0.010485084 -0.017493553 -0.18185113 0.161932 0.07516233 -0.13242702 -0.008968195 0.11712611
-0.035456184 0.040022764 0.019834923 -0.0005208885 0.19991376 0.013218011 0.014761669 0.010888363
0.049482793 -0.096702166 -0.036318563 -0.021441229 -0.06820683 0.094393626 -0.19550318 -0.066609845
-0.108987145 0.019024177 0.0066293036 -0.07281878 0.0773007 -0.044026457 -0.099469215 0.028534647
-0.0677739 -0.0005282314 -0.065803096 0.072202764 0.010737883 0.09681917 -0.07798066 -0.07687007
-0.033064563 0.030324478 -0.03112494 -0.07581404 0.08158169 -0.032941792 0.008687412 -0.13860235
-0.0024066628 0.023884827 0.060830798 -0.13571984 -0.11490163 0.025537161 0.07174746 0.0059024603
-0.08388734 -0.091128185 0.03491256 0.01014074 0.07678228 -0.062570125 -0.031993482 0.08281903
-0.0063081197 -0.008231129 0.057749834 0.027150875 0.006828117 -0.14906853 0.15512782 -0.087921955
0.10695095 0.06661265 -0.14393945 -0.09709013 -0.026823362 0.08700371 0.054520674 0.038146812
0.023330906 0.05235825 0.03470591 -0.05772507 0.07009548 -0.025494236 0.06312879 -0.004944639
0.051420633 -0.11822045 -0.0032899582 -0.0866964 -0.005206713 0.056515917 -0.11346587 -0.12558995
-0.07068444 -0.0019402115 -0.014595051 -0.049216088 -0.017464055 -0.05909128 -0.0069759064 0.011809633
0.034866102 -0.036405638 -0.074271776 0.08572189 0.005118174 -0.06009571 0.042149894 -0.012644711
0.020966299 0.05683144 0.033242024 0.084213965 0.0423289 0.122853816 -0.08821958 0.006584503
0.020453963 -0.010015057 0.12331367 -0.045660194 0.08000104 -0.18548626 -0.00971782 0.040774234
-0.045686793 -0.022651225 0.12912896 -0.052207462 0.024569632 -0.068244025 0.048052315 -0.032403406
-0.13560285 -0.11562021 0.042785387 -0.058786336 -0.10271915 0.012557241 0.005019493 -0.08757011
-0.036461737 0.06566715 -0.009386925 -0.14076066 -0.08306962 0.12682372 -0.03853047 -0.060583245
-0.072111145 -0.042030495 0.045673426 0.023299724 -0.07321137 -0.13192731 -0.1454786 0.01641546
0.01918204 0.081983015 -0.030970303 0.005857593 0.03571932 -0.062151093 0.07313711 0.07228092
0.060761508 0.07039421 -0.013927924 -0.018291157 0.10993823 -0.10918381 0.04021296 -0.0785811
-0.01706237 -0.11338833 -0.08041606 0.059096497 -0.15111777 0.05178272 0.03716483 0.103081964
-0.07761102 -0.10118383 0.018982062 0.0026950669 0.030345537 0.0640708 0.0022656408 0.023499142
-0.12222581 -0.1318808 -0.16229255 -0.0758232 -0.013167869 0.07224223 0.03243153 -0.08460937
-0.003706372 0.11984806 -0.015879763 0.00063621096 -0.091036536 0.00979704 0.05556262 -0.008150435
-0.07817854 0.078204975 -0.03980083 -0.031471565 -0.015483021 0.053624626 0.02938603 -0.055224314

a2c_network.actor_mlp.2.bias f4 [128]
00000000: 69d9 91bc b76c e5bd 521c 9cbb 8c0c 7a3a
00000010: 5281 653d 157a 8b3c 9759 6f3d a2fb c03d
00000020: ecf3 ebbd 4ec6 67bc 6477 d6bd 9393 f0bc
00000030: 0ee1 95bc 566b b4bd 47f6 62bd 69be 85bd
00000040: e99d 0e3c be3a 79bd 1948 063c aa2d 0dbd
00000050: 6867 2cbe a23d b03d 429b 033c 7e73 aabd
00000060: 4dd6 40be 83de 51bd 3480 12bc 16c6 b4bb
00000070: 94bd 5bbe f236 013d d76b b5bc b322 aebd
00000080: 1298 e73c 8377 853d 5fca 623d 9458 23be
00000090: a3a3 b13c f756 003d f772 0abe 86c1 24bd
000000a0: d1c9 813d 59db c7bc 2425 a83c d51e 3bbc
000000b0: 6090 273c 31bb 0fbd 2081 28be 70f4 73bd
000000c0: 649b 7bbc e8b9 dabb 001d 95bc bd96 f2bd
000000d0: ef54 4fbc 20ec 883d eb6f 10be a422 f93b
000000e0: ae14 703c 59f4 0fbd 9c03 c23d 06ec aabd
000000f0: 906e fabd b9d3 b83d 2141 873d d850 3e3d
00000100: 5904 1abd 5fbf 12bd d484 b83d cf4d b4bc
00000110: 6f92 723c 5d6e ab3c 2a3a a53d 78c7 a3bb
00000120: 330b 803d 7f7a f4bd ecf6 463d c47f 3cbe
00000130: cc9d f3bd f08c fabd 401f 5b3c 94d6 7b3d
00000140: 4251 433d 39cd 533d 9380 34bc 3827 9bbd
00000150: 9d75 e5bd 4559 8e3d 16fc 0ebe e68f f6bd
00000160: f4e2 453d e19a d23b c8de 10bd d88c 3ebd
00000170: e27f 8c3c dee3 fc3d 2e93 b13d 32d8 babd
00000180: 5efb 2d3c 8821 623c 9cf6 6a3d 5034 8d3d
00000190: 0971 c23c 30ad 08bd c626 d1bc 96c5 7cbc
000001a0: eeb0 8b3d caee 163d 1007 0bbd 6add 713c
000001b0: a456 bb3d 1e04 2fbd 3d93 a23c 4c5c acbd
000001c0: e16a 2c3d d3ed 2abc 7025 0b3c 046c 00bd
000001d0: 9142 8d3d 000a cdbd 7efd 63bd e65c 9cbc
000001e0: c2b7 6dbd dc90 643b 18fd 97bc 58d9 5b3d
000001f0: f4e7 c0bb 33b4 b43c 4dc2 de3c 628e d5bc
-0.017803865 -0.11202376 -0.004764118 0.0009538613 0.056031533 0.017025987 0.05843505 0.09422995
-0.11521134 -0.014146401 -0.10471991 -0.029367244 -0.018295791 -0.08809535 -0.05541065 -0.065304585
0.008704641 -0.060847037 0.0081959 -0.034467377 -0.16836321 0.086055055 0.008032622 -0.0832281
-0.1883175 -0.051237594 -0.008941699 -0.0055167777 -0.21459037 0.03154654 -0.022146149 -0.08502712
0.028270755 0.06516936 0.055368777 -0.15951759 0.021684473 0.031332936 -0.13520418 -0.04022362
0.063373215 -0.024396585 0.020525523 -0.011420925 0.010227293 -0.03509063 -0.16455507 -0.059559286
-0.015356872 -0.006674994 -0.018202305 -0.11845157 -0.012654527 0.06685662 -0.14105193 0.0076030064
0.014653368 -0.035145137 0.09473345 -0.08345799 -0.122281194 0.09024758 0.06604219 0.046463817
-0.037601802 -0.035827037 0.0900971 -0.022009758 0.01480542 0.020926649 0.080677345 -0.0049981438
0.06252136 -0.11937427 0.048575327 -0.18408114 -0.11895332 -0.12233913 0.01337415 0.061483935
0.047684915 0.051709387 -0.011016983 -0.0757584 -0.112040736 0.069506206 -0.1396335 -0.12039165
0.048312142 0.0064271544 -0.03536871 -0.046521038 0.017150823 0.1234815 0.086706504 -0.09123267
0.010619013 0.01380194 0.05736409 0.068947434 0.02373554 -0.03336829 -0.025531184 -0.0154279675
0.06820856 0.03684882 -0.033942282 0.014762262 0.09147385 -0.042728536 0.0198456 -0.08416042
0.042094115 -0.010432678 0.0084928125 -0.03135301 0.06897462 -0.10011673 -0.05566167 -0.019087266
-0.058036573 0.0034876382 -0.018553302 0.053674072 -0.005887026 0.022058582 0.02719226 -0.02606887

a2c_network.actor_mlp.4.weight f4 [128, 128]
00000000: e684 3ebc 0cbc 6abd 612a 25bd ef5f be3b
00000010: b075 0f3d 54d0 01be 0fa6 39bd 6f1a 833d
00000020: 8ce7 45bd 8dcf 003d 8449 593d 40e7 4b3c
00000030: 9bd4 4a3c 20e8 b5bd e433 a63b 3b43 b33c
00000040: d38a 8d3b 9f8d 0dbd e19e 35bd 3a99 abbd
00000050: 3b06 f63c ca07 653d 58f9 ac3c d2e6 863b
00000060: cdff 1ebd 80c6 663d b36c 173c e098 1cbd
00000070: 93bf cbbc 18f6 54bd d046 c8bd 89f5 c83d
00000080: 9dd9 4b3d a539 99bd dbfe 29bc 2fe4 183d
00000090: ff9e d4bc 34d5 efbc 4800 dbbd 6690 94bd
000000a0: 1cf4 babc 7a84 2bbd 0705 6bbd b55f 5dbd
000000b0: b14c 4d3d 6593 63bd f73d 04be 5b9f 623d
000000c0: dc8b 7b3d 85b8 39bd 4db2 5abb caf2 a3bc
000000d0: 5ec5 303d 9b7c 02bc f8b4 dabd 1979 993d
000000e0: d38c a2bd e804 4b3b 2b7a ccbc 121f a0bd
000000f0: 4862 39bc 910c 003d a731 8e3b 2222 0d3e
00000100: d0ff e73d 2cf1 933d 5f54 2ebd d703 4abd
00000110: b178 cc3d 7661 a83c 90e4 a53d bf03 ef3d
00000120: f295 ebbc e81d 0f3d b19d 0d3d 173e d2bc
00000130: 0026 8bbd 7776 afbb 4581 b73d 79f1 2bbc
00000140: 4524 b53c b542 c73c 1e42 183d 276d be3d
00000150: 9804 a43b da74 d2bb 7afa 6cbd 4451 f2bc
00000160: 1f07 94bd a50e 353d 1f25 313d 99ae 24bd
00000170: 47ac 283d df31 25bc 23f7 82bd d603 06bc
00000180: a569 8abc 1c20 20bd 7560 c03d b994 c03c
00000190: 233d 9abd 0b8a 45bb afcb e5bc 97da abbd
000001a0: 6934 6b3d 6485 453c a1c0 bcba 4c04 dbbc
000001b0: f134 86bc 7d8f 8cbd b1e4 67bc d57c 36bd
000001c0: d08a cb3c b0e0 473c 43b1 dbbd 17b6 b9bd
000001d0: a80d 3fbd 99ed 2c3d 1d11 a13d cc1f 0d3d
000001e0: 2d02 513d d3e1 713d 9aaa 7dbd 26a5 c33d
000001f0: 7dab b0bd 42d6 dcbc 90e1 013c 6bd7 d6bd
00000200: c7b1 683c 9c67 143d c4c3 9dbc b2b3 3d3d
00000210: c2e4 9a3d 052c 31bd 909a 70bd d589 123d
00000220: 4225 31bd b342 63bd 63ee aa3b 1b4b 7c3d
00000230: 495d 9abd 8679 2abd 9239 52bd f7a9 f53d
00000240: 6509 8c3d 3ef0 d2bc 8ffb e5bd e610 863d
00000250: f2bc d9bd 39cd 29bd b5ed 173e ad8b 14bb
00000260: 8a8a d3bc 1b10 c8bd bd99 98bd 0b17 08bc
00000270: 4ed2 d43c 51e7 56bc 0d13 51bd 69da 24bd
00000280: 0140 40bc e961 d43c 325a 40bd 3606 52bd
00000290: 4021 9fbd 2974 843d 8de1 7ebd b7b6 f8bd
000002a0: bba1 f9bc 3f35 babd 3fd1 c4bd 17a5 55bd
000002b0: 2bf7 813d a3e3 b5bd e9ed abbd d8f3 063d
000002c0: cdce 8e3d e85f 203c 69e9 003e d9b3 3d3d
000002d0: 3cbc 73bd ecfb 9ebb e258 81bd 3d52 ee3d
000002e0: 8878 e6bb b031 793d 1753 2bbd dc36 9dbd
000002f0: 2f9c 92bd bb4c bb3d ff2a 9cbd 42c5 a5b8
00000300: c548 973c 7645 aabd 370b e7bc 585d 603d
00000310: 13c9 d03d ea7c 59bb 7f8f bbbc 0b40 7f3b
00000320: 9bcf b2bc 0438 8dbc 870e 803c e04e 073d
00000330: 6846 153e 479a 43bd 1ec7 593d 8a04 9a3d
00000340: 531e 843c 59cf 8ebc fa8d 943b 786c d93c
00000350: 00a5 5e3d 3ec3 463d a5ea 14bd 6c8c a13c
00000360: 3ffd ae3d 9192 753d c0e4 133c 5263 e3bd
00000370: 3e02 5b3d aa93 a0bc c87e 813d 47a4 1b3d
00000380: 74eb 83bd 512b 33bc 71e2 b1bc bbff a4bd
00000390: f2ce c23c 2a57 d13d b338 b53d 8f14 47bd
000003a0: e62b 8cbc d34a 87bc ef0d 583d 8f5c 95bd
000003b0: b05e 5f3c 2280 b3bd cd2c 773c 8741 043d
000003c0: fc75 b0bd 5d1b ae3d eb2b 1ebd 5eff 813d
000003d0: 0b30 e7bd d84f 943d 0278 033e d2c1 303d
000003e0: 7041 1d3a bd2a f93b 927f c8bd cb39 c73c
000003f0: 4ee8 373d 7b98 5b3d 5790 71bd 38f0 9e3c
-0.011628365 -0.05730824 -0.04032362 0.005809776 0.035024345 -0.12677127 -0.04532438 0.06401526
-0.048316523 0.031447936 0.053048626 0.012445271 0.012379791 -0.08882165 0.005072104 0.021882644
0.0043195277 -0.03455889 -0.04434097 -0.08378835 0.030032268 0.05591563 0.02111499 0.0041168714
-0.03881817 0.056341648 0.0092422245 -0.03823173 -0.024871623 -0.051992506 -0.097791314 0.09812457
0.04976808 -0.07481698 -0.010375704 0.037326988 -0.025954721 -0.029276468 -0.10693413 -0.07254104
-0.022821479 -0.041874386 -0.05737784 -0.05404635 0.050121967 -0.05556049 -0.12914263 0.055327754
0.061412677 -0.045341987 -0.0033370436 -0.020013232 0.043156974 -0.007964279 -0.10679048 0.07493801
-0.07937016 0.0030978266 -0.024960598 -0.07818426 -0.011314936 0.031261984 0.004339415 0.13782552
0.11328089 0.07223734 -0.04256093 -0.04932007 0.099839576 0.020554285 0.081002355 0.116706364
-0.028758023 0.03494063 0.034574214 -0.025664372 -0.06794357 -0.0053546983 0.08960203 -0.010494583
0.022112021 0.0243238 0.03717243 0.09298163 0.0050054304 -0.006422621 -0.05785606 -0.029579766
-0.07227921 0.04420342 0.043248292 -0.04020557 0.04117992 -0.010082691 -0.06394794 -0.0081796255
-0.016896078 -0.039093122 0.09393398 0.023508416 -0.07531192 -0.0030142094 -0.028051225 -0.08391302
0.05742303 0.012055729 -0.001440067 -0.026735447 -0.016382666 -0.06863306 -0.014153645 -0.044552643
0.024846464 0.012199566 -0.10727169 -0.09067934 -0.046643883 0.04221878 0.07864592 0.034454152
0.051027466 0.059053253 -0.061930276 0.09552984 -0.08626459 -0.026957635 0.007927313 -0.104903065
0.014202542 0.036231622 -0.019258387 0.04631395 0.07563163 -0.04325487 -0.058741152 0.035775978
-0.043248422 -0.05548353 0.005216406 0.061595064 -0.07537324 -0.0416198 -0.051324435 0.11995309
0.06837729 -0.025749322 -0.112296216 0.06546192 -0.106317416 -0.04145548 0.14836772 -0.002266626
-0.025822897 -0.09768697 -0.07451198 -0.008306275 0.025979187 -0.013116674 -0.05104356 -0.040247355
-0.01173401 0.025925593 -0.046961017 -0.051275454 -0.07770014 0.06467468 -0.06222682 -0.12144225
-0.030472627 -0.09092187 -0.09610223 -0.052159395 0.06345972 -0.08881309 -0.08394987 0.03294739
0.06973038 0.009788491 0.12589039 0.046314094 -0.059505686 -0.004851809 -0.06315781 0.116367795
-0.0070334114 0.0608384 -0.041827288 -0.07676479 -0.07158696 0.091454946 -0.07625388 -7.904555e-05
0.018467316 -0.0831403 -0.02820359 0.05477652 0.10194602 -0.0033186027 -0.022895573 0.0038948085
-0.02182751 -0.017238624 0.015631927 0.033034205 0.14577639 -0.047754552 0.05316841 0.07520397
0.016127741 -0.017432855 0.0045335265 0.02654098 0.054356575 0.04852604 -0.036356587 0.019720279
0.085443966 0.05995423 0.009026706 -0.11102928 0.053468935 -0.019601662 0.0632301 0.037998464
-0.064413935 -0.01093562 -0.021714421 -0.08056589 0.02378032 0.10221703 0.08848705 -0.04860359
-0.017110776 -0.016515171 0.052747663 -0.07293045 0.013633415 -0.08764674 0.015086365 0.032289054
-0.08616254 0.08501313 -0.038616102 0.063475356 -0.1128846 0.072417915 0.12838748 0.04315359
0.00059988257 0.0076039718 -0.09789957 0.02431955 0.044899277 0.053612214 -0.058975544 0.019401655

a2c_network.actor_mlp.4.bias f4 [128]
00000000: c553 4a3d 9ce8 223d 06fc 57bd d266 adbd
00000010: da7e dfbd d8b7 253c 33c0 833d fa96 c43c
00000020: 1e19 ed3c dd2a 763d 3777 c73c 6e7d bdbc
00000030: 75dc 1cbd 7888 653d 9221 30bd e1ad 48bb
00000040: 9c10 23bd b2a5 64bd af58 4dbd 2010 63bd
00000050: 11bb 223d 0384 28bc cae7 853c ed04 273c
00000060: b74b 313b 3def 77bd 7d8a 0bbe 24ba e9bc
00000070: a677 c23d 0921 743d 62cf 45bd ce49 083c
00000080: 4512 dd3d 9600 0ebd eff9 8ebc 062d f7bd
00000090: 9b50 a03c 7553 823d e40a 16bd 9d57 27bd
000000a0: 66fa 373c b06d 09bc 15ab 863c 7b10 09bd
000000b0: 06f3 873b 6098 b93c bbcc 9dbd e1b9 023e
000000c0: 9c8c 593d bb2d ad3d 7ad9 32bd f96c bbbd
000000d0: 940c 843d 51ac 8cbd 2a49 923d 6e58 e0bd
000000e0: 4175 4b3d 67e1 cebd 2e0b dabd c37b 173d
000000f0: 7dc1 803d 9ad2 2fbd fd97 1dbc 3767 d73d
00000100: 52c5 0fbd e9bd b93c 8dc7 913d e160 89bc
00000110: c3d9 733d cb74 16be a51a e03c f585 e23b
00000120: 5c41 f8bc 75ab 98b8 aea3 b1bb fc4f 92bc
00000130: a0a9 9c3d 3461 17bc 8b5f 0ebd 5e04 85bd
00000140: 2965 02be 5369 943d cb7e 20bd df70 bebd
00000150: e04b 9cbc 11b5 793d c8f5 82bc 83fc bc3d
00000160: b1eb c4bd eaf8 8f3b 908d 8a3d 9d23 7abd
00000170: f473 1a3d e535 9abd d2a3 cabc 4bfb 103d
00000180: a9db acbc f1e6 6bbc fe32 28bd 6831 6cbc
00000190: 85da c4bc f8f5 9e3c c8ac 6fbd 03a4 1ebc
000001a0: f99c 533d 8a05 04bd b2e8 a6bc 7ab5 90bd
000001b0: d7fb fb3d e579 233d 19b9 953d 1dd9 10bd
000001c0: 27b9 59bd 4227 d6bb 9148 843d a65c 0bbe
000001d0: 3486 81bd 44dd 213d 5d6b 0f3d 80a4 91bd
000001e0: edeb cbbc 2296 603d 12f4 b6bc 7168 4e3c
000001f0: baf5 933d 5e39 4dbd d48d 293d 6af1 cf3c
0.049396295 0.039772615 -0.052730583 -0.08466877 -0.10912867 0.010114633 0.064331435 0.023997772
0.02894264 0.06009947 0.024348838 -0.023131099 -0.03829618 0.05603835 -0.043000765 -0.0030621218
-0.03981076 -0.055822082 -0.050133403 -0.0554353 0.03972918 -0.01028538 0.016345877 0.0101940455
0.0027053186 -0.06053089 -0.13627048 -0.028531142 0.094954774 0.059601817 -0.04829348 0.008318378
0.107945 -0.034668528 -0.017453162 -0.120691344 0.019569686 0.063635744 -0.03663148 -0.04085504
0.011229133 -0.008387968 0.016439 -0.033462983 0.0041488437 0.022655666 -0.07705065 0.1276622
0.05311261 0.08455988 -0.043664433 -0.09151644 0.064477116 -0.06868804 0.07142861 -0.109543666
0.04967237 -0.10101586 -0.106466636 0.036983263 0.06286905 -0.042925455 -0.009618756 0.105177335
-0.03510029 0.022673564 0.071181394 -0.016769828 0.059533846 -0.1469299 0.027356455 0.0069129416
-0.030304603 -7.279861e-05 -0.0054211235 -0.017860405 0.07649541 -0.009239484 -0.034759086 -0.064949736
-0.12733902 0.072466515 -0.03918342 -0.09298872 -0.019079149 0.060963694 -0.015986338 0.0922785
-0.09615267 0.0043936865 0.06765282 -0.06106912 0.037708238 -0.07529811 -0.024736319 0.0353959
-0.021100836 -0.014398322 -0.041064255 -0.014416076 -0.02402998 0.019404396 -0.058514386 -0.009682658
0.051663373 -0.032231845 -0.02037463 -0.07065864 0.12303894 0.03991117 0.07310695 -0.035363305
-0.05315509 -0.0065354416 0.064591534 -0.13609561 -0.06324425 0.039517656 0.0350145 -0.07111454
-0.024892772 0.054830678 -0.022333179 0.012598143 0.07224603 -0.050103538 0.041395023 0.02538367

a2c_network.value.weight f4 [1, 128]
00000000: 50bc 1a3c aff2 f7bc 9bd6 cc3b 0839 24bd
00000010: 641c 253d b064 033d b598 e3bc 108d c03c
00000020: 3c72 36bd 1be6 19bc 9807 053c 2bcd 053d
00000030: d91e d33c 8fde 23bc 404a c53a 467f 7f3d
00000040: 176e a8bc 774e 163d bdfd 8f3d 0e45 4dbb
00000050: 3bab 4d3c 729d c6bd 573f 81bd ada7 d83c
00000060: 7e06 c13a 256f 77bd 6430 393c 7014 e9bc
00000070: c60f 2e3d d2db 0bbd 8e68 43bc 0cb6 aabd
00000080: cd72 91bb 0546 c83c 7587 4ebd 1053 b0bc
00000090: 139f 163c 3d10 893a 5c4a ae3c cfc1 b73d
000000a0: c9e7 91bb e99a 643d 015e febc 21a8 05bd
000000b0: e66e 993a f580 c2bc e0ad a63d 61c4 3ebd
000000c0: 621d 273c 9b38 fabc 25f3 1bbc 422c 833c
000000d0: 40d5 51bc 1081 963c ec86 d4bc fe34 25bb
000000e0: 077d 56bd 74c6 72bc f3a7 ed3c e6cd 8e3d
000000f0: 3da8 44bd 2955 f4bc eb3d 643c 08d7 cdbc
00000100: cf3d 723d 4c00 c33c bf7f d73a ddb0 82bd
00000110: ad0c a43c 7ebf ca3c baba 2fbd a9fd bb3c
00000120: cb17 3e3b 48bc 4f3d af6d 023c bd11 3bbd
00000130: d3ea 57bd 52c5 073d a869 bb3a bc46 8d3c
00000140: 3dda 8ebd d428 8fbd e5ac d9bc e8c3 60bb
00000150: 90fe a0bd 12a2 21bd a4b4 823b d33b c23c
00000160: 135c 223d 0c03 fc3c a8c6 3abb b0dc b13c
00000170: f25d fabd c57f 593c 0bd2 053d 7662 843c
00000180: 59d3 9fbc 5b0c 6bbd 3903 29bc faf0 8cbd
00000190: e932 8cbd dcc7 10bd 7e67 ba3d 3114 193c
000001a0: 729c 9c3c e6c2 60bd 23f1 fcbd 3bdd 1f3d
000001b0: 24ce b4bb 2eef 8eba 410a 263d 3d32 083d
000001c0: 787c f6bc e676 ed3c 49eb 7fbc 32cf 4d3d
000001d0: 3442 063d fdd7 27bd c245 f6bc 77cb bd3c
000001e0: b9b5 2bbc eb67 b3bc 0388 3b3d 4998 b23d
000001f0: 0070 e53c fd6e ddbc 766e 20bd d0a8 223d
0.009444311 -0.030267088 0.006251169 -0.04009345 0.04031028 0.032078445 -0.027782777 0.023504764
-0.044542536 -0.00939324 0.008119486 0.032666367 0.025771545 -0.010001793 0.0015052035 0.062377237
-0.020560307 0.036695924 0.070308186 -0.0031321677 0.012553032 -0.09697999 -0.06310909 0.026447142
0.0014726666 -0.06040873 0.011303041 -0.028452128 0.04249551 -0.034145184 -0.011926783 -0.08335504
-0.004438734 0.02444745 -0.05042215 -0.021523982 0.0091932 0.001045711 0.021275692 0.08972513
-0.00445268 0.055811796 -0.031050684 -0.032631043 0.0011706024 -0.023743132 0.08138633 -0.046574
0.0101998765 -0.03054457 -0.009518419 0.016012315 -0.01280719 0.018372089 -0.025943242 -0.0025208588
-0.05236533 -0.014817823 0.029010748 0.06972866 -0.048012007 -0.029825764 0.013930778 -0.025126949
0.059140977 0.023803852 0.001644127 -0.0638139 0.020025576 0.024749514 -0.042902686 0.022948103
0.002900588 0.05071667 0.007960721 -0.045671213 -0.05271418 0.033147164 0.0014298456 0.017245643
-0.069752194 -0.06990209 -0.0265717 -0.0034296457 -0.07861054 -0.039461203 0.003988819 0.023710167
0.03963859 0.030763172 -0.0028499756 0.021711677 -0.1222495 0.013275092 0.032671016 0.016160231
-0.019509958 -0.05738483 -0.01031571 -0.068819 -0.06845648 -0.03534685 0.09101771 0.009343193
0.019117568 -0.05487337 -0.12350681 0.03902934 -0.005517738 -0.0010905021 0.040537123 0.033251036
-0.030088648 0.02898736 -0.015620061 0.050246425 0.03277798 -0.040977467 -0.03006256 0.023168309
-0.010480338 -0.021900138 0.045784008 0.08720452 0.028007507 -0.027030462 -0.039167844 0.039711773

a2c_network.mu.weight f4 [18, 128]
00000000: b8ba 9ebb 3d4f 633c fa5a e0bc 6b32 223e
00000010: ac14 d83d c511 0c3d c032 34bd 59c6 553c
00000020: ade9 99bd 55cc 29be f56a ba3c b839 febd
00000030: 9d7e 33bd a53f a4bd 79cb 1e3e 8577 fd3c
00000040: 862f 453c 6be5 ad3d c8d2 8abc cadc f8bd
00000050: 55e9 d5bd 7eab c9bc 0d1a 91bc ae6a 2d3d
00000060: 9c8a 81bd e604 463d 6c80 2bbc b0cb 9abd
00000070: 1615 d63d 26e2 ca3c e16c b43d 2664 a2bd
00000080: bd06 28bd 273d c8bd dbd9 d0bd dffd a93c
00000090: c5e4 7a3d e506 f6bd 44e2 dc3c 7b36 d7bd
000000a0: b2c2 873d 40b6 d93d ac42 33bd 67c6 13be
000000b0: 4769 893c 6f8e 42be c227 523d b56f edbb
000000c0: 721b 2e3d 1cdd 31bb aee6 203e 2c07 8bbc
000000d0: 04df acbd 3dbf 3bbd 8810 cfbd afb6 c4bc
000000e0: d6c0 d73d 0e06 a43d ff38 cf3d fbf3 383d
000000f0: fdad 29bd cf05 323c 260c ac3d a6dd 1dbb
00000100: 50c3 b63d f1b7 38bd 67d1 603e 101d 973c
00000110: d046 b5bd 9901 aeba f3b8 8b3d 88db 793c
00000120: 630f 9bbc 764f ea3d 3ae5 223e baba 653d
00000130: 60dd c1bd 5186 99bd e8e8 323d b675 2d3d
00000140: 7c81 25bc 74c2 153d e8bd ea3c adbb e4bd
00000150: 3feb 053d 26c6 803d 298e 183d 7d04 743d
00000160: d1bb b1bb a518 9cbd a9ed 90bd 859b 173d
00000170: 37c7 5fbc a199 2e3d ddb9 363d f8d9 2a3c
00000180: ebe9 be3d 7389 10bd 11ee 84bd cd4f be3d
00000190: 3a7d 093b b22c 8d3d ffe1 083d 2920 b83d
000001a0: 6d88 d83d 2ab7 153d 33d9 2dbd 1ddb 69bd
000001b0: 2cd4 b2bd b787 1e3d 9fa3 7abd 10dc 03be
000001c0: 44cc 213e d592 a9bd 52f2 dcbc 5c9d 123d
000001d0: 98c7 f7bc c58e b7bd 7f30 4ebe 8738 0c3e
000001e0: cdb3 323d 691b 01be c553 9f3d 3942 5cbd
000001f0: 3a52 eabd 7703 c13d dfa5 20bc 0490 cdbd
00000200: 6cc0 dcba fb1e cabd 7843 95bc bd0d 4b3e
00000210: 5531 1d3e d408 61bc 43af a93d b31c afbd
00000220: 0bdd e93d 04af 18be 3212 8a3c 27b4 febd
00000230: ca6d 47bc 7312 b7bd 9995 b3bc 3860 bfbc
00000240: f3b7 05bb a840 bb3c 94fd e0bb 054b 45bd
00000250: 1ed0 b93d ca71 b3bc c050 d33c cf29 1a3e
00000260: 9d56 0abe ba3f 40bc 4a60 953c 93cb 87bd
00000270: c380 c2bd 7b5d 89bd 8f06 8bbc 608f 91bd
00000280: db47 a2bd 8645 71bd d472 84bd 736e 433c
00000290: 0c0b 3e3e 8037 dcbd 419e f43d a938 e7bd
000002a0: 2047 b93d 751a cf3c c9b7 9a3d 23b1 e93d
000002b0: 822d 0cbc 8c9a 8d3c f8ce d33c e655 88bd
000002c0: 0fe5 e23c ac4e 7bbd 7ddb 2abd e1d1 693b
000002d0: c1d4 2b3d da32 85bb 4d91 31be a526 f3bc
000002e0: ac93 ad3c 8b8b bd3d 9bea 333e 0644 073d
000002f0: f52a bdbc 5a34 ac3b c84c 703c a57f 58bd
00000300: b9f0 de3d 706a 563d 603d c93b 172e b43d
00000310: bad5 b13c 4558 e83d dadb ba3c 2f80 51bd
00000320: cccb b83c e400 01bd b70a 22bd f3cd 483d
00000330: a3a1 b6bd e741 6f3d fdea be3d 73b4 dcbc
00000340: 6865 0e3d 0274 3b3e 7480 0bbd 38e3 393d
00000350: fee1 1d3d 8083 f0bd 78f6 b6bd 362f a8bd
00000360: a8ca e63d cb16 8abc 1e4e 9c3c 3bfa 5dbd
00000370: 34c8 57bc 2803 dfbd 23e5 cc3d fe74 aabd
00000380: c7d8 1d3e 9d4f 13bc 2980 103d 3508 09bd
00000390: a1a4 2d3d dd17 b1bc 5510 1f3e 5f40 1d3d
000003a0: 3d20 1d3e e077 9d3b 0b1d 883d f141 d23d
000003b0: c52f 0bbe 735c 003d b19f 5d3d 6521 03bd
000003c0: 24db d73c 9fe9 6d3c 65b3 d9bb c8c3 a93d
000003d0: 4b93 20bd 5aca cbbb 5b16 b4bd 7f6e 923d
000003e0: e293 163e d907 a3bd 4d8f 6a3d 7afd edbd
000003f0: ac9d ef3c 6f21 243d b3a6 8c3d 5b6b bbb7
-0.004844036 0.013873872 -0.027387131 0.15839545 0.10550818 0.034196634 -0.04399371 0.013047778
-0.07515273 -0.16581853 0.02275608 -0.12413353 -0.04382192 -0.08019952 0.15507306 0.03094078
0.012035256 0.08491024 -0.016946211 -0.12151487 -0.10444895 -0.024617907 -0.017712617 0.042338066
-0.06325266 0.048344515 -0.01046763 -0.075583816 0.104532406 0.02476604 0.088098295 -0.07929258
-0.04102205 -0.09777289 -0.10197803 0.020750938 0.061253328 -0.12013034 0.02696336 -0.10508438
0.06628932 0.106304646 -0.043764755 -0.14431153 0.016773833 -0.18999647 0.051307447 -0.0072459825
0.042506643 -0.0027139848 0.15712997 -0.016971193 -0.08440974 -0.045836676 -0.10110575 -0.024012892
0.105348274 0.08008967 0.10118293 0.045154553 -0.041425694 0.010865643 0.08400755 -0.0024088412
0.08923972 -0.045097295 0.2195488 0.018446475 -0.08851397 -0.0013275623 0.06822386 0.015250094
-0.018928235 0.11440937 0.15907755 0.05608628 -0.09466052 -0.07496322 0.043679148 0.042348586
-0.010101672 0.036562398 0.028655007 -0.11168609 0.03269505 0.06287794 0.03724495 0.059574593
-0.005424001 -0.07621888 -0.0707658 0.03701355 -0.013658336 0.04262698 0.044610847 0.010427944
0.0932196 -0.03528733 -0.0649072 0.092925645 0.0020979182 0.068932906 0.03341865 0.08990509
0.10572896 0.036551632 -0.042443465 -0.05709373 -0.08731875 0.038703647 -0.061191197 -0.12876916
0.15800577 -0.08279959 -0.026971016 0.0357946 -0.03024654 -0.08962778 -0.20135687 0.13693438
0.043628503 -0.12608112 0.0777965 -0.053774092 -0.11441465 0.09424489 -0.009805172 -0.100372344
-0.0016842014 -0.0986919 -0.018220648 0.1982946 0.1535085 -0.013735015 0.08285382 -0.08550396
0.11419114 -0.14910513 0.01685438 -0.12436705 -0.012172172 -0.08939066 -0.02192192 -0.02336131
-0.0020403832 0.022857979 -0.0068661664 -0.048167247 0.09072898 -0.021904845 0.02579534 0.15055011
-0.13509603 -0.011733944 0.01823439 -0.066306256 -0.094972156 -0.06707283 -0.0169709 -0.07107425
-0.079238616 -0.058904193 -0.06467214 0.011928189 0.18558902 -0.10752773 0.11944247 -0.11290104
0.09046769 0.02528117 0.075545855 0.11410739 -0.008555772 0.017285608 0.025855526 -0.06657009
0.027697114 -0.061354324 -0.041713227 0.0035678076 0.041950945 -0.0040649 -0.17340584 -0.029681513
0.02118858 0.09255131 0.17569964 0.033023857 -0.023091773 0.005255264 0.014666744 -0.052856106
0.10885758 0.0523476 0.0061413497 0.087978534 0.021708358 0.11344961 0.022809912 -0.051147636
0.022558115 -0.03149499 -0.039561 0.049024533 -0.089175485 0.05841246 0.09322164 -0.026941514
0.034764677 0.18305972 -0.03405805 0.04538271 0.0385456 -0.11743832 -0.08933729 -0.0821213
0.11269122 -0.016856572 0.019080218 -0.054193716 -0.013170291 -0.10889274 0.10004642 -0.08323096
0.15414725 -0.008991149 0.035278473 -0.033455092 0.04239333 -0.021617824 0.15533574 0.038391467
0.15344329 0.00480555 0.066461645 0.102664836 -0.13592441 0.031338166 0.05410737 -0.03201427
0.026349612 0.014521032 -0.0066437 0.082892954 -0.03920297 -0.0062191905 -0.087933265 0.07149982
0.1470485 -0.07960481 0.05726557 -0.116206124 0.029249988 0.040070947 0.06867733 -2.2342128e-05

a2c_network.mu.bias f4 [18]
00000000: 80f5 19bd 5770 42bd dfce 8e3b 5266 663d
00000010: a657 013b e20b b73c b5ce ac3d f0f4 a53d
00000020: 1a6b 183d 9909 133d 8da1 ad3d 3b53 893d
00000030: 9bfc e8bd 6ffa 78bd c7b3 bdbd fc3f ccbd
00000040: b8bb 0abe 4c3f b1bd
-0.037587643 -0.047470417 0.004358157 0.056249924 0.001973608 0.022344533 0.08437864 0.08103359
0.037211515 0.035897825 0.08478079 0.06705328 -0.11376306 -0.060785707 -0.092628054 -0.099731416
-0.13548172 -0.08654651

exp_avg f4 [18]
00000000: d867 8cba afd4 8e3a 06c6 9bba 479d b4ba
00000010: 5d3b 8a39 caa3 873a 478e b4b9 67b2 92b6
00000020: 6229 42b8 2bf3 343a 10a2 00b8 9977 7139
00000030: 5070 ba39 9f74 593a fd60 8c3a ddc2 b039
00000040: 6d1d 413a 9d34 11ba
-0.00107121 0.0010897125 -0.0011884577 -0.0013779782 0.0002636564 0.0010348496 -0.0003443828 -4.371908e-06
-4.6291745e-05 0.000690269 -3.066851e-05 0.00023028105 0.00035560364 0.0008295271 0.0010710057 0.0003371452
0.00073667505 -0.0005539151

exp_avg_sq f4 [18]
00000000: f6cf 1437 20b1 4237 b522 0a37 91d4 3d37
00000010: a575 1737 5d90 0e37 b7c2 0537 31f0 2237
00000020: 39ff 1937 0832 2137 23a2 1a37 f085 0d37
00000030: 01e0 1337 6b16 0d37 3a07 1337 e114 0a37
00000040: 6508 0637 aa19 1637
8.869907e-06 1.1604541e-05 8.233522e-06 1.131477e-05 9.027693e-06 8.497472e-06 7.972753e-06 9.711876e-06
9.178934e-06 9.607997e-06 9.216866e-06 8.43544e-06 8.814038e-06 8.4094745e-06 8.763565e-06 8.230302e-06
7.988977e-06 8.946672e-06

exp_avg f4 [128, 66]
00000000: 5788 6db4 6f08 9e35 735e efb6 2383 18b7
00000010: f6a0 49b6 938d 2db7 2c76 b0b4 c00f 87b4
00000020: e0e9 15b9 dfc5 e8b6 2282 4237 d717 3237
00000030: 2bc0 dd36 a49c 46b7 087a 6cb7 7e8c 0637
00000040: 6651 c637 fd05 b637 77ff c6b6 504c 3d36
00000050: 721d 8637 fc84 4a37 20c9 4434 5d1d ed37
00000060: a870 16b7 97e2 07b7 d63f 38b7 b5d6 11b7
00000070: 8e50 01b7 8d56 74b6 aa4e 88b8 e2e3 8737
00000080: 6fa6 a7b7 8a27 1d38 04d5 3839 aa37 1139
00000090: a2cd d2b8 a7a7 18ba 8c6e bab8 8072 96b9
000000a0: 15cc e6b9 a519 7a39 d314 ecb7 1391 a0b7
000000b0: 9975 9438 2c68 5f38 5d0f 8c37 7668 0537
000000c0: 9236 1737 a24f c9b7 0355 13b8 4f71 9037
000000d0: f2dc 7c38 9f04 5a38 4312 e236 cbb4 4bb8
000000e0: 202e 7036 0188 80b7 9086 1fb8 0b90 3a38
000000f0: 6d2b bfb7 ce46 98b7 dc50 83b7 8c69 5ab7
00000100: 6d88 85b7 4480 93b6 b34c b5b5 2c67 d036
00000110: 3241 8fb9 c646 30b8 a306 48b7 ba4d 2838
00000120: cd2a b933 c7ad f4b3 d650 8bb9 829b b4b7
00000130: 7545 8939 c917 1039 b7ab 0ab8 c79d a2b8
00000140: e16a d8b8 bc4f 0e39 1e23 fe38 c9f5 9938
00000150: 20fc 1db7 00d8 1738 ca06 6838 9b93 24b8
00000160: e965 9238 87b9 4738 0ff8 00b9 1448 06b9
00000170: 26a7 02b9 16a0 0cb9 e8fa 14b9 d692 06b9
00000180: bf0a a6ba 8019 17ba ca25 273a dd3c e239
00000190: 491c 3239 e0ce 0bba ff1b 14bb 9436 daba
000001a0: 6895 e2ba b445 a2ba e95d 02bb 755a 06bb
000001b0: 9430 beb7 6fb1 06b9 c78f 2fba 5624 c1b9
000001c0: 53cd 47ba 48b7 8a38 8635 16b9 36bb 2fb9
000001d0: 6e80 07b9 bcae 9b39 6d98 8b39 82cb e238
000001e0: 2494 2db9 42ff b8b8 d264 11b9 bf2f 05b9
000001f0: c0e0 1db9 ae95 28b9 12fb 80b9 6260 88b9
00000200: a4b3 9ab9 7db7 99b9 ec7d b3b9 00b0 82b9
00000210: 07d9 2fb5 f7d0 3b36 5f88 e938 5f3f 8e37
00000220: 8d4f a636 b38b d5b8 67a2 6eb2 bb28 29b5
00000230: 336c 11b8 18a6 24b7 7397 0739 422a fab8
00000240: 6a5e ab38 9335 2f38 c176 2e38 cd44 48b8
00000250: 3d44 a0b7 d1aa 4438 48fa 6337 338a 8c37
00000260: bb35 a635 a82a 3338 e061 a4b7 e6fe 0237
00000270: e357 4838 1607 5b38 c083 3938 b017 4938
00000280: 681f 4b38 90d9 7c38 1bff 153a c46c e138
00000290: c57f b3b9 b348 7b39 d737 403a ca8b 9c3a
000002a0: 2f8a 9c3a 007f 943a 5c81 a53a 2e3c 833a
000002b0: df17 8c3a 1012 943a 30aa 54b9 ac20 9938
000002c0: b254 83b9 e7ff 1cb9 2ae0 7ab9 d8ff a138
000002d0: b7aa 5139 8cc3 b238 c573 6f38 5a5f a6b8
000002e0: 2a61 07b5 8e6c 3339 388e d638 7c0f dd38
000002f0: 576a 0a39 156f ea38 9cb7 ff38 819f ed38
00000300: 7566 a738 fa6f eb38 ad38 9838 5d5b b438
00000310: aea9 ac38 ce07 ec38 215f 41b5 70a8 f636
00000320: 8ca8 6cb9 5c5a 91b6 112f 95b4 e738 c036
00000330: abc5 d434 cd95 50b5 d33b acb9 2944 11b6
00000340: fb9a 0039 acfe 6b38 41d7 1fb8 4d6c ccb8
00000350: 5163 ceb8 b18e fd38 4ce7 d838 8c67 0638
00000360: dfd0 af37 3b97 5138 1086 9838 4f40 87b6
00000370: d18c 9538 04f0 af38 6622 f2b8 b32b feb8
00000380: f465 f8b8 b2de fbb8 8067 03b9 946e f5b8
00000390: 574a 1bba 0c85 92ba 7401 8a39 d2db 293a
000003a0: 00ec 9839 29dd 1139 e4de 99ba a004 a7ba
000003b0: 5c1a 13ba 016c b2ba 3235 8dba ebc5 0dba
000003c0: e3ba f3b9 45f8 ccb9 5723 35ba 6486 42ba
000003d0: 13c7 76ba d5fb 86b9 99f5 e8b8 0daf 84b9
000003e0: cfe0 17b9 5a8a 9339 d4a3 6639 3ea8 9238
000003f0: 706a beb7 31f5 8ab8 9a0c 2d38 c766 02b9
-2.2121945e-07 1.1774372e-06 -7.1337504e-06 -9.090439e-06 -3.0045026e-06 -1.0344566e-05 -3.2868536e-07 -2.515717e-07
-0.00014296873 -6.937174e-06 1.15936e-05 1.0615177e-05 6.6086845e-06 -1.183819e-05 -1.4095109e-05 8.019733e-06
2.3641343e-05 2.169888e-05 -5.9306e-06 2.8207614e-06 1.5987756e-05 1.2071101e-05 1.8327091e-07 2.8266275e-05
-8.9669265e-06 -8.099384e-06 -1.0982118e-05 -8.692664e-06 -7.707755e-06 -3.6409212e-06 -6.499638e-05 1.619937e-05
-1.9985453e-05 3.746854e-05 0.00017626962 0.00013849014 -0.000100518824 -0.0005823322 -8.889762e-05 -0.0002869554
-0.00044021072 0.00023851411 -2.814309e-05 -1.9141042e-05 7.079094e-05 5.326436e-05 1.6696455e-05 7.9517395e-06
9.013007e-06 -2.399815e-05 -3.5126704e-05 1.7218901e-05 6.0287253e-05 5.1979554e-05 6.737451e-06 -4.8567348e-05
3.5789635e-06 -1.532212e-05 -3.8033875e-05 4.4480006e-05 -2.2789196e-05 -1.8152783e-05 -1.565407e-05 -1.3018387e-05
-1.5918364e-05 -4.3958735e-06 -1.3507873e-06 6.210894e-06 -0.0002732366 -4.2027583e-05 -1.1922474e-05 4.012671e-05
8.622519e-08 -1.1393745e-07 -0.00026572373 -2.1530086e-05 0.00026182426 0.00013741771 -3.3061686e-05 -7.75415e-05
-0.000103195904 0.00013571879 0.00012118205 7.3413896e-05 -9.416632e-06 3.620237e-05 5.5319433e-05 -3.9238115e-05
6.980805e-05 4.7618083e-05 -0.0001229944 -0.00012806087 -0.00012460034 -0.00013411077 -0.0001420785 -0.00012833936
-0.0012667998 -0.00057639927 0.00063761754 0.00043151426 0.0001698594 -0.0005333256 -0.0022599695 -0.0016648346
-0.0017286958 -0.0012380392 -0.00198924 -0.0020500694 -2.2672386e-05 -0.00012845335 -0.00066971447 -0.000368389
-0.0007621843 6.6144916e-05 -0.00014325054 -0.00016759042 -0.00012922447 0.0002969409 0.00026625712 0.00010814426
-0.00016553752 -8.821349e-05 -0.00013865836 -0.00012701655 -0.00015056413 -0.00016077489 -0.00024601124 -0.00026011752
-0.00029507012 -0.00029319144 -0.0003423536 -0.00024926662 -6.5508397e-07 2.7986805e-06 0.00011135707 1.6957229e-05
4.9564464e-06 -0.000101826525 -1.3890349e-08 -6.3016677e-07 -3.4671462e-05 -9.8138335e-06 0.00012931023 -0.000119288
8.1715014e-05 4.1773146e-05 4.159543e-05 -4.774779e-05 -1.9105262e-05 4.6889127e-05 1.35885275e-05 1.6753655e-05
1.2383601e-06 4.2716652e-05 -1.95959e-05 7.807952e-06 4.7765567e-05 5.2220268e-05 4.423014e-05 4.7944195e-05
4.842822e-05 6.0284103e-05 0.00057219126 0.00010749095 -0.00034236736 0.00023964308 0.00073325395 0.0011943516
0.0011943037 0.0011329353 0.0012627053 0.0010012442 0.0010688266 0.0011296887 -0.00020281295 7.301694e-05
-0.0002504937 -0.0001497265 -0.00023925366 7.724733e-05 0.0001999539 8.524125e-05 5.708986e-05 -7.9332574e-05
-5.043281e-07 0.0001711121 0.000102308055 0.000105409854 0.0001320032 0.0001117868 0.000121935474 0.000113307506
7.982265e-05 0.000112265305 7.2584815e-05 8.6000866e-05 8.2332044e-05 0.00011254811 -7.2036534e-07 7.35098e-06
-0.00022569502 -4.331856e-06 -2.7787658e-07 5.72867e-06 3.96319e-07 -7.7704027e-07 -0.0003285097 -2.1646358e-06
0.00012264766 5.6265548e-05 -3.8109025e-05 -9.7476506e-05 -9.8413446e-05 0.000120905584 0.00010342765 3.2044525e-05
2.0958889e-05 4.9970327e-05 7.272896e-05 -4.0308e-06 7.131103e-05 8.389357e-05 -0.000115458664 -0.000121198034
-0.00011844552 -0.00012010093 -0.0001253169 -0.00011703107 -0.0005923858 -0.0011178567 0.00026322494 0.0006479594
0.00029167533 0.00013910666 -0.00117394 -0.0012742467 -0.0005611533 -0.001361251 -0.00107733 -0.0005408215
-0.00046487813 -0.00039094887 -0.0006909868 -0.00074205385 -0.00094138196 -0.000257461 -0.00011108368 -0.00025307425
-0.0001448423 0.00028141105 0.0002199554 6.99316e-05 -2.2699329e-05 -6.626023e-05 4.125815e-05 -0.00012436054
