logs/rl_games/hexapod_flat_direct/2025-11-14_22-48-05/nn/last_hexapod_flat_direct_ep_1150_rew_-0.15157652.pth (torch, 546100 bytes, 33 tensors)

value_mean_std.running_mean f8 [1]
000000 57 ea 53 72 1b 01 bd bf
       -0.11329814473348541

value_mean_std.running_var f8 [1]
000000 60 02 7d de 6d fe 93 3f
       0.01952525778256342

value_mean_std.count f8 []
000000 00 00 00 02 00 f4 aa 41
       226099201.0

a2c_network.sigma f4 [18]
000000 ca 6b 90 bf d6 ff cd bf e5 16 32 bf 60 8e e9 be
       -1.1282895 -1.60937 -0.69566184 -0.45616436
000010 4d d2 ef bf fc bd e9 bf 39 2c 9b 3d 7d 67 1f 3e
       -1.8736054 -1.8261104 0.07576794 0.15566821
000020 ee 02 22 3e 5d 5e 01 c0 d6 d9 77 3e ab ac 31 3d
       0.1582143 -2.0213845 0.24204192 0.04337756
000030 f5 fb ba 3e a7 eb aa 3d 98 cb 8f 3e e1 b8 e6 3d
       0.36520353 0.08345728 0.28085017 0.112657316
000040 e7 94 d4 3e dd 30 9b 3e
       0.41519853 0.30310717

a2c_network.actor_mlp.0.weight f4 [128, 66]
000000 01 0c a2 3e f6 9c b7 bd cf 8e 3c be f3 1f 8b be
       0.31649783 -0.08965485 -0.18413852 -0.27172813
000010 1d 46 3c 3d 5c f9 5e 3d a4 45 45 3e 2d 05 a3 3c
       0.045965303 0.054437026 0.19264847 0.019899929
000020 d7 f2 31 be f1 3e 30 be f9 ee 68 be a4 b4 8e 3e
       -0.17377792 -0.1721151 -0.22747411 0.27872193
000030 fc e0 c3 bd f4 c3 a0 3e 24 56 c4 3d da 26 b5 be
       -0.09564397 0.313995 0.095867425 -0.35381204
000040 7f 9a 90 3e c7 3b e6 3d aa 03 9d 3d ed d1 50 bd
       0.2824287 0.112418704 0.076667145 -0.05098145
000050 7f 17 0e 3d fe eb e6 bd ca 45 fb bd 49 8a 63 3c
       0.034690376 -0.11275481 -0.122691706 0.01388795
000060 ac d8 52 3d b6 9c dd bd cd b5 ba 3d c9 7d a5 3d
       0.051476166 -0.10820906 0.09116707 0.08080632
000070 cc b1 9d bd fd 6b e1 bd b4 32 3d 3d 33 2d 90 bd
       -0.07699928 -0.11006925 0.046190932 -0.07039871
000080 79 d0 e7 3c 49 2b 8d be 49 65 2c bb a0 76 3e 3d
       0.02829765 -0.27572086 -0.0026305488 0.04649985
000090 e2 fe 3c 3c 54 68 57 bd cb d7 29 bd ab 5e a9 bd
       0.011535378 -0.05258973 -0.04146556 -0.082700096
0000a0 a2 a1 c9 bd 12 2d 56 bd 4d e1 ac bd dc 85 45 bc
       -0.09845282 -0.052289076 -0.0844141 -0.01205584
0000b0 61 cc 36 3d 17 9d 34 bc 34 fd 98 3b aa 02 cd bd
       0.044628505 -0.011023781 0.004668856 -0.10010274
0000c0 a5 42 45 be 57 22 4c 3d 95 3c fd 3d 3c 40 54 be
       -0.19263704 0.049837437 0.12365071 -0.20727628
0000d0 6c a4 86 3d d6 0a 1f bd d1 77 ed 3c f5 21 5a bd
       0.0657433 -0.038828693 0.028987797 -0.05325504
0000e0 91 f5 0c 3c 91 90 57 bd 80 4c 41 bd 6f 4f 17 bd
       0.0086034695 -0.052628104 -0.047192097 -0.03694099
0000f0 a0 22 4c bd 12 02 f4 bd ac 69 8d 3d 58 ca b6 bd
       -0.04983771 -0.119144574 0.06904921 -0.08925313
000100 e9 56 f6 3d 07 10 29 3c 50 2f 0e 3e 1b 30 8b 3d
       0.120282955 0.010318763 0.13885236 0.06796285
000110 e8 3f 75 be 74 28 eb bd 4a 75 41 be 6e f5 a1 bd
       -0.2395016 -0.11482325 -0.18892398 -0.0790814
000120 c2 af 20 3e 26 73 23 3e b7 87 73 3c b5 c9 b7 bd
       0.15692046 0.15961894 0.0148639 -0.089740194
000130 4a 66 3d 3e a1 55 b0 be 47 0e 92 3d 88 da 92 3d
       0.18496051 -0.3444033 0.071316294 0.07170588
000140 7b 88 89 3b 95 a0 7b 3e 6a ec 1e 3e 90 b9 2a 3e
       0.004197178 0.24572976 0.15519872 0.16672349
000150 2b 50 64 3d db 23 c5 bd bd 98 29 bc 9f a0 75 bd
       0.055740517 -0.096259795 -0.010351357 -0.059967633
000160 9c 82 bc 3c d5 2d 11 be 7c 8e d0 3d 54 f8 f9 3d
       0.023011498 -0.1417764 0.10183427 0.12205568
000170 ae 3e 76 3d 6d bf 71 bd 5a 3a 01 3e 83 1e 26 3d
       0.06011837 -0.05902045 0.12619916 0.040556442
000180 df 65 2d bc 81 f1 a7 bd e6 34 3a 3d f1 9d b1 bd
       -0.01058337 -0.0820036 0.045460604 -0.08672703
000190 d6 71 08 bd 83 fe 8a 3d 3e cf 51 3d 37 e7 1d bd
       -0.033311687 0.067868255 0.051223032 -0.03855058
0001a0 87 95 a0 bc 8a c2 34 bc 45 a8 71 3d 7f 1c f5 bc
       -0.01960255 -0.01103271 0.058998365 -0.029920815
0001b0 a5 64 4b bd 79 6c 4c bc 4c 18 88 bd b7 3a bd 3c
       -0.04965653 -0.012477034 -0.06645259 0.023099286
0001c0 0f 74 59 3d 87 19 b6 bd 22 24 ad 3d 47 a1 ec 3d
       0.053089198 -0.08891588 0.084541574 0.11554199
0001d0 28 da f4 bc 8b 89 af 3c 1f 30 c1 3d 38 db 1f 3e
       -0.029889181 0.02142789 0.094330065 0.15610969
0001e0 25 71 86 3d db 13 7e bd 80 49 e9 3d 28 0f 04 3e
       0.06564549 -0.062030654 0.11390972 0.12896407
0001f0 71 90 00 be f1 fc 46 bd 01 c1 7b 3d a3 8a 46 3e
       -0.125551 -0.048581067 0.06146336 0.19388823
000200 b3 c1 8f bd 60 98 c5 bd 73 ff d9 bc 59 f1 43 bd
       -0.07019367 -0.09648204 -0.026611065 -0.04783759
000210 45 3b 8b bc e2 01 f7 3d 56 f9 6c be b3 4e 84 bd
       -0.016996035 0.12060906 -0.23141989 -0.06460323
000220 93 b7 94 3d f1 27 5d 3b 30 b7 26 bd d7 8d 47 bd
       0.072615765 0.003374573 -0.040702045 -0.048719253
000230 6a 3e 28 be ab 08 55 be 83 a0 fe bb f3 ce e9 3e
       -0.16430059 -0.20804088 -0.0077705993 0.45665702
000240 fb b3 b1 bd 0f a4 82 3d bd 06 f6 bd 05 0b d5 bc
       -0.08676907 0.06378948 -0.12013004 -0.026006231
000250 5e 26 c5 bd 5f 4c 9a bb 7d 1b d8 bb 8e 38 0e be
       -0.096264586 -0.004708811 -0.0065950737 -0.13888761
000260 18 48 70 bc d5 cc 7e be 42 64 fb bd fd 7e a3 bb
       -0.014665626 -0.24882825 -0.12274982 -0.0049895034
000270 20 4f 8f 3c 61 55 e9 bd 4b 9e 17 bc a7 33 f8 3d
       0.017493784 -0.11393238 -0.009254049 0.12119227
000280 4f de 3b 3e 28 40 ae 3d 8a c9 bd bd 1c 57 ac bd
       0.18346523 0.085083306 -0.09266956 -0.08415052
000290 ff 6f 9f bd 3a 4b b1 3d d1 e9 c2 3c d3 40 f0 3d
       -0.077850334 0.086569265 0.023793133 0.11731114
0002a0 4a 6e 38 3d 32 69 2c 3d 04 da 44 39 66 ec 7f bd
       0.045027055 0.04209251 0.00018773234 -0.062481306
0002b0 a3 bf f0 bd 6e 0f 09 be 71 c2 73 3d 74 aa 93 bd
       -0.11755302 -0.13384792 0.059511606 -0.07210246
0002c0 5e 7b 84 bc 0e 50 48 bd 99 69 bf 3b 7f 7e 9f bd
       -0.016172107 -0.04890447 0.0058414456 -0.07787799
0002d0 43 04 57 be f9 f6 90 3d 13 fe 90 bd 28 65 c6 3d
       -0.2099772 0.07078356 -0.07079711 0.09687263
0002e0 57 2f d2 bd 63 10 db bd 43 9d 3e bb ed 7e e5 bd
       -0.102629356 -0.10696485 -0.0029085435 -0.1120585
0002f0 c4 f1 53 bd 09 9b 66 be 5e f4 cd 3d f5 ec 1b be
       -0.051744238 -0.22520079 0.10056375 -0.1522711
000300 54 d9 88 3c eb f5 3d bd d8 59 f4 3d a2 65 81 bd
       0.016705193 -0.046377104 0.11931199 -0.06318213
000310 f9 3e aa 3d fc bd 14 bd f7 75 ed 3d 89 3c 9b 3e
       0.08312792 -0.036313996 0.11594766 0.30319622
000320 2c 3a 60 be ab fe 3a bd dd f0 2a 3d 38 57 43 be
       -0.21897191 -0.045653027 0.04173361 -0.1907624
000330 be 73 f4 3e 11 25 6b bb 5d c1 08 3e 7f 2f 46 3d
       0.47744554 -0.0035880248 0.13355012 0.04838514
000340 66 0c f0 3d 43 5a 3e bd 01 c4 40 bc a1 0e 80 3d
       0.11721115 -0.0464728 -0.011765481 0.0625279
000350 15 01 9c 3d 31 83 aa bd 6c 92 df bc 31 85 2a 3c
       0.07617394 -0.08325804 -0.0272915 0.010407732
000360 de a8 aa 3d ea fa 97 3d 63 07 85 3d 3f 2c 87 3d
       0.0833299 0.07420905 0.064955495 0.06600236
000370 11 27 98 3d 9e 3a 41 3e 64 71 26 bc 76 cc 0c be
       0.07429326 0.18870017 -0.01015887 -0.1374987
000380 1d 87 51 be e3 40 0c be 29 ac 52 be 60 10 8c be
       -0.20461698 -0.13696627 -0.20573486 -0.27356243
000390 30 38 d9 bb 05 0e 3f bd 6c 70 57 bd 6b c3 bb bd
       -0.0066290125 -0.04664423 -0.05259745 -0.091681324
0003a0 a6 04 da bc e1 3c ba 3a ea 49 b0 3b 58 48 0c bd
       -0.026613545 0.0014208817 0.005379905 -0.03424868
0003b0 c7 f9 60 bd 30 2f b9 bc b7 d2 ad bd 35 65 e3 3d
       -0.054925706 -0.022605509 -0.08487456 0.11103288
0003c0 30 ef b9 bc 7d 90 10 3d 96 df 15 bd 44 2a a0 bc
       -0.022697061 0.035294045 -0.03659018 -0.019551404
0003d0 51 5b 70 3d c9 1b 04 3d d1 53 f5 bd 58 fd b2 3d
       0.058680836 0.03225306 -0.11978877 0.08739728
0003e0 0a 7b 1f 3e 62 8b 63 3d 4b 7e cd 3d 16 7e 3b 3e
       0.1557428 0.055552848 0.10033854 0.18309817
0003f0 48 85 3b bc d1 40 3d bb 06 33 17 be 45 57 77 bd
       -0.011445351 -0.0028877745 -0.14765558 -0.06038596

a2c_network.actor_mlp.0.bias f4 [128]
000000 f9 2c 55 3d d6 fb 06 3d 13 b4 b5 3d 00 8f 69 bd
       0.052044842 0.032955013 0.08872237 -0.05702114
000010 f8 8a f4 3d 66 21 a8 bd 5f 91 cc bc 7e da 4e 3e
       0.11940569 -0.08209495 -0.024971662 0.20200536
000020 44 39 31 3d d0 58 13 3b e2 bd 12 bb e6 09 c0 3d
       0.043267503 0.0022483356 -0.002239101 0.09376888
000030 e5 9e de bc 52 d5 e7 3d 73 19 02 be c9 7d a6 3d
       -0.027175376 0.113199845 -0.1270502 0.0812946
000040 ed a8 9f 3d ef 28 ef 3d b3 10 1d 3e 87 1a 0f 3e
       0.07795892 0.11677729 0.15338401 0.13974963
000050 ee 7a 6d bd 1b 63 7b 3d 49 93 c0 3d 8e d1 b3 3d
       -0.057978563 0.06137381 0.094030924 0.08780204
000060 54 9f d5 3a ad 5e cc 3d ee cd 1c bd 99 1f f5 3d
       0.0016298094 0.099789955 -0.038282327 0.119689174
000070 6d ab 10 3e bf 38 09 3b 6a 2f 0a 3e ef 76 8f bd
       0.14127894 0.0020938364 0.1349465 -0.07005107
000080 65 4e f4 3d 72 e2 75 3d 36 c4 1a be ca ec 0d 3d
       0.11929015 0.06003041 -0.15113911 0.034649648
000090 46 06 c1 3c e5 f2 19 3e 0c b3 06 bd 73 43 3b bc
       0.023562562 0.15034063 -0.032885596 -0.011429655
0000a0 c6 76 b8 3c 91 96 65 3d 9a ae ac bc b9 df 3b 3d
       0.022517573 0.056051794 -0.02107935 0.045867655
0000b0 15 5f c0 bd 08 b5 0f 3e 91 10 a9 bd 4b 0a 31 3d
       -0.093931355 0.14033902 -0.08255113 0.043222707
0000c0 57 3a 0d 3e 91 82 93 3d 18 92 d8 bd 8c ac 9c 3d
       0.13791786 0.07202638 -0.1057474 0.07650098
0000d0 0c 83 18 3c cc b2 76 3d 73 14 e0 bd 3f bf 62 3d
       0.009308588 0.060229108 -0.109414004 0.055358168
0000e0 5a f3 e0 3d 3b cc 21 3d 03 13 a7 3d 57 04 26 3e
       0.109839156 0.03950141 0.08157923 0.16212593
0000f0 07 e6 f2 3d 8f b8 5f bc 85 c6 29 3e 67 34 6b bd
       0.118602805 -0.013654842 0.16579635 -0.05742302
000100 d5 03 70 3d f0 74 f8 3d 27 1a 6e 3e 07 29 f5 3d
       0.058597405 0.12131679 0.23252164 0.11970716
000110 62 ac 3c 3e a0 5e 93 3d ba c7 57 3e 5a ad 37 3a
       0.18425134 0.07195783 0.21072283 0.00070067274
000120 58 ae 09 3e f1 01 d8 3a a8 bd f2 3d cc a9 ff bd
       0.13445413 0.0016480071 0.1185258 -0.12483558
000130 20 cf 32 be e2 da bc 3d 69 04 14 bd 5a a0 ae bd
       -0.17461824 0.09221436 -0.03613702 -0.085266784
000140 43 54 2f be 62 e4 b9 bd 33 a4 e6 3c 88 fc 2f 3e
       -0.17121987 -0.09076764 0.028154468 0.17186177
000150 75 b2 0d 3e c1 24 65 3d 59 b1 a4 bd 8d 4b 83 3d
       0.13837607 0.055943254 -0.08041639 0.064108945
000160 c6 05 21 be b6 91 28 3e 1a 5e d5 3d 5c 9e 43 bd
       -0.15724859 0.16461834 0.10418339 -0.047758445
000170 6c 50 b6 3d 68 c9 f3 3d c8 6c ad 3d 87 c3 8c bc
       0.08902058 0.119036496 0.08468014 -0.017183078
000180 f8 12 13 3e 7f 74 26 bd 5e 2b d8 bc b8 67 1e 3d
       0.14362705 -0.040638443 -0.026387867 0.038673133
000190 2a 16 5f 3d 92 29 50 be 47 4f c1 3d 92 09 10 bd
       0.054464497 -0.20328358 0.09438949 -0.035165377
0001a0 b5 9e b8 3d 68 c3 1c 3e 4b 5a 82 3e 58 b8 99 3d
       0.09014646 0.15308917 0.25459513 0.07505864
0001b0 fe d3 52 3e ca f8 fa 3d 13 a9 17 3e 00 99 aa 3d
       0.20588681 0.12254484 0.1481059 0.08329964
0001c0 d8 4f f0 3d 4e a1 84 3d 72 3a ef 3d 0b dc a3 3d
       0.11733979 0.06476079 0.116810694 0.08000954
0001d0 e2 66 bf 3d 99 44 bb 3d 19 66 e0 3d f0 52 c7 3b
       0.09345795 0.09143943 0.109569736 0.006082885
0001e0 09 e7 0b 3e a5 7d 88 bc 55 8e 29 3e eb 5c 11 3d
       0.13662352 -0.016661474 0.16558202 0.035489004
0001f0 43 33 24 3c c9 8e 07 3e 23 6d e8 bd 44 43 85 3e
       0.010021987 0.13238062 -0.11348941 0.26027882

a2c_network.actor_mlp.2.weight f4 [128, 128]
000000 29 7d 52 3d 17 49 d6 3d 84 d7 88 bd a6 52 c8 bc
       0.051388893 0.104631595 -0.06681731 -0.024453472
000010 2d 04 a9 bd ba a2 a4 bd ea e0 2f 3c a7 89 f7 bc
       -0.082527496 -0.0803885 0.010734776 -0.030217005
000020 e4 0c 65 3b 9d b6 d2 bd c2 1f aa 3c 3e 39 1c bd
       0.003495031 -0.10288737 0.020767096 -0.038140528
000030 6d 34 0c 3d 31 01 18 bd f1 65 3e bd b9 8f f0 3c
       0.034229685 -0.03711051 -0.046483938 0.029365407
000040 9b 16 09 bd fd bb 11 be da 29 5f bc f7 d9 05 be
       -0.033468824 -0.14231868 -0.013620818 -0.13071428
000050 2f 23 bf 3d 54 82 8b 3d ac 30 d7 bb 4f 0c 8a bd
       0.093328826 0.068119675 -0.0065670814 -0.06740629
000060 e6 f6 64 3d 48 ea ee bd 6e 6e 96 bc a2 8d 8e 3b
       0.055899523 -0.11665779 -0.018363204 0.00435038
000070 76 c9 4a 3d 23 d7 4b 3a 3c 73 21 3d 63 28 10 3b
       0.049508534 0.00077758933 0.039416537 0.0021996729
000080 ea 72 02 be c0 ce 73 3d 0a ad 1a bc 83 80 1e 3d
       -0.12739149 0.059523344 -0.00944067 0.038696777
000090 b8 89 ff 3b 39 d9 23 3d 85 ad 6d bc fd 70 29 3d
       0.0077984 0.04000208 -0.014506702 0.04136752
0000a0 47 64 15 bc aa eb a1 bc 94 80 3a be 65 ed 28 3e
       -0.009118146 -0.019765694 -0.18213111 0.16496809
0000b0 e6 90 98 3d ca c3 08 be 93 63 26 bc ec 68 f0 3d
       0.07449512 -0.13355938 -0.010155576 0.11738762
0000c0 a8 6e 0f bd e7 a6 22 3d 1a 33 a7 3c bb 81 ba 39
       -0.03501764 0.03970995 0.02041011 0.0003557334
0000d0 39 5a 4e 3e cd 42 63 3c e9 ee 50 3c 83 2a 2f 3c
       0.20151605 0.013870907 0.012752273 0.010691288
0000e0 2d f2 39 3d 3c 05 c4 bd 00 77 23 bd f9 14 a6 bc
       0.045396972 -0.09571311 -0.03990841 -0.020273672
0000f0 05 d1 8c bd 2e 8c ba 3d d4 18 45 be 31 b4 86 bd
       -0.06875805 0.091087684 -0.19247752 -0.065773375
000100 c6 ba de bd 05 e8 ab 3c 60 05 bb 3b a0 68 95 bd
       -0.10875468 0.020984659 0.005707428 -0.07295346
000110 45 ed 9f 3d c2 04 39 bd e0 d3 cb bd f5 35 e3 3c
       0.078089274 -0.045170553 -0.09952521 0.02773569
000120 8f 8a 90 bd d7 4d d2 b9 3c c3 81 bd a9 6e 94 3d
       -0.07057678 -0.00040112316 -0.06336066 0.07247669
000130 b9 05 08 3c 68 3f c5 3d be 34 9f bd 0a 5b a1 bd
       0.008302146 0.096312344 -0.07773732 -0.078786924
000140 7b 2f 07 bd f8 2e ef 3c 8d 8a 0c bd 30 23 9f bd
       -0.033004265 0.029197201 -0.03431182 -0.07770383
000150 82 ab ab 3d bf e8 06 bd 71 92 0b 3c 85 b5 0f be
       0.08382322 -0.032936808 0.008518801 -0.14034088
000160 4b d9 68 bb 57 49 cc 3c 33 b2 79 3d 68 2f 09 be
       -0.0035529907 0.024937315 0.06096096 -0.1339699
000170 9a a7 f2 bd 33 a8 d6 3c 7f e2 90 3d 75 c5 c4 3b
       -0.11848374 0.02620325 0.07074451 0.006004984
000180 96 50 a4 bd c1 e9 b6 bd a9 8e 17 3d 80 5c 85 3c
       -0.08023183 -0.08931304 0.037001286 0.016279459
000190 65 80 9d 3d 28 8d 80 bd 7b 34 f8 bc e8 d9 ac 3d
       0.07690505 -0.062769234 -0.030298462 0.0844
0001a0 f4 99 c2 bb 6d 64 17 bc 5d 56 6b 3d 96 a6 e1 3c
       -0.005938763 -0.009240252 0.05745541 0.027545255
0001b0 24 ba 03 3c a6 a5 15 be 2d 89 1f 3e 3c 29 b6 bd
       0.008039985 -0.14613971 0.15579672 -0.088945836
0001c0 99 85 da 3d de bd 86 3d 16 8e 14 be d0 fb c2 bd
       0.10670013 0.06579183 -0.14507326 -0.09520686
0001d0 bd 10 e0 bc a0 3c b1 3d 97 d6 62 3d 3a 54 1e 3d
       -0.027351731 0.086541414 0.05538043 0.038654543
0001e0 d4 a7 ca 3c 42 05 5c 3d d1 29 0c 3d 5c 99 6d bd
       0.02473823 0.05371595 0.034219567 -0.058007583
0001f0 9a 54 91 3d 0f 8d ce bc 8f b0 83 3d 98 43 ce bb
       0.070962146 -0.025213746 0.0643016 -0.006294679
000200 9e 9e 5f 3d d4 d4 f7 bd 55 e8 29 bb 2e ec af bd
       0.05459463 -0.121011406 -0.0025925834 -0.085899696
000210 cc a1 90 bb 2f 40 66 3d 9d 99 00 be 81 27 00 be
       -0.004413819 0.056213554 -0.12558599 -0.1251507
000220 d1 27 8f bd b3 cb 8c bb 15 cb 54 bc 47 9d 40 bd
       -0.06990016 -0.004296744 -0.012987872 -0.04702499
000230 51 78 48 bc 12 c9 66 bd 78 88 49 bb b3 f5 30 3c
       -0.012235717 -0.0563441 -0.0030751508 0.010800767
000240 27 0f 09 3d 6b 31 ff bc 44 22 9d bd 20 9f b3 3d
       0.033461716 -0.031151494 -0.07672551 0.08770585
000250 a0 94 b3 3b fa 68 79 bd 09 a2 25 3d 28 e5 48 bc
       0.005480364 -0.06089113 0.040437732 -0.012261666
000260 23 25 b2 3c c2 9a 6c 3d 4f 21 0f 3d b9 36 b5 3d
       0.021746224 0.057764776 0.034943875 0.08848328
000270 be df 29 3d f0 dc ff 3d 94 6c b3 bd 37 6b ff 3b
       0.041473143 0.12493312 -0.08760944 0.0077947634
000280 82 69 b8 3c 2b 28 04 bc 7b 47 f8 3d 60 d6 4b bd
       0.022511248 -0.008066217 0.12123009 -0.04976499
000290 03 e7 a7 3d 5f 6b 41 be fb 0e aa bb 51 09 35 3d
       0.08198359 -0.18888615 -0.005189774 0.044198338
0002a0 c2 58 58 bd 62 ae a0 bc 27 6c 05 3e ca b2 4a bd
       -0.05281902 -0.019614402 0.13029538 -0.049486913
0002b0 6f a7 a1 3c 30 06 8c bd 6c de 59 3d d2 70 09 bd
       0.019733159 -0.06837118 0.053190634 -0.03355486
0002c0 5c 77 12 be aa 2b ee bd 32 84 29 3d aa 7e 78 bd
       -0.14303344 -0.11629422 0.041385837 -0.06066767
0002d0 95 73 d2 bd 95 6d 77 3c c9 bb 4e 3c 32 5f b5 bd
       -0.10275952 0.01510181 0.012618014 -0.08856048
0002e0 db b0 0d bd 01 b2 7e 3d 67 58 0d bb 60 c3 0f be
       -0.03459249 0.062181477 -0.0021567584 -0.14039373
0002f0 d4 d9 aa bd 77 1f 04 3e f7 11 27 bd cf 97 7b bd
       -0.08342329 0.12902628 -0.040788617 -0.061424073
000300 16 90 8a bd c7 89 27 bd 55 ed 3a 3d 93 e8 d9 3c
       -0.067657635 -0.04090288 0.045636494 0.026600158
000310 3d 9e 98 bd 28 42 02 be c4 da 19 be 4c 22 7f 3c
       -0.074520566 -0.12720549 -0.15024859 0.015572142
000320 7a 38 a6 3c 86 02 a4 3d 6e 9b 00 bd ed fc a5 3b
       0.020290602 0.08008294 -0.03139823 0.0050655515
000330 bc 71 10 3d 52 50 84 bd 56 68 93 3d 2b 43 96 3d
       0.035264716 -0.064606324 0.07197635 0.0733703
000340 c7 25 6c 3d 1d 00 8e 3d b9 d8 76 bc 8f e5 6a bc
       0.057653215 0.06933615 -0.015066319 -0.014336958
000350 da db dd 3d 4a 7d db bd aa 2d 2c 3d 09 64 9d bd
       0.10832949 -0.10717256 0.042035736 -0.07685096
000360 e2 4b 8e bc 6f 99 f4 bd 07 80 9e bd 0f 38 76 3d
       -0.017370168 -0.11943328 -0.07739263 0.060112055
000370 5b 6b 1a be ce c0 56 3d 34 eb 14 3d 82 e5 d2 3d
       -0.15080015 0.052429967 0.03635712 0.102976814
000380 e2 57 a5 bd 1a 55 dd bd d6 34 a2 3c 03 d6 18 3b
       -0.08073403 -0.108072475 0.019800585 0.002332092
000390 aa a6 fb 3c d3 9b 83 3d 49 b7 88 3b 8b 24 b0 3c
       0.03071912 0.064262055 0.00417224 0.0215018
0003a0 48 f2 00 be e3 72 07 be b4 74 27 be b0 8e 9f bd
       -0.12592423 -0.1322742 -0.16353112 -0.07790887
0003b0 4d 03 87 bc 06 83 96 3d 1b ab 08 3d 70 f0 a4 bd
       -0.016481066 0.073492095 0.033366304 -0.08053672
0003c0 25 60 ab bb d0 54 f7 3d 2f 88 78 bc 82 c5 49 ba
       -0.005229967 0.120767236 -0.015169187 -0.00076969725
0003d0 5b 1a b9 bd 7e 1f 65 3c 7e ee 66 3d ef 05 08 bc
       -0.0903823 0.013984559 0.056379788 -0.008302196
0003e0 c5 97 a5 bd e1 80 9f 3d 29 53 35 bd 67 ef e9 bc
       -0.08085588 0.077882536 -0.04426876 -0.028556539
0003f0 cb e5 98 bc b6 5c 51 3d 56 fe 01 3d e8 6d 57 bd
       -0.018664261 0.051113807 0.031736694 -0.05259505

a2c_network.actor_mlp.2.bias f4 [128]
000000 81 46 95 bc 32 49 e3 bd d1 57 4b bb 94 ba aa 39
       -0.018222095 -0.11097945 -0.0031027684 0.00032563938
000010 eb fb 65 3d 54 38 85 3c 4e 53 76 3d 2d e4 c1 3d
       0.05614845 0.01626221 0.06013804 0.09467349
000020 c0 ed ea bd fe 90 53 bc c3 b0 d4 bd f6 e5 e7 bc
       -0.114711285 -0.012912987 -0.10385277 -0.028307896
000030 59 13 94 bc 3b 34 b6 bd c1 34 61 bd db 00 86 bd
       -0.018075632 -0.08896681 -0.05498195 -0.06543132
000040 95 f9 05 3c 79 51 7e bd 26 b8 13 3c 2f 4e 10 bd
       0.008177181 -0.062089417 0.009016072 -0.03523081
000050 ab cb 2d be a4 31 b3 3d d3 b0 04 3c a1 7b aa bd
       -0.16972224 0.087497026 0.008098799 -0.083243616
000060 4b d0 40 be b9 8f 54 bd b4 37 dc bb 84 a6 96 bb
       -0.18829457 -0.051894877 -0.0067205075 -0.004597487
000070 c0 de 5b be ec e9 03 3d 2b 1a aa bc 81 f9 ab bd
       -0.21471691 0.032205507 -0.020764431 -0.083971985
000080 76 73 de 3c 75 34 86 3d fc 8c 6c 3d 31 17 23 be
       0.027154665 0.06552974 0.05775164 -0.15926816
000090 b3 b9 b8 3c 22 6f f8 3c 12 93 0a be 13 ea 2b bd
       0.022549486 0.03032643 -0.13532665 -0.041971277
0000a0 fd df 82 3d 88 f9 c7 bc bf b5 b2 3c 97 55 5c bc
       0.063903786 -0.024410978 0.021815179 -0.013448141
0000b0 62 95 32 3c b5 4b 0b bd 05 bc 2a be 02 9e 76 bd
       0.010899873 -0.034007747 -0.16673286 -0.06020928
0000c0 43 a2 70 bc a1 52 dd bb d8 4d 93 bc c8 6f f4 bd
       -0.014687124 -0.006754235 -0.017981455 -0.11935383
0000d0 73 5c 20 bc ca 1b 86 3d 5e 68 11 be e2 5e ed 3b
       -0.009787667 0.06548269 -0.14199969 0.007243977
0000e0 b4 73 69 3c b8 c8 0f bd c9 56 c4 3d 8d 60 ac bd
       0.014248777 -0.03510353 0.095868655 -0.08416853
0000f0 91 2f fc bd ce 0a b7 3d 2b ec 86 3d a0 90 3d 3d
       -0.1231376 0.08937608 0.06588014 0.046280503
000100 9e af 1b bd 19 80 14 bd 2c fd ba 3d ce 69 b0 bc
       -0.03800928 -0.036254976 0.0913032 -0.021534827
000110 56 5d 77 3c da 3c b7 3c d5 9a a6 3d 24 2a 98 bb
       0.015097937 0.022367883 0.081350006 -0.0046436954
000120 f3 24 7b 3d 32 80 f4 bd 57 d9 4a 3d 3c ce 3b be
       0.061314534 -0.11938514 0.049523678 -0.18340391
000130 3c 8c f7 bd a6 96 fe bd 1d d4 79 3c 70 9e 79 3d
       -0.120872945 -0.12431078 0.015248326 0.060942113
000140 d9 cb 40 3d 76 80 52 3d c8 52 40 bc 69 6a 9b bd
       0.047069404 0.05139204 -0.011738487 -0.075886555
000150 d4 87 e5 bd 6d ce 8b 3d 5f 51 12 be 3d 2e fb bd
       -0.11207548 0.06826482 -0.14288853 -0.122646786
000160 86 1a 44 3d 44 83 cf 3b 7d 0c 08 bd b8 be 3c bd
       0.047876857 0.0063327868 -0.033215035 -0.04608032
000170 ca 26 82 3c 0c 3b fa 3d 4f 8f b2 3d c6 ef ba bd
       0.015887637 0.122182935 0.0871874 -0.091277644
000180 f4 4b 32 3c cb 35 60 3c dd 6d 6c 3d 1c d1 8c 3d
       0.010882366 0.0136847 0.05772196 0.06875822
000190 29 51 cc 3c 78 e9 0c bd 04 30 cd bc 25 0e 64 bc
       0.024941044 -0.03440234 -0.02504731 -0.013919388
0001a0 f7 d3 8c 3d 0f 91 16 3d 77 b0 0a bd d7 0a 71 3c
       0.068763666 0.036759432 -0.033859696 0.014712057
0001b0 50 5b b8 3d c6 42 2e bd bd 3e 9f 3c 81 14 b0 bd
       0.090017915 -0.04254415 0.019439096 -0.08597661
0001c0 8b 09 2f 3d 10 24 2c bc 1c 22 1f 3c c4 b0 fe bc
       0.04273371 -0.010506645 0.009712722 -0.031090148
0001d0 e5 14 8f 3d 39 ed c9 bd e4 6a 62 bd 12 66 99 bc
       0.06986407 -0.098597 -0.05527772 -0.018725429
0001e0 1b 74 6d bd 87 53 da 3b 47 e7 99 bc ce c0 5a 3d
       -0.057972055 0.0066627893 -0.01878704 0.05340653
0001f0 c7 b7 ed bb 46 1c a5 3c 8a 3e e7 3c f9 22 d9 bc
       -0.007254574 0.020155083 0.028228063 -0.026505934

a2c_network.actor_mlp.4.weight f4 [128, 128]
000000 84 eb 46 bc cb 42 69 bd 74 ff 22 bd 00 6c c7 3b
       -0.012141112 -0.056948464 -0.0397944 0.0060858727
000010 ce 65 14 3d 69 e3 02 be 3a 00 31 bd 16 ec 86 3d
       0.0362299 -0.12782063 -0.043213107 0.065879986
000020 b8 5d 48 bd 54 2d f8 3c c6 d7 5b 3d de a4 53 3c
       -0.048917502 0.030295052 0.053672574 0.012917725
000030 12 8c 5e 3c 00 8a ba bd b9 eb 10 39 fa 60 a1 3c
       0.0135832 -0.09108353 0.00013820724 0.019699562
000040 05 4b 20 3b cb eb 14 bd b3 11 39 bd 38 9e ac bd
       0.0024458778 -0.036357682 -0.045182895 -0.08428615
000050 57 1a ed 3c 26 f5 64 3d c7 0e b6 3c 57 9d 55 3b
       0.028943224 0.055897854 0.022223843 0.0032595003
000060 0c a5 22 bd 04 ae 5f 3d bc 52 22 3c 03 ee 17 bd
       -0.039708182 0.054609314 0.009907421 -0.03709222
000070 22 44 d4 bc ea 5c 50 bd 77 d0 ca bd bf 9a cb 3d
       -0.025911395 -0.05086986 -0.09903043 0.09941625
000080 bf 82 46 3d ba f8 96 bd 3e 73 18 bc d4 29 14 3d
       0.048464533 -0.073716596 -0.00930482 0.036172703
000090 9e ec b0 bc 26 72 f8 bc e2 03 df bd 36 6e 96 bd
       -0.021597203 -0.030327868 -0.108894125 -0.0734524
0000a0 86 fd ac bc 77 5b 2d bd a5 f3 63 bd a3 2d 5c bd
       -0.021116983 -0.042323556 -0.05565228 -0.05375446
0000b0 3f 66 4e 3d d1 5d 6b bd ee 31 05 be 09 98 60 3d
       0.05039048 -0.057462517 -0.13007328 0.054832492
0000c0 1a fc 7b 3d 45 7d 35 bd 3b 32 9e bb 74 7e b5 bc
       0.06151972 -0.04430892 -0.0048277653 -0.022155024
0000d0 b8 37 29 3d 7c 58 21 bc db af dc bd cd ec 99 3d
       0.041312903 -0.0098477565 -0.10775729 0.07515869
0000e0 71 b9 a2 bd e8 bd d5 3a 72 06 ca bc c8 3a a1 bd
       -0.079455264 0.0016307207 -0.024661276 -0.0787254
0000f0 23 5b 2e bc cd 28 ff 3c a4 8e c5 3b cd 5e 0c 3e
       -0.010641846 0.031147385 0.006028967 0.13708039
000100 ad 40 e4 3d d0 c1 90 3d fc 91 2e bd 05 02 4d bd
       0.111451484 0.07068217 -0.04261969 -0.050050754
000110 a0 d7 ca 3d f4 45 a9 3c 82 ed a6 3d 7f b5 f1 3d
       0.099044085 0.020663239 0.0815077 0.11802196
000120 32 f6 e7 bc f3 6e 10 3d a8 fe 0c 3d 3e 45 db bc
       -0.028315637 0.03526206 0.034422547 -0.026766416
000130 18 53 8d bd 3b fd ba bb 5a 9c b3 3d a3 57 30 bc
       -0.069006145 -0.005706457 0.08770056 -0.010763082
000140 84 3a b6 3c 33 ab f0 3c 2a 3b 1a 3d 09 e5 b7 3d
       0.0222447 0.02937851 0.03765408 0.08979232
000150 2f b6 5b 3b c3 b1 00 bc ac 3b 70 bd dd 6f f7 bc
       0.0033525338 -0.007854882 -0.058650658 -0.030204708
000160 c9 a8 93 bd d7 22 32 3d ac 68 39 3d d0 94 1d bd
       -0.072099276 0.043490257 0.04526584 -0.038471997
000170 ed 7c 20 3d 3d ae 24 bc 1b 42 82 bd 5e c1 ef bb
       0.03918164 -0.010051307 -0.06360265 -0.0073167523
000180 26 16 8b bc 40 8e 23 bd d9 7a bd 3d 0d de b6 3c
       -0.016978335 -0.039930582 0.09251947 0.022322679
000190 96 3c 97 bd 9c 53 85 bb 0b c7 ea bc bd dd a7 bd
       -0.07384603 -0.004068805 -0.028659364 -0.0819659
0001a0 79 57 6f 3d 71 cf 39 3c 60 71 bc ba 3f 37 02 bd
       0.05843303 0.011340962 -0.001437705 -0.031790968
0001b0 44 a4 69 bc 06 ae 89 bd df 3a 6d bc 50 36 39 bd
       -0.014260355 -0.067226455 -0.014479368 -0.045217812
0001c0 4f 97 c3 3c 25 d1 64 3c 25 d8 d7 bd e1 c2 be bd
       0.02387586 0.01396588 -0.10539273 -0.09314514
0001d0 5a bd 3a bd dc 1c 23 3d 6a a7 9f 3d 80 4d 11 3d
       -0.045590736 0.039822444 0.077956036 0.0354743
0001e0 80 fb 52 3d e5 38 7e 3d 8f 1e 7d bd bd a5 c5 3d
       0.05150938 0.062065978 -0.06179672 0.09650753
0001f0 1e f6 ae bd 05 6b cd bc d2 5f 1a 3c 30 96 da bd
       -0.08543037 -0.025075445 0.009422259 -0.10673177
000200 b2 ac 57 3c 99 9d 17 3d 63 f4 94 bc 9b 73 3e 3d
       0.013163732 0.03701553 -0.018182939 0.04649697
000210 e2 bb 9b 3d 90 67 33 bd ec 0c 6b bd 06 d8 10 3d
       0.07604195 -0.043799937 -0.05738537 0.035362266
000220 d8 29 33 bd e7 d6 5d bd 40 c1 95 3b 19 92 7e 3d
       -0.043741077 -0.054160025 0.0045701563 0.06215105
000230 97 ac 9b bd 2c 08 1d bd bd 15 4f bd 3e e9 f5 3d
       -0.07601278 -0.03833787 -0.05055784 0.12007378
000240 ba fd 8b 3d 6c 1d d3 bc 9e 4c e4 bd d8 b9 84 3d
       0.06835504 -0.025770865 -0.11147426 0.064807594
000250 20 d9 da bd 88 38 2e bd 83 6f 16 3e dc 39 38 bb
       -0.106859446 -0.04253438 0.14690976 -0.0028110659
000260 8c 32 d4 bc 40 d2 c5 bd b6 a9 98 bd ad fb f3 bb
       -0.025903009 -0.09659243 -0.07454245 -0.0074457736
000270 ad 3e d4 3c e9 5c 52 bc 44 d0 4d bd bd 57 2c bd
       0.025908792 -0.012839534 -0.050247446 -0.04207586
000280 a4 c4 1c bc c3 b6 d4 3c 29 1e 3b bd 39 ff 53 bd
       -0.009568367 0.025966054 -0.04568306 -0.05175707
000290 db 3b a3 bd cd b9 82 3d 57 75 80 bd 6c 77 f6 bd
       -0.07970401 0.06383095 -0.06272381 -0.12034497
0002a0 cb a0 01 bd 72 e0 b9 bd d7 44 c7 bd b7 fa 53 bd
       -0.031647485 -0.09076013 -0.09729927 -0.051752772
0002b0 50 4d 82 3d f7 54 ba bd 91 1a ac bd 7f 54 05 3d
       0.063624024 -0.09098237 -0.08403505 0.032551285
0002c0 93 75 8e 3d 38 1c 2e 3c a5 7c 01 3e 3e a2 3f 3d
       0.06956019 0.010626845 0.12645204 0.046785586
0002d0 ec ea 77 bd 6e 21 bf bb dc dd 81 bd fe 8d f2 3d
       -0.060526773 -0.0058328426 -0.063411444 0.11843489
0002e0 36 be e8 bb 91 1f 74 3d 68 8d 2f bd e5 a7 9c bd
       -0.007102753 0.059600417 -0.042859465 -0.07649211
0002f0 b0 fd 93 bd 77 98 ba 3d 70 b2 9a bd c6 19 74 ba
       -0.072261214 0.091111116 -0.075535655 -0.0009311702
000300 4c 5c 95 3c 2b 96 a9 bd 39 c0 e3 bc fd 8a 5c 3d
       0.018232487 -0.082805954 -0.02780162 0.053843487
000310 cd 25 d1 3d 74 e6 56 bb 63 19 bc bc 3a 99 8c 3b
       0.10212288 -0.003279117 -0.022961324 0.004290727
000320 c9 c1 a7 bc 0d 2e 8a bc e2 27 84 3c 23 26 06 3d
       -0.020478146 -0.016867662 0.016132299 0.032751214
000330 27 46 15 3e 38 a6 44 bd 34 e5 55 3d 9c 68 97 3d
       0.14577542 -0.04801008 0.05222054 0.073929995
000340 7d 43 8e 3c ee 00 5d bc a5 10 74 3b e9 db c6 3c
       0.017366165 -0.013488991 0.0037241366 0.024274783
000350 20 6f 5d 3d 89 7b 44 3d 3e 36 15 bd 8e 7d a2 3c
       0.054061055 0.047969375 -0.036428683 0.01983526
000360 4a b9 ac 3d e6 f1 75 3d 14 82 1a 3c 42 e7 e4 bd
       0.084337786 0.060045145 0.009430427 -0.111769214
000370 da 14 61 3d 37 2e 9f bc e5 c4 85 3d a1 e6 1b 3d
       0.054951526 -0.019431217 0.06531695 0.03806174
000380 fc 6d 86 bd 9c c4 55 bc bc 03 bb bc 34 b5 ab bd
       -0.065639466 -0.013047364 -0.02282893 -0.08384171
000390 c7 c4 b9 3c 32 d0 cf 3d ff 5c b7 3d fb 43 44 bd
       0.022676839 0.10147132 0.089532845 -0.047916394
0003a0 f3 86 8e bc 3c 6d 98 bc ba df 55 3d ee 23 95 bd
       -0.017398333 -0.018606775 0.052215315 -0.07282244
0003b0 89 30 5c 3c 52 d6 b2 bd 19 c0 64 3c 06 8e 03 3d
       0.013439306 -0.087322846 0.013961815 0.032117866
0003c0 b5 a5 b1 bd 14 6e b1 3d 58 38 19 bd 98 70 7d 3d
       -0.08674184 0.08663574 -0.03740725 0.061874956
0003d0 00 06 eb bd 3f 63 92 3d b1 c7 03 3e cd 83 2f 3d
       -0.11475754 0.07147836 0.12869145 0.042850304
0003e0 4a 51 bf 3a 62 27 fa 3b 4e 19 c9 bd 72 cc cd 3c
       0.001459637 0.0076340893 -0.098192796 0.025121901
0003f0 44 f5 36 3d 22 58 5d 3d 40 13 71 bd d1 cf a8 3c
       0.044667497 0.054039128 -0.05885625 0.020606907

a2c_network.actor_mlp.4.bias f4 [128]
000000 4a e3 4d 3d f3 22 23 3d 61 25 61 bd fb 5c ae bd
       0.050265588 0.039828252 -0.054967288 -0.08513828
000010 ce f6 e1 bd 37 51 38 3c 8e ce 85 3d c9 df c5 3c
       -0.110334024 0.011249832 0.06533538 0.02415456
000020 69 ee df 3c e2 64 77 3d 3d 61 ca 3c e4 bb cc bc
       0.027335363 0.060398944 0.02470457 -0.024991937
000030 63 05 1b bd 49 22 66 3d 01 5d 2b bd 04 b8 82 bb
       -0.037846934 0.05618504 -0.041836742 -0.0039892215
000040 2a c7 20 bd f1 7d 63 bd 49 ca 52 bd 9d b9 65 bd
       -0.039252438 -0.05554003 -0.051462445 -0.056085218
000050 c3 d8 1f 3d 64 0d 2f bc c2 0a 86 3c 97 8e 31 3c
       0.03902508 -0.010684345 0.016362552 0.010837219
000060 16 94 6f 3b e8 1b 7b bd 58 a6 0c be f0 bb f4 bc
       0.0036556772 -0.06130591 -0.1373533 -0.029874772
000070 9d c5 c3 3d 3e 2a 74 3d 9b ec 45 bd 3c 50 05 3c
       0.09559176 0.059610598 -0.048321348 0.008136805
000080 a3 a5 dc 3d 02 90 10 bd 38 7d b8 bc d4 15 f8 bd
       0.1077378 -0.035293587 -0.022520646 -0.121135384
000090 cc 1c a5 3c e1 b8 81 3d 86 6f 13 bd 5f 0c 29 bd
       0.020155333 0.06334091 -0.03599503 -0.041271564
0000a0 c9 11 3b 3c 76 16 0e bc 15 f6 81 3c 57 7c 0b bd
       0.0114178145 -0.008672347 0.015864411 -0.034054127
0000b0 da 5c 8d 3b a3 f5 a9 3c 76 f6 9d bd 77 5b 04 3e
       0.0043140473 0.020747012 -0.07713024 0.12925516
0000c0 10 1a 59 3d a1 12 ae 3d 7d a5 35 bd 00 f2 b9 bd
       0.05300337 0.08499647 -0.044347275 -0.09079361
0000d0 2d 3d 85 3d a2 4e 8e bd 37 a7 91 3d f4 68 e2 bd
       0.06505809 -0.06948592 0.07111972 -0.110551745
0000e0 e0 9c 4a 3d de 24 d2 bd e4 fa d8 bd fc 4f 18 3d
       0.049466014 -0.10260938 -0.105947286 0.037185654
0000f0 43 1f 84 3d 6b 2d 2f bd f5 f9 19 bc 07 e3 d9 3d
       0.06451275 -0.042767923 -0.009397973 0.10639005
000100 4d e8 0d bd 37 e0 ca 3c 29 df 94 3d bf fb 85 bc
       -0.034645367 0.024765117 0.07269127 -0.016355393
000110 01 f3 73 3d 5d a2 16 be ae 17 e9 3c 30 7d df 3b
       0.05955792 -0.14710374 0.028453674 0.0068203434
000120 60 11 ff bc fb c4 74 b9 bf e6 81 bb d6 34 91 bc
       -0.031136215 -0.00023343034 -0.0039642747 -0.01772539
000130 17 59 9f 3d 1d f5 20 bc 26 c4 0e bd ec 9c 88 bd
       0.077806644 -0.009824065 -0.03485503 -0.066705555
000140 4f f4 03 be e9 a0 97 3d 92 7f 24 bd d7 29 be bd
       -0.12886165 0.07403738 -0.040160723 -0.09285324
000150 d7 df 9f bc eb 6a 7b 3d 5c 45 78 bc d1 3a bf 3d
       -0.019515915 0.06138126 -0.015153255 0.0933739
000160 c2 d1 c5 bd 0a b8 8f 3b b1 d5 8b 3d ec 94 7b bd
       -0.09659149 0.004385953 0.06827868 -0.06142132
000170 73 88 1b 3d 8d 1b 9c bd ea 01 d6 bc dc d1 13 3d
       0.037971925 -0.076224424 -0.02612396 0.03608881
000180 74 79 af bc 72 7c 83 bc 4d da 2f bd 2b a3 6b bc
       -0.021420218 -0.016050551 -0.042932797 -0.014382164
000190 55 c0 d2 bc 6f 78 9e 3c 9c 28 6f bd ec ad 20 bc
       -0.025726477 0.019344537 -0.058388337 -0.009807091
0001a0 10 29 56 3d 42 0a 09 bd 06 52 ab bc 4c 9b 94 bd
       0.052285254 -0.03345705 -0.020913135 -0.07256183
0001b0 b5 2a fd 3d ae cf 23 3d bf c1 96 3d 1c ba 10 bd
       0.12361661 0.03999298 0.07361173 -0.035333738
0001c0 5e e5 5b bd e5 1e a1 bb d6 9f 84 3d f3 40 0b be
       -0.05368554 -0.004917013 0.06475799 -0.13598995
0001d0 30 24 82 bd bf 9a 20 3d 18 32 0d 3d 41 36 94 bd
       -0.063545585 0.039210077 0.0344716 -0.072369106
0001e0 1f dd c4 bc 14 cd 62 3d c2 6c ad bc 00 ca 61 3c
       -0.02403122 0.05537136 -0.021170024 0.013781071
0001f0 02 ba 93 3d b1 1f 48 bd ef 16 29 3d ae 33 ca 3c
       0.072132125 -0.04885835 0.041281637 0.024682846

a2c_network.value.weight f4 [1, 128]
000000 8c 21 33 3c 5f a9 fe bc 2b ea 10 3c ae 73 1c bd
       0.010933291 -0.031086622 0.0088448925 -0.03819626
000010 27 17 19 3d 4f 8c 13 3d 20 ff 10 bd 20 1f c0 3c
       0.037375595 0.03602248 -0.035399556 0.023452342
000020 42 13 45 bd d9 70 35 bc 4a d1 f0 3b c3 b7 08 3d
       -0.04811407 -0.011074268 0.007349168 0.033378374
000030 76 83 d4 3c af 9a 57 bc c7 40 af 3a 3d 2e 86 3d
       0.025941592 -0.013159438 0.0013370746 0.06551788
000040 7e d9 b4 bc bb 39 24 3d 6d 57 96 3d 56 1a d5 ba
       -0.022076365 0.04009412 0.07340894 -0.0016258459
000050 5f 7a 3f 3c c0 a9 c9 bd ed 9b 8a bd 50 40 c9 3c
       0.01168689 -0.0984683 -0.06768022 0.0245668
000060 9d 84 02 3c 7e 80 6c bd 44 a0 56 3c 50 98 da bc
       0.007966188 -0.057739727 0.013099734 -0.026683956
000070 f6 c8 44 3d 04 a1 05 bd 13 5d 52 bc 01 32 b8 bd
       0.048043214 -0.03262426 -0.012839573 -0.089939125
000080 22 da 8b bb 6c 1b e0 3c 3b 5b 70 bd 79 c1 95 bc
       -0.004267947 0.027356826 -0.058680754 -0.018280732
000090 ed d6 18 3c 38 cb 56 bb 42 dd 9a 3c ce fa c2 3d
       0.009328586 -0.0032774936 0.018904332 0.095204934
0000a0 9e 28 20 bb 87 00 7e 3d 33 19 fd bc c2 f8 00 bd
       -0.0024438272 0.06201222 -0.030895805 -0.031487234
0000b0 ae 48 c9 3b b1 b3 b9 bc 3d 54 b1 3d b4 7c 47 bd
       0.0061426973 -0.022668691 0.08658645 -0.04870291
0000c0 08 a3 d8 3b 57 95 1e bd 0e 51 51 bc d0 23 a3 3c
       0.0066112317 -0.03871664 -0.012775673 0.019914538
0000d0 f7 1a 22 bc 19 94 c0 3c 5b 58 e2 bc 68 b2 2c ba
       -0.009894124 0.023508118 -0.027630022 -0.0006587864
0000e0 0d f4 6d bd a5 b2 5f bc a3 df 02 3d 80 70 97 3d
       -0.058094073 -0.013653432 0.031951558 0.073945045
0000f0 87 5f 5d bd 69 fe 03 bd 0a 6d 56 3c 07 6f ea bc
       -0.05404618 -0.032225046 0.01308752 -0.028617395
000100 b6 bf 80 3d d3 b4 e2 3c a0 55 13 3b f2 25 90 bd
       0.06286566 0.027674114 0.0022481456 -0.070384875
000110 88 a7 92 3c ed 25 db 3c 53 35 3d bd 61 6c e0 3c
       0.01790215 0.026751483 -0.046193432 0.02739543
000120 86 d0 85 3b 66 3f 60 3d 00 98 e2 3b d4 65 39 bd
       0.004083696 0.05474796 0.0069150925 -0.045263126
000130 c9 44 74 bd 31 6e 14 3d 30 da ed 3a 47 18 a1 3c
       -0.05963591 0.0362379 0.001814669 0.019664897
000140 b6 27 9c bd a6 f3 96 bd 9f 95 e1 bc 83 8e a2 bb
       -0.07624762 -0.07370691 -0.027537165 -0.0049608364
000150 d1 73 a8 bd af 78 2b bd 97 67 0f 3b 8f 02 e3 3c
       -0.08225215 -0.04186314 0.0021881813 0.027711181
000160 33 35 2e 3d eb 1f 01 3d ce ed b5 ba 28 78 d1 3c
       0.042531203 0.03152458 -0.0013880075 0.02556999
000170 0e f3 10 be a9 ad 41 3c 44 b8 01 3d b9 35 74 3c
       -0.14155218 0.011821189 0.03166987 0.014905387
000180 24 80 bb bc 38 33 7a bd 99 40 6d bc 9a b6 8e bd
       -0.02288825 -0.061084002 -0.014480733 -0.06968422
000190 7e 69 90 bd a3 88 0f bd 48 d7 d1 3d 6c ed 26 3c
       -0.07051371 -0.035042416 0.1024614 0.010188442
0001a0 10 7e a5 3c 5a e1 63 bd 6a fc 05 be 51 55 14 3d
       0.020201713 -0.055634834 -0.1308457 0.036214177
0001b0 e0 d1 b9 bb 73 66 90 bb 76 88 2a 3d 0f 4e 11 3d
       -0.005670771 -0.004406744 0.041634046 0.035474833
0001c0 c7 f0 f8 bc a8 7f 00 3d 8c 99 6c bc ba 8d 56 3d
       -0.03038825 0.031371742 -0.014440905 0.052381255
0001d0 44 04 04 3d 84 22 35 bd 2a a7 0a bd 60 e7 cf 3c
       0.03223063 -0.04422237 -0.033850826 0.025378883
0001e0 0a a8 0d bc 92 d3 ed bc c4 37 38 3d 82 d5 c4 3d
       -0.008646021 -0.029031549 0.044975057 0.09611036
0001f0 b8 43 b7 3c 3e 8d e6 bc 9c fe 4d bd fd 03 32 3d
       0.022371158 -0.028143521 -0.050291643 0.043460835

a2c_network.mu.weight f4 [18, 128]
000000 6e c1 a0 bb 07 1d 6f 3c 55 0c dc bc 96 e1 23 3e
       -0.004905871 0.014594323 -0.02686135 0.16004023
000010 4b 2d d9 3d ce 7b 0e 3d ca f2 36 bd 3b 9a 5d 3c
       0.10604342 0.034786038 -0.044665135 0.013525541
000020 2b 0d 9c bd 3f 79 29 be 97 9f b7 3c e1 5b f5 bd
       -0.07619699 -0.16550158 0.022414966 -0.11980415
000030 26 d5 36 bd 3d cc a3 bd 6d 91 1d 3e 17 d6 f1 3c
       -0.044636868 -0.0799794 0.15387507 0.029521031
000040 1a 0e 40 3c 5e 85 ad 3d 89 b1 76 bc 5b db fa bd
       0.011722112 0.084727034 -0.015056976 -0.1224887
000050 fc e6 d2 bd b4 8b d1 bc 43 68 89 bc 5a 9d 35 3d
       -0.10297963 -0.025579311 -0.016773349 0.044339515
000060 11 3b 7e bd 9c 7a 46 3d c5 a6 2b bc 93 11 9b bd
       -0.06206805 0.048456773 -0.010476773 -0.075717114
000070 16 96 d4 3d 06 00 d2 3c a2 9f b3 3d 9b f9 a0 bd
       0.10380189 0.025634777 0.08770682 -0.078601085
000080 a9 e9 26 bd 84 89 c6 bd a4 59 cd bd d0 13 ab 3c
       -0.04075018 -0.09694198 -0.10026863 0.02088347
000090 86 57 80 3d c0 cd f0 bd 07 03 df 3c 24 6b d4 bd
       0.06266694 -0.11757994 0.027223123 -0.10371998
0000a0 ef 69 86 3d c9 1a dc 3d 43 f1 3c bd 57 91 13 be
       0.06563174 0.10747296 -0.046128523 -0.14410912
0000b0 a4 ea 88 3c e3 e6 3d be 27 44 4e 3d 7e 98 c2 bb
       0.016713448 -0.18545108 0.050357964 -0.0059385886
0000c0 f2 82 26 3d 11 79 31 ba 3f c9 20 3e 0e dd 9f bc
       0.040652223 -0.00067700545 0.1570177 -0.019514587
0000d0 1a 49 ad bd 39 10 37 bd c6 66 cd bd c2 bc c0 bc
       -0.08461209 -0.044693206 -0.10029368 -0.023527507
0000e0 46 64 d6 3d b7 87 a4 3d fa ae ce 3d 06 51 3d 3d
       0.104683444 0.08033698 0.10091968 0.046219848
0000f0 64 cc 22 bd c9 fa 37 3c 94 51 aa 3d 7e dd 1d bb
       -0.039745703 0.011229225 0.08316341 -0.0024088318
000100 c4 5c b5 3d 69 66 38 bd c1 ed 60 3e 58 c3 9d 3c
       0.08855584 -0.04501954 0.21965696 0.019258186
000110 f5 dc b6 bd 27 46 85 ba 9a 97 89 3d e3 59 91 3c
       -0.08928863 -0.0010168002 0.06718369 0.017743057
000120 e7 cb 9b bc eb b0 e7 3d 9e cc 21 3e 71 5f 66 3d
       -0.019018127 0.11313041 0.15800712 0.056243364
000130 72 b0 c1 bd 8f d0 9c bd e9 8d 31 3d e4 3a 2e 3d
       -0.094574824 -0.07656967 0.043348227 0.04253663
000140 fe 99 2b bc 04 f0 14 3d 0f 0c e4 3c b8 4c e3 bd
       -0.010473726 0.03636171 0.027837781 -0.11098617
000150 62 71 07 3d 14 98 7f 3d c2 c4 23 3d a8 79 79 3d
       0.033067115 0.062400892 0.039982565 0.060907036
000160 4d 74 65 bb 69 35 9d bd 14 15 91 bd 8d 17 15 3d
       -0.0035011948 -0.07676203 -0.070840985 0.036399413
000170 3f 9e 4d bc f0 db 35 3d ff 5c 33 3d 35 1a 1e 3c
       -0.012549936 0.044399202 0.04378986 0.009649803
000180 c0 74 c2 3d 96 e7 0f bd 05 73 84 bd 2b f5 be 3d
       0.094949245 -0.035132967 -0.06467251 0.09324106
000190 d2 4e 69 3b f2 38 89 3d a0 8a 03 3d ba a9 ba 3d
       0.003559996 0.067003146 0.032114625 0.09114404
0001a0 80 9b db 3d 98 fc 12 3d ba ed 28 bd 9e 6c 65 bd
       0.10723019 0.035885423 -0.04124234 -0.05601179
0001b0 2c d2 b3 bd 73 3d 19 3d de c5 78 bd 3c e8 02 be
       -0.087803215 0.03741212 -0.060735576 -0.12783903
0001c0 88 43 21 3e 45 65 a4 bd 9d a0 e9 bc c3 db 13 3d
       0.15748417 -0.08027128 -0.02851897 0.036098253
0001d0 5c ba eb bc 5f ba b1 bd 1f 6d 4e be f3 e1 0b 3e
       -0.028775387 -0.086781256 -0.20158814 0.13660412
0001e0 9f 19 3a 3d 5b d0 01 be fc 0f 9e 3d c1 4c 5a bd
       0.04543459 -0.12677138 0.077178925 -0.053295854
0001f0 77 00 e2 bd 42 72 be 3d a6 e9 1b bc d1 82 c7 bd
       -0.11035245 0.09299137 -0.009516155 -0.09741748
000200 2c b1 01 bb 61 68 c7 bd a9 19 8e bc 01 e7 48 3e
       -0.001978944 -0.097367056 -0.01734622 0.19619371
000210 fc 16 1b 3e 6f b7 51 bc 13 7b a5 3d 4a 2c b0 bd
       0.15145487 -0.012800082 0.08080115 -0.086021975
000220 04 4b ea 3d 63 e1 17 be 3d 5c 8b 3c 26 72 f6 bd
       0.11440089 -0.14832072 0.017011756 -0.12033491
000230 bb 77 4b bc b0 a1 b8 bd 04 af b0 bc 2c e1 c0 bc
       -0.012418683 -0.090152144 -0.021567829 -0.02354487
000240 24 5e 20 bb d8 95 b8 3c 7b 89 0b bc c7 df 4c bd
       -0.0024470175 0.022532389 -0.008516665 -0.0500181
000250 4f 34 b4 3d e1 82 be bc 86 7a c3 3c 83 3c 19 3e
       0.087990396 -0.023255767 0.023862135 0.1496449
000260 f8 1c 08 be c8 a5 44 bc 65 a1 93 3c eb c1 89 bd
       -0.132923 -0.012002416 0.018021295 -0.0672644
000270 4b a4 c0 bd 5f 42 8d bd e2 20 88 bc ff 65 8d bd
       -0.094063364 -0.06897425 -0.016617242 -0.0690422
000280 93 fa a2 bd 9c 73 6d bd 99 a2 86 bd 02 73 42 3c
       -0.079579495 -0.05797158 -0.06573982 0.01186824
000290 07 3b 3c 3e 8a 9f d5 bd d6 e1 f4 3d ac 15 e2 bd
       0.18381892 -0.1043082 0.11957137 -0.1103929
0002a0 aa 99 b7 3d dc f0 c9 3c ff 95 99 3d b9 6e e7 3d
       0.08964856 0.024650984 0.074993126 0.113004155
0002b0 b2 27 3f bc f3 f6 72 3c 33 31 cf 3c c8 ab 86 bd
       -0.011667179 0.014829385 0.025292015 -0.065757334
0002c0 9c 71 de 3c f0 c4 79 bd 95 27 20 bd a0 06 70 3b
       0.027153783 -0.06097883 -0.03910025 0.0036625043
0002d0 e2 2d 2b 3d 75 45 5f bb 66 7b 2f be 42 b5 f3 bc
       0.041791804 -0.00340685 -0.17136917 -0.029749516
0002e0 8b 3f a9 3c 41 09 bd 3d d7 37 34 3e 80 ff 07 3d
       0.020660182 0.09230281 0.17599426 0.03320265
0002f0 40 f4 b9 bc 4e 6b 6f 3b e4 9f 74 3c c2 54 56 bd
       -0.022699475 0.0036532464 0.014930699 -0.052326925
000300 64 0d dd 3d 18 ee 49 3d ae 7e cb 3b 1b 55 b4 3d
       0.1079357 0.04929933 0.0062101698 0.08805295
000310 b1 f7 b7 3c e5 eb e7 3d e2 7c b4 3c 41 f5 4a bd
       0.022456976 0.1132429 0.022032205 -0.0495503
000320 90 73 b7 3c 39 d5 fc bc 16 5c 1f bd 0d f1 47 3d
       0.022393972 -0.030863391 -0.03890618 0.04881387
000330 5e 64 b4 bd 4a d8 6c 3d a8 c5 bb 3d 5b 3e df bc
       -0.08808206 0.057823457 0.09168559 -0.027251413
000340 51 2c 0f 3d cd 82 3a 3e 88 f2 08 bd 84 91 3f 3d
       0.034954373 0.18213959 -0.03343442 0.046769634
000350 cb 37 1e 3d 9d 1d ee bd 64 54 b7 bd 08 61 a5 bd
       0.038627427 -0.11626742 -0.08951643 -0.08075148
000360 1a 10 e6 3d 9f 8a 84 bc ee 42 9d 3c 37 19 5c bd
       0.1123354 -0.016179381 0.019196954 -0.053734984
000370 c8 65 5f bc 20 23 d6 bd 22 a3 cb 3d c6 7e a9 bd
       -0.013635106 -0.10455918 0.099432245 -0.08276133
000380 f1 e1 1b 3e 75 49 13 bc c0 e8 11 3d a6 2a 0b bd
       0.15222909 -0.0089896815 0.03562236 -0.03397622
000390 5b 77 2c 3d 99 11 a8 bc b2 b3 1e 3e 5c d6 19 3d
       0.042106014 -0.020516204 0.15498236 0.037557945
0003a0 80 0e 19 3e 50 e9 6b 3b 73 69 87 3d 8b e6 ce 3d
       0.14946938 0.003599722 0.0661191 0.10102566
0003b0 85 05 0a be 9c 81 fe 3c c0 20 5e 3d 74 11 02 bd
       -0.13478668 0.031067662 0.05423045 -0.031754926
0003c0 96 56 dd 3c 69 fc 7c 3c 14 81 f7 bb c6 4c a9 3d
       0.027018826 0.015441039 -0.007553229 0.082665965
0003d0 da c2 13 bd e2 b8 c8 bb 4e 2d b6 bd 10 31 91 3d
       -0.036074497 -0.0061255554 -0.0889536 0.07089436
0003e0 c7 42 16 3e 5f 88 a1 bd cf 34 6a 3d e5 e1 ed bd
       0.14673911 -0.07887339 0.05717927 -0.116153516
0003f0 74 5a d3 3c 80 2b 26 3d c6 c9 8f 3d 14 96 1b 3a
       0.025799967 0.04056883 0.07020907 0.0005935144

a2c_network.mu.bias f4 [18]
000000 f7 7c 1a bd c6 54 41 bd 92 60 82 3b 41 08 70 3d
       -0.037716832 -0.047199987 0.0039787972 0.05860162
000010 9e 61 92 3a 90 d1 b4 3c bc 65 ad 3d 22 3a ad 3d
       0.0011168008 0.022072583 0.0846667 0.084583536
000020 42 2e 23 3d 8f fc 12 3d 91 e8 ab 3d 70 8c 8a 3d
       0.039839037 0.03588539 0.08393968 0.067650676
000030 ab 14 ef bd 6d 50 79 bd 5f 2d c5 bd 8a 96 d4 bd
       -0.11673864 -0.060867716 -0.096277945 -0.103802755
000040 a9 2b 10 be 42 cd b2 bd
       -0.14079155 -0.08730556

exp_avg f4 [18]
000000 a9 0a 27 3a 82 41 58 3a b0 d3 58 3a 42 b7 d0 ba
       0.0006372133 0.00082495075 0.000827129 -0.0015923756
000010 73 04 09 3a 75 ef 0c 39 31 9c 8a b9 36 06 10 3a
       0.0005226798 0.00013440645 -0.00026437783 0.00054940896
000020 ff b6 97 b9 0d 40 dd 3a d2 cc 8e ba 62 f5 71 ba
       -0.00028937307 0.001688005 -0.0010894781 -0.00092299853
000030 74 c8 cd 39 52 7f b2 3a bb c4 2a 3a 58 f2 60 b9
       0.00039249996 0.0013618267 0.00065143005 -0.00021452585
000040 f5 d3 8d ba 00 bf 1a ba
       -0.0010820614 -0.0005903095

exp_avg_sq f4 [18]
000000 1e 6b 13 37 ce ae 2a 37 aa af fb 36 7b 1e 13 37
       8.786823e-06 1.01734895e-05 7.500833e-06 8.76898e-06
000010 bd 74 01 37 f4 77 0b 37 9a 2d 10 37 46 eb e0 36
       7.716179e-06 8.312974e-06 8.593686e-06 6.7031096e-06
000020 25 95 14 37 84 88 16 37 f4 34 de 36 0e a8 03 37
       8.856213e-06 8.972482e-06 6.62228e-06 7.847337e-06
000030 42 0b f6 36 bf d0 f5 36 9f 7a d9 36 30 bb e2 36
       7.332682e-06 7.3258702e-06 6.481379e-06 6.7571164e-06
000040 9b 81 02 37 53 cf ed 36
       7.77878e-06 7.087286e-06
