logs/rl_games/hexapod_flat_direct/2025-11-14_22-48-05/nn/last_hexapod_flat_direct_ep_350_rew_-0.156369.pth (torch, 545947 bytes, 33 tensors)

value_mean_std.running_mean f8 [1]
0	0xbfc7854f0c9ea509	-0.18375576130100793

value_mean_std.running_var f8 [1]
0	0x3facd4a5aaabd1bf	0.05630986889255806

value_mean_std.count f8 []
0	0x4190680004000000	68812801.0

a2c_network.sigma f4 [18]
0	0xbf309ce4	-0.68989396
1	0xbf2501fb	-0.64456147
2	0xbf27f97e	-0.6561507
3	0xbf453068	-0.7702699
4	0xbf9711e0	-1.180233
5	0xbf998171	-1.1992627
6	0xbe84201c	-0.25805748
7	0xbe4eca23	-0.20194297
8	0xbe84edfa	-0.25962812
9	0xbf9bd892	-1.2175467
10	0xbe52b00a	-0.20574966
11	0xbea7aa39	-0.32747057
12	0xbe1b8639	-0.1518792
13	0xbe899fad	-0.26879635
14	0xbe311e48	-0.17296708
15	0xbe9e828f	-0.30958983
16	0xbd614246	-0.054994844
17	0xbdff50b2	-0.12466563

a2c_network.actor_mlp.0.weight f4 [128, 66]
0	0x3e7a2f1c	0.24432033
1	0xbdd8d5e6	-0.10587673
2	0xbe316267	-0.17322694
3	0xbe85dd0d	-0.2614521
4	0x3d18dcbe	0.03731989
5	0x3da18d7a	0.07888313
6	0x3dad0df6	0.084499285
7	0xbc965af5	-0.018353919
8	0xbe366f5e	-0.1781592
9	0xbe466c44	-0.19377238
10	0xbe388f25	-0.18023355
11	0x3e881905	0.26581588
12	0xbd64c996	-0.05585631
13	0x3e982e45	0.297228
14	0x3db8790b	0.09007462
15	0xbeb59575	-0.3546559
16	0x3e80f363	0.2518569
17	0x3dd63444	0.104591876
18	0x3d8a121d	0.06741736
19	0xbd813aa4	-0.06310013
20	0x3cd1b89f	0.02560073
21	0xbdbdeab8	-0.09273285
22	0xbd87c361	-0.066290624
23	0x3cbebdb6	0.02328382
24	0x3d5a70f2	0.05333037
25	0xbdd6e5f0	-0.10493076
26	0x3dc0110c	0.093782514
27	0x3dae4f00	0.08511162
28	0xbd9d7616	-0.07688539
29	0xbdd592eb	-0.10428413
30	0xbb6e5bc1	-0.0036370608
31	0xbda0b37b	-0.07846733
32	0x3c76049a	0.015015746
33	0xbe7da0a5	-0.24768312
34	0xbc9168ce	-0.01775017
35	0x3cf207c3	0.029544717
36	0x3b95b158	0.00456826
37	0xbd77992b	-0.060448807
38	0xbd3837a2	-0.04497493
39	0xbdb1b8c5	-0.0867782
40	0xbdd664bf	-0.104684345
41	0xbd67416d	-0.05645888
42	0xbdbad159	-0.09121961
43	0xba7336c1	-0.00092778733
44	0x3d83e2d4	0.064397484
45	0xbb827a2b	-0.0039818487
46	0xbbd01b87	-0.0063509378
47	0xbdbd04d4	-0.092294365
48	0xbe2490fb	-0.1607093
49	0x3d004f46	0.0313256
50	0x3deee0f4	0.11664
51	0xbe53c883	-0.20681958
52	0x3d800baf	0.062522285
53	0xbd4720a8	-0.048615128
54	0x3cae5a1d	0.021283204
55	0xbd6092f2	-0.054827638
56	0xbc18fa55	-0.009337028
57	0xbd300d54	-0.04298146
58	0xbd72e0eb	-0.05929653
59	0xbd3f07dd	-0.04663836
60	0xbd45def3	-0.048308324
61	0xbdeca19b	-0.11554261
62	0x3d95562d	0.07291827
63	0xbdac182a	-0.084030464
64	0x3df39a94	0.11894718
65	0x3c845884	0.016155489
66	0x3e008e65	0.12554319
67	0x3d817c4c	0.06322536
68	0xbe6cab67	-0.2311226
69	0xbdc65722	-0.09684588
70	0xbe253334	-0.16132814
71	0xbdbae1e1	-0.09125114
72	0x3d0b2368	0.033969313
73	0x3de34796	0.11097638
74	0x3c1725e2	0.009225341
75	0xbdbb32e5	-0.09140567
76	0x3e4d0a20	0.20023394
77	0xbeae7c63	-0.34079275
78	0x3da0cfc7	0.078521304
79	0x3cfd62af	0.030930845
80	0x3b8f6886	0.004376474
81	0x3e7709d9	0.2412485
82	0x3e0a79e8	0.13523066
83	0x3e19f4f5	0.1503485
84	0x3d2ae53c	0.04172252
85	0xbdf66bbc	-0.120322675
86	0xbc85196c	-0.016247474
87	0xbd8205d8	-0.06348771
88	0x3d236e91	0.039900366
89	0xbe0f8078	-0.1401385
90	0x3dd8cc5e	0.10585855
91	0x3df586d5	0.11988608
92	0x3d8befd0	0.0683285
93	0xbd617f03	-0.05505277
94	0x3e05041b	0.12989847
95	0x3d31230e	0.04324632
96	0xbbb3d693	-0.0054882257
97	0xbd931e1a	-0.07183476
98	0x3d50fa7a	0.051020123
99	0xbdbb8806	-0.09156804
100	0xbd0bb47f	-0.03410768
101	0x3da0d9a6	0.07854013
102	0x3d49f006	0.04930117
103	0xbd2b8f9f	-0.041885015
104	0xbca650af	-0.020302145
105	0xbc762fad	-0.015026015
106	0x3d670687	0.05640271
107	0xbcf39a07	-0.029736532
108	0xbd410aef	-0.047129568
109	0xbc2753c1	-0.01021284
110	0xbd7db0ca	-0.061936177
111	0x3cc9c41a	0.024629641
112	0x3d7925fa	0.060827233
113	0xbdb76d13	-0.08956351
114	0x3dbc6d8f	0.09200584
115	0x3dbea80d	0.09309397
116	0xbc92a8c6	-0.017902743
117	0x3c862f51	0.016379984
118	0x3db7ec6c	0.08980641
119	0x3e15248b	0.14564721
120	0x3d6bfee6	0.057616137
121	0xbd8da05d	-0.069153525
122	0x3dd12611	0.10212339
123	0x3dfdbc4d	0.12389431
124	0xbe0748c8	-0.13211358
125	0xbd628fbf	-0.05531287
126	0x3d86adee	0.06576143
127	0x3e430681	0.1904545
128	0xbd7f3a98	-0.06231174
129	0xbdbd9876	-0.09257595
130	0xbcb1244d	-0.021623755
131	0xbd3c84e3	-0.04602517
132	0x3b800688	0.0039070286
133	0x3df1f1d7	0.118137054
134	0xbe69adfb	-0.22820275
135	0xbdb28777	-0.08717244
136	0x3d9e6c50	0.07735503
137	0x3c9cd239	0.01914321
138	0x3b785614	0.0037893103
139	0xbd8d548c	-0.06900892
140	0xbe300efe	-0.17193219
141	0xbe537a8a	-0.20652214
142	0xbc9a7900	-0.018856525
143	0x3ecf60b3	0.40503463
144	0xbb3fbf0a	-0.0029258155
145	0x3d5a0d66	0.053235434
146	0xbe0219ff	-0.12705229
147	0xbcb8b6fa	-0.022548188
148	0xbd98fdff	-0.07470321
149	0xbb19bd5f	-0.0023458821
150	0x3c0f12b2	0.008732485
151	0xbe022dcf	-0.12712787
152	0xbb974ebc	-0.00461754
153	0xbe71131c	-0.23542446
154	0xbde61801	-0.11235047
155	0x3c00221d	0.007820633
156	0x3c12104a	0.008915016
157	0xbdf2c04f	-0.11853086
158	0xbc7e77ae	-0.015531464
159	0x3def5707	0.11686521
160	0x3e35836d	0.17725916
161	0x3da4aa7c	0.0804033
162	0xbdd457ac	-0.103682846
163	0xbda85b2c	-0.08220515
164	0xbda843b7	-0.082160406
165	0x3db3b2ab	0.087743126
166	0x3c5803ff	0.0131845465
167	0x3deb577d	0.114912964
168	0x3d1603da	0.036624767
169	0x3d045db6	0.032315932
170	0xbbac2391	-0.0052532633
171	0xbd92ddfa	-0.07171245
172	0xbe013781	-0.1261883
173	0xbe0f2a9b	-0.13981096
174	0x3d6cdd13	0.05782802
175	0xbd9a7618	-0.07542056
176	0xbc682e34	-0.014171172
177	0xbd44b287	-0.04802182
178	0x3b0f8c10	0.0021903552
179	0xbd98bd01	-0.07457925
180	0xbe1b7f18	-0.15185201
181	0x3d7d0b67	0.061778452
182	0xbda65972	-0.08122529
183	0x3dcbfcaa	0.09960301
184	0xbdca3636	-0.09873621
185	0xbddb6f6b	-0.10714611
186	0x3aea6891	0.0017883946
187	0xbdf4bf7f	-0.119505875
188	0xbd4215ae	-0.047383957
189	0xbe625ebd	-0.22106452
190	0x3dd7b4dd	0.10532544
191	0xbe1bb2f8	-0.1520499
192	0x3c22e73b	0.009942825
193	0xbd4df392	-0.050281115
194	0x3dec4468	0.11536485
195	0xbd870947	-0.065935664
196	0x3d9f3d40	0.077753544
197	0xbd19ad3e	-0.037518732
198	0x3dbb7d85	0.091548
199	0x3e9a13dd	0.3009328
200	0xbe55055a	-0.20802823
201	0xbd2778ec	-0.040886804
202	0x3da41601	0.080120094
203	0xbe436158	-0.19080102
204	0x3ec31fbd	0.38110152
205	0xbd410023	-0.04711927
206	0x3df8ffaa	0.12158139
207	0x3d0ae6a1	0.03391135
208	0x3de20623	0.11036327
209	0xbd6c6afe	-0.057719223
210	0x3d0b9bb0	0.034084022
211	0x3cb79aaa	0.022412617
212	0x3d9f34a7	0.077737145
213	0xbdb246cc	-0.0870491
214	0xbd3fdb3f	-0.04683995
215	0xbbfd703f	-0.007734328
216	0x3da87a5b	0.082264625
217	0x3d55671e	0.052100293
218	0x3d823001	0.06356812
219	0x3da278bd	0.07933185
220	0x3dc7ca2e	0.097553596
221	0x3e45604b	0.19275014
222	0xbc046d7f	-0.0080827465
223	0xbe09129b	-0.13386004
224	0xbe4c4cd6	-0.19951186
225	0xbe087215	-0.13324769
226	0xbe4fa9a6	-0.2027956
227	0xbe8ae851	-0.27130368
228	0xbb87e024	-0.0041465927
229	0xbd7b5a8b	-0.061365645
230	0xbd410d43	-0.047131788
231	0xbdbaee69	-0.091275044
232	0xbcbd2622	-0.023089472
233	0xba0a2ddb	-0.0005271115
234	0x3bb0a08a	0.0053902315
235	0xbd1b3a7c	-0.037897572
236	0xbd642be4	-0.05570592
237	0xbd0307d8	-0.031989902
238	0xbdb62891	-0.08894456
239	0x3dde5957	0.10856884
240	0xbcc35b23	-0.023847168
241	0x3d1a089a	0.03760586
242	0xbd00c9c2	-0.03144241
243	0xbca3c49c	-0.019991212
244	0x3d87100d	0.06594858
245	0x3ceaaf74	0.028648116
246	0xbda1f809	-0.07908637
247	0x3d4b59ae	0.049646072
248	0x3e26eabc	0.16300482
249	0x3d5548fa	0.05207155
250	0x3dcce1e1	0.100040205
251	0x3e2a86e6	0.16653022
252	0xbc78033c	-0.01513749
253	0xbc5928ec	-0.013254385
254	0xbe245222	-0.16046956
255	0xbd703b8f	-0.05865055

a2c_network.actor_mlp.0.bias f4 [128]
0	0x3d671a81	0.05642176
1	0x3d1e1a7f	0.038599487
2	0x3dc557de	0.096359
3	0xbd388e76	-0.045057736
4	0x3deb62ce	0.11493455
5	0xbdbc9499	-0.0920803
6	0xbc5ef8c7	-0.013609118
7	0x3e451ef1	0.19250084
8	0x3d4546fd	0.048163403
9	0x3c785a03	0.015158179
10	0x3b904091	0.004402228
11	0x3db6157c	0.088908166
12	0xbccd468e	-0.025058057
13	0x3dd9afb9	0.106292196
14	0xbdf5f8b2	-0.120103255
15	0x3db065b2	0.08613147
16	0x3d97c566	0.07410698
17	0x3dcbc7be	0.09950207
18	0x3e186c18	0.14884984
19	0x3e04c2be	0.12964913
20	0xbd2d8361	-0.04236162
21	0x3d596919	0.053078745
22	0x3da36a6d	0.079792835
23	0x3da37513	0.079813145
24	0x3c17bb4a	0.009260962
25	0x3db2301f	0.087005846
26	0xbd167ccd	-0.036740113
27	0x3de243dc	0.110480994
28	0x3e15b968	0.14621508
29	0x3bfc307c	0.0076962095
30	0x3e0ca480	0.13734627
31	0xbd8f6938	-0.07002491
32	0x3dec50a1	0.11538816
33	0x3d8e78d6	0.069566414
34	0xbe1284ad	-0.14308424
35	0x3cdb3148	0.026756898
36	0x3c588394	0.013214964
37	0x3e0f616f	0.14002012
38	0xbcceb7d0	-0.025234133
39	0xbc848733	-0.01617775
40	0x3cf0aed3	0.029380238
41	0x3d6c31f8	0.05766484
42	0xbce85a86	-0.028363477
43	0x3d62e1a4	0.05539097
44	0xbdb3733b	-0.08762213
45	0x3e05047f	0.12989996
46	0xbdb25715	-0.08708016
47	0x3d4704e2	0.04858864
48	0x3df85769	0.12126047
49	0x3d8488bb	0.06471392
50	0xbddb5715	-0.10709969
51	0x3d9ca658	0.07648915
52	0x3c96f066	0.018425178
53	0x3d5331df	0.051561233
54	0xbdc856b1	-0.0978216
55	0x3d5b4c21	0.0535394
56	0x3dd4a7d5	0.10383574
57	0x3cdc4be7	0.026891662
58	0x3d8dac36	0.06917612
59	0x3e1f5cf2	0.155628
60	0x3de39d57	0.111139946
61	0x3adb85b4	0.0016748221
62	0x3e1a91fa	0.15094748
63	0xbd3d0b96	-0.046153627
64	0x3d2af69d	0.041739095
65	0x3de78077	0.113037996
66	0x3e5b0d0b	0.21391694
67	0x3de15d00	0.110040665
68	0x3e34b192	0.17645863
69	0x3d8f248d	0.069893934
70	0x3e494458	0.19654977
71	0xba031fb3	-0.0005001977
72	0x3df59e0d	0.119930364
73	0x3b9a169a	0.0047024013
74	0x3deefb35	0.11669008
75	0xbdf7bdf0	-0.120967746
76	0xbe2e1864	-0.17001492
77	0x3dadd4fc	0.08487889
78	0xbd181313	-0.037127566
79	0xbda3b38b	-0.079932295
80	0xbe28e2e0	-0.16492796
81	0xbda97146	-0.08273558
82	0x3cb9806d	0.022644246
83	0x3e266c98	0.16252363
84	0x3df818a8	0.12114078
85	0x3d914bba	0.07094522
86	0xbd969f98	-0.07354659
87	0x3d646b33	0.055766296
88	0xbe0b6257	-0.13611732
89	0x3e1fd316	0.15607867
90	0x3de4f376	0.11179249
91	0xbd434d45	-0.04768111
92	0x3d97195d	0.073778845
93	0x3e003b5e	0.12522647
94	0x3da95bee	0.08269487
95	0xbc2efef2	-0.010680901
96	0x3e0a8677	0.13527857
97	0xbd4c7687	-0.049917724
98	0xbd18385f	-0.037163135
99	0x3d1f051e	0.03882324
100	0x3d55c364	0.052188292
101	0xbe3da60b	-0.18520372
102	0x3dd770db	0.10519572
103	0xbcc19bb4	-0.023633815
104	0x3dad211c	0.08453581
105	0x3e123e41	0.1428156
106	0x3e7b10f1	0.24518181
107	0x3d80e66e	0.06293951
108	0x3e486db5	0.195731
109	0x3dd53a6a	0.10411532
110	0x3e2302ca	0.15919033
111	0x3da67146	0.08127074
112	0x3debe278	0.11517805
113	0x3d96fcfb	0.07372471
114	0x3dd5297f	0.104083054
115	0x3d9512c9	0.072789736
116	0x3dc112f9	0.09427447
117	0x3dbda120	0.09259248
118	0x3ddd9c42	0.108208194
119	0x3a626e62	0.0008637664
120	0x3e0f1d79	0.13976087
121	0xbca44468	-0.02005215
122	0x3e256530	0.16151881
123	0x3d110d72	0.035413213
124	0x3c1a99d7	0.009436092
125	0x3dfa043e	0.122078404
126	0xbde47c5c	-0.11156532
127	0x3e80a918	0.25129008

a2c_network.actor_mlp.2.weight f4 [128, 128]
0	0x3d65d573	0.056111764
1	0x3dcc8a02	0.099872604
2	0xbd753fe7	-0.059875395
3	0xbcb06e1a	-0.021536876
4	0xbd816619	-0.06318302
5	0xbd9d0b08	-0.0766812
6	0xb8d9498a	-0.00010361064
7	0xbceb8133	-0.02874813
8	0x3bc7ff06	0.006103399
9	0xbddd797d	-0.10814188
10	0x3c05fa42	0.008177342
11	0xbc6dfa44	-0.014525
12	0x3d044011	0.03228766
13	0xba73170c	-0.00092731486
14	0xbd61ffe6	-0.055175684
15	0x3cef8603	0.029238706
16	0xbc805ede	-0.015670236
17	0xbdfd7849	-0.12376458
18	0xbc56b7cf	-0.013105347
19	0xbddb0a60	-0.10695338
20	0x3dc70619	0.0971796
21	0x3da199a0	0.0789063
22	0x3b91119a	0.004427147
23	0xbd4e43b7	-0.050357547
24	0x3d5bfd9e	0.053708665
25	0xbdd308ee	-0.103044376
26	0xbc439e04	-0.011939529
27	0x3cfb921e	0.030709323
28	0x3d8b1d65	0.06792716
29	0x3c5bfb3c	0.013426598
30	0x3d0a902c	0.0338289
31	0x3afe0a30	0.0019381698
32	0xbdf80250	-0.12109816
33	0x3d89fd7d	0.06737802
34	0xbbf9c3e0	-0.007622227
35	0x3d48c06b	0.04901163
36	0xbc2098b9	-0.009802037
37	0x3d3f0a4f	0.04664069
38	0xbcda85cb	-0.026675126
39	0x3d389293	0.04506166
40	0xbcdabaaa	-0.026700336
41	0xbb60cae2	-0.0034300615
42	0xbe375b90	-0.17906022
43	0x3e015ffc	0.12634271
44	0x3d6f1ccd	0.058377076
45	0xbdfd81fd	-0.12378309
46	0x3aa5c518	0.001264724
47	0x3dde7c3a	0.10863538
48	0xbd0330d5	-0.03202899
49	0x3d4ab4fd	0.04948901
50	0x3c959ce2	0.018263284
51	0x3c69cb95	0.014269729
52	0x3e4cefdb	0.20013373
53	0x3c8c86d4	0.017154135
54	0x3cad8bba	0.02118479
55	0x3c39bc63	0.011336419
56	0x3da03698	0.07822913
57	0xbdd201ab	-0.102542244
58	0xbc6d05e0	-0.014466733
59	0xbcb8bb7b	-0.022550335
60	0xbd67be01	-0.056577686
61	0x3daca6b3	0.08430233
62	0xbe3fc02a	-0.18725649
63	0xbd9807b8	-0.07423347
64	0xbdeb68a8	-0.11494571
65	0x3d14b778	0.036307782
66	0x3ce1a1da	0.027542997
67	0xbd9f516b	-0.07779201
68	0x3d99eea4	0.0751622
69	0xbd2a5d5a	-0.041592933
70	0xbdba4582	-0.09095289
71	0x3ce116c0	0.027476668
72	0xbd48c1c0	-0.0490129
73	0xba45e543	-0.0007549116
74	0xbd96d69c	-0.07365152
75	0x3cad5172	0.021157
76	0x3ca8a284	0.020585306
77	0x3d952364	0.07282141
78	0xbda13b32	-0.07872619
79	0xbd9e277d	-0.077223755
80	0xbd3b1ec8	-0.045683652
81	0x3d2327dd	0.03983294
82	0xbcb3b235	-0.021935562
83	0xbd97503c	-0.0738835
84	0x3d90851b	0.07056638
85	0xbcabdfb5	-0.020980695
86	0x3b4d8019	0.003135687
87	0xbe00d36d	-0.12580653
88	0xb986b469	-0.00025692888
89	0x3cdb25fb	0.026751509
90	0x3d6d8962	0.057992347
91	0xbe1c6e42	-0.15276435
92	0xbdb92e6d	-0.09042058
93	0x3ccdd645	0.025126586
94	0x3d4752f9	0.048663113
95	0x3c3db24a	0.011578152
96	0xbd8cee85	-0.068814315
97	0xbdc522ec	-0.096258014
98	0x3cd4abb7	0.025960786
99	0xbc7b8e85	-0.0153538035
100	0x3d9f2658	0.07770985
101	0xbd806dc0	-0.06270933
102	0xbd28ee0b	-0.04124264
103	0x3d8f091a	0.06984158
104	0xbbcae9e3	-0.0061924323
105	0x3c1891fb	0.009312148
106	0x3d84bad5	0.06480948
107	0x3cb08413	0.021547353
108	0xbae61950	-0.0017555151
109	0xbe0a0574	-0.13478643
110	0x3e1ad848	0.15121567
111	0xbd9ae426	-0.07563047
112	0x3de8090f	0.11329853
113	0x3d7d6556	0.06186422
114	0xbdee0f73	-0.116240405
115	0xbdf2c93e	-0.1185479
116	0xbcdd97b3	-0.027049875
117	0x3dcfe54e	0.10151158
118	0x3d5bbfde	0.053649776
119	0x3d0f6773	0.035010766
120	0x3c649f9b	0.0139540685
121	0x3d36abad	0.044597317
122	0x3d2ecdaa	0.042676605
123	0xbd7a4c7a	-0.06110809
124	0x3d2ec21a	0.04266558
125	0xbcab9de6	-0.020949315
126	0x3d684bf8	0.056713074
127	0x3c895bb7	0.016767366
128	0x3d53fcb7	0.05175468
129	0xbda9f3ef	-0.0829848
130	0x3b98ea54	0.004666606
131	0xbd7a8445	-0.0611613
132	0xbb954a26	-0.0045559583
133	0x3d6db42f	0.058033165
134	0xbd739141	-0.059464697
135	0xbe05e991	-0.1307738
136	0xbd904293	-0.07043948
137	0xbb1950f8	-0.0023394208
138	0xbd1bf077	-0.038071122
139	0xbd792450	-0.060825646
140	0xb98136ab	-0.00024645528
141	0xbd623892	-0.05522973
142	0xbbc5c928	-0.0060359426
143	0x3b48ec57	0.0030658448
144	0x3cb60262	0.022217933
145	0xbd5bca17	-0.053659525
146	0xbd87de9a	-0.06634255
147	0x3d86a18f	0.065737836
148	0x3c30946c	0.010777574
149	0xbd50b100	-0.05095005
150	0x3d902d06	0.070398375
151	0xbb90080a	-0.0043954896
152	0x3c398f00	0.011325598
153	0x3d615891	0.055016104
154	0x3c76fda7	0.015075124
155	0x3d923825	0.07139615
156	0x3c70b779	0.014692181
157	0x3dd43428	0.103615105
158	0xbdbbeda2	-0.09176184
159	0x3cbbaf79	0.02291082
160	0x3c230296	0.009949347
161	0xbc8b24ca	-0.016985316
162	0x3e052752	0.13003281
163	0xbc72c035	-0.014816334
164	0x3daa77e1	0.08323646
165	0xbe0aea1e	-0.13565871
166	0xbcfa35a8	-0.030543163
167	0x3d2749c1	0.04084182
168	0xbd6cfa71	-0.057856027
169	0xbafe6b26	-0.0019410595
170	0x3def14d3	0.11673894
171	0xbdae04be	-0.08496998
172	0x3d189ffb	0.037261944
173	0xbd2c0604	-0.041997924
174	0x3d4339c1	0.0476625
175	0xbd0b0bd3	-0.033946823
176	0xbdbf5c26	-0.09343748
177	0xbdbcc582	-0.09217359
178	0x3d239a95	0.039942343
179	0xbd5d04f3	-0.053959798
180	0xbdb5a558	-0.088694274
181	0xbc853719	-0.016261624
182	0x3c3d4ec6	0.011554426
183	0xbdd4e269	-0.10394747
184	0xbd25260a	-0.04031948
185	0x3d8165e7	0.063182645
186	0xbd6caace	-0.05778008
187	0xbdec37a1	-0.11534048
188	0xbd129913	-0.035790514
189	0x3dc2f4cc	0.095193475
190	0xbcd3a1dd	-0.025834018
191	0xbd4aeaa2	-0.04954017
192	0xbdd74a0f	-0.105121724
193	0xbd5030a0	-0.050827622
194	0x3d51620b	0.05111889
195	0x3b14e2f7	0.002271829
196	0xbd976d01	-0.07393838
197	0xbdfd64f2	-0.123727694
198	0xbe0c013c	-0.13672346
199	0x3bad446d	0.005287698
200	0x3cb5ebed	0.022207225
201	0x3dbd6ccc	0.09249267
202	0xbd0d22ed	-0.034457136
203	0x3c466da3	0.0121111
204	0x3d4d03b6	0.050052367
205	0xbd12d611	-0.03584868
206	0x3d857e29	0.06518204
207	0x3d71d4db	0.059040885
208	0x3d72a0fc	0.059235558
209	0x3d59a66b	0.053137224
210	0xb9e2fa56	-0.00043292594
211	0xbd34fe9e	-0.044188134
212	0x3deec7e1	0.116592176
213	0xbda9194b	-0.082567774
214	0x3d2f9289	0.042864356
215	0xbd7fed67	-0.062482264
216	0xbc200d84	-0.009768847
217	0xbdda5bae	-0.10662018
218	0xbd4c12de	-0.04982268
219	0x3cf76efa	0.030204285
220	0xbe21e00f	-0.15808128
221	0x3d33517c	0.04377888
222	0x3b830ed0	0.0039995685
223	0x3de230d2	0.11044468
224	0xbd9be441	-0.07611895
225	0xbd9b4f9c	-0.07583544
226	0x3c3d5b69	0.011557438
227	0x3c32acf7	0.010905496
228	0x3d187ced	0.037228514
229	0x3d961ece	0.07330094
230	0x3b32b04a	0.002726572
231	0x3d21aaa1	0.039469365
232	0xbdf5173a	-0.11967321
233	0xbe0316a9	-0.12801613
234	0xbe224f3a	-0.15850535
235	0xbd96a146	-0.07354979
236	0xbc368c6a	-0.011141876
237	0x3d4b972b	0.049704712
238	0x3cf1f820	0.02953726
239	0xbdac12ce	-0.08402024
240	0x3beb1bf7	0.0071749645
241	0x3dd481fd	0.10376356
242	0xbc923d7f	-0.01785159
243	0xbca73ad1	-0.020413788
244	0xbdc4f6e6	-0.09617405
245	0xba127b3c	-0.00055878214
246	0x3d23af22	0.03996194
247	0x3c3a52d7	0.01137229
248	0xbd956fcc	-0.07296714
249	0x3d9a0867	0.07521134
250	0xbcc119f1	-0.02357194
251	0xbd27fc56	-0.04101213
252	0x3c2de4ce	0.010613633
253	0x3d355839	0.04427359
254	0x3d036592	0.032079287
255	0xbd906730	-0.070509315

a2c_network.actor_mlp.2.bias f4 [128]
0	0xbb69346d	-0.0035584227
1	0xbddf456f	-0.10901915
2	0xba0afbc0	-0.0005301796
3	0x3ab65fef	0.0013914088
4	0x3d6470b1	0.055771533
5	0x3caaf1ad	0.020867193
6	0x3d6ccd5d	0.057813037
7	0x3dad1315	0.08450905
8	0xbdd471cd	-0.10373268
9	0xbc8547d4	-0.016269602
10	0xbdc2d42a	-0.09513123
11	0xbd131c72	-0.0359158
12	0xbcb831be	-0.022484656
13	0xbdab3150	-0.08359015
14	0xbd6948ed	-0.056954313
15	0xbd7dcb19	-0.061961267
16	0x3c33226f	0.010933503
17	0xbd88afe1	-0.06674171
18	0x3bd8a635	0.0066116103
19	0xbcdcc9a0	-0.026951611
20	0xbe19f98e	-0.15036604
21	0x3d9565a9	0.07294781
22	0x3b06d478	0.0020573419
23	0xbda02f73	-0.0782155
24	0xbe23b271	-0.15986039
25	0xbd23bcf3	-0.039975118
26	0xbbfdfd0b	-0.0077511123
27	0xbb86e1ee	-0.0041162884
28	0xbe48f79d	-0.19625707
29	0x3cebbc01	0.02877617
30	0xbc5e23c0	-0.013558328
31	0xbd9dd390	-0.07706368
32	0x3cef8451	0.029237898
33	0x3d847997	0.06468504
34	0x3d49e218	0.049287885
35	0xbe1c888b	-0.15286462
36	0x3c6facd1	0.014628605
37	0x3d094be5	0.033519644
38	0xbe11e273	-0.1424654
39	0xbca898b1	-0.020580621
40	0x3d650bb3	0.05591936
41	0xbc97e4e2	-0.018541757
42	0x3cb5087d	0.022098774
43	0xbb68e554	-0.003553708
44	0x3c0c7886	0.008573657
45	0xbcf61831	-0.030040832
46	0xbe056dad	-0.13030119
47	0xbd20e926	-0.039284848
48	0xbc573a0a	-0.013136396
49	0xbc3af408	-0.011410721
50	0xbc8158f2	-0.015789483
51	0xbde730d8	-0.11288613
52	0xbca740a1	-0.02041656
53	0x3d818434	0.06324044
54	0xbe0012c3	-0.12507157
55	0x3bde34a6	0.0067811785
56	0x3c8503b6	0.016237121
57	0xbcff35a4	-0.031153508
58	0x3dce0d76	0.10061161
59	0xbd9c9036	-0.076446936
60	0xbde4ae81	-0.111660965
61	0x3daeb15a	0.08529921
62	0x3d8c206f	0.06842124
63	0x3d1ca2eb	0.03824131
64	0xbced52f2	-0.028970215
65	0xbd1992b5	-0.037493426
66	0x3da4a889	0.08039958
67	0xbcace627	-0.021105839
68	0x3c1e952c	0.00967912
69	0x3cbd08e3	0.023075527
70	0x3d927371	0.07150925
71	0xbc2aece7	-0.0104324585
72	0x3d8910ba	0.066926435
73	0xbde52df1	-0.11190403
74	0x3d1939d8	0.03740868
75	0xbe398f03	-0.18120961
76	0xbdebf9d6	-0.11522262
77	0xbddbd091	-0.1073314
78	0xbb4ba090	-0.0031071045
79	0x3d69589f	0.05696928
80	0x3d520fb3	0.051284503
81	0x3d407b13	0.046992373
82	0xbc660cbb	-0.014041121
83	0xbda337b0	-0.07969606
84	0xbdd5e9a0	-0.10444951
85	0x3d863d21	0.06554628
86	0xbdd6a1c7	-0.10480075
87	0xbdbef51e	-0.09324096
88	0x3d3e132a	0.046404995
89	0x3bd57f1e	0.0065153977
90	0xbd142756	-0.036170326
91	0xbd1354ee	-0.035969667
92	0x3cd80fa9	0.026374655
93	0x3dd904c4	0.10596612
94	0x3d97edd3	0.07418408
95	0xbdab874b	-0.083754145
96	0x3c913af0	0.017728299
97	0x3bbea3e5	0.0058178776
98	0x3d275c29	0.040859375
99	0x3d8107e9	0.06300337
100	0x3c47930f	0.012181058
101	0xbd208ff7	-0.039199796
102	0xbd14c529	-0.03632084
103	0xbbedab5f	-0.007253095
104	0x3d5ea0be	0.054352514
105	0x3d232a83	0.039835464
106	0xbcc0e3a8	-0.023546055
107	0x3c946a27	0.018117024
108	0x3da58487	0.08081918
109	0xbd3f0e0e	-0.046644263
110	0x3c94a500	0.018145084
111	0xbdabb367	-0.08383828
112	0x3cfd53da	0.030923773
113	0xbbec8f2a	-0.007219215
114	0x3c5a2f70	0.013316974
115	0xbcf5acc6	-0.029989611
116	0x3d835855	0.064133324
117	0xbdbecbf2	-0.09316243
118	0xbd4e539a	-0.050372697
119	0xbcb281bb	-0.021790376
120	0xbd762aad	-0.060099293
121	0xbbbf36f0	-0.0058354065
122	0xbc92cb52	-0.017919216
123	0x3d3e6fd9	0.046493385
124	0xbc9a6cae	-0.01885065
125	0x3c8d5633	0.017253017
126	0x3c900faa	0.017585594
127	0xbcc0466a	-0.023471076

a2c_network.actor_mlp.4.weight f4 [128, 128]
0	0xbb2f10a4	-0.00267128
1	0xbd612f10	-0.054976523
2	0xbd19cffd	-0.03755187
3	0x3c8576f4	0.016292073
4	0x3d26eb8b	0.040751975
5	0xbdef361d	-0.11680243
6	0xbd803872	-0.06260766
7	0x3d825b8a	0.06365116
8	0xbd401982	-0.046899326
9	0x3cef2f7f	0.029197453
10	0x3d5c4d8d	0.053784896
11	0x3c07aeff	0.008281468
12	0x3c43ec04	0.011958126
13	0xbd9ef683	-0.07761862
14	0x3ca83229	0.02053173
15	0x3cedb9f8	0.02901934
16	0x3c1c14c3	0.009526434
17	0xbd0046d1	-0.031317536
18	0xbd59d2f3	-0.053179692
19	0xbd9219b7	-0.07133811
20	0x3d11b03d	0.035568465
21	0x3da2acbd	0.079431035
22	0x3d28506e	0.04109233
23	0x3ca8972b	0.020579895
24	0xbd032a7b	-0.032022934
25	0x3d6d0ca8	0.057873398
26	0x3c043c29	0.008070984
27	0xbd657a0a	-0.05602459
28	0xbc9f145e	-0.019418892
29	0xbd6267a8	-0.055274636
30	0xbdbf013a	-0.09326406
31	0x3dab812b	0.08374246
32	0x3d9570d2	0.072969094
33	0xbd91bb01	-0.07115746
34	0xbc786327	-0.0151603585
35	0x3d35f184	0.04441978
36	0xbd2ecb1d	-0.042674173
37	0xbc45ad88	-0.012065299
38	0xbdd1b456	-0.102394745
39	0xbd76acbc	-0.060223326
40	0xbd204ca9	-0.03913561
41	0xbd0cb1d2	-0.03434927
42	0xbd9855db	-0.07438251
43	0xbd1ace5e	-0.037794463
44	0x3d3ca976	0.046060048
45	0xbd7a7092	-0.06114251
46	0xbdfcbe35	-0.123409666
47	0x3d6400fe	0.05566501
48	0x3d96b60d	0.07358942
49	0xbd158f75	-0.036513764
50	0x3c0ef6c0	0.008725822
51	0xbc7b3f03	-0.015334847
52	0x3cfe0b76	0.031011324
53	0xbbb80200	-0.005615473
54	0xbdcbdd3b	-0.09954306
55	0x3d98a66f	0.0745362
56	0xbd90c2c6	-0.070684
57	0x3ca927e9	0.020648913
58	0xbca48ef4	-0.020087697
59	0xbd981b55	-0.07427088
60	0xbc8352da	-0.016030718
61	0x3cf34b8d	0.029699111
62	0x3afb058a	0.0019151431
63	0x3e1574a8	0.14595282
64	0x3df59894	0.119919926
65	0x3d9759e6	0.07390194
66	0xbd464e10	-0.04841429
67	0xbd681711	-0.056662623
68	0x3dbd7cc5	0.092523135
69	0x3c86b674	0.016444422
70	0x3d950046	0.07275443
71	0x3dea3996	0.11436765
72	0xbd3019ab	-0.04299323
73	0x3d1e43f5	0.038639028
74	0x3d2cd5ac	0.04219596
75	0xbc96613c	-0.018356912
76	0xbd81c3d9	-0.06336183
77	0xbb8359a5	-0.004008489
78	0x3dcbad6e	0.099451885
79	0x3b6d8577	0.0036242881
80	0x3c8157e2	0.015788976
81	0x3bc8ec72	0.006131702
82	0x3d478eec	0.048720285
83	0x3dc40ba7	0.09572535
84	0x3c80430f	0.015656976
85	0x3c95561d	0.018229539
86	0xbd54040c	-0.051761672
87	0xbcc7bf98	-0.024383351
88	0xbd60390f	-0.054741915
89	0x3d53048c	0.051518008
90	0x3d486248	0.048921853
91	0xbd6889b8	-0.056771964
92	0x3d5acb33	0.053416442
93	0xbc62b498	-0.013837002
94	0xbd8591a6	-0.06521921
95	0x3a5526c5	0.0008131082
96	0xbc2b56db	-0.01045772
97	0xbc8acaba	-0.01694237
98	0x3dc9d525	0.09855107
99	0x3bd0d725	0.0063733035
100	0xbda17eeb	-0.07885536
101	0x3ba144ca	0.0049215304
102	0xbbc3c2e4	-0.0059741605
103	0xbd99b824	-0.07505825
104	0x3d5feee0	0.05467117
105	0x3c1ab9b1	0.009443686
106	0xbc2a0e94	-0.010379452
107	0xbc392125	-0.011299406
108	0xbca1cf00	-0.019752026
109	0xbd9e951c	-0.07743284
110	0x3a09ef54	0.0005261798
111	0xbd23da93	-0.04000337
112	0x3cf99db7	0.030470712
113	0x397250a6	0.00023108962
114	0xbdf29499	-0.11844749
115	0xbdab2735	-0.083570875
116	0xbd4e91bb	-0.05043195
117	0x3d442a75	0.047892053
118	0x3db977cc	0.090560526
119	0x3d07c13a	0.03314326
120	0x3d5f0ee8	0.054457575
121	0x3d489f37	0.048979964
122	0xbd728294	-0.05920656
123	0x3d9490ed	0.07254205
124	0xbd969f7f	-0.0735464
125	0xbca056c0	-0.019572616
126	0x3bdda2de	0.0067638
127	0xbdb71fef	-0.08941638
128	0x3b5dfadd	0.003387145
129	0x3d25a29c	0.04043828
130	0xbcba4e12	-0.022742305
131	0x3d3fb94b	0.04680757
132	0x3d8e7a36	0.06956904
133	0xbd4db6dd	-0.05022322
134	0xbd7cedf0	-0.061750352
135	0x3cd0271d	0.025409276
136	0xbd1d2810	-0.038368285
137	0xbd6edad8	-0.058314174
138	0x3cae471e	0.021274146
139	0x3d87f18e	0.0663787
140	0xbd713885	-0.05889179
141	0xbd2db48a	-0.042408504
142	0xbcf994f6	-0.030466538
143	0x3e002484	0.1251393
144	0x3d90ec53	0.07076325
145	0xbce67250	-0.02813068
146	0xbdf15944	-0.11784604
147	0x3d80df08	0.0629254
148	0xbdc2badb	-0.09508296
149	0xbd3dd4fd	-0.0463457
150	0x3e2065ea	0.15663877
151	0x3c04b1de	0.0080990475
152	0xbc8a5a6f	-0.016888825
153	0xbdb7b75e	-0.089705214
154	0xbd6ea71b	-0.058264833
155	0xbca8f9f3	-0.020626998
156	0x3d1a9f9f	0.037749883
157	0xbc9b775a	-0.01897781
158	0xbd2ee39b	-0.04269753
159	0xbc12b487	-0.008954174
160	0xbcd9da53	-0.026593363
161	0x3c90f3e3	0.01769442
162	0xbd5ba284	-0.053621784
163	0xbd20ce95	-0.039259512
164	0xbd8e2f9d	-0.06942675
165	0x3d89867b	0.06715103
166	0xbd80ee7b	-0.062954865
167	0xbdfb574e	-0.122725114
168	0xbce2cae0	-0.027684629
169	0xbdaf79a9	-0.08568127
170	0xbdc34603	-0.09534838
171	0xbd5f7441	-0.054554228
172	0x3d8c0a7d	0.06837938
173	0xbd94672f	-0.07246243
174	0xbd9860f5	-0.07440368
175	0x3d1bf0ee	0.038071565
176	0x3d85f9ff	0.065418236
177	0x3c5fd92c	0.013662618
178	0x3dea35d9	0.11436052
179	0x3d1a9ab7	0.037745204
180	0xbd4a05d8	-0.04932198
181	0xbb93bbda	-0.0045084776
182	0xbd418512	-0.047246046
183	0x3dbdd563	0.09269216
184	0xbc7be62b	-0.015374701
185	0x3d5a2df4	0.05326648
186	0xbd1806c3	-0.037115823
187	0xbd8b4ed6	-0.06802146
188	0xbd931d61	-0.07183338
189	0x3d96f1df	0.07370352
190	0xbd7ace72	-0.061232038
191	0xbb97b6e5	-0.004629957
192	0x3cb11ade	0.021619257
193	0xbda9f9a6	-0.0829957
194	0xbd0a1c05	-0.033718128
195	0x3d70edc5	0.058820505
196	0x3dd62fae	0.10458313
197	0xbbf680a6	-0.0075226603
198	0xbccf27ab	-0.02528747
199	0x3b2e8bf1	0.0026633705
200	0xbce40a7c	-0.02783703
201	0xbca7542d	-0.02042588
202	0x3c7c330e	0.015393032
203	0x3d291eab	0.041289013
204	0x3e148d02	0.14506915
205	0xbd1fca9e	-0.03901159
206	0x3d837128	0.06418067
207	0x3d90746b	0.07053455
208	0x3a58aec8	0.00082657905
209	0xbd08f94d	-0.033440877
210	0x3c1fae93	0.009746212
211	0x3d2597bd	0.040427912
212	0x3d836342	0.06415416
213	0x3d58399e	0.052789323
214	0xbcdfc07a	-0.02731346
215	0x3cf161d9	0.029465603
216	0x3db62f50	0.08895743
217	0x3d7bbb9d	0.06145822
218	0x3c187301	0.009304763
219	0xbd99253b	-0.07477804
220	0x3d32e4c6	0.043675207
221	0xbcbe42f2	-0.023225281
222	0x3d5c4d38	0.05378458
223	0x3d52e529	0.051488075
224	0xbd4b05e9	-0.049566183
225	0xbbd5b695	-0.0065220096
226	0xbccfbd4d	-0.02535882
227	0xbd901530	-0.07035291
228	0x3d10278c	0.035193965
229	0x3dc96982	0.09834577
230	0x3da84f4a	0.08218248
231	0xbd4c4517	-0.049870577
232	0xbca00f04	-0.01953841
233	0xbc806fa7	-0.01567824
234	0x3d4fbfac	0.050719902
235	0xbd903f99	-0.0704338
236	0x3cadd83c	0.021221273
237	0xbdb75079	-0.08950896
238	0x3c6fa319	0.014626288
239	0x3d23163c	0.039816126
240	0xbdb76c99	-0.0895626
241	0x3dcbb64b	0.09946879
242	0xbce04806	-0.027378093
243	0x3d875d1f	0.06609558
244	0xbdaddebe	-0.0848975
245	0x3da1a674	0.078930765
246	0x3df2e266	0.11859588
247	0x3d41db60	0.047328353
248	0x3bb3f788	0.0054921545
249	0x3c528965	0.01285014
250	0xbdad267f	-0.08454608
251	0x3cb31512	0.021860633
252	0x3d24594d	0.040124226
253	0x3d35b20e	0.04435926
254	0xbd2e06d9	-0.042487
255	0x3cedf2b4	0.029046394

a2c_network.actor_mlp.4.bias f4 [128]
0	0x3d2c8add	0.042124618
1	0x3cf4fced	0.02990576
2	0xbd2c7bb9	-0.04211018
3	0xbd8557a6	-0.06510858
4	0xbdcd7cbc	-0.10033557
5	0x3bbc3981	0.0057441597
6	0x3d4da834	0.05020924
7	0x3cccb7d3	0.024989998
8	0x3d07e6ed	0.033179212
9	0x3d71081a	0.058845617
10	0x3c94cc7b	0.01816391
11	0xbcb41f67	-0.02198763
12	0xbd037e32	-0.03210277
13	0x3d55450c	0.0520678
14	0xbd2dcdcf	-0.042432602
15	0xbb92570d	-0.0044659437
16	0xbd2aaacd	-0.041666795
17	0xbd3adac1	-0.045618776
18	0xbd3e52e4	-0.04646577
19	0xbd480bb3	-0.048839282
20	0x3d2c4197	0.04205474
21	0xba807e55	-0.0009803275
22	0x3cbf62cd	0.023362542
23	0x3c38b131	0.0112727145
24	0x3ab9b5b1	0.0014168528
25	0xbd315b81	-0.043300156
26	0xbe0027b1	-0.12515141
27	0xbce8722e	-0.028374758
28	0x3dac1629	0.08402664
29	0x3d41a48b	0.04727606
30	0xbcf2e5a1	-0.029650511
31	0x3ca1d05b	0.019752672
32	0x3dcc43f5	0.09973899
33	0xbd2c9975	-0.042138536
34	0xbc32afb3	-0.010906148
35	0xbde0b7e4	-0.10972574
36	0x3cab57ef	0.020915953
37	0x3d8a9d2e	0.06768261
38	0xbd221b85	-0.039577026
39	0xbd24fef8	-0.04028222
40	0x3c493100	0.012279749
41	0xbbb70e11	-0.0055863936
42	0x3cc81dc0	0.024428248
43	0xbd000d9d	-0.031262983
44	0x3b848490	0.004044123
45	0x3cf4d581	0.029886963
46	0xbd889d6c	-0.06670651
47	0x3de64ce5	0.11245135
48	0x3d63b025	0.055587906
49	0x3da8c4a3	0.082406305
50	0xbd2c4ab2	-0.042063423
51	0xbda8e4c2	-0.08246757
52	0x3d6ca0ad	0.05777042
53	0xbd65ff15	-0.05615147
54	0x3d8d8232	0.069095984
55	0xbdb9ba57	-0.09068745
56	0x3d277a74	0.040888265
57	0xbda1063e	-0.07862519
58	0xbdc8749b	-0.09787866
59	0x3d1afa62	0.03783644
60	0x3d6b15ce	0.05739384
61	0xbd169ec9	-0.036772523
62	0xbc08967f	-0.008336662
63	0x3dbf02ea	0.09326728
64	0xbce1201b	-0.02748113
65	0x3cce92a7	0.025216414
66	0x3d8ac37c	0.06775567
67	0xbc2af674	-0.010434736
68	0x3d62f78f	0.05541187
69	0xbdfc3a7f	-0.12315845
70	0x3ccf6f1e	0.02532154
71	0x3b314d07	0.0027053969
72	0xbcfb32d3	-0.030663883
73	0xbc18a710	-0.009317175
74	0xbc71b986	-0.014753705
75	0xbafd24a0	-0.0019313283
76	0x3d8a17a8	0.06742793
77	0xbb67e0de	-0.0035381834
78	0xbd1142df	-0.035464164
79	0xbd3716fd	-0.044699658
80	0xbdd9f0f0	-0.10641658
81	0x3d8ab755	0.06773249
82	0xbd23d5aa	-0.039998688
83	0xbdac67e9	-0.08418257
84	0xbc53652b	-0.012902538
85	0x3d5c5942	0.05379606
86	0xbc9600ec	-0.018310986
87	0x3dba4a32	0.09096183
88	0xbd9c0f89	-0.076201506
89	0xbb505c00	-0.0031793118
90	0x3d65996b	0.056054514
91	0xbd681579	-0.056661103
92	0x3d06cf97	0.032912817
93	0xbd98d952	-0.074633256
94	0xbcbd22a7	-0.023087813
95	0x3ccee5ea	0.025256116
96	0xbd0288b4	-0.03186865
97	0xbc2732ce	-0.010204984
98	0xbd0b38ed	-0.033989836
99	0xbadd56a4	-0.0016886783
100	0xbcb7be7b	-0.022429695
101	0x3c39c13a	0.011337573
102	0xbd5918bc	-0.053002104
103	0x3bac7034	0.005262399
104	0x3d5e0ad1	0.054209534
105	0xbd08f0d6	-0.033432804
106	0xbc34f500	-0.011044741
107	0xbd85835c	-0.065191954
108	0x3dda9c70	0.10674369
109	0x3d25075c	0.04029022
110	0x3d87c973	0.0663022
111	0xbcfede5d	-0.03111189
112	0xbd743717	-0.05962285
113	0x3bfe9e16	0.00777031
114	0x3d7f7caa	0.06237475
115	0xbdd0b001	-0.1018982
116	0xbd837a32	-0.06419791
117	0x3d356a82	0.044291027
118	0x3d01e34a	0.0317109
119	0xbd8045ff	-0.06263351
120	0xbc65031c	-0.013977792
121	0x3d4a4f55	0.049392063
122	0xbcdd2f8a	-0.027000207
123	0xb91642d1	-0.00014330006
124	0x3d9dbb63	0.07701757
125	0xbd6bd46d	-0.057575632
126	0x3d17d2b3	0.037066173
127	0x3ce85fb4	0.028365947

a2c_network.value.weight f4 [1, 128]
0	0xbc19ad08	-0.009379633
1	0xbcc31e63	-0.0238182
2	0xbca5c665	-0.020236203
3	0x3c5f4901	0.013628245
4	0x3cfb7bc6	0.030698668
5	0x3d20f0a4	0.039291993
6	0x3c99c195	0.018769065
7	0x3c591363	0.013249251
8	0xbd151c53	-0.036403965
9	0xbc1bc4d7	-0.0095073795
10	0x3bb1bbde	0.005424007
11	0x3cbb6209	0.022873895
12	0x3cb29b2d	0.02180251
13	0x3c108090	0.008819714
14	0xbb5c5408	-0.0033619422
15	0x3d0e2378	0.034701794
16	0xbc1a7614	-0.009427566
17	0x3b5bd4a5	0.0033543494
18	0x3d305ea2	0.043059
19	0xbc65d76d	-0.014028412
20	0x3a789ab3	0.0009483501
21	0xbdb84c5c	-0.089989394
22	0xbcf40e01	-0.029791834
23	0xbc351989	-0.011053451
24	0x3cc393d3	0.023874199
25	0xbd8d6f07	-0.069059424
26	0x3bddc370	0.0067676827
27	0xbc8397ed	-0.016063655
28	0x3cc8ac56	0.024496239
29	0xbc892fc4	-0.01674641
30	0xbcd3212c	-0.025772654
31	0xbd72f518	-0.05931577
32	0xbb881107	-0.0041524204
33	0x3c99ebe6	0.018789243
34	0xbc48a1db	-0.012245621
35	0xbcf807d0	-0.030277163
36	0x3cdf1ee8	0.027236417
37	0x3c9144c0	0.017732978
38	0x3c3d9bfe	0.011572836
39	0x3d3e92b0	0.04652661
40	0xbc8cbfe2	-0.01718134
41	0x3b092ec6	0.002093242
42	0x3b50ae27	0.0031842084
43	0xbd0ab1d0	-0.03386098
44	0xbc9c0db3	-0.019049501
45	0xbbc80713	-0.006104359
46	0x3d76cce0	0.060253978
47	0xbb517965	-0.0031963226
48	0x3cb706a2	0.02234203
49	0xbc699866	-0.014257526
50	0x3c5c2e80	0.013438821
51	0xbc4612c7	-0.012089438
52	0xbbcda812	-0.006276139
53	0x3d177577	0.036977258
54	0xbcab6407	-0.02092172
55	0x3c5145a8	0.012772955
56	0xbc33d235	-0.01097541
57	0xbc46142e	-0.012089772
58	0x3cb76eab	0.022391638
59	0x3d38e432	0.0451395
60	0xbc3e09d4	-0.011599023
61	0xbc14fe7e	-0.009093879
62	0x3d08e43c	0.033420786
63	0xbcb13264	-0.021630473
64	0x3d440bda	0.047862865
65	0xbc2ce6b1	-0.010553048
66	0xbc051aa3	-0.0081240265
67	0xbd9e2106	-0.077211425
68	0x3b5d33ec	0.0033752872
69	0x3cb039c8	0.021511927
70	0xbc9efea2	-0.019408528
71	0x3d0075b5	0.031362254
72	0x3c95c3be	0.018281814
73	0x3d2dd92a	0.042443432
74	0x3c33dda8	0.01097814
75	0xbd3deea3	-0.04637016
76	0xbcb16301	-0.021653654
77	0x3c2ebe62	0.010665508
78	0x3c098ee2	0.008395882
79	0x3c155e50	0.009116724
80	0xbd2adb27	-0.041712906
81	0xbcee2aef	-0.029073207
82	0xbc977019	-0.01848607
83	0xbbb012ee	-0.0053733503
84	0xbd5b4cfc	-0.053540215
85	0xbcbd20bf	-0.023086904
86	0x3cb804f6	0.022463303
87	0x3bfeb403	0.007772924
88	0x3d20c1f5	0.03924747
89	0x3c9daa71	0.019246312
90	0xbc03dc2b	-0.008048098
91	0xbd0a4706	-0.03375914
92	0xbd4fbbd0	-0.05071622
93	0xbc5a9e3c	-0.01334339
94	0x3ce2c4bf	0.027681706
95	0x3cb550af	0.0221332
96	0x3c572ca2	0.0131332
97	0xbd4a8958	-0.049447387
98	0x3d0dc0b7	0.034607615
99	0xbd81702c	-0.06320223
100	0xbd1704e2	-0.03686989
101	0xbce55b61	-0.027997674
102	0x3d3acc1a	0.045604803
103	0xba321c4a	-0.00067943765
104	0xbbcf0a8a	-0.006318395
105	0xbd8bb276	-0.06821148
106	0xbd9098cd	-0.070603944
107	0x3c0e4aca	0.008684823
108	0xbbee3bd4	-0.0072703157
109	0xbbacc765	-0.005272793
110	0x3c29aa98	0.010355614
111	0x3d2305ae	0.03980034
112	0xbd185fe0	-0.03720081
113	0x3c1a0c4a	0.009402344
114	0xbc6bdda9	-0.01439611
115	0x3cd329c0	0.025776744
116	0x3d0553f2	0.03255076
117	0xbcc539e6	-0.02407546
118	0xbd30f14a	-0.04319886
119	0x3d4a1c96	0.049343668
120	0xbcdc4cfd	-0.02689218
121	0x3c5a534b	0.013325523
122	0x3d4408d1	0.04785997
123	0x3d8753ae	0.066077575
124	0x3c401d90	0.011725798
125	0xbc6c5afa	-0.014425987
126	0xbc4977a9	-0.012296596
127	0x3be6b6ba	0.0070408257

a2c_network.mu.weight f4 [18, 128]
0	0xbb9ade76	-0.0047262264
1	0x3c427462	0.011868568
2	0xbcaeaabe	-0.02132165
3	0x3e2880b2	0.16455343
4	0x3ddb5aaa	0.10710652
5	0x3cfe88bd	0.031071061
6	0xbd20e5e2	-0.039281733
7	0x3c543b0c	0.012953531
8	0xbd8efaec	-0.06981453
9	0xbe1ddc3d	-0.15416045
10	0x3c9edcfb	0.019392481
11	0xbe024218	-0.12720525
12	0xbd416880	-0.0472188
13	0xbda951d5	-0.08267561
14	0x3e211795	0.15731652
15	0x3d346da0	0.04404986
16	0x3c8df514	0.017328776
17	0x3db2de79	0.087338395
18	0xbc9ec187	-0.01937939
19	0xbdde410f	-0.10852253
20	0xbde87886	-0.11351113
21	0xbcfc47fd	-0.030796045
22	0xbc5a1c5f	-0.013312428
23	0x3d72ef54	0.059310272
24	0xbd97a72c	-0.074049324
25	0x3d490f5f	0.049086925
26	0xbc2661c9	-0.01015515
27	0xbd8d72c9	-0.06906659
28	0x3dd7f92e	0.10545574
29	0x3cb3284b	0.0218698
30	0x3db21999	0.086962886
31	0xbda4d6fa	-0.08048816
32	0xbd3a29a9	-0.045449886
33	0xbdc25781	-0.09489346
34	0xbde0c1da	-0.10974474
35	0x3cb6615f	0.022263227
36	0x3d98f489	0.074685164
37	0xbe00fd5b	-0.12596647
38	0x3ccff2e2	0.02538437
39	0xbdded30b	-0.10880097
40	0x3d94a680	0.0725832
41	0x3ddedc1c	0.10881826
42	0xbd4c0544	-0.04980971
43	0xbe097886	-0.13424882
44	0x3c066898	0.008203648
45	0xbe380930	-0.17972255
46	0x3d4bc55e	0.04974877
47	0xbc418ceb	-0.011813383
48	0x3d23587d	0.03987931
49	0xbaceeded	-0.001578746
50	0x3e21c625	0.15798242
51	0xbc7c6275	-0.015404333
52	0xbdb39025	-0.08767728
53	0xbd4acd05	-0.049511928
54	0xbdd79ca7	-0.10527926
55	0xbcaaa2c7	-0.020829571
56	0x3dde6eba	0.10860963
57	0x3da6e7c4	0.081496745
58	0x3deddf03	0.11614802
59	0x3d369910	0.044579566
60	0xbd632d11	-0.0554629
61	0x3baaec0c	0.0052161273
62	0x3db1fc64	0.08690718
63	0xbbc21975	-0.005923445
64	0x3dc8fed1	0.09814227
65	0xbd210815	-0.03931435
66	0x3e659f7e	0.22424123
67	0x3c9d2aa5	0.019185374
68	0xbdb5f24d	-0.08884106
69	0xbb1e1bef	-0.0024125536
70	0x3d8de6f0	0.069288135
71	0x3bc028b3	0.0058642267
72	0xbc71193f	-0.014715492
73	0x3df29536	0.11844866
74	0x3e257d45	0.16161068
75	0x3d648701	0.055792812
76	0xbdc2ff8b	-0.09521397
77	0xbd9c9d75	-0.0764722
78	0x3d1fcf61	0.03901613
79	0x3d33c046	0.043884538
80	0xbc3060e9	-0.010765293
81	0x3d11e7bb	0.035621386
82	0x3d037308	0.032092124
83	0xbddfa32c	-0.109197944
84	0x3d113037	0.035446372
85	0x3d729eaf	0.059233364
86	0x3cf9c7ec	0.030490838
87	0x3d610116	0.054932676
88	0xbab5a759	-0.0013859078
89	0xbd9d736e	-0.07688032
90	0xbd9b98d1	-0.07597507
91	0x3d1cdb4c	0.038295075
92	0x393f7732	0.00018259583
93	0x3d3c0131	0.045899574
94	0x3d52d87e	0.051475994
95	0x3c130eec	0.008975726
96	0x3dcb125e	0.09915613
97	0xbd0e81a8	-0.03479162
98	0xbd87678e	-0.06611548
99	0x3dc120f8	0.094301164
100	0x3b99f3d6	0.004698257
101	0x3d97b1be	0.074069485
102	0x3d2a7a71	0.041620675
103	0x3dc5d664	0.096600324
104	0x3dec8574	0.11548892
105	0x3d10f767	0.03539219
106	0xbd20840b	-0.039188426
107	0xbd65ae01	-0.056074146
108	0xbdaeee1a	-0.08541508
109	0x3d382085	0.044952888
110	0xbd8abdb8	-0.06774467
111	0xbe055260	-0.13019705
112	0x3e24c304	0.16090018
113	0xbdc72bd1	-0.09725154
114	0xbc273657	-0.010205827
115	0x3d222a6e	0.039591245
116	0xbcfcda5a	-0.030865837
117	0xbdbb880b	-0.091568075
118	0xbe3d35d1	-0.1847756
119	0x3e10bff5	0.14135726
120	0x3d778add	0.060435165
121	0xbe018feb	-0.12652557
122	0x3db1521d	0.0865824
123	0xbd703a58	-0.05864939
124	0xbded3aa0	-0.115834475
125	0x3dc5d0b7	0.0965895
126	0xbc3c956e	-0.011510236
127	0xbdabbaf1	-0.083852656
128	0xbb849294	-0.004045794
129	0xbdc29e2d	-0.09502826
130	0xbc57fc95	-0.013182779
131	0x3e4865f8	0.19570148
132	0x3e380867	0.17971955
133	0xbd1be3e0	-0.038059115
134	0x3d831a32	0.06401481
135	0xbd9f830d	-0.07788668
136	0x3dba21e2	0.09088494
137	0xbe018c55	-0.12651189
138	0x3c68ffb9	0.014221125
139	0xbde57315	-0.11203591
140	0xbb7c5354	-0.0038501816
141	0xbdbfe9ae	-0.09370743
142	0xbd002fe7	-0.031295683
143	0xbd052d42	-0.032513864
144	0x3c24d928	0.01006154
145	0x3d073637	0.033010688
146	0x3c13a48f	0.009011402
147	0xbd70f676	-0.058828793
148	0x3dc6317d	0.09677408
149	0xbcb450f1	-0.022011252
150	0x3d3fecd1	0.046856705
151	0x3de73894	0.11290088
152	0xbde3e4a9	-0.11127598
153	0xbc5c65f2	-0.01345204
154	0x3c808649	0.015689032
155	0xbda973b8	-0.08274025
156	0xbdeaf061	-0.1147163
157	0xbd315606	-0.04329493
158	0xbca4bb44	-0.020108826
159	0xbd9974ff	-0.07493018
160	0xbd978405	-0.073982276
161	0xbd52c2ae	-0.051455192
162	0xbd108e2a	-0.03529183
163	0x3c8ca779	0.017169701
164	0x3e300906	0.17190942
165	0xbdb37b4c	-0.087637514
166	0x3df6d0e0	0.120515585
167	0xbdcbe9f0	-0.099567294
168	0x3d780d87	0.060559776
169	0x3c6ac3b3	0.014328885
170	0x3d92690f	0.071489446
171	0x3dde6b1f	0.108602755
172	0x3c1adddb	0.0094523085
173	0x3d1e96a8	0.038717896
174	0x3ccf3d4d	0.025297785
175	0xbd6aa7f6	-0.057289086
176	0x3c019ac9	0.007910439
177	0xbd89a5f2	-0.06721105
178	0xbd551448	-0.052021295
179	0x3b5bbcb1	0.0033529217
180	0x3d1ee613	0.038793635
181	0xbbd0fbc9	-0.0063776714
182	0xbe32e02c	-0.17468327
183	0xbc9a58ea	-0.018841226
184	0x3c3bccc5	0.011462395
185	0x3db83163	0.08993795
186	0x3e169835	0.147065
187	0x3ce307e5	0.027713725
188	0xbcb18a19	-0.021672295
189	0x3c0623dc	0.0081872605
190	0x3b44c37f	0.0030023751
191	0xbd42e4b9	-0.04758141
192	0x3dbf0c82	0.093285576
193	0x3d8cf57d	0.06882761
194	0x3a528dc1	0.0008031987
195	0x3d95d791	0.07316507
196	0x3c39f085	0.011348848
197	0x3de0af21	0.10970903
198	0x3c249168	0.010044433
199	0xbcd70dcb	-0.026251694
200	0x3cde4a64	0.027135082
201	0xbd18a579	-0.037267182
202	0xbd2e2144	-0.042512193
203	0x3d480bf1	0.048839513
204	0xbdbb0db7	-0.09133475
205	0x3d8011d3	0.062534
206	0x3dc45a71	0.09587563
207	0xbce2d526	-0.027689528
208	0x3cb0bb69	0.02157374
209	0x3e33c42b	0.17555301
210	0xbd126817	-0.0357438
211	0x3d11f99f	0.035638448
212	0x3cecc95b	0.028904608
213	0xbdde6184	-0.108584434
214	0xbd849e0b	-0.06475457
215	0xbda38af5	-0.07985488
216	0x3dddff0d	0.10839663
217	0xbcb71240	-0.02234757
218	0x3cac8014	0.021057166
219	0xbd3ecbf9	-0.046581242
220	0xbce87b77	-0.028379185
221	0xbddce336	-0.107855245
222	0x3de5bc76	0.11217587
223	0xbda5a399	-0.080878444
224	0x3e0f163d	0.13973327
225	0xbc49d129	-0.012317934
226	0x3d396e28	0.04527107
227	0xbcdda8ff	-0.027058123
228	0x3d220082	0.039551266
229	0xbd09e733	-0.033667754
230	0x3dfcc579	0.123423524
231	0x3d753d77	0.05987307
232	0x3e2588cd	0.16165467
233	0x3bef9597	0.0073115337
234	0x3d850bc1	0.064963825
235	0x3dd5062d	0.104015686
236	0xbe0d74d0	-0.13814092
237	0x3c94ecd1	0.01817933
238	0x3d404298	0.04693851
239	0xbd2500e8	-0.040284067
240	0x3c9e0445	0.019289145
241	0x3c81c55e	0.015841182
242	0xbcab0fed	-0.020881617
243	0x3da2a2b4	0.079411894
244	0xbd3342da	-0.043764926
245	0xbc0de233	-0.008659887
246	0xbdcdd049	-0.10049493
247	0x3d9f7757	0.07786434
248	0x3e006e21	0.12542011
249	0xbdab6854	-0.083695084
250	0x3d28ae5a	0.0411819
251	0xbde526f2	-0.11189069
252	0x3d0d6a5c	0.03452526
253	0x3d1425b5	0.036168773
254	0x3d96b92b	0.07359537
255	0xbc873b10	-0.016507655

a2c_network.mu.bias f4 [18]
0	0xbd1d2705	-0.03836729
1	0xbd3bd55e	-0.04585778
2	0x3bb039c5	0.0053779804
3	0x3d22d4a4	0.03975357
4	0x3b046e1b	0.002020723
5	0x3cbe9cc4	0.023268111
6	0x3d94be44	0.07262853
7	0x3d7c6fb3	0.061629962
8	0x3d1f06a2	0.038824685
9	0x3d0d8c71	0.034557763
10	0x3da19c21	0.07891107
11	0x3d97f3da	0.07419558
12	0xbd960fc4	-0.07327226
13	0xbd29d32e	-0.041461162
14	0xbd941cca	-0.072320536
15	0xbdae933c	-0.085241765
16	0xbdb899c2	-0.09013702
17	0xbd914063	-0.07092359

exp_avg f4 [18]
0	0x3b16babf	0.0022999493
1	0x3b10a77b	0.0022072482
2	0x3b104510	0.002201382
3	0xba02ffdc	-0.00049972325
4	0x3a61a4f4	0.0008607649
5	0x3a2c2a4f	0.0006567584
6	0xba52f57a	-0.0008047443
7	0x3ab1f81d	0.0013577972
8	0x3a617db6	0.0008601801
9	0x3a079b7b	0.00051730097
10	0xb979cd88	-0.00023823057
11	0x3abfa4ed	0.0014621295
12	0xb8fa203b	-0.00011926932
13	0xb950e9e8	-0.00019923563
14	0x3aff2224	0.0019465131
15	0xba69bc46	-0.00089162996
16	0x3a82545e	0.0009943356
17	0xba598bce	-0.00082987256

exp_avg_sq f4 [18]
0	0x380ca7fd	3.3535052e-05
1	0x38072527	3.222111e-05
2	0x37d75466	2.5669298e-05
3	0x381530e1	3.556989e-05
4	0x3803ca9a	3.142152e-05
5	0x381af312	3.6942838e-05
6	0x37d59301	2.5460033e-05
7	0x37de7298	2.6517824e-05
8	0x37c0b957	2.297449e-05
9	0x38164d5e	3.583484e-05
10	0x37b03e29	2.100978e-05
11	0x37bf7f71	2.2828319e-05
12	0x37c0a60a	2.2965502e-05
13	0x37d4d87b	2.5373176e-05
14	0x37cb9a73	2.4271407e-05
15	0x37c7b4b2	2.3806791e-05
16	0x37dd9b2a	2.6417507e-05
17	0x37c348d8	2.3279732e-05
