logs/rl_games/hexapod_flat_direct/2025-11-14_22-48-05/nn/last_hexapod_flat_direct_ep_1350_rew_-0.14882115.pth (torch, 546100 bytes, 33 tensors)

value_mean_std.running_mean f8 [1]
00000000: 63b1 59de 07c9 bbbf
-0.10853623560405405

value_mean_std.running_var f8 [1]
00000000: 9838 7981 fd35 913f
0.016807518985210906

value_mean_std.count f8 []
00000000: 0000 0002 00a4 af41
265420801.0

a2c_network.sigma f4 [18]
00000000: d4e7 97bf c097 e0bf 3fe8 24bf 8696 e0be
00000010: 6bc3 f6bf 4c71 f4bf dd8d 313e d98a 8d3e
00000020: 8310 7e3e fd73 07c0 4a4e a43e f7d8 273e
00000030: d434 f13e 9448 333e d32f b63e 55d4 803e
00000040: 45fd 073f 746c c93e
-1.1867623 -1.754631 -0.6441688 -0.4386484 -1.9278387 -1.9097075 0.17339273 0.27644995
0.24810986 -2.1164544 0.3209098 0.1639136 0.47110617 0.17508155 0.35583362 0.25161996
0.53120834 0.39340556

a2c_network.actor_mlp.0.weight f4 [128, 66]
00000000: 1d2a a83e f18e b0bd 7301 3fbe 9511 8cbe
00000010: 7c42 553d cf8e 523d 8e1e 493e c9bb ea3c
00000020: 3ba8 33be a829 2bbe fd46 7cbe 8bfd 8e3e
00000030: 8008 ccbd 7af2 9f3e f0b2 c53d a88f b4be
00000040: e954 953e 713a e63d f290 9d3d e0d7 4cbd
00000050: 9786 053d f9f4 e5bd b836 02be be23 863c
00000060: 5d9c 4e3d 8257 e0bd 50b0 b73d 4760 a23d
00000070: f5a2 a0bd 1d96 e5bd 9834 363d 390d 97bd
00000080: df59 053d b258 8ebe e8cb 623b 3ee7 243d
00000090: 25ae 5c3c fd5b 57bd 9e67 23bd c4f0 aabd
000000a0: 856e c7bd cbd3 54bd e32c b4bd 9695 29bc
000000b0: 8e4a 423d bba1 b3bc 3606 a1ba e0f2 dbbd
000000c0: c238 49be ffe4 433d 732a 003e 2231 53be
000000d0: aa6e 943d f9d4 22bd 6593 003d c461 5dbd
000000e0: 9e8b 433c 320e 5abd 59cd 3bbd 33b7 0dbd
000000f0: ae06 51bd b4f6 f6bd 5ac5 8a3d 2201 bcbd
00000100: c262 f23d 5ab1 fa3b 7198 0f3e 6fdf 883d
00000110: 54a5 77be ccca e6bd 9a1f 39be f329 9bbd
00000120: d2a9 353e 0b3d 273e 73db 6c3c 13e7 bebd
00000130: 53a1 363e 0999 aebe 9929 933d df88 8d3d
00000140: 0d08 1b3b 7440 7d3e adef 213e 0bd9 293e
00000150: 024b 713d 1444 bcbd e713 06bc 8444 6abd
00000160: af8f b83c 8636 0ebe 0dc4 cc3d 291e f63d
00000170: 9517 6e3d 912b 76bd aae3 ff3d 5af9 223d
00000180: 10fe 3dbc ce2f a8bd 5757 373d 054a b0bd
00000190: b1fa 11bd 4f36 863d c638 553d 2153 1abd
000001a0: b135 98bc 68a8 2fbc 64bb 723d 1a99 edbc
000001b0: 0ea4 4bbd bc9d 67bc f01c 8bbd 95d7 b53c
000001c0: 9abf 5e3d 8887 b9bd 2f65 ad3d 6b23 e93d
000001d0: 2315 08bd fe72 bb3c 0c60 c03d e191 1e3e
000001e0: d6f1 8a3d f82b 72bd b093 ef3d 74c3 033e
000001f0: b908 fcbd becd 3ebd f71e 753d a79a 443e
00000200: 833b 94bd cffb c7bd 3408 ddbc 30cd 49bd
00000210: 795c 94bc d1e2 f53d 37d6 69be 53f3 7ebd
00000220: 633f 973d d57e a13a 5b65 3cbd 58b1 46bd
00000230: ca3d 26be b859 52be 20bf afbc 65aa ec3e
00000240: c73f babd 637f 873d 8ea4 eebd 9b9f ebbc
00000250: cb11 d0bd 5553 90bb 92e1 0ebc 2c0e 0fbe
00000260: ebfa 8bbc b563 7fbe ac58 febd ad84 fdbb
00000270: d3ad ad3c 1b69 e1bd b0e1 a5bb 8185 fd3d
00000280: b524 3f3e 3b4d b33d c66a babd c70b acbd
00000290: 3b68 9bbd dded ad3d a9ab c43c 4200 f03d
000002a0: 6fce 3f3d 8113 343d d96b 0b3a 5b60 80bd
000002b0: 50a1 eebd 8b9f 07be 6085 783d 1b89 91bd
000002c0: 1416 7dbc f614 46bd 5196 f23b 651a 9bbd
000002d0: 1886 59be f939 943d 2a2e 89bd 5e2d c13d
000002e0: 1985 d7bd ad5f dbbd dddb 63bb 51dd e3bd
000002f0: 0a36 5cbd 6d09 67be 349a cc3d 50a6 1bbe
00000300: 755f a33c 80db 32bd 4809 fb3d 9929 7abd
00000310: c11d b03d 12ba 09bd 9109 f83d a317 9a3e
00000320: 7e30 62be 0c8c 38bd 24ba 343d be26 45be
00000330: 8437 fa3e 452d 4e3b 4dca 093e 92da 223d
00000340: 9dc8 e73d 33d8 43bd 523e f8bb adad 803d
00000350: b9ec 9c3d 3c08 a9bd 69b8 bcbc 964a 373c
00000360: 84ae aa3d 596e 9a3d 8e9c 843d 2be7 883d
00000370: 7199 923d 5d8c 413e 0767 30bc 61e5 0bbe
00000380: dcf0 50be 623f 0cbe 20a8 52be 1877 8cbe
00000390: a15b 30bb 2758 3abd 2c6b 50bd 13fc bcbd
000003a0: 04bf d9bc 6495 623a 1c9c d33b e440 0cbd
000003b0: b7ab 5dbd 4ad1 b2bc dd63 aebd 1596 e53d
000003c0: 395b aabc 8de4 0e3d 42e9 26bd 335f a7bc
000003d0: da9e 713d 17ff 033d 70fe ebbd 5344 b43d
000003e0: 1c0b 1f3e ad01 663d e049 cf3d bb07 3c3e
000003f0: 650d 23bc 0660 ce38 3cab 15be 32a3 7abd
0.3284463 -0.08621014 -0.18652897 -0.27357164 0.052065358 0.051405724 0.19640562 0.028653996
-0.17544644 -0.1671511 -0.24636455 0.27927813 -0.09962559 0.31239682 0.0965327 -0.3526585
0.29166344 0.112416156 0.07693662 -0.050010562 0.032599058 -0.112283655 -0.12716186 0.016374465
0.05044209 -0.10954191 0.08969176 0.0792852 -0.078435816 -0.112102725 0.04448375 -0.07375569
0.03255641 -0.27802044 0.00346064 0.040259592 0.013469254 -0.05257796 -0.03989374 -0.08346704
-0.09737877 -0.051959794 -0.08797624 -0.0103506055 0.047434382 -0.021927705 -0.0012285176 -0.10739684
-0.19650558 0.04782581 0.12516193 -0.20624211 0.0724767 -0.039753888 0.031390566 -0.054048315
0.011935143 -0.053236194 -0.04585013 -0.03459854 -0.05103176 -0.12058774 0.06775923 -0.091799036
0.11835243 0.0076505365 0.14022996 0.066832416 -0.24184161 -0.11269149 -0.18078461 -0.075763606
0.17740563 0.1633188 0.014456618 -0.09321418 0.17834978 -0.34101132 0.071856685 0.06910872
0.0023655922 0.24731618 0.15814085 0.16586702 0.058909424 -0.09192672 -0.008183456 -0.057194248
0.022529451 -0.13887987 0.09998331 0.12017471 0.05812796 -0.060100142 0.12494595 0.03978858
-0.011596218 -0.08212243 0.04476103 -0.08607868 -0.03563947 0.06553327 0.052056096 -0.037676934
-0.01858029 -0.0107213035 0.05926074 -0.029003669 -0.049717 -0.014136728 -0.06792629 0.022197524
0.054381944 -0.09059054 0.08466565 0.113837086 -0.033223283 0.022881981 0.093933195 0.15485336
0.06784408 -0.059123963 0.11698091 0.12867528 -0.12306351 -0.04658293 0.059843984 0.1919962
-0.072379135 -0.097648256 -0.02698145 -0.049267948 -0.0181105 0.120061524 -0.22835623 -0.06224377
0.07385137 0.0012321124 -0.045995098 -0.048508972 -0.16234508 -0.20542037 -0.02145344 0.4622375
-0.09094196 0.06616094 -0.1165248 -0.02876263 -0.10159644 -0.004404465 -0.008720772 -0.1397025
-0.01708742 -0.24940379 -0.124192566 -0.0077367635 0.02120105 -0.110063754 -0.0050623044 0.123789795
0.18666346 0.08754965 -0.09102397 -0.08400684 -0.0758824 0.084926344 0.024007635 0.11718799
0.04682773 0.043963913 0.00053185 -0.06268378 -0.11651862 -0.13244455 0.06067407 -0.07106229
-0.015447158 -0.048359834 0.007403173 -0.07573394 -0.21242559 0.0723762 -0.06698258 0.09432481
-0.10523433 -0.10711608 -0.00347685 -0.11126197 -0.053762473 -0.2256219 0.099903494 -0.15200162
0.019942978 -0.043666363 0.1225763 -0.061074827 0.08599425 -0.033624716 0.121112 0.30096158
-0.22088811 -0.045055434 0.04412283 -0.1925306 0.4887048 0.0031460088 0.13456078 0.039759226
0.11317561 -0.047813606 -0.0075757885 0.06283126 0.07662339 -0.08253524 -0.023037152 0.011187216
0.083340675 0.075405784 0.06475173 0.06684717 0.07158173 0.189012 -0.010766751 -0.1366172
-0.2040438 -0.13696054 -0.20571947 -0.2743461 -0.0026910084 -0.045494225 -0.050883457 -0.09227767
-0.026580341 0.0008643477 0.0064578187 -0.034241572 -0.05411884 -0.021828312 -0.08515141 0.112102665
-0.020795451 0.03488593 -0.040749796 -0.020431137 0.058989383 0.032225695 -0.115231395 0.08802094
0.15531582 0.056153942 0.101215124 0.18362324 -0.009951924 9.840731e-05 -0.14616102 -0.06119079

a2c_network.actor_mlp.0.bias f4 [128]
00000000: 4802 5c3d 20a5 083d 73b2 b13d ebb1 6dbd
00000010: 0e94 f63d 590c a7bd ea98 d2bc 10df 503e
00000020: c383 2d3d 8695 1c3b 7bcd d5bb bf35 c13d
00000030: d8bf ebbc 62d0 e93d 7d4c 03be 3162 a53d
00000040: 33b8 a43d 3fae ef3d f77f 203e 92cf 103e
00000050: a9fe 72bd 07aa 803d ec78 c43d 0d68 b53d
00000060: 83eb 313a 7554 d13d e880 1fbd 1c5e f73d
00000070: 99d4 103e 2679 123b fe35 0b3e cff5 90bd
00000080: 2a98 f33d bf8a 733d 7c39 1abe 989c 013d
00000090: 2e72 a93c cc73 1b3e 31df 09bd 233b 54bc
000000a0: 484d b83c 65b0 643d bd43 abbc c235 3a3d
000000b0: 0ea7 c3bd 0e35 103e 61e3 acbd 7af8 2c3d
000000c0: e2da 0e3e 0295 963d 8255 d9bd 8659 9b3d
000000d0: 20fd 083c 77b4 773d 1376 e2bd d5da 643d
000000e0: 0d3e e23d 79bb 203d 8893 a83d d695 273e
000000f0: b380 f93d d312 6cbc 1ec8 293e 6b84 70bd
00000100: b6f3 753d 3dc0 fb3d 894e 6f3e 4fd5 f33d
00000110: 0c6d 3c3e a0c4 963d bb7f 593e 5854 123b
00000120: bef6 093e d6f1 d03a 6e77 f53d 93e1 00be
00000130: 77c5 33be 037b be3d 1fd2 11bd 21fd adbd
00000140: fb23 2fbe 1081 c1bd a0f1 d73c db0c 313e
00000150: 22d6 0f3e c3ef 5f3d f90d a7bd 9833 843d
00000160: 00fd 22be 13c6 283e 6044 d73d 21fe 46bd
00000170: 9309 b63d 718b f33d 8dcd ac3d cc12 acbc
00000180: faa4 123e b643 1ebd efdb e1bc dbd7 1f3d
00000190: 18f6 5f3d b353 52be 2543 bd3d 5f7d 11bd
000001a0: 6307 bc3d 7273 1d3e 47d6 823e 0a13 9c3d
000001b0: 59c3 533e 0019 003e caac 163e 37b2 a83d
000001c0: 7358 f13d 2c1e 863d c002 ed3d 8aaf a53d
000001d0: a74a c03d 87da b93d cdd3 e23d 8df6 ff3b
000001e0: 5ef8 0b3e 12d2 7ebc 272b 293e 38c0 153d
000001f0: 0139 283c 2fb1 093e e325 edbd ec2c 863e
0.053713113 0.0333606 0.086766146 -0.058031004 0.12039958 -0.08156652 -0.02570768 0.20397592
0.042361986 0.0023892834 -0.0065247393 0.094340794 -0.028778002 0.11416699 -0.12822147 0.08075369
0.08042946 0.11703157 0.15673815 0.14141682 -0.059324894 0.0628243 0.095933765 0.08857737
0.0006787108 0.10221187 -0.038941294 0.12078497 0.141436 0.0022350042 0.13594815 -0.07078134
0.11894257 0.05945849 -0.15060991 0.03164348 0.020684328 0.15180892 -0.033660118 -0.012953552
0.022497788 0.055832285 -0.020906324 0.045461424 -0.095533475 0.14082739 -0.084418066 0.042229153
0.13950685 0.0735264 -0.106120124 0.075854346 0.008361131 0.06047484 -0.11057677 0.055872757
0.110469915 0.039241288 0.08231264 0.16365752 0.121827506 -0.014408785 0.16580245 -0.058720034
0.060046874 0.12292526 0.23369803 0.1190592 0.18400973 0.07361722 0.21240132 0.0022328105
0.13473031 0.0015941213 0.1198567 -0.1258605 -0.17555796 0.093008064 -0.035600778 -0.08495546
-0.17103569 -0.09448445 0.026360333 0.1729006 0.14046529 0.054672014 -0.08156962 0.06455153
-0.15916824 0.1648181 0.10511088 -0.0485822 0.08888545 0.11891831 0.08437643 -0.021005057
0.14320746 -0.038638793 -0.027570693 0.039024215 0.054678053 -0.20539741 0.092413224 -0.035519954
0.091810964 0.1537607 0.25554106 0.07620819 0.20679988 0.12509537 0.14714351 0.08237117
0.117844485 0.065487236 0.1157279 0.08090122 0.09389239 0.09074884 0.11075554 0.0078113736
0.13668963 -0.015553014 0.16520368 0.036560267 0.010267497 0.13446496 -0.11579492 0.26206148

a2c_network.actor_mlp.2.weight f4 [128, 128]
00000000: 77a6 513d 8dd8 cc3d b30d 86bd 051b c8bc
00000010: e2b6 b4bd 14e6 acbd 79b0 463c 818a f9bc
00000020: e92c c53b 9957 d2bd 8d8b ce3c 9060 0cbd
00000030: 8b10 1a3d 9184 24bd 31a7 39bd 64d3 ef3c
00000040: 22e5 19bd e8ed 11be d086 79bc ddcc 09be
00000050: 5253 c03d 3693 743d bea7 01bc 1ef1 8dbd
00000060: 22c6 633d 8d45 f9bd 4f86 93bc c361 923b
00000070: 6aa5 423d f651 0aba 7386 283d 1776 243b
00000080: 4b0d 03be 11b5 733d 394b 33bc d619 203d
00000090: a4b4 a43b 4e02 1d3d c1b4 22bc df40 303d
000000a0: 426f 33bc 7e1f 80bc d4eb 3cbe 0f6d 283e
000000b0: 6b96 993d 3eb2 08be 2e84 1ebc 97d9 f03d
000000c0: 1080 13bd 6a57 223d bcd0 7b3c 6386 1e3b
000000d0: d068 523e 1182 e43b 451b 913c 741c 203c
000000e0: 317f 393d e1e2 d3bd ece7 42bd db00 b2bc
000000f0: d929 8dbd 08b2 aa3d 1e15 47be dd22 8ebd
00000100: ff40 debd 0db1 a33c 037d e93b d096 90bd
00000110: 7ff4 a13d 0a19 30bd 8185 d6bd 20f0 d53c
00000120: d34f 8ebd ca99 22bb 34d0 90bd b601 7c3d
00000130: f326 b93b eb14 bd3d dcb4 a1bd 77eb 9fbd
00000140: 5e41 0abd d667 043d c1c8 3ebd d145 a4bd
00000150: 401b b33d b54a f9bc 34a5 063c eb9d 10be
00000160: 5350 74bb bccd b93c 39af 7c3d 3375 0bbe
00000170: c621 01be b9f1 db3c 0a51 903d 48d7 ce3b
00000180: 1200 b1bd ee96 bfbd c6a7 113d 0186 b63c
00000190: 88b9 983d 6b1e 7ebd dec0 e0bc 9da1 b43d
000001a0: 1759 04bc bee4 59bc 0b8a 6f3d 3125 ef3c
000001b0: 4458 cab9 2910 1bbe c9a4 223e 5e5c b6bd
000001c0: 46a1 d73d b7dd 853d 4bcc 11be 4aa9 c3bd
000001d0: 8c39 cebc c706 b33d 6f06 623d 705d 1e3d
000001e0: 1f0f e23c 72a8 533d 656d 003d 8d8b 56bd
000001f0: bc4b 993d 9523 e6bc 11a6 843d cca6 7bbc
00000200: 8ccf 893d 60df 03be d6b6 913b f8a3 c3bd
00000210: 2551 f738 a84b 6f3d a3cb 1ebe eb50 f2bd
00000220: 40cc 8bbd 2a3d f3ba 220f a8bb 4385 29bd
00000230: 022b aebc 2f94 52bd 7681 eab9 0ff7 5d3c
00000240: ca39 223d 8250 c6bc f70d 91bd fc69 c53d
00000250: bec3 863b fb86 7bbd 3f34 163d 01ff a5bc
00000260: e842 de3c 4814 863d 417f 1f3d 954c c93d
00000270: d53a 3e3d 9d17 0b3e 7f78 a3bd 6c61 99bb
00000280: 23a7 f93c c27f 8f3a 3fde ef3d 44a3 6abd
00000290: a425 9e3d 0894 52be 174e dd39 e237 303d
000002a0: adb8 72bd 0b5e 80bc abb9 0c3e 5800 1fbd
000002b0: ea36 433c 41b9 96bd 37c6 6e3d 520b 02bd
000002c0: b664 1fbe edc7 f5bd d1fa 213d 5169 7abd
000002d0: 73ea d8bd d7c9 da3c d992 463c 3a56 b4bd
000002e0: 8f7c f0bc e905 8b3d ad01 d03c 1e14 16be
000002f0: f87c b0bd 4a09 0e3e 6fa6 30bd fe2e 7abd
00000300: dcdc 56bd e65b 1bbd bc82 4b3d f384 133d
00000310: 1d28 93bd 1fdf fcbd 037e 1abe 4e88 b53c
00000320: 6133 c03c 7e30 a03d 5657 fabc 24dd a03c
00000330: 8fc7 053d d92f 8ebd 0636 9d3d 7918 9d3d
00000340: f639 5c3d f04d 863d 928e 47bc 5710 a1bb
00000350: 8993 d93d 630f dcbd 77c5 4b3d 0bc8 9fbd
00000360: 6821 b6bc 99fd f3bd f28d a8bd 1d95 8a3d
00000370: b783 14be 8b23 623d bc6e 4b3d a039 d83d
00000380: 26c7 a5bd a2f0 f9bd 2097 ac3c e1fd 60ba
00000390: 3027 113d 3a24 873d de59 05bb 5a83 893c
000003a0: 1410 ffbd 2226 08be 3fe0 24be 1cdf a2bd
000003b0: 6a5c 91bc 142b a63d 6eab 123d ddad 95bd
000003c0: b180 a7bb a6b0 ff3d ce89 90bc a249 3eba
000003d0: 69f0 b7bd 720f ba3c 9e65 673d 273b 1bbc
000003e0: 0a9b a6bd e52e a33d 6580 3bbd 8ea2 f3bc
000003f0: 85d6 f9bc d3f0 653d 09e2 033d 6315 28bd
0.051184144 0.10002241 -0.06545582 -0.024426946 -0.08823945 -0.084423214 0.012127035 -0.030461552
0.0060173166 -0.10270614 0.025213027 -0.034271777 0.037613433 -0.040165488 -0.04532546 0.029275604
-0.037572034 -0.1425091 -0.015229896 -0.13457055 0.09390892 0.059710704 -0.007913528 -0.06930755
0.055608876 -0.12171469 -0.01800838 0.0044672205 0.047521032 -0.00052764954 0.041143846 0.00250948
-0.1279804 0.05949885 -0.010943227 0.03908714 0.005026417 0.038332276 -0.00993079 0.043030616
-0.010951819 -0.015640017 -0.18449336 0.16447853 0.07499393 -0.13349244 -0.009675069 0.11760252
-0.0360108 0.039634146 0.01536959 0.0024188987 0.20547795 0.006973513 0.017713198 0.009772409
0.045287315 -0.10346008 -0.04758446 -0.021728924 -0.068927474 0.08334738 -0.1944165 -0.069402434
-0.10852241 0.019981885 0.0071254983 -0.07060015 0.07907962 -0.04299263 -0.104746826 0.026115477
-0.06948819 -0.0024810904 -0.070709616 0.06152507 0.005650395 0.092325054 -0.07895824 -0.07808583
-0.033753745 0.03232559 -0.046578173 -0.08021129 0.08745432 -0.03043113 0.008218098 -0.14122741
-0.0037279322 0.02268111 0.061690543 -0.13618927 -0.1261054 0.02684866 0.07046707 0.0063122846
-0.086425915 -0.093549594 0.03556039 0.022280695 0.07457262 -0.062040728 -0.027435716 0.08819888
-0.008077881 -0.013299165 0.058481257 0.029192539 -0.00038594205 -0.15142883 0.15883173 -0.089043364
0.10528807 0.065364294 -0.14238088 -0.09553774 -0.025173925 0.08741527 0.055181917 0.038663328
0.0275951 0.051674314 0.031354327 -0.05237918 0.07485148 -0.028093139 0.06476987 -0.015359592
0.067290395 -0.1287818 0.0044468446 -0.09552759 0.00011792992 0.05842176 -0.15507369 -0.1183184
-0.06826067 -0.0018557657 -0.005128757 -0.041386854 -0.021260742 -0.05141085 -0.00044728414 0.013547673
0.039605893 -0.024208311 -0.07082742 0.096393555 0.0041126898 -0.061408024 0.03667092 -0.020263197
0.027131513 0.06546837 0.03893972 0.0982906 0.046442825 0.13583227 -0.07981967 -0.004680803
0.030475205 0.0010948109 0.11712312 -0.05728461 0.07722023 -0.20564282 0.00042210586 0.043022044
-0.05925815 -0.015669843 0.13742702 -0.038818687 0.011914948 -0.07359553 0.0582945 -0.031749077
-0.15565762 -0.120010234 0.039545838 -0.061135594 -0.10591593 0.026707573 0.012119972 -0.08805509
-0.02935627 0.06788237 0.025391424 -0.14656112 -0.08617586 0.13870731 -0.043127473 -0.06107997
-0.05245672 -0.037929438 0.049685225 0.036015462 -0.071853854 -0.123472445 -0.15087132 0.022159722
0.023462 0.07821749 -0.030559223 0.019636698 0.032661017 -0.0694272 0.0767632 0.076706834
0.053766213 0.06557834 -0.0121799875 -0.004915278 0.10623843 -0.10745122 0.049748864 -0.07801827
-0.022232726 -0.11913604 -0.08230199 0.06766722 -0.1450337 0.055209678 0.04966615 0.10557866
-0.08094625 -0.122041 0.021068156 -0.0008582753 0.035437763 0.065987065 -0.0020347754 0.016786266
-0.124542385 -0.13295797 -0.16101168 -0.07952711 -0.017744262 0.08113685 0.03580802 -0.073085524
-0.0051117768 0.12484865 -0.017643835 -0.0007258897 -0.089814015 0.022712443 0.056493394 -0.009474552
-0.0813504 0.07967929 -0.045776743 -0.029740598 -0.030497799 0.05613787 0.032197986 -0.04103602

a2c_network.actor_mlp.2.bias f4 [128]
00000000: cf89 98bc f4e9 d9bd c169 8fbb b186 66b8
00000010: 44a4 643d e2f0 793c 64da 7a3d b01b ca3d
00000020: 2660 edbd 073a 38bc f890 d8bd 7b43 e5bc
00000030: cfbc 96bc 2b30 b8bd 93bc 57bd ce33 88bd
00000040: 473b d33b 5944 7abd 32ea 103c 64b4 0ebd
00000050: ab84 2cbe c871 b43d a5f6 0c3c 0f92 aabd
00000060: fedb 43be 0a49 57bd 83cf 07bc 5b08 98bb
00000070: 1caf 5ebe ece8 fb3c 3e28 adbc 5ee0 a6bd
00000080: bb6b dc3c 9377 8b3d 308e 623d 5f65 24be
00000090: f22b c33c 7f80 fb3c e0dc 0cbe 6655 28bd
000000a0: 1b57 863d 79f6 d9bc b017 b33c f97b 85bc
000000b0: 9b1b 493c 73c4 10bd 8d3b 31be 2ffb 82bd
000000c0: 5014 82bc 2ef2 24bc c655 8ebc c406 f5bd
000000d0: 27b4 20bc e189 893d 603c 14be 596f e33b
000000e0: 06d6 6c3c 4cc4 10bd 9eeb c73d 28d3 aebd
000000f0: a9d4 febd c4e0 b63d f6be 823d 7110 3e3d
00000100: a7f8 20bd ca34 0fbd 1fc0 bd3d 598d c5bc
00000110: 8b92 853c 929d 9d3c 5471 aa3d 6ef4 7fbb
00000120: 6250 7c3d caac f9bd d170 4d3d e7d1 3cbe
00000130: 4014 fabd ce48 01be 90cb 833c 0381 763d
00000140: bbf7 423d 6efb 5b3d 4431 4abc e443 9dbd
00000150: 6ca3 ecbd 5b87 8e3d 0480 17be 03f0 00be
00000160: 3954 463d 7734 b63b fe0d 0abd 897d 3abd
00000170: 78a4 823c 9373 ff3d f2b6 b63d 0679 bcbd
00000180: c68d 233c 4443 4b3c 6ca2 733d 3283 8f3d
00000190: 63b2 cf3c 1078 06bd 6635 c2bc 87b6 7fbc
000001a0: 6481 8d3d cb3c 263d 3efb 0dbd d008 723c
000001b0: fc27 bd3d bde4 28bd 74fc b03c 7dcf b0bd
000001c0: 05a2 313d 6b34 41bc e233 3a3c 765a fcbc
000001d0: 04e0 8b3d ef03 c9bd c3d2 5fbd 7f96 9ebc
000001e0: 80b5 70bd 0749 003c 7044 9fbc b187 5e3d
000001f0: d80a ccbb 688f af3c 236a e43c 34ac e7bc
-0.0186204 -0.10640326 -0.0043766205 -5.4961714e-05 0.05582072 0.015255185 0.06124343 0.09868562
-0.115906045 -0.011244304 -0.105745256 -0.027986279 -0.018400578 -0.08993562 -0.052670073 -0.06650506
0.0064462754 -0.061100338 0.008844899 -0.034840003 -0.16847484 0.088107646 0.0086037265 -0.0832864
-0.19126889 -0.05255989 -0.008289221 -0.004639668 -0.21746486 0.030750714 -0.021137353 -0.081482634
0.026906839 0.06809916 0.05531138 -0.16054295 0.023824666 0.03070092 -0.13756132 -0.041097067
0.06559583 -0.026606785 0.021861881 -0.016294466 0.012274648 -0.0353436 -0.17307873 -0.06395566
-0.015878826 -0.010067506 -0.017374884 -0.11964181 -0.009808577 0.067157514 -0.14476156 0.006940764
0.014455324 -0.035343453 0.09761737 -0.085363686 -0.124429055 0.089295894 0.06384079 0.0464024
-0.039299633 -0.034962453 0.0926516 -0.024115251 0.016305229 0.019240174 0.08322397 -0.0039055604
0.061600097 -0.1219116 0.05015642 -0.18439446 -0.12210894 -0.12625429 0.016088277 0.06018163
0.047599535 0.05370658 -0.012340847 -0.07678965 -0.11554608 0.06959411 -0.14794928 -0.12591557
0.048420165 0.0055604535 -0.03370475 -0.045529876 0.015947565 0.12473216 0.08921613 -0.09202771
0.009982532 0.012406174 0.05948107 0.070074454 0.025353616 -0.032829344 -0.023707103 -0.015607483
0.06909445 0.04058532 -0.03466343 0.014772609 0.09236142 -0.041233767 0.021604754 -0.08633325
0.043367404 -0.011792283 0.011364909 -0.030804854 0.06829837 -0.098152034 -0.054644357 -0.019358872
-0.058766842 0.007829911 -0.019441813 0.054328624 -0.0062268786 0.021430686 0.027882641 -0.028280355

a2c_network.actor_mlp.4.weight f4 [128, 128]
00000000: 5dba 53bc 65b2 69bd a69f 2cbd 9f0c ba3b
00000010: 9295 123d e37d 04be 1f81 2cbd 354e 8b3d
00000020: 2c66 4ebd 3e50 fc3c 2164 473d c8f5 4d3c
00000030: 1f0a 2e3c 63fe bbbd 38db 0b3a 99b5 903c
00000040: 0fb9 c33a d081 13bd 6e76 34bd 304f afbd
00000050: fc64 df3c 734c 5a3d 1713 bf3c 26dc 273b
00000060: 2ddd 26bd b51e 5f3d bdb6 1a3c c8c5 1cbd
00000070: 4df5 dcbc 1dda 58bd f797 cabd c6fc cb3d
00000080: 01a1 463d 850c 9bbd 0e91 23bc e6b7 0e3d
00000090: 15aa 87bc abef 03bd ec3a e3bd 2f5b 9bbd
000000a0: 196a a3bc 960c 2fbd 3cd6 63bd 9ea3 58bd
000000b0: a39e 503d 9b23 75bd ef5d 06be 1918 593d
000000c0: 26a0 753d 6b54 38bd ac1d debb 8fa5 bcbc
000000d0: 5ba4 233d d1c7 1cbc c47a e0bd a3dc 943d
000000e0: 6e60 a3bd b815 19ba d135 bfbc 8206 a2bd
000000f0: f413 63bc 7390 033d 9bb7 c93b 0521 0d3e
00000100: 7cdf e63d d153 8f3d 0a9b 2dbd 8e94 48bd
00000110: 27ae ca3d d759 883c 7fec a43d 9672 ef3d
00000120: 26c9 f0bc c92e 0e3d 1366 0b3d 401b debc
00000130: 3945 93bd a33d 07bc 6597 b03d c367 26bc
00000140: 3b0c d23c a03b f13c a412 0a3d 5103 b33d
00000150: 9355 653a 4d34 66bb c4c4 74bd aece fdbc
00000160: b750 98bd 4fdf 353d 9be7 343d 12a3 1ebd
00000170: c937 1b3d 1631 05bc d2b1 82bd f51e 0bbc
00000180: 7f03 8abc 74f5 23bd dbaf c13d 413d ab3c
00000190: ed15 99bd 3b80 c7bb d073 f5bc 9b5b aabd
000001a0: aee5 6b3d 347c 453c 263f 5dbb 82d5 07bd
000001b0: 7cae 44bc 5084 91bd 76de 63bc 9a5c 44bd
000001c0: f9a4 c23c 4c82 803c eb96 d8bd e860 bebd
000001d0: cfd0 40bd 72e6 223d 6bff 9b3d cd10 0c3d
000001e0: 2d55 4a3d 7fc8 803d b5ca 7fbd ab25 c73d
000001f0: bb73 b1bd 0372 d9bc ebb3 263c d5a6 e1bd
00000200: f2cf 773c 4670 1a3d 1236 82bc 70f0 403d
00000210: bdef 9c3d 3256 2cbd fcdc 6bbd d898 0f3d
00000220: 796a 38bd 5abb 66bd 15fe 783b d9f0 793d
00000230: ceb5 99bd 65cc 14bd 1425 62bd de3e fa3d
00000240: cd24 8f3d 2750 d4bc 7f33 e1bd 0ee9 863d
00000250: 7b5c dcbd 9e06 32bd d810 163e df24 8dbb
00000260: 2026 d4bc 6b1d c5bd 11ab 99bd 8371 14bc
00000270: 1c56 d23c 976c 56bc 963e 4ebd ec03 2fbd
00000280: 0afb 9abb aa74 e13c 46a6 42bd b855 58bd
00000290: 8e57 a2bd 871b 833d c293 79bd 99fb f3bd
000002a0: 8ef0 07bd 4bb0 b8bd 7660 ccbd 8bea 4dbd
000002b0: 9990 7f3d 0d7e b8bd 9ac2 acbd 237d 033d
000002c0: d084 913d c78e 263c a61d 033e 7a83 3f3d
000002d0: 7a9d 6ebd 371a 21bc 65be 82bd 0b87 f03d
000002e0: a402 c0bb bda7 7a3d dfa2 2dbd 6c90 9bbd
000002f0: f0c8 9abd 0c25 b83d acdd 96bd a1a5 c73a
00000300: 69c2 a13c cf72 a7bd cd74 e1bc db8a 533d
00000310: 8a23 d03d 105e 7fbb a9d9 abbc c89e 1c3b
00000320: 7c62 a9bc d8f0 96bc 84f3 893c 200e 033d
00000330: 4944 163e 0efc 4cbd 6681 5c3d 1107 9a3d
00000340: 5fe1 983c 1a77 55bc 3d3d 423b a534 d63c
00000350: de8b 573d b8a1 4c3d ca90 16bd 8da7 a03c
00000360: b97d a63d 308b 7e3d 396b e83b 5726 e5bd
00000370: 0fac 733d 6add b0bc 31a8 843d 0556 1c3d
00000380: b3dd 89bd 10e0 7cbc 12cb c6bc 7a64 adbd
00000390: 668e bd3c e8c6 d43d 29f5 bd3d 3c57 45bd
000003a0: 8fbe 94bc 1790 97bc 936d 4e3d 3f4f 94bd
000003b0: a1e3 763c e23c afbd 4f41 8d3c b91a 013d
000003c0: 17b8 afbd f6a2 b43d 7cb9 24bd 4300 7e3d
000003d0: ddf8 ecbd d586 933d 0e18 063e c85a 363d
000003e0: 4abd d43a 8cfb 053c 8612 cabd 5b39 c13c
000003f0: cf78 3a3d 462c 573d ddda 64bd 668a a43c
-0.01292285 -0.057054896 -0.04214444 0.005677774 0.035787173 -0.12938647 -0.042115327 0.06802026
-0.050390407 0.030799981 0.048679475 0.012570806 0.01062253 -0.0917938 0.00053350953 0.017664718
0.0014932471 -0.03601247 -0.044058256 -0.08560026 0.027269833 0.053295564 0.023324532 0.0025613396
-0.040738273 0.054472644 0.009442982 -0.038274556 -0.026972437 -0.052942384 -0.09892266 0.09960322
0.04849339 -0.07570747 -0.009983314 0.034843348 -0.016560594 -0.032210987 -0.11095223 -0.07585751
-0.019948052 -0.042736612 -0.05562423 -0.052890413 0.050932538 -0.05984841 -0.1312177 0.053001497
0.059967183 -0.045002382 -0.0067784395 -0.023028163 0.039951663 -0.009569124 -0.10960916 0.072686456
-0.07977377 -0.0005839723 -0.023341091 -0.079113975 -0.013859738 0.03212018 0.0061559207 0.13782127
0.11273095 0.069984086 -0.042384185 -0.048969798 0.09896498 0.016644401 0.080529206 0.116917774
-0.02939279 0.034712587 0.034032892 -0.027112603 -0.071909375 -0.008254441 0.08622626 -0.010156575
0.025640598 0.029447377 0.033709183 0.08740867 0.0008748408 -0.0035126389 -0.059757963 -0.030982342
-0.0743727 0.044402417 0.04416619 -0.038729735 0.037894998 -0.008129379 -0.06381573 -0.008491267
-0.01684737 -0.040029004 0.0945737 0.020903232 -0.07474885 -0.0060882843 -0.02996245 -0.083182536
0.057592086 0.012053538 -0.0033759563 -0.0331626 -0.012004491 -0.07105315 -0.013908019 -0.047939874
0.023760306 0.01568713 -0.1057566 -0.09295827 -0.047074135 0.03977055 0.076170765 0.03419571
0.049397636 0.062882416 -0.062449176 0.097239815 -0.08664652 -0.026543623 0.010174732 -0.11018149
0.015125262 0.03770473 -0.015894923 0.0471043 0.07662914 -0.04207439 -0.057583794 0.035057873
-0.045023415 -0.056331016 0.0037993242 0.061020706 -0.075053796 -0.03632774 -0.05521114 0.12219022
0.06989441 -0.025917126 -0.1099615 0.065874204 -0.10759827 -0.043463342 0.14654863 -0.004307374
-0.025897086 -0.09624752 -0.075033315 -0.009060266 0.025675826 -0.013087413 -0.050352655 -0.04272835
-0.004729633 0.02752145 -0.047521852 -0.052816123 -0.07926856 0.06401735 -0.06093193 -0.11913223
-0.033188395 -0.09018 -0.09979336 -0.050272506 0.06239376 -0.09008417 -0.08435555 0.03210176
0.0710541 0.010165877 0.12804279 0.046756245 -0.05825565 -0.00983291 -0.06383971 0.117445074
-0.00585969 0.061195124 -0.042391654 -0.07595906 -0.07557857 0.08991441 -0.07366499 0.0015231856
0.019746022 -0.08176195 -0.027521515 0.051646095 0.101630285 -0.0038965978 -0.020977812 0.0023898352
-0.020676844 -0.01842539 0.01683975 0.031995893 0.14674486 -0.050045066 0.05383434 0.07520879
0.018662153 -0.013028884 0.0029638552 0.02614815 0.052623622 0.049958915 -0.036759175 0.019611144
0.081294484 0.06214446 0.00709286 -0.11188953 0.05949026 -0.021589953 0.064773925 0.038167972
-0.06731739 -0.01543428 -0.024266753 -0.0846643 0.02313919 0.10389501 0.09275276 -0.048178896
-0.018157272 -0.018501325 0.050397467 -0.072416775 0.015068919 -0.08556534 0.017243056 0.031519625
-0.08580034 0.08820145 -0.040215954 0.06201197 -0.115709044 0.072034515 0.13095114 0.04452017
0.0016230729 0.008177649 -0.09866814 0.02358692 0.04552537 0.052532457 -0.055872787 0.020085525

a2c_network.actor_mlp.4.bias f4 [128]
00000000: 2837 533d fa80 243d 5aac 6bbd d7f9 b1bd
00000010: d93f e0bd 7982 2d3c 0077 8b3d c0a3 bc3c
00000020: 70d2 d63c 4b4e 713d c882 c33c a6ce d9bc
00000030: c7f8 1ebd a6ce 633d f6f4 2ebd 3d1c 81bb
00000040: 0db4 18bd 042b 73bd 0646 55bd d206 67bd
00000050: 1bb9 1e3d a0db 65bc a8eb 8b3c 0984 273c
00000060: 263e 333b b1e5 81bd c2ef 0ebe cd8a f5bc
00000070: f9cc c53d a0bf 7c3d b9d6 59bd ef89 f13b
00000080: 30aa df3d 3ac6 15bd f20c bfbc d091 fabd
00000090: 9efc a33c 0ecc 7d3d a512 10bd 35ef 2abd
000000a0: 90b1 323c e2d2 21bc 0814 7d3c 85c8 08bd
000000b0: 16ba 6e3b 0514 ad3c 263a a8bd 8ed6 063e
000000c0: 1d40 553d 3b67 b63d b08d 34bd 87d2 bebd
000000d0: 3178 8b3d 778f 91bd f78d 923d ddeb ecbd
000000e0: 15e4 4d3d 8ff2 d9bd 576d dabd ba51 143d
000000f0: 576a 863d 044c 33bd 7fb7 1dbc ee7b de3d
00000100: 0221 12bd bf08 d13c ee2d 983d 1585 60bc
00000110: 54ce 703d 8f18 1cbe 9b27 f33c 96a2 ff3b
00000120: ad43 fabc e36d 883a ee29 5cbb c435 9dbc
00000130: 79a7 a33d e806 21bc a3d4 11bd 6325 91bd
00000140: 385c 04be ca54 983d d9bc 25bd 66f2 bcbd
00000150: 4b70 99bc 62bc 7f3d 6b0e 5dbc 698c bc3d
00000160: db60 cebd 2201 bb3b 5bff 933d e942 7abd
00000170: 5c2c 1f3d 70e4 9bbd cd62 e0bc b65f 1b3d
00000180: 02fb a9bc eb6c 82bc a9a8 34bd 96a2 8dbc
00000190: 350d d5bc 7041 a83c beb1 6ebd c29c 36bc
000001a0: 6b44 563d 559a 05bd 93b5 9dbc 4833 97bd
000001b0: 2d8d ff3d f2d4 203d cafd 993d 8841 0fbd
000001c0: 4cb4 60bd eda0 48bb f97a 873d 73cb 12be
000001d0: da83 83bd b4d4 243d 88da 133d 3137 98bd
000001e0: aea4 c1bc 762a 693d 1cf5 b5bc 9745 723c
000001f0: 97c1 993d 3e95 49bd aa01 2e3d a688 c83c
0.051566273 0.040162064 -0.057537414 -0.08690231 -0.10949678 0.010590189 0.06809807 0.0230273
0.026223391 0.058912557 0.023866072 -0.026587795 -0.03881147 0.055616997 -0.04271408 -0.003940134
-0.037281085 -0.059367195 -0.052068733 -0.05640299 0.03875075 -0.014029413 0.017080143 0.010224351
0.0027350276 -0.06342638 -0.13958648 -0.029973412 0.09658236 0.061706185 -0.05318329 0.0073711793
0.109211326 -0.036565997 -0.023321602 -0.12234843 0.020017918 0.06196218 -0.03517403 -0.04173203
0.010906592 -0.009876939 0.01544667 -0.033394355 0.0036426834 0.02112771 -0.08214216 0.13167784
0.052063096 0.089064084 -0.044080436 -0.09317499 0.06810034 -0.07107442 0.07155984 -0.11568425
0.050266344 -0.106419675 -0.10665386 0.036210753 0.065632515 -0.043773666 -0.009626268 0.108634815
-0.03567601 0.025516866 0.074306354 -0.013703604 0.05879052 -0.15243743 0.029681971 0.007801364
-0.030549848 0.0010408725 -0.0033594328 -0.019190677 0.07990927 -0.009828307 -0.035603177 -0.07087209
-0.12925804 0.07438047 -0.040463302 -0.09225921 -0.018730303 0.062435515 -0.013492207 0.092064686
-0.100770675 0.005706922 0.072264396 -0.061098967 0.038860664 -0.0761193 -0.027390862 0.037933074
-0.020749573 -0.015921077 -0.04410616 -0.017289441 -0.026007274 0.020539016 -0.058274977 -0.011145772
0.052311342 -0.032617886 -0.01925162 -0.07382828 0.12478099 0.03926558 0.075191095 -0.034974605
-0.054859444 -0.0030613497 0.06615252 -0.14335422 -0.06421633 0.040241912 0.03609708 -0.07432402
-0.023638096 0.05692526 -0.022211604 0.014787099 0.075076275 -0.049214594 0.042482056 0.024479222

a2c_network.value.weight f4 [1, 128]
00000000: 5f5b 163c 4695 01bd bd93 5a3c 03ac 21bd
00000010: b3fe 013d 1fad 343d 9d67 3cbd 9593 9b3c
00000020: ae72 59bd 663f 36bc d828 033c f2d9 423d
00000030: 5471 ce3c a444 92bc a74b 3a38 79d4 b13d
00000040: 7512 d1bc 2cb7 3a3d a632 c73d 4e37 3a3b
00000050: 4a70 073c 5bad c9bd 35dc aabd fcb7 e13c
00000060: 0398 a739 e2cd 5ebd 01e4 703c 531f dbbc
00000070: e431 7d3d 0f5a 1abd b011 8bbc 2a0c ddbd
00000080: a194 50ba b05d 123d 126c 8dbd 53e5 5dbc
00000090: 6dda 503c 0800 5abc bbad 9c3c 9ef7 e03d
000000a0: 7fa0 37bc 355e 973d 5d04 11bd a057 90bc
000000b0: 1e14 2f3c 67c5 9cbc 5e18 c03d 8d9d 5fbd
000000c0: 7bb2 6e3c 97a1 39bd d2ae b1bc 7f7e ce3c
000000d0: 1042 34bb 510a fb3c 1d72 cebc cce9 2fba
000000e0: 5972 a2bd 7bbc 46bc e897 0f3d 021c b33d
000000f0: 90f9 97bd 65d9 15bd 72b5 8b3c 2e4d 19bd
00000100: 0e94 953d 1135 253d bbec 9a3b 2407 a9bd
00000110: 50e4 8d3c f40d e13c 3cea 4fbd fadc dd3c
00000120: e46d 583a c27a 813d e500 663b 8a16 43bd
00000130: b596 8ebd c91e 093d e08b 5dba ca0f be3c
00000140: 230d aabd d5e6 b7bd 476b 08bd 5ed3 4bbc
00000150: 2bc2 bdbd 6c38 58bd 6068 ffb9 a71e 373d
00000160: 5b0e 453d 165c 283d 5815 2a3b feb8 e63c
00000170: 37db 37be 833a f03b 6a7d 103d f32b 983c
00000180: 68c0 ccbc e10a 8bbd fef4 86bc 0fb2 98bd
00000190: a191 9dbd 3e22 03bd b586 0b3e 1879 c33b
000001a0: c1c4 9a3c 2590 71bd 6855 1bbe 5c60 1f3d
000001b0: 4f47 4bbb 2fed 82bc f3d2 243d 0562 2d3d
000001c0: f7d8 f6bc a310 3c3d 70b4 7bbc 733f 5f3d
000001d0: 9c1d 083d 10ea 3dbd ff74 25bd 4fe2 ff3c
000001e0: 4e89 53bb 53f3 2dbd 277e 4e3d d04f e83d
000001f0: d329 9a3c 44bd f6bc 7efe 98bd 4c8a 4d3d
0.009177058 -0.0316365 0.013340888 -0.039470684 0.03173704 0.044110414 -0.04599725 0.018991271
-0.053087883 -0.011123514 0.008005343 0.04757113 0.025200523 -0.017854996 4.4416312e-05 0.08683104
-0.025521496 0.045584843 0.09726457 0.0028414312 0.008266518 -0.09847518 -0.083427824 0.02755355
0.0003196598 -0.054395564 0.014702798 -0.026748335 0.061815158 -0.037683543 -0.016976207 -0.10793336
-0.0007956718 0.03573388 -0.069053784 -0.013543445 0.012747389 -0.0133056715 0.01912581 0.10984729
-0.011207699 0.073910154 -0.03540455 -0.017619908 0.010685949 -0.019137098 0.09379648 -0.05459361
0.01456892 -0.04532012 -0.021689806 0.025206802 -0.0027505197 0.030644568 -0.025200898 -0.00067105587
-0.07931966 -0.012129898 0.03505698 0.087455764 -0.07420647 -0.036584277 0.017054293 -0.03742712
0.0730363 0.04033381 0.0047279275 -0.08253315 0.017320782 0.027472474 -0.050760493 0.027082909
0.0008256121 0.06322242 0.0035095748 -0.047628917 -0.06962339 0.033476625 -0.0008451324 0.023200888
-0.08303287 -0.089795746 -0.033305433 -0.012440531 -0.0926555 -0.052788183 -0.00048715156 0.044706967
0.048109394 0.041103445 0.0025952663 0.028164383 -0.17954718 0.007331194 0.035275854 0.018575644
-0.02499409 -0.06789184 -0.016474243 -0.07455837 -0.07693792 -0.032015078 0.13625605 0.0059653632
0.018892648 -0.058975358 -0.15169299 0.038910255 -0.0031017845 -0.015982239 0.04024024 0.042329807
-0.030132754 0.045914304 -0.015362844 0.05450387 0.033231363 -0.046365798 -0.04039478 0.031235842
-0.0032277885 -0.04246838 0.050413277 0.11343348 0.018818771 -0.030119546 -0.074704155 0.05018072

a2c_network.mu.weight f4 [18, 128]
00000000: 9c6d a8bb d197 6c3c e354 cebc 2b5a 1f3e
00000010: 2c65 d13d aa19 153d 787c 35bd 6641 473c
00000020: 1450 98bd 15a5 28be 136d b63c be4a f9bd
00000030: 3d75 30bd 9dab a3bd 5c7f 1e3e 7cb7 f63c
00000040: 83a5 123c 8cee a33d 1dc5 8dbc 375e f8bd
00000050: f2e1 cabd 726e c6bc b93d a3bc 6b4a 363d
00000060: 3f76 85bd 6d64 483d f778 1fbc 2cf3 96bd
00000070: 6ef1 d63d ac7e ba3c a047 b23d d0af 9fbd
00000080: 5069 25bd 60f2 c5bd afd3 d0bd f966 ad3c
00000090: f1eb 793d c78e f7bd 28d8 dc3c 1dfc d0bd
000000a0: cfcb 873d 9e68 d53d 336e 40bd 81d6 12be
000000b0: f763 253c b648 3dbe 17fe 4d3d 4476 c7bb
000000c0: f663 183d 9219 96bb e858 223e 940b 98bc
000000d0: 16be a8bd c883 38bd 048d ccbd 5cb2 bbbc
000000e0: ddc2 d23d 9a2b a53d 7ca4 d03d e20a 363d
000000f0: 5b4d 2fbd 0dbe 513c fb9f a73d 4f1e 86bb
00000100: bc5a b63d 26fc 38bd de25 5e3e 1323 a43c
00000110: 3f84 b2bd ed51 0cba 49eb 883d 0fc8 913c
00000120: 5306 acbc 6457 e63d 40a9 1f3e fe81 673d
00000130: 9e67 bfbd 0fa9 9dbd 4388 333d 01ff 2f3d
00000140: f7eb 28bc 6aba 123d 1ac7 de3c 0d0a e2bd
00000150: aa6c 093d 5dce 7b3d 8d8e 203d 7229 6c3d
00000160: bb45 efbb b43f 99bd bd3d 91bd c30c 143d
00000170: 2d90 66bc 8a29 2f3d 06b4 263d d54e 223c
00000180: c543 bf3d 5c24 0bbd d944 85bd b9f1 bc3d
00000190: 6713 a83a 2b2f 8a3d 374f 043d bdfc b53d
000001a0: 6cdd cf3d 0616 193d 2af9 2abd 1e9f 6abd
000001b0: c3e8 b2bd d4ec 153d 65f6 7bbd 86eb 01be
000001c0: 326c 213e 43be a5bd e9c2 e8bc 6f2b 153d
000001d0: b141 c3bc 0cb1 b1bd 4d0c 4cbe 7092 083e
000001e0: 3226 383d 6c92 00be 3454 9e3d d584 5dbd
000001f0: 661e d9bd c423 c13d f85d b1bb 2a5b c4bd
00000200: 1fca e0ba 645d c7bd bfb0 9bbc 31d7 483e
00000210: 8984 1a3e 46f1 4cbc 5750 a43d 3e26 b1bd
00000220: a71b eb3d 4104 1ebe e8d5 843c 09f1 f3bd
00000230: 137e 56bc 8b87 b2bd f933 a3bc 5c26 bfbc
00000240: 3c7f 6ebb a541 a53c 4a35 e0bb 644f 48bd
00000250: 7d78 b03d a30a babc 70bf ba3c 5eb5 153e
00000260: b7a8 08be a0a2 4cbc 4c76 8f3c 891c 89bd
00000270: 3084 bdbd c6df 86bd e63b 87bc 35cc 91bd
00000280: 8d97 a0bd 10c9 6fbd b19b 89bd 506a 2a3c
00000290: f2cc 363e 03f5 dcbd 961a f93d 9292 e2bd
000002a0: 3681 b63d 6a33 bd3c bbf2 9b3d 33fa e13d
000002b0: 22a1 bfbb c68a 033c 475a cd3c 4872 85bd
000002c0: 2ec4 ee3c 3c48 82bd 3f9a 23bd 53bc 113b
000002d0: 6700 2d3d d99b b4bb 1de8 2fbe e642 fbbc
000002e0: ed9e b63c 0ff6 bb3d 2b83 333e 588f 053d
000002f0: 02bd b0bc 6a65 ad3b 5f71 7b3c 3586 56bd
00000300: d61e dd3d 7040 4b3d b084 b83b 6363 b13d
00000310: 04fe b43c 2a71 e63d c134 af3c d7b6 54bd
00000320: 9dbd b03c 9df0 f4bc ab97 1fbd 4caa 453d
00000330: c90f b1bd 9ac7 703d 049b b53d f35c e4bc
00000340: d593 113d 14f4 383e 6db7 07bd 6650 3d3d
00000350: 2352 1b3d 9597 ecbd a58f bebd 45f4 a4bd
00000360: 39ed e83d b2ee 84bc 9517 a33c 27f2 67bd
00000370: 51de 40bc 777c d7bd 6ca1 c83d 7658 a6bd
00000380: 78a5 193e 0239 16bc 4b95 0e3d bc54 0bbd
00000390: 5ca7 2f3d 91c7 97bc 3a6a 1d3e 1d98 0b3d
000003a0: a621 173e 9244 833b 322b 863d 1444 cb3d
000003b0: 8a56 09be 799a 003d ace7 623d 1585 fcbc
000003c0: a0ab d03c 2452 703c 6d55 fdbb 811a a83d
000003d0: 76a5 1dbd a28a 10bc 8280 b4bd 2bb9 8c3d
000003e0: 689c 123e c66e a0bd 9b7b 6e3d f6a5 e9bd
000003f0: 533a b43c 871d 253d a3a2 863d de56 87bb
-0.0051400196 0.014440493 -0.025186962 0.1556174 0.10224375 0.03640143 -0.044308156 0.012161588
-0.07437149 -0.16469224 0.022268808 -0.12172459 -0.043080557 -0.07991717 0.15478271 0.030116789
0.008950594 0.080044836 -0.017305905 -0.12127345 -0.09906377 -0.024222586 -0.019926893 0.044504564
-0.06516694 0.0489239 -0.00973343 -0.073706 0.10495268 0.02276548 0.08705068 -0.077972054
-0.040383637 -0.0966537 -0.101966254 0.021167265 0.061016027 -0.120877795 0.02695854 -0.10204337
0.0663067 0.10420345 -0.046980094 -0.14339639 0.010094634 -0.18484768 0.050291147 -0.0060870964
0.037204705 -0.004580685 0.15854228 -0.018560208 -0.08239381 -0.04504755 -0.09987834 -0.022912197
0.102910735 0.08064957 0.10187623 0.044443972 -0.04279838 0.012801659 0.08184811 -0.0040929685
0.08904025 -0.045162342 0.21694133 0.020036256 -0.0871663 -0.0005352784 0.06685502 0.01779559
-0.02099911 0.11247137 0.15591908 0.056520455 -0.09345935 -0.07698261 0.04383112 0.0429678
-0.010310165 0.03582231 0.027194548 -0.11037073 0.033550896 0.0614761 0.039198447 0.057656713
-0.0073020137 -0.074828535 -0.07091854 0.036144983 -0.01407246 0.042764224 0.040699027 0.00990649
0.09339098 -0.033970222 -0.06507272 0.092257924 0.0012823165 0.06747278 0.032302108 0.088860966
0.10149655 0.03737452 -0.041741528 -0.057280652 -0.08735802 0.03660281 -0.061514277 -0.12687501
0.1576393 -0.0809293 -0.028413253 0.036418375 -0.023835035 -0.08676347 -0.19926567 0.13337111
0.0449583 -0.12555856 0.07730904 -0.054081757 -0.10601501 0.0943065 -0.0054128133 -0.09587701
-0.001715008 -0.0973461 -0.019005178 0.19613339 0.1508962 -0.012508696 0.08023136 -0.08649872
0.11479884 -0.1543131 0.01621528 -0.11911208 -0.013091582 -0.08717259 -0.019922243 -0.02333372
-0.0036391756 0.020172903 -0.00684229 -0.048903838 0.08616731 -0.02271015 0.022796363 0.14619967
-0.1334561 -0.012489945 0.017512463 -0.06694896 -0.092537284 -0.0658565 -0.016508054 -0.071190275
-0.07841406 -0.058541358 -0.06719149 0.010401323 0.17851618 -0.1078892 0.12163274 -0.11063112
0.08911364 0.023095805 0.076146565 0.1103405 -0.005848066 0.008028692 0.025067462 -0.06515938
0.02914628 -0.06361434 -0.039942022 0.0022237494 0.04223671 -0.0055117426 -0.17178388 -0.030671548
0.022292579 0.09177791 0.17530505 0.032607406 -0.021574501 0.0052916305 0.015346854 -0.052374084
0.10796897 0.049622 0.005631052 0.08661535 0.02209378 0.11252053 0.02138746 -0.051932182
0.02157479 -0.02989989 -0.038963 0.04825811 -0.08645589 0.058784105 0.088674575 -0.027876353
0.035541374 0.18061858 -0.033133913 0.046219252 0.03792013 -0.115523495 -0.09304742 -0.08054403
0.11373372 -0.0162271 0.019908706 -0.05662742 -0.011771754 -0.10521787 0.09796414 -0.08122341
0.15004528 -0.009168865 0.034810346 -0.034016356 0.042884216 -0.018527778 0.15372553 0.034080613
0.1475893 0.004005977 0.065512076 0.09925094 -0.13411918 0.031397317 0.05539672 -0.030825177
0.025472462 0.014668021 -0.007731131 0.0820818 -0.038487874 -0.008822115 -0.088135734 0.068712555
0.14317477 -0.07833628 0.058223348 -0.11408608 0.022000467 0.040311363 0.06573989 -0.0041302284

a2c_network.mu.bias f4 [18]
00000000: 8125 1dbd c220 3fbd a8d4 573b cec3 763d
00000010: a8cf 663a 1aaa b53c ed49 b83d 358b b63d
00000020: 8681 3b3d f130 113d 481a b43d b483 873d
00000030: 1442 fcbd 9df6 8bbd 8bec cdbd 0e0c eabd
00000040: 018b 1abe 573b c4bd
-0.038365845 -0.0466621 0.003293315 0.060245328 0.0008804747 0.022175837 0.08998475 0.089132704
0.04577782 0.035447065 0.08794075 0.06616917 -0.12317291 -0.06834147 -0.100548826 -0.114280805
-0.15092088 -0.09581631

exp_avg f4 [18]
00000000: 20f6 f33a 5ee6 0cb9 e87f f2ba e6fd 31bb
00000010: 63ed ea39 0dd8 ea39 4b25 80ba 0455 8ab9
00000020: 177d 68ba cbd8 873a 5320 d239 a67e 1fba
00000030: 3c75 c8b9 a51c bbba 0328 1a3a cabc 2cb9
00000040: 62b3 cbba 409c 5b3a
0.001861278 -0.00013437259 -0.0018501254 -0.0027159392 0.00044808825 0.00044792928 -0.0009776739 -0.00026384753
-0.00088687375 0.0010364292 0.00040078405 -0.0006084241 -0.0003823432 -0.0014275505 0.0005880596 -0.00016473528
-0.0015541131 0.000837747

exp_avg_sq f4 [18]
00000000: 96c1 c836 5801 eb36 877a d936 c23f 1137
00000010: ebd0 c736 c801 de36 2381 df36 28ba da36
00000020: b917 c936 ae8c dc36 34b2 d936 9e41 ea36
00000030: c25f e936 d414 ca36 9ff3 b736 0320 fb36
00000040: 8e4e ce36 c9fd c136
5.983001e-06 7.003702e-06 6.481368e-06 8.657518e-06 5.9549834e-06 6.616323e-06 6.6609514e-06 6.5185777e-06
5.9930285e-06 6.572888e-06 6.4878495e-06 6.9813823e-06 6.955089e-06 6.022494e-06 5.482186e-06 7.4841096e-06
6.1484234e-06 5.7813927e-06

exp_avg f4 [128, 66]
00000000: 64ec 11b5 0cad b235 9b63 acb8 c6a8 a5b8
00000010: 7902 65b7 252c c6b8 0036 b034 0ac6 0836
00000020: 694a da39 a5eb f239 58ac 55b8 6354 07ba
00000030: 0923 3438 4e44 cbb5 7b47 abb7 8c49 5537
00000040: df31 34b8 d4c0 af38 e3d1 b1b8 a7ee a7b8
00000050: 1d0e adb8 649e b5b8 9ba2 8cb8 7373 83b8
00000060: fe89 1eb7 b5a3 84b7 69dc 19b7 d489 42b7
00000070: 4aa8 1fb7 ce75 53b7 f899 4d3a ef93 373a
00000080: 757e ad38 5491 7fb9 959f 0e3a 8edf 313a
00000090: d3eb aaba a8a6 c4ba a543 bfba 78c0 5739
000000a0: 8508 09bb 4760 dfba 28e8 3338 3db4 2c39
000000b0: 2c67 ee39 c571 8739 2004 6737 9ac3 8439
000000c0: f84a 1039 2c6b 0938 6565 4fb8 643d 3337
000000d0: f548 33b7 2954 5c39 cc51 3ab9 7509 6eb9
000000e0: 446e 72b9 8e08 0bb9 70e7 a1b9 6043 a1b9
000000f0: 0770 9ab7 1c25 a8b7 9fcd 4937 190a 8bb6
00000100: 998c 18b7 7c92 17b7 3320 86b7 08eb 99b7
00000110: dabf 8b39 70e5 4e39 04c5 cbb8 36d1 a339
00000120: f576 6db5 d92f 92b6 68de 593a 972b c439
00000130: 125a a737 1a01 1d39 4f27 14b9 b2c6 3739
00000140: dcab 2539 bca9 1db9 69b8 24b9 f3a7 1ab9
00000150: 40d5 88b8 33b4 bbb8 cb2c 87b8 6744 7cb6
00000160: 2f94 96b8 dc96 5eb8 1949 2d39 c7d3 e638
00000170: 0f11 a638 5b7f 2639 d14c 0c39 1767 4439
00000180: a754 a2bb e5e3 093a 48dd 523b 5c5e 1dbb
00000190: fa16 b6ba 8294 06bb 0347 0fbb 327c e1ba
000001a0: 693d 733a 9b67 58ba 22b0 bd3a 08e8 893a
000001b0: be46 1b3b 0c4b 0b3b c87c ca3a 8f84 1e3b
000001c0: 6183 be3a 330f 1b3b cace 1cba 77d1 d539
000001d0: 5da3 183a 0bbd eeb9 ed40 c3b9 e878 e7b9
000001e0: 5857 8fb9 53f3 1bb9 e772 0e39 07ba 39b9
000001f0: c4c4 1739 1577 7839 0d7a 023a 841c bd39
00000200: c95b 9739 f94e f739 c269 bc39 72e4 043a
00000210: d894 8636 4906 5a37 2a51 1bb9 623d 65b9
00000220: 56aa 1f38 b119 afb9 629d 9db3 f236 7636
00000230: 8304 1139 5a03 6739 83dd a739 296f 13ba
00000240: c0d0 1e39 74f6 c435 b515 58b8 a7f3 6738
00000250: 0574 6938 1351 4f39 4aaf 8cb8 5179 84b8
00000260: ddcd 66b8 6b8e 85b8 5627 88b8 1254 60b8
00000270: 44ac 9eb8 fff9 17b8 ea56 23b8 d87e 7ab8
00000280: 6713 52b8 e1b7 70b8 9ff8 463b 46bf 093a
00000290: 7612 6fba 3311 653a 7e29 123b 2904 1a3b
000002a0: e777 6f3a 2d67 e138 8485 3dbb 7f81 3d3b
000002b0: 60ac 83bb 67ff 0ebb b10d a2ba bf63 f7ba
000002c0: 6105 88ba 8d6f 89ba dd92 2eba 4da9 d4ba
000002d0: 88eb 023a e153 2738 3105 2ab9 e963 2f39
000002e0: 0cef 9239 fba8 113a e2d3 7038 0290 12b9
000002f0: 7bb2 0bba 6a52 8539 6b5f 3eba 54e3 16ba
00000300: 5799 75b9 62ec 5fb9 53a4 24b9 be35 45b9
00000310: 03bd 13b9 9f41 69b9 a9d3 b6b6 c90a ddb6
00000320: f80a 9eb8 503f 3bb7 d10a efb7 bceb 5738
00000330: da5e 1935 1ade fb33 4a16 233a 6a5f c739
00000340: 9689 2739 79dd 51b9 c3a1 14b8 0a78 b438
00000350: a01b 1737 4c5c e536 0d78 05b9 fd5b 00b9
00000360: 8290 9ab8 eaaa deb8 d953 c1b8 0055 95b8
00000370: 5bfc 81b8 bdad 6db8 d232 0e37 da4c 24b8
00000380: e5ca 93b7 6f9b f0b5 3716 1537 ace6 2638
00000390: 2be9 a2ba 843a 663a 12b2 a73a a42c abb9
000003a0: 33f4 dbb9 6fad 6fba 1d73 92b9 7538 32ba
000003b0: 7b68 95ba 877d b83a fce3 19ba 9c6d 91ba
000003c0: c0c6 e539 bccd 1fb9 04a2 a3b7 c777 223a
000003d0: e872 8cb9 7b2d 5b38 10f3 1ab9 cd7f 8b39
000003e0: 6ebf 2e39 b4f2 8fb6 9cfb 91b9 2169 9fb9
000003f0: cd96 bab8 6aad 9fb8 74f6 8bb9 06f6 2e38
-5.4360703e-07 1.3312397e-06 -8.220152e-05 -7.8992496e-05 -1.3650039e-05 -9.449598e-05 3.2821845e-07 2.0380853e-06
0.0004163564 0.00046333406 -5.0943665e-05 -0.0005162416 4.2947973e-05 -1.5144558e-06 -2.0418074e-05 1.2712913e-05
-4.296179e-05 8.380567e-05 -8.479112e-05 -8.007633e-05 -8.251912e-05 -8.660255e-05 -6.706008e-05 -6.268071e-05
-9.449663e-06 -1.5811858e-05 -9.170829e-06 -1.1595392e-05 -9.516321e-06 -1.2604009e-05 0.00078430725 0.000700294
8.272837e-05 -0.00024372834 0.00054406497 0.00067853264 -0.0013040252 -0.0015003281 -0.0014592303 0.00020575698
-0.002090962 -0.0017042243 4.2893138e-05 0.00016470342 0.00045471766 0.0002583397 1.3769633e-05 0.00025322736
0.00013760838 3.2763157e-05 -4.9447077e-05 1.0683525e-05 -1.0686218e-05 0.00021012187 -0.00017768814 -0.00022700972
-0.00023119996 -0.0001325926 -0.00030880747 -0.0003075851 -1.8410397e-05 -2.0044441e-05 1.20284085e-05 -4.1436983e-06
-9.092641e-06 -9.034407e-06 -1.5989039e-05 -1.8348466e-05 0.00026655087 0.00019731163 -9.716491e-05 0.00031245657
-8.8462485e-07 -4.3567093e-06 0.0008311034 0.0003741651 1.9949894e-05 0.00014973097 -0.00014129023 0.0001752626
0.00015799649 -0.00015035918 -0.00015708957 -0.0001474915 -6.524706e-05 -8.9504196e-05 -6.445645e-05 -3.7590742e-06
-7.180159e-05 -5.3069423e-05 0.00016525797 0.00011006701 7.918674e-05 0.00015878437 0.00013380057 0.0001873042
-0.004953939 0.0005260094 0.003217535 -0.0024012541 -0.0013892346 -0.0020535295 -0.0021862395 -0.0017203151
0.0009278865 -0.00082551845 0.0014472047 0.0010521421 0.0023693289 0.0021254448 0.0015448565 0.0024187898
0.0014535004 0.0023660182 -0.00059817417 0.0004078259 0.0005822683 -0.00045535745 -0.00037241672 -0.00044149836
-0.00027340162 -0.00014872597 0.0001358498 -0.00017712275 0.00014473783 0.00023695485 0.00049772934 0.00036070135
0.0002886935 0.0004717035 0.0003593695 0.00050694414 4.010839e-06 1.2995276e-05 -0.00014812188 -0.00021862009
3.806719e-05 -0.00033397743 -7.33951e-08 3.668884e-06 0.00013829958 0.00022031125 0.0003201776 -0.0005624169
0.0001514582 1.4674865e-06 -5.151863e-05 5.530161e-05 5.565958e-05 0.00019771261 -6.70837e-05 -6.3168474e-05
-5.5028e-05 -6.3684616e-05 -6.492312e-05 -5.348406e-05 -7.566114e-05 -3.6234032e-05 -3.8943173e-05 -5.9722777e-05
-5.008597e-05 -5.739171e-05 0.0030360592 0.0005254637 -0.00091198774 0.00087382196 0.0022302563 0.0023501015
0.00091349933 0.00010748054 -0.0028918693 0.0028916297 -0.0040183514 -0.0021819712 -0.00123637 -0.0018874331
-0.001037758 -0.0010485515 -0.00066594576 -0.0016224772 0.00049942033 3.989402e-05 -0.00016214397 0.0001672652
0.00028025394 0.0005556491 5.741779e-05 -0.00013977292 -0.0005329025 0.0002542914 -0.0007262143 -0.00057559204
-0.00023422144 -0.00021354997 -0.00015701474 -0.00018807405 -0.00014089425 -0.00022245057 -5.448663e-06 -6.587569e-06
-7.53607e-05 -1.116081e-05 -2.8496057e-05 5.147954e-05 5.713497e-07 1.1728498e-07 0.0006221278 0.00038027327
0.00015977616 -0.00020014298 -3.5436602e-05 8.605428e-05 9.006733e-06 6.8354766e-06 -0.00012728591 -0.000122413
-7.370209e-05 -0.0001061762 -9.218575e-05 -7.120706e-05 -6.198204e-05 -5.666701e-05 8.475692e-06 -3.917222e-05
-1.7618246e-05 -1.792663e-06 8.886264e-06 3.9792314e-05 -0.0012429109 0.0008782523 0.0012794158 -0.00032648921
-0.00041952878 -0.000914297 -0.00027933056 -0.0006798574 -0.0011398935 0.0014075496 -0.0005870459 -0.0011095288
0.00043826364 -0.00015240064 -1.9506559e-05 0.0006197658 -0.00026788493 5.2256026e-05 -0.00014777132 0.00026607365
0.00016665246 -4.2899865e-06 -0.0002784402 -0.0003040517 -8.89726e-05 -7.614012e-05 -0.00026695768 4.171396e-05
