logs/rl_games/hexapod_flat_direct/2025-11-14_22-48-05/nn/last_hexapod_flat_direct_ep_200_rew_-0.16940357.pth (torch, 546049 bytes, 33 tensors)

value_mean_std.running_mean f8 [1]
-0.25647376382402737
00000000: 99ff f9ee 106a d0bf

value_mean_std.running_var f8 [1]
0.08593200033533159
00000000: 8bbf 1ebb a3ff b53f

value_mean_std.count f8 []
39321601.0
00000000: 0000 0008 00c0 8241

a2c_network.sigma f4 [18]
-0.2823736 -0.3606788 -0.4307921 -0.7612116 -0.90527415 -0.8199098 -0.20772836 -0.26345634
-0.31580284 -0.9309567 -0.21611552 -0.3308483 -0.151729 -0.1695248 -0.2180398 -0.31364566
-0.074418604 -0.17203534
00000000: 4693 90be e4aa b8be c890 dcbe c3de 42bf
00000010: 0cc0 67bf 9ce5 51bf beb6 54be c0e3 86be
00000020: e9b0 a1be 2e53 6ebf 634d 5dbe f364 a9be
00000030: d95e 1bbe e997 2dbe d345 5fbe 2a96 a0be
00000040: c868 98bd 082a 30be

a2c_network.actor_mlp.0.weight f4 [128, 66]
0.2088723 -0.1707541 -0.15812936 -0.25731924 0.016658572 0.06967754 0.07449548 -0.08026705
-0.17977494 -0.21915253 -0.16266659 0.22214264 -0.036230844 0.29482886 0.089988716 -0.35946515
0.20827322 0.094883785 0.082896575 -0.053223994 0.048292276 -0.07737043 -0.062036198 0.043344036
0.05798185 -0.067333765 0.099736296 0.09275372 -0.07264908 -0.096558675 0.03371304 -0.044689056
0.016405994 -0.21808578 -0.028362446 0.02659105 -0.0015879516 -0.064023055 -0.04860708 -0.07760022
-0.103656195 -0.058862094 -0.0741626 -0.028005002 0.085018724 0.006165296 0.0062902826 -0.080186
-0.13389133 0.033936586 0.118674494 -0.2100969 0.031610847 -0.057807047 0.01549292 -0.063160494
-0.02478719 -0.036876842 -0.0764709 -0.049091116 -0.042022843 -0.09352926 0.08083257 -0.07530686
0.12512168 0.025794681 0.11902676 0.060563006 -0.2206733 -0.09872228 -0.14823072 -0.10400523
0.03343881 0.0814206 0.002900173 -0.114474386 0.20256795 -0.3141079 0.030812522 0.03167558
0.010328892 0.23857048 0.11657369 0.13291724 0.04734276 -0.113396004 -0.0048920657 -0.058719743
0.044306755 -0.13267955 0.105164535 0.091212526 0.0714643 -0.051604494 0.13007423 0.045043394
0.006939945 -0.07370639 0.054311424 -0.08945834 -0.030960416 0.083971165 0.05438693 -0.040863093
-0.019148588 -0.017163465 0.052564953 -0.029304931 -0.043459613 -0.00770099 -0.059490014 0.026761256
0.061768636 -0.09391789 0.059821326 0.094120935 -0.009358329 0.014418295 0.07972134 0.13318013
0.058901835 -0.07085153 0.09676526 0.11670295 -0.1364125 -0.05492165 0.06646109 0.17275769
-0.05863732 -0.08848419 -0.021113046 -0.04605502 0.0065729013 0.11067518 -0.22096093 -0.07322688
0.07597207 -0.0021625152 0.024905741 -0.09663862 -0.17602597 -0.25646448 -0.05763847 0.32348093
0.07502486 0.04263559 -0.13773534 -0.022225387 -0.07249079 -0.018033292 0.018331852 -0.1263707
-0.0031285346 -0.2129103 -0.112274215 0.009595176 0.0040980824 -0.105617836 -0.024917884 0.11603128
0.16559093 0.08145503 -0.091144696 -0.071133204 -0.07829114 0.092772625 0.017190417 0.11079894
0.04016994 0.029769517 -0.011189517 -0.054798394 -0.12924144 -0.1429729 0.05300798 -0.09560457
-0.01093184 -0.046149552 -0.00347061 -0.075467065 -0.08992151 0.057819713 -0.08854813 0.10133645
-0.09540093 -0.12185732 0.0043403236 -0.12622294 -0.045390576 -0.19264911 0.106249005 -0.15452762
0.0055409865 -0.054249533 0.10960307 -0.06608767 0.06997026 -0.03645627 0.07652147 0.29440334
-0.20032246 -0.03922817 0.08102412 -0.2016537 0.38039902 -0.08363341 0.11415052 0.017527405
0.09779505 -0.06988981 0.01573976 0.018462801 0.07983797 -0.08717657 -0.0628941 -0.022593673
0.09081722 0.059336543 0.07412506 0.08672297 0.103564344 0.20194754 -0.010539637 -0.13267608
-0.20066318 -0.13252276 -0.20624427 -0.27203786 0.0023054979 -0.055804756 -0.04186746 -0.075696275
-0.024135742 1.7432391e-06 0.007305543 -0.03731588 -0.057822447 -0.02916899 -0.09012585 0.10871641
-0.026251389 0.03810766 -0.02994578 -0.022727266 0.06213379 0.02644856 -0.09193662 0.047884233
0.16701424 0.053820807 0.09145907 0.15456253 -0.016307577 -0.019902151 -0.16891877 -0.05352071
00000000: 9fe2 553e 2ada 2ebe aaec 21be 59bf 83be
00000010: 8f77 883c 19b3 8e3d 1691 983d 0d63 a4bd
00000020: ec16 38be 8569 60be 1292 26be 5c79 633e
00000030: cb66 14bd cff3 963e 014c b83d d10b b8be
00000040: 9345 553e 6e52 c23d aec5 a93d 6701 5abd
00000050: 1fce 453d 6374 9ebd ab19 7ebd 8489 313d
00000060: 607e 6d3d 49e6 89bd 8b42 cc3d aaf5 bd3d
00000070: 0ac9 94bd 8ec0 c5bd af16 0a3d df0b 37bd
00000080: dd65 863c e151 5fbe 5c58 e8bc 79d5 d93c
00000090: d022 d0ba 851e 83bd 3818 47bd ddec 9ebd
000000a0: b349 d4bd 6119 71bd 90e2 97bd bf6a e5bc
000000b0: 4c1e ae3d 4006 ca3b b71e ce3b 8f38 a4bd
000000c0: cf1a 09be 1701 0b3d 9d0b f33d a423 57be
000000d0: 607a 013d 15c7 6cbd 04d6 7d3c 4a5a 81bd
000000e0: 810e cbbc 2c0c 17bd c69c 9cbd c413 49bd
000000f0: 2520 2cbd 458c bfbd 8c8b a53d 7c3a 9abd
00000100: e61f 003e 5e4f d33c 4dc4 f33d ea10 783d
00000110: 2ef8 61be e82e cabd cbc9 17be b200 d5bd
00000120: 22f7 083d d8bf a63d d410 3e3b 8c71 eabd
00000130: f96d 4f3e c0d2 a0be 8b6a fc3c 41be 013d
00000140: 833a 293c d24b 743e 30be ee3d 751b 083e
00000150: 7bea 413d 2a3c e8bd 9f4d a0bb 1d84 70bd
00000160: 007b 353d 26dd 07be 8160 d73d a2cd ba3d
00000170: e05b 923d 3c5f 53bd 2e32 053e 6c7f 383d
00000180: 7a68 e33b 60f3 96bd a875 5e3d ef35 b7bd
00000190: b3a0 fdbc 13f9 ab3d d4c4 5e3d 0f60 27bd
000001a0: 80dd 9cbc 659a 8cbc 594e 573d e510 f0bc
000001b0: b502 32bd 9658 fcbb cdab 73bd 6c3a db3c
000001c0: 1c01 7d3d 0658 c0bd 3507 753d 7ac2 c03d
000001d0: ad53 19bc b63a 6c3c f144 a33d 5f60 083e
000001e0: 0d43 713d 9b1a 91bd dd2c c63d f501 ef3d
000001f0: b8af 0bbe 86f5 60bd c11c 883d 64e7 303e
00000200: b02d 70bd 3337 b5bd 44f5 acbc 30a4 3cbd
00000210: 7e61 d73b aba9 e23d 9543 62be f9f7 95bd
00000220: 3f97 9b3d fcb8 0dbb 2007 cc3c 78ea c5bd
00000230: 2740 34be 504f 83be 5116 6cbd 4b9f a53e
00000240: a2a6 993d a8a2 2e3d 7e0a 0dbe 0412 b6bc
00000250: 0d76 94bd 8eba 93bc ae2c 963c 5267 01be
00000260: 1a08 4dbb 2805 5abe 06f0 e5bd 1635 1d3c
00000270: 3549 863b 2a4e d8bd 9720 ccbc cfa1 ed3d
00000280: ab90 293e e5d1 a63d 12aa babd 49ae 91bd
00000290: 1b57 a0bd 93ff bd3d ebd2 8c3c 8eea e23d
000002a0: 3c89 243d 34df f33c 3c54 37bc 4874 60bd
000002b0: de57 04be 7d67 12be e51e 593d 54cc c3bd
000002c0: 761b 33bc 5007 3dbd 2c73 63bb 7a8e 9abd
000002d0: c528 b8bd 5dd4 6c3d b958 b5bd 7c89 cf3d
000002e0: 9061 c3bd 5590 f9bd 4639 8e3b 9640 01be
000002f0: 78eb 39bd cf45 45be 1499 d93d 7d3c 1ebe
00000300: 2a91 b53b c234 5ebd 9377 e03d f958 87bd
00000310: 914c 8f3d 2b53 15bd 4ab7 9c3d 09bc 963e
00000320: 5521 4dbe b8ad 20bd f9ef a53d 4f7e 4ebe
00000330: a9c3 c23e fe47 abbd bfc7 e93d a295 8f3c
00000340: c548 c83d 6422 8fbd abf0 803c 4d3f 973c
00000350: 1782 a33d a189 b2bd 9fce 80bd 5e16 b9bc
00000360: 61fe b93d e00a 733d e1ce 973d d09b b13d
00000370: 8b19 d43d 56cb 4e3e 71ae 2cbc 3ddc 07be
00000380: a67a 4dbe 0cb4 07be b331 53be 8c48 8bbe
00000390: d617 173b 8793 64bd 377d 2bbd a606 9bbd
000003a0: 52b8 c5bc 3df9 e935 5663 ef3b 89d8 18bd
000003b0: 3bd7 6cbd cef3 eebc e793 b8bd b6a6 de3d
000003c0: 270d d7bc c716 1c3d da50 f5bc 882e babc
000003d0: 0080 7e3d a7aa d83c 4449 bcbd 4222 443d
000003e0: c805 2b3e 3573 5c3d e54e bb3d a445 1e3e
000003f0: 7897 85bc d609 a3bc 0bf9 2cbe 8838 5bbd

a2c_network.actor_mlp.0.bias f4 [128]
0.058037926 0.04492287 0.10045241 -0.037629716 0.11603575 -0.09409936 -0.009360776 0.18613462
0.048559725 0.016913261 0.02040295 0.086154856 -0.02365532 0.10335318 -0.116528876 0.08646506
0.07353578 0.09010703 0.14149188 0.11751316 -0.03784304 0.048149183 0.07551609 0.07686429
0.01796592 0.07751437 -0.03582689 0.10585973 0.13846874 0.011375184 0.13678049 -0.07071407
0.11113991 0.07393656 -0.14173467 0.021795282 0.013596741 0.13330553 -0.022806099 -0.014548586
0.029021455 0.06136413 -0.02681441 0.060342286 -0.08492894 0.12510554 -0.08710977 0.055520855
0.11063697 0.060620975 -0.104644865 0.07775363 0.020921893 0.046855632 -0.09217035 0.054158974
0.0949971 0.020923126 0.06059406 0.1549916 0.10978461 0.011301182 0.14603975 -0.0420716
0.032401964 0.113310836 0.21056278 0.104880214 0.16861954 0.0682815 0.18440473 -0.0031679468
0.11400948 0.0056131477 0.118877664 -0.118306264 -0.16740873 0.07990109 -0.031010317 -0.07895537
-0.15108928 -0.07449714 0.018246826 0.15704027 0.12300387 0.07222104 -0.067448534 0.04931729
-0.12878276 0.14616391 0.11312684 -0.046602327 0.06654087 0.12771255 0.086037055 0.0031308737
0.13152693 -0.05917461 -0.030665662 0.04092679 0.052981734 -0.17538512 0.109744236 -0.01870551
0.08615327 0.1354804 0.24128966 0.058660626 0.1834916 0.093682304 0.16418675 0.07675646
0.11473238 0.078326836 0.09575829 0.06293999 0.096075214 0.09178359 0.10713383 0.0019000232
0.1473057 -0.024663633 0.15137798 0.03204392 0.0058831563 0.10579415 -0.10809231 0.24694024
00000000: 2db9 6d3d 0b01 383d feb9 cd3d 9e21 1abd
00000010: 27a4 ed3d 2ab7 c0bd f15d 19bc 139a 3e3e
00000020: 90e6 463d ae8d 8a3c 1624 a73c f571 b03d
00000030: cdc8 c1bc d5aa d33d b1a6 eebd 9814 b13d
00000040: ed99 963d 098a b83d 3fe3 103e bdaa f03d
00000050: 4e01 1bbd 1438 453d 2ea8 9a3d 066b 9d3d
00000060: 442d 933c dbbf 9e3d 38bf 12bd fccc d83d
00000070: c0ca 0d3e fb5e 3a3c 2f10 0c3e 8ad2 90bd
00000080: 529d e33d 0d6c 973d e522 11be 058c b23c
00000090: ddc4 5e3c 3f81 083e dbd3 babc 315d 6ebc
000000a0: 67be ed3c f458 7b3d e5a9 dbbc 7929 773d
000000b0: 39ef adbd ab1b 003e 9b66 b2bd d669 633d
000000c0: a395 e23d b34d 783d 0c50 d6bd 4c3d 9f3d
000000d0: 6464 ab3c b1eb 3f3d cfc3 bcbd cdd5 5d3d
000000e0: d78d c23d fa66 ab3c 7a31 783d 1eb6 1e3e
000000f0: c1d6 e03d 9828 393c 728b 153e 4553 2cbd
00000100: ecb7 043d 830f e83d c59d 573e 70cb d63d
00000110: 9aaa 2c3e 2cd7 8b3d 98d4 3c3e 549d 4fbb
00000120: cd7d e93d 7fee b73b 2276 f33d 8e4a f2bd
00000130: 326d 2bbe 2fa3 a33d 5909 febc 5ab3 a1bd
00000140: 26b7 1abe f591 98bd 5e7a 953c 2acf 203e
00000150: 74e9 fb3d a0e8 933d 7522 8abd ed00 4a3d
00000160: a1df 03be feab 153e 0baf e73d 15e2 3ebd
00000170: 9446 883d 14c7 023e 3234 b03d 582f 4d3b
00000180: ffae 063e 1361 72bd 8e36 fbbc daa2 273d
00000190: 6003 593d 2898 33be 96c1 e03d 4c3c 99bc
000001a0: 2071 b03d 60bb 0a3e a314 773e 2046 703d
000001b0: 39e5 3b3e 82dc bf3d 9220 283e 7e32 9d3d
000001c0: cff8 ea3d d269 a03d ec1c c43d aee6 803d
000001d0: 15c3 c43d 09f9 bb3d fb68 db3d 330a f93a
000001e0: 4ed7 163e 630b cabc d402 1b3e 7c40 033d
000001f0: 7ec7 c03b 9aaa d83d 805f ddbd e7dd 7c3e

a2c_network.actor_mlp.2.weight f4 [128, 128]
0.053240556 0.09028376 -0.05847788 -0.022742376 -0.06460884 -0.07938715 -0.0065852893 -0.027728524
-0.0013576794 -0.10757651 0.009073303 -0.028915359 0.03431276 0.0053327144 -0.07188839 0.0065962505
-0.016762706 -0.11320127 -0.0044453503 -0.116305485 0.097692415 0.08851827 0.007952359 -0.041408665
0.05861661 -0.097954914 -0.024557486 0.028932966 0.06343196 -0.0053904983 0.03343125 -0.0047925343
-0.11873501 0.06296382 -0.014208057 0.04576896 -0.018984491 0.053132504 -0.023765262 0.036567517
-0.03145887 -0.014397236 -0.18045452 0.12720269 0.055241656 -0.12740198 -0.0005587081 0.09506205
-0.031819534 0.051988892 0.010042766 0.024790002 0.19131163 0.022426117 0.018359482 0.010762916
0.06294533 -0.09146187 -0.011276753 -0.029478349 -0.060834553 0.06264218 -0.15663435 -0.060891118
-0.11335982 0.034209825 0.038146842 -0.07412501 0.080949254 -0.03442283 -0.06522884 0.03615081
-0.03953703 -0.009527707 -0.07014135 -0.0016143492 0.0049335947 0.051485952 -0.07378371 -0.09071349
-0.0434978 0.034522396 -0.0019417808 -0.06014268 0.07789799 -0.019669725 -0.0012627 -0.13121423
0.007857986 0.033187915 0.059748203 -0.14399712 -0.085678376 0.018143512 0.06307296 0.012100031
-0.06751187 -0.09693676 0.026388895 -0.014185631 0.06820096 -0.06313138 -0.047354355 0.05761739
0.003918581 0.011640313 0.073531084 0.03987819 0.012621112 -0.12777932 0.14471419 -0.07387317
0.105324514 0.051162396 -0.11902239 -0.11793022 -0.021536857 0.10276655 0.06503687 0.027407937
0.023055663 0.027240483 0.042770565 -0.072693504 0.05256674 -0.018126983 0.05067075 0.030518433
0.060596697 -0.06792014 0.0065643 -0.060786556 -0.012061958 0.06213985 -0.058756854 -0.12499797
-0.07562658 0.0038496503 -0.042230133 -0.06644612 0.004622871 -0.058559403 0.008201761 -0.01651743
0.0023525588 -0.0400648 -0.06706134 0.04804166 0.022072334 -0.051198576 0.07492987 0.001213134
0.021955645 0.04227845 0.0006472321 0.0641627 0.006025764 0.091006875 -0.071464814 0.030714408
0.006122768 -0.013194127 0.116801724 -0.0040133502 0.08638868 -0.13099524 -0.041320138 0.033899028
-0.05028605 0.005285396 0.114318974 -0.08336158 0.033500087 -0.04466846 0.046105526 -0.03269596
-0.09430618 -0.092372306 0.03325832 -0.067366846 -0.08641807 -0.03491251 0.02767357 -0.11697916
-0.04030515 0.058726694 -0.07461214 -0.107756704 -0.039708663 0.082800195 -0.019557228 -0.04559023
-0.10662409 -0.059945025 0.047821127 0.0021476904 -0.058081828 -0.10683701 -0.12141551 -0.007275879
0.016170187 0.10791838 -0.036025733 0.023775788 0.04592407 -0.03197453 0.06291084 0.052273296
0.061359577 0.027854403 0.0055238674 -0.04581812 0.1228708 -0.08097698 0.05110114 -0.06561235
-0.0017521102 -0.11267255 -0.0380267 0.03131686 -0.1681013 0.049899526 -0.005962764 0.11581451
-0.07810983 -0.08305949 0.014126672 0.033620786 0.027992548 0.08495996 -0.0055818283 0.06776615
-0.11879637 -0.14265828 -0.14779802 -0.0798519 -0.0073265033 0.04369628 0.04259771 -0.08427419
0.016809436 0.096776895 -0.01698848 -0.028139016 -0.09124642 -0.008702384 0.033358164 0.022627668
-0.055717904 0.07115262 -0.026853662 -0.040684067 0.024908688 0.032459 0.033847623 -0.06789888
00000000: c512 5a3d b1e6 b83d 8086 6fbd 384e babc
00000010: a451 84bd bb95 a2bd 69c9 d7bb ee26 e3bc
00000020: 29f4 b1ba 1351 dcbd 31a8 143c e7df ecbc
00000030: 898b 0c3d 0dbe ae3b 383a 93bd 5c25 d83b
00000040: f151 89bc 11d6 e7bd 4daa 91bb 9231 eebd
00000050: f612 c83d 1149 b53d 9c4a 023c 229c 29bd
00000060: f817 703d 969c c8bd c82c c9bc d404 ed3c
00000070: 9ee8 813d c7a2 b0bb 35ef 083d b10a 9dbb
00000080: 572b f3bd 2df3 803d e9c8 68bc 3c78 3b3d
00000090: 5d85 9bbc 78a1 593d 5eaf c2bc d2c7 153d
000000a0: 04db 00bd 62e2 6bbc 12c9 38be 6c41 023e
000000b0: 1345 623d aa75 02be 4476 12ba e4af c23d
000000c0: 3355 02bd 4ef2 543d 6a8a 243c 6714 cb3c
000000d0: 32e7 433e fab6 b73c a066 963c f156 303c
000000e0: 7be9 803d 5c50 bbbd 21c2 38bc 947c f1bc
000000f0: a72d 79bd 8b4a 803d c164 20be f768 79bd
00000100: 3129 e8bd 9a1f 0c3d dd3f 1c3d dace 97bd
00000110: b9c8 a53d f4fe 0cbd b396 85bd df12 143d
00000120: 95f1 21bd 191a 1cbc 45a6 8fbd 9298 d3ba
00000130: fea9 a13b efe2 523d ea1b 97bd ffc7 b9bd
00000140: c02a 32bd 5b67 0d3d 5a83 feba 2c58 76bd
00000150: fb88 9f3d 6722 a1bc 2e81 a5ba 065d 06be
00000160: c8be 003c 0df0 073d 88ba 743d fb73 13be
00000170: 2578 afbd b4a1 943c 652c 813d 353f 463c
00000180: aa43 8abd c886 c6bd 862d d83c d96a 68bc
00000190: f2ac 8b3d 064b 81bd a4f6 41bd 3600 6c3d
000001a0: 7167 803b 03b7 3e3c 7797 963d 5057 233d
000001b0: c8c8 4e3c 95d8 02be f52f 143e d14a 97bd
000001c0: 61b4 d73d a98f 513d 03c2 f3bd 6685 f1bd
000001d0: 106e b0bc 4577 d23d 0d32 853d 9c86 e03c
000001e0: 3bdf bc3c 6f27 df3c 3030 2f3d 55e0 94bd
000001f0: 3950 573d 0a7f 94bc 228c 4f3d cb01 fa3c
00000200: 3e34 783d b719 8bbd 5719 d73b 53fb 78bd
00000210: 859f 45bc 5b86 7e3d 07ab 70bd f0fe ffbd
00000220: 1ce2 9abd 6a4a 7c3b 81f9 2cbd e714 88bd
00000230: 747b 973b fcdb 6fbd ae60 063c 904f 87bc
00000240: 632d 1a3b fd1a 24bd 7557 89bd 55c7 443d
00000250: 0ad1 b43c 99b5 51bd d574 993d 0602 9f3a
00000260: 53dc b33c 2b2c 2d3d 03ab 293a bc67 833d
00000270: c673 c53b d061 ba3d 255c 92bd c89c fb3c
00000280: 80a1 c83b 2e2c 58bc be35 ef3d 6c82 83bb
00000290: 8cec b03d 9e23 06be 4e3f 29bd b5d9 0a3d
000002a0: bff8 4dbd 1d31 ad3b 1120 ea3d 7ab9 aabd
000002b0: 6337 093d 46f6 36bd 26d9 3c3d 33ec 05bd
000002c0: 9923 c1bd b12d bdbd e039 083d a1f7 89bd
000002d0: f5fb b0bd 6c00 0fbd afb3 e23c c592 efbd
000002e0: 0317 25bd 678b 703d 40ce 98bd 8caf dcbd
000002f0: 8da5 22bd 2693 a93d 7b36 a0bc d2bc 3abd
00000300: bb5d dabd ea88 75bd 16e0 433d 44c0 0c3b
00000310: 36e7 6dbd 5dcd dabd b2a8 f8bd 7f6a eebb
00000320: 5777 843c 5004 dd3d b88f 13bd 71c5 c23c
00000330: e11a 3c3d baf7 02bd 66d7 803d 861c 563d
00000340: 2e54 7b3d eb2e e43c 8f01 b53b c8ab 3bbd
00000350: b0a3 fb3d 42d7 a5bd 6e4f 513d c55f 86bd
00000360: 10a7 e5ba dec0 e6bd e3c1 1bbd 1c46 003d
00000370: bf22 2cbe 7263 4c3d 4a63 c3bb 2830 ed3d
00000380: 0cf8 9fbd 181b aabd 8f73 673c f3b5 093d
00000390: a150 e53c 7dff ad3d c5e7 b6bb fbc8 8a3d
000003a0: 834b f3bd 0315 12be 5d58 17be 6589 a3bd
000003b0: 2a13 f0bb dffa 323d f07a 2e3d f297 acbd
000003c0: f1b3 893c f732 c63d 6d2b 8bbc cb83 e6bc
000003d0: 67df babd 7294 0ebc 92a2 083d a95d b93c
000003e0: 7538 64bd 77b8 913d 36fc dbbc 56a4 26bd
000003f0: 4e0d cc3c baf3 043d cea3 0a3d 910e 8bbd

a2c_network.actor_mlp.2.bias f4 [128]
-0.002425147 -0.10843855 0.00080986123 -0.00018991673 0.055867363 0.019181984 0.054985166 0.083695255
-0.096163616 -0.021850817 -0.0994762 -0.041572463 -0.021128707 -0.08006076 -0.056125052 -0.059079077
0.012713737 -0.07786932 0.0017110606 -0.02207612 -0.1413353 0.071959525 -0.0033092813 -0.07087549
-0.14909251 -0.03276945 -0.0172307 -0.00183566 -0.18195018 0.034667473 -0.009230008 -0.081064366
0.027053906 0.06340017 0.04331167 -0.14360298 0.0014040036 0.036422808 -0.14974542 -0.015936984
0.048667077 -0.019307887 0.021843113 0.002777706 0.004261184 -0.027238097 -0.11969512 -0.024961745
-0.009149715 -0.009828539 -0.015949756 -0.114931084 -0.024431253 0.059642743 -0.11571403 0.0026654375
0.025887063 -0.028676065 0.10342277 -0.07612342 -0.104753755 0.079097286 0.074883774 0.03279951
-0.031652108 -0.034991145 0.07737744 -0.016087968 0.008447089 0.01977795 0.06252507 -0.01287744
0.05458086 -0.10374544 0.02442712 -0.17133033 -0.11436948 -0.09902961 -0.009758304 0.06062394
0.05764009 0.033843365 -0.008690811 -0.081327155 -0.09886026 0.06101504 -0.09131623 -0.081959575
0.045028996 0.011054632 -0.039183572 -0.029638736 0.030303936 0.09898049 0.07261876 -0.07728872
0.02128193 0.009465784 0.035952266 0.06546804 0.0065382407 -0.039014537 -0.034161814 0.002024622
0.04880437 0.041293304 -0.019164035 0.02254049 0.08018868 -0.054615613 0.01948283 -0.07810097
0.024450887 -0.00535953 0.009791292 -0.029893558 0.062480386 -0.09234885 -0.04746063 -0.02176982
-0.058965385 -0.011450114 -0.011116097 0.038613725 -0.020519692 0.016792636 -0.0018846947 -0.022658559
00000000: 37ef 1ebb 0815 debd de4c 543a 6224 47b9
00000010: 2dd5 643d 8923 9d3c 2038 613d 6b68 ab3d
00000020: 6ef1 c4bd 7c00 b3bc 2eba cbbd e347 2abd
00000030: 1c16 adbc e5f6 a3bd 62e3 65bd e7fc 71bd
00000040: 474d 503c f379 9fbd ab45 e03a fbd8 b4bc
00000050: 33ba 10be 845f 933d 87e0 58bb 2b27 91bd
00000060: b5ab 18be 4239 06bd 6627 8dbc 879a f0ba
00000070: 2651 3abe 7bff 0d3d 7639 17bc 1305 a6bd
00000080: 27a0 dd3c f3d7 813d 9467 313d a90c 13be
00000090: 8b06 b83a 1530 153d dd56 19be 478e 82bc
000000a0: 2157 473d 932b 9ebc 54f0 b23c 2c0a 363b
000000b0: 67a1 8b3b 6e22 dfbc b722 f5bd 937c ccbc
000000c0: b0e8 15bc e107 21bc 10a9 82bc fd60 ebbd
000000d0: 0d24 c8bc f34b 743d 7afb ecbd 9fae 2e3b
000000e0: 1b11 d43c 11ea eabc 51cf d33d 98e6 9bbd
000000f0: 2389 d6bd c2fd a13d aa5c 993d c758 063d
00000100: a4a5 01bd e052 0fbd 1078 9e3d eaca 83bc
00000110: a965 0a3c 5e05 a23c 250d 803d e6fb 52bc
00000120: 2e90 5f3d 7d78 d4bd 621b c83c 3871 2fbe
00000130: 8c3a eabd 09d0 cabd 4be1 1fbc cf50 783d
00000140: 0418 6c3d 579f 0a3d e763 0ebc da8e a6bd
00000150: 3f77 cabd e8ea 793d 0104 bbbd 6cda a7bd
00000160: 5370 383d 7d1e 353c f47e 20bd efcc f2bc
00000170: f63f f83c 48b6 ca3d 25b9 943d 8c49 9ebd
00000180: 7157 ae3c 6016 1b3c af42 133d 1c14 863d
00000190: bd3e d63b b5cd 1fbd 42ed 0bbd 85af 043b
000001a0: 17e7 473d 2b23 293d e5fd 9cbc d5a6 b83c
000001b0: f639 a43d 9fb4 5fbd 759a 9f3c 67f3 9fbd
000001c0: 3a4d c83c ff9e afbb a86b 203c 56e3 f4bc
000001d0: 6feb 7f3d 6521 bdbd 1466 42bd 9f56 b2bc
000001e0: b085 71bd 4299 3bbc 4a20 36bc 6d29 1e3d
000001f0: ea18 a8bc b690 893c dc07 f7ba 719e b9bc

a2c_network.actor_mlp.4.weight f4 [128, 128]
0.00079865014 -0.05363542 -0.033159766 0.0188078 0.048657726 -0.11370589 -0.068119645 0.06704653
-0.0485277 0.029254626 0.050474163 0.002839306 0.0057554413 -0.072468534 0.00794064 0.03413559
0.0108815385 -0.031865958 -0.051076397 -0.06654665 0.03977458 0.064471535 0.041522425 0.025290657
-0.028048113 0.05949451 0.005935739 -0.05674501 -0.016003419 -0.052931126 -0.08759651 0.079979934
0.07404387 -0.065331765 -0.023546143 0.04856777 -0.045846462 -0.0037520912 -0.098411486 -0.05075658
-0.044770252 -0.032793358 -0.07957961 -0.036147747 0.032477457 -0.06246644 -0.119855784 0.052231424
0.08124544 -0.03795079 0.017187774 -0.008916154 0.022913111 -0.026504578 -0.09409404 0.077410884
-0.06334029 0.030754246 -0.020768836 -0.07047925 -0.01751311 0.01802449 -0.0017330613 0.14243995
0.12321268 0.07462563 -0.053243726 -0.05879679 0.090585664 0.022554146 0.06860079 0.1081792
-0.045764454 0.03456972 0.04284494 -0.01600733 -0.056721784 -0.0048892563 0.08704682 0.0056493855
0.018292917 0.011841034 0.045142405 0.08535523 0.016889766 0.015774539 -0.048407435 -0.021935197
-0.056957554 0.054484498 0.062386554 -0.05604473 0.057526335 -0.020364646 -0.06478808 0.0028039226
-0.009342918 -0.027776746 0.09442186 0.002226732 -0.07872782 0.0031792906 -0.0047167134 -0.06942133
0.057417937 0.0041132183 -0.006537586 -0.02186446 -0.017399976 -0.07676603 -0.0002460791 -0.0439036
0.031679064 0.0012309961 -0.12082207 -0.08278516 -0.060346805 0.036944937 0.095652744 0.02928214
0.05768502 0.04998905 -0.057764303 0.07443428 -0.06833669 -0.016691389 0.0049718306 -0.078114405
0.0056128767 0.045654185 -0.024045218 0.04238449 0.06594586 -0.044513218 -0.061282676 0.025607651
-0.03989431 -0.04954454 0.014394927 0.061810378 -0.054135427 -0.023464212 -0.024028813 0.11531106
0.068948075 -0.034544196 -0.10762753 0.06211801 -0.089371815 -0.046730764 0.14698693 0.007364132
-0.011374865 -0.08482366 -0.04995732 -0.02511437 0.043770976 -0.03591088 -0.02905631 0.0011755904
-0.04618215 0.015549283 -0.06811643 -0.03226699 -0.06282435 0.062923715 -0.059424985 -0.11159167
-0.02664943 -0.08083893 -0.08608862 -0.050997976 0.05766789 -0.079369165 -0.06886009 0.043527592
0.04692626 0.0068025994 0.11307044 0.041323908 -0.055481303 0.0048372364 -0.037066173 0.09119033
-0.01895489 0.059142184 -0.03640599 -0.0650378 -0.06868438 0.07555415 -0.060467336 -0.017989729
0.013511342 -0.081685066 -0.039722588 0.063318335 0.09774515 -0.003469841 -0.03628101 -0.0018351778
-0.023593694 -0.034902927 0.008301061 0.046909086 0.14325762 -0.03397462 0.045056965 0.062154617
-0.00941336 -0.02761669 0.015613583 0.021196408 0.06746907 0.051580682 -0.021263905 0.036393393
0.07443962 0.062002514 0.0040456317 -0.07436383 0.034611836 -0.026854921 0.0476113 0.061146475
-0.042509023 -0.017380795 -0.02463287 -0.06498865 0.027245644 0.09043165 0.08693268 -0.052909907
-0.024853203 -0.028531997 0.05098745 -0.06158514 0.021950474 -0.09362236 0.01847967 0.042178065
-0.09420758 0.09567337 -0.021053394 0.070240095 -0.07602958 0.07009779 0.11220565 0.050268188
0.0027604464 0.014373112 -0.07743447 0.03340354 0.041360904 0.045422338 -0.05452666 0.04003119
00000000: 815c 513a d0b0 5bbd 89d2 07bd d112 9a3c
00000010: 534d 473d a2de e8bd 5082 8bbd b14f 893d
00000020: fbc4 46bd 66a7 ef3c ffbd 4e3d a613 3a3b
00000030: 2498 bc3b 626a 94bd 7519 023c c3d1 0b3d
00000040: 7b48 323c e185 02bd 7c35 51bd 9c49 88bd
00000050: acea 223d a709 843d 6b13 2a3d 5a2e cf3c
00000060: 28c5 e5bc 84b0 733d 9680 c23b 756d 68bd
00000070: 9a19 83bc 4fce 58bd cd65 b3bd 85cc a33d
00000080: 50a4 973d a9cc 85bd d7e3 c0bc ffee 463d
00000090: 80c9 3bbd a5e5 75bb f68b c9bd 22e6 4fbd
000000a0: 0361 37bd 5452 06bd a2fa a2bd a90f 14bd
000000b0: 1507 053d cfdc 7fbd f376 f5bd 9ef0 553d
000000c0: 0264 a63d 4a72 1bbd 60cd 8c3c 0f15 12bc
000000d0: 47b4 bb3c 2120 d9bc 60b4 c0bd 9989 9e3d
000000e0: 8eb8 81bd 54f0 fb3c 6823 aabc 6d57 90bd
000000f0: a777 8fbc 18a8 933c e327 e3ba c7db 113e
00000100: ee56 fc3d 53d5 983d 1816 5abd e7d4 70bd
00000110: fa84 b93d 79c3 b83c 927e 8c3d 0e8d dd3d
00000120: 8273 3bbd fb98 0d3d 2d7e 2f3d ce21 83bc
00000130: 1a55 68bd 0e36 a0bb 9a45 b23d 7b1e b93b
00000140: 07db 953c e500 423c 3ee7 383d b9ce ae3d
00000150: 685c 8a3c 9b39 813c e046 46bd 71b1 b3bc
00000160: 534c 69bd 232b 5f3d 0b89 7f3d 298f 65bd
00000170: bca0 6b3d c2d3 a6bc 9daf 84bd 04c2 373b
00000180: 0a13 19bc 0f8c e3bc 4060 c13d 5dee 113b
00000190: 0d3c a1bd a55b 503b a98e 9abb c52c 8ebd
000001a0: 122f 6b3d 2dc8 863b 3f39 d6bb 191d b3bc
000001b0: 658a 8ebc 8237 9dbd 2d04 81b9 43d4 33bd
000001c0: e8c1 013d 6059 a13a 9071 f7bd 448b a9bd
000001d0: 362e 77bd 9353 173d 96e5 c33d 19e1 ef3c
000001e0: 2147 6c3d 51c1 4c3d 439a 6cbd 0071 983d
000001f0: 1bf4 8bbd 61bc 88bc bdea a23b 72fa 9fbd
00000200: 39ec b73b e2ff 3a3d 7afa c4bc 5c9b 2d3d
00000210: a00e 873d 7e53 36bd 8b03 7bbd 23c7 d13c
00000220: 3768 23bd 37ef 4abd b3d8 6b3c e12c 7d3d
00000230: 1cbd 5dbd 0538 c0bc 13d8 c4bc 3428 ec3d
00000240: a634 8d3d 377e 0dbd d36b dcbd 746f 7e3d
00000250: 9208 b7bd c268 3fbd be83 163e d14e f13b
00000260: a45d 3abc 07b8 adbd 0ca0 4cbd a7bc cdbc
00000270: 3249 333d 4917 13bd 8007 eebc 4516 9a3a
00000280: 7e29 3dbd 6bc2 7e3c a080 8bbd 642a 04bd
00000290: 0eaa 80bd 26de 803d 9d67 73bd 2c8a e4bd
000002a0: e84f dabc e28e a5bd 3b4f b0bd 41e3 50bd
000002b0: 2a35 6c3d 4d8c a2bd 8506 8dbd fd49 323d
000002c0: c035 403d 57e8 de3b 7a91 e73d 4243 293d
000002d0: 5d40 63bd ae81 9e3b b3d2 17bd ffc1 ba3d
000002e0: 4947 9bbc 133f 723d 731e 15bd 8a32 85bd
000002f0: 65aa 8cbd 22bc 9a3d 99ac 77bd 325f 93bc
00000300: ad5e 5d3c 804a a7bd 27b4 22bd 0bad 813d
00000310: 9c2e c83d 4666 63bb 659b 14bd 598a f0ba
00000320: 9047 c1bc 5ff6 0ebd 2c01 083c be23 403d
00000330: 20b2 123e f928 0bbd a78d 383d d795 7e3d
00000340: 7e3a 1abc 663c e2bc 1dd0 7f3c 17a4 ad3c
00000350: 392d 8a3d 4446 533d a431 aebc 3d11 153d
00000360: cd73 983d 59f6 7d3d 3891 843b 104c 98bd
00000370: 24c5 0d3d dafe dbbc 1104 433d ba74 7a3d
00000380: f11d 2ebd 2b62 8ebc dfca c9bc c518 85bd
00000390: 4232 df3c 3b34 b93d c309 b23d 0fb8 58bd
000003a0: f298 cbbc efbb e9bc 37d8 503d b340 7cbd
000003b0: 7bd1 b33c 14bd bfbd ad62 973c e8c2 2c3d
000003c0: e7ef c0bd 66f0 c33d 2b78 acbc 0ada 8f3d
000003d0: 65b5 9bbd 6e8f 8f3d 13cc e53d 04e6 4d3d
000003e0: 9be8 343b 337d 6b3c f795 9ebd 26d2 083d
000003f0: 0d6a 293d c60c 3a3d 5957 5fbd bff7 233d

a2c_network.actor_mlp.4.bias f4 [128]
0.03734243 0.023822537 -0.040743895 -0.059939675 -0.09745665 0.0041066017 0.048508443 0.02751202
0.027620062 0.060034845 0.006573301 -0.023416601 -0.028533023 0.052687492 -0.049253505 -0.003065206
-0.03902896 -0.03845758 -0.04657071 -0.05330798 0.03882861 0.0027014588 0.025204355 0.011118782
0.0008008228 -0.033965673 -0.11819229 -0.027125949 0.07651702 0.04658326 -0.017906798 0.026416197
0.09436466 -0.04435531 -0.0024499402 -0.104871884 0.025440365 0.07587007 -0.02667505 -0.042161807
0.016967291 -0.0049266377 0.025257654 -0.034056973 0.0065464154 0.03302396 -0.05963154 0.10393022
0.054755226 0.07736326 -0.045322385 -0.07950053 0.054732848 -0.052468445 0.07268997 -0.08734645
0.032768656 -0.074373 -0.09739216 0.03602383 0.058564708 -0.028184684 -0.014152346 0.087869965
-0.029578296 0.033523444 0.05992089 -0.009759615 0.057848327 -0.123326086 0.024868693 -0.00047355553
-0.03270174 -0.017939946 -0.023715857 0.002375625 0.061965164 0.002018605 -0.035621576 -0.03149417
-0.09827137 0.064193554 -0.042048972 -0.07873159 -0.010619069 0.04993028 -0.018163454 0.085208364
-0.07628165 -0.008832125 0.048012134 -0.05216889 0.02941374 -0.07285838 -0.014539349 0.020009523
-0.03316732 -0.011831219 -0.031553622 0.0044109547 -0.023561042 0.0009573932 -0.0502417 0.008033814
0.05631449 -0.030327484 -0.014423044 -0.06519304 0.09971637 0.038768396 0.06022467 -0.025440853
-0.06771757 0.00927447 0.05609474 -0.089907035 -0.06608757 0.050207626 0.03504803 -0.058801405
-0.009184143 0.052457966 -0.02853088 -0.00018831076 0.07357024 -0.061304033 0.037546244 0.027855163
00000000: 60f4 183d 7b27 c33c 12e3 26bd 4e83 75bd
00000010: 5a97 c7bd ac90 863b cab0 463d e360 e13c
00000020: 7843 e23c 19e7 753d d864 d73b 2cd4 bfbc
00000030: 16be e9bc d7ce 573d 0bbe 49bd a0e1 48bb
00000040: d5dc 1fbd b285 1dbd eec0 3ebd 7859 5abd
00000050: c00a 1f3d f50a 313b 5d79 ce3c 8d2b 363c
00000060: 4fee 513a 971f 0bbd cd0e f2bd 3d37 debc
00000070: f5b4 9c3d 17ce 3e3d 47b1 92bc c866 d83c
00000080: 4242 c13d eaad 35bd 2d8f 20bb 12c7 d6bd
00000090: 5068 d03c c461 9b3d a285 dabc dcb1 2cbd
000000a0: fdfe 8a3c a26f a1bb 24e9 ce3c 537f 0bbd
000000b0: 5083 d63b 2244 073d 3440 74bd 5ed9 d43d
000000c0: 0447 603d a170 9e3d f7a3 39bd 2dd1 a2bd
000000d0: 8d2f 603d 27e9 56bd 7bde 943d b2e2 b2bd
000000e0: 6d38 063d df50 98bd 8a75 c7bd b98d 133d
000000f0: 8ce1 6f3d 91e3 e6bc 3edf 67bc 2bf5 b33d
00000100: 2f4e f2bc e14f 093d 9b6f 753d cbe6 1fbc
00000110: 5ef2 6c3d 6392 fcbd 6eb9 cb3c 8c47 f8b9
00000120: 42f2 05bd cbf6 92bc c247 c2bc 60b0 1b3b
00000130: 2fcf 7d3d 924a 043b eee7 11bd 0800 01bd
00000140: 8042 c9bd e977 833d 8b3b 2cbd 073e a1bd
00000150: 9bfb 2dbc b183 4c3d 86cb 94bc b981 ae3d
00000160: 8e39 9cbd 9eb4 10bc 5fa8 443d 0caf 55bd
00000170: 15f5 f03c c636 95bd 7336 6ebc 03eb a33c
00000180: 75da 07bd bbd7 41bc 5f3e 01bd c589 903b
00000190: 1603 c1bc 92f9 7a3a 3eca 4dbd 42a0 033c
000001a0: 06aa 663d 5871 f8bc a24e 6cbc ee83 85bd
000001b0: 1938 cc3d 9ccb 1e3d 25ae 763d 5669 d0bc
000001c0: 82af 8abd f2f3 173c 99c3 653d 2e21 b8bd
000001d0: eb58 87bd 83a6 4d3d 868e 0f3d bed9 70bd
000001e0: 1679 16bc 2ade 563d 98b9 e9bc 4975 45b9
000001f0: feab 963d f019 7bbd 17ca 193d 8330 e43c

a2c_network.value.weight f4 [1, 128]
-0.0105351815 -0.02548719 -0.026004065 0.022413267 0.025991093 0.045542818 0.019685278 0.015302543
-0.048455615 -0.0124446815 0.0073002577 0.014446035 0.024922917 0.03422457 0.0061358125 0.043120485
-0.008744743 0.0077425297 0.047118876 -0.008189432 0.008109303 -0.09157139 -0.01432899 -0.0077189403
0.030866686 -0.070753545 0.004368215 0.008511616 0.03139275 -0.016558671 -0.034463957 -0.059362028
-0.010585299 0.029259678 -0.017573142 -0.032864112 0.028935254 0.014569274 -0.0059212726 0.046599723
-0.024270833 0.00077761564 -0.0034757347 -0.033944454 -0.024968766 -0.0065090368 0.06344575 -0.00068963686
-0.00044583195 -0.0022861727 0.018652214 -0.013234438 -0.012527112 0.04285848 -0.0007894091 0.008261854
-0.003381827 -0.010276947 0.008322651 0.036317915 0.012928835 -0.0021624104 0.041547425 -0.014076393
0.048251398 -0.0023558554 0.0089096315 -0.086377054 -0.0035868555 0.020299664 -0.02532098 0.040902294
0.021462925 0.05079267 0.02732494 -0.055714376 -0.018442487 0.011292894 0.0056466484 0.006436965
-0.02710518 -0.030847602 -0.01550642 -0.0044909613 -0.055454414 -0.014053202 0.024648132 0.012080442
0.044366315 0.019081531 0.0063688797 -0.037483193 -0.0529378 -0.01894346 0.020712527 0.026585579
0.022463128 -0.05100548 0.038076825 -0.06735733 -0.032025684 -0.011847292 0.03881352 -0.015834918
0.0054618153 -0.0699066 -0.071596496 0.013672435 -0.010546178 -0.011800897 0.025495078 0.04490205
-0.032411758 0.014387391 -0.011509108 0.025205389 0.047315735 -0.03817145 -0.051659547 0.044668894
-0.035115726 0.02969204 0.036336873 0.067368925 0.014867955 -0.023121543 -0.02123679 -0.0055028335
00000000: c19b 2cbc 83ca d0bc 7a06 d5bc 079c b73c
00000010: 46eb d43c 1b8b 3a3d 0543 a13c 84b7 7a3c
00000020: 6579 46bd c7e4 4bbc 0037 ef3b 10af 6c3c
00000030: 252b cc3c 102f 0c3d ed0e c93b 1b9f 303d
00000040: 1c46 0fbc 0cb5 fd3b b9ff 403d f82c 06bc
00000050: e2dc 043c c889 bbbd 24c4 6abc 2aef fcbb
00000060: 22dc fc3c 3ce7 90bd 3e23 8f3b 4e74 0b3c
00000070: af95 003d 0da6 87bc 142a 0dbd 9925 73bd
00000080: f66d 2dbc feb1 ef3c 8df5 8fbc 859c 06bd
00000090: a009 ed3c f7b3 6e3c 3c07 c2bb 5adf 3e3d
000000a0: a0d3 c6bc e7d8 4b3a 27c9 63bb 5709 0bbd
000000b0: 4c8b ccbc c249 d5bb d8ef 813d bfc8 34ba
000000c0: 8dbe e9b9 9dd3 15bb 87cc 983c 42d5 58bc
000000d0: 843e 4dbc 608c 2f3d 59f0 4eba ba5c 073c
000000e0: a4a1 5dbb a460 28bc ba5b 083c 18c2 143d
000000f0: 77d3 533c 3ab7 0dbb a22d 2a3d aca0 66bc
00000100: 42a3 453d b264 1abb b4f9 113c 74e6 b0bd
00000110: 7311 6bbb 7b4b a63c f26d cfbc 2a89 273d
00000120: 04d3 af3c fa0b 503d 8dd8 df3c c234 64bd
00000130: b314 97bc d505 393c 8507 b93b 2ded d23b
00000140: af0b debc 1cb4 fcbc a40e 7ebc ea28 93bb
00000150: 2b24 63bd 673f 66bc e1ea c93c 0ced 453c
00000160: 74b9 353d df50 9c3c 09b2 d03b fa87 19bd
00000170: 4ed5 58bd 512f 9bbc 51ad a93c 00ca d93c
00000180: 9804 b83c 1feb 50bd 72f6 1b3d a4f2 89bd
00000190: 5d2d 03bd 251b 42bc edfa 1e3d 3bb8 81bc
000001a0: 07f9 b23b 312b 8fbd 2fa1 92bd 5902 603c
000001b0: e0c9 2cbc 8d58 41bc 0edb d03c 36eb 373d
000001c0: 31c2 04bd 17b9 6b3c b390 3cbc 887b ce3c
000001d0: 25ce 413d ab59 1cbd f698 53bd bbf6 363d
000001e0: 82d5 0fbd b93c f33c f9d5 143d b8f8 893d
000001f0: b998 733c 6469 bdbc c7f8 adbc 1d51 b4bb

a2c_network.mu.weight f4 [18, 128]
-0.009158873 0.0131677715 -0.01300602 0.16045405 0.11458851 0.01741893 -0.048601538 0.014145636
-0.055513073 -0.12560064 0.02162225 -0.11903285 -0.046261054 -0.07634232 0.14256112 0.04959981
0.025802221 0.09058149 -0.02365076 -0.084737375 -0.099826515 -0.03498534 0.0030100376 0.03143275
-0.08218126 0.05430432 -0.004759522 -0.060583584 0.0827239 0.018561296 0.086736925 -0.072699316
-0.04899621 -0.08929908 -0.11959033 0.027729375 0.09415147 -0.10278966 -0.0019182257 -0.078009054
0.068405375 0.091548175 -0.051043037 -0.1060802 -0.0070969327 -0.1376969 0.052180763 -0.02404705
0.04000024 -0.013857833 0.15418752 -0.00054933 -0.080817565 -0.042597968 -0.101060525 -0.012552922
0.09216999 0.086706884 0.13730024 0.044795208 -0.06254977 -0.000104626284 0.06569095 -0.009469721
0.09860798 -0.03898172 0.2064353 0.023527449 -0.08931318 0.0046156016 0.077271156 -0.010958886
-0.017255463 0.1103983 0.15474725 0.059065875 -0.092552975 -0.08039822 0.043494258 0.048948016
-0.011956305 0.020795373 0.04602595 -0.09042093 0.039124105 0.052206848 0.032565866 0.03115333
0.0038038935 -0.07105071 -0.09047544 0.042445503 -0.005242303 0.05884181 0.06161485 0.006397263
0.08118418 -0.03024025 -0.051007424 0.09255459 0.010474549 0.06814124 0.05706983 0.11414892
0.112057835 0.03918558 -0.028550537 -0.046128742 -0.0753406 0.045964647 -0.082517624 -0.10953018
0.1490064 -0.10440524 -0.0004928773 0.04685481 -0.01302622 -0.08611176 -0.15913635 0.14725493
0.07158764 -0.12568705 0.07897618 -0.05999779 -0.09918027 0.094968736 -0.006825525 -0.05607592
-0.0073752897 -0.08799568 -0.017887568 0.16696109 0.17080627 -0.064111315 0.047297537 -0.07673898
0.07299178 -0.112285174 -0.011481258 -0.096735716 -0.0031830578 -0.091600336 -0.025601143 -0.048984744
0.010952582 0.018187372 0.02685636 -0.058971923 0.0638765 -0.019271728 0.035972517 0.06819397
-0.088098496 -0.013875545 0.01316466 -0.10089208 -0.110969104 -0.045436595 -0.012381972 -0.05618831
-0.06998392 -0.051812146 -0.009266221 0.014834072 0.11311937 -0.06385866 0.11696538 -0.092334025
0.0386744 -0.00525022 0.06504047 0.090828925 0.022773145 0.019274281 0.026107073 -0.05343277
-0.007967817 -0.07859462 -0.035693392 0.008386068 0.036110036 -0.0069014253 -0.17033072 -0.014989344
0.013127571 0.0855826 0.11559681 0.02313648 -0.021544736 0.0062230187 -0.00080437487 -0.04303998
0.06193004 0.07411209 -0.011442402 0.07157238 0.012883917 0.10510415 0.004972033 -0.025976768
0.031610664 -0.041102674 -0.049515493 0.049738493 -0.10263977 0.062985025 0.08128828 -0.028652074
0.01359277 0.13540073 -0.03434475 0.042192705 0.026260676 -0.09826463 -0.06102337 -0.08237111
0.10734329 -0.027259815 0.017475286 -0.043938395 -0.030192763 -0.09692802 0.113499165 -0.07773978
0.0926945 -0.012200553 0.04720338 -0.02612563 0.038088728 -0.03226376 0.10007253 0.019713398
0.12954181 0.0070963767 0.05960735 0.08082012 -0.14655592 0.02473213 0.030173583 -0.039958604
0.019886352 0.0103978515 -0.032092188 0.069433875 -0.028358746 -0.0342428 -0.13073874 0.06491508
0.10345316 -0.084752835 0.029112838 -0.10874511 0.013170818 0.03797939 0.07358165 -0.033480335
00000000: 190f 16bc a3bd 573c 3417 55bc 114e 243e
00000010: 61ad ea3d 25b2 8e3c 6812 47bd 19c3 673c
00000020: ad61 63bd 749d 00be 2521 b13c 7fc7 f3bd
00000030: 3b7c 3dbd 5d59 9cbd 8bfb 113e 2c29 4b3d
00000040: 2e5f d33c ca82 b93d 3dbf c1bc ca8a adbd
00000050: d871 ccbd ca4c 0fbd 0d44 453b a1bf 003d
00000060: a64e a8bd 356e 5e3d c4f5 9bbb 7e26 78bd
00000070: 266b a93d dc0d 983c 21a3 b13d 61e3 94bd
00000080: 40b0 48bd 70e2 b6bd c6eb f4bd b728 e33c
00000090: 7cd2 c03d 6383 d2bd f96c fbba 36c3 9fbd
000000a0: 1e18 8c3d 9c7d bb3d 8112 51bd 9340 d9bd
000000b0: 638d e8bb 6b00 0dbe 7fbb 553d 52fe c4bc
000000c0: 4bd7 233d f70b 63bc 55e3 1d3e ea00 10ba
000000d0: ae83 a5bd 357b 2ebd d2f8 cebd c5aa 4dbc
000000e0: 9fc3 bc3d 6193 b13d 6f98 0c3e 2e7b 373d
000000f0: 181a 80bd cf6a dbb8 fa88 863d e326 1bbc
00000100: fbf2 c93d 4cab 1fbd c663 533e a3bc c03c
00000110: d4e9 b6bd 793e 973b 5740 9e3d e68c 33bc
00000120: 545b 8dbc 8118 e23d 1076 1e3e 0fef 713d
00000130: 6a8c bdbd d2a7 a4bd 0927 323d b77d 483d
00000140: 61e4 43bc 0f5b aa3c b585 3c3d 9c2e b9bd
00000150: 9940 203d d9d6 553d c963 053d 4535 ff3c
00000160: be4a 793b 0983 91bd 304b b9bd 56db 2d3d
00000170: a0c7 abbb 1c04 713d da5f 7c3d 22a0 d13b
00000180: e443 a63d 67ba f7bc 29ed 50bd 438d bd3d
00000190: 719d 2b3c a28d 8b3d 0ec2 693d e9c6 e93d
000001a0: 947e e53d 0f81 203d d1e2 e9bc 7ef1 3cbd
000001b0: 2c4c 9abd 6d45 3c3d 00ff a8bd 5c51 e0bd
000001c0: 2295 183e 6ad2 d5bd 7034 01ba d4ea 3f3d
000001d0: ed6b 55bc 5d5b b0bd a4f4 22be ffc9 163e
000001e0: 8a9c 923d 1bb4 00be 43be a13d 3ec0 75bd
000001f0: 071f cbbd f87e c23d a7a8 dfbb ddaf 65bd
00000200: 6aac f1bb 1437 b4bd f388 92bc d9f7 2a3e
00000210: d7e7 2e3e cb4c 83bd 10bb 413d 5429 9dbd
00000220: b77c 953d c5f5 e5bd e31b 3cbc 601d c6bd
00000230: d99a 50bb f598 bbbd 7db9 d1bc 3aa4 48bd
00000240: 7572 333c affd 943c de01 dc3c 8b8c 71bd
00000250: afd1 823d bedf 9dbc eb57 133d 48a9 8b3d
00000260: fc6c b4bd 4156 63bc 96b0 573c 82a0 cebd
00000270: c543 e3bd b91b 3abd c1dd 4abc b725 66bd
00000280: bb53 8fbd f938 54bd 59d1 17bc 9c0a 733c
00000290: 21ab e73d 54c8 82bd 8c8b ef3d 9f19 bdbd
000002a0: 0c69 1e3d 0a0a acbb f033 853d 8404 ba3d
000002b0: bf8e ba3c 19e5 9d3c 80de d53c 52dc 5abd
000002c0: 728b 02bc 37f6 a0bd 3c33 12bd b865 093c
000002d0: 1ee8 133d 5a25 e2bb 2d6b 2ebe de95 75bc
000002e0: 0615 573c ee45 af3d 05be ec3d b788 bd3c
000002f0: 967e b0bc 77ea cb3b afdc 52ba b14a 30bd
00000300: 5baa 7d3d 14c8 973d ea78 3bbc 8a94 923d
00000310: 1117 533c d840 d73d 70ec a23b 3bcd d4bc
00000320: 2f7a 013d 475b 28bd c2d0 4abd 97ba 4b3d
00000330: cd34 d2bd 4bfe 803d 787a a63d c1b7 eabc
00000340: 36b4 5e3c 7da6 0a3e 15ad 0cbd 42d2 2c3d
00000350: a120 d73c f73e c9bd a4f3 79bd 2fb2 a8bd
00000360: ccd6 db3d fa4f dfbc 5528 8f3c bff8 33bd
00000370: d056 f7bc 3382 c6bd 4072 e83d 0936 9fbd
00000380: 9dd6 bd3d d4e4 47bc 5558 413d 6b05 d6bc
00000390: ed02 1c3d 0127 04bd d4f2 cc3d fe7d a13c
000003a0: 9ca6 043e b988 e83b d626 743d 0585 a53d
000003b0: c112 16be 099b ca3c 972e f73c a2ab 23bd
000003c0: b4e8 a23c c05b 2a3c 1973 03bd 5933 8e3d
000003d0: 9a50 e8bc 2e42 0cbd 60e0 05be 33f2 843d
000003e0: 40df d33d e592 adbd 0c7e ee3c c2b5 debd
000003f0: 6aca 573c 4790 1b3d fab1 963d ad22 09bd

a2c_network.mu.bias f4 [18]
-0.044327445 -0.045077696 0.011033586 0.036132954 -0.00082795555 0.019733567 0.07713775 0.060611404
0.035042495 0.03270454 0.07660904 0.075044364 -0.060838096 -0.035217937 -0.061602205 -0.07745635
-0.07495473 -0.06708929
00000000: b290 35bd 64a3 38bd 37c6 343c 2600 143d
00000010: 280b 59ba 4aa8 a13c 66fa 9d3d aa43 783d
00000020: b888 0f3d 32f5 053d 33e5 9c3d dcb0 993d
00000030: 5e31 79bd af40 10bd 9852 7cbd 6fa1 9ebd
00000040: de81 99bd 1c66 89bd

exp_avg f4 [18]
0.0024736973 0.0013036045 0.0019423602 0.0031259027 0.00041997008 0.003358608 -0.00011694501 0.001976093
0.0029268425 0.0016235131 -0.0003289417 -0.0012176604 -0.0008521853 0.0024923463 0.0006630051 -0.0005035465
-0.0022217764 -0.0029814201
00000000: c11d 223b b5dd aa3a cb96 fe3a f2db 4c3b
00000010: 6e2f dc39 181c 5c3b 6040 f5b8 5781 013b
00000020: 45d0 3f3b 0fcc d43a cf75 acb9 e799 9fba
00000030: 3065 5fba a256 233b 85cd 2d3a 6f00 04ba
00000040: 399b 11bb ee63 43bb

exp_avg_sq f4 [18]
4.2728916e-05 4.5388333e-05 4.8248763e-05 0.00017262761 8.1169506e-05 8.094698e-05 3.8882692e-05 3.9399674e-05
4.0798735e-05 6.821672e-05 4.0868945e-05 4.1994903e-05 4.360981e-05 3.719136e-05 4.1727177e-05 3.7349037e-05
4.288728e-05 4.1500603e-05
00000000: d337 3338 5a5f 3e38 b75e 4a38 5f03 3539
00000010: 8c39 aa38 14c2 a938 f915 2338 1441 2538
00000020: 4f1f 2b38 930f 8f38 b26a 2b38 af23 3038
00000030: ade9 3638 ebfd 1b38 3704 2f38 39a7 1c38
00000040: dee1 3338 ef10 2e38

exp_avg f4 [128, 66]
4.28263e-06 2.146121e-06 -4.7336507e-05 -1.258798e-05 -2.4498611e-05 7.981273e-05 1.9071687e-06 1.4803599e-06
0.00025904967 0.00010538937 2.8698025e-05 -3.1976135e-05 -3.1413518e-05 -5.5426135e-05 -4.0901563e-05 3.1909734e-05
6.1001592e-05 -1.4839716e-06 6.379651e-06 1.9899353e-05 2.820015e-05 -1.7947935e-06 3.344876e-06 2.9355711e-05
-1.3355174e-05 3.3107597e-05 -3.1100244e-05 -1.4284555e-05 -2.5981066e-05 -1.831641e-05 0.0003937239 -0.0005588332
-0.0008236217 0.0001139261 -0.00030009303 -0.00056397414 -0.0004224898 -0.00091097725 -0.00043332324 -0.0005419082
5.643058e-05 0.0001496471 -0.0005334613 -0.00016041109 -3.2029424e-05 -0.00026055338 -0.0005682756 -0.00039158054
-4.9518535e-06 -0.00016579057 -0.00015113248 7.426803e-05 9.8713965e-05 -4.6583657e-05 2.8638575e-05 3.7755248e-07
-1.6762409e-06 -3.221096e-05 7.121538e-06 0.00011476324 -5.514197e-05 6.2786734e-05 -6.255205e-05 -5.35163e-05
-9.6506694e-05 -5.611443e-05 -5.4305233e-06 -1.22889005e-05 -5.7795087e-06 -3.254034e-05 -1.2440672e-05 3.4536857e-05
3.356356e-07 1.5996202e-06 -2.2368988e-05 0.00028590485 1.9290146e-06 0.00024804604 -0.00021381456 3.35262e-05
-3.1958853e-06 -1.2128143e-05 -7.133579e-05 -0.0001716245 -3.425689e-05 -5.757716e-05 -2.9558998e-05 -4.552968e-05
-3.712619e-05 -4.9303857e-05 -4.2636708e-05 -1.149142e-05 -4.915688e-07 3.3205753e-05 -2.439529e-05 2.6792108e-05
-0.00013020619 0.00065150164 0.0018211686 -0.00068800105 -0.0016613996 -0.00081251876 -0.0006279611 -0.0006014079
-0.0009145032 0.0002999729 -0.000700164 -0.00097189035 0.0012571962 0.0004872389 0.001904165 0.00062101695
0.00042092637 0.0012865447 -0.00039210706 0.00010254098 0.00013487175 -6.472623e-05 -0.00028569947 -0.0004087446
-0.0001061394 -1.7089043e-05 -0.00016003028 -1.18172575e-05 -7.603649e-05 -0.00015232991 7.759563e-07 8.2644474e-05
0.00013372645 0.000120246514 -2.3037235e-05 0.00013868372 4.2297097e-06 1.1450681e-05 -0.00017031118 -1.7335731e-05
1.416453e-05 4.927747e-05 9.672799e-07 6.7425293e-07 -0.000255205 -0.00013312645 -0.00025269677 -7.833621e-05
1.761877e-05 -6.68822e-05 -8.0368336e-05 9.98334e-05 0.00010144507 0.00011863771 8.091173e-05 8.94593e-05
7.077385e-05 3.4133518e-05 7.025323e-05 7.423284e-05 -5.2980173e-05 2.2842437e-06 -9.124817e-05 -0.00011182192
-8.1707076e-05 -9.5252646e-05 -0.0009651116 -0.0007950318 -0.0009075102 0.00070955965 0.0011471739 -0.0006557525
0.00052825874 -0.000111559304 -0.00037471918 -0.0005813036 -0.00022254622 0.0005615065 -0.00024817986 0.00016260336
-0.0009262893 -0.0012332621 -0.00082457415 -0.00084982405 -1.8468152e-05 -0.00018482012 -0.00020762121 0.00024344842
0.0002902824 0.00019391756 0.0001761008 8.191433e-05 0.000111798756 2.6815593e-05 0.00012640224 0.00020939323
-0.00011186674 -5.5583578e-06 -0.00024835774 -0.00032213502 -0.00021745905 -0.00024682452 -3.3242848e-06 -9.416933e-06
4.9969294e-06 1.0012548e-05 -5.2061285e-05 -3.154861e-05 -1.105835e-06 -7.84568e-07 -6.7464796e-05 0.0003059649
-0.00016029172 0.00012107616 -9.171838e-05 9.3622664e-05 -1.4124633e-05 5.4383618e-06 -6.1731596e-05 -8.815451e-05
-5.8720903e-05 1.50871e-05 -7.474463e-06 -1.8565843e-05 -2.9101545e-06 -5.0323633e-05 -3.7579786e-05 3.4179146e-05
-1.2981842e-05 1.04489745e-05 -1.8651011e-05 -2.1192456e-05 0.0003694775 0.0009545128 0.0007023717 0.00014116104
-0.0012309798 -0.00026073158 -0.0012605228 -0.00090194214 -0.0007988611 -4.632673e-05 -0.00010614758 -0.000673287
0.00074061303 -0.00013380937 -5.0448667e-05 -0.00011333158 0.00036077877 0.0015241829 -0.000112605456 0.00022805206
1.4714672e-05 2.4117982e-05 -0.00023475039 -0.00019573342 -0.00017812318 -5.0386375e-06 -7.997293e-05 3.8508748e-05
00000000: 83b3 8f36 1406 1036 308b 46b8 f630 53b7
00000010: 5e82 cdb7 2261 a738 d1f9 ff35 c7b0 c635
00000020: 0fd1 8739 7d04 dd38 8abc f037 1d1e 06b8
00000030: 02c2 03b8 5c79 68b8 b88d 2bb8 d1d6 0538
00000040: f6db 7f38 e02c c7b5 c910 d636 89ed a637
00000050: 5c8f ec37 a3e4 f0b5 8878 6036 e940 f637
00000060: 0910 60b7 03dd 0a38 a271 02b8 b2a7 6fb7
00000070: eaf1 d9b7 31a6 99b7 ba6c ce39 a97e 12ba
00000080: 51e8 57ba 9ceb ee38 ce55 9db9 aad7 13ba
00000090: 9f81 ddb9 a6ce 6eba a92f e3b9 d80e 0eba
000000a0: e0af 6c38 96ea 1c39 fbd7 0bba 0634 28b9
000000b0: 5557 06b8 e29a 88b9 54f8 14ba 0d4d cdb9
000000c0: 1928 a6b6 11d8 2db9 5179 1eb9 58c0 9b38
000000d0: a804 cf38 d262 43b8 df3c f037 6bb2 ca34
000000e0: 33fb e0b5 411a 07b8 8cf5 ee36 0cad f038
000000f0: 3d48 67b8 5fac 8338 602e 83b8 b176 60b8
00000100: a363 cab8 695c 6bb8 d737 b6b6 6d2c 4eb7
00000110: 9aed c1b6 ed7b 08b8 48b8 50b7 abdb 1038
00000120: 6831 b434 88b2 d635 09a5 bbb7 80e5 9539
00000130: 3874 0136 2d0c 8239 6933 60b9 7c9e 0c38
00000140: e478 56b6 fa79 4bb7 1c9a 95b8 1af6 33b9
00000150: 0eaf 0fb8 017f 71b8 77f5 f7b7 1ff7 3eb8
00000160: f1b7 1bb8 9dcb 4eb8 d1d4 32b8 46cb 40b7
00000170: 5af4 03b5 6846 0b38 7da4 ccb7 9dbf e037
00000180: f587 08b9 89c9 2a3a 47b4 ee3a f85a 34ba
00000190: 52c3 d9ba 36ff 54ba c29d 24ba cda7 1dba
000001a0: 45bb 6fba ae45 9d39 368b 37ba 75c6 7eba
000001b0: 81c8 a43a 1974 ff39 2d95 f93a becb 223a
000001c0: c8af dc39 47a1 a83a b893 cdb9 450b d738
000001d0: 5c6c 0d39 a1bd 87b8 efc9 95b9 c64c d6b9
000001e0: 2897 deb8 715a 8fb7 cdcd 27b9 bc42 46b7
000001f0: c875 9fb8 c0ba 1fb9 504b 5035 6a51 ad38
00000200: ec38 0c39 db2c fc38 1640 c1b7 a16b 1139
00000210: eeec 8d36 4d1c 4037 8f95 32b9 336c 91b7
00000220: 31a4 6d37 48af 4e38 7cd3 8135 4ffe 3435
00000230: 09cd 85b9 dc97 0bb9 637c 84b9 6f48 a4b8
00000240: 05cc 9337 1c43 8cb8 6c8b a8b8 a65d d138
00000250: e8be d438 23cd f838 27af a938 199c bb38
00000260: 6c6c 9438 962a 0f38 ea54 9338 74ad 9b38
00000270: 0737 5eb8 024b 1936 7d5c bfb8 f081 eab8
00000280: 275a abb8 60c2 c7b8 8bff 7cba ae69 50ba
00000290: fbe5 6dba be01 3a3a c55c 963a cee6 2bba
000002a0: d87a 0a3a f2f4 e9b8 f575 c4b9 a062 18ba
000002b0: 4c5b 69b9 1032 133a 231e 82b9 8280 2a39
000002c0: 39d2 72ba 69a5 a1ba 3c28 58ba bac6 5eba
000002d0: 0eec 9ab7 46cc 41b9 e5b4 59b9 3046 7f39
000002e0: 0b31 9839 5956 4b39 b3a7 3839 6cc9 ab38
000002f0: 8075 ea38 0cf2 e037 d88a 0439 9190 5b39
00000300: 009a eab8 ee81 bab6 0336 82b9 3be4 a8b9
00000310: b805 64b9 3a68 81b9 c716 5fb6 6bfd 1db7
00000320: 4cab a736 91fb 2737 615c 5ab8 1053 04b8
00000330: 346c 94b5 1a9b 52b5 e37b 8db8 ea69 a039
00000340: fb13 28b9 45ea fd38 ee58 c0b8 4957 c438
00000350: d6f8 6cb7 2c7b b636 e675 81b8 98df b8b8
00000360: 174b 76b8 9a1e 7d37 26cd fab6 d8bd 9bb7
00000370: 134c 43b6 9712 53b8 fd9e 1db8 945b 0f38
00000380: 96cc 59b7 014e 2f37 be74 9cb7 74c6 b1b7
00000390: 6eb6 c139 4538 7a3a 5e1f 383a a104 1439
000003a0: d458 a1ba cdb2 88b9 2038 a5ba 5070 6cba
000003b0: a96a 51ba f34e 42b8 8c9b deb8 877f 30ba
000003c0: b325 423a 2e4f 0cb9 d898 53b8 6eac edb8
000003d0: e826 bd39 17c7 c73a 9826 ecb8 4221 6f39
000003e0: 09df 7637 f950 ca37 5427 76b9 ca3d 4db9
000003f0: 94c6 3ab9 9111 a9b6 24b7 a7b8 7484 2138
