logs/rl_games/hexapod_flat_direct/2025-11-14_22-48-05/nn/last_hexapod_flat_direct_ep_50_rew_-0.73445445.pth (torch, 545806 bytes, 33 tensors)

value_mean_std.running_mean f8 [1]
-0.6752318154337628
00000000: 0b37 90c0 7f9b e5bf

value_mean_std.running_var f8 [1]
0.09792035986651877
00000000: 6d3f 3d07 4f11 b93f

value_mean_std.count f8 []
9830401.0
00000000: 0000 0020 00c0 6241

a2c_network.sigma f4 [18]
0.096469246 0.10735017 0.057273835 -0.15025584 0.03784779 0.05915847 -0.19248597 -0.120148316
-0.13959752 -0.17269352 -0.059903126 -0.16063966 -0.0038532282 -0.0068139723 0.00089918653 -0.034671072
0.0024192543 -0.029856442
00000000: ab91 c53d 68da db3d f897 6a3d abdc 19be
00000010: 4906 1b3d 2750 723d 0b1b 45be 5210 f6bd
00000020: a7f2 0ebe 92d6 30be fb5c 75bd b97e 24be
00000030: 7186 7cbb be47 dfbb 63b7 6b3a 4103 0ebd
00000040: 5a8c 1e3b 7f95 f4bc

a2c_network.actor_mlp.0.weight f4 [128, 66]
0.14164218 -0.18466339 -0.07158064 -0.200113 0.0387889 0.06415379 0.01155695 -0.09416571
-0.1708332 -0.23488116 -0.31300917 0.080802545 -0.041129205 0.2998681 0.09225155 -0.35091296
0.1528896 0.009675621 0.08345805 -0.024301715 0.05586105 -0.030300716 -0.067082584 0.04942457
0.043922756 -0.0075169336 0.109016106 0.083173275 -0.083895884 -0.10174417 0.05820498 -0.04892008
-0.02015801 -0.10424289 -0.025117587 0.025743473 0.010178209 -0.0862105 -0.028141811 -0.10044337
-0.11505098 -0.042362053 -0.09605601 -0.037365347 0.11807624 0.019882739 -0.0052211415 -0.0841642
-0.12322555 0.035357513 0.107291155 -0.1908538 0.0015187444 -0.080106884 0.01655865 -0.05487152
-0.060848087 -0.0047462303 -0.076258704 -0.039878756 -0.06102306 -0.04090475 0.10897875 -0.080727324
0.11082694 0.019485487 -0.0022223017 0.066890724 -0.09065653 -0.11333335 -0.16917135 -0.12823097
0.021854118 -0.0043649 0.00049390935 -0.12225683 0.13044134 -0.10547148 0.022914987 0.0065599843
0.051156364 0.2069232 0.053156503 0.045490883 0.024493426 -0.11104652 -0.020004945 -0.10703999
0.034244306 -0.14500985 0.11554336 0.08008432 0.111050785 -0.040667564 0.14217274 0.054299027
0.016941546 -0.08229521 0.062586024 -0.044951092 -0.04162351 0.10378936 0.04051122 -0.04608028
-0.044275764 -0.014984387 0.08874075 -0.04034671 -0.048560724 -0.02516148 -0.06948234 0.038080417
0.089533344 -0.10921759 0.04988012 0.073671535 0.02431403 -0.0065437844 0.055433262 0.11256341
0.03166162 -0.08580626 0.025245303 0.09580289 -0.12534942 -0.06787269 0.07585105 0.17297563
-0.020330267 -0.07877886 0.012133945 -0.042810414 -0.019212874 0.11176973 -0.14892867 -0.05092202
0.082026124 0.004227261 -0.028487725 -0.10206757 -0.15312019 -0.101592354 0.0014222877 0.16543171
0.14276965 0.03995472 -0.15069321 -0.04350977 -0.048796237 0.070960544 0.0108259935 -0.07866344
0.013358858 -0.12640221 -0.109406665 0.026409078 -0.0032559952 -0.0014649351 -0.05823148 0.10526567
0.15297645 0.0836838 -0.0823019 -0.11004053 -0.09870634 0.10984484 0.02450296 0.10784449
0.06091407 0.04747396 -0.008952615 -0.08712234 -0.11725025 -0.1193224 0.0520825 -0.07668087
-0.028223485 -0.079136774 -0.0024865016 -0.063791804 -0.061707273 0.03261213 -0.116861984 0.08914991
-0.07106625 -0.07749358 -0.0039295265 -0.097316265 -0.04882387 -0.1927264 0.09916553 -0.14046834
0.011256618 0.052325074 0.075734444 -0.08109559 0.08910068 -0.03234696 -0.014822837 0.27475908
-0.06423706 -0.009671673 0.09953414 -0.21185498 0.3324844 -0.14652058 0.10301452 0.06469202
0.10775552 0.0059157284 0.002239206 0.003193979 0.09615693 -0.11210775 -0.08716752 -0.08541522
0.08361659 0.07964779 0.0799522 0.07075691 0.09060032 0.20093805 -0.010737494 -0.13132264
-0.19398715 -0.123797484 -0.20650527 -0.28239763 0.035166334 -0.05235569 -0.050981242 -0.010420456
-0.030003695 -0.021346034 0.009643672 -0.032387614 -0.060885444 -0.053690195 -0.08716959 0.10703987
-0.038772423 0.02933496 -0.04041283 -0.030339912 0.06659712 0.035207015 -0.08647359 0.033249307
0.17436533 0.041361287 0.093160436 0.12468117 -0.021202853 -0.0035122056 -0.18946876 -0.06409094
00000000: a60a 113e 6618 3dbe df98 92bd 6cea 4cbe
00000010: 1ce1 1e3d 1063 833d 5d59 3d3c f4d9 c0bd
00000020: e6ee 2ebe b084 70be bd42 a0be ce7b a53d
00000030: 1977 28bd 5088 993e 61ee bc3d ddaa b3be
00000040: 178f 1c3e 7f86 1e3c 0eec aa3d 6414 c7bc
00000050: 8ece 643d 3539 f8bc 9862 89bd 6b71 4a3d
00000060: 59e8 333d 9c50 f6bb d643 df3d c056 aa3d
00000070: 9bd1 abbd 3f5f d0bd 5868 6e3d 6c60 48bd
00000080: 6922 a5bc 4c7d d5bd 66c3 cdbc fae3 d23c
00000090: 81c2 263c 218f b0bd a889 e6bc 41b5 cdbd
000000a0: d99f ebbd d583 2dbd 03b9 c4bd 680c 19bd
000000b0: f5d1 f13d 20e1 a23c 1c16 abbb 485e acbd
000000c0: ad5d fcbd 0ad3 103d 77bb db3d 2e6f 43be
000000d0: 9b10 c73a 140f a4bd 02a6 873c f5c0 60bd
000000e0: d83b 79bd 4486 9bbb 862d 9cbd e857 23bd
000000f0: 51f3 79bd bd8b 27bd 4030 df3d 5e54 a5bd
00000100: 3cf9 e23d 07a0 9f3c 09a4 11bb 01fe 883d
00000110: 21aa b9bd 511b e8bd 413b 2dbe fb4e 03be
00000120: 6807 b33c 6f07 8fbb b279 013a ca61 fabd
00000130: 6a92 053e 6e01 d8bd 36b8 bb3c 23f5 d63b
00000140: 5689 513d ade3 533e a2ba 593d a654 3a3d
00000150: 70a6 c83c 5c6c e3bd 69e1 a3bc c837 dbbd
00000160: c243 0c3d 767d 14be ffa1 ec3d 3f03 a43d
00000170: 986e e33d 0893 26bd bb95 113e a868 5e3d
00000180: ffc8 8a3c 648a a8bd 1a2d 803d a31e 38bd
00000190: 6a7d 2abd 848f d43d 18ef 253d adbe 3cbd
000001a0: 815a 35bd 1381 75bc b6bd b53d 9742 25bd
000001b0: 9ce7 46bd 731f cebc c24c 8ebd 36fa 1b3d
000001c0: 425d b73d 79ad dfbd 194f 4c3d 1ae1 963d
000001d0: 372e c73c 3e6d d6bb fd0d 633d a587 e63d
000001e0: 9daf 013d 31bb afbd 3dcf ce3c 4e34 c43d
000001f0: 995b 00be d600 8bbd cc57 9b3d 8620 313e
00000200: a98b a6bc d056 a1bd 74cd 463c f959 2fbd
00000210: 5164 9dbc 87e7 e43d c280 18be 9c93 50bd
00000220: 50fd a73d d684 8a3b 175f e9bc cd08 d1bd
00000230: 8acb 1cbe a70f d0bd 0e6c ba3a ee66 293e
00000240: 3532 123e 8fa7 233d 524f 1abe 4d37 32bd
00000250: 90de 47bd c353 913d 825f 313c 4c1a a1bd
00000260: 1ddf 5a3c 956f 01be 9a10 e0bd da57 d83c
00000270: 8962 55bb 1103 c0ba 2284 6ebd 8795 d73d
00000280: dca5 1c3e 6a62 ab3d e68d a8bd ee5c e1bd
00000290: 8d26 cabd 55f6 e03d 6eba c83c 92dd dc3d
000002a0: 0881 793d 0e74 423d fdad 12bc 336d b2bd
000002b0: e620 f0bd 4d5f f4bd 7654 553d dc0a 9dbd
000002c0: f034 e7bc 7612 a2bd 93f4 22bb 47a5 82bd
000002d0: c4c0 7cbd 4c94 053d 5655 efbd 3a94 b63d
000002e0: 2f8b 91bd f4b4 9ebd 42c3 80bb c04d c7bd
000002f0: 8afb 47bd 125a 45be 4c17 cb3d efd6 0fbe
00000300: ae6d 383c d152 563d a91a 9b3d 7215 a6bd
00000310: 6b7a b63d 3f7e 04bd 7cdb 72bc 39ad 8c3e
00000320: b88e 83bd f075 1ebc 8ed8 cb3d 83f0 58be
00000330: 653b aa3e 7e09 16be 47f9 d23d 407d 843d
00000340: edae dc3d bad8 c13b a5bf 123b 1352 513b
00000350: eded c43d bf98 e5bd e284 b2bd 2dee aebd
00000360: 2d3f ab3d 611e a33d fbbd a33d 00e9 903d
00000370: a98c b93d b4c2 4d3e 50ec 2fbc 7179 06be
00000380: 91a4 46be 8989 fdbd 1e76 53be 6c96 90be
00000390: 930a 103d ec72 56bd b5d1 50bd 8fba 2abc
000003a0: 4fca f5bc e1dd aebc 7e00 1e3c e0a8 04bd
000003b0: 0463 79bd 40ea 5bbd f885 b2bd b837 db3d
000003c0: d5cf 1ebd df4f f03c ec87 25bd 688b f8bc
000003d0: 1264 883d 3b35 103d 1119 b1bd 6d30 083d
000003e0: d38c 323e 746a 293d e6ca be3d d758 ff3d
000003f0: 9bb1 adbc 082d 66bb 1904 42be 1c42 83bd

a2c_network.actor_mlp.0.bias f4 [128]
0.048998613 0.047314897 0.07758648 -0.026607862 0.08463191 -0.09357267 0.01825488 0.11635184
0.030801523 0.023053145 0.06938819 0.074861966 -0.029869732 0.06621817 -0.06100001 0.07430528
0.035620753 0.0310484 0.108762056 0.08442099 0.03869477 0.03276999 0.05986481 0.053362828
0.037863344 0.05537316 -0.030143857 0.08136636 0.07489152 0.019709822 0.084080465 -0.048222054
0.0850235 0.061519325 -0.09431859 0.024438174 0.004183571 0.071431056 -0.014660274 0.0018279717
0.061091147 0.05471348 -0.0015137797 0.03189134 -0.056055564 0.10072516 -0.07637707 0.028014442
0.08317208 0.04947763 -0.063946225 0.05777824 0.0027400686 0.05508503 -0.07332696 0.05837973
0.07767302 0.0017246449 0.069093026 0.10876391 0.074053325 0.038488355 0.09494362 -0.020237816
0.02775941 0.09340387 0.14026281 0.0792006 0.13662322 0.041428212 0.100822255 0.013007288
0.06654056 0.016793318 0.10389653 -0.06053856 -0.11651971 0.06698136 0.0029514846 -0.058638763
-0.108337395 -0.024724126 0.0015437058 0.09143934 0.08981744 0.056352537 -0.022716323 0.063470125
-0.099596374 0.10024796 0.08188592 -0.03281855 0.030820148 0.113713965 0.030062733 0.049970854
0.10944774 -0.06631326 -0.008911903 0.03520083 0.056506597 -0.13058086 0.0963296 0.019083258
0.072111756 0.05899814 0.15837763 0.04618817 0.10475673 0.039842267 0.103020474 0.045225244
0.09496025 0.08361911 0.060895666 0.060270663 0.071594566 0.07287722 0.083591096 0.015712235
0.0950042 -0.008437091 0.09167257 0.021613011 -0.006872514 0.0733696 -0.043958366 0.18178996
00000000: c5b2 483d 44cd 413d a9e5 9e3d bbf8 d9bc
00000010: 7f53 ad3d 07a3 bfbd 428b 953c e049 ee3d
00000020: 7a53 fc3c f3d9 bc3c 651b 8e3d 3b51 993d
00000030: 5eb1 f4bc 649d 873d 26db 79bd 5e2d 983d
00000040: 11e7 113d 3759 fe3c a4be de3d e9e4 ac3d
00000050: 687e 1e3d d339 063d ce34 753d fb92 5a3d
00000060: 9816 1b3d f7ce 623d 40f0 f6bc 68a3 a63d
00000070: ba60 993d 7e76 a13c 6132 ac3d 7d84 45bd
00000080: cd20 ae3d b0fb 7b3d 1b2a c1bd 9132 c83c
00000090: 5616 893b 724a 923d a531 70bc 8d98 ef3a
000000a0: b63a 7a3d 3e1b 603d 056a c6ba 7ea0 023d
000000b0: 859a 65bd fe48 ce3d 956b 9cbd 8b7e e53c
000000c0: 2056 aa3d 0ea9 4a3d 3df6 82bd e0a8 6c3d
000000d0: b992 333b d7a0 613d 722c 96bd 951f 6f3d
000000e0: 0813 9f3d 7b0d e23a a580 8d3d 9dbf de3d
000000f0: 45a9 973d f7a5 1d3d cd71 c23d c7c9 a5bc
00000100: b467 e33c 874a bf3d 0ea1 0f3e ed33 a23d
00000110: f5e6 0b3e a1b0 293d e67b ce3d 851c 553c
00000120: 6b46 883d 2492 893c b4c7 d43d 48f7 77bd
00000130: e3a1 eebd 862d 893d b26d 413b 332f 70bd
00000140: ffdf ddbd 408a cabc 2c56 ca3a 8c44 bb3d
00000150: 35f2 b73d ebd1 663d 9517 babc a0fc 813d
00000160: 2ff9 cbbd cd4e cd3d ceb3 a73d be6c 06bd
00000170: 897a fc3c dee2 e83d 1f46 f63c 3dae 4c3d
00000180: 2326 e03d 3fcf 87bd 3b03 12bc bf2e 103d
00000190: 7673 673d fdb6 05be 7448 c53d 7e54 9c3c
000001a0: 54af 933d 09a8 713d bf2d 223e ce2f 3d3d
000001b0: b28a d63d a531 233d 66fc d23d 1b3e 393d
000001c0: 857a c23d 7f40 ab3d bc6d 793d 5fde 763d
000001d0: 2ca0 923d a740 953d cf31 ab3d f2b6 803c
000001e0: 9091 c23d b93b 0abc d4be bb3d c50d b13c
000001f0: d332 e1bb cd42 963d b00d 34bd 2627 3a3e

a2c_network.actor_mlp.2.weight f4 [128, 128]
-0.006575604 0.049623344 -0.08197194 -0.06288571 -0.048210334 -0.038245413 -0.010891107 -0.03542101
-0.051089592 -0.071549274 0.012034734 -0.008864022 -0.0074619427 0.034041997 -0.093271874 -0.0545363
-0.008895671 -0.08433111 0.018134037 -0.10300722 0.06361496 0.10860561 0.010982221 -0.05466655
0.09728863 -0.07644825 -0.022188542 0.04175094 0.040749867 -0.0052569876 -0.024379916 0.0071213474
-0.12006945 0.007858681 -0.046269305 0.037610646 -0.04720874 0.029871846 -0.054785658 0.04464862
-0.03713421 -0.062173847 -0.14000224 0.07043877 0.015160519 -0.14705047 -0.014777941 0.045056734
-0.038901992 0.04805464 0.015407793 -0.016318228 0.082443684 0.07956038 -0.011924855 0.0021210038
0.02892731 -0.06466273 0.036419034 -0.073694974 -0.060735106 0.015590295 -0.099043645 -0.057627916
-0.056856837 0.046251427 -0.0013829201 -0.07979905 0.06275208 -0.029921839 -0.017487906 0.05167881
-0.052970458 -0.020958807 -0.04718783 -0.0037580514 -0.024748271 0.025490286 -0.037212487 -0.07190747
-0.011821535 0.03827612 0.019627841 -0.005972441 0.0655137 -0.064463325 -0.092511505 -0.14850959
0.03607878 0.039455917 -0.0039556567 -0.11391604 -0.039557822 -0.058663473 0.04816048 0.007736482
-0.07581375 -0.0747975 0.04866757 -0.012488636 0.051747926 -0.04266632 -0.098549 -0.0033544386
0.02057751 0.043938503 0.07150059 0.05427106 0.04051449 -0.055035315 0.065748736 -0.05651104
0.052732516 0.017384702 -0.083536536 -0.03161761 0.008348077 0.07333788 0.05997124 -9.333928e-05
-0.039869595 0.016707806 0.04400464 -0.0848081 0.07470141 0.009109497 0.024394268 0.05029105
0.062246688 -0.09732057 0.029683966 -0.07287865 0.006019074 0.037681337 -0.08287794 -0.08106105
-0.06386174 0.016807942 -0.012922344 -0.043321352 -0.00034964725 -0.04361771 -0.017579524 -0.007483663
0.016093183 -0.010366745 -0.052057605 0.06790069 0.008572088 -0.028248996 0.090118915 0.0065014916
0.013705616 0.056858826 -0.010659696 0.07368554 0.008067578 0.096871264 -0.039575323 0.026686195
0.017961342 -0.021380167 0.08816633 -0.016107976 0.07121611 -0.11020354 -0.032391764 0.038703837
-0.052501645 0.0054280916 0.12643443 -0.08688555 0.011366004 -0.032648195 0.053908512 -0.03623136
-0.097784914 -0.08395789 0.025151245 -0.07204249 -0.1002417 -0.007334569 0.012235148 -0.08586384
-0.017309906 0.07753677 -0.05553427 -0.10157003 -0.04127125 0.092770495 -0.0025354119 -0.053198304
-0.078665696 -0.042416368 0.056501124 0.0044248714 -0.049038045 -0.0890491 -0.08452369 0.022727214
0.03418712 0.09050305 -0.024690984 0.03930041 0.017629735 -0.017748164 0.0644144 0.012739834
0.06577167 0.0077426457 0.01592543 -0.020590002 0.09242487 -0.07597984 0.040987063 -0.09811437
-0.015185679 -0.08175504 -0.030054173 0.0104630785 -0.14513281 0.05916547 0.020881906 0.11299967
-0.051010117 -0.09451563 0.003668112 0.04955053 0.041485503 0.06939849 0.004877026 0.046677623
-0.08233528 -0.09842039 -0.12493742 -0.07156026 0.020976067 0.06405188 0.04784236 -0.06680848
0.0200294 0.10664612 -0.0012867396 -0.0042901244 -0.06578611 0.0018503735 0.04709467 -0.012076866
-0.026385082 0.06850489 -0.022517873 -0.030328995 0.010150509 0.054849967 0.028546577 -0.042052336
00000000: 2a78 d7bb d941 4b3d e8e0 a7bd 39ca 80bd
00000010: 3378 45bd 39a7 1cbd 9d70 32bc 9f15 11bd
00000020: 5243 51bd 6d88 92bd 552d 453c 673a 11bc
00000030: 5083 f4bb 9f6f 0b3d 5305 bfbd 7561 5fbd
00000040: 26bf 11bc cab5 acbd d58d 943c 73f5 d2bd
00000050: 8f48 823d 9e6c de3d c6ee 333c 08ea 5fbd
00000060: 433f c73d e690 9cbd bfc4 b5bc 0903 2b3d
00000070: 55e9 263d cf42 acbb 64b8 c7bc 315a e93b
00000080: f9e6 f5bd b2c1 003c e284 3dbd 9f0d 1a3d
00000090: f45d 41bd cdb5 f43c ed66 60bd 79e1 363d
000000a0: 0b1a 18bd 01aa 7ebd bf5c 0fbe 3442 903d
000000b0: d363 783c 6694 16be 2d1f 72bc 698d 383d
000000c0: b257 1fbd f1d4 443d f870 7c3c cead 85bc
000000d0: 3cd8 a83d 8df0 a23d 7860 43bc 8a00 0b3b
000000e0: f7f8 ec3c e56d 84bd 202c 153d 64ed 96bd
000000f0: 60c5 78bd 706e 7f3c 65d7 cabd 400b 6cbd
00000100: b7e2 68bd 2372 3d3d 1943 b5ba af6d a3bd
00000110: 2a84 803d a51e f5bc cc42 8fbc 29ad 533d
00000120: 8df7 58bd ceb1 abbc 0748 41bd a449 76bb
00000130: e3bc cabc 01d1 d03c 1f6c 18bd 3944 93bd
00000140: 1daf 41bc 6cc7 1c3d 91ca a03c 77b4 c3bb
00000150: 0c2c 863d 5905 84bd ac76 bdbd e612 18be
00000160: 58c7 133d 879c 213d 749e 81bb d04c e9bd
00000170: 6207 22bd 1c49 70bd ec43 453d 5182 fd3b
00000180: 3d44 9bbd 6f2f 99bd a557 473d 239d 4cbc
00000190: a2f5 533d e1c2 2ebd 0fd4 c9bd 24d6 5bbb
000001a0: 2b92 a83c dcf8 333d e76e 923d 554b 5e3d
000001b0: 86f2 253d b66c 61bd 46a7 863d 1f78 67bd
000001c0: 0dfe 573d 5d6a 8e3c 3415 abbd 7881 01bd
000001d0: 5fc6 083c 2c32 963d 67a4 753d 25bf c3b8
000001e0: 4d4e 23bd cfde 883c 363e 343d deaf adbd
000001f0: 0efd 983d 0040 153c 7dd6 c73c fdfd 4d3d
00000200: 62f6 7e3d 0250 c7bd ca2b f33c 6741 95bd
00000210: a73b c53b bf57 1a3d e9bb a9bd 5603 a6bd
00000220: f2c9 82bd cfb0 893c 3db8 53bc bb71 31bd
00000230: dc50 b7b9 7ca8 32bd ef02 90bc 8439 f5bb
00000240: dad5 833c 48d9 29bc 5b3a 55bd 840f 8b3d
00000250: f171 0c3c 706a e7bc 4490 b83d 770a d53b
00000260: 858d 603c cde4 683d 01a6 2ebc 72e8 963d
00000270: e02d 043c 7164 c63d bc19 22bd 029d da3c
00000280: aa23 933c 7625 afbc 8c90 b43d e0f4 83bc
00000290: c0d9 913d 65b2 e1bd 3aad 04bd ea87 1e3d
000002a0: f70b 57bd 22de b13b 0778 013e 0df1 b1bd
000002b0: 7a38 3a3c 1dba 05bd 2ccf 5c3d 5667 14bd
000002c0: 7543 c8bd 1df2 abbd fc09 ce3c 038b 93bd
000002d0: 854b cdbd d356 f0bb ee75 483c 62d9 afbd
000002e0: 81cd 8dbc 99cb 9e3d e777 63bd f303 d0bd
000002f0: 0b0c 29bd 75fe bd3d 2729 26bb 77e6 59bd
00000300: 7b1b a1bd c9bc 2dbd b96d 673d 83fe 903b
00000310: 1edc 48bd 605f b6bd c21a adbd 6c2e ba3c
00000320: cb07 0c3d aa59 b93d bf44 cabc 77f9 203d
00000330: 3c6c 903c 9964 91bc b2eb 833d bdba 503c
00000340: 4cb3 863d 05b6 fd3b 0c76 823c 5dac a8bc
00000350: 4049 bd3d 519b 9bbd 0de2 273d 30f0 c8bd
00000360: 5bcd 78bc 306f a7bd 2b34 f6bc 556d 2b3c
00000370: b29d 14be 7e57 723d 8810 ab3c 5f6c e73d
00000380: fcef 50bd 6991 c1bd b564 703b 7ff5 4a3d
00000390: b4ec 293d cc20 8e3d 76cf 9f3b 0931 3f3d
000003a0: 669f a8bd a190 c9bd 31df ffbd 308e 92bd
000003b0: 00d6 ab3c a22d 833d 5af6 433d e2d2 88bd
000003c0: b214 a43c 4869 da3d d1a7 a8ba 2c94 8cbb
000003d0: deba 86bd 3b88 f23a 57e6 403d 0cde 45bc
000003e0: 8725 d8bc 4b4c 8c3d 6777 b8bc 8374 f8bc
000003f0: 524e 263c 5caa 603d 83da e93c 123f 2cbd

a2c_network.actor_mlp.2.bias f4 [128]
-0.0014738605 -0.06981345 0.009644693 7.616167e-06 0.047780655 0.026241433 0.02794151 0.061760616
-0.06300659 -0.021565748 -0.0793157 -0.021680957 0.008120887 -0.05192505 -0.048868902 -0.056085873
0.021602262 -0.060087964 0.012492025 -0.02396066 -0.09579731 0.052711893 -0.027770199 -0.049686573
-0.11261456 -0.0069891256 -0.011593177 -0.0012682667 -0.12491429 0.040470485 0.0034082106 -0.048895303
0.034031823 0.04987338 0.042829137 -0.09381227 0.009794303 0.032088775 -0.12467266 0.0071038515
0.012885042 0.0023773585 0.014602267 0.02282291 -0.0057408987 -0.020630417 -0.09777752 -0.036934786
-0.0045151766 0.01408121 0.00251795 -0.073427215 -0.018865978 0.050351504 -0.09149476 -0.009591086
0.039456572 -0.004448318 0.0826766 -0.046415444 -0.07798141 0.049387746 0.047624525 0.02531241
-0.020956123 -0.026781552 0.06739539 -0.004027715 0.001958175 0.028315067 0.056575153 -0.013207823
0.048006024 -0.07544872 0.026773896 -0.13717215 -0.09394327 -0.07988305 -0.019493498 0.050148033
0.036918756 -0.00013464749 0.00963008 -0.067206144 -0.06385627 0.05116365 -0.044016134 -0.041803394
0.038290843 0.007311208 -0.020728778 -0.030714165 0.026597405 0.07532327 0.0568267 -0.034816023
0.02640147 0.012554853 0.018748417 0.060456328 0.02056605 -0.04133804 -0.018419323 0.018027242
0.03856705 0.01722776 0.010132314 0.034142643 0.050334673 -0.03588573 0.039557494 -0.07275219
0.03618222 -0.026542736 0.025754724 -0.027495902 0.050037127 -0.07706817 -0.037671607 -0.006759273
-0.04625979 -0.008857748 0.012636933 0.020479908 -0.0069680936 0.027477428 -0.0044956612 -0.0044339527
00000000: 8d2e c1ba 5bfa 8ebd c604 1e3c 608e ff36
00000010: a6b5 433d 46f8 d63c 98e5 e43c b3f8 7c3d
00000020: 9909 81bd a7aa b0bc 4570 a2bd 439c b1bc
00000030: 780d 053c 5caf 54bd c22a 48bd 4dba 65bd
00000040: 3af7 b03c cc1e 76bd 5aab 4c3c 2549 c4bc
00000050: 6131 c4bd 6de8 573d 547e e3bc 2684 4bbd
00000060: 76a2 e6bd 0905 e5bb 4ff1 3dbc f83b a6ba
00000070: 10d3 ffbd 61c4 253d 495c 5f3b 7146 48bd
00000080: f464 0b3d 0848 4c3d 9b6d 2f3d a620 c0bd
00000090: 4978 203c 856f 033d 6154 ffbd 6dc7 e83b
000000a0: c81b 533c 75cd 1b3b 593e 6f3c 1df7 ba3c
000000b0: 261e bcbb 1f01 a9bc 953f c8bd ee48 17bd
000000c0: 0cf4 93bb e0b4 663c 3104 253b 0261 96bd
000000d0: d38c 9abc 613d 4e3d 9b61 bbbd ee23 1dbc
000000e0: 379d 213d 32c3 91bb 5952 a93d 1f1e 3ebd
000000f0: b8b4 9fbd ce4a 4a3d ef11 433d f95b cf3c
00000100: 2dac abbc fc64 dbbc 9806 8a3d ecfa 83bb
00000110: ba54 003b 00f5 e73c 59bb 673d a065 58bc
00000120: f7a1 443d dc84 9abd ee54 db3c db76 0cbe
00000130: 5465 c0bd b999 a3bd d4b0 9fbc 0668 4d3d
00000140: 1f38 173d 2930 0db9 7cc7 1d3c 60a3 89bd
00000150: 13c7 82bd fa90 513d 434a 34bd 093a 2bbd
00000160: dcd6 1c3d dc92 ef3b 66cf a9bc 469c fbbc
00000170: cde2 d93c 1643 9a3d 1dc3 683d 3f9b 0ebd
00000180: e547 d83c dfb2 4d3c 4896 993c 0ea1 773d
00000190: 227a a83c 1452 29bd 1fe4 96bc dead 933c
000001a0: 7cf8 1d3d 3b21 8d3c 0102 263c 28d9 0b3d
000001b0: bb2b 4e3d eafc 12bd 0a07 223d 1aff 94bd
000001c0: cf33 143d 2770 d9bc 92fb d23c 163f e1bc
000001d0: bbf3 4c3d ebd5 9dbd 8b4d 1abd e47c ddbb
000001e0: e87a 3dbd 1620 11bc 230b 4f3c 7bc5 a73c
000001f0: 9b54 e4bb 5818 e13c 5750 93bb b14a 91bb

a2c_network.actor_mlp.4.weight f4 [128, 128]
0.0073451106 -0.044854943 -0.04167634 0.016673658 0.051126655 -0.10597635 -0.06517802 0.07118964
-0.0450366 0.030749628 0.042442348 0.0015115506 -0.018073117 -0.08358643 -0.008162947 0.020668535
-0.009617103 -0.02785563 -0.048392914 -0.0643308 0.05433944 0.06850853 0.05598328 0.046390697
-0.011524601 0.08351904 0.0059947874 -0.052165102 0.00096671894 -0.07594147 -0.09761176 0.09135517
0.08282772 -0.07725969 -0.04682016 0.06464682 -0.06575898 -0.0015761385 -0.08843394 -0.045386646
-0.040600482 -0.022369346 -0.10589591 -0.06719731 0.026648741 -0.06778931 -0.10777037 0.042653814
0.09341643 -0.03086163 0.0076256017 -0.0038766342 0.028681124 -0.019103177 -0.085604295 0.07610824
-0.06736385 0.03241276 -0.020697668 -0.057549182 -0.0237518 0.021424476 -0.011034055 0.13683607
0.105487786 0.06302411 -0.060226932 -0.06584961 0.09324907 0.023492895 0.07447972 0.08233023
-0.05191896 0.048189476 0.026166715 -0.005089958 -0.05857975 -0.0051632333 0.088885024 0.003607627
0.007819579 0.0067212805 0.05378861 0.051488563 0.0006765685 0.03272191 -0.03127095 -0.0110389665
-0.057325482 0.056454618 0.061784945 -0.040531065 0.054271467 -0.02289096 -0.06193699 0.0028224364
-0.0063159256 -0.037690118 0.09244912 -0.002302753 -0.07804597 -0.01333356 -0.005802736 -0.07936164
0.07405399 0.011164214 0.00016842854 -0.020721179 0.00017637623 -0.0822058 -0.0033725076 -0.0384507
0.037384965 0.0031138433 -0.12319168 -0.08910869 -0.07308814 0.02073687 0.09384067 0.01104534
0.034550745 0.045764763 -0.046146758 0.06148529 -0.06848306 -0.034567505 0.019331815 -0.09577053
0.009276257 0.054541364 -0.017864985 0.01899745 0.0554478 -0.050150864 -0.032947343 0.015942639
-0.04057808 -0.05654099 -0.0010100857 0.06689046 -0.035506733 0.00748099 -0.015347686 0.08099156
0.040422264 -0.033881072 -0.10266796 0.041044563 -0.07131872 -0.03274299 0.07901361 0.029842708
0.0055066585 -0.055453785 -0.025377007 -0.012763394 0.06291427 -0.04061531 -0.028775 0.02845399
-0.067589834 -0.022268472 -0.11532807 -0.013562317 -0.08029993 0.055708393 -0.051339287 -0.09697426
-0.0038782705 -0.05734755 -0.066927835 -0.03561241 0.031149993 -0.0967438 -0.05645327 0.036113787
0.021958806 0.011448223 0.09906144 0.062999055 -0.044707015 0.023966104 -0.02948118 0.06772391
-0.044743963 0.06030332 -0.045157712 -0.045448225 -0.07792999 0.106853575 -0.08547226 -0.017282076
-0.039566584 -0.095060185 -0.0457868 0.059959713 0.05229193 0.028999636 -0.029101025 -0.019818725
-0.030138506 -0.048016217 0.051889297 0.05729099 0.10642562 -0.054318756 0.0016486828 0.0330008
-0.01788486 0.022255499 0.03230062 -0.029902805 0.08256141 0.012315435 0.0027639365 0.06535517
0.078710206 0.03372265 0.05948582 -0.029009903 4.333637e-06 -0.025511509 0.029916454 0.060048975
-0.023795428 0.009753735 -0.041679233 -0.04008068 0.049981885 0.04005733 0.06587364 -0.061682984
-0.042603727 -0.054136895 0.07282652 -0.050611738 0.009031725 -0.0389385 0.028508388 0.08425095
-0.11060274 0.09215356 -0.011755284 0.04198986 -0.057878703 0.04227089 0.097634956 0.017027002
-0.03379836 -0.007561002 -0.057507955 0.040364772 0.04087551 0.02781073 -0.07116561 0.047156267
00000000: 41af f03b d1b9 37bd cfb4 2abd 3297 883c
00000010: 2f6a 513d 210a d9bd 0e7c 85bd e0cb 913d
00000020: 4c78 38bd a5e6 fb3c 07d8 2d3d 391f c63a
00000030: 130e 94bc 5d2f abbd e2bd 05bc 0f51 a93c
00000040: 0e91 1dbc 7d31 e4bc a637 46bd debf 83bd
00000050: 0893 5e3d 334e 8c3d b94e 653d 2c04 3e3d
00000060: aed1 3cbc 080c ab3d ec6f c43b 13ab 55bd
00000070: 696b 7d3a 3487 9bbd ade8 c7bd 6b18 bb3d
00000080: 94a1 a93d 543a 9ebd 7fc6 3fbd 8d65 843d
00000090: a5ac 86bd 6f96 ceba db1c b5bd 59e7 39bd
000000a0: b14c 26bd eb3f b7bc f4df d8bd be9e 89bd
000000b0: 764e da3c 1fd5 8abd b6b6 dcbd c4b5 2e3d
000000c0: 1d51 bf3d 87d1 fcbc 2fe0 f93b 210f 7ebb
000000d0: adf4 ea3c 447e 9cbc 4e51 afbd a3de 9b3d
000000e0: 0ff6 89bd 3ec3 043d 288e a9bc b1b8 6bbd
000000f0: 2393 c2bc 6282 af3c 2ec8 34bc c11e 0c3e
00000100: fb09 d83d c912 813d 84b0 76bd 29dc 86bd
00000110: 5ef9 be3d 2c74 c03c d388 983d c09c a83d
00000120: faa8 54bd 5462 453d 945b d63c aac9 a6bb
00000130: 52f1 6fbd 5730 a9bb 5a09 b63d f06d 6c3b
00000140: b11d 003c 303e dc3b 7251 5c3d ace5 523d
00000150: be5b 313a 6907 063d f815 00bd c8dc 34bc
00000160: 20ce 6abd f53c 673d 3612 7d3d e703 26bd
00000170: c24b 5e3d d385 bbbc a4b1 7dbd a0f8 383b
00000180: d3f5 cebb f460 1abd f755 bd3d c9e9 16bb
00000190: 91d6 9fbd 0175 5abc e124 bebb 5b88 a2bd
000001a0: 9ea9 973d 1cea 363c 319c 3039 76bf a9bc
000001b0: a2f1 3839 845b a8bd 4a05 5dbb 7b7e 1dbd
000001c0: fa20 193d 9f11 4c3b eb4b fcbd 9e7e b6bd
000001d0: 3caf 95bd 5ee0 a93c 8a2f c03d 84f7 343c
000001e0: 1585 0d3d d573 3b3d 6204 3dbd 00d8 7b3d
000001f0: d940 8cbd a896 0dbd c15d 9e3c 5723 c4bd
00000200: 71fb 173c c466 5f3d 9759 92bc 8aa0 9b3c
00000210: 3b1d 633d fe6a 4dbd cbf3 06bd 239a 823c
00000220: 3335 26bd 8697 67bd da64 84ba defd 883d
00000230: 826f 11bd 1823 f53b dc74 7bbc e7de a53d
00000240: d191 253d e1c6 0abd 9443 d2bd 581e 283d
00000250: 8d0f 92bd 831d 06bd e3d1 a13d b278 f43c
00000260: 3371 b43b 8223 63bd 71e3 cfbc 8e1d 51bc
00000270: 32d9 803d 3d5c 26bd 8cb9 ebbc 5818 e93c
00000280: 8a6c 8abd 5f6c b6bc 2031 ecbd 7b34 5ebc
00000290: 4a74 a4bd 7c2e 643d 2549 52bd 719a c6bd
000002a0: 952a 7ebb 44e5 6abd 7611 89bd 52de 11bd
000002b0: 452e ff3c 9d21 c6bd 8b3b 67bd 0dec 133d
000002c0: f4e2 b33c 5491 3b3c b9e0 ca3d a605 813d
000002d0: b41e 37bd 9054 c43c 8482 f1bc d5b2 8a3d
000002e0: 7245 37bd 9d00 773d 4bf7 38bd eb27 3abd
000002f0: c299 9fbd 0cd6 da3d 150c afbd 2493 8dbc
00000300: 9210 22bd eaae c2bd f18a 3bbd 5198 753d
00000310: 1030 563d a590 ed3c 4665 eebc e15a a2bc
00000320: 07e5 f6bc a7ac 44bd df89 543d f5a9 6a3d
00000330: adf5 d93d 587d 5ebd 9d18 d83a d92b 073d
00000340: 4583 92bc 2a51 b63c a84d 043d baf6 f4bc
00000350: f515 a93d aec6 493c 2923 353b eed8 853d
00000360: d132 a13d c320 0a3d 67a7 733d 2da6 edbc
00000370: a969 9136 83fd d0bc 5a13 f53c eaf5 753d
00000380: a1ee c2bc 21ce 1f3c d8b7 2abd a42b 24bd
00000390: ceb9 4c3d 2813 243d c2e8 863d 4ca7 7cbd
000003a0: 3f81 2ebd a6be 5dbd 1226 953d 414e 4fbd
000003b0: cdf9 133c fa7d 1fbd 6c8a e93c c38b ac3d
000003c0: b083 e2bd 01bb bc3d 3c99 40bc 8ffd 2b3d
000003d0: 3812 6dbd 3e24 2d3d d6f4 c73d 367c 8b3c
000003e0: 2670 0abd 48c2 f7bb 768d 6bbd 8855 253d
000003f0: 146d 273d 54d3 e33c 46bf 91bd ee26 413d

a2c_network.actor_mlp.4.bias f4 [128]
0.015804134 0.0066105123 -0.019893395 -0.047531284 -0.07739447 -0.00464886 0.048082076 0.034987368
0.03309703 0.047255445 0.0064968164 -0.046115637 -0.025584541 0.04748474 -0.053453524 -0.017725611
-0.022127997 -0.02243878 -0.05136306 -0.03909359 0.035457402 0.014574493 0.02485493 -0.0033994496
-0.024015933 -0.0039064847 -0.088362746 -0.026483381 0.05182971 0.041774467 0.009474916 0.022909017
0.06833261 -0.053855926 -0.005514461 -0.079687625 0.044094887 0.059409596 0.004467022 -0.040691454
0.025189564 0.003422565 0.045009088 -0.025015937 0.0136530595 0.034130163 -0.053914692 0.08836204
0.051277675 0.069795206 -0.051912513 -0.06261895 0.055565298 -0.054379366 0.056543004 -0.07920261
0.045313522 -0.03412164 -0.07069306 0.049456507 0.041225575 -0.0063816197 -0.023636248 0.068552576
-0.028258005 0.038375672 0.06345936 0.016568756 0.03804657 -0.10436415 0.037635066 -0.014423869
-0.040570505 -0.031538956 -0.024601813 0.022632947 0.05929165 0.020052481 -0.037610088 0.00081253354
-0.08041696 0.0658208 -0.022535343 -0.07966032 0.008618883 0.048571866 -0.013114483 0.06956801
-0.05995631 -0.029205857 0.025691787 -0.025131248 0.029234659 -0.07052147 -0.0060829986 -0.00083709817
-0.021103248 0.015598986 -0.033689283 0.020994604 0.0049822326 -0.0054952945 -0.036703 0.034305815
0.07179596 0.0035130447 0.0064463876 -0.038604084 0.07716078 0.04815827 0.0510825 -0.037366938
-0.05087248 -0.007998467 0.05521337 -0.06624023 -0.052012917 0.044385925 0.034618918 -0.045781106
0.012100729 0.022764465 -0.024013488 -0.015830547 0.062584616 -0.06090577 0.029079128 0.035549577
00000000: ac77 813c ff9c d83b 79f7 a2bc 2ab0 42bd
00000010: fe80 9ebd 7755 98bb b6f1 443d ea4e 0f3d
00000020: c090 073d ed8e 413d 3fe3 d43b c0e3 3cbd
00000030: ac96 d1bc 5c7f 423d 15f2 5abd 4d35 91bc
00000040: c645 b5bc 88d1 b7bc 1262 52bd 9a20 20bd
00000050: c83b 113d dbc9 6e3c 919c cb3c 4dc9 5ebb
00000060: 10bd c4bc f801 80bb 87f7 b4bd adf3 d8bc
00000070: 644b 543d b41b 2b3d ae3c 1b3c b1ab bb3c
00000080: f8f1 8b3d 0898 5cbd a7b2 b4bb 4433 a3bd
00000090: d79c 343d 7a57 733d 1960 923b 15ac 26bd
000000a0: 585a ce3c 1d4d 603b 735b 383d 39ee ccbc
000000b0: 15b1 5f3c 12cc 0b3d a7d5 5cbd 28f7 b43d
000000c0: 8a08 523d caf0 8e3d 37a2 54bd 5d3e 80bd
000000d0: 7098 633d e6bc 5ebd a399 673d fa34 a2bd
000000e0: ac9a 393d 22c3 0bbd 86c7 90bd e892 4a3d
000000f0: 26dc 283d e81c d1bb cea0 c1bc 4b65 8c3d
00000100: 557d e7bc cf2f 1d3d fbf6 813d 33bb 873c
00000110: b8d6 1b3d dfbc d5bd 3a27 1a3d 1752 6cbc
00000120: 422d 26bd fe2e 01bd be89 c9bc bb68 b93c
00000130: cddb 723d 1a45 a43c 090d 1abd 3400 553a
00000140: a6b1 a4bd 0ecd 863d 0a9c b8bc f324 a3bd
00000150: 3736 0d3c 4bf3 463d 21de 56bc ac79 8e3d
00000160: bf94 75bd 1f41 efbc 9577 d23c 0ce0 cdbc
00000170: 867d ef3c 8f6d 90bd e453 c7bb b570 5bba
00000180: b8e0 acbc e492 7f3c c6fd 09bd e0fc ab3c
00000190: ff41 a33b df11 b4bb e355 16bd 4184 0c3d
000001a0: c309 933d 1c3b 663b 383c d33b 511f 1ebd
000001b0: 7906 9e3d 9b41 453d e23b 513d 130e 19bd
000001c0: a95f 50bd 010c 03bc 6a27 623d f5a8 87bd
000001d0: 7f0b 55bd 04ce 353d 91cc 0d3d f884 3bbd
000001e0: 2342 463c 8b7c ba3c efb7 c4bc 10af 81bc
000001f0: 5d2c 803d 5478 79bd 5a37 ee3c 6f9c 113d

a2c_network.value.weight f4 [1, 128]
-0.0024786005 -0.02456769 -0.04068648 0.040718198 0.021379907 0.03863657 0.025123708 0.009971517
-0.07393263 -0.022476034 0.010664955 0.012966413 0.009305909 -0.014960557 0.020753846 0.06584732
0.0032698351 0.008971037 0.071233116 -0.012915876 -0.032812014 -0.11638252 -0.013158695 0.021496866
0.054321244 -0.07806123 -0.0013349305 0.02204333 0.009557548 -0.018498706 -0.059444956 -0.072366826
0.003252833 0.059195388 -0.030728662 -0.03507533 0.008971808 6.270043e-05 -0.035023537 0.063177675
-0.03812824 0.013872002 -0.02854444 -0.023504268 -0.028107435 -0.01474464 0.06750499 0.013389804
-0.039946835 -0.0151840225 0.054553058 -0.019471748 -0.007670139 0.050331235 0.010937569 0.006201197
-0.021300495 -0.010880582 -0.005539245 0.011484367 0.027525123 -0.021898672 0.061239537 -0.0028546217
0.06107876 -0.017288469 0.011937783 -0.10212228 0.0083525535 0.019811966 -0.04271619 0.050217204
0.049759034 0.072133094 0.052108854 -0.07260451 -0.018323952 -0.033407092 0.03527988 0.0051279617
0.0019741782 -0.03488475 -0.017057983 0.018834911 -0.067613505 -0.030500574 0.02266679 0.024118718
0.053038552 0.038658693 0.010379404 -0.039051294 -0.07169576 -0.0027166689 0.029242298 0.046860415
0.053167816 -0.060468692 0.062974446 -0.08185186 -0.032515272 0.013845797 0.04984251 -0.030056167
0.025656125 -0.073991984 -0.07980023 0.015407445 -0.0047742613 -0.04803131 0.0061612613 0.065465964
0.0098295305 0.029482648 -0.010550836 0.029065344 0.046686977 -0.070916235 -0.08514289 0.044576883
-0.036804017 0.00023623036 0.055167634 0.08590684 0.007785689 -0.029734535 0.0066624107 -0.022107145
00000000: 0470 22bb 2e42 c9bc dea6 26bd 20c8 263d
00000010: ea24 af3c 6141 1e3d 3cd0 cd3c 935f 233c
00000020: fe69 97bd a91f b8bc 10bc 2e3c 1471 543c
00000030: d077 183c 201d 75bc f803 aa3c f6da 863d
00000040: bb4a 563b 42fb 123c abe2 913d 1c9d 53bc
00000050: e465 06bd f559 eebd 9197 57bc 321a b03c
00000060: f47f 5e3d 91de 9fbd d6f8 aeba 3794 b43c
00000070: 4397 1c3c 998a 97bc 8e7c 73bd 0f35 94bd
00000080: 7b2d 553b dd76 723d adba fbbc 26ab 0fbd
00000090: 7dfe 123c 097e 8338 d774 0fbd 4c63 813d
000000a0: 5b2c 1cbd 6547 633c 08d6 e9bc 068c c0bc
000000b0: 9041 e6bc 8193 71bc 0e40 8a3d e960 5b3c
000000c0: 4b9f 23bd 68c6 78bc 0773 5f3d 3783 9fbc
000000d0: ca55 fbbb 2028 4e3d 7d33 333c 6933 cb3b
000000e0: 607e aebc 7844 32bc 8e82 b5bb ed28 3c3c
000000f0: 5e7c e13c d864 b3bc 4fd6 7a3d 9b14 3bbb
00000100: b92d 7a3d 8ca0 8dbc b196 433c 7c25 d1bd
00000110: 26d9 083c b44c a23c 2cf7 2ebd 8eb0 4d3d
00000120: 21d0 4b3d 84ba 933d 1870 553d acb1 94bd
00000130: 1d1c 96bc e0d5 08bd a381 103d 7608 a83b
00000140: 3761 013b 50e3 0ebd 2fbd 8bbc ac4b 9a3c
00000150: f378 8abd 57dc f9bc b4af b93c 9e94 c53c
00000160: f43e 593d 9458 1e3d 600e 2a3c 40f4 1fbd
00000170: 3ad5 92bd 240a 32bb 8b8d ef3c b5f0 3f3d
00000180: 7fc6 593d 05ae 77bd bff8 803d f3a1 a7bd
00000190: bc2e 05bd 7bd9 623c a927 4c3d 5a38 f6bc
000001a0: cb2c d23c 1c89 97bd 4e6e a3bd 826f 7c3c
000001b0: 6871 9cbb 7bbc 44bd 68e4 c93b 0513 863d
000001c0: 0a0c 213c 9885 f13c 6add 2cbc 721a ee3c
000001d0: d83a 3f3d 883c 91bd 655f aebd 4096 363d
000001e0: cfbf 16bd 9bb4 7739 75f7 613d edef af3d
000001f0: 181f ff3b d795 f3bc 5a50 da3b 0b1a b5bc

a2c_network.mu.weight f4 [18, 128]
0.011118515 0.034281194 -0.030660044 0.09582623 0.042339347 0.016862944 -0.035831675 0.011445276
-0.03504493 -0.0864986 -0.022276586 -0.08458632 -0.061614133 -0.04478376 0.11396642 -0.004825716
0.004827435 0.07311626 -0.032422397 -0.07450426 -0.06438552 -0.06163272 -0.00041922327 0.026483452
-0.03661206 0.034135632 -0.025242219 -0.055877052 0.05759903 0.0209726 0.05304021 -0.0550491
-0.027149353 -0.081142254 -0.092885554 0.007929565 0.06553524 -0.03987573 -0.068420865 -0.015752226
0.050514407 0.065008126 -0.07093255 -0.05694817 -0.013859384 -0.09046192 0.030657357 -0.019028919
0.021017969 -0.005764992 0.10971383 -0.00046531466 -0.077610105 -0.06488077 -0.065537564 -0.030797064
0.024129145 0.056660604 0.1110908 0.023829637 -0.032870248 -0.03909633 0.035880577 0.007016639
0.07307208 -0.08428219 0.077402696 0.016553259 -0.0833057 -0.0153826475 0.035304025 0.019840438
-0.03619183 0.10635374 0.117349096 0.04937561 -0.06193566 -0.11495004 0.028092116 0.022601198
-0.025856994 -0.026282782 0.034517135 -0.05004877 0.03234968 0.020087002 0.031258006 0.016436283
-0.022759473 -0.0539985 -0.069053315 0.030708384 -0.034304693 -0.02040727 0.0041903956 0.03132633
0.045175776 -0.04553692 -0.055938665 0.069852866 -0.010917988 0.052469235 0.026409358 0.08534592
0.042399175 0.023945633 -0.045107953 -0.08810859 -0.056836743 0.012428171 -0.070056126 -0.08842117
0.08986194 -0.06718472 -0.04506061 0.016523302 -0.01485749 -0.082299635 -0.10721841 0.09669146
0.038601097 -0.08179796 -0.03211007 -0.030343393 -0.047692984 0.06301117 -0.005527877 -0.052177966
0.019218417 -0.057372034 -0.052646462 0.085778 0.0499132 -0.052541204 0.025823185 -0.060066048
0.06429509 -0.05752995 -0.0028680265 -0.008104218 -0.03214112 -0.013245015 -0.041185137 -0.056794874
-0.034142267 0.01135064 0.00062583777 -0.069105625 0.06874089 -0.041634947 0.058905225 0.071035825
-0.05122936 -0.042536475 -0.016393749 -0.081089124 -0.059403364 -0.021942204 -0.05500444 -0.017450523
-0.050967917 -0.05157341 -0.040995166 -0.013646289 0.065236636 0.0029398086 0.07273255 -0.024472058
0.029910438 -0.04074389 0.039759643 0.058307815 -0.0054105315 0.030437857 -0.0061103706 -0.03257026
0.005438145 -0.0905735 -0.018603308 -0.030073663 0.02973375 -0.03422395 -0.09146716 -0.044476274
-0.04287355 0.047441013 0.06354341 0.0150344195 0.02316161 -0.037499268 -0.005304095 -0.013385047
0.038058747 0.0027419254 -0.005198495 0.04780476 0.045765173 0.07581363 -0.030202035 -0.023845522
0.013764739 -0.05236086 -0.046343528 0.037162736 -0.0768204 0.0380198 0.045359667 -0.057694692
0.02495903 0.08396377 -0.0438069 0.06076023 0.015565945 -0.087726876 -0.038393196 -0.052072998
0.07109959 -0.019959586 0.050989464 -0.06519747 -0.047930896 -0.059708063 0.07586294 -0.05209533
0.0753374 -0.03787898 0.0030375824 -0.049893294 0.004650901 -0.030208047 0.08895641 -0.020834366
0.09102349 -0.018818464 0.038242448 0.01667869 -0.084835626 -0.01795423 0.06737002 -0.0016611307
0.014698287 0.06557239 -0.06597114 0.030405035 -0.011029019 -0.047906887 -0.096734144 0.02495809
0.06613213 -0.052935522 -0.020302912 -0.08299591 0.032214865 0.022813313 0.06309571 -0.023961747
00000000: 6f2a 363c 706a 0c3d c62a fbbc 8b40 c43d
00000010: 066c 2d3d 2824 8a3c 3cc4 12bd f884 3b3c
00000020: 468b 0fbd 2e26 b1bd 637d b6bc 983b adbd
00000030: 1a5f 7cbd 2d6f 37bd 3a67 e93d 0a21 9ebb
00000040: 762f 9e3b fabd 953d 59cd 04bd b195 98bd
00000050: 8edc 83bd 9772 7cbd 32cb dbb9 d3f3 d83c
00000060: 87f6 15bd ced1 0b3d c5c8 cebc 56df 64bd
00000070: f6ec 6b3d bbce ab3c b140 593d 2a7b 61bd
00000080: 5268 debc e92d a6bd c83a bebd 02eb 013c
00000090: 5737 863d bc54 23bd 3d20 8cbd d00a 81bc
000000a0: 32e8 4e3d fb22 853d 1645 91bd 7c42 69bd
000000b0: 7812 63bc 1944 b9bd 2325 fb3c 89e2 9bbc
000000c0: e02d ac3c 42e8 bcbb a5b1 e03d 7af5 f3b9
000000d0: 0cf2 9ebd 36e0 84bd 8f38 86bd 204a fcbc
000000e0: 7caa c53c f314 683d 9383 e33d 5f36 c33c
000000f0: f4a2 06bd 7923 20bd 83f7 123d d6eb e53b
00000100: d1a6 953d 249c acbd 4e85 9e3d b39a 873c
00000110: 2e9c aabd 8007 7cbc f49a 103d 6a88 a23c
00000120: e23d 14bd fdcf d93d b954 f03d 143e 4a3d
00000130: 3fb0 7dbd ed6a ebbd 7021 e63c 2626 b93c
00000140: 0cd2 d3bc fd4e d7bc d761 0d3d f0ff 4cbd
00000150: 1981 043d 7f8d a43c 6508 003d 62a5 863c
00000160: 1372 babc 882d 5dbd d36b 8dbd 2690 fb3c
00000170: 1483 0cbd 262d a7bc 964f 893b 0a50 003d
00000180: 3c0a 393d ec84 3abd f11f 65bd 050f 8f3d
00000190: 5ce1 32bc fbe9 563d 7058 d83c d7c9 ae3d
000001a0: c2aa 2d3d a229 c43c 1ec3 38bd 4772 b4bd
000001b0: a5cd 68bd 879f 4b3c 9679 8fbd 2916 b5bd
000001c0: 8909 b83d 2498 89bd 7991 38bd e05b 873c
000001d0: d46c 73bc b68c a8bd 5395 dbbd 2c06 c63d
000001e0: 2f1c 1e3d b085 a7bd d985 03bd b592 f8bc
000001f0: b859 43bd 000c 813d 3123 b5bb 90b8 55bd
00000200: f16f 9d3c f0fe 6abd d1a3 57bd 60ac af3d
00000210: c971 4c3d 7235 57bd 258b d33c d107 76bd
00000220: 25ad 833d 86a4 6bbd 80f5 3bbb 8ec7 04bc
00000230: 68a6 03bd 9f01 59bc bfb1 28bd bea1 68bd
00000240: c3d8 0bbd 09f8 393c 430f 243a 4087 8dbd
00000250: 06c8 8c3d 6889 2abd 9b46 713d 3b7b 913d
00000260: e1d5 51bd ba3a 2ebd 2f4c 86bc 0e12 a6bd
00000270: f150 73bd 23c0 b3bc 564c 61bd 66f4 8ebc
00000280: bcc3 50bd a43e 53bd 8cea 27bd af94 5fbc
00000290: c99a 853d cea9 403b cef4 943d a079 c8bc
000002a0: bc06 f53c 11e3 26bd 02db 223d 2dd4 6e3d
000002b0: d44a b1bb d058 f93c 8139 c8bb 6568 05bd
000002c0: 7732 b23b 997e b9bd f765 98bc 0b5d f6bc
000002d0: 3194 f33c 6a2e 0cbd 2253 bbbd c12c 36bd
000002e0: 2d9c 2fbd 8251 423d 0c23 823d ed52 763c
000002f0: 6bbd bd3c d598 19bd f9cd adbb f54c 5bbc
00000300: 7de3 1b3d e0b1 333b 2358 aabb edce 433d
00000310: 4374 3b3d 2d44 9b3d 426a f7bc af57 c3bc
00000320: 8085 613c 5778 56bd b6d2 3dbd f437 183d
00000330: 0454 9dbd a6ba 1b3d 0fcb 393d 4551 6cbd
00000340: e176 cc3c 32f5 ab3d dd6e 33bd b8df 783d
00000350: 4e08 7f3c 26aa b3bd 2f42 1dbd 7f4a 55bd
00000360: a99c 913d 4982 a3bc 54da 503d 4086 85bd
00000370: 3053 44bd 7190 74bd 075e 9b3d ea61 55bd
00000380: 7f4a 9a3d fd26 1bbd 2d12 473b e95c 4cbd
00000390: 9666 983b de76 f7bc c72e b63d d5ac aabc
000003a0: 866a ba3d 2e29 9abc 1da4 1c3d c0a1 883c
000003b0: 4dbe adbd c014 93bc 4bf9 893d 4cba d9ba
000003c0: 15d1 703c d14a 863d e11b 87bd fb13 f93c
000003d0: 0fb3 34bc 033a 44bd 8d1c c6bd e974 cc3c
000003e0: 4870 873d ebd2 58bd 4b52 a6bc c2f9 a9bd
000003f0: bcf3 033d fce2 ba3c 5338 813d 6d4b c4bc

a2c_network.mu.bias f4 [18]
-0.02504773 -0.0126356315 0.03587967 0.012540601 -0.009244483 0.013215046 0.06967398 0.05916508
0.033108663 0.042331975 0.058924735 0.06596789 -0.049388174 -0.038167056 -0.049456887 -0.058819316
-0.062140875 -0.05183265
00000000: e630 cdbc ae05 4fbc 90f6 123d 1877 4d3c
00000010: 2c76 17bc ec83 583c 3bb1 8e3d 1557 723d
00000020: f39c 073d 4b64 2d3d 105b 713d 2c1a 873d
00000030: 414b 4abd 0f55 1cbd 4e93 4abd 86ec 70bd
00000040: 6e87 7ebd 794e 54bd

exp_avg f4 [18]
0.002504294 -0.0017904814 -0.00095453946 0.030789163 0.0031536813 0.004171818 0.0007000756 0.0014640216
0.0014892574 0.0055275825 0.00030827837 0.002207678 0.0009070195 -0.0024304807 -0.0013496823 -0.00024036225
0.0007831682 0.0014166466
00000000: 151f 243b 96ae eaba 0f3a 7aba 8e39 fc3c
00000010: fead 4e3b bfb3 883b 4785 373a 6ae4 bf3a
00000020: 3033 c33a b920 b53b 6ca0 a139 b1ae 103b
00000030: 0cc5 6d3a b348 1fbb d3e7 b0ba c009 7cb9
00000040: 874d 4d3a c6ae b93a

exp_avg_sq f4 [18]
3.9051345e-05 3.2770346e-05 3.2728094e-05 0.00023940501 3.55965e-05 3.2114825e-05 3.278294e-05 3.2256743e-05
3.1617332e-05 3.3573702e-05 2.8803068e-05 3.89132e-05 3.685006e-05 3.5755234e-05 3.1444426e-05 3.59018e-05
3.148956e-05 3.256536e-05
00000000: 10cb 2338 e472 0938 8645 0938 cb08 7b39
00000010: 734d 1538 08b3 0638 6a80 0938 6a4b 0738
00000020: da9c 0438 7dd1 0c38 1e9e f137 bb36 2338
00000030: 738f 1a38 e4f7 1538 32e3 0338 4495 1638
00000040: a813 0438 ca96 0838

exp_avg f4 [128, 66]
4.8277407e-06 -2.188859e-06 0.00011098564 0.00010011161 0.00012955074 -0.00011610516 -4.234725e-06 -1.6173133e-06
6.210551e-05 -0.00010116426 -0.00026709796 0.00013869071 2.1104183e-06 8.945387e-06 0.00010848279 0.00014861827
-4.458098e-06 -1.6933272e-05 -6.1361925e-06 5.4397326e-05 6.218453e-05 -1.0275811e-05 -3.83696e-05 2.4260227e-05
-8.347833e-05 -8.474531e-05 -5.353449e-05 -4.5385517e-05 -0.00012101616 -5.477897e-05 0.0003734403 -0.00082126114
-0.00019042127 0.001587944 0.0014595928 -6.333199e-06 -6.1152874e-05 -8.269718e-05 0.0007890779 -0.0004059033
0.00011217936 0.00022069961 -0.00085943314 -0.0010326446 0.00026067556 0.0004199484 -0.0014363757 -0.0011714107
1.9591376e-05 -0.000101762744 0.00015514386 0.00043094624 0.00013019372 -4.5011675e-05 6.108627e-05 0.00013768868
0.0002902447 2.5615653e-05 0.00015423582 0.00014004782 -0.00023268697 -0.00031688937 -0.000112972644 -8.1333455e-05
-0.00028485592 -0.00029698946 5.6285585e-06 6.3969633e-06 0.0001108755 5.0758328e-05 2.390337e-05 -3.5862526e-05
2.872276e-06 4.4518465e-06 5.817537e-05 1.8415301e-05 0.00013468768 0.00011698586 -1.5743068e-05 1.9760262e-06
-5.5989192e-05 -1.1426026e-05 5.6316334e-05 2.4060826e-05 3.2692325e-05 -3.5679209e-06 -1.9620338e-05 2.67659e-07
-1.3634255e-05 -5.6813933e-05 -2.4065126e-05 -2.4320283e-05 -1.0580958e-05 -1.296181e-05 -3.4252545e-05 2.3329418e-05
0.0004873848 -0.0007628591 0.00014365603 -0.00049085775 -0.00068206905 0.0008409058 0.0010028464 0.0009127151
0.0011303114 0.0014441088 0.00042578293 -0.00020936954 0.001071981 -0.0006339497 0.00024427907 0.0002483842
-0.0003797563 0.00025111923 4.9294067e-05 -2.94481e-05 -6.3966e-05 -6.568145e-05 3.88103e-06 9.435553e-05
0.0001340702 6.23043e-05 6.7287576e-05 -2.5633148e-05 4.566593e-05 -0.00013180837 6.0178343e-05 -0.000106591004
-7.805274e-05 3.7996233e-05 -3.0054256e-05 2.126395e-05 -3.2319974e-06 -2.4114639e-05 0.0003837831 -9.956151e-06
3.2383035e-05 5.592976e-05 -6.451255e-06 -4.7249023e-06 0.00021922894 8.0965445e-05 -4.5289526e-05 -6.2596446e-05
9.916295e-06 1.9581314e-05 0.000113151946 -7.0255446e-05 -4.2036827e-05 2.772988e-05 -1.2422703e-05 -9.708469e-06
-2.617147e-05 -5.929919e-06 -7.555213e-05 -1.5061299e-05 1.3477516e-05 1.47639885e-05 4.5400475e-06 -1.178396e-05
-7.12494e-05 -3.8553448e-05 0.0018328262 0.000563229 0.0005622504 -0.00035383354 0.0004806979 -0.00041950226
0.0004288225 0.0005895328 -1.1292538e-05 -0.0005631008 -0.00011815014 0.00011466069 -0.00032415675 -0.0008138829
-0.00028963728 0.0002562383 -0.00047768393 -0.00031007934 0.00016522451 7.774935e-05 0.00020366385 -0.00016083584
-3.3907076e-05 8.158421e-05 -1.0885513e-05 5.8172798e-05 8.22022e-05 2.5049283e-05 -0.000162248 4.7058625e-06
-7.8719044e-05 -4.6064055e-05 -4.256809e-05 -0.0001497023 -0.00015525047 -0.00012303345 -2.4640625e-05 -6.2434236e-05
0.0010454127 -6.24772e-05 -0.0006085913 0.0005625936 -4.3741766e-05 -9.015658e-07 0.00044837187 0.0001284784
-3.373908e-05 0.0003031909 -3.6201545e-05 9.572149e-05 9.2108654e-05 -7.662565e-05 -0.00014536046 -8.9778274e-05
-0.00018011965 -2.9191357e-05 -0.00024058638 4.671992e-05 -0.00034625988 -7.09565e-05 8.344043e-05 -1.0883263e-05
-9.207803e-05 -1.314899e-05 -0.00018342453 5.4524113e-05 -0.0008209565 0.0004867614 -8.02519e-05 0.00069064007
-0.00090559194 0.0007341229 -0.0006817402 0.0014130881 0.00022933209 0.0006761348 0.0020789008 -0.000527968
0.00031563095 0.00021239335 -0.00029490274 -0.0002170451 0.00022464126 -0.00019860092 -8.926447e-05 8.425051e-05
0.00013685584 -0.00012152383 -0.00037684536 3.855154e-06 -0.0001671991 0.00039460638 9.278815e-05 0.0005079677
00000000: fafd a136 50e4 12b6 f6c0 e838 03f3 d138
00000010: 03d8 0739 7c7d f3b8 0318 8eb6 7612 d9b5
00000020: a43e 8238 2628 d4b8 4809 8cb9 816d 1139
00000030: b6a0 0d36 2514 1637 4181 e338 6ad6 1b39
00000040: c596 95b6 ed0b 8eb7 7ee5 cdb6 af28 6438
00000050: 1169 8238 4666 2cb7 0bef 20b8 7182 cb37
00000060: 1611 afb8 4bb9 b1b8 398a 60b8 545c 3eb8
00000070: 0eca fdb8 79c2 65b8 4fca c339 e749 57ba
00000080: d2ab 47b9 8f22 d03a cf4f bf3a c481 d4b6
00000090: 333f 80b8 b66d adb8 1fda 4e3a 6bcf d4b9
000000a0: d641 eb38 9a6b 6739 954b 61ba ce59 87ba
000000b0: 48ab 8839 852c dc39 c544 bcba 058a 99ba
000000c0: 2958 a437 7569 d5b8 1dae 2239 a0f0 e139
000000d0: 9c84 0839 ebca 3cb8 711b 8038 8660 1039
000000e0: fc2b 9839 32e1 d637 5dba 2139 cdd9 1239
000000f0: 6ffd 73b9 2c24 a6b9 baeb ecb8 9191 aab8
00000100: b758 95b9 40b5 9bb9 f3dc bc36 7fa5 d636
00000110: d585 e838 57e5 5438 1984 c837 186b 16b8
00000120: 53c1 4036 1261 9536 5401 7438 8f7a 9a37
00000130: f33a 0d39 4e56 f538 fb0f 84b7 df9b 0436
00000140: f0d5 6ab8 68b2 3fb7 3435 6c38 3bd6 c937
00000150: 1e1f 0938 6a70 6fb6 5b96 a4b7 c6b2 8f34
00000160: aebe 64b7 7f4b 6eb8 77df c9b7 6903 ccb7
00000170: de84 31b7 8d76 59b7 64aa 0fb8 8bb3 c337
00000180: ae87 ff39 9cfa 47ba 5fa2 1639 e8ac 00ba
00000190: e1cc 32ba 3c70 5c3a f171 833a 4643 6f3a
000001a0: f526 943a 4048 bd3a 9e3b df39 358a 5bb9
000001b0: b781 8c3a a52f 26ba 9512 8039 9039 8239
000001c0: 071a c7b9 a7a8 8339 1ac1 4e38 5007 f7b7
000001d0: 7c25 86b8 76be 89b8 cb39 8236 bde0 c538
000001e0: 3295 0c39 5ea9 8238 be1c 8d38 c406 d7b7
000001f0: 6b89 3f38 0a36 0ab9 0168 7c38 9c89 dfb8
00000200: 3fb0 a3b8 255e 1f38 061d fcb7 fc5f b237
00000210: 4be5 58b6 cb49 cab7 7f36 c939 5809 27b7
00000220: 05d3 0738 1f96 6a38 dc77 d8b6 9a8a 9eb6
00000230: d2e0 6539 fecb a938 42f5 3db8 3646 83b8
00000240: 2a5e 2637 8d42 a437 fd4b ed38 1b56 93b8
00000250: b350 30b8 779d e837 1a6b 50b7 8fe1 22b7
00000260: ce8a dbb7 9ef9 c6b6 be71 9eb8 c9af 7cb7
00000270: 7e1d 6237 d9b2 7737 b656 9836 b9b3 45b7
00000280: bb6b 95b8 73b4 21b8 713b f03a a9a5 133a
00000290: fc63 133a bc82 b9b9 2e06 fc39 a4f0 dbb9
000002a0: 95d3 e039 e08a 1a3a 1575 3db7 0e9d 13ba
000002b0: 60c7 f7b8 fd75 f038 95f3 a9b9 c25a 55ba
000002c0: 75da 97b9 b957 8639 a771 fab9 2592 a2b9
000002d0: 1e40 2d39 5d0d a338 998e 5539 0ba6 28b9
000002e0: 7237 0eb8 3018 ab38 eca0 36b7 91fe 7338
000002f0: f863 ac38 ed20 d237 1e21 2ab9 0de7 9d36
00000300: f715 a5b8 e734 41b8 238b 32b8 68f9 1cb9
00000310: bbca 22b9 8a02 01b9 57b3 ceb7 20ef 82b8
00000320: 3b06 893a 3106 83b8 df89 1fba 047b 133a
00000330: 5d77 37b8 2103 72b5 7413 eb39 28b8 0639
00000340: 1083 0db8 98f5 9e39 1dd7 17b8 15be c838
00000350: 752a c138 15b2 a0b8 e76b 18b9 5847 bcb8
00000360: 80de 3cb9 f6df f4b7 ea45 7cb9 22f5 4338
00000370: 378a b5b9 7bce 94b8 bdfc ae38 4297 36b7
00000380: 041a c1b8 7b9a 5cb7 a655 40b9 d2b0 6438
00000390: 7535 57ba 0234 ff39 e94c a8b8 120c 353a
000003a0: 3f65 6dba 2772 403a cfb6 32ba 5e37 b93a
000003b0: dd78 7039 a33e 313a 2b3e 083b 5567 0aba
000003c0: 457b a539 e8b5 5e39 2d9d 9ab9 9a96 63b9
000003d0: ae8d 6b39 873f 50b9 7f33 bbb8 a6af b038
000003e0: f680 0f39 9cda feb8 5493 c5b9 855b 8136
000003f0: 2b52 2fb9 2ce3 ce39 4297 c238 2329 053a
