logs/rl_games/hexapod_flat_direct/2025-11-14_22-48-05/nn/last_hexapod_flat_direct_ep_150_rew_-0.18892391.pth (torch, 546049 bytes, 33 tensors)

value_mean_std.running_mean f8 [1]
-0.3110047267967186
00000000: 9392 9f5e 80e7 d3bf

value_mean_std.running_var f8 [1]
0.10253501579712936
00000000: bb23 8b1b bc3f ba3f

value_mean_std.count f8 []
29491201.0
00000000: 0000 0010 0020 7c41

a2c_network.sigma f4 [18]
-0.13885185 -0.24589442 -0.30053762 -0.7270726 -0.6325866 -0.44495225 -0.19725047 -0.23117937
-0.24937493 -0.7736036 -0.21261564 -0.29934373 -0.10066212 -0.051640835 -0.18151842 -0.2554208
-0.0054474105 -0.1823156
00000000: 2e2f 0ebe bfcb 7bbe 11e0 99be 6e21 3abf
00000010: 32f1 21bf c8d0 e3be 07fc 49be 49ba 6cbe
00000020: 245c 7fbe e30a 46bf eab7 59be 9543 99be
00000030: f127 cebd 5785 53bd f7df 39be 84c6 82be
00000040: 3180 b2bb f1b0 3abe

a2c_network.actor_mlp.0.weight f4 [128, 66]
0.21612431 -0.19259517 -0.15106827 -0.2561857 0.017346743 0.06627114 0.08894008 -0.13095416
-0.17345876 -0.19780865 -0.19416504 0.19452171 -0.03226811 0.29647654 0.093035385 -0.3593037
0.2039097 0.07945084 0.078618765 -0.038986206 0.059854943 -0.08475205 -0.06492169 0.044818655
0.055517316 -0.029515313 0.10029554 0.09370151 -0.069481246 -0.09256281 0.039679594 -0.025459912
0.010749183 -0.1986266 -0.033287432 0.027039375 0.0021619876 -0.059532534 -0.054175183 -0.074357614
-0.11179957 -0.061534993 -0.067692146 -0.028337462 0.08619669 0.032171857 -0.0008340527 -0.06703339
-0.12936455 0.037882395 0.120099075 -0.20884499 0.02571241 -0.06809049 0.008700757 -0.048725512
-0.039473217 -0.034712687 -0.0801143 -0.04736241 -0.043530904 -0.06089506 0.08187135 -0.071448684
0.1279933 0.032249544 0.11910199 0.058129136 -0.21501799 -0.11949323 -0.16180617 -0.110747576
0.05207476 0.043059286 0.00016484613 -0.118741296 0.17355943 -0.2593088 0.020938972 0.027756283
0.0151635315 0.24113369 0.11678049 0.11456113 0.04462141 -0.100534 0.006082074 -0.09279413
0.048681017 -0.124741435 0.10307779 0.093639866 0.07236902 -0.054763507 0.12880345 0.044256262
0.016365526 -0.07626847 0.05638888 -0.08222953 -0.03516437 0.08755122 0.050270826 -0.043749627
-0.024034096 -0.019597111 0.053848352 -0.031070862 -0.045841653 0.0015964137 -0.06259151 0.03131749
0.061865393 -0.09323572 0.056413732 0.08974258 -0.005102087 0.017920926 0.081184156 0.12151665
0.05350782 -0.070563935 0.09120765 0.106779344 -0.13380744 -0.04753517 0.063395955 0.18189804
-0.05908991 -0.0903066 -0.021236248 -0.046531625 0.007861671 0.09970481 -0.21739018 -0.044068165
0.079635695 -0.010379317 0.005513729 -0.101253174 -0.17338486 -0.29151446 -0.086269975 0.22492804
0.077031486 0.040158324 -0.1476316 -0.024450824 -0.056102652 0.016213788 0.014455282 -0.12367885
0.0025937292 -0.19091342 -0.11029709 0.006436595 0.008009797 -0.06014313 -0.025799245 0.11144908
0.15843095 0.084332876 -0.07062674 -0.06871038 -0.077934764 0.08698566 0.010550335 0.11147733
0.035664327 0.028172856 -0.004317373 -0.060152464 -0.13037324 -0.13999374 0.045392577 -0.09572754
-0.0036324544 -0.04434976 -0.006646797 -0.066281825 -0.08055983 0.0579607 -0.09557319 0.098048
-0.08691159 -0.09977423 -0.0005034193 -0.12755255 -0.033525154 -0.19178323 0.106111005 -0.15834534
0.006191711 -0.0211784 0.1110559 -0.06912966 0.06586047 -0.030666962 0.08237799 0.28932974
-0.19464053 -0.041669417 0.08627239 -0.20697294 0.39489868 -0.115698025 0.11074 0.015959011
0.08919224 -0.041518986 0.0076689534 0.015805952 0.08224893 -0.08682563 -0.06438083 -0.03139405
0.09085979 0.0665611 0.08303886 0.06819082 0.10464601 0.20379241 -0.012637725 -0.12686902
-0.20022061 -0.13409016 -0.20588881 -0.27345803 0.014982934 -0.057890777 -0.037617538 -0.063703835
-0.026237208 -0.002084773 0.008156187 -0.03634999 -0.057789136 -0.03164276 -0.08651874 0.10518668
-0.0284198 0.040998418 -0.036670156 -0.024563137 0.0620844 0.025685526 -0.09515601 0.045088615
0.16977665 0.055519726 0.091162905 0.14712529 -0.017505916 -0.01544591 -0.17043877 -0.058243707
00000000: b14f 5d3e ab37 45be a4b1 1abe c62a 83be
00000010: c21a 8e3c 2ab9 873d 3726 b63d d918 06be
00000020: 2c9f 31be 5a8e 4abe 33d3 46be b330 473e
00000030: 912b 04bd c6cb 973e 5689 be3d a8f6 b7be
00000040: b4cd 503e 1fb7 a23d e002 a13d 00b0 1fbd
00000050: 752a 753d 7c92 adbd aaf5 84bd c493 373d
00000060: 2066 633d 19ca f1bc c067 cd3d 94e6 bf3d
00000070: 2f4c 8ebd 9291 bdbd 1287 223d 4e91 d0bc
00000080: 571d 303c c564 4bbe 6758 08bd ae81 dd3c
00000090: 22b0 0d3b 63d8 73bd cce6 5dbd ce48 98bd
000000a0: 2cf7 e4bd 1e0c 7cbd 2ea2 8abd f723 e8bc
000000b0: e487 b03d a3c6 033d 54a4 5aba cd48 89bd
000000c0: 2478 04be 922a 1b3d 81f6 f53d 76db 55be
000000d0: d5a2 d23c 0773 8bbd 9f8d 0e3c 6794 47bd
000000e0: abae 21bd e42e 0ebd f712 a4bd 16ff 41bd
000000f0: 764d 32bd 196d 79bd 2bac a73d b053 92bd
00000100: ad10 033e 1918 043d beeb f33d d118 6e3d
00000110: ad2d 5cbe deb8 f4bd 84b0 25be a0cf e2bd
00000120: 584c 553d ef5e 303d 8cda 2c39 a32e f3bd
00000130: 90b9 313e 1fc4 84be 3588 ab3c 2561 e33c
00000140: 7670 783c c0eb 763e 9c2a ef3d 079f ea3d
00000150: f1c4 363d c5e4 cdbd 224c c73b d90a bebd
00000160: bf65 473d 7078 ffbd 731a d33d 42c6 bf3d
00000170: 3536 943d b34f 60bd 0de5 033e 0e46 353d
00000180: ff10 863c a532 9cbd 07f8 663d f567 a8bd
00000190: 8408 10bd 0e4e b33d c8e8 4d3d cf32 33bd
000001a0: 27e3 c4bc 1f8a a0bc 1790 5c3d 5288 febc
000001b0: 75c4 3bbd c13e d13a fa2f 80bd c546 003d
000001c0: 9166 7d3d 5ff2 bebd 1612 673d f5ca b73d
000001d0: 682f a7bb e8ce 923c e143 a63d b9dd f83d
000001e0: 042b 5b3d d383 90bd 14cb ba3d 21af da3d
000001f0: d104 09be 3db4 42bd bdd5 813d 7b43 3a3e
00000200: 4308 72bd abf2 b8bd a4f7 adbc f297 3ebd
00000210: 3dce 003c 0932 cc3d 889b 5ebe d280 34bd
00000220: 0a18 a33d 030e 2abc 83ac b43b d35d cfbd
00000230: cd8b 31be 6241 95be 50ae b0bd 8953 663e
00000240: afc2 9d3d 0e7d 243d bd2c 17be 184d c8bc
00000250: e5cb 65bd c7d2 843c d9d5 6c3c 564b fdbd
00000260: 8efb 293b cf7e 43be 71e3 e1bd 13ea d23b
00000270: 863b 033c a558 76bd f058 d3bc 6a3f e43d
00000280: b93b 223e b7b6 ac3d c1a4 90bd 07b8 8cbd
00000290: 439c 9fbd 8a25 b23d 50db 2c3c 3a4e e43d
000002a0: c214 123d c3ca e63c c078 8dbb 6e62 76bd
000002b0: 9080 05be 855a 0fbe 91ed 393d cd0c c4bd
000002c0: 790e 6ebb 18a8 35bd 60cd d9bb c4be 87bd
000002d0: 8dfc a4bd 3368 6d3d e0bb c3bd 64cd c83d
000002e0: b4fe b1bd 6e56 ccbd e6f7 03ba 239d 02be
000002f0: ac51 09bd d362 44be ba50 d93d 4825 22be
00000300: d6e3 ca3b 537e adbc 4771 e33d da93 8dbd
00000310: dbe1 863d 4839 fbbc cbb5 a83d 0723 943e
00000320: d94f 47be 8dad 2abd 94af b03d b7f0 53be
00000330: 2930 ca3e 16f3 ecbd a7cb e23d 79bc 823c
00000340: 6caa b63d d00f 2abd d84b fb3b 7c7b 813c
00000350: 2172 a83d a3d1 b1bd 19da 83bd 0c97 00bd
00000360: b314 ba3d 3051 883d 4710 aa3d a1a7 8b3d
00000370: a650 d63d f5ae 503e 760e 4fbc f4e9 01be
00000380: a206 4dbe ee4e 09be 84d4 52be b102 8cbe
00000390: fb7a 753c e11e 6dbd d914 1abd 2877 82bd
000003a0: 6aef d6bc b0a0 08bb 87a1 053c bae3 14bd
000003b0: 4db4 6cbd d79b 01bd bd30 b1bd 1d6c d73d
000003c0: a4d0 e8bc f5ed 273d 7233 16bd a238 c9bc
000003d0: 364c 7e3d 746a d23c 27e1 c2bd d7ae 383d
000003e0: eed9 2d3e a768 633d 9eb3 ba3d 03a8 163e
000003f0: 9168 8fbc d810 7dbc 8087 2ebe f490 6ebd

a2c_network.actor_mlp.0.bias f4 [128]
0.05171934 0.04766199 0.09781041 -0.034217514 0.11786218 -0.09240184 -0.0058051813 0.18182208
0.04587008 0.009804607 0.02716578 0.08682341 -0.023512596 0.10266985 -0.11231653 0.08799851
0.0683828 0.08379856 0.13570791 0.11510265 -0.02658051 0.046962008 0.07605454 0.074138135
0.021179117 0.07870701 -0.038948637 0.102550805 0.13037662 0.0063868496 0.12953615 -0.06954867
0.11098255 0.07223113 -0.13738841 0.020856367 0.014794452 0.12908106 -0.021007072 -0.0116142975
0.030484647 0.060571693 -0.020127924 0.0581737 -0.08460619 0.12819622 -0.08123364 0.056365196
0.11230598 0.063343495 -0.10336488 0.07710209 0.020120224 0.04918574 -0.09126451 0.056540344
0.08906758 0.023135398 0.06435031 0.15349305 0.109884284 0.012018131 0.14329684 -0.037100937
0.03185496 0.11417877 0.19859554 0.10359365 0.16330287 0.064887874 0.17798646 -0.0033751735
0.11300661 0.005841123 0.1075196 -0.1173027 -0.15959193 0.07612578 -0.020751514 -0.081711605
-0.1453209 -0.070080124 0.0163772 0.15205587 0.112392046 0.06922489 -0.05640848 0.05385405
-0.12870064 0.14443105 0.10670342 -0.041896153 0.05991545 0.12589857 0.08048211 0.015193477
0.13954371 -0.057127923 -0.022388406 0.037913866 0.052786846 -0.17105146 0.10778852 -0.013603469
0.09044221 0.124544024 0.23789625 0.056065995 0.17797644 0.089426704 0.16163336 0.07164718
0.109489664 0.07978193 0.08937206 0.067164004 0.092841625 0.088986434 0.10453513 0.008938432
0.14056978 -0.021375384 0.1472309 0.033279996 -0.0003664855 0.101297274 -0.09921605 0.24212608
00000000: a9d7 533d 3839 433d d350 c83d aa27 0cbd
00000010: ba61 f13d 2d3d bdbd 6439 bebb 912f 3a3e
00000020: 44e2 3b3d 81a3 203c c58a de3c 79d0 b13d
00000030: 7d9d c0bc 9244 d23d 3506 e6bd 9038 b43d
00000040: 480c 8c3d 949e ab3d 04f7 0a3e f0ba eb3d
00000050: 5fbf d9bc 3c5b 403d 7cc2 9b3d bcd5 973d
00000060: d47f ad3c 2431 a13d 9b88 1fbd 2806 d23d
00000070: 7381 053e c748 d13b 20a5 043e 886f 8ebd
00000080: d24a e33d eaed 933d 8caf 0cbe f9da aa3c
00000090: 6e64 723c d32d 043e 0617 acbc e549 3ebc
000000a0: f0ba f93c 061a 783d 51e3 a4bc 8c47 6e3d
000000b0: 0346 adbd df45 033e d35d a6bd 31df 663d
000000c0: ad00 e63d 3cba 813d f7b0 d3bd b3e7 9d3d
000000d0: 2bd3 a43c fd76 493d e3e8 babd d996 673d
000000e0: 1069 b63d 7286 bd3c 18ca 833d 482d 1d3e
000000f0: 030b e13d b2e7 443c 68bc 123e 27f7 17bd
00000100: 597a 023d 8fd6 e93d a15c 4b3e e828 d43d
00000110: de38 273e efe3 843d 1542 363e 0432 5dbb
00000120: 0270 e73d e466 bf3b 3c33 dc3d 663c f0bd
00000130: 116c 23be d5e7 9b3d 14ff a9bc 6a58 a7bd
00000140: 01cf 14be 2b86 8fbd 7a29 863c 89b4 1b3e
00000150: cd2d e63d c7c5 8d3d 940c 67bd 1096 5c3d
00000160: 1aca 03be bce5 133e 5387 da3d 4d9b 2bbd
00000170: e769 753d 8eeb 003e ced3 a43d 10ee 783c
00000180: 8ce4 0e3e f8fe 69bd e467 b7bc 924b 1b3d
00000190: 0537 583d 1d28 2fbe 3ac0 dc3d 16e1 5ebc
000001a0: c439 b93d f010 ff3d 139b 733e 75a5 653d
000001b0: 753f 363e 5925 b73d 3783 253e c2bb 923d
000001c0: 1e3c e03d b564 a33d b308 b73d 488d 893d
000001d0: c023 be3d 853e b63d 8416 d63d 8072 123c
000001e0: 86f1 0f3e 6e1b afbc b2c3 163e 9b50 083d
000001f0: da24 c0b9 f274 cf3d c931 cbbd e6ef 773e

a2c_network.actor_mlp.2.weight f4 [128, 128]
0.048685916 0.086211056 -0.06599557 -0.025346925 -0.06675545 -0.07790353 -0.0042477283 -0.026499463
-0.00501124 -0.101355456 0.006315662 -0.044519223 0.035969265 0.0041979924 -0.083440796 -0.0069818334
-0.022160694 -0.12016432 -0.0055216127 -0.12614867 0.09554238 0.082216255 -0.010408177 -0.041310925
0.0699735 -0.09021712 -0.034640785 0.028567972 0.052391008 -0.020181594 0.03508768 0.004178846
-0.118629366 0.056917086 -0.017966716 0.040585626 -0.022306252 0.052797638 -0.024224397 0.03201408
-0.022040488 -0.020578297 -0.178278 0.1243055 0.07059178 -0.12928127 -0.0006042268 0.08440637
-0.027499959 0.054917667 0.00398497 0.021894062 0.18577446 0.030140506 0.014532029 0.006799685
0.042018726 -0.08668899 -0.0073709055 -0.03149877 -0.070845 0.048270654 -0.13719033 -0.044076134
-0.10942312 0.031411573 0.024670027 -0.0775344 0.087166466 -0.03504122 -0.066568196 0.037726156
-0.04357795 -0.01720753 -0.08401469 0.005166594 -0.005678246 0.059719004 -0.06593985 -0.08955996
-0.036273915 0.033678427 0.00891766 -0.05653834 0.07918226 -0.04650145 -0.0027108078 -0.13297287
0.009730131 0.03593597 0.05691736 -0.14105351 -0.08296356 0.011484294 0.058679953 0.01124309
-0.06784017 -0.081466384 0.031217868 -0.015608961 0.056858927 -0.053207334 -0.046673294 0.055635497
0.009856786 0.008487246 0.06811881 0.046822622 0.010063998 -0.11943712 0.12726653 -0.07353392
0.1023306 0.044242952 -0.12418049 -0.10241301 -0.020926947 0.09731111 0.06752403 0.03861481
0.009855879 0.030220767 0.03989407 -0.07164343 0.057206795 -0.016624546 0.053679243 0.033876617
0.065177105 -0.06263306 0.006569368 -0.056706272 -0.0006505526 0.06565237 -0.06762503 -0.11841822
-0.07800101 -0.00015110613 -0.03641929 -0.071227305 0.0033289338 -0.056845114 0.004161529 -0.005565897
0.002766421 -0.030955775 -0.06593816 0.04696911 0.024112051 -0.030456143 0.07932366 0.002372061
0.019495293 0.04530307 -0.030032776 0.06305086 0.011559914 0.09532451 -0.059922945 0.026001355
0.0090405 -0.019869693 0.116977364 0.0027031435 0.08742564 -0.12117137 -0.0399248 0.02749521
-0.046414852 0.0060507236 0.111730635 -0.08397519 0.03144228 -0.04289729 0.046844568 -0.032207146
-0.09402485 -0.084656045 0.016983815 -0.07818287 -0.08454689 -0.026880508 0.028350832 -0.11552819
-0.03713223 0.072632894 -0.06617786 -0.10669839 -0.041579302 0.08722762 -0.017513406 -0.037366893
-0.10327217 -0.058922596 0.050781976 0.0035433837 -0.05075889 -0.104661874 -0.10566838 0.0014430895
0.01609609 0.11129174 -0.029752126 0.04334445 0.043113958 -0.021312773 0.06195763 0.04211985
0.060965125 0.0030889593 0.014560519 -0.05095136 0.12286408 -0.07288631 0.055945516 -0.07848989
-3.6264137e-05 -0.11215571 -0.033929512 0.029296149 -0.16716224 0.052445207 0.0028886965 0.11504067
-0.06807246 -0.08426382 0.01467066 0.03751619 0.031096319 0.079531506 -0.009424721 0.07079483
-0.09914953 -0.13072707 -0.13739064 -0.07970067 0.0032424484 0.045546807 0.043845948 -0.0836469
0.028317392 0.0954065 -0.023489725 -0.0178624 -0.10136445 -0.00696432 0.0373725 0.023336066
-0.04941048 0.072297215 -0.029573824 -0.043826178 0.024929585 0.032447923 0.033715747 -0.060341086
00000000: e26a 473d 6c8f b03d af28 87bd 5ba4 cfbc
00000010: 15b7 88bd e38b 9fbd 8730 8bbb 6715 d9bc
00000020: 5435 a4bb 7393 cfbd 9df3 ce3b ca59 36bd
00000030: 8254 133d 508f 893b 02e3 aabd ddc7 e4bb
00000040: 588a b5bc b618 f6bd a5ee b4bb 1e2d 01be
00000050: b9ab c33d ff60 a83d 0f87 2abc a535 29bd
00000060: 444e 8f3d c1c3 b8bd 7fe3 0dbd 6107 ea3c
00000070: f497 563d df53 a5bc 19b8 0f3d b3ee 883b
00000080: f4f3 f2bd e421 693d ef2e 93bc 1d3d 263d
00000090: 9abb b6bc 5642 583d 3e72 c6bc 3221 033d
000000a0: 418e b4bc d193 a8bc 828e 36be e293 fe3d
000000b0: 6c92 903d 4f62 04be f964 1eba 3fdd ac3d
000000c0: 9847 e1bc 59f1 603d 5a94 823b 2d5b b33c
000000d0: a93b 3e3e 39e9 f63c bf17 6e3c e4cf de3b
000000e0: d41b 2c3d ff89 b1bd a387 f1bb db04 01bd
000000f0: 2f17 91bd 73b7 453d 9f7b 0cbe 2d89 34bd
00000100: 3b19 e0bd 6ca9 003d cc18 ca3c 5bca 9ebd
00000110: 5584 b23d 6287 0fbd e854 88bd be86 1a3d
00000120: cb7e 32bd cef6 8cbc e50f acbd 884c a93b
00000130: 9410 babb ea9b 743d 790b 87bd 366b b7bd
00000140: f593 14bd 64f2 093d 611b 123c bf94 67bd
00000150: 4f2a a23d 4e78 3ebd cfa7 31bb 0a2a 08be
00000160: 216b 1f3c 9831 133d 2d22 693d 5570 10be
00000170: cde8 a9bd 9f28 3c3c 645a 703d f034 383c
00000180: c9ef 8abd d9d7 a6bd 9dbc ff3c babc 7fbc
00000190: e8e4 683d efef 59bd 7f2c 3fbd 0ce2 633d
000001a0: 5b7e 213c 170e 0b3c e081 8b3d 14c9 3f3d
000001b0: 78e3 243c 739b f4bd 2852 023e f498 96bd
000001c0: b592 d13d 1938 353d 5752 febd eabd d1bd
000001d0: fd6e abbc 0c4b c73d 0a4a 8a3d 902a 1e3d
000001e0: 8d7a 213c 8b91 f73c f767 233d cab9 92bd
000001f0: ac51 6a3d 3330 88bc c4de 5b3d 35c2 0a3d
00000200: 937b 853d c345 80bd da43 d73b d644 68bd
00000210: d989 2aba c074 863d fe7e 8abd 4085 f2bd
00000220: febe 9fbd 3e72 1eb9 652c 15bd 9fdf 91bd
00000230: 3e2a 5a3b 6cd6 68bd 6f5d 883b 2162 b6bb
00000240: d84c 353b f796 fdbc 960a 87bd ae62 403d
00000250: a386 c53c 297f f9bc 7174 a23d 9474 1b3b
00000260: 98b4 9f3c b68f 393d 4c07 f6bc cf20 813d
00000270: cb65 3d3c 7f39 c33d c371 75bd cb00 d53c
00000280: 9b1e 143c c4c5 a2bc d491 ef3d 3927 313b
00000290: 370c b33d b228 f8bd 3088 23bd a23d e13c
000002a0: 801d 3ebd 2645 c63b 08d3 e43d 2ffb abbd
000002b0: 9fc9 003d 12b5 2fbd 17e0 3f3d a4eb 03bd
000002c0: 1a90 c0bd 2660 adbd a421 8b3c 571e a0bd
000002d0: eb26 adbd 8334 dcbc 0140 e83c 0b9a ecbd
000002e0: f717 18bd 8ec0 943d 4288 87bd af84 dabd
000002f0: 0f4f 2abd 65a4 b23d 4678 8fbc 070e 19bd
00000300: 5c80 d3bd d258 71bd c300 503d 1d38 683b
00000310: 8ee8 4fbd f758 d6bd aa68 d8bd 0c26 bd3a
00000320: f3db 833c ecec e33d bbba f3bc f389 313d
00000330: 4398 303d 2098 aebc 49c7 7d3d dd85 2c3d
00000340: 91b6 793d 2370 4a3b 3e8f 6e3c 60b2 50bd
00000350: 2aa0 fb3d 6b45 95bd 2027 653d 4fbf a0bd
00000360: 521a 18b8 e5b1 e5bd acf9 0abd 7afe ef3c
00000370: 942c 2bbe c9d0 563d 4950 3d3b 719a eb3d
00000380: 9369 8bbd 8292 acbd 355d 703c 94aa 193d
00000390: b5bd fe3c 6ae1 a23d 256a 1abc e1fc 903d
000003a0: e90e cbbd 51dd 05be 22b0 0cbe 1b3a a3bd
000003b0: 427f 543b 4a8f 3a3d cf97 333d 114f abbd
000003c0: e0f9 e73c 7c64 c33d 866d c0bc 2b54 92bc
000003d0: 2a98 cfbd f334 e4bb e813 193d 472b bf3c
000003e0: a562 4abd 9010 943d ce44 f2bc 1483 33bd
000003f0: 2139 cc3c 1de8 043d 8619 0a3d 3728 77bd

a2c_network.actor_mlp.2.bias f4 [128]
-0.009124308 -0.10232327 0.00092010165 0.0035444032 0.056718707 0.015259414 0.049663886 0.0809381
-0.09325486 -0.019433718 -0.096210696 -0.03633995 -0.013265377 -0.075162105 -0.057272315 -0.058916956
0.012976001 -0.06834305 0.0032832979 -0.024553388 -0.13250548 0.07258327 -0.0067033647 -0.0648406
-0.14335407 -0.025797235 -0.017099304 0.0006020636 -0.17092735 0.037929874 -0.009934769 -0.07543281
0.02741386 0.060260244 0.04372493 -0.13467328 -0.0013028703 0.03960774 -0.15493962 -0.015113145
0.032680504 -0.018083839 0.021289036 0.005991556 0.00197833 -0.027134404 -0.11627182 -0.032609392
-0.012997799 -0.008467166 -0.01629494 -0.10755949 -0.028244464 0.054782044 -0.11511533 0.0016047566
0.02913739 -0.027780058 0.09871702 -0.07321764 -0.10282264 0.074500114 0.073663935 0.033683967
-0.028822847 -0.030645998 0.07940901 -0.0132373115 0.010024952 0.020897187 0.0679645 -0.012588644
0.047933992 -0.09836964 0.019621504 -0.16779487 -0.111355945 -0.095321186 -0.008733147 0.059925526
0.04937535 0.025581378 -0.008569514 -0.07849418 -0.093212545 0.062209867 -0.082754076 -0.07602889
0.046004955 0.010162572 -0.040036846 -0.029061452 0.026908087 0.09412983 0.07085446 -0.07800089
0.026767975 0.013519736 0.034437563 0.06455643 0.009487365 -0.038342703 -0.03553584 0.0072415587
0.051142156 0.035697415 -0.01554992 0.025470428 0.07451405 -0.051509652 0.025304947 -0.077012084
0.029747136 -0.0046892595 0.010877227 -0.02933354 0.06427522 -0.09138669 -0.04838189 -0.015311024
-0.05535829 -0.01004692 -0.008005872 0.036253344 -0.017638985 0.018957637 0.0011650355 -0.018971771
00000000: 1f7e 15bc dd8e d1bd fa32 713a 3849 683b
00000010: e051 683d 9f02 7a3c 5c6c 4b3d e0c2 a53d
00000020: 67fc bebd 7633 9fbc 1d0a c5bd 33d9 14bd
00000030: 0657 59bc 97ee 99bd 6096 6abd e852 71bd
00000040: 4b99 543c 71f7 8bbd 992c 573b 3024 c9bc
00000050: 84af 07be 8aa6 943d e6a7 dbbb 26cb 84bd
00000060: 69cb 12be b954 d3bc d713 8cbc ced3 1d3a
00000070: 9407 2fbe 5b5c 1b3d 71c5 22bc 847c 9abd
00000080: 0893 e03c 72d3 763d ea18 333d cbe7 09be
00000090: 13c5 aaba ba3b 223d 7ea8 1ebe 209d 77bc
000000a0: fedb 053d 8f24 94bc 5866 ae3c d154 c43b
000000b0: dfa6 013b f848 debc ec1f eebd 6d91 05bd
000000c0: b8f4 54bc deb9 0abc f77c 85bc 2648 dcbd
000000d0: ef60 e7bc 2363 603d 96c1 ebbd b256 d23a
000000e0: 89b1 ee3c 0193 e3bc 262c ca3d 21f3 95bd
000000f0: ad94 d2bd 8493 983d 1edd 963d 33f8 093d
00000100: e41d ecbc 510d fbbc 31a1 a23d 4fe1 58bc
00000110: b23f 243c 9430 ab3c f930 8b3d 9a40 4ebc
00000120: 6f56 443d 0676 c9bd 47bd a03c 6bd2 2bbe
00000130: 960e e4bd c137 c3bd 7915 0fbc 7874 753d
00000140: cf3d 4a3d 0a90 d13c 2667 0cbc 8fc1 a0bd
00000150: 38e6 bebd c6cf 7e3d f87a a9bd 09b5 9bbd
00000160: b16f 3c3d eb80 263c adfd 23bd 4812 eebc
00000170: 596e dc3c 24c7 c03d 251c 913d eebe 9fbd
00000180: 8348 db3c e281 5d3c 670e 0d3d 2936 843d
00000190: e570 1b3c 3d0d 1dbd 078e 11bd 994a ed3b
000001a0: 707a 513d 7437 123d 17c5 7ebc 5ca7 d03c
000001b0: d29a 983d c9fb 52bd 524c cf3c 83b8 9dbd
000001c0: 44b0 f33c 5ca8 99bb 6636 323c e44c f0bc
000001d0: baa2 833d f228 bbbd 172c 46bd 17db 7abc
000001e0: 60bf 62bd d69b 24bc 102b 03bc 637e 143d
000001f0: a27f 90bc 0c4d 9b3c 1bb4 983a b06a 9bbc

a2c_network.actor_mlp.4.weight f4 [128, 128]
0.0047638025 -0.052789528 -0.033431944 0.02178797 0.050408754 -0.10598254 -0.074212514 0.07042424
-0.049621835 0.028754307 0.044449653 0.003395703 0.0047557815 -0.07311579 0.0016861714 0.029250843
0.015628614 -0.02905746 -0.04868264 -0.06021926 0.041831546 0.058302343 0.042490818 0.035795584
-0.025903244 0.06390718 0.002528046 -0.057676814 -0.013277862 -0.05865114 -0.094383925 0.08157759
0.06325579 -0.063652605 -0.028827667 0.050856315 -0.048179362 0.0017533206 -0.10211787 -0.042632274
-0.047951646 -0.03192536 -0.08893217 -0.033501547 0.03044495 -0.05660067 -0.117965035 0.049154304
0.08157933 -0.04178524 0.022943128 -0.00978902 0.019278994 -0.026035756 -0.09044816 0.07510108
-0.057800435 0.036556575 -0.018970586 -0.06996603 -0.02037807 0.015019001 -0.0052628736 0.13701536
0.120609276 0.07705757 -0.056116864 -0.059584964 0.09069113 0.012242828 0.06806197 0.104835175
-0.049334254 0.039257422 0.03991975 -0.015191344 -0.059087664 -0.0050313543 0.087693326 0.010475409
0.020965507 0.0076202177 0.048171587 0.07581127 0.012122546 0.022351496 -0.045575347 -0.020429524
-0.06008855 0.057961207 0.055243086 -0.053667005 0.05523 -0.025067436 -0.06814626 -0.0012309253
-0.010392446 -0.03587011 0.09140542 0.0013820113 -0.077777766 0.0040308917 -0.008260291 -0.07506556
0.06025826 -0.0006261102 -0.0053128377 -0.025789242 -0.023264319 -0.07717917 -0.003538959 -0.042555563
0.038311254 0.0024111033 -0.12489492 -0.073805936 -0.072676525 0.02716781 0.094505236 0.032275278
0.05715089 0.04253541 -0.05610377 0.07251329 -0.060282357 -0.026506953 0.008612822 -0.07831287
0.0058620875 0.04793025 -0.01609825 0.03284492 0.060810775 -0.041261483 -0.058043744 0.022514831
-0.0400181 -0.04790234 0.009963616 0.06663696 -0.036449652 -0.009252669 -0.020516763 0.10851469
0.07051206 -0.03613766 -0.10955776 0.061659813 -0.08684876 -0.046511315 0.13463932 0.0054598385
-0.00862991 -0.07999967 -0.04312481 -0.022122322 0.047209144 -0.038266934 -0.02779488 0.016730653
-0.06308497 0.005083213 -0.06900388 -0.027994657 -0.05226902 0.05605589 -0.06065928 -0.103860416
-0.02426035 -0.07661632 -0.078502834 -0.044561084 0.045633852 -0.08004836 -0.06658453 0.044002503
0.040998302 0.006151755 0.10930333 0.040005825 -0.06655339 0.01374377 -0.03295905 0.08118518
-0.021191033 0.060798194 -0.03172425 -0.061623756 -0.06484906 0.08120121 -0.060565494 -0.01948832
-0.0032175835 -0.0805645 -0.04479238 0.07005263 0.083829835 0.0042548985 -0.033715192 -0.009455021
-0.018706013 -0.042806 0.021573083 0.048405048 0.13250685 -0.032697167 0.03136932 0.05221947
-0.025784794 -0.0152343325 0.023478383 0.0026365144 0.067176655 0.04469264 -0.017124496 0.039845206
0.071919404 0.056697156 0.0068632537 -0.055500425 0.025949957 -0.029663652 0.034369987 0.059625514
-0.038599346 -0.011536976 -0.026622914 -0.05239878 0.025146479 0.077837035 0.082371235 -0.05852364
-0.031298686 -0.036429156 0.05729949 -0.056128122 0.014574027 -0.0861479 0.021864504 0.043232977
-0.09642395 0.097683586 -0.021904891 0.067643225 -0.06099207 0.053544424 0.10574805 0.05852131
-0.009187917 0.0077804495 -0.07251845 0.0452311 0.036239352 0.041160975 -0.072192125 0.0487367
00000000: ac19 9c3b d539 58bd efef 08bd af7c b23c
00000010: 6979 4e3d 600d d9bd bbfc 97bd 953a 903d
00000020: 4440 4bbd 278e eb3c d710 363d 718a 5e3b
00000030: 63d6 9b3b bbbd 95bd 8602 dd3a 779f ef3c
00000040: 9407 803c e909 eebc 7367 47bd 79a8 76bd
00000050: 8e57 2b3d 70ce 6e3d da0a 2e3d 649e 123d
00000060: 0a33 d4bc c5e1 823d 93ad 253b 863e 6cbd
00000070: 648b 59bc 2e3c 70bd 5c4c c1bd 2712 a73d
00000080: 408c 813d 4c5c 82bd 0028 ecbc b64e 503d
00000090: b957 45bd adcf e53a 2c23 d1bd 2e9f 2ebd
000000a0: f268 44bd 2bc4 02bd 1222 b6bd eb38 09bd
000000b0: b067 f93c 1bd6 67bd a797 f1bd 0656 493d
000000c0: 1013 a73d 0027 2bbd 3af3 bb3c 2062 20bc
000000d0: fbee 9d3c f048 d5bc e33c b9bd 98ce 993d
000000e0: 26c0 6cbd 59bc 153d 3468 9bbc 5a4a 8fbd
000000f0: e9ef a6bc 4212 763c 2f74 acbb c14d 0c3e
00000100: ff01 f73d 5cd0 9d3d ccda 65bd 5d0f 74bd
00000110: 45bc b93d 2496 483c 1364 8b3d d3b3 d63d
00000120: b712 4abd 64cc 203d e482 233d 1de5 78bc
00000130: e805 72bd 0fde a4bb 8f98 b33d 0da1 2b3c
00000140: dbbf ab3c 05b3 f93b 924f 453d f042 9b3d
00000150: a59d 463c 7c1a b73c 37ad 3abd d15b a7bc
00000160: 691f 76bd bb68 6d3d 9346 623d efd1 5bbd
00000170: da38 623d 395a cdbc 4490 8bbd 0057 a1ba
00000180: 1445 2abc 89ec 12bd c432 bb3d 9b24 b53a
00000190: f349 9fbd 9215 843b 2c56 07bc f9bb 99bd
000001a0: 5ed1 763d 8b21 24ba 5017 aebb f643 d3bc
000001b0: d094 bebc 1d10 9ebd e1ed 67bb be4e 2ebd
000001c0: 43ec 1c3d 9a03 1e3b e8c8 ffbd 9127 97bd
000001d0: 6ed7 94bd 078f de3c f68b c13d 1533 043d
000001e0: 0d17 6a3d 9c39 2e3d 11cd 65bd d981 943d
000001f0: a2ea 76bd 1c25 d9bc cb1c 0d3c 7f62 a0bd
00000200: c116 c03b 8352 443d 7ae0 83bc 6588 063d
00000210: b814 793d cd01 29bd 47bf 6dbd 0671 b83c
00000220: 05ea 23bd 3e35 44bd 6f3e 233c f578 883d
00000230: 3b4c 15bd 8298 17bc c512 a8bc f33c de3d
00000240: a068 903d 1505 14bd d25f e0bd 008f 7c3d
00000250: c3dd b1bd a682 3ebd e4de 093e 72e8 b23b
00000260: 7764 0dbc ded6 a3bd a4a3 30bd df39 b5bc
00000270: 605e 413d cabd 1cbd 17b2 e3bc b90e 893c
00000280: b132 81bd 1591 a63b e851 8dbd 0d55 e5bc
00000290: 0a18 56bd dc9a 653d dd75 78bd c5b4 d4bd
000002a0: a4bd c6bc 04e9 9cbd 18c6 a0bd af85 36bd
000002b0: 90ea 3a3d 65f0 a3bd 785d 88bd f83b 343d
000002c0: d6ed 273d a994 c93b 6dda df3d 26dd 233d
000002d0: 254d 88bd 8d2d 613c 1200 07bd 6a44 a63d
000002e0: d198 adbc 8707 793d 4af1 01bd 3169 7cbd
000002f0: 95cf 84bd d24c a63d 8613 78bd f8a5 9fbc
00000300: 18de 52bb 00ff a4bd 3778 37bd c177 8f3d
00000310: faae ab3d ad6c 8b3b f118 0abd 3be9 1abc
00000320: 5a3d 99bc 5855 2fbd 09ba b03c 5f44 463d
00000330: e0af 073e 77ed 05bd 1e7d 003d 15e4 553d
00000340: a23a d3bc 6c99 79bc bd55 c03c 5fc9 2c3b
00000350: ea93 893d a10f 373d ac48 8cbc ba34 233d
00000360: 7b4a 933d 473b 683d 25e5 e03b 6a54 63bd
00000370: 0195 d43c 3001 f3bc 8bc7 0c3d e239 743d
00000380: 591a 1ebd 9605 3dbc 4c18 dabc 1aa0 56bd
00000390: fdff cd3c 0669 9f3d 40b2 a83d 7cb6 6fbd
000003a0: 0d33 00bd bd36 15bd dfb2 6a3d 9ae6 65bd
000003b0: e6c7 6e3c 4f6e b0bd 301d b33c 1015 313d
000003c0: eb79 c5bd 550e c83d e371 b3bc 8888 8a3d
000003d0: d2d2 79bd 6651 5b3d 6f92 d83d 0bb4 6f3d
000003e0: eb88 16bc 24f3 fe3b 8e84 94bd 3f44 393d
000003f0: b76f 143d 6998 283d 77d9 93bd 22a0 473d

a2c_network.actor_mlp.4.bias f4 [128]
0.034181826 0.020563709 -0.03868483 -0.059968486 -0.097013615 0.0054596174 0.046040367 0.030709768
0.02877185 0.0596712 0.008083169 -0.031043157 -0.02735446 0.052701004 -0.051236928 -0.00809466
-0.034858584 -0.036547102 -0.0493596 -0.049671397 0.038893495 0.0046852925 0.025601408 0.010605949
-0.005087877 -0.02772539 -0.11161068 -0.024662115 0.07031864 0.043069933 -0.013510033 0.024729969
0.090326585 -0.044612505 -0.0045395186 -0.10122444 0.029513264 0.07559622 -0.014496535 -0.04495356
0.0145875905 -0.0048094653 0.029538592 -0.035305787 0.011807912 0.03567102 -0.05568282 0.10367044
0.055756316 0.07707784 -0.04514306 -0.07828969 0.05677435 -0.05300215 0.075908266 -0.08174995
0.033436317 -0.06516098 -0.0962964 0.040153835 0.058405597 -0.020977965 -0.013921036 0.0857322
-0.031890135 0.033293217 0.06634996 -0.00709653 0.05549165 -0.11909914 0.023534138 0.00034691492
-0.03337547 -0.020856846 -0.023510873 0.0055315127 0.06312234 0.008442746 -0.034399275 -0.026166031
-0.10204702 0.06476655 -0.045468263 -0.080035314 -0.009492441 0.051339187 -0.018439759 0.07863111
-0.07513713 -0.012643296 0.04440729 -0.04854378 0.027333695 -0.07031737 -0.014075115 0.01764756
-0.028255213 -0.0081660785 -0.032854084 0.0045383247 -0.018190395 -0.003078566 -0.048539285 0.017707607
0.05623422 -0.025242945 -0.013432446 -0.05968544 0.09722852 0.04058637 0.057267904 -0.026819404
-0.059558 0.005761834 0.05752848 -0.08668124 -0.06180134 0.051007748 0.03702265 -0.05664941
-0.009989905 0.052123986 -0.026245473 -0.0025490155 0.07250212 -0.06871573 0.037917923 0.025361
00000000: 3e02 0c3d 3975 a83c fc73 1ebd 84a1 75bd
00000010: 13af c6bd 97e6 b23b d394 3c3d 0d93 fb3c
00000020: f1b2 eb3c ca69 743d 456f 043c 384e febc
00000030: 7616 e0bc 02dd 573d d0dd 51bd 779f 04bc
00000040: e0c7 0ebd 6ab2 15bd 4b2d 4abd 3c74 4bbd
00000050: c94e 1f3d 1587 993b 0bba d13c 93c4 2d3c
00000060: 35b8 a6bb 5b20 e3bc 2494 e4bd 3408 cabc
00000070: 3803 903d 196a 303d 2f59 5dbc 8196 ca3c
00000080: 25fd b83d 9abb 36bd 3ec0 94bb c24e cfbd
00000090: cdc5 f13c 31d2 9a3d e082 6dbc 3921 38bd
000000a0: ca00 6f3c b898 9dbb ebfa f13c cd9c 10bd
000000b0: f975 413c c71b 123d ab13 64bd 2b51 d43d
000000c0: bc60 643d fdda 9d3d eee7 38bd 5856 a0bd
000000d0: 398c 683d c818 59bd cb75 9b3d 856c a7bd
000000e0: 85f4 083d 1f73 85bd 0c37 c5bd 5978 243d
000000f0: b53a 6f3d fbd9 abbc 0f15 64bc 5d94 af3d
00000100: 3b9f 02bd 785e 083d 7de2 873d 028a e8bb
00000110: 364b 633d 40ea f3bd aaca c03c 22e2 b539
00000120: b8b4 08bd fadb aabc e099 c0bc b141 b53b
00000130: 4946 813d 7153 0a3c 41e6 0cbd 255a d6bc
00000140: 07fe d0bd 53a4 843d ee3c 3abd 8ee9 a3bd
00000150: 2f86 1bbc 0a49 523d fa0e 97bc 5909 a13d
00000160: 7fe1 99bd d425 4fbc 6be4 353d d8d5 46bd
00000170: eaea df3c 8e02 90bd 509b 66bc 9e91 903c
00000180: 7a77 e7bc 04cb 05bc 0192 06bd 3ab6 943b
00000190: 0604 95bc c4c1 49bb 21d1 46bd 8b0f 913c
000001a0: da55 663d 4bca cebc c313 5cbc b878 74bd
000001b0: bf1f c73d e53d 263d c091 6a3d 5eb4 dbbc
000001c0: 17f3 73bd c4cd bc3b fca2 6b3d ef85 b1bd
000001d0: 6723 7dbd 80ed 503d 10a5 173d 3609 68bd
000001e0: b3ac 23bc f67f 553d bf00 d7bc 620d 27bb
000001f0: fe7b 943d d5ba 8cbd d34f 1b3d dfc1 cf3c

a2c_network.value.weight f4 [1, 128]
-0.009890462 -0.028433751 -0.029853612 0.027289297 0.019057116 0.050373204 0.022537261 0.014453583
-0.055192035 -0.006657239 0.0065340176 0.016250476 0.029322276 0.034430698 0.0073242276 0.04885988
-0.0025265832 0.011050848 0.049742617 -0.012926204 0.0034676718 -0.09490952 -0.0122491205 0.005001858
0.03722827 -0.07365417 0.0016850448 0.026215067 0.03433813 -0.018775757 -0.044134576 -0.060022954
-0.0048139454 0.03807774 -0.018117258 -0.035694327 0.020813523 0.01869263 -0.019334786 0.045707967
-0.028791923 0.004916925 -0.0099505745 -0.033585407 -0.027142243 -0.008819845 0.065866485 0.0012171685
-0.008567827 -0.002744228 0.023899885 -0.013002717 -0.012897499 0.040828783 0.015085947 0.0054195607
0.0032219042 -0.011863528 8.416779e-05 0.03355811 0.022768037 -0.0055671665 0.048695248 -0.01019098
0.05119441 -0.00066618837 0.022771062 -0.09133082 0.005542555 0.018894901 -0.029639611 0.04209246
0.027579084 0.05518847 0.033947162 -0.05876599 -0.012047425 0.0047434983 0.011529329 0.00082609337
-0.026402287 -0.03595174 -0.013681127 0.004729588 -0.058672577 -0.012506769 0.032318007 0.01157275
0.042162035 0.023433672 0.0046036458 -0.039910417 -0.055914804 -0.03129464 0.01997588 0.03253375
0.03496967 -0.055248328 0.041170914 -0.07238191 -0.03397962 -0.006763299 0.041425712 -0.015374446
0.010209541 -0.071490444 -0.07483668 0.008544482 -0.0071797916 -0.020980617 0.020999556 0.049320992
-0.018276477 0.013203414 0.007211684 0.024095062 0.045377076 -0.041636296 -0.053352777 0.04146192
-0.037168782 0.03411307 0.035224527 0.0712681 0.013632426 -0.023208806 -0.02031497 -0.00708635
00000000: 9b0b 22bc e6ed e8bc 908f f4bc ce8d df3c
00000010: ab1d 9c3c 2254 4e3d 10a0 b83c b9ce 6c3c
00000020: 0b11 62bd f824 dabb 501b d63b b81f 853c
00000030: 4535 f03c 3407 0d3d 1300 f03b 4c21 483d
00000040: 0895 25bb 9e0e 353c eabe 4b3d 6ec8 53bc
00000050: e141 633b ec5f c2bd 89b0 48bc a0e6 a33b
00000060: ac7c 183d ffd7 96bd b9dc dc3a fbc0 d63c
00000070: 24a6 0c3d 9ecf 99bc 75c6 34bd a1da 75bd
00000080: 4dbe 9dbb 68f7 1b3d a56a 94bc 3734 12bd
00000090: 1f81 aa3c 4921 993c fc63 9ebc 4738 3b3d
000000a0: 0add ebbc 281e a13b bc07 23bc da90 09bd
000000b0: 6959 debc 1c81 10bc 02e5 863d 6689 9f3a
000000c0: 1260 0cbc 82d8 33bb b1c9 c33c 5909 55bc
000000d0: 0850 53bc 153c 273d 0c2b 773c 9296 b13b
000000e0: 9526 533b 3e5f 42bc 3d83 b038 3b74 093d
000000f0: 0984 ba3c c76c b6bb ab74 473d 11f8 26bc
00000100: 3bb1 513d 25a3 2eba 618a ba3c a70b bbbd
00000110: 529e b53b 7bc9 9a3c c5ce f2bc 2569 2c3d
00000120: 88ed e13c 4e0d 623d 2e0c 0b3d 9bb4 70bd
00000130: 9062 45bc 596f 9b3b 83e5 3c3c 308e 583a
00000140: 9c49 d8bc 2242 13bd ce26 60bc a9fa 9a3b
00000150: a852 70bd 31e9 4cbc e35f 043d a29b 3d3c
00000160: 19b2 2c3d f9f7 bf3c 2eda 963b 1b79 23bd
00000170: ec06 65bd cf2e 00bd 75a4 a33c 1c42 053d
00000180: 5b3c 0f3d 124c 62bd d5a2 283d f83c 94bd
00000190: 372e 0bbd aa9e ddbb 02ae 293d 1ae5 7bbc
000001a0: eb45 273c 9569 92bd f943 99bd 28fe 0b3c
000001b0: 7544 ebbb 8bdf abbc 4307 ac3c cf04 4a3d
000001c0: 8db8 95bc 2253 583c fd4f ec3b 0263 c53c
000001d0: 50dd 393d d28a 2abd 7188 5abd f9d3 293d
000001e0: 4b3e 18bd 26ba 0b3d 9847 103d 02f5 913d
000001f0: 8a5a 5f3c 6520 bebc 946b a6bc 9d34 e8bb

a2c_network.mu.weight f4 [18, 128]
-0.012138795 0.011178934 -0.011506259 0.14928044 0.11981624 0.008256886 -0.030911561 0.012147761
-0.03973714 -0.11497207 0.0013652507 -0.08349616 -0.04516836 -0.07356915 0.121125884 0.028380468
0.020179503 0.08166388 -0.027471608 -0.0961849 -0.095201574 -0.047622222 0.001042783 0.027289718
-0.06682659 0.054177914 -0.0035772396 -0.08805025 0.063321106 0.02442904 0.07623057 -0.05751463
-0.043913294 -0.08343715 -0.087361805 0.028251858 0.08245309 -0.06936864 -0.049502455 -0.05236896
0.06832314 0.07828155 -0.059406705 -0.09628309 -0.012927158 -0.11710766 0.047962893 -0.032869842
0.01915104 -0.0030162667 0.1353671 0.005120972 -0.08536471 -0.05510076 -0.093384966 -0.013352218
0.08026409 0.086847074 0.13455565 0.04490596 -0.06516711 -0.012119449 0.0566841 -0.0088495705
0.069124 -0.03693115 0.1431573 0.024452675 -0.082021445 0.0043549095 0.059089407 0.00054545014
-0.020455224 0.105482295 0.14007442 0.059726603 -0.095762685 -0.08866103 0.030218432 0.050127465
-0.004995877 -0.014532418 0.05287933 -0.06559298 0.040600277 0.03471581 0.03467525 0.034051776
0.0032744776 -0.067796856 -0.092704676 0.043037392 -0.0063876607 0.019823017 0.062011216 0.009484614
0.045909256 -0.02679408 -0.048374467 0.08564665 0.009985257 0.055195168 0.049211673 0.099790625
0.08145112 0.037373744 -0.029191898 -0.04389996 -0.07949743 0.025383508 -0.07306652 -0.101234816
0.1094174 -0.097101875 -0.034171905 0.0460838 -0.016338812 -0.09032522 -0.16035867 0.13185254
0.069347456 -0.12113708 0.016235089 -0.05615966 -0.091791004 0.08788785 -0.007644492 -0.047176935
-0.00834307 -0.088811755 -0.019469352 0.15755598 0.16316684 -0.080490075 0.051130917 -0.07662764
0.065571316 -0.09213807 -0.021397749 -0.06695651 -6.5608496e-05 -0.07784039 -0.01607982 -0.059302483
0.0050263936 0.01110842 0.01751623 -0.06423994 0.04970827 -0.027430708 0.03374496 0.07644016
-0.06892236 -0.018779559 0.0077922023 -0.10861011 -0.110203214 -0.050498936 -0.021443117 -0.03927553
-0.067086615 -0.04659175 -0.011883194 0.011013053 0.08645338 -0.03776581 0.10086159 -0.053465143
0.037527483 -0.023584928 0.059735246 0.089375965 0.021709336 0.01987513 0.0208976 -0.054406516
-0.022183355 -0.07210686 -0.03559338 0.012037449 0.0271144 -0.025474679 -0.16539475 -0.019497268
0.012937931 0.07978066 0.1021481 0.024938688 -0.0008748176 -0.011163762 0.005707877 -0.04429052
0.042331487 0.055942837 -0.058025774 0.066031516 0.018383048 0.10104221 0.008464118 -0.023837302
0.024351086 -0.04492843 -0.050227407 0.045714784 -0.105642386 0.041993964 0.07222276 -0.03443244
0.024376178 0.10260734 -0.031112421 0.06432545 0.021710377 -0.10241166 -0.05773061 -0.07799316
0.103383034 -0.0247661 0.018707782 -0.046639815 -0.028838588 -0.0885465 0.11118899 -0.07449949
0.051605 -0.016485004 0.042079028 -0.031140236 0.033941217 -0.037163217 0.10173387 0.00012348019
0.10939811 0.001059351 0.054115646 0.06749353 -0.14523868 0.010128236 0.027923709 -0.028769396
0.012882784 0.03134767 -0.051112726 0.06263012 -0.034040626 -0.05102873 -0.13720967 0.053857513
0.09921778 -0.086631104 0.013042673 -0.10190085 0.0024424433 0.04525327 0.06675281 -0.03270115
00000000: cce1 46bc d927 373c c084 3cbc f9dc 183e
00000010: 3862 f53d e447 073c 3e3a fdbc 6707 473c
00000020: 69c3 22bd 7a76 ebbd 36f2 b23a 0900 abbd
00000030: 7502 39bd 6cab 96bd d910 f83d 287e e83c
00000040: 7c4f a53c 643f a73d 230c e1bc 97fc c4bd
00000050: 0bf9 c2bd 850f 43bd fead 883a b08e df3c
00000060: 61dc 88bd a9e9 5d3d 1f70 6abb b153 b4bd
00000070: 7fae 813d 691f c83c c61e 9c3d 7694 6bbd
00000080: 6dde 33bd 19e1 aabd bfea b2bd 7170 e73c
00000090: 2add a83d 2511 8ebd 16c3 4abd d680 56bd
000000a0: 01ed 8b3d 1452 a03d 7254 73bd 1230 c5bd
000000b0: 6ecc 53bc 24d6 efbd bd74 443d 87a2 06bd
000000c0: a4e2 9c3c 8fac 45bb ac9d 0a3e d4cd a73b
000000d0: b1d3 aebd 56b1 61bd 9e40 bfbd 43c3 5abc
000000e0: 8061 a43d e1dc b13d f5c8 093e 50ef 373d
000000f0: 5576 85bd a790 46bc 962d 683d cafd 10bc
00000100: e290 8d3d 1e45 17bd d497 123e fa50 c83c
00000110: dcfa a7bd a1b3 8e3b bc07 723d 8afc 0e3a
00000120: b791 a7bc 1a07 d83d ab6f 0f3e e2a3 743d
00000130: 3a1f c4bd ea93 b5bd a58c f73c 7552 4d3d
00000140: 74b4 a3bb 6119 6ebc ff97 583d 9d55 86bd
00000150: 7a4c 263d 2a32 0e3d a307 0e3d e079 0b3d
00000160: 9e98 563b 14d9 8abd f3db bdbd fa47 303d
00000170: 954f d1bb e163 a23c 79ff 7d3d 5b65 1b3c
00000180: 580b 3c3d 427f dbbc 4e24 46bd 8367 af3d
00000190: 3499 233c 5414 623d 2e92 493d 075f cc3d
000001a0: d8cf a63d 3615 193d d923 efbc 72d0 33bd
000001b0: 8ccf a2bd 13f1 cf3c e6a3 95bd 3354 cfbd
000001c0: 3b16 e03d 59dd c6bd d7f7 0bbd 5ec2 3c3d
000001d0: f9d8 85bc 6efc b8bd 1035 24be 5a04 073e
000001e0: 0a06 8e3d b816 f8bd 73ff 843c ac07 66bd
000001f0: ecfc bbbd 8cfe b33d a67e fabb 9a3c 41bd
00000200: 5fb1 08bc f0e2 b5bd 317e 9fbc 5b56 213e
00000210: 3515 273e fbd7 a4bd a76e 513d f4ee 9cbd
00000220: 414a 863d e2b2 bcbd 554a afbc 7f20 89bd
00000230: 4b97 89b8 c86a 9fbd d4b9 83bc 29e7 72bd
00000240: 72b4 a43b 1700 363c 327e 8f3c 3b90 83bd
00000250: e69a 4b3d 5db6 e0bc 2838 0a3d a98c 9c3d
00000260: 2b27 8dbd 97d7 99bc bb55 ff3b fa6e debd
00000270: 39b2 e1bd f9d7 4ebd 7aa9 afbc 61df 20bd
00000280: b564 89bd fed6 3ebd bab1 42bc 1870 343c
00000290: 780e b13d 52b0 1abd 8590 ce3d 44fe 5abd
000002a0: 6bb6 193d 2e35 c1bc f2ac 743d bf0a b73d
000002b0: c7d7 b13c 2bd1 a23c 7231 ab3c 5ed9 5ebd
000002c0: deb9 b5bc c3ac 93bd 5dca 11bd b838 453c
000002d0: 051f de3c 46b0 d0bc 3e5d 29be bcb8 9fbc
000002e0: 9ef9 533c 0b64 a33d 0633 d13d 384c cc3c
000002f0: 0454 65ba 36e8 36bc 2509 bb3b fa69 35bd
00000300: c863 2d3d 5124 653d 6fac 6dbd 883b 873d
00000310: 0c98 963c 38ef ce3d 15ad 0a3c 7246 c3bc
00000320: ee7b c73c e006 38bd 41bb 4dbd 6d3f 3b3d
00000330: 095b d8bd dd01 2c3d 87e9 933d 0809 0dbd
00000340: 8db0 c73c cc23 d23d 7adf febc 10bd 833d
00000350: f6d9 b13c 34bd d1bd ef76 6cbd e1ba 9fbd
00000360: 7cba d33d 47e2 cabc 1041 993c 6409 3fbd
00000370: e73e ecbc de57 b5bd 0eb7 e33d 3093 98bd
00000380: c45f 533d 8f0b 87bc 0f5b 2c3d cf19 ffbc
00000390: f205 0b3d 7538 18bd d959 d03d 767a 0139
000003a0: 1e0c e03d ecd9 8a3a 5ea8 5d3d 0c3a 8a3d
000003b0: 73b9 14be e7f0 253c 43c0 e43c ccad ebbc
000003c0: 5012 533c 6a66 003d 945b 51bd 3844 803d
000003d0: 2f6e 0bbd 8003 51bd b180 0cbe b299 5c3d
000003e0: b132 cb3d a66b b1bd efb0 553c 65b1 d0bd
000003f0: 6611 203b 7e5b 393d b2b5 883d a4f1 05bd

a2c_network.mu.bias f4 [18]
-0.046321057 -0.04068987 0.013675574 0.033349782 -0.00667346 0.016901342 0.07763533 0.06192869
0.035684947 0.03207551 0.07198619 0.07489831 -0.060750928 -0.038254805 -0.058574565 -0.071284644
-0.074058525 -0.06364773
00000000: 26bb 3dbd 6caa 26bd 840f 603c c899 083d
00000010: 0aad dabb af74 8a3c 46ff 9e3d f0a8 7d3d
00000020: 612a 123d 9c61 033d 7f6d 933d 4964 993d
00000030: f7d5 78bd 12b1 1cbd e2eb 6fbd affd 91bd
00000040: ffab 97bd be59 82bd

exp_avg f4 [18]
-0.0010615818 -0.0011666593 0.0029190804 0.0072275563 0.009346741 0.0074679377 -0.0029802541 -0.00047630133
-0.002969664 0.00070151215 7.657918e-05 0.00049802876 0.000100823534 0.0032616623 -0.0023479792 0.0015549919
0.00017187862 -0.0027566548
00000000: c624 8bba 97ea 98ba 0b4e 3f3b 23d5 ec3b
00000010: 1323 193c 9ab5 f43b 5e50 43bb 15b8 f9b9
00000020: b29e 42bb afe5 373a 2299 a038 258e 023a
00000030: 3971 d338 9dc1 553b 8ee0 19bb dfd0 cb3a
00000040: 513a 3439 fea8 34bb

exp_avg_sq f4 [18]
4.7127265e-05 5.104507e-05 5.2766987e-05 0.00036410373 8.8285524e-05 6.4831365e-05 4.8771835e-05 4.192882e-05
4.428697e-05 9.190763e-05 4.541442e-05 4.5598623e-05 4.7498823e-05 4.5011257e-05 4.3730106e-05 4.452825e-05
4.8290414e-05 5.306632e-05
00000000: 84aa 4538 3a19 5638 1f52 5d38 2de5 be39
00000010: ee25 b938 13f6 8738 5c90 4c38 badc 2f38
00000020: c6c0 3938 88be c038 5d7b 3e38 2641 3f38
00000030: 7939 4738 78ca 3c38 d86a 3738 d8c3 3a38
00000040: 708b 4a38 8793 5e38

exp_avg f4 [128, 66]
-1.6223099e-06 1.1422804e-06 0.00022191135 -4.6130357e-05 2.232021e-05 -6.481454e-05 -5.854707e-07 1.9653307e-07
3.0259715e-05 0.00011651456 0.00011039203 -1.9417137e-05 6.985968e-05 7.605007e-05 8.605335e-05 -9.356448e-05
-3.4168876e-05 9.166672e-05 -7.709687e-05 -3.9133474e-06 -3.6939506e-05 6.7362984e-05 -0.00010131238 -6.685827e-05
9.139887e-05 7.3346484e-05 0.000121869256 8.1407714e-05 7.961546e-05 8.458674e-05 0.0004851454 0.00014567775
-0.00012778584 -0.00017716057 0.0015582555 -0.0003189254 0.0008657805 0.0010668404 -0.00038852828 0.0008591077
-0.0002345154 -0.00014178637 0.00041523116 0.00030797132 0.0013058754 -0.00011275268 0.0005562269 0.0007672576
0.00018073831 0.00013586562 0.00016098183 -0.00019595407 7.456508e-05 0.00018357484 -8.77458e-05 6.8266956e-05
-0.00022007119 0.00020921508 -0.00019646896 -0.00013240076 0.00021786224 0.00016033051 0.00032900847 0.00015870722
0.00017477093 0.00022630613 -8.326082e-06 -2.7618329e-08 0.00025133404 -1.5445097e-05 -7.4050236e-06 -0.00032082712
3.5536942e-07 -3.94045e-06 0.00023298225 -0.00014258122 -9.423619e-05 -0.00023058178 0.00014667935 7.805239e-05
0.00011484885 -0.00010249109 -1.7693852e-05 7.320538e-05 -0.00014547938 3.0140696e-05 1.1506185e-06 3.3212207e-05
-0.00012913917 -6.7038614e-05 0.00010480052 7.7374134e-05 0.0001264185 9.344518e-05 8.2793864e-05 1.8900857e-05
0.0025245259 -0.00028239464 0.0006788582 -0.00036606198 0.0025205726 0.0029148033 -0.0011535382 0.00031737683
0.0008855824 0.00081086473 0.0001534688 -0.001134188 0.00023486585 -4.5930905e-05 -0.000100483085 0.0012331116
0.0008822947 3.9142742e-05 0.00043871583 0.00012758297 0.0003096213 -0.00022664701 0.00020274546 0.0003612975
-0.00038461166 -5.4884913e-05 -2.4804309e-05 9.537062e-05 -0.00023310973 -0.00016956912 0.00023278838 0.00016734247
0.00022832298 0.00026211032 0.0002067064 3.9763592e-05 3.7085535e-06 -3.2725286e-06 -0.000107659755 -3.2744745e-05
5.2119462e-06 0.00017666949 -2.6915706e-07 1.7069237e-06 4.7925437e-06 -0.00010683967 1.43232855e-05 1.4564364e-05
-7.260446e-05 -6.024418e-05 -6.326488e-05 5.1175943e-05 6.071828e-05 -2.590785e-05 5.0719365e-05 -1.5388059e-06
-1.624124e-05 -2.1117865e-05 7.679774e-05 3.315876e-05 -4.3907457e-05 2.956333e-05 -5.2618314e-05 -7.416838e-05
-7.116642e-05 -5.918006e-05 -0.00037326576 0.00021462099 -0.0010660309 -0.00017036281 -0.0013421727 -0.0015668066
0.00030557739 -0.0017867577 -0.0016788243 -0.0019601197 0.00013025303 -0.0006265587 0.000312514 -0.00075525633
9.713117e-05 -0.00040681026 -2.3373706e-05 -0.0008807929 -0.0001565468 -0.00010178551 -0.00019046174 8.905548e-05
3.4452954e-05 -0.00013710465 8.324965e-05 -0.00017067188 -0.0001556755 -0.00018299538 0.0001224018 3.4113895e-05
-7.4489195e-05 -3.8857233e-05 -7.941125e-05 -0.00017503923 -0.0001521104 -0.00018239573 -4.7871804e-06 -3.2552705e-06
0.00047311196 -1.7271801e-05 -1.9377505e-05 -0.00016727406 -1.1646277e-07 -3.3492652e-06 0.0007348305 -0.00016030949
-2.282314e-05 4.3410826e-05 0.00013401905 0.00019527289 0.00018839928 -0.00023792917 -2.9767165e-05 -1.2987413e-06
-0.0002675365 -9.528364e-05 -0.00013446406 -6.9425532e-06 -0.00024439942 -0.00020579324 0.00019154794 4.7579157e-05
0.00020499619 0.00016397068 0.00016681367 0.000104797706 0.0019173613 0.00011748556 0.00040044202 -0.0010589306
0.0022219878 0.0010851192 -0.0019160906 -0.0004290826 0.00044537755 0.0016348656 -0.0009191162 -0.0010077913
0.001236426 8.032122e-05 0.00064260274 0.0012762345 0.0024683222 0.0005019505 0.00041744072 0.00037293023
0.00041615329 -0.0005395722 0.00020722863 7.497655e-05 -0.00072649994 -0.00033562543 -0.00026730372 0.00016309849
00000000: 25be d9b5 7550 9935 e0b0 6839 187c 41b8
00000010: 493c bb37 0bed 87b8 3d29 1db5 9906 5334
00000020: 3ed6 fd37 4759 f438 4582 e738 fce1 a2b7
00000030: a181 9238 127d 9f38 8a77 b438 0c38 c4b8
00000040: 8d50 0fb8 323d c038 11af a1b8 664f 83b6
00000050: 7eef 1ab8 3a45 8d38 ab77 d4b8 4336 8cb8
00000060: 65ad bf38 98d1 9938 0f94 ff38 6fb9 aa38
00000070: 3af7 a638 2964 b138 1d5b fe39 13c1 1839
00000080: 40fe 05b9 2ec4 39b9 613e cc3a 7135 a7b9
00000090: 8cf5 623a 39d5 8b3a 62b3 cbb9 be35 613a
000000a0: 40e8 75b9 7dac 14b9 62b3 d939 3677 a139
000000b0: e829 ab3a a275 ecb8 c1cf 113a c921 493a
000000c0: 9284 3d39 2677 0e39 3bcd 2839 0579 4db9
000000d0: d35f 9c38 ff7d 4039 2b04 b8b8 8b2a 8f38
000000e0: e9c2 66b9 bf60 5b39 3c03 4eb9 0fd5 0ab9
000000f0: f371 6439 651e 2839 c57e ac39 a56a 2639
00000100: b742 3739 974c 6d39 40b0 0bb7 593d edb2
00000110: 7cc5 8339 1890 81b7 ab78 f8b6 b034 a8b9
00000120: 9ac9 be34 3538 84b6 b24c 7439 db81 15b9
00000130: aba0 c5b8 53c8 71b9 f0cd 1939 0fb0 a338
00000140: 02db f038 7cf0 d6b8 426d 94b7 d785 9938
00000150: d38b 18b9 a7d6 fc37 f36e 9a35 564d 0b38
00000160: 8869 07b9 1597 8cb8 5ac8 db38 ec43 a238
00000170: 358f 0439 00f8 c338 9ea1 ad38 488d 9e37
00000180: 8472 253b 5e0e 94b9 67f5 313a 02ec bfb9
00000190: 3130 253b 4906 3f3b 5232 97ba 9965 a639
000001a0: 6e26 683a 3690 543a 78ec 2039 09a9 94ba
000001b0: 5246 7639 efa5 40b8 72ba d2b8 5ca0 a13a
000001c0: cc49 673a 332d 2438 7103 e639 cbc7 0539
000001d0: ab54 a239 18a8 6db9 1298 5439 886c bd39
000001e0: b4a5 c9b9 3a34 66b8 d912 d0b7 b601 c838
000001f0: eb6e 74b9 5dce 31b9 a818 7439 a778 2f39
00000200: fc69 6f39 da6b 8939 54bf 5839 d5c7 2638
00000210: 77e0 7836 9d9d 5bb6 64c7 e1b8 6757 09b8
00000220: 47e2 ae36 5b40 3939 aa80 90b4 7419 e535
00000230: a3cf a036 1c0f e0b8 0b4e 7037 7859 7437
00000240: 3943 98b8 b2ae 7cb8 13ad 84b8 c0a5 5638
00000250: c2ab 7e38 af54 d9b7 81bb 5438 f888 ceb5
00000260: cc3d 88b7 4526 b1b7 790e a138 f313 0b38
00000270: 4629 38b8 c5fe f737 7cb2 5cb8 d98a 9bb8
00000280: 2e3f 95b8 1b38 78b8 e2b2 c3b9 e20b 6139
00000290: 10ba 8bba 6ba3 32b9 d8eb afba 4e5d cdba
000002a0: e735 a039 a431 eaba ff0b dcba 5a75 00bb
000002b0: 8894 0839 a53f 24ba ebd8 a339 65fc 45ba
000002c0: e6b2 cb38 2649 d5b9 a712 c4b7 03e5 66ba
000002d0: b626 24b9 ae75 d5b8 afb6 47b9 4cc3 ba38
000002e0: 9481 1038 c0c3 0fb9 5196 ae38 62f6 32b9
000002f0: d33c 23b9 73e2 3fb9 fc58 0039 8415 0f38
00000300: 1537 9cb8 a3fa 22b8 9789 a6b8 bc8a 37b9
00000310: d37f 1fb9 7b41 3fb9 91a1 a0b6 1f75 5ab6
00000320: 030c f839 e9e2 90b7 e08c a2b7 4a66 2fb9
00000330: 161a fab3 f0c3 60b6 a4a1 403a c018 28b9
00000340: 5274 bfb7 0514 3638 7787 0c39 2bc2 4c39
00000350: 0c8d 4539 a07c 79b9 80b4 f9b7 6950 aeb5
00000360: 2444 8cb9 04d3 c7b8 ecfe 0cb9 14f4 e8b6
00000370: bc22 80b9 34ca 57b9 42da 4839 bb8f 4738
00000380: 3ff4 5639 8bef 2b39 b4ea 2e39 d7c6 db38
00000390: f84f fb3a 9462 f638 6bf2 d139 d1cb 8aba
000003a0: c59e 113b 8f3a 8e3a 5525 fbba 7ef6 e0b9
000003b0: 9081 e939 fd48 d63a d8f0 70ba dd17 84ba
000003c0: 920f a23a 2072 a838 5774 283a 5347 a73a
000003d0: 93c3 213b 5495 033a f2db da39 d985 c339
000003e0: 262f da39 1472 0dba 834b 5939 bb3c 9d38
000003f0: 9672 3eba e2f6 afb9 e624 8cb9 6b05 2b39
