logs/rl_games/hexapod_flat_direct/2025-11-14_22-48-05/nn/last_hexapod_flat_direct_ep_300_rew_-0.16150749.pth (torch, 546049 bytes, 33 tensors)

value_mean_std.running_mean f8 [1]
000000 aa be 6e a3 a9 9e c9 bf
       -0.2001544998179175

value_mean_std.running_var f8 [1]
000000 0a 51 e4 9b 3e 52 b0 3f
       0.06375495248750354

value_mean_std.count f8 []
000000 00 00 00 08 00 20 8c 41
       58982401.0

a2c_network.sigma f4 [18]
000000 84 e7 1c bf 74 32 11 bf 00 e1 19 bf 65 e9 48 bf
       -0.61290765 -0.5671761 -0.6010895 -0.7848113
000010 a6 49 8f bf 84 11 8d bf 4d c9 86 be bf 86 78 be
       -1.1194351 -1.102097 -0.26325455 -0.24270152
000020 5b db 92 be 79 6b 91 bf 6c d5 49 be 9c 29 ac be
       -0.2868298 -1.1360923 -0.1971032 -0.33625495
000030 38 fd 22 be 0c 01 8a be 8f 99 49 be a0 53 ae be
       -0.15916908 -0.26953924 -0.19687484 -0.34048176
000040 76 4c 8b bd d7 95 1c be
       -0.06801693 -0.15291534

a2c_network.actor_mlp.0.weight f4 [128, 66]
000000 39 4d 5f 3e f8 41 ff bd 0c 49 2c be 0a f0 85 be
       0.21806802 -0.124637544 -0.1682474 -0.26159698
000010 52 12 e9 3c bd 00 9f 3d 62 c8 8f 3d 2b 10 0b bd
       0.028451119 0.07763813 0.07020642 -0.033950966
000020 ce 2a 36 be 23 be 52 be 3d fe 2e be 88 af 84 3e
       -0.17789766 -0.20580344 -0.17089172 0.2591517
000030 6d c7 39 bd 3d 73 98 3e 87 4e bc 3d c0 5a b7 be
       -0.045356203 0.2977542 0.091946654 -0.35811424
000040 c6 1c 74 3e fa 6a c6 3d 60 c8 99 3d 62 5e 88 bd
       0.23839101 0.09688373 0.075089216 -0.06658627
000050 08 56 ea 3c 00 33 b1 bd 66 55 81 bd 59 3c 00 3d
       0.028605476 -0.086523056 -0.063151166 0.031307552
000060 dd ea 69 3d 2e 5a c8 bd 97 f0 c6 3d 90 24 b6 3d
       0.05710875 -0.097828254 0.097138576 0.088936925
000070 22 f4 97 bd ca 8a cd bd c7 ad 7d 3b 7d bd 91 bd
       -0.074196115 -0.100362375 0.0038708316 -0.0711622
000080 fe 52 9d 3c 7d b0 7b be 50 39 ab bc fc e8 dd 3c
       0.019204613 -0.24579044 -0.020901352 0.027088635
000090 c6 50 9c 3b bf 1b 7c bd 63 0c 3b bd b4 ae ac bd
       0.004770371 -0.0615499 -0.04566611 -0.084317595
0000a0 22 79 d3 bd d6 7b 65 bd b2 31 ae bd 22 71 53 bb
       -0.103258386 -0.056026302 -0.085055724 -0.0032263477
0000b0 87 c4 82 3d 8c 0b 15 ba b2 0a ed 3a b1 91 a8 bd
       0.06385141 -0.00056856195 0.0018084852 -0.082309134
0000c0 52 84 19 be eb ef 05 3d 44 0d f7 3d 68 31 57 be
       -0.14991882 0.032699507 0.12063077 -0.2101494
0000d0 8f 9d 59 3d ab 13 64 bd 49 78 99 3c 13 81 74 bd
       0.053128775 -0.05568282 0.018734114 -0.059693407
0000e0 12 1a 6f bc a7 b5 1b bd 7d 2a 83 bd 1d 7a 3f bd
       -0.014593618 -0.038015034 -0.06404588 -0.046747316
0000f0 f7 45 35 bd 8b 4f e0 bd f7 e3 9b 3d 79 a7 a4 bd
       -0.044256177 -0.109526716 0.0761184 -0.080397554
000100 93 95 fa 3d 1f c3 ab 3c 82 0d fb 3d 98 99 80 3d
       0.1223556 0.020967064 0.12258436 0.06279296
000110 3c d3 69 be 7d c8 c0 bd e2 ec 1e be 4a 8f bf bd
       -0.22834486 -0.0941324 -0.15520051 -0.09353502
000120 2b 67 09 3d 4a b2 cb 3d 81 b8 11 3c a0 24 c2 bd
       0.033545654 0.09946115 0.008894087 -0.09479642
000130 11 33 4d 3e 83 b8 aa be eb c4 8d 3d 8a e4 fd 3c
       0.20039012 -0.33343896 0.06922325 0.030992765
000140 32 19 94 3b 83 56 75 3e 56 cc 05 3e c2 28 15 3e
       0.004519605 0.23958783 0.13066229 0.14566329
000150 d7 36 2f 3d 04 9b f9 bd 79 ed 74 bc e5 15 7e bd
       0.04277691 -0.1218777 -0.014949196 -0.0620326
000160 52 f3 29 3d df 9b 0c be b3 ce dc 3d e5 57 ea 3d
       0.041491814 -0.13731335 0.10781612 0.11442546
000170 94 a3 8e 3d 2e ae 5a bd c2 9f 06 3e 7f a7 3c 3d
       0.06964794 -0.053388767 0.1314688 0.046058174
000180 c1 b4 b4 ba 71 e1 95 bd 34 5d 53 3d 5a 01 bd bd
       -0.0013786779 -0.0731839 0.051602557 -0.092287734
000190 3e bb 03 bd 39 87 a3 3d 5a 1e 47 3d 6f 6d 2c bd
       -0.03216099 0.07984776 0.04861293 -0.04209655
0001a0 c9 ed a5 bc 8d 86 86 bc d3 9e 6a 3d e6 b3 f8 bc
       -0.020254986 -0.01642158 0.057280373 -0.03035922
0001b0 fe 89 3e bd 49 d9 11 bc fd 41 7a bd 7f d5 cf 3c
       -0.04651832 -0.0089019025 -0.061098088 0.025370358
0001c0 98 df 77 3d 83 d4 b8 bd f0 ed af 3d 9a 5b be 3d
       0.06051597 -0.090249084 0.08590305 0.09294815
0001d0 4d 6c 91 bc 9c c1 71 3c 6d 85 b4 3d c8 93 11 3e
       -0.017751837 0.014755633 0.088145114 0.1421653
0001e0 72 6a 5e 3d a8 cc 93 bd 18 7a c9 3d 00 2c fc 3d
       0.054300733 -0.072167695 0.09837741 0.1231308
0001f0 33 7f 07 be e7 8b 65 bd 33 1f 8a 3d 8e 3a 3f 3e
       -0.13232116 -0.056041624 0.06744232 0.1867468
000200 d7 2b 79 bd 28 71 ba bd 01 aa a5 bc 0a e5 33 bd
       -0.060832825 -0.09103614 -0.020222666 -0.0439196
000210 28 ff c3 3a 38 d3 ee 3d 4c 38 67 be 1e 29 bb bd
       0.0014953362 0.116613805 -0.2258007 -0.09138702
000220 cc c8 90 3d e4 85 57 3c 2a ff 09 3c 83 5c 94 bd
       0.07069549 0.013154481 0.008422652 -0.07244208
000230 d2 c2 30 be 8a 91 59 be 93 50 0c bd df 13 c7 3e
       -0.17261818 -0.21246925 -0.03425653 0.38882348
000240 9e 3a 90 3c 83 e8 4e 3d 0f 55 02 be 70 e6 bf bc
       0.017606076 0.05051471 -0.1272776 -0.02342531
000250 82 7f 98 bd af dd ef bb ac 36 3b 3c 2c cc 00 be
       -0.07446195 -0.007320128 0.011426609 -0.12577885
000260 e8 0c 9e bb d3 ab 6c be 45 bd e4 bd bd 22 03 3c
       -0.004823316 -0.2311242 -0.11168913 0.008003888
000270 40 a9 00 3c f5 2d e3 bd 54 c2 69 bc 96 de ef 3d
       0.007852852 -0.1109275 -0.014267523 0.11712377
000280 93 f3 34 3e a2 4c a4 3d 74 4d d0 bd e3 84 a4 bd
       0.17671041 0.08022429 -0.10171023 -0.08033159
000290 c0 58 9f bd bd 2b b4 3d 1a 54 44 3c 88 7d ed 3d
       -0.077805996 0.08797405 0.011982942 0.11596209
0002a0 1b 48 11 3d 10 bb 0b 3d cf 1f 12 bc ac a9 8d bd
       0.035469156 0.034113944 -0.008918717 -0.06917128
0002b0 6f 38 fe bd 33 ad 10 be 2e f3 71 3d 84 ae 9e bd
       -0.124131076 -0.1412857 0.059069805 -0.0774813
0002c0 a2 34 72 bc 97 30 40 bd 99 f8 cd 3a 4d 41 9d bd
       -0.014783056 -0.04692134 0.0015714347 -0.07678471
0002d0 6d 30 0b be 0c c8 77 3d 82 2d a0 bd bf eb ca 3d
       -0.13592692 0.060493514 -0.0782118 0.09908246
0002e0 99 5a ca bd cc f3 e2 bd 74 cb 71 ba 9f 8e f7 bd
       -0.098805614 -0.11081657 -0.0009223737 -0.1208775
0002f0 d1 6b 4a bd fc 73 5c be af 53 dc 3d b4 0b 1d be
       -0.049419228 -0.2152862 0.10758149 -0.15336496
000300 a8 7c 20 3c 33 b1 3e bd 8e 96 ed 3d ed ff 85 bd
       0.009795345 -0.04655571 0.11600982 -0.065429546
000310 8c 2b 9e 3d af 86 1d bd 43 f3 ae 3d 49 ae 99 3e
       0.0772315 -0.038458522 0.08542492 0.30015782
000320 b3 e4 52 be 7d 8e 26 bd 2a 2a b0 3d d1 20 43 be
       -0.20595054 -0.04066323 0.08601792 -0.19055487
000330 a7 5d c4 3e 14 ea 6b bd f0 37 f7 3d 12 93 04 3d
       0.383527 -0.05759628 0.12071216 0.03236682
000340 65 fe d5 3d a9 1b 66 bd 80 a5 07 3d 00 a8 ae 3c
       0.104489125 -0.056178723 0.033116817 0.021320343
000350 92 09 9e 3d d4 79 b3 bd 52 46 53 bd 38 24 5d bc
       0.07716669 -0.08763471 -0.051580735 -0.013497405
000360 ea 22 af 3d e4 2b 54 3d 35 7e 86 3d 6b 86 a8 3d
       0.08551581 0.05179967 0.06567041 0.08228763
000370 a2 15 cc 3d 53 55 49 3e 72 0a fc bb 6a 2f 08 be
       0.09965064 0.19661455 -0.007691675 -0.13299337
000380 ef df 4b be a6 d1 07 be a4 f4 4e be db 15 8a be
       -0.19909643 -0.13263568 -0.2021051 -0.269698
000390 7f ad 75 bb b5 16 84 bd df 47 38 bd cf 58 b5 bd
       -0.0037487445 -0.064496435 -0.044990417 -0.088548295
0003a0 a4 30 b8 bc 14 eb 52 bb ae 32 d2 3b 49 e4 19 bd
       -0.022484131 -0.0032183575 0.006414733 -0.037571225
0003b0 02 8e 65 bd bb 23 02 bd 02 5a b4 bd 5a 42 dd 3d
       -0.056043632 -0.031772356 -0.0880623 0.10803671
0003c0 81 f3 d0 bc 64 a6 10 3d 16 61 02 bd 50 3a 9e bc
       -0.025506737 0.035314932 -0.03183087 -0.019314915
0003d0 48 89 83 3d 52 a6 f5 3c a4 74 a3 bd eb 6d 45 3d
       0.06422669 0.029986534 -0.07981232 0.04820053
0003e0 03 3b 27 3e ee 94 54 3d f0 32 c9 3d f4 bb 24 3e
       0.16331105 0.051899843 0.09824169 0.16087323
0003f0 63 91 8b bc dd 0d 8c bc 97 03 28 be 62 40 63 bd
       -0.0170371 -0.017096454 -0.1640762 -0.055481322

a2c_network.actor_mlp.0.bias f4 [128]
000000 02 0a 66 3d 8e 78 1f 3d 5c c0 c6 3d 4a 00 35 bd
       0.056161888 0.03893333 0.097046584 -0.04418973
000010 f3 01 eb 3d 8e 6a c0 bd 1d d5 38 bc 77 dd 44 3e
       0.11474981 -0.09395324 -0.011281279 0.19225107
000020 cc ee 42 3d 81 6b 90 3c 78 ae ac 3b 5c 22 b3 3d
       0.047591016 0.017629387 0.0052698217 0.08746788
000030 40 ae c7 bc 9e 1d d9 3d 72 de f5 bd cc cf af 3d
       -0.024375081 0.10601352 -0.12005319 0.08584556
000040 42 43 98 3d 1d 1f c7 3d a5 46 1a 3e 44 45 02 3e
       0.074347034 0.09722731 0.15066011 0.12721735
000050 26 c6 2d bd ab 28 56 3d 67 20 a4 3d ba 22 a1 3d
       -0.042425297 0.052284878 0.08013993 0.07867952
000060 04 45 2c 3c b5 11 ae 3d 1a db 14 bd 97 0f e0 3d
       0.0105145015 0.08499471 -0.036341764 0.109404735
000070 16 78 15 3e 05 35 13 3c 08 89 0d 3e f9 8b 8d bd
       0.1459659 0.008984809 0.13821805 -0.06911463
000080 c7 63 eb 3d 2a 0c 92 3d 80 e1 11 be fe e9 d6 3c
       0.114936404 0.07131226 -0.14246178 0.026234623
000090 f8 62 5d 3c f5 53 0e 3e b5 86 cf bc 88 6f 83 bc
       0.0135123655 0.13899215 -0.025332788 -0.016044393
0000a0 f6 2a f6 3c e8 18 72 3d cf 17 e5 bc 98 1c 6a 3d
       0.030049782 0.059105784 -0.027965454 0.057156175
0000b0 23 32 b3 bd 56 71 04 3e 42 8e b3 bd 20 38 40 3d
       -0.08749797 0.12933859 -0.08767368 0.046928525
0000c0 d8 1b f2 3d 46 45 80 3d 9b a1 d9 bd 82 18 9f 3d
       0.11821717 0.06263213 -0.10626527 0.07768346
0000d0 d0 df 9b 3c ea 9e 51 3d 5f 73 c7 bd 63 4e 56 3d
       0.01902762 0.051176943 -0.09738802 0.05232085
0000e0 20 2f d0 3d e0 be e1 3c fb f8 88 3d 39 73 1f 3e
       0.101652384 0.027556837 0.06688114 0.15571298
0000f0 e2 4d e3 3d ba 80 66 3b b4 20 19 3e 1c 55 37 bd
       0.11098839 0.0035171942 0.14953882 -0.0447589
000100 d3 39 24 3d 65 53 e5 3d 21 d7 5a 3e e3 2d e1 3d
       0.040094208 0.11197547 0.21371128 0.1099508
000110 90 c7 33 3e 4c 6e 8f 3d ab ac 47 3e ea c2 ae ba
       0.17556596 0.07003459 0.19499461 -0.0013333235
000120 6d 29 f4 3d 4e aa a3 3b 6d 28 f2 3d fd 2a f9 bd
       0.11921964 0.004994667 0.11824117 -0.121664025
000130 76 d8 2d be 77 38 a7 3d d4 f1 14 bd 8f ce a3 bd
       -0.16977105 0.08165067 -0.036363438 -0.07998382
000140 da 27 28 be bb e7 a3 bd 7a c8 b8 3c 2c 51 26 3e
       -0.16421452 -0.080031835 0.022556532 0.16241902
000150 67 89 fe 3d a3 53 91 3d f3 a2 95 bd f5 06 5e 3d
       0.12428551 0.070960306 -0.07306471 0.054205853
000160 22 6d 0a be d1 60 1f 3e cf 7c e6 3d c5 65 3f bd
       -0.13518193 0.15564276 0.11254274 -0.046727914
000170 e9 51 94 3d 70 17 00 3e 58 4f aa 3d 93 04 0b bc
       0.072421856 0.1250894 0.08315915 -0.008484977
000180 8a 57 09 3e 12 c2 5a bd 18 5f 10 bd ff 30 1b 3d
       0.134123 -0.053407736 -0.03524694 0.037888523
000190 88 9c 56 3d fd 8d 3c be 41 b9 d9 3d c8 8b bd bc
       0.052395374 -0.18413539 0.106310375 -0.023137942
0001a0 86 e6 ac 3d a1 13 11 3e ae 80 79 3e 64 4f 79 3d
       0.08442406 0.14167644 0.24365494 0.06086673
0001b0 26 7b 46 3e d0 78 d4 3d e7 57 25 3e 0c 95 a5 3d
       0.19382915 0.10374606 0.16146813 0.08085069
0001c0 ac 0e e8 3d 59 26 99 3d f1 7e d0 3d 5e c8 93 3d
       0.113309234 0.07478017 0.10180462 0.072159514
0001d0 85 c0 bf 3d 9c 0c bc 3d 02 ef dc 3d f9 18 d0 3a
       0.09362892 0.091820925 0.107877746 0.0015876583
0001e0 4f 34 10 3e 5b d8 ac bc 8d ed 24 3e b3 22 10 3d
       0.14082454 -0.02109926 0.16106243 0.03518934
0001f0 f4 a7 22 3c 50 37 f4 3d 07 2e df bd 04 0f 80 3e
       0.009927738 0.119246125 -0.10897451 0.25011456

a2c_network.actor_mlp.2.weight f4 [128, 128]
000000 36 7c 66 3d e6 88 c8 3d 35 91 6e bd 6a b7 ae bc
       0.0562708 0.09791736 -0.05824395 -0.021327693
000010 50 f3 7e bd 26 f2 9f bd 44 47 69 ba c0 f5 e5 bc
       -0.06224376 -0.07809858 -0.0008898864 -0.028071284
000020 73 03 a1 3b f7 2a e2 bd dd 87 e2 3b a2 0d a5 bc
       0.0049137413 -0.11043351 0.006913169 -0.020148102
000030 c6 e6 05 3d bf 16 f1 3a 6c 86 6a bd 47 2a d4 3c
       0.032690786 0.001839362 -0.0572571 0.025899066
000040 3e d2 5f bc 62 14 f5 bd c4 f3 5d bc 3b 57 df bd
       -0.0136609655 -0.11966778 -0.013546888 -0.1090531
000050 80 5b c6 3d 33 79 a7 3d 33 d8 0c 3c a2 c5 2d bd
       0.09685421 0.08177414 0.008596468 -0.042424805
000060 4c d4 5a 3d e5 9d cc bd 68 1e 66 bc 12 1a 05 3d
       0.05342512 -0.099910535 -0.014045335 0.032495566
000070 15 1e 91 3d 68 38 01 3c f6 50 08 3d c0 d8 c2 3a
       0.07085816 0.007886983 0.033280335 0.0014865622
000080 5c 06 f4 bd 23 10 8c 3d 0b f7 e7 bb 87 46 52 3d
       -0.119152755 0.06839015 -0.0070790104 0.05133679
000090 ad 14 34 bc ca f3 45 3d 79 dd da bc 47 80 38 3d
       -0.010991258 0.0483282 -0.026716935 0.04504421
0000a0 8f 01 e5 bc cb 7e b5 bb 24 26 3a be ca b2 fe 3d
       -0.027954845 -0.0055387965 -0.18178612 0.12436445
0000b0 17 36 6a 3d 92 a6 fc bd 8e 1f 0b 3b 9b cf db 3d
       0.05718049 -0.12336458 0.0021228525 0.10732957
0000c0 1a 24 02 bd 6f 4e 50 3d 80 8a 80 3c c1 1f 5f 3c
       -0.03177271 0.05085605 0.015691042 0.013618411
0000d0 86 77 4d 3e 10 82 8c 3c 16 89 bc 3c dc 87 54 3c
       0.20065126 0.017151862 0.023014586 0.0129718445
0000e0 14 c0 94 3d ac b9 d0 bd 7c b0 68 bc ee 0f c4 bc
       0.072631985 -0.10191664 -0.014202233 -0.023933377
0000f0 2a 9d 64 bd 35 97 a1 3d 52 a9 37 be 38 fd a0 bd
       -0.055813946 0.078901686 -0.17935684 -0.07860798
000100 30 8a f1 bd f0 72 0b 3d 50 97 0a 3d f3 e2 a0 bd
       -0.11793935 0.03404516 0.03383571 -0.07855787
000110 89 af 9d 3d fc a5 25 bd df 22 b1 bd af 06 e2 3c
       0.07699496 -0.0404415 -0.08649229 0.027591078
000120 6b 2d 3f bd c4 39 9d ba 41 e8 98 bd d4 4b 00 3c
       -0.046674173 -0.0011995365 -0.07466174 0.007830579
000130 95 85 b1 3c 4d 98 83 3d 58 3b 9e bd d1 6b a0 bd
       0.021670142 0.064255334 -0.07726163 -0.07833064
000140 80 7f 3b bd f4 c0 25 3d b0 75 79 bc 2f a7 8c bd
       -0.04577589 0.040467218 -0.015225813 -0.06867825
000150 0f 77 93 3d 7b 10 a6 bc d0 7d 54 3b 7a e0 fe bd
       0.07200443 -0.02027153 0.0032423623 -0.12445159
000160 97 a4 02 38 9e 35 e7 3c 29 77 6d 3d ac fa 1a be
       3.11477e-05 0.028223809 0.057974968 -0.15134686
000170 0d cf b7 bd 20 e4 ba 3c d9 8b 50 3d a8 f3 40 3c
       -0.08975039 0.022813857 0.05091462 0.011776842
000180 94 69 95 bd dc 0f c6 bd dd db bd 3c 7c 1a c4 bc
       -0.07295528 -0.09670994 0.023176128 -0.02393841
000190 7a a8 9b 3d ba 11 81 bd 39 47 2b bd 06 54 87 3d
       0.07600494 -0.06302209 -0.04181597 0.06607823
0001a0 bd 7e fc bb 94 c2 4a 3c fc bd 88 3d e0 8a b1 3c
       -0.007705538 0.012375493 0.06676862 0.021672666
0001b0 5a 0a 49 3b ab 7c 05 be cf bc 19 3e 2e ef 98 bd
       0.0030676336 -0.13035838 0.15013431 -0.07467495
0001c0 32 4b e6 3d da 46 77 3d fb e5 e9 bd 0e 70 ef bd
       0.11244811 0.060370304 -0.114208184 -0.116912946
0001d0 bc 4b d7 bc 61 79 ce 3d f4 ee 5e 3d be ad 0e 3d
       -0.02628123 0.10081745 0.054427102 0.034833662
0001e0 82 81 7b 3c 96 70 27 3d 19 75 2e 3d 76 ae 90 bd
       0.015350701 0.040878855 0.04259214 -0.07064526
0001f0 fe d5 36 3d 1f 38 a2 bc f4 ad 63 3d 0e 15 9c 3c
       0.044637673 -0.019802151 0.055585817 0.019053008
000200 fb a6 5b 3d 8c 9f a0 bd 2d 28 b1 3b b3 dd 70 bd
       0.05362604 -0.07842931 0.0054064007 -0.05880518
000210 a3 bf e6 bb ac fe 70 3d 1b 3c 76 bd e5 61 06 be
       -0.007041888 0.058836624 -0.060115915 -0.13123281
000220 ad 74 8f bd 64 56 05 bb 0d a0 2a bd e5 53 82 bd
       -0.07004676 -0.0020345682 -0.041656543 -0.06363658
000230 01 c7 ac 3a 84 0c 5e bd 0f 87 2d bc 3c d0 c8 39
       0.0013181866 -0.054211155 -0.0105912825 0.0003830212
000240 a3 64 77 3c 09 c2 65 bd 68 0e 88 bd 98 62 80 3d
       0.015099677 -0.05609325 -0.06643373 0.06268805
000250 d4 27 4e 3c 5b c7 44 bd 8d 08 96 3d db fd 66 bb
       0.012582738 -0.048041683 0.0732585 -0.0035246524
000260 77 cd 2f 3c 70 b5 41 3d 07 2f 6b 3c 02 d6 8a 3d
       0.010730139 0.047292173 0.014354474 0.067791
000270 44 3c e1 3b 09 c1 c4 3d 57 4e ba bd 06 14 b7 3c
       0.0068736393 0.09607131 -0.090969734 0.022348415
000280 6d 4a 0d 3c a1 89 94 bc 91 f6 02 3e e8 43 22 bc
       0.0086237015 -0.018132033 0.1278937 -0.009903885
000290 5c ab a6 3d a8 12 08 be 77 6f 0f bd 46 db 1c 3d
       0.08138153 -0.13288367 -0.03501841 0.038295053
0002a0 87 91 72 bd b9 d9 df 38 1e 0d ea 3d e5 87 b1 bd
       -0.059220817 0.000106740226 0.11428283 -0.08668498
0002b0 47 ca 15 3d 62 4d 25 bd 91 d0 45 3d 44 6a 22 bd
       0.03656986 -0.040357 0.048294608 -0.039652124
0002c0 1b 54 b7 bd 99 45 ba bd 3f 65 22 3d 5a e1 59 bd
       -0.08951589 -0.09095306 0.039647337 -0.053193428
0002d0 4f 36 b8 bd 0d 66 b6 bc a1 ad 2e 3c a4 b6 e3 bd
       -0.089947335 -0.022265458 0.010661514 -0.1111882
0002e0 e8 c9 23 bd 56 ee 81 3d 27 16 71 bd 20 ef ed bd
       -0.039987475 0.06344287 -0.058859017 -0.11617875
0002f0 1f 4a 0f bd a6 98 b6 3d 4d 03 d7 bc 61 7e 3f bd
       -0.034982797 0.08915834 -0.026246691 -0.046751384
000300 2f db da bd 8a eb 5d bd 30 2a 5b 3d b0 25 b0 ba
       -0.10686337 -0.054179706 0.05350703 -0.0013438966
000310 77 31 95 bd 0d 9c f7 bd a3 f9 09 be ad f7 da 3a
       -0.07284825 -0.12090311 -0.13474135 0.0016705893
000320 a0 47 b8 3c 55 93 c1 3d 73 58 12 bd b2 c8 f5 3b
       0.022495091 0.094519295 -0.035728883 0.0075007314
000330 4e f5 5d 3d 79 9f 0d bd 9a dd 81 3d 78 41 5f 3d
       0.05418902 -0.034575913 0.06341095 0.054505795
000340 a5 82 6c 3d ff 47 65 3d aa 8f d0 3a cc 0f 3b bd
       0.05774178 0.055976864 0.0015911956 -0.045669362
000350 5b 4a f3 3d 30 ea a3 bd f5 02 2a 3d 8f d8 80 bd
       0.118794166 -0.08003652 0.041506726 -0.06291305
000360 53 1e 37 bc 67 1b df bd 04 dd 30 bd 92 0a e4 3c
       -0.011176663 -0.108938985 -0.043179527 0.027837072
000370 13 4a 25 be 62 a7 34 3d ea 90 1c 3b c8 6c df 3d
       -0.16141538 0.04410494 0.0023890086 0.1090942
000380 4a 65 a3 bd 58 09 a2 bd 6a 19 09 3c 16 8b 65 3c
       -0.07978304 -0.079119384 0.008367876 0.014010211
000390 c8 8c 07 3d 43 91 95 3d 95 8b 35 3b a8 c0 32 3d
       0.033093244 0.07303097 0.0027701606 0.043640763
0003a0 0f 1a 00 be a2 00 05 be 3f cd 21 be 5d 4a 92 bd
       -0.1250994 -0.12988523 -0.15800951 -0.0714309
0003b0 13 4e 4c bc bf a2 3c 3d 11 c8 04 3d c5 49 a9 bd
       -0.012469786 0.046053644 0.03241736 -0.082660235
0003c0 ff 82 01 3c e4 c3 cf 3d b1 9c a7 bc a9 52 dc bc
       0.007904767 0.10144785 -0.020460458 -0.026894884
0003d0 fb 0b c5 bd ff de 91 3a 03 20 25 3d ce d0 87 3c
       -0.09621426 0.001112908 0.040313732 0.016579058
0003e0 14 bb 97 bd 6a c3 9b 3d 29 0b d0 bc 8d eb 33 bd
       -0.07408729 0.07605632 -0.025395947 -0.04392581
0003f0 6a 1e 7e 3c ee df 25 3d 8a 27 01 3d 02 9b 94 bd
       0.015510181 0.04049676 0.031531848 -0.07256128

a2c_network.actor_mlp.2.bias f4 [128]
000000 b3 98 35 bb b2 87 de bd 79 b5 90 ba 91 b2 66 3a
       -0.0027709424 -0.108657256 -0.0011040411 0.0008800412
000010 43 9e 64 3d 36 0f a4 3c 09 5c 71 3d a3 64 ae 3d
       0.055814993 0.020026784 0.058925662 0.08515289
000020 e7 3e d1 bd ac ac a1 bc a2 ea c6 bd ad c6 16 bd
       -0.10217076 -0.019735657 -0.097127214 -0.036810566
000030 0a 17 b4 bc e1 cc a7 bd 2f 1d 69 bd 2d cc 7a bd
       -0.021983642 -0.081933744 -0.056912597 -0.061229873
000040 15 03 3c 3c 8d 8e 8d bd b8 b8 ae 3b fd 75 d4 bc
       0.011475344 -0.06911955 0.005332079 -0.025935167
000050 b1 e3 18 be b6 4a 94 3d c5 86 f3 3a 82 56 9d bd
       -0.14930607 0.072408125 0.0018579593 -0.07682516
000060 4c ed 1f be e5 b3 1c bd 8d 8d 12 bc 1d 92 35 bb
       -0.15617865 -0.0382575 -0.008944881 -0.0027705499
000070 a6 72 47 be b8 1c e8 3c 7b 3d 51 bc c1 46 9f bd
       -0.19477329 0.028334007 -0.012771006 -0.07777167
000080 d2 9b e2 3c c9 6f 83 3d 0d aa 49 3d 89 af 1a be
       0.027662192 0.06417806 0.04923444 -0.15106024
000090 75 d7 2c 3c d1 14 0d 3d ba 62 13 be 00 ea a7 bc
       0.010549416 0.03444368 -0.1439313 -0.020497322
0000a0 df 3d 59 3d 6a 08 97 bc 21 84 b7 3c b8 ba 05 bb
       0.05303752 -0.01843663 0.022401871 -0.0020405483
0000b0 b7 e7 14 3c 90 5d fa bc c1 80 02 be 37 8d 04 bd
       0.009088448 -0.030562192 -0.12744428 -0.032361235
0000c0 74 4d 50 bc ac a1 45 bc 3b 60 7d bc 12 2a ea bd
       -0.012713779 -0.012062471 -0.015464838 -0.114338055
0000d0 e0 61 bf bc 66 b8 78 3d d1 0c fd bd 94 4e b9 3b
       -0.0233621 0.06072273 -0.1235596 0.005655119
0000e0 93 d9 86 3c a7 c3 01 bd 6f 9f d0 3d c0 3d 9a bd
       0.01646117 -0.03168073 0.101866595 -0.07531309
0000f0 51 3d e1 bd b7 bc aa 3d 2e ea 8e 3d 72 1e 15 3d
       -0.10998023 0.08336776 0.0697826 0.036405988
000100 03 6b f1 bc d3 c6 19 bd 80 12 a2 3d e3 9e 9b bc
       -0.029469972 -0.03754313 0.07913685 -0.018996662
000110 b4 b3 0f 3c fd 76 be 3c 7f 87 8e 3d c8 8d 41 bc
       0.008770872 0.023250097 0.069594376 -0.011813588
000120 24 4c 86 3d 9b 55 e1 bd 92 2b 1c 3d 2f c8 35 be
       0.065574914 -0.11002656 0.03812749 -0.17752145
000130 e3 8f ec bd 1a 8e d7 bd 6c e0 b8 bb d8 e3 68 3d
       -0.11550882 -0.105251506 -0.0056419875 0.056857914
000140 1d c5 55 3d 33 9c 34 3d 6b f9 31 bc eb ce a5 bd
       0.052189935 0.044094276 -0.0108626885 -0.08096107
000150 1b 7d d2 bd 26 e6 82 3d a4 b5 d2 bd 19 80 b7 bd
       -0.10277768 0.063915536 -0.102885514 -0.089599796
000160 ff f0 3e 3d ae d8 db 3b a7 3c 18 bd 2b 2c 06 bd
       0.04661655 0.00670918 -0.037167218 -0.032756966
000170 61 01 e6 3c c4 3e d9 3d 78 d6 95 3d 72 6f a8 bd
       0.02807683 0.10607675 0.07316297 -0.082243815
000180 d2 92 95 3c 76 d3 8a 3b 9d d8 26 3d 01 c2 80 3d
       0.018258486 0.004236634 0.040733922 0.06287003
000190 03 30 29 3c f7 ab 25 bd 07 fe 14 bd 9c 06 0c bc
       0.010326388 -0.0404472 -0.03637507 -0.008546498
0001a0 2c 81 51 3d 52 55 25 3d d7 74 b1 bc d2 4d 98 3c
       0.05114858 0.04036457 -0.021662159 0.018591795
0001b0 cd 8d a7 3d a4 9e 43 bd c5 81 9a 3c e9 ca a7 bd
       0.08181343 -0.047758713 0.018860707 -0.08192999
0001c0 6d 8c f8 3c 58 81 ca bb 1c 5a 51 3c 8f 15 f5 bc
       0.030340398 -0.0061799698 0.012777831 -0.029917507
0001d0 f2 e9 84 3d ca a2 c1 bd db 9c 4d bd 89 ae b2 bc
       0.06489934 -0.09454878 -0.050198417 -0.02181174
0001e0 25 62 75 bd 45 1c 11 bc ee 50 89 bc 9f 7c 37 3d
       -0.05990805 -0.008856838 -0.016762223 0.044796582
0001f0 5c de a9 bc 6d 78 90 3c 56 1d 6e 3c fc 4c be bc
       -0.020735912 0.017635548 0.014533361 -0.023230068

a2c_network.actor_mlp.4.weight f4 [128, 128]
000000 27 d6 1a bb 39 30 5c bd d1 fc 19 bd b8 b2 82 3c
       -0.002362618 -0.053756926 -0.03759462 0.01595436
000010 84 a5 2b 3d 1b 87 ed bd 97 91 86 bd b4 0c 84 3d
       0.041905895 -0.11598035 -0.06570738 0.064477354
000020 2e 47 47 bd ee 06 ee 3c ab 02 5d 3d 35 e9 ee 3b
       -0.048651867 0.029056039 0.053957622 0.007290984
000030 42 6c 34 3c f1 03 98 bd 3b fd 97 3c 34 3e ff 3c
       0.011012139 -0.07422627 0.018553367 0.03115759
000040 b3 79 30 3c 0e 2e 09 bd 50 b7 54 bd 4f 88 90 bd
       0.010771203 -0.033491187 -0.051932633 -0.07057249
000050 fd 08 18 3d 64 72 99 3d fd 74 29 3d 94 70 a2 3c
       0.037117947 0.074925214 0.041371334 0.019829072
000060 7c b8 f8 bc bc be 6e 3d a2 6c 09 3c 4a 9c 6e bd
       -0.030361407 0.058287367 0.0083877165 -0.058254518
000070 b2 da 91 bc 79 0d 5b bd 3b 34 b2 bd 80 69 b1 3d
       -0.017804477 -0.053479645 -0.087013684 0.08662701
000080 08 d8 8e 3d a0 64 93 bd 44 63 91 bc ef ea 3b 3d
       0.069747984 -0.07196927 -0.017747529 0.045878347
000090 65 02 2f bd bb 59 26 bc f3 75 cd bd 24 e5 6c bd
       -0.042726893 -0.010153229 -0.10032263 -0.057835713
0000a0 91 d6 25 bd f2 f5 06 bd e4 d6 96 bd 14 d4 13 bd
       -0.04048783 -0.032949395 -0.07365206 -0.036090925
0000b0 23 1a 30 3d de e0 77 bd b2 eb f9 bd 26 6c 65 3d
       0.042993676 -0.060517184 -0.122031584 0.05601134
0000c0 57 85 96 3d 88 f9 0f bd 1b 03 37 3c 8b a4 48 bc
       0.07349651 -0.03515008 0.011170174 -0.012246261
0000d0 75 38 e5 3c a4 3e 1b bc 87 19 c9 bd 6b df 93 3d
       0.027981022 -0.009475384 -0.09819322 0.07220348
0000e0 4e 68 8f bd 5b 57 b1 3c d8 7c ab bc b3 c5 96 bd
       -0.070023164 0.0216481 -0.020933554 -0.07361927
0000f0 8a 91 84 bc 3d d0 d7 3c 05 11 bd ba 03 b9 14 3e
       -0.01618268 0.026344413 -0.0014424628 0.14523701
000100 33 16 f9 3d 97 b8 9c 3d 7e 1b 4c bd cf 92 74 bd
       0.12162437 0.07652395 -0.049830906 -0.05971032
000110 b4 9e bb 3d 83 1e af 3c dd 9a 92 3d 28 45 e7 3d
       0.091611296 0.021376854 0.07158444 0.112924874
000120 fd 5d 27 bd ed 9f 1a 3d bc 22 33 3d 83 a8 89 bc
       -0.04086112 0.037750173 0.043734297 -0.016803985
000130 2a 43 80 bd 6c ef 7a bb ab 35 bf 3d 49 33 70 3b
       -0.062628105 -0.003828968 0.09336408 0.0036651662
000140 f7 65 72 3c d7 7b 05 3c 89 b9 48 3d 6d a0 be 3d
       0.014794818 0.0081472015 0.049005065 0.093079425
000150 44 cb 85 3c 8f b6 83 3c 78 c1 4d bd a7 c8 bc bc
       0.016332276 0.016078262 -0.050233334 -0.023044897
000160 ea c1 61 bd 1d 82 57 3d 0d ba 4a 3d 6b c5 5f bd
       -0.05511657 0.05261432 0.049493838 -0.05463163
000170 05 70 5d 3d 58 ed 7e bc d1 af 8a bd de 79 3d 3b
       0.05406191 -0.015559517 -0.067718156 0.002891175
000180 fb 11 2c bc f6 aa b2 bc 37 20 c8 3d 2b ab 01 3c
       -0.010502334 -0.021810036 0.097717695 0.007914345
000190 97 77 a1 bd a6 5b 58 3b af 95 2f bb 99 8b 99 bd
       -0.07884138 0.003301361 -0.00267921 -0.07497329
0001a0 74 4d 5d 3d e6 8a f4 3b a5 77 4a bc 2f 83 53 bc
       0.054028943 0.007462847 -0.012357627 -0.012909695
0001b0 1f f8 9d bc 85 60 99 bd 45 e9 e5 3a a2 02 2a bd
       -0.019283352 -0.07489113 0.0017540833 -0.041506417
0001c0 1b 60 f6 3c 46 de 1e 3b 0e 7b f1 bd 90 87 ad bd
       0.030075124 0.0024241372 -0.11791049 -0.08473122
0001d0 46 e3 53 bd 06 1e 3a 3d 79 84 bb 3d 94 4c 00 3d
       -0.051730417 0.04543879 0.091561265 0.03132303
0001e0 98 95 61 3d de 76 48 3d 72 af 6d bd df 20 96 3d
       0.055074304 0.048941486 -0.058028646 0.073304884
0001f0 4d f5 94 bd 62 ce 9f bc 03 e6 d1 3b 9e 5f ae bd
       -0.0727335 -0.01950759 0.0064055934 -0.08514331
000200 79 0f c9 3b 7c dd 28 3d df f8 b4 bc 66 e5 39 3d
       0.0061358777 0.04122685 -0.022091327 0.045384787
000210 c6 ed 8e 3d dc 0f 41 bd ae 80 80 bd 8d ed d8 3c
       0.069789454 -0.047134265 -0.06274544 0.02648046
000220 e7 c5 1d bd 7c 8e 64 bd 5f 4e ce 3c c8 11 84 3d
       -0.038518813 -0.055799946 0.025183855 0.06448704
000230 da d5 66 bd 86 b9 1e bd 51 c6 ec bc c2 83 fe 3d
       -0.05635629 -0.038751148 -0.028903158 0.124274746
000240 1a 17 97 3d 14 7d 03 bd e5 1a e7 bd c5 c7 82 3d
       0.07377453 -0.032101706 -0.112844266 0.06385759
000250 68 0d c2 bd ae 83 3d bd 5e a1 1f 3e 2b e1 d8 3b
       -0.09475213 -0.046268158 0.155889 0.006618639
000260 b0 9c 83 bc 53 b9 b7 bd d6 a6 64 bd f1 4d b5 bc
       -0.016065925 -0.08970895 -0.05582317 -0.022131892
000270 0f 5e 1f 3d a4 90 cf bc 8e c9 1c bd 84 7c 76 bb
       0.03890806 -0.025337525 -0.038278155 -0.0037610838
000280 e4 bb 00 bd aa f7 98 3c 59 e4 62 bd e3 76 1b bd
       -0.031429186 0.018672783 -0.05539355 -0.037955176
000290 52 6e 8c bd 71 46 88 3d 92 06 82 bd 54 28 f5 bd
       -0.068569794 0.06654061 -0.063489094 -0.119705826
0002a0 98 cd e7 bc cf e4 ae bd a6 77 bd bd ea bd 58 bd
       -0.028296277 -0.085397355 -0.09251337 -0.05291549
0002b0 ef d4 85 3d 3a 4e 92 bd 0c 70 96 bd eb 84 22 3d
       0.065347545 -0.07143827 -0.0734559 0.03967754
0002c0 23 97 7d 3d 11 3e 26 3c 7e 8f e7 3d 90 aa 1c 3d
       0.061911713 0.010146634 0.11306666 0.0382486
0002d0 57 1b 3f bd 5c cd d9 b9 e4 37 32 bd fe 7a be 3d
       -0.046656933 -0.0004154247 -0.043510333 0.09300803
0002e0 34 52 86 bc ab 4a 5b 3d f9 aa 0e bd f2 53 8e bd
       -0.01639662 0.053538006 -0.03483102 -0.06949605
0002f0 76 f4 94 bd b2 7a 9a 3d 9a 8f 6f bd 94 af 1d bc
       -0.0727319 0.075429335 -0.05848656 -0.009624381
000300 63 f2 c5 3c f6 d1 a3 bd d9 49 1b bd d8 3a 71 3d
       0.02416343 -0.07999031 -0.037912223 0.05889401
000310 70 41 d7 3d fd 7a f0 bb d7 06 de bc 16 fc b2 39
       0.10510528 -0.00733888 -0.02710287 0.00034138624
000320 e0 4c d7 bc 50 12 d4 bc 36 da 38 3c 64 af 2d 3d
       -0.026281774 -0.025887638 0.011282494 0.042403594
000330 25 e0 15 3e 96 2a 10 bd 46 a3 7b 3d ca 2a 8e 3d
       0.14636286 -0.035196863 0.061435007 0.06941755
000340 dc 94 c8 3b 11 53 09 bd 2c 9d 19 3c 6d 4b 22 3d
       0.006121261 -0.033526484 0.009375852 0.039622713
000350 12 99 82 3d 46 f5 59 3d f2 3b d6 bc 44 4f f8 3c
       0.06376852 0.053212427 -0.026151631 0.030311234
000360 31 99 ae 3d ec c3 86 3d ef a3 1a 3c d8 32 92 bd
       0.08525313 0.06580338 0.009438499 -0.07138604
000370 c8 0a 28 3d 5c c7 dc bc 7b 79 44 3d 54 ec 69 3d
       0.041025907 -0.02695053 0.047967415 0.057110146
000380 9f 7d 39 bd 8f e4 a0 bc b6 6f d7 bc 8e 03 92 bd
       -0.045285817 -0.019640235 -0.026298385 -0.07129584
000390 98 71 17 3d af 7e c9 3d 4d 4e a7 3d bd f8 41 bd
       0.036973566 0.09838616 0.081692316 -0.047356356
0003a0 5f f0 a4 bc 86 3b a3 bc a1 e6 4c 3d 05 93 89 bd
       -0.02013415 -0.019925844 0.050024632 -0.06717495
0003b0 33 0f b0 3c 04 6a b7 bd 7a 8f 79 3c 0a b5 0a 3d
       0.021491623 -0.08955768 0.015231961 0.03386406
0003c0 2f 25 b9 bd 1c 5a cc 3d 97 39 bb bc 27 d6 89 3d
       -0.09040295 0.099781245 -0.02285461 0.067302994
0003d0 bc e5 a9 bd eb e9 a4 3d ab cb ee 3d f7 01 50 3d
       -0.082957715 0.08052429 0.1165994 0.050783124
0003e0 a4 aa e8 3b 61 cb 70 3c 37 51 ab bd f6 f8 b4 3c
       0.00710042 0.014696927 -0.083651 0.02209137
0003f0 1d e1 29 3d fc 7a 2c 3d d0 bd 2b bd b2 1a 07 3d
       0.04147445 0.042109475 -0.041929066 0.032984443

a2c_network.actor_mlp.4.bias f4 [128]
000000 82 02 25 3d fb dc ec 3c 12 93 26 bd ec dc 83 bd
       0.040285595 0.028913965 -0.0406676 -0.06438622
000010 f4 da cb bd bf fb bc 3b 60 96 4c 3d 71 51 dd 3c
       -0.09953871 0.005767315 0.049948096 0.027016373
000020 a4 55 06 3d a4 7b 70 3d 5c a4 6d 3c 22 a0 b0 bc
       0.032796517 0.058711663 0.014504518 -0.021560732
000030 86 cb fa bc a8 f8 55 3d 69 0e 34 bd 42 fe 59 bb
       -0.030614626 0.05223909 -0.043959055 -0.0033263122
000040 93 60 2b bd 0f f8 32 bd cf f0 36 bd 2c df 4e bd
       -0.041840147 -0.0436936 -0.044663247 -0.050505802
000050 32 cd 2a 3d e2 ae 39 ba 48 ca db 3c ef 86 32 3c
       0.041699596 -0.00070832495 0.026829854 0.0108964285
000060 7a 3e c1 3a be 27 26 bd 31 9a fd bd 7c e7 e2 bc
       0.0014743351 -0.040565245 -0.12382925 -0.027698271
000070 6b de a8 3d cb 18 41 3d 3e 15 e0 bc c7 58 b2 3c
       0.08245548 0.047142785 -0.027353879 0.021770848
000080 f2 61 ca 3d 6b a6 2f bd 31 b8 00 bc 48 1b dd bd
       0.09881963 -0.042883318 -0.007856415 -0.10796219
000090 ab 63 a7 3c 97 c4 91 3d 8f cb 1b bd 76 56 23 bd
       0.020433268 0.07117575 -0.038035925 -0.039877377
0000a0 4a 6e 6d 3c 27 52 af bb cb 01 c5 3c 8c 7f 05 bd
       0.014491627 -0.0053503695 0.024048707 -0.03259234
0000b0 d6 0a a8 3b 09 27 f4 3c 9b c1 83 bd a3 79 e1 3d
       0.005128245 0.02980377 -0.06433412 0.110095285
0000c0 37 4b 60 3d 4a d5 a4 3d 5f 46 35 bd d6 c5 a7 bd
       0.05475923 0.08048494 -0.044256564 -0.08192031
0000d0 95 b8 65 3d 31 50 62 bd ab 8e 8e 3d a5 d6 bf bd
       0.056084234 -0.055252258 0.069608055 -0.09367112
0000e0 db 24 23 3d 8c 2f a0 bd e6 3b c6 bd b7 70 1c 3d
       0.03983007 -0.07821569 -0.096793935 0.03819343
0000f0 7a b6 6f 3d b7 b7 0e bd 04 c5 18 bc f5 90 bb 3d
       0.058523633 -0.034843173 -0.009324316 0.09158508
000100 a1 ad d0 bc 24 9b ed 3c 60 50 87 3d 1a 96 46 bc
       -0.025473418 0.02900464 0.06607127 -0.012120748
000110 b9 90 60 3d 18 11 ff bd 8a 9f d5 3c 60 3b 24 3b
       0.05482552 -0.12454432 0.02607705 0.0025059804
000120 06 37 fe bc 60 74 3d bc 2a 7f 8b bc 1a b7 98 ba
       -0.031032097 -0.0115633905 -0.01702841 -0.0011651248
000130 b0 7b 83 3d 2e d8 dc ba 9c b2 15 bd 5f cc 28 bd
       0.06420076 -0.0016849095 -0.03654729 -0.04121053
000140 5a 46 d2 bd c4 94 8c 3d 00 d6 24 bd 8e 47 a8 bd
       -0.10267325 0.06864312 -0.04024315 -0.08216773
000150 60 e6 4c bc 96 2f 5c 3d 83 22 86 bc 86 5e b8 3d
       -0.012506098 0.05375632 -0.016373878 0.09002404
000160 c6 2c 9b bd 41 e4 b0 bb 47 d6 5a 3d b5 7a 5b bd
       -0.07576899 -0.0053983037 0.053427007 -0.05358382
000170 18 01 04 3d 2a da 94 bd 78 dd bf bc 77 87 c6 3c
       0.032227606 -0.07268174 -0.023421034 0.024234517
000180 8b 84 05 bd 16 d3 34 bc 5a 41 0a bd 82 e0 01 38
       -0.032597106 -0.011036655 -0.03375373 3.0965086e-05
000190 11 5d bf bc b9 91 0c 3c 19 43 56 bd 60 10 7a 3b
       -0.023359807 0.008579665 -0.052310083 0.0038156733
0001a0 bd d7 57 3d 33 58 08 bd e4 67 54 bc 3f 03 88 bd
       0.05269598 -0.03328724 -0.012964223 -0.06641244
0001b0 75 3a d3 3d ab 19 23 3d df b6 85 3d c9 ac ef bc
       0.10313884 0.0398194 0.065290205 -0.029257195
0001c0 c5 17 7f bd 9b 7d 0b 3c d4 22 7d 3d a4 d7 c9 bd
       -0.062278528 0.008513833 0.061800793 -0.09855583
0001d0 ad 91 87 bd 81 50 3c 3d 9c 75 04 3d 0a d1 80 bd
       -0.06619582 0.045975212 0.032338724 -0.06289871
0001e0 65 65 5b bc 56 20 4e 3d d9 18 e5 bc 45 e6 76 b7
       -0.013390874 0.050323807 -0.02796595 -1.4716356e-05
0001f0 ea b4 9f 3d 53 85 68 bd 1b 73 18 3d 41 94 e1 3c
       0.077981785 -0.056767773 0.037219148 0.027536513

a2c_network.value.weight f4 [1, 128]
000000 45 c2 3c bc 4d a6 c2 bc 32 66 bc bc 57 2f 92 3c
       -0.011520927 -0.023760939 -0.02299795 0.017844839
000010 a2 61 05 3d ba 78 2d 3d 3a 48 83 3c fd 42 7b 3c
       0.032563813 0.042351462 0.016025651 0.0153357955
000020 00 31 2c bd d3 4f 22 bc cd f5 cc 3b 3b fc 9f 3c
       -0.042038918 -0.009906727 0.0062548877 0.019529453
000030 d6 b1 a9 3c cf a4 a0 3c 4d 23 7e bb 0a 85 15 3d
       0.020714682 0.019609837 -0.0038778365 0.03650383
000040 dc dd 1e bc 0a e6 9a 3b 26 5b 34 3d 8e 6b 22 bc
       -0.00969645 0.00472713 0.04403224 -0.009913338
000050 b5 82 54 3b ea ef b7 bd 28 78 ba bc 8c fd 76 bc
       0.003242654 -0.08981307 -0.022762373 -0.015075099
000060 93 26 d5 3c 13 91 8d bd d9 9f d7 3b 6f 9c 25 bc
       0.02601937 -0.06912436 0.0065803346 -0.010108097
000070 69 5f ca 3c d9 9b 37 bc 60 76 ec bc 6f e7 76 bd
       0.024703698 -0.011206591 -0.02886504 -0.060279306
000080 01 e0 d7 bb ed 2c af 3c 30 b2 40 bc 31 80 fc bc
       -0.0065879826 0.021383727 -0.011761233 -0.030822845
000090 aa 30 e7 3c 46 78 92 3c a1 08 f1 3b 34 a1 39 3d
       0.028221447 0.017879616 0.007355765 0.04531975
0000a0 7e 41 c7 bc 6e 2c c9 3a ee 8b 80 3a 9b 3b 0a bd
       -0.024323221 0.0015348324 0.0009807327 -0.03374825
0000b0 60 a1 63 bc cf 8b c9 bb c3 40 77 3d 27 83 ca ba
       -0.013893455 -0.0061506997 0.060364496 -0.0015450463
0000c0 8a ac 84 3c 97 ab 2b bc 37 f3 61 3c e7 a9 41 bc
       0.016195554 -0.010477922 0.013790897 -0.011820293
0000d0 94 6e ab bb c5 b9 24 3d ef e4 59 bc 28 af 4c 3c
       -0.005231688 0.040216226 -0.013299211 0.012492932
0000e0 cc 98 2a bc f7 fb 28 bc d9 8e 97 3c 2d 78 24 3d
       -0.010412406 -0.010313979 0.018500732 0.04015367
0000f0 96 2f db ba 30 a0 be bb e4 49 09 3d 1b 97 a1 bc
       -0.0016722556 -0.0058174357 0.033517733 -0.019725373
000100 19 50 41 3d 28 90 01 bc fc 2a 6d bb 73 90 a5 bd
       0.047195528 -0.007907905 -0.003618895 -0.08084192
000110 47 92 a1 ba 98 22 af 3c 58 57 9f bc 4e b6 08 3d
       -0.0012326919 0.0213788 -0.019450828 0.033376984
000120 53 7c 98 3c b0 d0 35 3d de 6c 74 3c c5 31 4a bd
       0.01861397 0.044388473 0.014918534 -0.04936387
000130 5b 5c 8e bc b7 af 0b 3c 3f 94 c9 3b 28 9d 24 3c
       -0.017378023 0.00852578 0.0061517055 0.010047235
000140 17 7e 25 bd 6c 6d e9 bc 6e b6 88 bc 76 e5 00 bc
       -0.04040345 -0.02849456 -0.016688552 -0.007867208
000150 3b 51 5a bd 8b 05 9a bc 6b 8a c3 3c b4 2c 0e 3c
       -0.053300124 -0.018801471 0.023869714 0.00867765
000160 0a 5f 2d 3d 46 f1 98 3c 2f 06 c2 bb d0 2a 12 bd
       0.042326964 0.018669736 -0.0059211473 -0.03568536
000170 43 82 51 bd 07 f4 85 bc f6 2b c5 3c 65 95 b8 3c
       -0.051149618 -0.016351713 0.024068814 0.022532174
000180 89 3c 6a 3c 09 b0 47 bd 47 df 13 3d 91 ec 82 bd
       0.014296659 -0.048751865 0.036101606 -0.06392778
000190 fa 88 07 bd 64 3d a9 bc 12 27 27 3d 49 50 15 bc
       -0.033089615 -0.020659156 0.040808745 -0.00911338
0001a0 b6 37 d5 bb 29 81 8b bd d8 9e 8e bd 34 56 01 3c
       -0.0065068854 -0.06811745 -0.06963891 0.007894088
0001b0 32 a4 f4 bb cf 17 1e bc e4 f7 2f 3c 8a 0e 26 3d
       -0.0074658627 -0.009649231 0.010740254 0.04054121
0001c0 0d b4 0e bd 53 6f 33 3c 5a b7 a0 bc 2b e1 d6 3c
       -0.03483968 0.010951835 -0.019618679 0.026230415
0001d0 8c 58 17 3d 82 da e6 bc 49 ef 32 bd 00 77 4f 3d
       0.03694968 -0.028180365 -0.04368523 0.050650597
0001e0 be 67 03 bd 44 88 8c 3c 78 02 32 3d cf fa 85 3d
       -0.032081358 0.01715482 0.043459386 0.065419786
0001f0 0c 03 54 3c 73 45 84 bc ee 14 7b bc e3 cd 61 3b
       0.01294018 -0.016146397 -0.015324814 0.0034454993

a2c_network.mu.weight f4 [18, 128]
000000 fd e0 dc bb c6 f6 24 3c bd 97 a9 bc 0e 06 29 3e
       -0.006740688 0.010068601 -0.020702237 0.16506216
000010 40 98 e0 3d 4d d0 c2 3c 0f 37 09 bd af 69 3c 3c
       0.109665394 0.023780966 -0.033499774 0.011499806
000020 a0 26 86 bd 26 08 1c be 13 60 ac 3c 66 be 05 be
       -0.06550336 -0.15237483 0.021041906 -0.13060912
000030 e1 df 42 bd ff fe a9 bd 43 eb 1c 3e d6 f3 44 3d
       -0.04757679 -0.0830059 0.1532412 0.048084103
000040 12 7d aa 3c 53 44 b8 3d d1 12 ae bc 8c fe d3 bd
       0.020811591 0.08997407 -0.021249207 -0.10351285
000050 50 6d e9 bd e1 c6 00 bd fe e3 1a bc 2f 3b 7a 3d
       -0.11397803 -0.031439666 -0.009453772 0.061091598
000060 22 b9 a0 bd 73 2f 4c 3d e9 c6 1b bc 85 8a 86 bd
       -0.07847811 0.04984994 -0.009507873 -0.06569389
000070 71 6e cf 3d 60 65 b4 3c d1 43 b4 3d 52 5e a8 bd
       0.10128487 0.022020996 0.088019975 -0.08221115
000080 52 79 3e bd e5 58 c2 bd 86 23 e8 bd da 0b bd 3c
       -0.04650242 -0.094896115 -0.113349006 0.02307694
000090 77 57 aa 3d 9f 05 03 be 92 60 aa 3c 68 52 dc bd
       0.08317464 -0.12795113 0.020798001 -0.10757905
0000a0 19 1a 97 3d 3d a8 e5 3d e1 03 4f bd 12 af 03 be
       0.073780246 0.112137295 -0.05054081 -0.12859753
0000b0 2d 43 80 3b 01 0d 2f be 62 71 4b 3d 25 58 73 bc
       0.003914258 -0.17094804 0.049668677 -0.014852558
0000c0 55 e8 1c 3d 1f 6f 06 bb ab 64 1e 3e 6c 4e 51 bc
       0.038307507 -0.002051301 0.1546809 -0.012775045
0000d0 0d bf b1 bd 8b 8b 50 bd 70 1b d9 bd 3f e2 9d bc
       -0.08679018 -0.05091433 -0.106009364 -0.019272922
0000e0 87 6c dc 3d a0 ac a9 3d 79 e1 fd 3d 81 5f 31 3d
       0.107628874 0.08284879 0.12396521 0.04330397
0000f0 bc 26 6f bd 7e e1 86 3b c7 a8 af 3d 5b 09 fb bb
       -0.05838655 0.004116236 0.085771136 -0.0076610274
000100 aa fb c8 3d e4 7d 25 bd 7f c0 63 3e 9a 21 9d 3c
       0.09813626 -0.04040326 0.222414 0.019181062
000110 89 8b b7 bd 18 ab 92 ba b9 87 91 3d 03 71 f9 ba
       -0.08962161 -0.0011189906 0.07105965 -0.0019030872
000120 cf 98 66 bc 84 2e f0 3d 7f 98 25 3e e1 15 67 3d
       -0.014074518 0.11727622 0.16171454 0.05641735
000130 ef 67 c4 bd 25 32 a1 bd b2 2b 32 3d e6 43 38 3d
       -0.09590136 -0.078708924 0.043498702 0.044986628
000140 0c 82 3e bc 01 78 1b 3d c4 a0 0d 3d 6e 3a dd bd
       -0.011627685 0.03795624 0.034577146 -0.1080216
000150 d5 60 10 3d 0c eb 69 3d 88 46 f8 3c c7 31 4d 3d
       0.035248596 0.057108924 0.03030707 0.0500963
000160 ee cf 5f ba 0b 12 9d bd 55 43 a0 bd 82 b0 1f 3d
       -0.0008537759 -0.07669457 -0.078253426 0.03898669
000170 d3 17 97 38 9e 36 2a 3d 31 82 5f 3d e1 03 f2 3b
       7.204679e-05 0.041555993 0.05456752 0.0073857163
000180 11 44 cd 3d 85 f2 0e bd 7c 72 84 bd 48 97 c0 3d
       0.10022748 -0.034899253 -0.06467149 0.094038546
000190 81 59 b8 3b 4c be 96 3d b9 ed 48 3d a6 d9 ce 3d
       0.005625904 0.07360515 0.049054835 0.10100107
0001a0 a3 95 f0 3d 88 8c 13 3d 97 70 1b bd 73 2d 5b bd
       0.11747291 0.036022693 -0.03794917 -0.05351014
0001b0 7b 74 ae bd 48 52 3a 3d 09 ee 90 bd 34 3e 05 be
       -0.08518311 0.045488626 -0.070766516 -0.1301201
0001c0 33 1f 24 3e 84 fa cb bd a8 53 c0 bb 11 63 2c 3d
       0.16027527 -0.099598914 -0.0058693476 0.042086665
0001d0 97 00 01 bd 29 94 bd bd 97 66 37 be 2b a2 14 3e
       -0.031494703 -0.09256775 -0.17910229 0.14514987
0001e0 87 0b 86 3d bd 28 03 be f0 b9 b0 3d d8 59 6e bd
       0.065451674 -0.12808509 0.08629215 -0.05819115
0001f0 bd 08 ed bd 69 cb c4 3d eb ac 3c bc 5d 7e 9d bd
       -0.11573932 0.0960911 -0.011515836 -0.076901175
000200 71 30 73 bb a4 cf bc bd e7 75 83 bc bb 5b 43 3e
       -0.003710773 -0.09219292 -0.016047431 0.19077961
000210 26 a0 37 3e 1c 1a 2a bd c6 99 58 3d 70 e8 9b bd
       0.17932186 -0.041528806 0.052881025 -0.07612693
000220 d4 16 a3 3d d0 25 fe bd 62 73 c8 3b 91 62 d2 bd
       0.079633385 -0.12409556 0.0061172703 -0.10272706
000230 6d 4b 3e bb 40 81 bf bd ed 55 f6 bc e7 70 2c bd
       -0.0029036656 -0.09350824 -0.03007027 -0.04209986
000240 94 08 f8 3b 8d e5 fc 3c b4 bb 20 3c 7d b7 82 bd
       0.007569382 0.030871177 0.009810377 -0.06382654
000250 8a 83 ae 3d 8c 70 97 bc d1 7f 3e 3d 82 ed bc 3d
       0.08521183 -0.018486284 0.046508614 0.092249885
000260 9e 3c d2 bd 75 a5 44 bc 67 b6 82 3c 77 df bd bd
       -0.10265468 -0.012002339 0.015956117 -0.09271138
000270 bf e3 ee bd 8c 24 0b bd 90 5b 94 bc 97 04 89 bd
       -0.11664533 -0.0339704 -0.018110067 -0.066903286
000280 10 c1 95 bd e5 16 56 bd c1 5f b6 bc 70 dc 96 3c
       -0.073122144 -0.052267928 -0.022262456 0.01841566
000290 68 30 20 3e 15 48 a0 bd 5a 54 f9 3d 0c 45 c5 bd
       0.15643466 -0.078262486 0.12174292 -0.0963231
0002a0 64 b4 54 3d 20 40 83 3a 33 a3 8b 3d 1c f1 ce 3d
       0.051929846 0.0010013618 0.06818237 0.10104582
0002b0 7b 30 7a 3c d3 38 04 3d c5 e9 d9 3c b8 dc 61 bd
       0.015270348 0.032280754 0.026600728 -0.055142134
0002c0 ee b6 df 3b 1e f6 9a bd d5 40 4b bd 88 19 67 3b
       0.006827227 -0.075664744 -0.049622376 0.003526302
0002d0 02 3a 19 3d 38 7e ad bb b2 43 32 be cc 07 7c bc
       0.037408836 -0.0052945875 -0.17408636 -0.015382718
0002e0 89 fb 36 3c 55 40 b7 3d 0b 86 05 3e ff 45 e0 3c
       0.011168369 0.08947817 0.13039415 0.027377127
0002f0 13 b1 af bc fc 0f 35 3c c2 29 f9 ba 79 f8 42 bd
       -0.02144674 0.011051174 -0.0019009637 -0.047600243
000300 08 2c a3 3d 16 5b 9d 3d ff e0 45 bb a3 ca 95 3d
       0.07967383 0.07683389 -0.0030193923 0.073140405
000310 61 f4 2b 3c 02 7b de 3d 59 32 36 3b cf e5 9c bc
       0.010495276 0.10863306 0.0027801006 -0.01915255
000320 50 a7 da 3c 6c bd 22 bd fb fd 47 bd 39 b6 4f 3d
       0.026691109 -0.039731428 -0.0488262 0.05071089
000330 c1 41 bd bd 9d f9 88 3d 21 42 b6 3d e7 3e d4 bc
       -0.09241057 0.06688235 0.08899332 -0.0259089
000340 5b 0c 93 3c 71 90 24 3e 0c 1a 19 bd 4d c6 16 3d
       0.017950227 0.16070725 -0.037378356 0.036810208
000350 a6 81 f7 3c 19 97 df bd ca 6d 85 bd 43 66 a1 bd
       0.030213188 -0.109174915 -0.06515081 -0.07880833
000360 49 38 da 3d 51 33 c0 bc 33 94 a9 3c 2f 99 35 bd
       0.10655267 -0.02346197 0.02070055 -0.04433554
000370 42 f0 f6 bc 02 36 ce bd 2c 42 e4 3d f7 0c a2 bd
       -0.03014386 -0.10068895 0.11145434 -0.07912629
000380 48 30 f9 3d c4 85 21 bc bc a0 42 3d dd 59 c6 bc
       0.12167412 -0.009858552 0.04751657 -0.024212772
000390 ff 1a 21 3d 2e 15 11 bd 4c a0 e6 3d 67 ce 54 3d
       0.039332386 -0.03542059 0.11261043 0.051954653
0003a0 cb 60 20 3e 41 ca 12 3c 35 d7 85 3d 66 70 c2 3d
       0.15661924 0.008959354 0.06535188 0.094940946
0003b0 06 3c 0f be a9 6a b1 3c 72 cd 31 3d 5d 8d 28 bd
       -0.13987741 0.021657305 0.04340882 -0.04115044
0003c0 47 5c 4b 3c 32 d4 83 3c 09 2d 00 bd a3 f7 9a 3d
       0.012412137 0.016092394 -0.03129295 0.07566764
0003d0 48 a5 1d bd 06 c0 81 bc fb 10 e8 bd 70 26 93 3d
       -0.038487703 -0.015838634 -0.11331364 0.07185066
0003e0 04 c4 ea 3d fe d7 ab bd d2 33 05 3d 00 58 e8 bd
       0.11463168 -0.083908066 0.032520123 -0.1134491
0003f0 91 65 f2 3c 55 3a 11 3d 58 d6 98 3d 4a 60 dd bc
       0.029589446 0.03545602 0.07462758 -0.027023453

a2c_network.mu.bias f4 [18]
000000 80 83 20 bd 42 34 42 bd 7e 91 ee 3b 53 f9 1c 3d
       -0.03918791 -0.04741312 0.0072805276 0.03832371
000010 e5 18 e3 3a 35 d9 c0 3c 9e 91 96 3d 5d 91 78 3d
       0.0017326145 0.023541072 0.07351993 0.060685504
000020 60 6f 18 3d 6a 60 0b 3d 36 20 a5 3d 31 7a 98 3d
       0.03721559 0.034027494 0.080627844 0.07445181
000030 a9 d1 89 bd 69 d6 1b bd 9e ed 8d bd d0 22 aa bd
       -0.067294426 -0.038046274 -0.069300875 -0.08307421
000040 ae d9 ab bd 7d cd 91 bd
       -0.083911285 -0.07119272

exp_avg f4 [18]
000000 df 73 34 3b 8b 86 62 3b 09 8d d7 b7 86 52 20 3b
       0.0027534885 0.0034565057 -2.5695672e-05 0.002446325
000010 9e 81 97 3b 92 e8 43 39 11 7a b6 3a b2 85 d2 ba
       0.004623606 0.00018683288 0.0013921877 -0.0016061573
000020 fa 71 f9 3a 43 09 05 3b ec 95 ee b9 01 8f dc 39
       0.001903116 0.002029971 -0.00045506598 0.00042068216
000030 5d d7 4f 39 58 fa a0 3a 1e 88 86 ba 29 eb a8 3a
       0.00019821287 0.001228164 -0.0010263955 0.0012887466
000040 59 e2 1f bb c5 24 38 3a
       -0.0024396388 0.0007024522

exp_avg_sq f4 [18]
000000 47 78 3c 38 df 71 11 38 3e 38 0a 38 e4 59 54 38
       4.493471e-05 3.4676745e-05 3.2954144e-05 5.0628456e-05
000010 3e c8 3d 38 4b 4c 30 38 a6 88 e8 37 97 4d ec 37
       4.52476e-05 4.2032723e-05 2.7720187e-05 2.8169523e-05
000020 a1 b3 dc 37 b0 da 23 38 30 23 d8 37 29 e6 da 37
       2.630969e-05 3.9065897e-05 2.5765592e-05 2.6094802e-05
000030 f4 f7 fe 37 77 2c f4 37 5f 9f d6 37 f9 0d e6 37
       3.0394622e-05 2.9107772e-05 2.5585001e-05 2.7424643e-05
000040 13 d0 01 38 a4 5b f8 37
       3.094978e-05 2.9606577e-05
