logs/rl_games/hexapod_flat_direct/2025-11-14_22-48-05/nn/last_hexapod_flat_direct_ep_1300_rew_-0.14976564.pth (torch, 546100 bytes, 33 tensors)

value_mean_std.running_mean f8 [1]
000000 77 b2 2b 6a 4d 0e bc bf
       -0.10959323732431324

value_mean_std.running_var f8 [1]
000000 19 53 57 31 84 d4 91 3f
       0.017412248145620788

value_mean_std.count f8 []
000000 00 00 00 02 00 78 ae 41
       255590401.0

a2c_network.sigma f4 [18]
000000 f0 de 95 bf a3 19 dd bf 38 3d 2b bf b4 5f df be
       -1.170866 -1.7273449 -0.6689029 -0.43627703
000010 3f f2 f4 bf 53 57 f2 bf 15 6f 12 3e cc ec 80 3e
       -1.9136428 -1.8932899 0.14300187 0.25180662
000020 72 82 60 3e e7 9c 05 c0 6f 90 96 3e 5c 11 0f 3e
       0.21924761 -2.0877016 0.2940707 0.13971466
000030 c1 a0 df 3e 2c 57 1c 3e 47 82 b0 3e 26 5e 61 3e
       0.43677333 0.15267628 0.34474394 0.22008571
000040 6c 22 00 3f 18 0b bf 3e
       0.50052524 0.3731315

a2c_network.actor_mlp.0.weight f4 [128, 66]
000000 23 ac a6 3e 06 8b b7 bd 78 cc 3d be 1b 89 8c be
       0.32553205 -0.089620635 -0.1853503 -0.27448353
000010 86 2e 4f 3d 61 76 56 3d 4c bc 4a 3e 3b 89 d5 3c
       0.050581478 0.05235899 0.19798392 0.026066413
000020 11 1e 33 be dc e2 2d be f7 77 7f be 3a f3 8e 3e
       -0.17491938 -0.16981071 -0.24948107 0.27919942
000030 91 27 c8 bd e0 f8 a0 3e 6d 09 c8 3d 70 10 b5 be
       -0.09773172 0.31439877 0.09767423 -0.35364103
000040 8e 97 94 3e 88 ee e3 3d 8b 30 9a 3d 87 aa 50 bd
       0.29021877 0.111294806 0.0752879 -0.050943878
000050 61 4d 03 3d c3 95 e8 bd 51 bf 01 be e8 a0 5f 3c
       0.032056216 -0.1135669 -0.12670638 0.013649203
000060 e3 86 52 3d cf cd de bd a7 59 b9 3d 1b bc a4 3d
       0.05139817 -0.108790986 0.09050303 0.08043691
000070 93 71 9e bd 3c 1e e3 bd 64 fc 2c 3d a6 63 94 bd
       -0.07736506 -0.11089751 0.042232886 -0.07245569
000080 82 fb 08 3d cb ec 8e be c8 fe b7 3a 8c e7 24 3d
       0.03344298 -0.27915034 0.0014037723 0.040259883
000090 9f f8 5d 3c 7d 2f 58 bd fc f1 27 bd 31 8c a9 bd
       0.013548045 -0.052779663 -0.04100226 -0.082786925
0000a0 f1 65 c8 bd 39 d1 55 bd 1d 21 ae bd 59 93 28 bc
       -0.09785069 -0.052201483 -0.085024096 -0.010289037
0000b0 31 36 43 3d 2f 05 a6 bc ae 18 b2 3a b9 e4 ce bd
       0.047659103 -0.020266144 0.0013587677 -0.10102219
0000c0 fb b3 47 be 98 1c 4c 3d ac 07 02 3e 47 3e 54 be
       -0.19502251 0.049831957 0.12698239 -0.20726882
0000d0 8d 3a 91 3d 18 d3 26 bd 27 ab fc 3c 57 41 5a bd
       0.07091246 -0.04072866 0.03084333 -0.05328497
0000e0 77 65 2e 3c 12 99 58 bd b2 d4 3f bd ef f8 12 bd
       0.010644308 -0.052880354 -0.0468337 -0.035881933
0000f0 4c a2 4c bd f3 7c f5 bd d3 78 8c 3d 05 6f b9 bd
       -0.049959466 -0.11986723 0.06858983 -0.090543784
000100 d6 ee f4 3d b2 95 1c 3c 29 64 10 3e 70 90 88 3d
       0.11959617 0.0095571745 0.14100708 0.06668174
000110 33 22 77 be f3 01 eb bd e5 95 3a be 1c f1 9c bd
       -0.2413414 -0.11474981 -0.18221243 -0.076631755
000120 7e 1d 31 3e bf 05 29 3e 47 05 67 3c 72 6e c3 bd
       0.17296407 0.16506098 0.014100379 -0.0954255
000130 dc 84 38 3e 4e e8 ae be fb d4 91 3d b3 6a 8d 3d
       0.18019432 -0.3416161 0.07120701 0.06905117
000140 7c e8 29 3b 7c d3 7c 3e bc 76 21 3e 76 f6 29 3e
       0.0025925925 0.2469005 0.1576795 0.16597924
000150 e6 41 6d 3d 53 b8 bf bd 7a 3f 0e bc e6 d3 6e bd
       0.057924174 -0.09361329 -0.008682126 -0.05830755
000160 6e fa b7 3c 36 29 0f be c7 74 cd 3d f3 a3 f6 3d
       0.022458281 -0.13980564 0.10032039 0.120429896
000170 72 bf 6e 3d 5e e3 73 bd 66 5d 00 3e 89 52 23 3d
       0.058288045 -0.059543006 0.12535629 0.039873634
000180 1f a2 30 bc 37 97 a6 bd fd 12 38 3d 44 5a b1 bd
       -0.01078084 -0.08134311 0.044939984 -0.08659795
000190 f9 75 12 bd b9 37 87 3d 93 c6 52 3d 31 b4 1e bd
       -0.03575704 0.06602425 0.051458906 -0.038746063
0001a0 32 de 9c bc ca 51 35 bc 90 e0 6f 3d 41 80 f3 bc
       -0.01914892 -0.011066863 0.05856377 -0.029724242
0001b0 64 15 4b bd 42 ce 60 bc 21 b8 88 bd 88 bf be 3c
       -0.049580947 -0.013721051 -0.06675745 0.023284689
0001c0 55 c7 5d 3d 19 b0 b9 bd ca ee ac 3d c1 e0 e9 3d
       0.054145176 -0.09066791 0.08443983 0.114198215
0001d0 0b 58 05 bd 46 5c b7 3c 7f 23 c0 3d 99 c0 1e 3e
       -0.032554667 0.022382867 0.0938177 0.15503158
0001e0 84 6a 89 3d a0 6a 77 bd 7f 2c ed 3d 6a 2b 03 3e
       0.06709769 -0.06040442 0.115807526 0.1280953
0001f0 5d 22 fe bd e9 8a 43 bd 88 67 76 3d 70 d7 44 3e
       -0.12408898 -0.047739897 0.06015733 0.19222808
000200 08 3c 93 bd 9d 57 c6 bd a6 26 db bc be 69 49 bd
       -0.071891844 -0.0968468 -0.026751827 -0.04917311
000210 ef 95 9d bc 9b e9 f5 3d 19 6e 6a be 64 cf 80 bd
       -0.019236533 0.12007447 -0.22893561 -0.062895566
000220 2d 9b 8d 3d 25 be ca 3a ff d9 37 bd 9f 1a 49 bd
       0.06914363 0.0015468044 -0.04488563 -0.049097653
000230 40 6a 25 be 6e 5c 51 be e9 0a c7 bc cc 11 ec 3e
       -0.16153812 -0.20445415 -0.024297195 0.46107328
000240 ed 2d b9 bd bb 94 86 3d 56 6a ef bd 48 ae e6 bc
       -0.09041963 0.06571337 -0.11690204 -0.028159276
000250 22 da cc bd e5 3f 8a bb 08 4f 03 bc 13 91 0e be
       -0.10002543 -0.0042190426 -0.008014448 -0.13922529
000260 a6 fb 85 bc 9b e0 7e be 2c 2d fd bd e2 15 ea bb
       -0.016355347 -0.24890368 -0.123621315 -0.007143722
000270 bd 9f a9 3c e3 15 e4 bd de 0c bf bb 54 13 fc 3d
       0.020706052 -0.11136987 -0.0058303913 0.12308374
000280 f9 5d 3e 3e 65 66 b1 3d 9f 2e ba bd 19 f0 ad bd
       0.18590535 0.08662108 -0.090909235 -0.084930606
000290 22 aa 9a bd d4 57 ae 3d 01 87 c2 3c c7 bb f0 3d
       -0.075519815 0.08512846 0.023746016 0.11754566
0002a0 0e 33 3d 3d 68 d2 31 3d 82 d5 52 39 ca 26 7e bd
       0.046191268 0.04341355 0.00020106699 -0.06204871
0002b0 8d 36 ee bd 08 eb 07 be d8 98 7a 3d 90 8d 90 bd
       -0.116314985 -0.13273251 0.06118092 -0.07058251
0002c0 d8 ac 81 bc b7 92 45 bd 88 bb 00 3c 93 07 9c bd
       -0.015829489 -0.04823562 0.007857211 -0.07618632
0002d0 53 11 59 be ef e4 92 3d f3 44 89 bd 93 31 c2 3d
       -0.21198015 0.07172572 -0.06702604 0.09482112
0002e0 72 f7 d5 bd 89 a5 da bd 13 72 55 bb 2b cc e3 bd
       -0.10447587 -0.106761046 -0.0032569214 -0.11122926
0002f0 a4 b6 58 bd d7 68 66 be 3b 33 cd 3d f3 45 1b be
       -0.052908555 -0.2250093 0.10019537 -0.15163402
000300 31 93 a1 3c 53 e0 34 bd c7 b1 f9 3d 05 00 7c bd
       0.019723507 -0.044159245 0.121921115 -0.061523456
000310 08 50 af 3d fb 25 0d bd 2f 31 f6 3d 86 08 9a 3e
       0.085601866 -0.03446005 0.120211 0.30084628
000320 50 cb 61 be 15 16 3b bd 76 1c 33 3d bc d7 43 be
       -0.22050214 -0.045675356 0.043728314 -0.19125265
000330 19 52 f9 3e 63 2e 3e 3b ae 5d 09 3e 4f f3 34 3d
       0.48695448 0.0029019348 0.13414642 0.04417735
000340 97 7a dd 3d 2e 3a 3d bd 9d 09 29 bc dc 5d 80 3d
       0.10814398 -0.046198063 -0.010317233 0.06267902
000350 37 09 9d 3d 61 8d a9 bd 34 57 c8 bc bc a7 22 3c
       0.07667773 -0.08278919 -0.024455644 0.009927686
000360 aa 79 a9 3d 1d 37 99 3d ae 2a 84 3d ce 42 87 3d
       0.08275159 0.07481215 0.06453453 0.06604539
000370 e3 89 93 3d 71 19 41 3e 42 62 2d bc d4 24 0c be
       0.07204034 0.18857361 -0.0105825085 -0.13685924
000380 af 35 51 be 39 0d 0c be 37 ae 52 be b2 31 8c be
       -0.20430635 -0.13676919 -0.2057427 -0.27381665
000390 8f a6 af bb c9 db 39 bd e1 b4 4f bd 58 ca bd bd
       -0.0053604315 -0.04537562 -0.05070961 -0.0926711
0003a0 92 c2 e4 bc 74 83 1a 3a 79 64 cb 3b 5b 5c 0d bd
       -0.02792481 0.0005894222 0.0062070456 -0.034511905
0003b0 4d d1 5e bd 06 c1 b3 bc 77 14 af bd d0 f2 e4 3d
       -0.054398824 -0.021942627 -0.08548825 0.11179125
0003c0 a6 e9 af bc e4 40 16 3d 32 fc 1f bd 79 0b 9f bc
       -0.021473717 0.03668298 -0.03905887 -0.01941465
0003d0 79 3a 72 3d 3e 39 05 3d b0 d5 f1 bd f3 5b b4 3d
       0.059137795 0.032525294 -0.11808336 0.088066004
0003e0 d8 c1 1f 3e 7c c7 64 3d 2c a7 cc 3d c9 de 3a 3e
       0.1560129 0.055854306 0.09992823 0.18249048
0003f0 fb 18 2d bc 21 cb eb b9 c0 6e 16 be 98 5a 7c bd
       -0.010565038 -0.00044974036 -0.14690685 -0.061609834

a2c_network.actor_mlp.0.bias f4 [128]
000000 11 da 59 3d 29 1b 0a 3d c9 0a b0 3d 1e ff 6b bd
       0.05318648 0.03371731 0.08595807 -0.057616346
000010 2d eb f6 3d 35 bf a5 bd 7d c3 cf bc b0 04 51 3e
       0.12056575 -0.080931105 -0.02536177 0.20411944
000020 e3 7e 2d 3d d5 6d 10 3b e4 a6 e3 bb eb 46 c0 3d
       0.042357337 0.0022038121 -0.006947385 0.093885265
000030 39 49 ee bc 2f 3b e8 3d 63 c1 03 be 8f 97 a4 3d
       -0.02908765 0.113394134 -0.1286674 0.0803672
000040 46 88 a5 3d 57 d0 f0 3d 48 7c 1f 3e f9 fd 0f 3e
       0.08082633 0.11758488 0.15574753 0.14061727
000050 d4 27 75 bd 91 fd 80 3d 41 71 c3 3d 6b 55 b3 3d
       -0.059852436 0.06298364 0.09543086 0.087565266
000060 af 5f a5 39 0f 13 d1 3d 6f 1d 21 bd eb de f5 3d
       0.00031542542 0.10208713 -0.03933471 0.12005409
000070 ca d9 0f 3e db 67 8f 3a 86 a2 0a 3e a8 00 92 bd
       0.14047924 0.0010940986 0.1353856 -0.071290314
000080 43 9a f3 3d 90 d5 71 3d 8e 54 1b be 3e c9 f9 3c
       0.118946575 0.05904156 -0.15168974 0.030491468
000090 7d 41 ab 3c a6 f2 1a 3e 0e da 09 bd 66 98 65 bc
       0.02090525 0.15131626 -0.03365522 -0.014013385
0000a0 88 f3 b0 3c 0d 6a 60 3d 35 00 b0 bc 79 28 3c 3d
       0.0216005 0.054788638 -0.021484474 0.045937035
0000b0 d1 5c c4 bd 86 b5 0f 3e c9 3f ac bd 22 b4 28 3d
       -0.09588016 0.1403409 -0.084106036 0.041187413
0000c0 86 10 0f 3e 3a d4 96 3d 38 f6 da bd 07 fb 9a 3d
       0.13971147 0.07364698 -0.10691494 0.07567411
0000d0 b4 9c 11 3c 03 6b 78 3d 07 9a e2 bd 76 f0 65 3d
       0.008887459 0.06064893 -0.11064535 0.056137525
0000e0 d4 af e0 3d 4a b4 21 3d f9 70 a9 3d 85 fa 26 3e
       0.109710366 0.039478578 0.08273501 0.16306503
0000f0 b8 d4 f6 3d da 5c 6c bc fb fa 29 3e de fc 71 bd
       0.12052292 -0.014426434 0.16599648 -0.059079044
000100 9a da 74 3d be 3f fc 3d 8a 82 6e 3e 5f ea f1 3d
       0.059778787 0.12316845 0.23291984 0.11812281
000110 a7 61 3b 3e 21 07 96 3d 52 8e 59 3e d0 4d 13 3b
       0.1829897 0.073255785 0.21245697 0.00224768
000120 4c 49 09 3e c7 9d eb 3a f2 97 f5 3d 1b a9 01 be
       0.13406867 0.0017976098 0.11991872 -0.12662165
000130 22 96 33 be 45 7b bc 3d 62 28 0f bd 0b c0 af bd
       -0.1753774 0.09203199 -0.03495062 -0.08581551
000140 b4 b2 2f be f5 ff c0 bd b9 4a d4 3c 76 6c 30 3e
       -0.17158014 -0.0942382 0.025914537 0.17228875
000150 e8 db 0f 3e fc 78 61 3d 97 1b a9 bd 20 36 81 3d
       0.14048731 0.05504702 -0.082572155 0.06309152
000160 b2 46 23 be ad e7 28 3e b6 1e d7 3d e6 08 44 bd
       -0.15944937 0.16494627 0.105039045 -0.04786005
000170 4e ed b5 3d 71 93 f4 3d 21 87 ad 3d 00 d1 a7 bc
       0.08883153 0.11942185 0.084730394 -0.020485401
000180 42 eb 12 3e ac 65 1f bd 1f ac df bc eb 10 20 3d
       0.14347556 -0.03891532 -0.027303753 0.039078634
000190 7b b0 5e 3d 19 c4 51 be e9 ea bd 3d 4d 95 0e bd
       0.054367524 -0.20484962 0.09273321 -0.034810353
0001a0 76 b8 bb 3d d0 3b 1d 3e 22 0a 83 3e 67 23 9d 3d
       0.091660425 0.15354848 0.25593668 0.07672768
0001b0 69 c5 53 3e 26 c9 ff 3d b6 99 17 3e 2c 40 a8 3d
       0.20680775 0.12489538 0.1480473 0.08215365
0001c0 ae 79 f0 3d ee 81 85 3d 5c 13 ed 3d 07 d1 a5 3d
       0.117419586 0.06518923 0.11575958 0.080965094
0001d0 ee bb bf 3d 7b 64 bb 3d 58 3d e3 3d a5 2f e7 3b
       0.093620166 0.091500245 0.11095685 0.00705524
0001e0 3b a1 0c 3e 39 75 7a bc fb 67 29 3e d6 bb 10 3d
       0.1373338 -0.015286737 0.16543572 0.035335384
0001f0 d4 60 29 3c 37 7d 09 3e d4 39 ee bd 0a 05 86 3e
       0.010338027 0.13426672 -0.116321236 0.2617572

a2c_network.actor_mlp.2.weight f4 [128, 128]
000000 27 f3 4f 3d 37 42 d0 3d cf 5e 87 bd 22 16 c7 bc
       0.050768998 0.101688795 -0.0660988 -0.024302546
000010 ba 8c ac bd ed 9a ab bd da b2 4c 3c 70 39 fb bc
       -0.08425279 -0.08379159 0.012493813 -0.030667037
000020 fd 6e c8 3b 7e 23 d3 bd d0 50 c1 3c 00 f8 0f bd
       0.0061167465 -0.10309504 0.023598105 -0.03514862
000030 ca 52 14 3d d9 de 1f bd ed 49 38 bd 64 d8 f3 3c
       0.036211766 -0.039030883 -0.044992376 0.029766269
000040 c4 21 11 bd 5e 6f 11 be 66 d9 6e bc 2f c9 09 be
       -0.035432592 -0.1420264 -0.014578199 -0.13455652
000050 8e ab bf 3d 7e 64 80 3d b5 28 0a bc c6 82 8c bd
       0.09358893 0.06269167 -0.008432557 -0.068608806
000060 c0 a1 60 3d 12 92 f5 bd 88 9a 99 bc b8 93 9a 3b
       0.054841757 -0.11990751 -0.018750444 0.0047173165
000070 2f 86 43 3d f3 a2 1f ba cd 0c 25 3d 1c 94 04 3b
       0.04773539 -0.000608965 0.04029541 0.0020229882
000080 a4 2c 03 be 61 b8 72 3d c3 9d 30 bc 3e 78 1f 3d
       -0.12809998 0.05925787 -0.010779801 0.03893303
000090 33 1d cf 3b 99 8c 1f 3d 8a e2 3a bc 34 74 2f 3d
       0.0063206195 0.038952444 -0.01140655 0.04283543
0000a0 68 8a 4a bc ab e3 8b bc 99 aa 3b be 69 09 26 3e
       -0.0123621 -0.017076334 -0.18326797 0.16214527
0000b0 c9 2d 99 3d aa a3 08 be 07 b1 28 bc 6a b2 f0 3d
       0.07479436 -0.13343683 -0.010296113 0.1175278
0000c0 ab 31 15 bd 43 0f 24 3d 7a f1 86 3c b5 8c 31 3a
       -0.03642432 0.040053617 0.016472567 0.0006772981
0000d0 a9 8e 51 3e 71 5c 1e 3c f7 5b 8b 3c 58 f3 29 3c
       0.20464577 0.009665594 0.017011626 0.010372959
0000e0 13 9e 3b 3d af 4b cf bd 7e 6f 34 bd cc 75 ab bc
       0.04580505 -0.101218574 -0.04405164 -0.020930193
0000f0 d4 e8 8a bd 21 20 b0 3d 8e 60 48 be 0f 83 8d bd
       -0.0678269 0.08599878 -0.19568083 -0.06909763
000100 0d ba de bd 0c 44 c4 3c 29 f7 c9 3b c8 68 92 bd
       -0.1087533 0.023958229 0.006163497 -0.07148892
000110 6d 18 9f 3d 26 0a 2a bd b4 73 d3 bd 96 f2 dc 3c
       0.07768331 -0.041513585 -0.10324803 0.026971143
000120 f7 8f 8d bd 40 34 2e bb 85 e9 8b bd 2f c3 80 3d
       -0.06912225 -0.0026581436 -0.0683165 0.06287228
000130 b8 c4 cd 3b 33 7d bd 3d 0b f5 a0 bd 3b ed a0 bd
       0.006279554 0.092523955 -0.07859238 -0.07857748
000140 a9 b3 09 bd c5 c3 00 3d 74 90 24 bd af 07 a3 bd
       -0.033618603 0.0314367 -0.040176824 -0.0796045
000150 d7 ad af 3d 88 f9 f9 bc 7a 42 0c 3c aa 7b 10 be
       0.08578079 -0.030514494 0.008560771 -0.14109674
000160 78 86 5f bb 2b 0f c3 3c 32 ef 7b 3d 63 c6 0a be
       -0.003410725 0.023810944 0.06150741 -0.13552241
000170 95 67 fb bd 56 54 d3 3c 4e de 8e 3d 11 32 a8 3b
       -0.12275616 0.02579705 0.06975995 0.0051329215
000180 19 4d ac bd 7e 1f bd bd 76 d9 11 3d 5e 54 b0 3c
       -0.08413143 -0.09234522 0.035607778 0.021524604
000190 49 c0 9b 3d 45 b9 80 bd 5a f7 ea bc c0 4f b1 3d
       0.07605035 -0.06285337 -0.0286824 0.08657789
0001a0 84 af ec bb 6d e9 42 bc 20 2d 6e 3d 11 c3 e6 3c
       -0.0072230715 -0.011896473 0.058148503 0.028169187
0001b0 dc 21 e4 3a ac dc 19 be c3 10 21 3e 8b 24 b7 bd
       0.001740511 -0.15025586 0.1572905 -0.08942517
0001c0 fa c1 d6 3d 75 fa 85 3d c7 2c 11 be a5 46 c0 bd
       0.10486217 0.065419115 -0.14177237 -0.093884744
0001d0 50 cd d0 bc 30 f9 b0 3d 27 07 63 3d fb dc 14 3d
       -0.025488526 0.08641279 0.055426743 0.036343556
0001e0 81 8d da 3c d7 ac 58 3d d2 b5 04 3d 6c c9 5c bd
       0.026678802 0.052899208 0.03239996 -0.05390303
0001f0 3d 1d 99 3d 49 65 dc bc 39 06 86 3d bf 6d 5e bc
       0.0747628 -0.026903765 0.06544156 -0.01357597
000200 b7 06 85 3d 5e 19 02 be 6a 34 c4 3a 42 f6 c2 bd
       0.064954214 -0.1270499 0.0014969234 -0.09519626
000210 53 e2 2f bb 11 85 66 3d 32 ec 16 be 82 00 f6 bd
       -0.002683778 0.056279246 -0.14738539 -0.120118156
000220 75 c5 8e bd 3f 44 08 bb 09 07 eb bb ad 31 32 bd
       -0.06971256 -0.002079263 -0.0071724695 -0.043504406
000230 44 69 b3 bc f8 f6 5c bd f1 ee 1f bb 6c 88 61 3c
       -0.02190078 -0.053946465 -0.0024403895 0.013765436
000240 6c 04 19 3d 9b b9 ef bc e8 5b 8f bd ce 09 c0 3d
       0.037357733 -0.029263308 -0.069999516 0.0937687
000250 5c 10 67 3b 0b e6 7e bd 09 c4 20 3d 99 4b a8 bc
       0.0035257554 -0.062231105 0.039249454 -0.02054386
000260 af b1 d2 3c 42 4e 82 3d 74 57 17 3d 70 18 c2 3d
       0.025719492 0.06362583 0.036948636 0.09477317
000270 58 93 42 3d bb ab 07 3e 8f eb a3 bd 1e 0d f7 ba
       0.0475038 0.13249104 -0.080039136 -0.0018848514
000280 b5 c5 e5 3c 55 4b f1 ba d2 bb f0 3d 3b 5d 5a bd
       0.028048376 -0.0018409292 0.11754574 -0.053311568
000290 91 dd 9e 3d e5 4c 4c be 84 ce 41 bb 49 03 29 3d
       0.07757104 -0.19951208 -0.0029572556 0.0412629
0002a0 a6 f8 66 bd 33 8a 8f bc 12 57 0a 3e dd 55 27 bd
       -0.056389473 -0.017521953 0.13509777 -0.04085337
0002b0 2a ab 4a 3c 10 a9 95 bd 3a 59 5c 3d 0d 57 f6 bc
       0.01236991 -0.07307637 0.05379603 -0.030070806
0002c0 63 12 1d be f2 67 f7 bd f6 81 21 3d 62 62 77 bd
       -0.15339045 -0.12080373 0.03943058 -0.06039656
0002d0 3c 22 d9 bd 02 84 b6 3c 0c fd 04 3c 25 98 b8 bd
       -0.10602233 0.022279743 0.008116972 -0.09013394
0002e0 4b a0 fe bc e2 83 8d 3d bb 4e 6e 3c 5f 10 13 be
       -0.031082293 0.0690992 0.014545138 -0.14361714
0002f0 06 7b af bd 2f ec 0a 3e 32 5f 31 bd c6 fa 75 bd
       -0.08568387 0.1356666 -0.043303676 -0.06005361
000300 0d 65 67 bd 7f 91 22 bd 18 ab 51 3d c5 5b 0e 3d
       -0.056492854 -0.039689537 0.05118856 0.034755487
000310 ab af 90 bd 2c 0f 01 be 84 34 18 be 72 11 a0 3c
       -0.07064756 -0.12603444 -0.14863783 0.019539569
000320 d3 f0 b3 3c 72 39 a3 3d ff d1 e4 bc 93 f7 ac 3c
       0.02196542 0.07969941 -0.027932165 0.021114146
000330 14 bf 02 3d f2 32 80 bd cd 2b 98 3d 74 dd 98 3d
       0.031920508 -0.06259717 0.07430229 0.07464114
000340 24 85 65 3d c9 3c 83 3d ea 88 38 bc c6 2d 04 bc
       0.056035176 0.06408078 -0.011263112 -0.008067554
000350 78 e1 dd 3d bd f2 d6 bd ec c5 3c 3d c8 b4 a2 bd
       0.108340204 -0.104955174 0.04608719 -0.079446375
000360 61 1d ad bc 60 f8 f1 bd 89 1e a2 bd 59 71 88 3d
       -0.021132173 -0.11814952 -0.0791598 0.06662244
000370 fb 59 16 be 4c cd 60 3d 14 8f 41 3d 1f 5e d7 3d
       -0.14682762 0.054883286 0.04725559 0.10515999
000380 c8 ae a3 bd f2 91 f8 bd cf 2d b2 3c ce fa 52 3a
       -0.07992321 -0.12137212 0.021750359 0.0008048237
000390 19 70 13 3d f1 83 83 3d 30 1e 0e bb 05 33 9f 3c
       0.035995577 0.0642165 -0.0021685474 0.019433508
0003a0 0b 19 ff bd 20 2d 07 be 32 fb 23 be 66 55 a5 bd
       -0.124559484 -0.13200808 -0.16013792 -0.08072929
0003b0 41 6b 6f bc c6 03 a6 3d a6 64 16 3d 64 c8 98 bd
       -0.014612974 0.081061885 0.03671708 -0.074600965
0003c0 47 bc 9e bb 45 3f fb 3d 4d 13 8d bc 63 c9 09 bb
       -0.0048442218 0.12267927 -0.017221117 -0.0021024577
0003d0 39 05 ba bd 99 f6 9d 3c 2c fa 5f 3d 61 f5 0d bc
       -0.090830274 0.019282626 0.054681942 -0.00866446
0003e0 21 09 a1 bd 42 83 99 3d c9 2e 36 bd 3f cc f4 bc
       -0.07863069 0.074957386 -0.04447821 -0.029882548
0003f0 fb e2 d3 bc 4a 22 5f 3d 5d aa f9 3c 16 3d 33 bd
       -0.025865069 0.05447606 0.030476743 -0.043759428

a2c_network.actor_mlp.2.bias f4 [128]
000000 92 0d 96 bc 55 82 db bd 1a 59 80 bb c0 ba bd b9
       -0.018317018 -0.10718218 -0.0039168717 -0.0003618803
000010 70 24 5d 3d 89 85 7c 3c cc 17 77 3d ab 7e c8 3d
       0.053989828 0.015412697 0.06032543 0.09789785
000020 86 3b ee bd 29 c8 4d bc 0c bb d9 bd b9 6f e1 bc
       -0.11632447 -0.012559929 -0.106313795 -0.027519094
000030 10 c1 94 bc d3 5d b7 bd 9e bf 56 bd 34 00 88 bd
       -0.018158466 -0.089534424 -0.052428834 -0.06640664
000040 56 d2 e4 3b 47 a8 7a bd d3 d7 19 3c 6b bb 11 bd
       0.006983082 -0.061195638 0.009389835 -0.035579126
000050 35 8f 2c be f7 12 b3 3d c7 04 0a 3c d1 05 ab bd
       -0.16851504 0.08743852 0.008423991 -0.08350719
000060 8a 5d 43 be 48 4f 58 bd 73 47 10 bc 14 a7 9d bb
       -0.19078651 -0.052809983 -0.008806097 -0.004811177
000070 77 ef 5e be d0 fe fb 3c de c9 ab bc 30 b9 a7 bd
       -0.21771036 0.030761153 -0.020970281 -0.081896186
000080 31 ad e1 3c f3 29 8b 3d 56 4a 61 3d 9e c5 23 be
       0.027548404 0.067951106 0.055002533 -0.15993354
000090 e4 2d c0 3c 0f 78 f2 3c 95 9e 0b be 17 80 27 bd
       0.023459382 0.029598264 -0.13634713 -0.04089364
0000a0 ec c2 84 3d bc e5 d3 bc a6 02 aa 3c 10 2a 83 bc
       0.06482491 -0.025866382 0.020753216 -0.016011268
0000b0 41 96 49 3c b8 56 11 bd ba 45 31 be c5 96 7b bd
       0.01230389 -0.035483092 -0.17311755 -0.061423082
0000c0 fd f7 88 bc 05 20 2f bc b6 09 91 bc 48 1b f5 bd
       -0.016719813 -0.010688786 -0.017704826 -0.11968094
0000d0 5c f6 1e bc 7c c2 89 3d c7 d5 13 be f3 05 de 3b
       -0.009702291 0.06726548 -0.14437018 0.0067756115
0000e0 fd 85 5e 3c 18 97 11 bd 03 65 c8 3d 48 22 ac bd
       0.01358175 -0.035544485 0.097848915 -0.08404976
0000f0 5b cf fd bd 86 0c bb 3d 35 40 85 3d cb 22 3d 3d
       -0.123930655 0.09133248 0.06506387 0.04617576
000100 eb 6d 1d bd 24 45 10 bd 54 e8 bc 3d ad c6 ba bc
       -0.038434904 -0.035222188 0.092240006 -0.022799814
000110 cb 81 84 3c 00 c6 97 3c b2 7f aa 3d 99 e6 81 bb
       0.016175171 0.018527031 0.08325137 -0.003964257
000120 c0 e3 7b 3d d1 8d fa bd c9 94 4d 3d 3d 59 3c be
       0.061496496 -0.122340806 0.05019072 -0.18393417
000130 5b ef f8 bd aa c0 00 be d7 ff 83 3c 89 52 78 3d
       -0.121550284 -0.12573496 0.016113205 0.060625587
000140 e3 8e 43 3d 54 0d 5e 3d 2c 27 51 bc e1 b1 9c bd
       0.04774369 0.05421193 -0.012765687 -0.07651115
000150 ef d5 ea bd 78 14 8f 3d 52 c2 15 be 80 2c fc bd
       -0.11466586 0.06986326 -0.14624909 -0.12313175
000160 4d 7d 45 3d a7 4a bf 3b c6 c4 0f bd 6b 99 3e bd
       0.0482152 0.0058377567 -0.035099767 -0.04653303
000170 83 6b 81 3c 29 2a ff 3d 18 75 b4 3d fa 10 bc bd
       0.015798336 0.12459213 0.08811396 -0.091829255
000180 83 e6 37 3c 8e 93 50 3c 1f b8 73 3d ad 1a 8f 3d
       0.011224392 0.012730492 0.059501763 0.0698751
000190 36 fb d1 3c c2 28 07 bd cf 23 c6 bc e3 69 85 bc
       0.025632482 -0.032997854 -0.024186997 -0.016285842
0001a0 6b db 8c 3d 25 23 22 3d d8 94 0d bd 5c 9c 7c 3c
       0.06877788 0.039584298 -0.034565777 0.015418138
0001b0 f0 29 bc 3d 8f 87 29 bd 49 fd b3 3c 4c 2d b4 bd
       0.091876864 -0.041389044 0.021971362 -0.08797702
0001c0 71 ff 31 3d 60 c9 2b bc fc f0 2e 3c 3f da fb bc
       0.0434565 -0.010485023 0.010677572 -0.030743716
0001d0 2b 4d 8e 3d ef 08 ca bd 0c eb 60 bd d1 f8 9c bc
       0.06948312 -0.09864985 -0.05491166 -0.019161614
0001e0 22 21 73 bd 8d 94 ee 3b 5c af 99 bc fb 81 59 3d
       -0.05935777 0.007280892 -0.018760376 0.053102475
0001f0 5c bc e1 bb 54 e7 aa 3c 74 f5 e8 3c f3 5e e1 bc
       -0.0068889093 0.020862259 0.028437354 -0.027511096

a2c_network.actor_mlp.4.weight f4 [128, 128]
000000 e9 d3 4b bc 1b 82 67 bd d8 90 2c bd c0 56 d0 3b
       -0.01244066 -0.056520563 -0.04213032 0.0063579977
000010 9b 7e 11 3d b0 ba 03 be 38 b4 29 bd 07 90 8c 3d
       0.03552113 -0.12864184 -0.041431636 0.068634085
000020 fb 89 4c bd df de f2 3c 8f f3 4b 3d 6d db 4b 3c
       -0.049936276 0.029647289 0.049792822 0.012442452
000030 90 67 24 3c ad 85 bd bd 1f 13 af 38 b4 05 95 3c
       0.010034457 -0.09254012 8.348212e-05 0.018191196
000040 7d 86 0c 3b 01 ce 14 bd 8a c8 34 bd af 69 ae bd
       0.0021442466 -0.036329273 -0.04413656 -0.08516251
000050 77 4b e5 3c f5 46 58 3d 14 25 c4 3c 56 13 27 3b
       0.027990086 0.052802045 0.023943461 0.0025493703
000060 d6 5c 25 bd 14 d1 62 3d 29 4b 1d 3c 8f e9 17 bd
       -0.04037174 0.055375174 0.009600439 -0.037087973
000070 25 95 d9 bc 29 2e 5b bd 88 0c d0 bd a2 8f c9 3d
       -0.026560375 -0.05351082 -0.1015864 0.09841849
000080 51 4b 4a 3d 90 80 98 bd 8c 7e 22 bc 7a f7 0f 3d
       0.049388234 -0.07446396 -0.009917866 0.03514812
000090 c8 68 91 bc 27 4b 02 bd 94 44 e1 bd 69 13 98 bd
       -0.017750159 -0.031809952 -0.10999408 -0.07425577
0000a0 6c c1 a4 bc 9f f2 2e bd 72 63 65 bd d3 31 5c bd
       -0.020111762 -0.04271185 -0.05600304 -0.053758454
0000b0 0d 3a 4e 3d 0a 68 76 bd e4 f9 05 be 3e 33 5b 3d
       0.05034833 -0.060157813 -0.13083607 0.053515665
0000c0 4c 1a 77 3d ef 29 39 bd 28 09 d5 bb d6 a3 ae bc
       0.060327813 -0.045206007 -0.0065013357 -0.021318357
0000d0 4e 36 28 3d ca 4d 22 bc ac 2f df bd 0a d2 96 3d
       0.041067414 -0.009906242 -0.108977646 0.073642805
0000e0 8b 45 a4 bd 0d e6 fc 39 13 88 bc bc c8 4a a1 bd
       -0.08021077 0.00048236587 -0.023014104 -0.078755915
0000f0 97 d9 61 bc c6 46 05 3d e5 6f d5 3b 64 34 0d 3e
       -0.013784788 0.032538198 0.006513583 0.13789517
000100 98 16 e8 3d ee ae 8e 3d 36 67 30 bd ed 15 47 bd
       0.113324344 0.06966959 -0.04306718 -0.048604894
000110 13 66 cb 3d f3 fe 91 3c 1f 88 a3 3d 2e 17 ef 3d
       0.099315785 0.017821765 0.079849474 0.11674343
000120 a3 a0 ee bc 75 04 11 3d 5e ee 09 3d 12 d0 da bc
       -0.029129332 0.03540464 0.03367459 -0.026710544
000130 a3 5b 91 bd af 51 e7 bb f9 38 b2 3d f2 dc 2c bc
       -0.070975564 -0.007059298 0.08702273 -0.010550724
000140 ce 61 df 3c aa bb fd 3c 06 b9 0e 3d 7d a5 b4 3d
       0.027268317 0.030973274 0.03484442 0.08820627
000150 33 6a 36 3a 8a eb 4a bb fa 6f 73 bd 31 ad fb bc
       0.0006958574 -0.0030963146 -0.05943296 -0.030722233
000160 19 29 97 bd 4f d1 35 3d c2 b6 35 3d ea b7 23 bd
       -0.07380886 0.044389065 0.044363745 -0.039970316
000170 1c 34 20 3d 84 43 0a bc eb c3 82 bd 57 05 00 bc
       0.039112195 -0.008438949 -0.06385025 -0.007813773
000180 6e 50 86 bc 4b 64 2b bd c7 fc c0 3d 0e 47 a0 3c
       -0.016395774 -0.041843694 0.094232135 0.019565132
000190 1e 52 9a bd 38 eb c4 bb b1 8a ef bc 56 4d a9 bd
       -0.07535194 -0.0060094856 -0.029240938 -0.08266704
0001a0 70 3f 68 3d ec 92 50 3c 94 aa 2e bb 2d 6c 09 bd
       0.056701124 0.012730341 -0.0026651965 -0.03355043
0001b0 0f e4 4c bc 04 aa 93 bd 08 75 74 bc 7b 63 44 bd
       -0.012505545 -0.07210162 -0.014920481 -0.047946434
0001c0 bb ea bb 3c 8a fa 81 3c 92 e4 d7 bd 43 bd be bd
       0.022939077 0.015866537 -0.10541643 -0.093134426
0001d0 f8 ae 44 bd 87 7a 22 3d b0 84 9b 3d 08 0f 0a 3d
       -0.048018426 0.039667632 0.075936675 0.03370574
0001e0 00 d0 4c 3d 7a 4b 80 3d fe 39 7f bd 01 18 c7 3d
       0.05000305 0.06264396 -0.062311165 0.09721375
0001f0 f2 e4 b1 bd 55 82 bd bc 73 7d 21 3c d7 46 dd bd
       -0.08686246 -0.023133436 0.00985657 -0.10804527
000200 8b 62 67 3c ba ec 18 3d 21 18 83 bc b2 93 3f 3d
       0.014122616 0.037335135 -0.016002716 0.046771713
000210 c9 6e 9c 3d 82 2f 2f bd 75 95 6c bd 0d 38 10 3d
       0.07638318 -0.042769916 -0.05775972 0.035209704
000220 0e 75 39 bd c6 7c 64 bd 97 f6 58 3b e7 92 7e 3d
       -0.045277648 -0.055783056 0.0033105963 0.062151816
000230 09 c8 9a bd 63 5d 18 bd 9c a4 5b bd d5 77 f7 3d
       -0.07557685 -0.037198436 -0.05362378 0.12083403
000240 7f 9f 8d 3d c0 82 d0 bc 27 ed e0 bd e7 6f 86 3d
       0.06915187 -0.025452971 -0.10982733 0.065643124
000250 38 78 db bd 4a f6 34 bd 99 88 15 3e 9c 68 8d bb
       -0.10716289 -0.044180192 0.14602889 -0.004315449
000260 5e 90 d5 bc f3 94 c5 bd e6 01 9a bd d7 94 0c bc
       -0.026069816 -0.096475504 -0.07519893 -0.008580408
000270 a2 26 d2 3c 05 1f 54 bc 18 5f 52 bd 32 86 30 bd
       0.025653187 -0.012946849 -0.05136022 -0.04309673
000280 dc 37 f2 bb 90 0f df 3c 77 ef 45 bd 07 c4 57 bd
       -0.007391913 0.0272291 -0.048324075 -0.05267718
000290 f2 36 a0 bd ea cd 82 3d ed aa 77 bd 28 28 f3 bd
       -0.0782298 0.06386931 -0.060465742 -0.118728936
0002a0 29 44 09 bd d8 35 b9 bd e2 f0 ca bd ef d1 4e bd
       -0.03351227 -0.09043473 -0.09909226 -0.050493177
0002b0 98 8a 80 3d be 65 ba bd db d6 ac bd d4 27 04 3d
       0.06276435 -0.09101437 -0.08439418 0.032264546
0002c0 e9 45 8f 3d 98 6c 21 3c af a3 02 3e b9 43 44 3d
       0.06995756 0.009852551 0.12757753 0.047916148
0002d0 60 9a 73 bd d0 30 04 bc 33 e7 83 bd 5d 79 f0 3d
       -0.059473395 -0.008068278 -0.06440582 0.11741898
0002e0 58 3d c7 bb f1 a2 78 3d e4 2c 32 bd 67 b8 9c bd
       -0.006080311 0.060702268 -0.043499842 -0.076523595
0002f0 d7 60 97 bd 69 5c b5 3d 01 c2 96 bd a6 f0 96 39
       -0.073915176 0.088555165 -0.07361222 0.00028789527
000300 de 0b a0 3c b4 6d a7 bd 7a b4 de bc cb 5f 56 3d
       0.019536909 -0.08175221 -0.027185667 0.05233745
000310 40 b4 d0 3d c8 cd 40 bb 4e 6c b1 bc f7 d8 4e 3b
       0.1019063 -0.002941953 -0.021658089 0.0031562427
000320 8e ad a9 bc 40 e2 9c bc 21 8e 86 3c 74 c2 01 3d
       -0.02071264 -0.019150853 0.016425194 0.031679586
000330 3c 06 16 3e 77 dd 4b bd 28 41 58 3d 86 cf 98 3d
       0.14650816 -0.049771752 0.052796513 0.07461457
000340 af 8c 91 3c 27 54 5f bc e4 62 2d 3b 2b 29 c8 3c
       0.017767278 -0.013630903 0.0026456648 0.024433693
000350 90 2d 56 3d 76 a2 49 3d d4 ce 16 bd 34 8e a0 3c
       0.052289546 0.0492272 -0.03681834 0.019599058
000360 50 2e aa 3d ef 9d 7e 3d b4 da f3 3b 82 10 e5 bd
       0.08309615 0.062162336 0.007441843 -0.11184789
000370 ac ba 69 3d 7c 50 a8 bc ff e2 85 3d 15 a4 17 3d
       0.05706279 -0.02054619 0.06537437 0.037021715
000380 92 ab 89 bd d2 04 69 bc 2a b2 bc bc ce 23 aa bd
       -0.067221776 -0.014222341 -0.023034174 -0.083076105
000390 d3 52 bc 3c 6b 1d d2 3d 65 b3 bb 3d e9 4d 47 bd
       0.022988712 0.10259517 0.09165076 -0.048658285
0003a0 c0 78 91 bc 87 3a a0 bc 3d d9 4e 3d f4 ad 91 bd
       -0.017757773 -0.019559158 0.050500143 -0.07113257
0003b0 95 3e 60 3c eb 14 af bd 6d e3 78 3c da ee fc 3c
       0.013686796 -0.08548912 0.015190941 0.030875612
0003c0 bc 1c b0 bd 3a 37 b4 3d 53 d7 25 bd 9c 82 7e 3d
       -0.08599231 0.08799596 -0.040488552 0.062136278
0003d0 06 83 ed bd 1c 74 92 3d f9 22 05 3e bd 45 37 3d
       -0.11597256 0.07151052 0.13001622 0.044744242
0003e0 5e 94 94 3a e3 6a f0 3b db 33 ca bd ad 96 c6 3c
       0.0011335721 0.0073369606 -0.09873172 0.02424177
0003f0 5e 69 39 3d 55 ab 5e 3d a5 9c 69 bd 6a 4a ae 3c
       0.0452665 0.054362614 -0.057034153 0.021275718

a2c_network.actor_mlp.4.bias f4 [128]
000000 41 d0 51 3d bd 88 24 3d fb 0d 66 bd 44 fb b2 bd
       0.051223997 0.040169466 -0.056165677 -0.08739331
000010 95 68 df bd 32 3f 27 3c fa 49 8b 3d b3 ea c5 3c
       -0.10908619 0.010207938 0.06801219 0.024159765
000020 3b f8 e0 3c 44 c1 71 3d 2b 29 c5 3c cb 57 d7 bc
       0.027462116 0.059022203 0.024067482 -0.02628698
000030 b1 20 1f bd f7 7d 66 3d 0c 63 31 bd d4 85 70 bb
       -0.038849536 0.056272473 -0.04330735 -0.0036700862
000040 eb 07 1b bd 41 e6 70 bd 37 ab 52 bd cb bb 68 bd
       -0.037849348 -0.058813337 -0.051432814 -0.05681972
000050 1e 23 1f 3d 3b 05 54 bc b4 c6 8a 3c bd d6 1e 3c
       0.03885185 -0.0129407 0.016940452 0.009694752
000060 cb 98 24 3b 6d c3 81 bd 38 dd 0d be c2 76 f4 bc
       0.0025115486 -0.06336103 -0.1385392 -0.029841784
000070 2d 90 c5 3d b7 ef 7a 3d f2 e8 56 bd c1 ac f3 3b
       0.0964664 0.061263766 -0.052468248 0.0074363654
000080 08 80 df 3d 95 b7 18 bd db f9 bd bc c2 9c fa bd
       0.10913092 -0.037284452 -0.02319043 -0.122369304
000090 82 26 a1 3c 05 72 7d 3d 03 3f 13 bd 18 d1 2a bd
       0.019671682 0.061876316 -0.035948765 -0.041703314
0000a0 76 bf 2a 3c ff 32 25 bc cd c1 80 3c e7 69 0b bd
       0.010421624 -0.010082959 0.015717411 -0.034036543
0000b0 c6 7b 6a 3b 8a be ac 3c 42 88 a6 bd d8 6f 06 3e
       0.003577934 0.02108695 -0.08131458 0.13128603
0000c0 f1 27 56 3d ca 4a b3 3d d8 d3 33 bd 86 be bd bd
       0.052284185 0.08754499 -0.0439032 -0.09264855
0000d0 ad 2d 8b 3d 94 f2 90 bd 9b 27 93 3d 31 98 e8 bd
       0.06795821 -0.07077518 0.071852885 -0.11357153
0000e0 47 8d 4e 3d 1b 55 d8 bd 18 5f da bd b9 66 14 3d
       0.0504277 -0.105631076 -0.10662669 0.036230776
0000f0 03 8c 85 3d 3c 6d 33 bd e7 90 1b bc ae 0c dd 3d
       0.06520846 -0.043805346 -0.009494997 0.10793434
000100 78 9b 11 bd 42 9d ce 3c 73 c8 97 3d a2 5c 54 bc
       -0.035548657 0.02522147 0.074112795 -0.0129615385
000110 2b e2 63 3d 4b 41 1d be fb c5 ef 3c 06 55 e6 3b
       0.055635612 -0.15356939 0.02926921 0.0070291786
000120 74 a3 fd bc 20 76 4b 3a c1 71 77 bb 61 11 9c bc
       -0.03096173 0.00077614374 -0.0037757012 -0.019051256
000130 04 34 a2 3d 36 14 1d bc 4d 3b 10 bd b6 1e 8b bd
       0.079200774 -0.009587338 -0.035212804 -0.06792967
000140 77 1b 05 be 03 51 98 3d 20 63 23 bd 81 94 bd bd
       -0.12998758 0.07437327 -0.039889455 -0.092568405
000150 f7 ff 98 bc 63 a1 7d 3d 1d a8 44 bc 93 8e bd 3d
       -0.018676741 0.06192149 -0.012002972 0.092557095
000160 83 74 cc bd a3 e6 b7 3b 72 99 91 3d 6f 77 79 bd
       -0.0998316 0.005612211 0.071093455 -0.060904916
000170 1b 03 20 3d 5e 91 9b bd 9f fa de bc ae 93 19 3d
       0.03906546 -0.07596086 -0.027219115 0.037494354
000180 2c 7b b2 bc 47 ef 84 bc ac 15 33 bd e1 c0 88 bc
       -0.021787249 -0.016227378 -0.04372184 -0.016693534
000190 38 9a cf bc af 0a aa 3c dd 0d 71 bd b2 af 45 bc
       -0.025342092 0.020757047 -0.05885111 -0.012065815
0001a0 1e d9 57 3d 5c 1f 04 bd 5c dc a0 bc fb 10 97 bd
       0.052697293 -0.03225647 -0.019636326 -0.07376286
0001b0 b4 45 ff 3d 55 19 21 3d 1b c1 98 3d 8f a0 10 bd
       0.12464467 0.0393308 0.07458707 -0.03530937
0001c0 45 a2 5f bd a7 0c 8d bb 7c 1b 88 3d 6e c3 11 be
       -0.05459811 -0.004304487 0.06645867 -0.14234707
0001d0 af 58 84 bd 5d 6f 26 3d 1d a7 11 3d 69 ca 97 bd
       -0.064622276 0.040633548 0.035559762 -0.074116535
0001e0 08 4c bc bc 14 d1 65 3d 2e 22 b9 bc 5a 7a 6c 3c
       -0.022985473 0.056107596 -0.022599306 0.014433468
0001f0 83 77 9c 3d 8d 4e 4a bd 1a c0 2c 3d 5f 86 ca 3c
       0.076399826 -0.049391318 0.04217539 0.024722276

a2c_network.value.weight f4 [1, 128]
000000 a8 ec 1e 3c f0 00 fb bc 1e c4 2e 3c 5d ac 1e bd
       0.009699978 -0.030640095 0.010666875 -0.038738597
000010 a9 fa 02 3d 58 94 2c 3d f9 45 2f bd da 46 ae 3c
       0.03197733 0.04213366 -0.04279134 0.021274019
000020 2c b1 51 bd 93 0b 22 bc dd f8 0a 3c 9f 36 2b 3d
       -0.051194355 -0.009890455 0.008482185 0.041800138
000030 a9 ba cd 3c 5c 39 8e bc 23 14 cc 3a ac 87 a5 3d
       0.02511342 -0.017361335 0.0015569966 0.08082518
000040 85 e7 ce bc 1d 4e 2c 3d 50 4c bc 3d f6 4a ef 3a
       -0.025256881 0.042066682 0.09194243 0.0018256593
000050 5e 85 20 3c d1 4e c8 bd e7 38 a3 bd c4 97 e9 3c
       0.009797422 -0.09780658 -0.07969838 0.02851475
000060 f1 aa 85 3b 30 34 63 bd f5 e8 6c 3c c6 fa d2 bc
       0.0040792157 -0.05546969 0.014459838 -0.025754344
000070 6c 6a 73 3d f2 ff 0f bd c1 d9 8d bc 9f 1c d6 bd
       0.059427664 -0.035156198 -0.017315747 -0.10454678
000080 2e e6 ff b9 18 12 0a 3d cc 0a 89 bd d9 f8 74 bc
       -0.00048808887 0.03370866 -0.066915125 -0.014951908
000090 b6 de 5f 3c 2b f2 39 bc 85 ae b0 3c 1f b7 d8 3d
       0.013663938 -0.011349241 0.021567592 0.105818026
0000a0 3f ba d6 bb 72 ee 90 3d c5 48 12 bd af 1e af bc
       -0.006552964 0.0707673 -0.03571393 -0.021376936
0000b0 99 52 2b 3c 1a 42 a3 bc 7e 7b bb 3d 8d 6f 56 bd
       0.010456705 -0.01992898 0.09154414 -0.052352477
0000c0 d3 71 69 3c 5f a3 24 bd 39 cf a5 bc b3 e1 ba 3c
       0.014248329 -0.040194865 -0.020240413 0.0228127
0000d0 f4 52 6a bb b0 aa ee 3c f6 ac e1 bc 3d 21 fe b9
       -0.003575501 0.029134125 -0.027548295 -0.0004847142
0000e0 5d ae 95 bd df 4f 4f bc 9b ad 0b 3d 3a cd ac 3d
       -0.07308648 -0.01265332 0.03410111 0.08437581
0000f0 12 02 8a bd 82 a2 0a bd 01 61 86 3c 0f 9d 10 bd
       -0.06738676 -0.033846386 0.016403677 -0.035306033
000100 8c 70 8f 3d 8d 31 10 3d ce c6 85 3b b8 ca 9f bd
       0.070038885 0.035203505 0.0040825373 -0.078023374
000110 e2 4b 8f 3c 33 74 dd 3c 96 2c 4c bd 25 af ce 3c
       0.017492238 0.027032947 -0.049847208 0.02523
000120 07 c2 08 3b f3 0c 78 3d e6 dd 8e 3b 63 59 41 bd
       0.0020867602 0.060559224 0.0043599484 -0.047204386
000130 04 8f 88 bd ca 54 0d 3d df 5c 31 b9 66 0a b4 3c
       -0.06667903 0.03450469 -0.00016914633 0.021977615
000140 21 5e a6 bd 6c bd ae bd 0b 7b 03 bd 8f db 2a bc
       -0.081234224 -0.08532223 -0.032099765 -0.010428323
000150 bc 86 b7 bd 27 d8 47 bd 97 96 0a 3b 19 6b 28 3d
       -0.089612454 -0.048790123 0.0021146887 0.04111776
000160 70 c9 3f 3d 90 e6 20 3d 6c 42 d8 3a bf e5 d8 3c
       0.046822965 0.03928238 0.0016499287 0.026476739
000170 03 58 2c be 4c 6f 26 3c 3b 09 0b 3d b1 16 94 3c
       -0.16830449 0.010158371 0.03394435 0.018077226
000180 d6 f1 d1 bc 58 a0 87 bd 88 4d 81 bc 9f 6c 96 bd
       -0.025628012 -0.0662238 -0.01578404 -0.073449366
000190 ac e4 99 bd f1 79 07 bd 28 89 02 3e a3 13 cb 3b
       -0.07514319 -0.033075277 0.12747633 0.0061974092
0001a0 79 96 9c 3c 2f 79 71 bd d3 65 15 be 38 20 24 3d
       0.01911472 -0.05895346 -0.14589624 0.04006979
0001b0 e6 c7 8c bb e1 ae 5b bc 4c 68 28 3d fc d6 25 3d
       -0.0042962907 -0.013408394 0.04111509 0.04048823
0001c0 fc 19 00 bd 1a 25 32 3d 1d ca 73 bc 11 08 5c 3d
       -0.03127478 0.043492414 -0.0148797305 0.05371863
0001d0 59 d3 09 3d e6 b9 3a bd 75 79 23 bd 49 84 f4 3c
       0.033648822 -0.045587443 -0.039910752 0.029848235
0001e0 5b c6 98 bb 6d a1 1d bd 3f 6f 3f 3d 76 18 dd 3d
       -0.0046623177 -0.038484026 0.046736952 0.10795681
0001f0 d4 20 a9 3c 62 1a f0 bc 30 86 89 bd 53 b8 3c 3d
       0.020645536 -0.029309455 -0.06715047 0.046074223

a2c_network.mu.weight f4 [18, 128]
000000 8e b8 8b bb c2 0c 78 3c 55 29 d0 bc 91 9c 1e 3e
       -0.004263944 0.01513976 -0.025410334 0.15489413
000010 14 4c d1 3d 5c 8e 16 3d 90 07 33 bd bb 7c 40 3c
       0.10219589 0.03675686 -0.043708384 0.011748488
000020 33 c0 98 bd 62 09 28 be 85 86 bb 3c 2e 15 f9 bd
       -0.07458534 -0.1640983 0.022891292 -0.12162243
000030 4b c0 31 bd a0 62 a4 bd 8a 5a 1e 3e 97 db f5 3c
       -0.043396275 -0.08026624 0.15464225 0.030011935
000040 88 26 19 3c 63 4c a5 3d ad be 99 bc e9 62 f9 bd
       0.0093475655 0.0807121 -0.01876768 -0.12177069
000050 37 e0 cc bd 3a 46 cf bc 6b 00 a4 bc 34 72 39 3d
       -0.10003703 -0.025302041 -0.02001973 0.04527493
000060 7a ad 80 bd f9 28 48 3d 9a 27 21 bc 26 d0 94 bd
       -0.06283088 0.0488672 -0.009836102 -0.07266264
000070 a9 0f d6 3d e7 bd bb 3c 0a e6 b1 3d 45 c6 9e bd
       0.10452206 0.022917701 0.086864546 -0.07752661
000080 33 56 25 bd 5c c7 c4 bd 88 22 d4 bd 21 d1 ac 3c
       -0.04036541 -0.09608337 -0.10358149 0.021095814
000090 6f c9 7e 3d cf df f5 bd 86 61 d1 3c 09 d4 d1 bd
       0.06220382 -0.12005579 0.025559198 -0.102455206
0000a0 5d 6d 86 3d 95 d8 d2 3d fd f1 3f bd 6a 8d 12 be
       0.06563828 0.10295216 -0.046861637 -0.14311758
0000b0 a9 e6 29 3c 7c 6a 3d be 03 b1 4d 3d 5b 67 d4 bb
       0.010369935 -0.18497652 0.05021764 -0.0064820475
0000c0 72 40 1d 3d 2a 92 95 bb fe 32 22 3e 9c 74 95 bc
       0.038391538 -0.0045645433 0.15839764 -0.01824408
0000d0 c7 f7 a8 bd 60 6c 39 bd ec 0d cc bd 37 2b bb bc
       -0.08250385 -0.04526937 -0.09963593 -0.022847755
0000e0 42 86 d3 3d 7e 1e a5 3d 20 b0 d1 3d 0e 34 39 3d
       0.10328342 0.080624565 0.10238671 0.04521566
0000f0 a6 56 2f bd e8 5d 45 3c ee 6b a8 3d 14 71 8b bb
       -0.042807244 0.012046315 0.08223711 -0.0042554233
000100 15 70 b5 3d e1 c0 3f bd 27 77 5e 3e b8 54 a5 3c
       0.088592686 -0.046814803 0.2172514 0.020181999
000110 b5 c5 b2 bd 25 28 10 ba b6 dc 87 3d 79 92 8a 3c
       -0.08729116 -0.0005499146 0.06633894 0.016915547
000120 8b 12 a5 bc a4 2b e7 3d 1a 9a 1f 3e f7 ea 67 3d
       -0.020150444 0.11287621 0.15586129 0.056620564
000130 07 0a bf bd 7f 2c 9d bd 4a b7 2f 3d 52 4c 2f 3d
       -0.093280844 -0.076745026 0.042899407 0.042797394
000140 7b b0 1e bc 0c 14 11 3d 89 f7 e3 3c 51 1f e0 bd
       -0.009685631 0.03541951 0.027827995 -0.10943473
000150 66 74 09 3d 76 c6 7b 3d 4b 9a 1e 3d ef 08 70 3d
       0.03355827 0.061468564 0.038721364 0.05860227
000160 23 78 02 bc 35 29 99 bd ac c6 90 bd b1 bf 15 3d
       -0.007963213 -0.07478563 -0.07069144 0.036559764
000170 b1 06 52 bc 63 79 2d 3d 93 c5 26 3d 29 57 26 3c
       -0.012818978 0.04235209 0.040715765 0.010152617
000180 0f 23 bc 3d 52 e8 0b bd 44 05 85 bd 24 77 bc 3d
       0.091863744 -0.034157105 -0.06495145 0.09202412
000190 97 16 68 3a 80 9c 8b 3d c0 ce 0a 3d 19 d3 b4 3d
       0.0008853464 0.068169594 0.03388858 0.08829326
0001a0 88 b6 cb 3d 2f 77 14 3d f5 8d 2c bd 9e b5 6d bd
       0.099469244 0.036246475 -0.04212757 -0.05803453
0001b0 43 b4 b2 bd 00 f1 13 3d 60 f7 75 bd c8 04 02 be
       -0.087257884 0.036118507 -0.06005037 -0.12697136
0001c0 6e 03 21 3e ab 2a a4 bd 1c 3c dd bc 29 19 15 3d
       0.15723965 -0.08015951 -0.027006201 0.036400948
0001d0 6e a2 cb bc 5b 42 b1 bd 93 90 4a be df 08 09 3e
       -0.024857726 -0.086552344 -0.19781713 0.1338229
0001e0 43 69 3e 3d 99 31 00 be bd 4a 9b 3d f4 18 5b bd
       0.046487104 -0.1251892 0.075826146 -0.053490594
0001f0 8b dc d9 bd 6f fa c1 3d b7 1a b5 bb f2 0d c3 bd
       -0.10637768 0.094715945 -0.0055268663 -0.09524144
000200 66 a3 e1 ba cb 9f c7 bd 7b f9 9a bc ae cb 49 3e
       -0.0017214834 -0.09747275 -0.01891779 0.19706604
000210 d7 ed 1a 3e 22 79 61 bc 1c 42 a4 3d ac b5 b1 bd
       0.15129791 -0.0137617905 0.08020422 -0.08677229
000220 03 6e ec 3d 32 34 1d be 17 a0 85 3c 99 f0 f7 bd
       0.115444206 -0.15351942 0.016311688 -0.12106437
000230 1c 16 59 bc 13 6d b4 bd 4f 17 aa bc a8 52 bf bc
       -0.0132499 -0.08809867 -0.020763068 -0.023354843
000240 e9 54 70 bb ff b6 a8 3c 1d aa b3 bb 4a 8c 4b bd
       -0.0036671704 0.020595072 -0.0054829256 -0.049694337
000250 dc e5 b2 3d 35 05 b9 bc d3 23 bc 3c f7 13 16 3e
       0.087352484 -0.02258549 0.022966301 0.14656053
000260 d6 85 09 be f4 27 4b bc 20 75 8f 3c fd 2d 8a bd
       -0.1342996 -0.012399662 0.017511904 -0.06747053
000270 a7 ba be bd 59 c4 86 bd 47 bf 86 bc c0 e2 91 bd
       -0.09312945 -0.06580419 -0.01644863 -0.07123327
000280 54 81 a0 bd e9 02 70 bd 37 13 88 bd 4c 02 2f 3c
       -0.078371674 -0.058596525 -0.0664429 0.0106817
000290 6e 20 38 3e 70 c0 db bd ad 17 f9 3d 71 47 e2 bd
       0.17981121 -0.10730064 0.12162719 -0.110487826
0002a0 31 10 b8 3d 22 54 c2 3c 80 a0 9b 3d 91 12 e3 3d
       0.08987463 0.023721758 0.07598972 0.11087526
0002b0 ac 43 d5 bb e0 6e 13 3c 21 bd ce 3c 55 d7 84 bd
       -0.0065083113 0.008998603 0.025236668 -0.06486384
0002c0 d3 31 e9 3c 98 18 84 bd 5a b5 24 bd 50 75 1f 3b
       0.02846614 -0.064500034 -0.040212013 0.0024331398
0002d0 43 75 2e 3d 20 0b a0 bb df 72 30 be 80 e3 fa bc
       0.0425923 -0.0048841387 -0.1723132 -0.030626059
0002e0 a6 90 b6 3c 19 2c bc 3d 82 a8 33 3e 11 16 04 3d
       0.02228577 0.091880985 0.1754475 0.032247607
0002f0 29 9e b1 bc df 18 a4 3b 31 d1 7f 3c b1 e9 55 bd
       -0.021681862 0.0050078477 0.01561384 -0.05222482
000300 6c fd db 3d 78 f5 4b 3d 50 2d c1 3b 77 28 b2 3d
       0.10741696 0.049794644 0.0058952942 0.08699124
000310 18 22 b2 3c c3 6d e6 3d 85 22 b0 3c 89 2a 53 bd
       0.021744773 0.11251404 0.021500835 -0.051554237
000320 f5 ff b2 3c ef d9 f3 bc a2 24 1f bd f0 9d 45 3d
       0.021850565 -0.029767005 -0.038853295 0.048246324
000330 dd b8 b2 bd dc e9 71 3d c6 71 b8 3d de d2 e3 bc
       -0.08726666 0.059060916 0.090060756 -0.02781051
000340 56 cc 0e 3d cf ea 39 3e 9d 40 09 bd c9 b9 3b 3d
       0.03486284 0.18155979 -0.033508886 0.045831475
000350 bf 1b 1b 3d 8a 94 ec bd 76 3a be bd fc 70 a7 bd
       0.037868258 -0.11551769 -0.09288494 -0.08175847
000360 a3 0b eb 3d 06 95 85 bc 8e 40 a2 3c 2a 7c 65 bd
       0.11476829 -0.016306411 0.019806173 -0.056026615
000370 f2 5a 56 bc b6 f4 d5 bd 0f 1e c9 3d e4 ad a6 bd
       -0.0130832065 -0.104470655 0.09820186 -0.08138636
000380 d3 f1 1a 3e 1d 14 18 bc 46 cb 0d 3d 47 32 0b bd
       0.15131311 -0.009282139 0.034617685 -0.033983495
000390 c4 9f 32 3d bf fa 9b bc 53 a1 1d 3e c7 3d 0e 3d
       0.043609396 -0.019040463 0.15393572 0.034726884
0003a0 2a 14 19 3e 03 50 8d 3b 16 03 87 3d 02 4d cc 3d
       0.14949098 0.0043125167 0.065923855 0.099756256
0003b0 a8 e1 09 be 55 dc fb 3c 65 89 5f 3d 21 8b fe bc
       -0.13464987 0.030744711 0.05457439 -0.031072201
0003c0 4e a7 d6 3c 23 6e 6a 3c 9d 7d 07 bc 56 1f a8 3d
       0.026202824 0.014308485 -0.008269695 0.08209102
0003d0 1b 63 1e bd 67 39 04 bc 2f ff b5 bd 40 0b 8d 3d
       -0.038668733 -0.008070326 -0.08886563 0.068869114
0003e0 5f 35 13 3e 6c c0 a0 bd 72 78 6d 3d 18 47 ea bd
       0.14375828 -0.078492016 0.057976194 -0.11439341
0003f0 f2 18 bd 3c 8c 7e 24 3d 7d f4 88 3d 0f 82 8c bb
       0.023083184 0.040159747 0.066872574 -0.004287965

a2c_network.mu.bias f4 [18]
000000 3d e0 1c bd 30 82 3f bd f5 c6 83 3b fb 35 6f 3d
       -0.038299788 -0.046755016 0.0040215203 0.05840109
000010 d0 78 a6 3a 2f d3 b3 3c bf 8b b3 3d 1e 20 b4 3d
       0.00127008 0.021951286 0.08766889 0.08795188
000020 37 d3 3a 3d f8 14 11 3d e6 34 b4 3d 83 4f 8a 3d
       0.045611586 0.035420388 0.08799152 0.06753447
000030 1b 03 fd bd cc b3 89 bd d3 83 cb bd 0d e6 e7 bd
       -0.12354108 -0.06723747 -0.09937253 -0.113231756
000040 6d c5 15 be cc 87 c0 bd
       -0.14626093 -0.09400901

exp_avg f4 [18]
000000 28 90 c0 b8 0d 3c 82 3a b9 e9 8a ba 81 43 8d 3a
       -9.1821246e-05 0.000993611 -0.0010598219 0.0010777564
000010 94 dc 46 3a a1 22 33 3a a8 7e 28 3a 60 d6 6e ba
       0.0007585969 0.0006833468 0.00064275647 -0.0009110924
000020 6a e4 d0 ba 84 ef 66 38 70 b0 10 bb 7c 95 3c 39
       -0.0015937213 5.505934e-05 -0.0022077821 0.00017984764
000030 e8 a3 da ba e4 06 58 b9 ad 44 1d ba 5c 05 73 ba
       -0.0016680928 -0.00020601932 -0.0005999308 -0.0009270513
000040 e6 45 3d 3a 9a 33 8e 39
       0.00072201935 0.00027122797

exp_avg_sq f4 [18]
000000 b8 0f f1 36 0b 83 02 37 e2 82 c1 36 ef ad 11 37
       7.1841896e-06 7.779115e-06 5.767085e-06 8.683171e-06
000010 ff d3 f6 36 5a d9 ee 36 15 00 eb 36 ee 36 e6 36
       7.356051e-06 7.118256e-06 7.0035553e-06 6.860929e-06
000020 65 93 cd 36 7f 6d d9 36 36 75 dd 36 6e f3 c5 36
       6.126635e-06 6.479851e-06 6.5999584e-06 5.8993965e-06
000030 28 46 f5 36 2f f4 e0 36 83 6e be 36 41 34 08 37
       7.3097362e-06 6.704147e-06 5.6753065e-06 8.118398e-06
000040 b9 ae e5 36 7e 9c b9 36
       6.845072e-06 5.5316477e-06
