logs/rl_games/hexapod_flat_direct/2025-11-14_22-48-05/nn/last_hexapod_flat_direct_ep_250_rew_-0.16677737.pth (torch, 546049 bytes, 33 tensors)

value_mean_std.running_mean f8 [1]
0	0xbfcc8876f6de6400	-0.22291457227836986

value_mean_std.running_var f8 [1]
0	0x3fb2c59133004e4b	0.07332713599344591

value_mean_std.count f8 []
0	0x4187700008000000	49152001.0

a2c_network.sigma f4 [18]
0	0xbeefea5b	-0.46858487
1	0xbef5eb4e	-0.48031086
2	0xbf075079	-0.52857167
3	0xbf47213d	-0.7778509
4	0xbf84a34e	-1.0362337
5	0xbf7cbb4b	-0.98723286
6	0xbe80042a	-0.25003177
7	0xbe8bc98d	-0.2730221
8	0xbe9fdfc9	-0.31225422
9	0xbf84ef8b	-1.0385603
10	0xbe54a33a	-0.20765391
11	0xbeaa5dd3	-0.33274707
12	0xbe325227	-0.17414151
13	0xbe708960	-0.23489904
14	0xbe4bc0c9	-0.1989776
15	0xbeab2826	-0.33429068
16	0xbd8b6919	-0.06807155
17	0xbe3d35e0	-0.18477583

a2c_network.actor_mlp.0.weight f4 [128, 66]
0	0x3e5ba439	0.21449365
1	0xbe19b893	-0.15011816
2	0xbe2a67e5	-0.16641195
3	0xbe8366f3	-0.25664482
4	0x3cd8584f	0.026409296
5	0x3d9cc9f6	0.076557085
6	0x3d846ea5	0.06466416
7	0xbd7f9c86	-0.06240513
8	0xbe3a2c7d	-0.18181033
9	0xbe5a37db	-0.2131037
10	0xbe40e52b	-0.1883742
11	0x3e78adf7	0.24285112
12	0xbd22a007	-0.039703395
13	0x3e9700d3	0.29492816
14	0x3db5e5ae	0.088816985
15	0xbeb6a4cc	-0.35672605
16	0x3e68a4cc	0.22719115
17	0x3dc26919	0.09492702
18	0x3da5fc14	0.08104721
19	0xbd829350	-0.06375754
20	0x3d272fa8	0.040816933
21	0xbdaad7ba	-0.08341928
22	0xbd6f97b8	-0.0584943
23	0x3d2911d4	0.041276768
24	0x3d63cf53	0.05561764
25	0xbdbc742c	-0.092018455
26	0x3dc5c793	0.096572064
27	0x3db47337	0.08811038
28	0xbd99bff7	-0.075073175
29	0xbdce5da5	-0.10076455
30	0x3c94317c	0.018090002
31	0xbd793980	-0.060845852
32	0x3c6f0e4b	0.01459081
33	0xbe70f536	-0.2353104
34	0xbcbd17c7	-0.023082627
35	0x3c9f54f7	0.019449694
36	0x3b7fb31b	0.0039016667
37	0xbd7f8e5a	-0.062391616
38	0xbd405fa5	-0.046966214
39	0xbdaa7b08	-0.083242476
40	0xbdd1ff02	-0.10253717
41	0xbd6ae89f	-0.05735075
42	0xbdb0a5b4	-0.08625355
43	0xbc344774	-0.011003364
44	0x3d8e8943	0.06959774
45	0x38756af3	5.8512156e-05
46	0xba3289eb	-0.00068107125
47	0xbda990cc	-0.08279571
48	0xbe1169b6	-0.14200482
49	0x3d012f85	0.03153946
50	0x3ded30ce	0.115815744
51	0xbe555403	-0.20832829
52	0x3d435656	0.04768976
53	0xbd72a691	-0.05924088
54	0x3c91578c	0.01774194
55	0xbd7ab2ee	-0.061205797
56	0xbc8afeab	-0.016967138
57	0xbd23d862	-0.04000128
58	0xbd88b5f9	-0.066753335
59	0xbd38e4c0	-0.045140028
60	0xbd3a48ba	-0.045479514
61	0xbdd8fe68	-0.10595399
62	0x3d9c015c	0.07617447
63	0xbda5d308	-0.08096892
64	0x3df8da88	0.121510565
65	0x3cab1348	0.020883217
66	0x3df58a90	0.11989319
67	0x3d76d404	0.060260788
68	0xbe664c06	-0.22489938
69	0xbdb5b055	-0.08871523
70	0xbe19ea8c	-0.15030879
71	0xbdc58c9b	-0.09645959
72	0x3ce4d564	0.027933784
73	0x3da951af	0.08267533
74	0x3badf3db	0.005308611
75	0xbdddd52a	-0.108316734
76	0x3e4e86ed	0.20168658
77	0xbea7cef8	-0.32775092
78	0x3d4f4b42	0.05060888
79	0x3cef543d	0.029214973
80	0x3ba9277e	0.0051621785
81	0x3e746bdc	0.2386927
82	0x3dff901b	0.12478658
83	0x3e108f69	0.14117207
84	0x3d395295	0.045244772
85	0xbdf2d8a0	-0.11857724
86	0xbc1f4feb	-0.009723644
87	0xbd62ba91	-0.055353705
88	0x3d33caee	0.0438947
89	0xbe08b82e	-0.13351509
90	0x3dde5e90	0.1085788
91	0x3dc7e7cd	0.09761009
92	0x3d93a3bc	0.07208964
93	0xbd56c8ff	-0.05243778
94	0x3e087989	0.13327612
95	0x3d39d0af	0.04536503
96	0x3a3968c4	0.0007072801
97	0xbd979c29	-0.07402832
98	0x3d5c3790	0.053763926
99	0xbdbd43b6	-0.092414305
100	0xbcf67852	-0.03008667
101	0x3da1b79f	0.07896351
102	0x3d51cbbc	0.051219687
103	0xbd28ad30	-0.04118079
104	0xbca14a8b	-0.019688865
105	0xbc89b96e	-0.016812053
106	0x3d670b0d	0.056407023
107	0xbce60f63	-0.028083509
108	0xbd3bf410	-0.045887053
109	0xbc1375b7	-0.009000233
110	0xbd770e78	-0.060316533
111	0x3cc8e689	0.02452399
112	0x3d7544ec	0.059880182
113	0xbdb7ea5f	-0.089802496
114	0x3d94e922	0.07271029
115	0x3dbb4b31	0.09145201
116	0xbc85fc93	-0.016355788
117	0x3c63de1d	0.013907936
118	0x3daec47d	0.08533571
119	0x3e0d916a	0.13825002
120	0x3d666fd9	0.05625901
121	0xbd9555c4	-0.07291749
122	0x3dc90ab7	0.09816497
123	0x3df970bd	0.12179706
124	0xbe07fa9a	-0.1327919
125	0xbd5bfa59	-0.053705547
126	0x3d8c7ebe	0.06860112
127	0x3e334224	0.175057
128	0xbd7016c1	-0.05861545
129	0xbdb8e904	-0.09028819
130	0xbc9af2d4	-0.018914618
131	0xbd369b90	-0.04458195
132	0x3beafbc0	0.007171124
133	0x3deb600e	0.1149293
134	0xbe663abc	-0.22483343
135	0xbdc431aa	-0.09579785
136	0x3d90dff6	0.07073967
137	0x3c03955a	0.008031214
138	0x3c85ce25	0.016333649
139	0xbdb347e9	-0.0875395
140	0xbe32b732	-0.17452696
141	0xbe6ddbba	-0.2322835
142	0xbd9cb90e	-0.07652484
143	0x3ebea75c	0.3723706
144	0x3d3d444c	0.04620771
145	0x3d40a2e9	0.047030363
146	0xbe04911c	-0.1294598
147	0xbcb75618	-0.02237992
148	0xbd92de45	-0.07171301
149	0xbc583568	-0.013196327
150	0x3c659aa1	0.014013917
151	0xbe00d61b	-0.12581675
152	0xbb90cbee	-0.0044188416
153	0xbe691035	-0.22760089
154	0xbde3d1df	-0.11124014
155	0x3c3d7b72	0.011565076
156	0x3b88d6d3	0.0041759997
157	0xbde71443	-0.112831615
158	0xbcb42918	-0.021992251
159	0x3ded26d4	0.115796715
160	0x3e2f591e	0.1712384
161	0x3da33c2c	0.07970461
162	0xbdc82e45	-0.0977445
163	0xbd9fbffa	-0.078002885
164	0xbd9bd4e4	-0.07608965
165	0x3db75160	0.08951068
166	0x3c584147	0.013199157
167	0x3de3e59a	0.111277774
168	0x3d12d535	0.03584786
169	0x3cee612a	0.029099066
170	0xbc6600e2	-0.014038296
171	0xbd863b69	-0.065543
172	0xbe032da6	-0.12810382
173	0xbe13f1f3	-0.14447765
174	0x3d676d42	0.05650068
175	0xbda8d292	-0.08243288
176	0xbc663301	-0.014050246
177	0xbd36e1cf	-0.04464894
178	0xbb2960f5	-0.0025845144
179	0xbd9c0a8f	-0.076192014
180	0xbdea40fe	-0.114381775
181	0x3d7148ea	0.058907427
182	0xbda4918c	-0.08035573
183	0x3dcd7f31	0.100340255
184	0xbdc4bdeb	-0.096065365
185	0xbdeeee53	-0.116665505
186	0x3af05eef	0.0018338839
187	0xbe00b303	-0.12568288
188	0xbd522383	-0.051303398
189	0xbe55d872	-0.20883349
190	0x3ddd1a77	0.107960634
191	0xbe1e11ff	-0.15436552
192	0x3bd14e11	0.00638748
193	0xbd5163c7	-0.051120546
194	0x3de2f5b7	0.11082023
195	0xbd86d25f	-0.06583094
196	0x3d9400df	0.07226729
197	0xbd1dadfd	-0.038496006
198	0x3da6f9eb	0.08153137
199	0x3e97bfe3	0.29638585
200	0xbe5077d0	-0.20358205
201	0xbd237e00	-0.039915085
202	0x3da73db9	0.081660695
203	0xbe46c534	-0.19411165
204	0x3ec15c6a	0.3776582
205	0xbd9acf13	-0.075590275
206	0x3df0721a	0.11740513
207	0x3cb6cc6f	0.022314278
208	0x3dca1448	0.098671496
209	0xbd6ff5df	-0.05858409
210	0x3ccf8625	0.02533252
211	0x3c96c8ea	0.01840635
212	0x3d9df1ca	0.07712133
213	0xbdb3c264	-0.087773114
214	0xbd6a318b	-0.057176154
215	0xbc84fea3	-0.016234701
216	0x3db3e56d	0.08783994
217	0x3d5e1932	0.054223247
218	0x3d8cd2fb	0.06876179
219	0x3db15acf	0.086598985
220	0x3dd04111	0.101686604
221	0x3e4dc88a	0.20096031
222	0xbbfbd214	-0.0076849554
223	0xbe0be15f	-0.13660191
224	0xbe4b7088	-0.19867146
225	0xbe077444	-0.13227946
226	0xbe4f77e3	-0.20260577
227	0xbe8aac49	-0.27084568
228	0xbb2da984	-0.0026498744
229	0xbd787dae	-0.060666732
230	0xbd347b72	-0.04406304
231	0xbdabc3b7	-0.08386939
232	0xbcb91289	-0.022591846
233	0xbb6da41e	-0.0036261152
234	0x3bf98735	0.007614995
235	0xbd1cf815	-0.038322527
236	0xbd6d3caf	-0.0579192
237	0xbcef8651	-0.029238852
238	0xbdb6ae97	-0.08920019
239	0x3dde5ca3	0.10857513
240	0xbcc73c0d	-0.024320627
241	0x3d0e784b	0.03478269
242	0xbcff7d1f	-0.031187592
243	0xbca3cd22	-0.019995276
244	0x3d858443	0.065193675
245	0x3cf17640	0.029475331
246	0xbdafd9dc	-0.08586475
247	0x3d3ea72b	0.046546143
248	0x3e27592b	0.16342609
249	0x3d5643ad	0.052310634
250	0x3dc46f8c	0.095915884
251	0x3e229cfb	0.15880196
252	0xbc8f8eb9	-0.01752411
253	0xbcab748b	-0.020929595
254	0xbe2c20ca	-0.16809383
255	0xbd5b09d9	-0.05347619

a2c_network.actor_mlp.0.bias f4 [128]
0	0x3d760f75	0.060073335
1	0x3d2e2802	0.042518623
2	0x3dcaa839	0.09895367
3	0xbd27777d	-0.040885437
4	0x3dec6222	0.11542155
5	0xbdbf69ba	-0.093463376
6	0xbc301380	-0.010746837
7	0x3e42689b	0.18985216
8	0x3d446f27	0.047957566
9	0x3c9377f1	0.018001528
10	0x3c715a1d	0.014730957
11	0x3daf360e	0.08555232
12	0xbcca3657	-0.024684114
13	0x3dd4a174	0.10382357
14	0xbdf2ead2	-0.11861195
15	0x3db25bef	0.08708941
16	0x3d986862	0.074417844
17	0x3dc2c117	0.09509485
18	0x3e164034	0.14672929
19	0x3df7d7e4	0.12101725
20	0xbd25b215	-0.040453035
21	0x3d552e6c	0.052046224
22	0x3d9ea72c	0.07746729
23	0x3d9fef48	0.07809311
24	0x3c4f3faa	0.012649456
25	0x3da69c7a	0.08135314
26	0xbd180ae2	-0.037119754
27	0x3ddb7b6b	0.107168995
28	0x3e1397aa	0.14413324
29	0x3c2b45c9	0.01045365
30	0x3e0f5ba9	0.1399981
31	0xbd8fcd49	-0.07021577
32	0x3de7651e	0.112985834
33	0x3d9a0730	0.07520902
34	0xbe11054b	-0.14162175
35	0x3cceb71c	0.025233798
36	0x3c528bae	0.012850685
37	0x3e09f3fd	0.1347198
38	0xbcc27027	-0.023735119
39	0xbc7a90d9	-0.015293323
40	0x3cf576e1	0.029963912
41	0x3d77bc61	0.060482386
42	0xbcee68e8	-0.029102758
43	0x3d75bee9	0.05999652
44	0xbdae2768	-0.0850361
45	0x3e015d1a	0.12633172
46	0xbdb56142	-0.08856441
47	0x3d53732c	0.05162351
48	0x3de881dc	0.11352894
49	0x3d798f70	0.06092781
50	0xbddb43c9	-0.10706288
51	0x3d9c3a4c	0.07628307
52	0x3caa7b0b	0.020810625
53	0x3d4c3a50	0.0498603
54	0xbdc622d5	-0.096746124
55	0x3d58e40e	0.052951865
56	0x3dcdedf7	0.10055154
57	0x3cc40eeb	0.023932895
58	0x3d856209	0.06512839
59	0x3e1ecfd1	0.15508963
60	0x3ddfd1f9	0.10928721
61	0x3bff018b	0.0077821664
62	0x3e171f61	0.14758064
63	0xbd3107d0	-0.04322034
64	0x3d0dd9b8	0.03463146
65	0x3de73627	0.112896256
66	0x3e5ae583	0.21376614
67	0x3ddc0e93	0.10744967
68	0x3e319c01	0.17344667
69	0x3d8c1067	0.06839066
70	0x3e43fe96	0.19140086
71	0xbb777e74	-0.003776458
72	0x3ded012b	0.115724884
73	0x3bbecfe7	0.0058231237
74	0x3deec6fa	0.116590455
75	0xbdf88608	-0.121349394
76	0xbe2db3b3	-0.16963081
77	0x3da64633	0.08118858
78	0xbd0a71ef	-0.03380006
79	0xbda4a3b1	-0.08039034
80	0xbe2152d5	-0.15754254
81	0xbd9f24e9	-0.07770712
82	0x3ca29677	0.019847138
83	0x3e2329d0	0.15933919
84	0x3e023bb3	0.12718086
85	0x3d92e02c	0.07171664
86	0xbd93650a	-0.07197006
87	0x3d537d51	0.051633183
88	0xbe0738a4	-0.132052
89	0x3e1b85f8	0.15187824
90	0x3de84e2f	0.11343037
91	0xbd43a018	-0.0477601
92	0x3d8e86db	0.069593154
93	0x3e020e67	0.12700807
94	0x3db65301	0.089025505
95	0xbb99adb2	-0.0046898955
96	0x3e094eed	0.13409014
97	0xbd63e4ec	-0.05563824
98	0xbd100951	-0.035165135
99	0x3d283988	0.04107049
100	0x3d582b7a	0.052775837
101	0xbe3858d7	-0.1800264
102	0x3ddea08c	0.10870466
103	0xbca5a4c9	-0.020220177
104	0x3dadc2ec	0.08484444
105	0x3e0cd410	0.1375277
106	0x3e78dd0f	0.24303077
107	0x3d705a40	0.05867982
108	0x3e440ceb	0.19145553
109	0x3dc90fbd	0.09817455
110	0x3e2874ea	0.16450849
111	0x3da1f32c	0.079077095
112	0x3dec48cd	0.11537323
113	0x3d9d6354	0.07684961
114	0x3dc7e94b	0.09761294
115	0x3d8e45e2	0.06946923
116	0x3dbd9c75	0.092583574
117	0x3dbcdb5d	0.09221528
118	0x3dde2620	0.108471155
119	0x3a8b55ab	0.001063039
120	0x3e13f092	0.14447239
121	0xbcb465c5	-0.022021184
122	0x3e1f1c35	0.15538104
123	0x3d03fdf6	0.032224618
124	0x3c11d9b0	0.008901998
125	0x3de96be0	0.11397529
126	0xbddf8024	-0.10913113
127	0x3e7dd357	0.24787651

a2c_network.actor_mlp.2.weight f4 [128, 128]
0	0x3d624815	0.055244524
1	0x3db9acce	0.09066163
2	0xbd6b1eea	-0.05740253
3	0xbcb8feb5	-0.022582391
4	0xbd8216f2	-0.06352033
5	0xbda4a2af	-0.08038842
6	0xbb295df7	-0.002584336
7	0xbce6bdf4	-0.028166749
8	0x3afc196c	0.001923365
9	0xbde05ee0	-0.10955596
10	0x3bf46a82	0.007458986
11	0xbc8f8ea2	-0.017524067
12	0x3cfedeef	0.031112162
13	0x3b3dc9e5	0.002895945
14	0xbd74dce4	-0.05978097
15	0x3c82058f	0.015871791
16	0xbc7c4182	-0.015396478
17	0xbdf15b70	-0.117850184
18	0xbc1900a1	-0.009338529
19	0xbdddcaf8	-0.10829729
20	0x3dc53061	0.09628368
21	0x3dad6c24	0.08467892
22	0x3be47921	0.0069724475
23	0xbd2e701b	-0.04258738
24	0x3d5afcd3	0.05346377
25	0xbdce45c2	-0.10071899
26	0xbc7d5155	-0.015461286
27	0x3cf71da7	0.030165507
28	0x3d8e4593	0.06946864
29	0x3b57e164	0.003294074
30	0x3d075c79	0.033047173
31	0xbb908caa	-0.0044112997
32	0xbdf41eba	-0.11919923
33	0x3d88d624	0.06681469
34	0xbc4ea94e	-0.012613608
35	0x3d543833	0.05181141
36	0xbc841a20	-0.016125739
37	0x3d4a1913	0.04934032
38	0xbce1e2c4	-0.02757395
39	0x3d22fb5a	0.03979049
40	0xbd0041ed	-0.03131287
41	0xbc12b50a	-0.008954296
42	0xbe36ea36	-0.17862782
43	0x3e00120f	0.12506889
44	0x3d6822c8	0.056673795
45	0xbe01e0a0	-0.12683344
46	0x3a8cb128	0.0010733949
47	0x3dccc692	0.09998812
48	0xbd0cee0d	-0.03440671
49	0x3d4bda84	0.04976894
50	0x3c53bd14	0.012923498
51	0x3ca05cb1	0.019575449
52	0x3e4942bd	0.19654365
53	0x3c77d7e0	0.015127152
54	0x3ca646ca	0.020297427
55	0x3c351bd3	0.011053997
56	0x3d93114c	0.071810335
57	0xbdcb06a3	-0.09913375
58	0xbc5cff7e	-0.013488648
59	0xbce5587f	-0.0279963
60	0xbd7d026b	-0.061769884
61	0x3d94d45b	0.07267066
62	0xbe2e67c7	-0.17031775
63	0xbd97928a	-0.07400997
64	0xbdf2c326	-0.11853628
65	0x3d0efd8a	0.034909762
66	0x3d364a20	0.044504285
67	0xbd9d073b	-0.07667395
68	0x3da0193e	0.078173146
69	0xbd1843c8	-0.037174016
70	0xbda2b97d	-0.07945535
71	0x3cf06ff5	0.02935026
72	0xbd2ddd56	-0.04244741
73	0xbb1da8b3	-0.0024056851
74	0xbd9c0bab	-0.07619413
75	0xba434a1d	-0.00074497034
76	0x3c5e175c	0.013555374
77	0x3d71db88	0.059047252
78	0xbd980f27	-0.07424765
79	0xbdab024e	-0.08350049
80	0xbd3aa28c	-0.045565173
81	0x3d23547e	0.0398755
82	0xbc1361e5	-0.008995508
83	0xbd8669f9	-0.065631814
84	0x3d9a4cb3	0.075341605
85	0xbca7c02f	-0.020477382
86	0x3a52313a	0.00080181996
87	0xbe038287	-0.12842761
88	0x3b3d37ac	0.0028872294
89	0x3d0116e9	0.03151599
90	0x3d6cff00	0.057860374
91	0xbe180874	-0.14846975
92	0xbdb1d8e3	-0.08683946
93	0x3cae43ea	0.021272618
94	0x3d7444fd	0.059636105
95	0x3c428adb	0.011873926
96	0xbd935db9	-0.071956106
97	0xbdcecc35	-0.10097543
98	0x3cda24a8	0.026628807
99	0xbc9b016d	-0.018921578
100	0x3d99949b	0.07499047
101	0xbd8319d5	-0.064014114
102	0xbd3ccd35	-0.04609414
103	0x3d7f3cf6	0.062313996
104	0xbb84ddb1	-0.004054748
105	0x3c270308	0.010193594
106	0x3d91cbfd	0.07118986
107	0x3cebd8a9	0.028789835
108	0x3c38c940	0.0112784505
109	0xbdfbb82c	-0.12290987
110	0x3e1a1330	0.15046382
111	0xbd99078c	-0.074721426
112	0x3dde97cf	0.10868799
113	0x3d643309	0.055712733
114	0xbdf08346	-0.117437884
115	0xbdeac63a	-0.1146359
116	0xbcc329ab	-0.02382358
117	0x3dce8722	0.10084368
118	0x3d70157d	0.058614243
119	0x3cf6a235	0.030106643
120	0x3cb06f89	0.02153756
121	0x3d0a999e	0.033837907
122	0x3d339958	0.043847412
123	0xbd8c718a	-0.06857593
124	0x3d432922	0.04764665
125	0xbc914871	-0.017734738
126	0x3d590034	0.05297871
127	0x3cad8e36	0.021185976
128	0x3d69acff	0.057049748
129	0xbd9d0a9b	-0.076680385
130	0x3bb047d6	0.0053796573
131	0xbd6c0d59	-0.057629917
132	0xbc523f38	-0.012832455
133	0x3d82ebdb	0.06392642
134	0xbd70f46b	-0.058826845
135	0xbe041b39	-0.1290101
136	0xbd934608	-0.07191092
137	0xbafdc83a	-0.001936204
138	0xbd3171a2	-0.04332126
139	0xbd80c692	-0.06287874
140	0x3b9c83a0	0.004776433
141	0xbd789acd	-0.060694505
142	0xbbe5b141	-0.0070096557
143	0xbbb75d0b	-0.0055958084
144	0x3be65617	0.0070293057
145	0xbd463574	-0.04839082
146	0xbd8beceb	-0.06832298
147	0x3d62cc3b	0.05537055
148	0x3cad93d7	0.02118866
149	0xbd5a3016	-0.053268515
150	0x3d992575	0.074778475
151	0xbb25bea7	-0.002529064
152	0x3c8e50c7	0.017372502
153	0x3d2a80d7	0.041626777
154	0x3bca92c5	0.006182047
155	0x3d832ddd	0.06405232
156	0x3bbc6860	0.005749747
157	0x3db3bda7	0.08776408
158	0xbda87a38	-0.082264364
159	0x3cc85f12	0.024459396
160	0x3bbd62d3	0.005779603
161	0xbc8cd921	-0.017193379
162	0x3dfe28be	0.12410115
163	0xbbd22ad2	-0.006413796
164	0x3da1eddd	0.07906697
165	0xbe08de5a	-0.1336607
166	0xbd15a57d	-0.036534775
167	0x3d11932f	0.035540756
168	0xbd58ff6c	-0.052977964
169	0x3b4b61bb	0.0031033594
170	0x3deab2e6	0.114599034
171	0xbdb60e3b	-0.08889433
172	0x3d116d82	0.035504825
173	0xbd30428a	-0.043032207
174	0x3d4a3ff6	0.049377404
175	0xbd1c58c9	-0.03817061
176	0xbdbba1ed	-0.09161744
177	0xbdbee812	-0.09321608
178	0x3d170263	0.03686751
179	0xbd739175	-0.05946489
180	0xbdbd3202	-0.09238054
181	0xbce6b1d7	-0.028160973
182	0x3ccd39cd	0.025051976
183	0xbdee0daa	-0.116237
184	0xbd333714	-0.0437537
185	0x3d6abc0c	0.05730824
186	0xbd8eea38	-0.069782674
187	0xbded0f69	-0.11575205
188	0xbd2503cd	-0.040286828
189	0x3da877b8	0.082259595
190	0xbcc7ccd4	-0.024389662
191	0xbd3567a3	-0.04428829
192	0xbddd8356	-0.10816066
193	0xbd6a5b61	-0.057216052
194	0x3d3bae4d	0.045820523
195	0xbaf08c2a	-0.0018352319
196	0xbd8a96cc	-0.067670435
197	0xbdeb1ff5	-0.11480705
198	0xbe03ab39	-0.12858285
199	0xbb8020f9	-0.0039101806
200	0x3c9547a5	0.01822264
201	0x3dd6b13d	0.10483024
202	0xbd143737	-0.03618547
203	0x3c80db7e	0.015729662
204	0x3d52e754	0.051490143
205	0xbd153760	-0.036429763
206	0x3d81438a	0.0631171
207	0x3d48df7b	0.049041253
208	0x3d78bf6b	0.060729425
209	0x3d3241da	0.043519832
210	0x3ae1a0d5	0.0017214069
211	0xbd6064ad	-0.054783512
212	0x3df7b7b7	0.12095588
213	0xbda728ee	-0.081621036
214	0x3d3893ab	0.045062702
215	0xbd88b520	-0.06675172
216	0xba07ad9a	-0.000517571
217	0xbdea66a6	-0.1144536
218	0xbd2966c0	-0.041357756
219	0x3cf20124	0.02954156
220	0xbe29503e	-0.16534516
221	0x3d3eab01	0.0465498
222	0xbb9104fa	-0.004425642
223	0x3deb369c	0.11485025
224	0xbda168ae	-0.07881294
225	0xbdadac21	-0.084800966
226	0x3c335632	0.0109458435
227	0x3ceb8f35	0.02875481
228	0x3cdfb20d	0.02730658
229	0x3da31a4f	0.07964002
230	0xbb69c2ec	-0.003566916
231	0x3d66a7ec	0.056312487
232	0xbe009d7e	-0.12560079
233	0xbe0f19a6	-0.13974628
234	0xbe17fd03	-0.1484261
235	0xbd965aac	-0.07341513
236	0xbc47c041	-0.012191833
237	0x3d2e3300	0.042529106
238	0x3d0eeb43	0.03489233
239	0xbda73f6e	-0.08166395
240	0x3c3ff52a	0.0117161665
241	0x3dc42445	0.0957723
242	0xbcafaec3	-0.021445638
243	0xbce626a9	-0.028094606
244	0xbdbe0b3c	-0.092794865
245	0xbb8d7621	-0.0043170606
246	0x3d17e54f	0.03708392
247	0x3cb46daa	0.022024948
248	0xbd8a22da	-0.06744929
249	0x3d95d9cb	0.07316931
250	0xbcea13a0	-0.028573811
251	0xbd24098c	-0.040048167
252	0x3ca826fa	0.020526398
253	0x3d0f1bff	0.03493881
254	0x3d0763a4	0.03305401
255	0xbd939c95	-0.072076

a2c_network.actor_mlp.2.bias f4 [128]
0	0xbadeb0fc	-0.0016990001
1	0xbde4636e	-0.11151777
2	0x390d281f	0.00013461754
3	0x39a5a621	0.00031595028
4	0x3d6297a2	0.05532039
5	0x3ca2e3d3	0.019884026
6	0x3d747d4a	0.059689797
7	0x3dad3d4b	0.08458956
8	0xbdca95d8	-0.09891862
9	0xbcb4e8b6	-0.022083621
10	0xbdcbe057	-0.09954899
11	0xbd233253	-0.039842915
12	0xbcac0fc7	-0.021003617
13	0xbda78759	-0.081801124
14	0xbd6369e7	-0.05552092
15	0xbd76fa05	-0.06029703
16	0x3c4410d0	0.011966899
17	0xbd9b0b2b	-0.075704895
18	0x3b91a0b5	0.0044442066
19	0xbcbd2374	-0.023088194
20	0xbe16b49a	-0.14717332
21	0x3d93dd70	0.0721997
22	0x39888dd8	0.00026045623
23	0xbd991d72	-0.074763194
24	0xbe1bf0c9	-0.15228571
25	0xbd139619	-0.036031816
26	0xbc5570c2	-0.013027372
27	0xbb9c7de5	-0.00477575
28	0xbe3f75d7	-0.18697296
29	0x3d0d905d	0.034561504
30	0xbc1ed868	-0.00969515
31	0xbd9f25b1	-0.07770861
32	0x3cdf64bb	0.027269712
33	0x3d83b9f3	0.064319514
34	0x3d3c31ef	0.045946058
35	0xbe17749e	-0.1479058
36	0x3ba6cde1	0.0050904606
37	0x3d128fcd	0.03578167
38	0xbe151974	-0.14560491
39	0xbc96863a	-0.018374551
40	0x3d5ff986	0.054681323
41	0xbca94345	-0.02066196
42	0x3ccc8345	0.024964938
43	0x39300a79	0.0001678857
44	0x3bb92b8d	0.0056509436
45	0xbce4d811	-0.02793506
46	0xbdfb0252	-0.12256302
47	0xbcd18dcd	-0.025580311
48	0xbc1de7c1	-0.009637774
49	0xbc44f9ba	-0.01202243
50	0xbc75620f	-0.014976992
51	0xbdeb2278	-0.11481184
52	0xbcbf8408	-0.023378387
53	0x3d7ebcec	0.06219189
54	0xbdf412ff	-0.11917686
55	0x3b8f6e5a	0.0043771686
56	0x3ca053ce	0.019571211
57	0xbcf86345	-0.030320773
58	0x3dd52011	0.10406507
59	0xbd9e7ddd	-0.0773885
60	0xbdd9861b	-0.10621282
61	0x3daac47c	0.08338258
62	0x3d9400bb	0.07226702
63	0x3d0b4a82	0.034006603
64	0xbcfc40b6	-0.030792575
65	0xbd129f70	-0.035796583
66	0x3d9f86ed	0.07789407
67	0xbcabf527	-0.020990921
68	0x3c081a48	0.008307047
69	0x3cae93a4	0.021310635
70	0x3d87c6a1	0.06629682
71	0xbc4e0384	-0.01257408
72	0x3d7aaa2d	0.06119745
73	0xbdda7707	-0.10667234
74	0x3cf4fc1e	0.029905375
75	0xbe327ce8	-0.1743046
76	0xbdec7183	-0.11545088
77	0xbdd01234	-0.10159722
78	0xbc02e9ff	-0.007990359
79	0x3d6ce91f	0.05783951
80	0x3d60c1e5	0.054872412
81	0x3d20a1eb	0.039216917
82	0xbc205463	-0.009785744
83	0xbda9661c	-0.08271429
84	0xbdcd8136	-0.10034411
85	0x3d80adf1	0.06283177
86	0xbdc6f246	-0.09714179
87	0xbdb27a7f	-0.087147705
88	0x3d373d8e	0.044736437
89	0x3c18b7cd	0.009321165
90	0xbd1abbf6	-0.03777691
91	0xbcd6f6d6	-0.026240747
92	0x3ce55a9f	0.027997313
93	0x3dce02c3	0.100591205
94	0x3d92269e	0.07136272
95	0xbda3bc7f	-0.07994937
96	0x3ca4855c	0.020083122
97	0x3b90ef74	0.0044230763
98	0x3d1e5e03	0.038663875
99	0x3d83e5cb	0.06440314
100	0x3c08b114	0.008343
101	0xbd246581	-0.040135864
102	0xbd15647c	-0.036472782
103	0xbb637d07	-0.0034711973
104	0x3d4aa340	0.049472094
105	0x3d293edc	0.041319713
106	0xbcb2516c	-0.02176734
107	0x3ca602b0	0.020264953
108	0x3da5a1f5	0.080875315
109	0xbd50ae7a	-0.050947644
110	0x3c8a4f1e	0.01688343
111	0xbda3c3b6	-0.07996313
112	0x3ce22d88	0.027609602
113	0xbba35293	-0.004984209
114	0x3c3d1b58	0.011542164
115	0xbcee5aad	-0.029095972
116	0x3d82bd87	0.06383806
117	0xbdbdddda	-0.092708305
118	0xbd49257e	-0.04910802
119	0xbcaebea2	-0.021331135
120	0xbd705ea8	-0.05868402
121	0xbc3309ef	-0.010927661
122	0xbc73ad91	-0.014872924
123	0x3d297d92	0.04137952
124	0xbcb9a98b	-0.022663852
125	0x3c8266d9	0.015918182
126	0x3c084bf6	0.008318892
127	0xbcb94e76	-0.02262042

a2c_network.actor_mlp.4.weight f4 [128, 128]
0	0xb98c4b48	-0.0002675897
1	0xbd5cb35c	-0.053881988
2	0xbd08964d	-0.033346463
3	0x3c90efbc	0.01769244
4	0x3d349603	0.044088375
5	0xbdec707f	-0.115448944
6	0xbd87ff0c	-0.06640443
7	0x3d8c3efe	0.06847952
8	0xbd42c7da	-0.047553875
9	0x3cd4c595	0.02597312
10	0x3d506ae6	0.050883196
11	0x3bce3f77	0.0062941867
12	0x3c1a1429	0.009404221
13	0xbd93dd26	-0.07219915
14	0x3c7b9395	0.0153550105
15	0x3cfaab0c	0.03059914
16	0x3c0993df	0.008397072
17	0xbd06c38d	-0.032901336
18	0xbd4ab5da	-0.049489833
19	0xbd8cc90a	-0.06874283
20	0x3d1c2999	0.038125608
21	0x3d8d56cd	0.069013216
22	0x3d35454a	0.044255532
23	0x3ca56d5b	0.020193746
24	0xbcf11f8e	-0.029433992
25	0x3d6fbd84	0.058530346
26	0x3c1d67f9	0.009607309
27	0xbd701a69	-0.058618937
28	0xbc8b1b02	-0.016980652
29	0xbd6327cd	-0.05545788
30	0xbdab396d	-0.083605625
31	0x3da2d7d9	0.07951326
32	0x3d979368	0.074011624
33	0xbd8f98dc	-0.070115775
34	0xbca67eb6	-0.020324092
35	0x3d400dce	0.046888165
36	0xbd319f6c	-0.043364927
37	0xbc0a4a08	-0.008440502
38	0xbdcb0e21	-0.09914804
39	0xbd679a6a	-0.056543745
40	0xbd2f4922	-0.042794354
41	0xbd0147fc	-0.03156279
42	0xbd970283	-0.07373526
43	0xbcfd4b1b	-0.030919602
44	0x3d20f11f	0.03929245
45	0xbd8799a1	-0.06621099
46	0xbdf7c63d	-0.12098358
47	0x3d684437	0.05670568
48	0x3d9ebc45	0.07750753
49	0xbd13c824	-0.03607954
50	0x3c54738d	0.012967003
51	0xbc57a219	-0.013161206
52	0x3cdaef31	0.026725383
53	0xbc69eb53	-0.014277297
54	0xbdc8c235	-0.09802667
55	0x3d944f89	0.072417326
56	0xbd8923b8	-0.06696266
57	0x3cc2de08	0.023787513
58	0xbca81aef	-0.020520655
59	0xbd914bb2	-0.07094516
60	0xbc8e1ef6	-0.017348748
61	0x3ccd3138	0.025047883
62	0xbab5eb40	-0.0013879314
63	0x3e13e939	0.14444436
64	0x3df7b74f	0.1209551
65	0x3d96e90d	0.0736867
66	0xbd567422	-0.052356847
67	0xbd6e7ccc	-0.058224484
68	0x3db6e05c	0.08929512
69	0x3cbe08fd	0.023197645
70	0x3d8e3613	0.069439076
71	0x3de849fa	0.11342235
72	0xbd2d88fd	-0.04236697
73	0x3d111e6b	0.0354294
74	0x3d345fae	0.04403656
75	0xbc84c1bd	-0.016205663
76	0xbd72aba4	-0.05924572
77	0xbbbaa44e	-0.005695856
78	0x3dbb837c	0.09155938
79	0x3bca2612	0.006169089
80	0x3c5c9724	0.013463769
81	0x3c524325	0.012833391
82	0x3d465ad2	0.048426457
83	0x3db64451	0.08899749
84	0x3c8586d4	0.016299643
85	0x3c8e37d1	0.0173606
86	0xbd4aef46	-0.049544595
87	0xbcb73e5d	-0.022368604
88	0xbd61292d	-0.05497091
89	0x3d5b545d	0.053547252
90	0x3d5d612b	0.054047745
91	0xbd7938dd	-0.060845245
92	0x3d6472ed	0.055773664
93	0xbc804085	-0.015655765
94	0xbd88f442	-0.066872135
95	0x3b23f5ee	0.0025018412
96	0xbc30fb7f	-0.010802149
97	0xbce7f5be	-0.028315421
98	0x3dc4b2b3	0.09604397
99	0x3bcbb351	0.0062164445
100	0xbda57061	-0.08078075
101	0x3bbe5914	0.005808959
102	0xb9717bfe	-0.00023029742
103	0xbd95d6cd	-0.073163606
104	0x3d632d68	0.055463225
105	0x3bef686d	0.0073061497
106	0xbc357139	-0.011074358
107	0xbc9c4b95	-0.01907901
108	0xbc81bc14	-0.015836753
109	0xbd94733b	-0.07248541
110	0x398bef53	0.00026690456
111	0xbd29e7e8	-0.04148093
112	0x3cf729fa	0.030171383
113	0x3967878d	0.00022080373
114	0xbdf74e65	-0.120754994
115	0xbdb17bb3	-0.08666172
116	0xbd5d732f	-0.054064926
117	0x3d398cbd	0.045300234
118	0x3dc212ee	0.09476267
119	0x3cf2efed	0.029655421
120	0x3d631423	0.055439126
121	0x3d41ffcb	0.047363084
122	0xbd6b154c	-0.057393357
123	0x3d960b84	0.07326415
124	0xbd8f1611	-0.06986631
125	0xbc8852cd	-0.016641045
126	0x3b87bd81	0.0041424637
127	0xbdae88fa	-0.0852222
128	0x3b78299a	0.0037866593
129	0x3d2f63cb	0.04281978
130	0xbcc0ddb2	-0.023543213
131	0x3d3d2120	0.04617417
132	0x3d8e6cdf	0.06954359
133	0xbd445231	-0.047929946
134	0xbd834a64	-0.06410673
135	0x3cdfe420	0.027330458
136	0xbd1f732f	-0.038928207
137	0xbd5c0995	-0.053720076
138	0x3cb6117d	0.022225136
139	0x3d849f92	0.06475748
140	0xbd77640a	-0.06039814
141	0xbd08a2b7	-0.033358302
142	0xbce8c748	-0.028415337
143	0x3df8c7be	0.12147473
144	0x3d8a313d	0.06747673
145	0xbd0b4bf4	-0.03400798
146	0xbde2fae5	-0.110830106
147	0x3d819631	0.06327475
148	0xbdbcd83b	-0.0922093
149	0xbd416f2e	-0.04722517
150	0x3e1f233b	0.15540783
151	0x3c1db792	0.009626286
152	0xbc5d99c3	-0.013525429
153	0xbdb2b2c4	-0.08725503
154	0xbd5af138	-0.0534527
155	0xbcd2a30c	-0.025712512
156	0x3d293f1b	0.041319948
157	0xbcef1bad	-0.029188002
158	0xbcebf31c	-0.028802447
159	0xbb0a7ffb	-0.0021133411
160	0xbd2459e9	-0.040124808
161	0x3c8c3ba6	0.017118286
162	0xbd821149	-0.06350953
163	0xbd0f3da3	-0.03497089
164	0xbd89c865	-0.06727675
165	0x3d89bd46	0.06725554
166	0xbd72448d	-0.059147406
167	0xbdee64b5	-0.11640302
168	0xbcdfcf2b	-0.027320465
169	0xbda91eba	-0.08257814
170	0xbdb818aa	-0.08989079
171	0xbd49e5e4	-0.049291506
172	0x3d7b2dba	0.061322905
173	0xbd99edd2	-0.07516064
174	0xbd912b4b	-0.070883356
175	0x3d22ff5f	0.039794322
176	0x3d6dd199	0.058061216
177	0x3c363005	0.011119847
178	0x3de8be35	0.11364404
179	0x3d1d0492	0.038334437
180	0xbd488ca9	-0.04896227
181	0xbb26dab1	-0.002545994
182	0xbd271dad	-0.040799785
183	0x3db8f744	0.09031537
184	0xbc8aaca6	-0.016928028
185	0x3d5e79f1	0.05431551
186	0xbd1a914a	-0.037736215
187	0xbd8a0a3a	-0.06740232
188	0xbd92888a	-0.07154949
189	0x3d9442e1	0.07239319
190	0xbd70d20b	-0.058794063
191	0xbc89a0aa	-0.016800243
192	0x3c9da9ce	0.019246008
193	0xbda76d93	-0.081751965
194	0xbd24740a	-0.040149726
195	0x3d7c73ab	0.061633747
196	0x3dd92ced	0.10604272
197	0xbc201fbc	-0.009773191
198	0xbd017b07	-0.03161147
199	0x3aabc257	0.0013104182
200	0xbcee2566	-0.029070567
201	0xbd038ffa	-0.03211973
202	0x3c2c24cc	0.01050682
203	0x3d380990	0.044930995
204	0x3e15102d	0.14556952
205	0xbd12133c	-0.035662875
206	0x3d564252	0.05230934
207	0x3d88e1dd	0.06683705
208	0x3b05550f	0.0020344888
209	0xbd068f64	-0.03285159
210	0x3c49b1ab	0.012310426
211	0x3ce87336	0.02837525
212	0x3d873c7a	0.06603332
213	0x3d51871d	0.051154245
214	0xbcc1c5de	-0.02365392
215	0x3d0a08df	0.033699866
216	0x3dad9e02	0.08477403
217	0x3d8326e3	0.064039014
218	0x3c426fdc	0.01186749
219	0xbd908f37	-0.07058566
220	0x3d14e351	0.0363496
221	0xbcf0f497	-0.029413505
222	0x3d475a48	0.048670083
223	0x3d7d21f0	0.061799943
224	0xbd3ce8e5	-0.046120543
225	0xbc854795	-0.016269485
226	0xbce333d9	-0.027734684
227	0xbd940e0f	-0.07229244
228	0x3d0c77ca	0.034293927
229	0x3dbffce0	0.09374404
230	0x3dad1dc3	0.08452942
231	0xbd3eff89	-0.046630416
232	0xbca2ec55	-0.019888083
233	0xbcc963df	-0.024583755
234	0x3d457688	0.048208743
235	0xbd93720f	-0.07199489
236	0x3cefa547	0.029253615
237	0xbdb70532	-0.08936538
238	0x3c828d3f	0.015936492
239	0x3d15d43e	0.036579363
240	0xbdba2d6d	-0.090906955
241	0x3dce3205	0.10068134
242	0xbca4d5de	-0.020121511
243	0x3d8a9729	0.06767113
244	0xbdac3e99	-0.08410377
245	0x3da264cb	0.07929381
246	0x3dee65be	0.116404995
247	0x3d3e412f	0.046448883
248	0x3be1375b	0.006873054
249	0x3c6f1daa	0.014594475
250	0xbda5c7cc	-0.08094749
251	0x3ce7ce45	0.0282966
252	0x3d300c96	0.042980753
253	0x3d31179d	0.04323541
254	0xbd312ad7	-0.043253746
255	0x3d1c82cb	0.03821067

a2c_network.actor_mlp.4.bias f4 [128]
0	0x3d209673	0.03920598
1	0x3cd558b9	0.026043283
2	0xbd219513	-0.03944881
3	0xbd7aa529	-0.061192665
4	0xbdcabb78	-0.09899038
5	0x3bc6dca8	0.0060687847
6	0x3d4b42b4	0.04962416
7	0x3cc47053	0.023979342
8	0x3cd815ef	0.026377646
9	0x3d734eee	0.059401445
10	0x3c14f8ee	0.009092553
11	0xbcb30b58	-0.021855995
12	0xbcf49f57	-0.029861135
13	0x3d54c24f	0.05194312
14	0xbd38889e	-0.045052163
15	0xbb6dfcb1	-0.0036313946
16	0xbd26290c	-0.04056649
17	0xbd316b01	-0.043314938
18	0xbd3637ff	-0.044486996
19	0xbd5afde3	-0.05346478
20	0x3d293939	0.041314337
21	0x3b0b14e4	0.0021222169
22	0x3cd19599	0.025584029
23	0x3c4e41d5	0.012588938
24	0x3b11377e	0.002215832
25	0xbd1cb18b	-0.038255256
26	0xbdf7a5d7	-0.12092178
27	0xbceb5808	-0.0287285
28	0x3da3bf04	0.07995418
29	0x3d3d2ca4	0.04618515
30	0xbcb621c8	-0.022232905
31	0x3cc7e9c3	0.024403458
32	0x3dc5f6fd	0.0966625
33	0xbd32e053	-0.043670963
34	0xbb8b1f5c	-0.0042456817
35	0xbdda427c	-0.10657212
36	0x3caf4fb9	0.02140032
37	0x3d970887	0.07374673
38	0xbd13e835	-0.03611012
39	0xbd25ecd0	-0.040509045
40	0x3c8b39b4	0.016995288
41	0xbbabbd19	-0.005241048
42	0x3cbdc308	0.023164287
43	0xbd051ba9	-0.032497082
44	0x3b9ec1d7	0.004844885
45	0x3d05e8ea	0.032692827
46	0xbd807e4d	-0.0627409
47	0x3dda31e6	0.106540486
48	0x3d5d1660	0.053976417
49	0x3d9eba9d	0.077504374
50	0xbd38cc12	-0.04511649
51	0xbda586b2	-0.08082332
52	0x3d5d87a1	0.054084424
53	0xbd5b57f1	-0.053550664
54	0x3d8f1781	0.06986905
55	0xbdb76be0	-0.089561224
56	0x3d114f66	0.03547611
57	0xbd99ab42	-0.07503368
58	0xbdc66377	-0.0968694
59	0x3d1670b8	0.03672859
60	0x3d6aa420	0.057285428
61	0xbd025fb2	-0.031829543
62	0xbc4a722e	-0.012356324
63	0x3db657cc	0.08903465
64	0xbcd94e87	-0.026526703
65	0x3d01d31e	0.031695478
66	0x3d7e0247	0.06201389
67	0xbc44d97f	-0.012014746
68	0x3d68e6a7	0.056860592
69	0xbdfe141a	-0.12406178
70	0x3ccb41b0	0.024811596
71	0x3a96cef9	0.0011505774
72	0xbd01c507	-0.03168204
73	0xbc6bf3ac	-0.014401358
74	0xbca0c3ed	-0.019624675
75	0xb90a9768	-0.00013217109
76	0x3d7d55e3	0.061849486
77	0xbab54c9b	-0.0013832034
78	0xbd1250f2	-0.035721727
79	0xbd1ff60e	-0.039053015
80	0xbdcaad0a	-0.09896286
81	0x3d8acd10	0.06777394
82	0xbd277b80	-0.040889263
83	0xbda1dbe1	-0.07903267
84	0xbc3d7324	-0.011563096
85	0x3d50a30a	0.050936736
86	0xbc9ad3c2	-0.018899802
87	0x3db368dc	0.08760235
88	0xbd9b00ad	-0.07568488
89	0xbbe232d1	-0.0069030304
90	0x3d52bad1	0.051447693
91	0xbd64efda	-0.055892803
92	0x3cf9d2de	0.030496057
93	0xbd955f4f	-0.07293569
94	0xbca40a9f	-0.020024596
95	0x3cb88df8	0.022528633
96	0xbd0bd44d	-0.034138013
97	0xbc4a1394	-0.012333769
98	0xbd0420a7	-0.032257702
99	0x3ab956b7	0.0014140223
100	0xbcd08236	-0.025452714
101	0x3b69693f	0.003561571
102	0xbd524771	-0.051337663
103	0x3be7859d	0.0070654885
104	0x3d64c816	0.05585488
105	0xbd037a52	-0.032099076
106	0xbc52e3f2	-0.012871729
107	0xbd893cc8	-0.06701046
108	0x3dce1681	0.10062886
109	0x3d1e7d0f	0.038693484
110	0x3d806e36	0.06271021
111	0xbce363e0	-0.027757585
112	0xbd87bb85	-0.066275634
113	0x3c22e835	0.009943058
114	0x3d6b4a45	0.057443876
115	0xbdc2c7a3	-0.09510734
116	0xbd86871d	-0.065687396
117	0x3d47cff1	0.048782293
118	0x3d061b09	0.032740626
119	0xbd76b811	-0.060234133
120	0xbc1eb721	-0.009687216
121	0x3d53e029	0.051727448
122	0xbcf07501	-0.029352667
123	0x3a1e4c9a	0.0006038636
124	0x3d9c3e74	0.076290995
125	0xbd6ece3d	-0.058302153
126	0x3d1d0129	0.038331185
127	0x3cdf0b15	0.027226964

a2c_network.value.weight f4 [1, 128]
0	0xbc541ae1	-0.012945862
1	0xbcd12702	-0.025531296
2	0xbcd9106d	-0.02649709
3	0x3ca76896	0.020435613
4	0x3cf8df58	0.030379936
5	0x3d34231f	0.043978807
6	0x3c89e5bb	0.016833177
7	0x3c8f4bd5	0.017492214
8	0xbd3ac777	-0.04560038
9	0xbc5f6412	-0.013634698
10	0x3c007760	0.007840961
11	0x3c9c83cc	0.019105814
12	0x3cca1598	0.0246685
13	0x3ce64923	0.028111046
14	0xb9c833fa	-0.00038185698
15	0x3d22077b	0.039557915
16	0xbc3929a1	-0.011301429
17	0x3b8302ca	0.003998135
18	0x3d31cf84	0.043410793
19	0xbc052dd8	-0.008128606
20	0x3b4cd051	0.0031252096
21	0xbdb86210	-0.09003079
22	0xbc9154f0	-0.017740697
23	0xbc5d02dd	-0.013489452
24	0x3ce5c276	0.028046828
25	0xbd8e7414	-0.06955734
26	0x3baf1f03	0.005344273
27	0xba7ef6eb	-0.00097261247
28	0x3ccb2b2e	0.024800863
29	0xbc2f3d3b	-0.010695751
30	0xbcf2ac23	-0.029623097
31	0xbd7962d7	-0.060885277
32	0xbc210627	-0.009828127
33	0x3cc75e7e	0.02433705
34	0xbc7b0fd3	-0.015323597
35	0xbd02de9c	-0.031950578
36	0x3cebd731	0.028789135
37	0x3c71c1ca	0.014755676
38	0x3b49101f	0.0030679775
39	0x3d2d644e	0.042331986
40	0xbcce5d7c	-0.025191061
41	0x3b1cd1ec	0.0023928834
42	0xba8671ef	-0.0010257344
43	0xbd080a2f	-0.033212837
44	0xbc917571	-0.017756196
45	0xbb49fef4	-0.003082213
46	0x3d7f0e8c	0.062269732
47	0xbb002202	-0.001955152
48	0x3c133622	0.008985074
49	0xbbf02ac9	-0.007329319
50	0x3c5e00b9	0.013549977
51	0xbc4112c8	-0.011784263
52	0xbc0e33f2	-0.008679377
53	0x3d34069b	0.043951612
54	0xbc08f719	-0.008359694
55	0x3c29fd4d	0.010375333
56	0xbc1dd643	-0.0096336035
57	0xbc2321d6	-0.009956798
58	0x3c6f15eb	0.014592628
59	0x3d1bab35	0.038005073
60	0x3be69fba	0.007038084
61	0xbb04fa67	-0.0020290853
62	0x3d1384e2	0.0360154
63	0xbc8687c7	-0.016422166
64	0x3d4c921a	0.04994402
65	0xbba6fd63	-0.005096124
66	0xba73ca1a	-0.000929983
67	0xbdab5587	-0.083659224
68	0xbba5597c	-0.0050460678
69	0x3cacbb7f	0.021085499
70	0xbca178ac	-0.019710861
71	0x3d19958b	0.03749613
72	0x3ca1ea06	0.019764911
73	0x3d430f3b	0.047621947
74	0x3ca86663	0.020556634
75	0xbd54cbf4	-0.051952317
76	0xbc9743cb	-0.018464943
77	0x3c203a59	0.009779536
78	0x3bc4b735	0.0060032853
79	0x3c20ad3d	0.009806928
80	0xbd0841cf	-0.033265885
81	0xbce19e38	-0.027541265
82	0xbc7da113	-0.015480298
83	0xbbb8ee93	-0.0056436746
84	0xbd5e633b	-0.054293852
85	0xbc74107d	-0.014896509
86	0x3cbb5f56	0.022872608
87	0x3c3cc6cc	0.011522006
88	0x3d35e4ab	0.044407528
89	0x3c86d775	0.01646016
90	0x3adf231e	0.0017024016
91	0xbd17b460	-0.037037253
92	0xbd53d86a	-0.05172006
93	0xbc86c8a9	-0.016453104
94	0x3cb121ed	0.021622622
95	0x3cc2509c	0.023720078
96	0x3c840561	0.016115846
97	0xbd4a859e	-0.049443834
98	0x3d1a9e1d	0.037748445
99	0xbd8544e3	-0.0650728
100	0xbd022dd1	-0.031781975
101	0xbc8fffdf	-0.017578064
102	0x3d21f014	0.039535597
103	0xbc5bb753	-0.013410407
104	0x39bfcd51	0.00036583332
105	0xbd8d57ce	-0.06901513
106	0xbd8d99ca	-0.069140986
107	0x3c33c5e5	0.010972475
108	0xbc20e1fe	-0.009819506
109	0xbc2d29c4	-0.01056904
110	0x3c84d044	0.01621259
111	0x3d2a7316	0.04161366
112	0xbd1bbab0	-0.038019836
113	0x3c468df1	0.012118802
114	0xbc99b607	-0.018763555
115	0x3cd0d726	0.025493216
116	0x3d2c8d71	0.042127077
117	0xbd08b1d0	-0.0333727
118	0xbd43869a	-0.047735788
119	0x3d449b17	0.047999468
120	0xbd06f441	-0.032947782
121	0x3cbf4869	0.023349958
122	0x3d2493a1	0.040179852
123	0x3d883883	0.06651404
124	0x3c552f58	0.013011776
125	0xbc9be443	-0.019029742
126	0xbc98a5f9	-0.01863383
127	0xbb077df5	-0.0020674441

a2c_network.mu.weight f4 [18, 128]
0	0xbbf36d82	-0.007428826
1	0x3c29c01a	0.010360742
2	0xbc932284	-0.017960794
3	0x3e2d0747	0.16897307
4	0x3de69e3c	0.112606496
5	0x3cb10461	0.021608533
6	0xbd1802fa	-0.037112214
7	0x3c4a39b3	0.012342858
8	0xbd85a880	-0.065262794
9	0xbe14632d	-0.14490958
10	0x3ccb8f6c	0.024848662
11	0xbe097081	-0.13421823
12	0xbd41fca5	-0.04736008
13	0xbdaa592e	-0.08317791
14	0x3e1d36cf	0.15352939
15	0x3d531169	0.051530275
16	0x3cc586f0	0.024112195
17	0x3db87a13	0.09007659
18	0xbcb41135	-0.021980861
19	0xbdcb91b6	-0.099399015
20	0xbde67da6	-0.11254434
21	0xbd068691	-0.032843176
22	0xbb9c4512	-0.004768976
23	0x3d555d1e	0.052090757
24	0xbda85dae	-0.08220993
25	0x3d542f1e	0.051802747
26	0xbbf8f692	-0.007597753
27	0xbd8a0f56	-0.06741206
28	0x3dc2b7a3	0.09507682
29	0x3cc91741	0.024547221
30	0x3db80d50	0.08986914
31	0xbda99f61	-0.08282352
32	0xbd467e9e	-0.048460595
33	0xbdc015ed	-0.09379182
34	0xbdf7ad0d	-0.12093554
35	0x3ccc8894	0.02496747
36	0x3db62196	0.08893125
37	0xbe03e249	-0.1287929
38	0x3c8acb64	0.016942687
39	0xbdd537c7	-0.10411029
40	0x3d9731cb	0.07382544
41	0x3de0bc9d	0.10973475
42	0xbd4dd921	-0.0502559
43	0xbdfce81f	-0.12348961
44	0x392add8a	0.00016294993
45	0xbe230c9f	-0.15922783
46	0x3d4f4703	0.05060483
47	0xbc8b118b	-0.016976139
48	0x3d2039a7	0.03911748
49	0xbc223e8e	-0.0099026095
50	0x3e1dacc1	0.15397932
51	0xbc154057	-0.009109578
52	0xbda9dea7	-0.08294421
53	0xbd56d1ad	-0.052446056
54	0xbddaa86b	-0.106766544
55	0xbc84b0ff	-0.01619768
56	0x3ddb041d	0.10694144
57	0x3dadfe61	0.084957846
58	0x3e05f1ca	0.13080516
59	0x3d357242	0.044298418
60	0xbd8245d3	-0.06360974
61	0x3b054c62	0.0020339717
62	0x3da5e371	0.08100022
63	0xbc280728	-0.010255612
64	0x3dd185fd	0.10230634
65	0xbd32abe7	-0.04362097
66	0x3e63963e	0.22225282
67	0x3cb1d18b	0.021706363
68	0xbdb9c9dd	-0.090717055
69	0x3a86e791	0.0010292401
70	0x3d9b3f52	0.07580437
71	0xbc1eba7a	-0.009688014
72	0xbc57d57e	-0.013173459
73	0x3deac932	0.11464156
74	0x3e243872	0.16037157
75	0x3d6d6d82	0.057965763
76	0xbdc1aaf0	-0.09456432
77	0xbda23c2f	-0.07921635
78	0x3d34a3dd	0.044101585
79	0x3d3eb522	0.04655946
80	0xbc2e57d0	-0.010641053
81	0x3d15f8f0	0.03661436
82	0x3d1ec9ad	0.03876655
83	0xbdd8eb43	-0.105917476
84	0x3d179ff5	0.03701778
85	0x3d5c6103	0.053803455
86	0x3d003929	0.031304512
87	0x3d399a3a	0.045313098
88	0x3b048a5f	0.0020224077
89	0xbd99630c	-0.07489595
90	0xbda77973	-0.081774615
91	0x3d24864a	0.04016713
92	0x3ae0c398	0.0017148135
93	0x3d319229	0.04335228
94	0x3d6d1b0f	0.057887133
95	0x3bc6bac2	0.0060647437
96	0x3dccaad1	0.09993518
97	0xbd06075f	-0.032721873
98	0xbd7fb9de	-0.062433116
99	0x3dc32bf3	0.09529867
100	0x3c052720	0.008127004
101	0x3d935cd5	0.07195441
102	0x3d6ebc89	0.05828527
103	0x3dd85f6d	0.10565076
104	0x3df903a0	0.121588945
105	0x3d1aff40	0.03784108
106	0xbd06abad	-0.032878567
107	0xbd47e900	-0.04880619
108	0xbda4e11e	-0.0805075
109	0x3d4322b5	0.04764052
110	0xbd8fc7e7	-0.0702055
111	0xbe0426f6	-0.12905487
112	0x3e2482a7	0.16065465
113	0xbdcc572c	-0.09977564
114	0xbb8cf1b4	-0.004301274
115	0x3d35b609	0.044363055
116	0xbcf15c7e	-0.029463049
117	0xbdbe63f0	-0.09296405
118	0xbe329922	-0.17441228
119	0x3e18e3ed	0.14930697
120	0x3d88f7b3	0.0668787
121	0xbe040ba7	-0.1289507
122	0x3db4d999	0.08830566
123	0xbd7796e5	-0.06044664
124	0xbddf0f33	-0.10891571
125	0x3dc93e17	0.09826296
126	0xbbf262bb	-0.0073970235
127	0xbd92beaf	-0.07165276
128	0xbbf3dd34	-0.007442141
129	0xbdb731c4	-0.08945039
130	0xbca7cbf3	-0.020482993
131	0x3e36f5b9	0.17867173
132	0x3e336060	0.17517233
133	0xbd597ab1	-0.053095523
134	0x3d37a34c	0.044833466
135	0xbd9563e6	-0.07294445
136	0x3d9ac51f	0.07557129
137	0xbdf93086	-0.12167458
138	0x3a1b9f1b	0.00059364893
139	0xbdc588e7	-0.09645253
140	0xbb3e58c3	-0.0029044605
141	0xbdb41ac3	-0.08794167
142	0xbce728f4	-0.02821777
143	0xbd1b2d9a	-0.037885286
144	0x3c11ea4e	0.00890596
145	0x3cd2283c	0.02565395
146	0x3c924a72	0.017857764
147	0xbd6ac129	-0.057313118
148	0x3d9a3c14	0.0753099
149	0xbc968e9f	-0.018378554
150	0x3d41c1da	0.047304012
151	0x3d9c4dda	0.076320365
152	0xbdc50d78	-0.096217096
153	0xbc4b1105	-0.0123941945
154	0x3c6e0f86	0.014530068
155	0xbdbe9a9f	-0.093068354
156	0xbde799a9	-0.11308605
157	0xbd03d3e8	-0.03218451
158	0xbc5fecd6	-0.013667306
159	0xbd861517	-0.06546991
160	0xbd92127f	-0.07132434
161	0xbd5e0268	-0.054201514
162	0xbcb8d339	-0.022561656
163	0x3c8b2212	0.01698402
164	0x3e0ca533	0.13734894
165	0xbd998055	-0.074951805
166	0x3defaa7e	0.11702441
167	0xbdc6d979	-0.09709448
168	0x3d2e66f4	0.042578653
169	0x3a0080d1	0.00049020076
170	0x3d844944	0.06459287
171	0x3dc4563b	0.0958676
172	0x3c77ddab	0.015128533
173	0x3cc374df	0.02385944
174	0x3cd909a8	0.026493862
175	0xbd58abc0	-0.05289817
176	0x3b412e06	0.0029476895
177	0xbd8e41e9	-0.06946165
178	0xbd317ff1	-0.043334905
179	0x3bf41321	0.0074485694
180	0x3d0f38bd	0.03496622
181	0xbbbbae50	-0.005727567
182	0xbe2dd322	-0.16975072
183	0xbc68bad9	-0.014204704
184	0x3be79de9	0.007068385
185	0x3db4bf18	0.08825511
186	0x3dff2999	0.12459106
187	0x3cdc6d47	0.026907576
188	0xbc8de326	-0.017320227
189	0x3c229dd1	0.009925322
190	0xbb78baea	-0.0037953206
191	0xbd3c9f97	-0.046050634
192	0x3d952096	0.07281606
193	0x3d98a905	0.07454113
194	0xbc224502	-0.009904148
195	0x3d93399b	0.07188722
196	0x3c14774c	0.009061646
197	0x3ddbe9de	0.10737966
198	0x3c079ea4	0.008277569
199	0xbcbcb692	-0.023036275
200	0x3cccf6c3	0.025020009
201	0xbd249db9	-0.04018948
202	0xbd4691a0	-0.048478723
203	0x3d4c13ef	0.049823698
204	0xbdc733ef	-0.097267024
205	0x3d8703f1	0.06592549
206	0x3daafe35	0.083492674
207	0xbcd68804	-0.026187904
208	0x3c7c8d99	0.015414619
209	0x3e1a1ecf	0.15050815
210	0xbd093468	-0.033497244
211	0x3d0fea99	0.03513584
212	0x3cea48a6	0.028599095
213	0xbdd2fb9b	-0.10301896
214	0xbd74dab5	-0.059778888
215	0xbda17448	-0.07883507
216	0x3ddf0177	0.10888951
217	0xbce8df5e	-0.028426822
218	0x3ca694d4	0.020334639
219	0xbd35cb23	-0.04438318
220	0xbcf0920e	-0.02936652
221	0xbdb3aca2	-0.087731615
222	0x3de54752	0.11195244
223	0xbda317c1	-0.07963515
224	0x3dd2fde5	0.10302333
225	0xbc2a074e	-0.010377718
226	0x3d35601c	0.04428111
227	0xbcc694e8	-0.024240926
228	0x3d238144	0.0399182
229	0xbd0bd832	-0.034141727
230	0x3dd7895c	0.10524246
231	0x3d1b5d5a	0.037930824
232	0x3e16f02a	0.14740053
233	0x3c08bd88	0.008345969
234	0x3d7f69e5	0.06235685
235	0x3db8ae14	0.09017578
236	0xbe0f40f4	-0.13989621
237	0x3cc738fe	0.024319168
238	0x3d1a81a4	0.03772129
239	0xbd320280	-0.043459415
240	0x3c8a2767	0.016864492
241	0x3ca27dd2	0.019835386
242	0xbce40a95	-0.027837077
243	0x3d965723	0.07340839
244	0xbd160bb2	-0.036632247
245	0xbca965fc	-0.020678513
246	0xbdf97212	-0.1217996
247	0x3d93e6a8	0.072217286
248	0x3ddf0657	0.10889881
249	0xbdaeefc9	-0.08541829
250	0x3d064133	0.032777023
251	0xbddccf37	-0.107817106
252	0x3cbd075a	0.023074795
253	0x3d18dbc8	0.037318975
254	0x3d94f401	0.072731026
255	0xbcf2f936	-0.029659849

a2c_network.mu.bias f4 [18]
0	0xbd29a287	-0.041414764
1	0xbd3d577e	-0.046226017
2	0x3c0347f0	0.008012757
3	0x3d1be276	0.038057767
4	0x3abf7a23	0.0014608543
5	0x3cb91dcc	0.022597216
6	0x3d970013	0.07373061
7	0x3d7e4032	0.06207294
8	0x3d14d244	0.036333337
9	0x3d071099	0.032974813
10	0x3da23e76	0.0792207
11	0x3d954115	0.07287804
12	0xbd815faa	-0.063170746
13	0xbd14a30a	-0.0362883
14	0xbd87eb78	-0.06636709
15	0xbda630c6	-0.081147715
16	0xbd9d8f5f	-0.076933615
17	0xbd896729	-0.06709129

exp_avg f4 [18]
0	0x3a50b332	0.00079612725
1	0x3afa9a11	0.0019119402
2	0x3af43b43	0.0018633384
3	0xba8095a6	-0.0009810224
4	0x3b8f9d5f	0.004382774
5	0x3ad33907	0.0016115018
6	0xbb19ed0a	-0.0023487234
7	0x3aa3ee69	0.0012506965
8	0x3b41d856	0.002957841
9	0xb9c84ff9	-0.00038206557
10	0x3a03df6b	0.0005030545
11	0xb9952b7d	-0.00028451896
12	0x3b0a64ca	0.0021117204
13	0xbaf743cd	-0.0018864811
14	0x3a2f71f7	0.00066927023
15	0xbaa6f8ae	-0.0012738907
16	0x39bce719	0.00036030335
17	0xbac2c056	-0.0014858346

exp_avg_sq f4 [18]
0	0x38503ade	4.964589e-05
1	0x3827b1c7	3.998147e-05
2	0x38376e16	4.3733125e-05
3	0x38b23584	8.4976695e-05
4	0x387efed5	6.079565e-05
5	0x3883fae5	6.2932995e-05
6	0x3819e416	3.6690464e-05
7	0x3805e2bc	3.1920834e-05
8	0x380a5ed7	3.299009e-05
9	0x3850d761	4.979165e-05
10	0x380eec1d	3.4075336e-05
11	0x3813f5a6	3.527631e-05
12	0x381ffbe0	3.814313e-05
13	0x3816aee5	3.592567e-05
14	0x380f5be0	3.4179422e-05
15	0x38182090	3.626995e-05
16	0x380eccfc	3.4046345e-05
17	0x381cfbd4	3.742783e-05
