logs/rl_games/hexapod_flat_direct/2025-11-14_22-48-05/nn/last_hexapod_flat_direct_ep_400_rew_-0.15679793.pth (torch, 546049 bytes, 33 tensors)

value_mean_std.running_mean f8 [1]
-0.1713699157258769
00000000: 24cc c70b 73ef c5bf

value_mean_std.running_var f8 [1]
0.050386338106266526
00000000: 38c9 a9f4 3ccc a93f

value_mean_std.count f8 []
78643201.0
00000000: 0000 0004 00c0 9241

a2c_network.sigma f4 [18]
-0.74144834 -0.7338109 -0.69315135 -0.770277 -1.2474387 -1.2726878 -0.24607413 -0.18699509
-0.23736198 -1.2992358 -0.17935663 -0.31417617 -0.121976696 -0.27949306 -0.13695918 -0.2901611
-0.01540757 -0.1171608
00000000: 8fcf 3dbf 08db 3bbf 5e72 31bf e030 45bf
00000010: 12ac 9fbf 6fe7 a2bf dbfa 7bbe a47b 3fbe
00000020: 050f 73be 5c4d a6bf 44a9 37be b3db a0be
00000030: ebce f9bd b719 8fbe 073f 0cbe ff8f 94be
00000040: 0870 7cbc 00f2 efbd

a2c_network.actor_mlp.0.weight f4 [128, 66]
0.26002648 -0.08318349 -0.17621076 -0.263649 0.041100822 0.0798635 0.09475301 -0.0007791502
-0.1784882 -0.19461378 -0.1851363 0.26948583 -0.06445372 0.2929252 0.0891468 -0.35329178
0.25138426 0.10701056 0.060174495 -0.06495039 0.016676696 -0.09780688 -0.07435568 0.017119592
0.051863108 -0.10629451 0.09227827 0.083553664 -0.07753281 -0.105903186 -0.009156243 -0.08745155
0.010747182 -0.25052196 -0.014194534 0.035521995 0.0063006273 -0.059280075 -0.04407232 -0.0869123
-0.10379968 -0.05439396 -0.09090038 -0.0018122204 0.058892313 0.0005721129 -0.003221712 -0.09783596
-0.16934681 0.026641382 0.1126832 -0.2055813 0.06084335 -0.04540652 0.02420762 -0.05163227
-0.0031607747 -0.045243762 -0.055727605 -0.042434406 -0.04965118 -0.11693202 0.07113363 -0.08531476
0.11855245 0.01420452 0.12423756 0.06412586 -0.23282155 -0.099439785 -0.16627301 -0.089446865
0.04605901 0.12236749 0.010774473 -0.07976276 0.20173435 -0.34349033 0.085018985 0.031112099
0.005153536 0.2415264 0.13648735 0.15152788 0.037685163 -0.12030138 -0.019960022 -0.06608035
0.035274368 -0.1444389 0.10533048 0.121724896 0.067068964 -0.055509638 0.12944226 0.043025166
-0.006003787 -0.0733301 0.051142383 -0.091881394 -0.035219554 0.07920807 0.04928257 -0.042139262
-0.02060874 -0.014671004 0.057430387 -0.030011302 -0.046102744 -0.008706569 -0.05931159 0.024302121
0.058925487 -0.08923361 0.09721677 0.09326709 -0.018631477 0.016544 0.08925962 0.1467771
0.05846715 -0.0674705 0.10435668 0.124597885 -0.13090435 -0.05416189 0.065550625 0.19283915
-0.062629886 -0.09327743 -0.022448752 -0.046034936 0.00395307 0.119530044 -0.2291363 -0.09344298
0.077224605 0.020552874 0.0034632576 -0.055787046 -0.17114839 -0.20109461 -0.024403753 0.41792926
-0.016337212 0.052811377 -0.124301575 -0.023497202 -0.07776602 -0.006103819 0.0057525104 -0.13058296
-0.008645354 -0.24143237 -0.116497286 0.0031831309 0.010225804 -0.11949617 -0.011669136 0.11804893
0.17887454 0.08117803 -0.10445855 -0.083954275 -0.08269563 0.088024765 0.015618674 0.112464376
0.03983277 0.033946436 -0.0045806565 -0.069198966 -0.12459782 -0.13964836 0.057830628 -0.07480598
-0.014050895 -0.04720899 0.0030331223 -0.07513538 -0.16201928 0.06103188 -0.08020326 0.09908021
-0.0997637 -0.11049295 0.0010519703 -0.12038266 -0.04919536 -0.22308719 0.10490759 -0.15311049
0.010856113 -0.050849885 0.11834033 -0.064891174 0.07894989 -0.03707243 0.09431713 0.30316535
-0.21076865 -0.040950805 0.07496336 -0.18926838 0.3919732 -0.03211618 0.12226618 0.04691812
0.109449655 -0.055969246 0.03379416 0.02116962 0.07657658 -0.08563826 -0.04354254 -0.005131689
0.078936055 0.05424423 0.060832206 0.075283155 0.09339917 0.18905286 -0.009292259 -0.13571754
-0.20101267 -0.13466316 -0.20462856 -0.27298155 -0.0056662066 -0.059739143 -0.048638396 -0.09169121
-0.024239615 0.0006531427 0.0049939174 -0.037980642 -0.055252552 -0.032391954 -0.087649636 0.10993922
-0.024290392 0.035179354 -0.030433288 -0.019973913 0.06478851 0.028625987 -0.07944022 0.049333725
0.16027759 0.053306315 0.101155825 0.16904785 -0.014461143 -0.009883448 -0.15547806 -0.06014721
00000000: 3122 853e 1b5c aabd 9870 34be 00fd 86be
00000010: 5659 283d 7a8f a33d de0d c23d e33f 4cba
00000020: 9cc5 36be d648 47be 5f94 3dbe 0cfa 893e
00000030: 5000 84bd 4bfa 953e 9992 b63d a9e2 b4be
00000040: 70b5 803e 5a28 db3d 8879 763d b604 85bd
00000050: 919d 883c f94e c8bd ca47 98bd 633e 8c3c
00000060: 696e 543d f0b0 d9bd 64fc bc3d 2f1e ab3d
00000070: 86c9 9ebd c5e3 d8bd 1104 16bc cc19 b3bd
00000080: f314 303c 6a44 80be 3190 68bc 837f 113d
00000090: 7e75 ce3b aacf 72bd 2d85 34bd 13ff b1bd
000000a0: ed94 d4bd 33cc 5ebd fa29 babd 0788 edba
000000b0: 1139 713d d9f9 153a 5c23 53bb 385e c8bd
000000c0: 4069 2dbe 073f da3c 73c6 e63d e883 52be
000000d0: e036 793d 30fc 39bd 0f4f c63c 5c7c 53bd
000000e0: 0025 4fbb 8651 39bd a142 64bd b3cf 2dbd
000000f0: 095f 4bbd 0e7a efbd 82ae 913d 81b9 aebd
00000100: a0cb f23d 13ba 683c 4370 fe3d 6b54 833d
00000110: c668 6ebe 16a7 cbbd 7943 2abe eb2f b7bd
00000120: 5fa8 3c3d ce9b fa3d 6a87 303c a85a a3bd
00000130: 7393 4e3e f7dd afbe 6f1e ae3d cdde fe3c
00000140: fede a83b b252 773e 57c3 0b3e 202a 1b3e
00000150: c25b 1a3d 9260 f6bd 3383 a3bc 2255 87bd
00000160: db7b 103d cae7 13be 82b7 d73d e74a f93d
00000170: 745b 893d 135e 63bd 838c 043e 283b 303d
00000180: 6abb c4bb 172e 96bd ad7a 513d 502c bcbd
00000190: 6142 10bd d737 a23d 85dc 493d 389a 2cbd
000001a0: a9d3 a8bc a75e 70bc 203c 6b3d 43da f5bc
000001b0: 3bd6 3cbd ffa5 0ebc b6f0 72bd 3e15 c73c
000001c0: da5b 713d 1cc0 b6bd 9619 c73d d102 bf3d
000001d0: 0aa1 98bc 4887 873c bfcd b63d bc4c 163e
000001e0: 407b 6f3d f92d 8abd f4b8 d53d 2d2d ff3d
000001f0: ca0b 06be dcd8 5dbd 683f 863d a077 453e
00000200: 1944 80bd 3d08 bfbd 72e6 b7bc 218f 3cbd
00000210: c188 813b 2bcc f43d b5a2 6abe 085f bfbd
00000220: ef27 9e3d 805e a83c d2f7 623b f580 64bd
00000230: 8641 2fbe bfeb 4dbe 61ea c7bc d3fa d53e
00000240: 9ed5 85bc be50 583d d391 febd 347d c0bc
00000250: cb43 9fbd 8b02 c8bb 8e7f bc3b 8ab7 05be
00000260: 3ea5 0dbc 0c3a 77be 2196 eebd 139c 503b
00000270: 218a 273c 68ba f4bd e72f 3fbc a3c3 f13d
00000280: e32a 373e ab40 a63d 5dee d5bd 38f0 abbd
00000290: 545c a9bd 5446 b43d 78e5 7f3c b953 e63d
000002a0: b027 233d 6b0b 0b3d 5519 96bb 30b8 8dbd
000002b0: 242d ffbd fbff 0ebe cfdf 6c3d e133 99bd
000002c0: ba35 66bc 375e 41bd 59c7 463b 94e0 99bd
000002d0: 62e8 25be 91fc 793d 9b41 a4bd 91ea ca3d
000002e0: e950 ccbd 214a e2bd 44e2 893a 2f8b f6bd
000002f0: 1381 49bd f870 64be cad9 d63d ffc8 1cbe
00000300: d7dd 313c f847 50bd 6a5c f23d aae5 84bd
00000310: 7bb0 a13d 43d9 17bd 5729 c13d 7d38 9b3e
00000320: bdd3 57be 08bc 27bd 6486 993d 92cf 41be
00000330: b6b0 c83e 418c 03bd b166 fa3d 372d 403d
00000340: 2427 e03d 0240 65bd bf6b 0a3d e96b ad3c
00000350: 2fd4 9c3d 1d63 afbd aa59 32bd ba27 a8bb
00000360: 3aa9 a13d 332f 5e3d 312b 793d 0e2e 9a3d
00000370: 1048 bf3d 1397 413e 8f3e 18bc 8af9 0abe
00000380: 44d6 4dbe 24e5 09be 268a 51be 3dc4 8bbe
00000390: 96ab b9bb 08b1 74bd 0e39 47bd 9ac8 bbbd
000003a0: 2892 c6bc aa37 2b3a 04a4 a33b 9791 1bbd
000003b0: 8050 62bd 6dad 04bd a781 b3bd d027 e13d
000003c0: a5fc c6bc 3a18 103d 3b4f f9bc 55a0 a3bc
000003d0: d7af 843d 0c81 ea3c 8eb1 a2bd 2912 4a3d
000003e0: cf1f 243e b957 5a3d c92a cf3d e11a 2d3e
000003f0: 6eee 6cbc 2fee 21bc a435 1fbe ec5c 76bd

a2c_network.actor_mlp.0.bias f4 [128]
0.056751017 0.037048485 0.095575646 -0.04574062 0.116421536 -0.0902281 -0.014529827 0.19587451
0.049268723 0.014040228 0.004398683 0.08987722 -0.025637021 0.1070483 -0.12085669 0.08623665
0.07541343 0.10390797 0.15112944 0.13209063 -0.04204788 0.054173935 0.08155511 0.07986797
0.008493495 0.08900292 -0.037098065 0.11180528 0.14629143 0.0064370115 0.13650694 -0.06969205
0.11827681 0.06776996 -0.14394087 0.028005088 0.013887597 0.1439073 -0.02604095 -0.016103398
0.025915341 0.05619765 -0.028190615 0.053649288 -0.08933445 0.13217203 -0.08535127 0.045405805
0.12475629 0.06595935 -0.10771795 0.07534251 0.017966015 0.053505633 -0.098760284 0.054791406
0.10540246 0.028255612 0.07229006 0.15627281 0.11253667 0.00026579847 0.15312171 -0.048413247
0.0467925 0.11665839 0.21595868 0.10854644 0.1774244 0.07197628 0.19890872 0.0018679998
0.12088612 0.0039805914 0.116623856 -0.12151712 -0.17012545 0.08643886 -0.035584133 -0.07993939
-0.16566588 -0.08373728 0.025057012 0.16362374 0.11999449 0.069663584 -0.07431517 0.058786474
-0.13983265 0.15659906 0.11064361 -0.048745718 0.07751996 0.124701604 0.08285655 -0.011013884
0.13674317 -0.047552343 -0.03778735 0.038111933 0.051653635 -0.18719955 0.10428253 -0.025713023
0.08588773 0.14420527 0.24640852 0.06584483 0.1962094 0.10597654 0.15686844 0.081890754
0.115521595 0.073115446 0.10673124 0.07456224 0.09570596 0.09289193 0.108905956 3.155191e-05
0.14037906 -0.019358125 0.16416204 0.03544746 0.010513576 0.12402857 -0.110553876 0.25271338
00000000: c173 683d 27c0 173d 2abd c33d 845a 3bbd
00000010: 6a6e ee3d 83c9 b8bd 830e 6ebc 5493 483e
00000020: 00ce 493d fc08 663c d422 903b 8c11 b83d
00000030: bb04 d2bc 243c db3d b683 f7bd d79c b03d
00000040: 5b72 9a3d b4cd d43d adc1 1a3e c442 073e
00000050: 663a 2cbd 7de5 5d3d 5e06 a73d d191 a33d
00000060: 4d28 0b3c 2a47 b63d 24f4 17bd 2bfa e43d
00000070: 6ccd 153e 91ed d23b 7ac8 0b3e b5ba 8ebd
00000080: 1d3b f23d faca 8a3d 3c65 13be ed6a e53c
00000090: ce88 633c 6f5c 133e d553 d5bc 46eb 83bc
000000a0: 694c d43c 822f 663d 01f0 e6bc 5bbf 5b3d
000000b0: fbf4 b6bd 1b58 073e a6cc aebd 70fb 393d
000000c0: 3a80 ff3d b215 873d 3b9b dcbd 2d4d 9a3d
000000d0: 772d 933c b928 5b3d d542 cabd f46c 603d
000000e0: 3fdd d73d 5078 e73c d00c 943d fb05 203e
000000f0: a079 e63d de5a 8b39 f0cb 1c3e f84c 46bd
00000100: 7ea9 3f3d 98ea ee3d 4624 5d3e 994d de3d
00000110: beae 353e 4d68 933d baae 4b3e acd7 f43a
00000120: 2493 f73d 9f6f 823b 7dd8 ee3d f8dd f8bd
00000130: 5e35 2ebe db06 b13d abc0 11bd 43b7 a3bd
00000140: 51a4 29be 737e abbd 5d44 cd3c fb8c 273e
00000150: acbf f53d c8ab 8e3d 8d32 98bd 16ca 703d
00000160: 4a30 0fbe 815b 203e 1e99 e23d 97a9 47bd
00000170: c9c2 9e3d 8e63 ff3d b2b0 a93d 9473 34bc
00000180: 6706 0c3e 3fc6 42bd e9c6 1abd 421b 1c3d
00000190: c392 533d 3db1 3fbe 1492 d53d 1ea4 d2bc
000001a0: e8e5 af3d 8caa 133e 8452 7c3e a7d9 863d
000001b0: 1eeb 483e 3a0a d93d 1fa2 203e 57b6 a73d
000001c0: 9696 ec3d 8dbd 953d e995 da3d 16b4 983d
000001d0: 7d01 c43d 203e be3d 160a df3d 9b56 0438
000001e0: 87bf 0f3e ee94 9ebc 181a 283e 5b31 113d
000001f0: 2241 2c3c b102 fe3d 126a e2bd a663 813e

a2c_network.actor_mlp.2.weight f4 [128, 128]
0.055657472 0.10185454 -0.060318913 -0.022906264 -0.06447184 -0.076328136 0.001037356 -0.02915316
0.0055394457 -0.10461834 0.008183812 -0.018044837 0.03159913 -0.003653358 -0.051622007 0.031518497
-0.014458131 -0.12544326 -0.012127374 -0.10940519 0.09701003 0.07902821 0.0042240154 -0.05332056
0.054036587 -0.104104206 -0.010442541 0.027501307 0.069320016 0.016039366 0.033327684 0.0033293401
-0.12212321 0.06719427 -0.006574873 0.048605673 -0.006572863 0.04512751 -0.029119572 0.046740633
-0.024043972 -0.0013038589 -0.1798989 0.12646045 0.061075147 -0.1246738 0.00035067002 0.109745584
-0.031457692 0.047536265 0.020142075 0.00966944 0.20046781 0.020419972 0.020136863 0.011912708
0.07376281 -0.101147026 -0.015089396 -0.022351505 -0.056300014 0.08510745 -0.18697608 -0.07501968
-0.11353566 0.03554738 0.019620113 -0.07895586 0.075156964 -0.044967122 -0.093661405 0.029287765
-0.05373574 0.000637333 -0.071133964 0.029912448 0.021046426 0.07511217 -0.07887216 -0.07682595
-0.04306268 0.037171472 -0.024370648 -0.077893965 0.070340514 -0.024846239 0.0036983928 -0.1262091
0.0010721285 0.026153868 0.05632389 -0.15062809 -0.09267831 0.025005985 0.05098901 0.011560227
-0.06786562 -0.0950038 0.026734762 -0.012186735 0.07522659 -0.061848447 -0.04030627 0.07123637
-0.005614019 0.007320746 0.062863745 0.023444528 -0.0051399535 -0.1388753 0.150219 -0.07820047
0.113423534 0.063498855 -0.12011327 -0.11133343 -0.027878983 0.101521686 0.051164098 0.03807659
0.015067542 0.049252674 0.041099895 -0.06319782 0.04183488 -0.020041974 0.05730861 0.013048831
0.046423055 -0.08682778 0.0016017961 -0.06672318 -0.0047057075 0.055936 -0.05878366 -0.13069472
-0.070189625 1.8422637e-05 -0.037282642 -0.061507087 -0.002720217 -0.05964925 -0.007496354 0.0044392715
0.023827663 -0.050288986 -0.070133634 0.06629951 0.0074095386 -0.0523471 0.0665297 -0.00065356726
0.010978369 0.057405535 0.018283634 0.07127339 0.01850308 0.106763005 -0.094336666 0.021945022
0.01013875 -0.018011378 0.1304813 -0.016939513 0.08465646 -0.14063983 -0.025495816 0.04129462
-0.051605217 -0.009345831 0.11781953 -0.08264243 0.040965132 -0.047114246 0.04712528 -0.032126375
-0.097291596 -0.09488402 0.04129175 -0.057820823 -0.08923149 -0.013777445 0.01558529 -0.094318286
-0.04291291 0.060340997 -0.05476405 -0.11639953 -0.042043295 0.09719977 -0.024907665 -0.055405956
-0.10356848 -0.0494981 0.046217527 0.003667239 -0.07386925 -0.12649538 -0.13927996 0.005666163
0.018571889 0.09089824 -0.03379262 0.00871491 0.046511248 -0.038238302 0.06736075 0.061069686
0.06157744 0.049665693 -0.002938391 -0.039252277 0.11610255 -0.09334382 0.043385416 -0.06601633
-0.00964952 -0.10724359 -0.056731973 0.03209716 -0.15732057 0.041641068 0.008530142 0.10991406
-0.07154843 -0.07090925 0.013500021 0.013812948 0.033113617 0.07200999 0.004344201 0.03652211
-0.115780525 -0.12838885 -0.15973051 -0.07576448 -0.009259537 0.051627576 0.027958252 -0.09069139
0.0047266167 0.10704196 -0.016838541 -0.007227076 -0.09437292 -0.0041223573 0.045497626 0.004658831
-0.07061719 0.07798821 -0.026613034 -0.04132415 0.0070819505 0.04524906 0.03459743 -0.0723967
00000000: 17f9 633d 1d99 d03d f710 77bd eba5 bbbc
00000010: d009 84bd ed51 9cbd e4f7 873a 9cd2 eebc
00000020: 3d84 b53b 2442 d6bd 6515 063c c4d2 93bc
00000030: 176e 013d 2d6d 6fbb 9971 53bd 8a19 013d
00000040: cce1 6cbc 3374 00be e5b1 46bc d40f e0bd
00000050: 32ad c63d 8bd9 a13d 9c69 8a3b a966 5abd
00000060: 7855 5d3d 9634 d5bd 3117 2bbc 6c4a e13c
00000070: a7f7 8d3d fd64 833c 9c82 083d 0f31 5a3b
00000080: bc1b fabd 269d 893d 0872 d7bb be16 473d
00000090: 2c61 d7bb a0d7 383d 2b8c eebc 1b73 3f3d
000000a0: ddf7 c4bc 3fe6 aaba 6b37 38be d97e 013e
000000b0: ef29 7a3d fa54 ffbd 22da b739 4bc2 e03d
000000c0: c8d9 00bd 63b5 423d fe00 a53c 926c 1e3c
000000d0: 6f47 4d3e c947 a73c 10f6 a43c 852d 433c
000000e0: f510 973d 2c26 cfbd 8439 77bc 811a b7bc
000000f0: d89a 66bd d14c ae3d a876 3fbe eba3 99bd
00000100: 6285 e8bd 219a 113d 5cba a03c 9cb3 a1bd
00000110: e5eb 993d 722f 38bd 8dd1 bfbd e5ec ef3c
00000120: 021a 5cbd b212 273a afae 91bd f30a f53c
00000130: 8e69 ac3c 69d4 993d ba87 a1bd ec56 9dbd
00000140: 7e62 30bd 1d41 183d f4a4 c7bc df86 9fbd
00000150: b00e 903d 578a cbbc bc60 723b f53c 01be
00000160: aa86 8c3a a340 d63c e1b3 663d 403e 1abe
00000170: 20ce bdbd 5ad9 cc3c dad9 503d 1b67 3d3c
00000180: 21fd 8abd 5a91 c2bd dc02 db3c dfaa 47bc
00000190: 6610 9a3d cc54 7dbd 3018 25bd 60e4 913d
000001a0: cef5 b7bb dee2 ef3b b5be 803d bd0e c03c
000001b0: 0e6d a8bb 5435 0ebe 02d3 193e 9127 a0bd
000001c0: 994a e83d b00b 823d f2fd f5bd c802 e4bd
000001d0: 7762 e4bc 9aea cf3d 7291 513d 33f6 1b3d
000001e0: dadd 763c 2cbd 493d 5d58 283d dc6d 81bd
000001f0: 0d5b 2b3d 112f a4bc 6fbc 6a3d c4ca 553c
00000200: 1a26 3e3d c3d2 b1bd 5cf3 d13a 2aa6 88bd
00000210: 5632 9abb 261d 653d 23c7 70bd d6d4 05be
00000220: 94bf 8fbd 508a 9a37 afb5 18bd dbee 7bbd
00000230: ab45 32bb c652 74bd faa3 f5bb 4f77 913b
00000240: 3b32 c33c d3fb 4dbd 39a2 8fbd 0ac8 873d
00000250: b7cb f23b ea69 56bd b940 883d 2854 2bba
00000260: 9ede 333c 1122 6b3d 8fc7 953c c8f7 913d
00000270: c593 973c 90a6 da3d 9533 c1bd 0cc6 b33c
00000280: 001d 263c 998c 93bc e49c 053e bcc4 8abc
00000290: 5e60 ad3d e303 10be 9adc d0bc 8c24 293d
000002a0: fe5f 53bd 421f 19bc 5e4b f13d 6f40 a9bd
000002b0: 0ecb 273d defa 40bd 7006 413d f296 03bd
000002c0: d140 c7bd 8e52 c2bd 8a21 293d 87d5 6cbd
000002d0: 00bf b6bd cbba 61bc 7259 7f3c f229 c1bd
000002e0: 73c5 2fbd 1f28 773d 4550 60bd e062 eebd
000002f0: 9735 2cbd ac10 c73d 290b ccbc 5bf1 62bd
00000300: b61b d4bd 85be 4abd 974e 3d3d 1056 703b
00000310: c348 97bd 0188 01be 689f 0ebe 38ab b93b
00000320: 1324 983c db28 ba3d 216a 0abd fbc8 0e3c
00000330: 9482 3e3d c49f 1cbd 6ff4 893d 3524 7a3d
00000340: a038 7c3d 416e 4b3d 0592 40bb ffc6 20bd
00000350: 2cc7 ed3d 0b2b bfbd e8b4 313d 9233 87bd
00000360: 0519 1ebc 87a2 dbbd c95f 68bd 5078 033d
00000370: a518 21be d38f 2a3d 02c2 0b3c 9f1a e13d
00000380: fc87 92bd de38 91bd 312f 5d3c b44f 623c
00000390: 25a2 073d f979 933d cd59 8e3b 3598 153d
000003a0: 571e edbd 5e78 03be 6590 23be 682a 9bbd
000003b0: 50b5 17bc 7077 533d b408 e53c 68bc b9bd
000003c0: bce1 9a3b d138 db3d fbf0 89bc 1cd1 ecbb
000003d0: 9746 c1bd d714 87bb b85b 3a3d 1ba9 983b
000003e0: bf9f 90bd 48b8 9f3d 9403 dabc 8343 29bd
000003f0: b50f e83b 1457 393d 09b6 0d3d b944 94bd

a2c_network.actor_mlp.2.bias f4 [128]
-0.0058092917 -0.11102398 0.0008068878 0.0015372274 0.05695745 0.02106646 0.05503578 0.08580847
-0.10646965 -0.014420563 -0.09637804 -0.034440376 -0.020785306 -0.08339917 -0.056652218 -0.062890396
0.010869696 -0.06515306 0.008224919 -0.027698508 -0.15256667 0.07453103 0.0025566034 -0.07930662
-0.16659182 -0.043780245 -0.009025505 -0.004319305 -0.20080964 0.03048313 -0.015609692 -0.07917105
0.030638326 0.06504825 0.050233927 -0.15442787 0.018043777 0.033356592 -0.1422004 -0.0213888
0.05747303 -0.019921035 0.021649545 -0.0045625255 0.00818815 -0.030908544 -0.1388793 -0.04670127
-0.01378442 -0.010421727 -0.015132459 -0.113325275 -0.018750653 0.06299029 -0.12775686 0.007855196
0.01806835 -0.031736065 0.100415275 -0.07648417 -0.11182136 0.08525581 0.06663686 0.039764434
-0.028293328 -0.036954522 0.08199932 -0.022270795 0.009873 0.02205928 0.07312841 -0.009384987
0.06628147 -0.11427358 0.038272873 -0.18539318 -0.116572335 -0.10929153 -0.0011983308 0.057383373
0.05159548 0.04823909 -0.015946679 -0.07939349 -0.106031984 0.06778994 -0.10762851 -0.09808207
0.048401084 0.0049074725 -0.03708866 -0.03881221 0.025332052 0.10812464 0.075845234 -0.086452335
0.015694173 0.006339656 0.04298156 0.06322678 0.013052453 -0.039486367 -0.03757529 -0.0071850787
0.057792053 0.038709074 -0.024095746 0.018803038 0.08166032 -0.045869842 0.018736957 -0.08520024
0.033321373 -0.008381108 0.011177879 -0.030439947 0.063260205 -0.09400742 -0.051548775 -0.02103636
-0.060282413 -0.005923095 -0.018386677 0.048147265 -0.01584282 0.017933862 0.019008113 -0.02334521
00000000: df5b bebb 8a60 e3bd 5385 533a cb7c c93a
00000010: 374c 693d 9293 ac3c 336d 613d 5abc af3d
00000020: c30c dabd 3a44 6cbc da61 c5bd 5a11 0dbd
00000030: f245 aabc 2fcd aabd 280c 68bd aecc 80bd
00000040: cf16 323c f86e 85bd d0c1 063c fbe7 e2bc
00000050: 703a 1cbe baa3 983d b08c 273b 826b a2bd
00000060: 0c97 2abe ea52 33bd b6df 13bc f588 8dbb
00000070: 0ba1 4dbe c2b7 f93c cbbf 7fbc 6e24 a2bd
00000080: 3afd fa3c 0438 853d 17c2 4d3d 5722 1ebe
00000090: 8bd0 933c eca0 083d fb9c 11be 9137 afbc
000000a0: d768 6b3d 7031 a3bc 635a b13c 3d81 95bb
000000b0: 9727 063c ea33 fdbc 6036 0ebe d549 3fbd
000000c0: 0cd8 61bc e4bf 2abc 22ee 77bc 1517 e8bd
000000d0: f89a 99bc 0e01 813d b2d2 02be 14b3 003c
000000e0: 1404 943c adfd 01bd 86a6 cd3d bca3 9cbd
000000f0: 9902 e5bd 999a ae3d e878 883d 08e0 223d
00000100: 69c7 e7bc a05d 17bd 42ef a73d 3e71 b6bc
00000110: 5dc2 213c aab5 b43c 59c4 953d 7dc3 19bc
00000120: 94be 873d 4408 eabd 04c4 1c3d b6d7 3dbe
00000130: 7abd eebd 3dd4 dfbd 4f11 9dba d40a 6b3d
00000140: c855 533d 5a96 453d 9ca2 82bc 0e99 a2bd
00000150: 4c27 d9bd 74d5 8a3d 566c dcbd 41df c8bd
00000160: 3740 463d ddce a03b 47ea 17bd 8df9 1ebd
00000170: 2a85 cf3c 7470 dd3d bf54 9b3d ec0d b1bd
00000180: 1191 803c e4bc cf3b 6f0d 303d 0b7d 813d
00000190: f5d9 553c 75bc 21bd 8ce8 19bd cf70 ebbb
000001a0: 5cb7 6c3d 688d 1e3d 7164 c5bc d408 9a3c
000001b0: 873d a73d 04e2 3bbd 3f7e 993c 777d aebd
000001c0: fe7b 083d ea50 09bc 6c23 373c 325d f9bc
000001d0: 918e 813d f686 c0bd cf24 53bd 7254 acbc
000001e0: b1ea 76bd 8616 c2bb a89f 96bc 1136 453d
000001f0: cdc8 81bc 09ea 923c e7b6 9b3c 743e bfbc

a2c_network.actor_mlp.4.weight f4 [128, 128]
-0.0034884813 -0.055567805 -0.03822463 0.016014537 0.04042134 -0.11807247 -0.057150766 0.064960435
-0.046278898 0.028215494 0.054089203 0.0089388145 0.010183891 -0.078693576 0.01916193 0.026823444
0.00858518 -0.031027962 -0.05301259 -0.07269026 0.03491397 0.08083314 0.04067062 0.018079145
-0.032944866 0.05909907 0.008186321 -0.051943164 -0.020002106 -0.052197184 -0.09684184 0.08711518
0.073064424 -0.07229175 -0.013049909 0.04349777 -0.041619785 -0.013669687 -0.103579 -0.06289559
-0.034481555 -0.035139076 -0.07395424 -0.040510185 0.04718081 -0.057295505 -0.123963505 0.057359416
0.07249499 -0.03731549 0.007279293 -0.01685814 0.035513863 -0.008918159 -0.09989657 0.072296575
-0.07153925 0.018094756 -0.02006673 -0.074925944 -0.014494597 0.031053973 0.0017678255 0.14430587
0.11870253 0.07332451 -0.047959164 -0.05410909 0.09347176 0.01859169 0.072690144 0.114780866
-0.04026753 0.03905403 0.03973692 -0.019199178 -0.06439968 -0.0037716972 0.09788662 -0.0001217595
0.021590136 0.010397419 0.04672604 0.095046505 0.012920915 0.017214032 -0.052576665 -0.024517989
-0.055786416 0.050158557 0.04933286 -0.05317264 0.051882025 -0.014377296 -0.062004566 -9.8566765e-05
-0.011281943 -0.020780953 0.097793765 0.0053684628 -0.078168824 0.003920442 -0.008138259 -0.073746145
0.05390721 0.011462838 -0.0073695644 -0.014796559 -0.017883115 -0.07809165 -0.00045978843 -0.040296555
0.029085645 0.00060921913 -0.11608718 -0.08369894 -0.051518783 0.050553627 0.08845326 0.035311427
0.053270593 0.049616627 -0.059716836 0.07282891 -0.07506868 -0.0191487 0.0062481565 -0.0878021
0.00298042 0.039835244 -0.024426391 0.04687421 0.07096597 -0.051468376 -0.06174117 0.025819637
-0.037634995 -0.05826581 0.021553582 0.06492047 -0.059650503 -0.043637797 -0.030493943 0.12423053
0.070498064 -0.027370349 -0.11965773 0.0633746 -0.096738644 -0.04391922 0.15752089 0.007203602
-0.018096814 -0.09173741 -0.06051563 -0.018386055 0.0363081 -0.017718425 -0.049014363 -0.010146511
-0.02541959 0.017464561 -0.050231885 -0.04090293 -0.07107847 0.068513736 -0.063123174 -0.12381952
-0.026116543 -0.087830015 -0.09633282 -0.054610357 0.066251956 -0.07497806 -0.07575989 0.038522534
0.06625355 0.013286799 0.11495314 0.03974165 -0.04913096 -0.0052250912 -0.04813264 0.09395041
-0.014671325 0.05129941 -0.03797142 -0.069456756 -0.070710495 0.074199244 -0.06551743 -0.0033519396
0.020994373 -0.081716426 -0.03236455 0.05983345 0.10392882 -0.005509698 -0.02601128 0.0031517239
-0.026967963 -0.017534802 0.016256077 0.03974383 0.1453414 -0.040022843 0.06381655 0.07181596
-0.002062161 -0.03266843 0.00866991 0.03862387 0.060945086 0.053702824 -0.028576562 0.027613599
0.09217796 0.057476614 0.011105158 -0.0800184 0.042598024 -0.023647204 0.053221624 0.045791663
-0.052502926 -0.003872001 -0.023575444 -0.0710343 0.035331573 0.10020201 0.079504184 -0.049383953
-0.017895732 -0.012510739 0.052514218 -0.07024743 0.017396448 -0.089852825 0.014086923 0.041328788
-0.08694829 0.0945427 -0.031435672 0.06684216 -0.08627815 0.07842771 0.119630255 0.048212107
0.0038433478 0.014107756 -0.08645935 0.021799024 0.04085316 0.043215178 -0.045728512 0.02921566
00000000: 019f 64bb 119b 63bd 6e91 1cbd eb30 833c
00000010: d990 253d fbcf f1bd ec16 6abd fa09 853d
00000020: f18e 3dbd 2e24 e73c a48c 5d3d 1b74 123c
00000030: 56da 263c 192a a1bd 7bf9 9c3c d7bc db3c
00000040: dba8 0c3c 5a2e febc bb23 59bd a2de 94bd
00000050: f301 0f3d d88b a53d 3c96 263d b71a 943c
00000060: 32f1 06bd de11 723d eb1f 063c 5bc2 54bd
00000070: 75db a3bc b7cc 55bd 0455 c6bd 7269 b23d
00000080: cda2 953d b20d 94bd 49cf 55bc b82a 323d
00000090: 8279 2abd d3f6 5fbc 3a21 d4bd 67cf 80bd
000000a0: 883c 0dbd feed 0fbd 5275 97bd 02ee 25bd
000000b0: aa40 413d b1ae 6abd 94e0 fdbd b5f1 6a3d
000000c0: 4178 943d 21d8 18bd 2387 ee3b 151a 8abc
000000d0: fc76 113d 781d 12bc 9396 ccbd 3a10 943d
000000e0: 2c83 92bd 743b 943c fc62 a4bc c672 99bd
000000f0: bf7a 6dbc e764 fe3c 61b6 e73a ebc4 133e
00000100: 501a f33d 292b 963d d470 44bd 7ea1 5dbd
00000110: 1f6e bf3d 9a4d 983c 92de 943d 3b12 eb3d
00000120: 91ef 24bd 1ef7 1f3d 2ec3 223d 9847 9dbc
00000130: fbe3 83bd 942e 77bb c878 c83d 2259 ffb8
00000140: ccdd b03c f059 2a3c ce63 3f3d bea7 c23d
00000150: 3fb2 533c 7104 8d3c a15a 57bd f3d9 c8bc
00000160: 4c80 64bd 0f73 4d3d 4111 4a3d 8ecb 59bd
00000170: 3f82 543d c08e 6bbc 80f8 7dbd a1b5 ceb8
00000180: e6d7 38bc d13c aabc 1948 c83d eee9 af3b
00000190: fa16 a0bd 0d77 803b 5556 05bc 3808 97bd
000001a0: cecd 5c3d a1ce 3b3c 637c f1bb 446d 72bc
000001b0: 9c7f 92bc 84ee 9fbd c20f f1b9 000e 25bd
000001c0: 0545 ee3c 01b4 1f3a 1ebf edbd 5a6a abbd
000001d0: 5c05 53bd 5211 4f3d fc26 b53d b7a2 103d
000001e0: 4432 5a3d ce3a 4b3d a499 74bd 5327 953d
000001f0: 9cbd 99bd bcdd 9cbc 56bd cc3b 96d1 b3bd
00000200: 2653 433b 482a 233d db19 c8bc 2cff 3f3d
00000210: 9b56 913d 81d0 52bd 4fe4 7cbd b483 d33c
00000220: 2727 1abd 21a8 6ebd 2391 b03c 06f5 843d
00000230: 1654 74bd 8cbd 32bd 6fce f9bc 936c fe3d
00000240: 4a61 903d c837 e0bc 1d0f f5bd 8bca 813d
00000250: e91e c6bd a4e4 33bd 284d 213e 320c ec3b
00000260: c53f 94bc d3e0 bbbd 3ddf 77bd 5a9e 96bc
00000270: cdb7 143d 3b26 91bc 49c3 48bd 8d3d 26bc
00000280: be3c d0bc d711 8f3c f3bf 4dbd d589 27bd
00000290: 9791 91bd ee50 8c3d b946 81bd 1795 fdbd
000002a0: 5cf2 d5bc 39e0 b3bd 244a c5bd 1caf 5fbd
000002b0: 1baf 873d 198e 99bd 0028 9bbd cec9 1d3d
000002c0: f1af 873d e0b0 593c 8d6c eb3d 24c8 223d
000002d0: 8c3d 49bd 3e37 abbb bb26 45bd 1369 c03d
000002e0: ff5f 70bc 551f 523d eb87 1bbd 583f 8ebd
000002f0: aad0 90bd c6f5 973d 012e 86bd 37ac 5bbb
00000300: 64fc ab3c f15a a7bd b190 04bd eb13 753d
00000310: a2d8 d43d b28a b4bb 9c15 d5bc 278d 4e3b
00000320: ebeb dcbc 25a5 8fbc 772b 853c 6dca 223d
00000330: 60d4 143e feee 23bd 40b2 823d 3f14 933d
00000340: 5225 07bb 55cf 05bd 3d0c 0e3c 1034 1e3d
00000350: 8ea1 793d 7ef7 5b3d 6519 eabc ea35 e23c
00000360: ccc7 bc3d 996c 6b3d 69f2 353c b0e0 a3bd
00000370: 447b 2e3d c8b7 c1bc ebfe 593d 0a90 3b3d
00000380: 4f0d 57bd 66c1 7dbb 4a21 c1bc 6e7a 91bd
00000390: d7b7 103d b636 cd3d 17d3 a23d d446 4abd
000003a0: 129a 92bc d8f9 4cbc 2619 573d e2dd 8fbd
000003b0: ff82 8e3c c204 b8bd d6cc 663c 6048 293d
000003c0: f211 b2bd 9a9f c13d b1c2 00bd 8be4 883d
000003d0: 99b2 b0bd b59e a03d b500 f53d 0f7a 453d
000003e0: ade0 7b3b 3824 673c 9a11 b1bd de93 b23c
000003f0: a555 273d 6602 313d d24d 3bbd ae55 ef3c

a2c_network.actor_mlp.4.bias f4 [128]
0.043231074 0.031385705 -0.042446665 -0.06808722 -0.10173408 0.006421117 0.05155591 0.0256324
0.035011604 0.05982334 0.020411598 -0.02198567 -0.034246374 0.052950587 -0.04351808 -0.0051904228
-0.04039349 -0.048029866 -0.046659097 -0.048443392 0.0419717 -0.0020419434 0.02311769 0.010577048
0.0014363603 -0.04650695 -0.12914167 -0.02783031 0.08440341 0.04597198 -0.032203306 0.01729481
0.10066064 -0.040929206 -0.0131761925 -0.111301765 0.021308132 0.067498885 -0.037300434 -0.039996482
0.011136871 -0.0057284907 0.022973128 -0.03129649 0.0040084836 0.029697912 -0.06865657 0.11526635
0.055190492 0.08298678 -0.042822987 -0.0855506 0.059019465 -0.059052 0.06920241 -0.09249706
0.04183895 -0.081340164 -0.097736895 0.035060704 0.057026315 -0.037599437 -0.007813549 0.09530311
-0.029737964 0.023939144 0.068031594 -0.012261857 0.053316142 -0.12388893 0.025508076 0.003749848
-0.03079699 -0.008859832 -0.013342704 -0.004615311 0.06946003 -0.0043235817 -0.03496916 -0.047989298
-0.10981972 0.06963348 -0.040343184 -0.0849714 -0.015424828 0.055004578 -0.01633789 0.09082818
-0.078511134 -0.0013725219 0.058169786 -0.055759244 0.033558436 -0.077199586 -0.023509547 0.02646477
-0.03272102 -0.011900473 -0.03508282 -0.0031801565 -0.022728704 0.012467619 -0.05244262 0.0043414524
0.053240288 -0.03355787 -0.011526876 -0.06417223 0.10978049 0.03989577 0.0672071 -0.032740943
-0.05794674 0.0071174423 0.063489385 -0.10556087 -0.064451456 0.04234707 0.030841386 -0.0651954
-0.016987368 0.04932858 -0.026426777 0.0005906961 0.077539876 -0.05767898 0.037609443 0.027443409
00000000: 1113 313d 4c8e 003d 8edc 2dbd 5071 8bbd
00000010: f559 d0bd 3c68 d23b 4a2c 533d 0afb d13c
00000020: 5468 0f3d 5209 753d 3936 a73c 4b1b b4bc
00000030: ed45 0cbd b7e2 583d 0440 32bd 6c14 aabb
00000040: a573 25bd f7ba 44bd 9c1d 3fbd 946c 46bd
00000050: 84ea 2b3d 20d2 05bb 4f61 bd3c 5b4b 2d3c
00000060: 4144 bc3a 127e 3ebd b73d 04be 64fc e3bc
00000070: b2db ac3d 1d4d 3c3d 9de7 03bd d8ad 8d3c
00000080: 2a27 ce3d 62a5 27bd f5e0 57bc 2ef2 e3bd
00000090: 648e ae3c db3c 8a3d 57c8 18bd 5ad3 23bd
000000a0: 6c77 363c 10b6 bbbb 2432 bc3c c030 00bd
000000b0: 9959 833b 0949 f33c d19b 8cbd c410 ec3d
000000c0: 6d0f 623d f9f4 a93d 2867 2fbd 2735 afbd
000000d0: 65be 713d 83e0 71bd feb9 8d3d 196f bdbd
000000e0: 525f 2b3d ac95 a6bd 482a c8bd d09b 0f3d
000000f0: 6d94 693d de01 1abd 6604 00bc 472e c33d
00000100: 089d f3bc 061c c43c 2654 8b3d f5e5 48bc
00000110: 0762 5a3d 7bb9 fdbd 50f6 d03c 03c0 753b
00000120: f849 fcbc d428 11bc 5b9b 5abc 093c 97bb
00000130: 0f41 8e3d d5ac 8dbb d23b 0fbd 6d90 44bd
00000140: 29e9 e0bd ff9b 8e3d e53e 25bd 7c05 aebd
00000150: 6bb8 7cbc 7b4c 613d 0ad7 85bc 2004 ba3d
00000160: 72ca a0bd 31e6 b3ba 7143 6e3d ce63 64bd
00000170: 9274 093d d11a 9ebd 1897 c0bc a5cc d83c
00000180: 7a06 06bd 34fa 42bc 01b3 0fbd 2c6a 50bb
00000190: 8c31 babc fc44 4c3c 13ce 56bd be42 8e3b
000001a0: 7d12 5a3d fa73 09bd 39db 3cbc bb6c 83bd
000001b0: 98d4 e03d bf69 233d e0a3 893d 5e1b 06bd
000001c0: 9059 6dbd 6f39 e93b b906 823d 4c30 d8bd
000001d0: 20ff 83bd 1f74 2d3d 13a7 fc3c 2a85 85bd
000001e0: 1829 8bbc c40c 4a3d f87c d8bc f2d8 1a3a
000001f0: 3acd 9e3d cb40 6cbd 5c0c 1a3d 00d1 e03c

a2c_network.value.weight f4 [1, 128]
-0.00489459 -0.022359919 -0.016871776 0.01012957 0.028875839 0.03548326 0.016181804 0.013882171
-0.03681141 -0.0059607713 0.006457758 0.02139254 0.023174146 0.0015858758 -0.0021710128 0.034726802
-0.0092016915 0.009303043 0.04367687 -0.010953045 0.0017191146 -0.090639435 -0.032798976 -0.013616716
0.022205543 -0.06796836 0.0069611315 -0.020224525 0.02156538 -0.015819645 -0.02178527 -0.059199885
-0.004127476 0.01810537 -0.013421986 -0.029907485 0.027806502 0.018923774 0.012576271 0.047353882
-0.0118661625 0.0046658874 -0.0014717088 -0.038019706 -0.018985271 -0.0043155593 0.059506834 -0.0034714136
0.024318507 -0.019358752 0.011873447 -0.014634408 -0.0060383766 0.030615136 -0.021561544 0.012069513
-0.010785993 -0.012032561 0.024683796 0.048305243 -0.014074078 -0.011913894 0.032085456 -0.020746123
0.049355324 -0.009264145 -0.010343171 -0.073282056 0.009760427 0.021994015 -0.021820335 0.031626564
0.017516533 0.0402873 0.009009473 -0.04242256 -0.024705496 0.012387618 0.008093791 0.010285015
-0.04479923 -0.03477401 -0.020300005 -0.0036858718 -0.053663187 -0.023920607 0.015309271 0.0068704477
0.036879357 0.018709369 -0.007766159 -0.028593538 -0.051793646 -0.010579308 0.030906865 0.022060443
0.010758513 -0.048602916 0.029968195 -0.061964348 -0.041737307 -0.031502776 0.05054664 0.005108571
-0.0027215804 -0.06754953 -0.07217046 0.006725124 -0.0064347195 -0.0026524062 0.010792343 0.038383037
-0.03859463 0.008061289 -0.00952106 0.02709771 0.03121708 -0.019532999 -0.041292664 0.043852583
-0.020558845 0.0102341715 0.04702028 0.06815758 0.012356017 -0.01447132 -0.011194111 0.008036907
00000000: cc62 a0bb 262c b7bc ae36 8abc 7ff6 253c
00000010: 068d ec3c e556 113d b48f 843c 0c72 633c
00000020: 90c7 16bd 9352 c3bb 9a9b d33b 683f af3c
00000030: b5d7 bd3c 29dd cf3a 8d47 0ebb b13d 0e3d
00000040: b1c2 16bc ca6b 183c 85e6 323d 6774 33bc
00000050: ea53 e13a 2ba1 b9bd 3858 06bd a518 5fbc
00000060: 66e8 b53c ff32 8bbd 341a e43b e7ad a5bc
00000070: e1a9 b03c 3398 81bc 0677 b2bc 947b 72bd
00000080: c73f 87bb b751 943c e4e7 5bbc 8b00 f5bc
00000090: 76ca e33c 0806 9b3c b40c 4e3c 25f6 413d
000000a0: 4b6a 42bc 4de4 983b 5ae6 c0ba 8dba 1bbd
000000b0: 0087 9bbc 8969 8dbb 70bd 733d a880 63bb
000000c0: 9b37 c73c 3f96 9ebc d988 423c 28c5 6fbc
000000d0: 93dd c5bb 98cc fa3c d6a1 b0bc 35bf 453c
000000e0: bcb7 30bc 3824 45bc ac35 ca3c b8db 453d
000000f0: f696 66bc 7e32 43bc 0a6c 033d c6f3 a9bc
00000100: cf28 4a3d a4c8 17bc 6776 29bc e714 96bd
00000110: 33ea 1f3c cb2c b43c 8fc0 b2bc db8a 013d
00000120: d57e 8f3c 4c04 253d 789c 133c 47c3 2dbd
00000130: 2e63 cabc 70f5 4a3c d29b 043c 7b82 283c
00000140: 667f 37bd 316f 0ebd 324c a6bc ab8e 71bb
00000150: eecd 5bbd 26f5 c3bc bdd3 7a3c 7e21 e13b
00000160: cf0e 173d 6444 993c 437b febb ff3c eabc
00000170: 9325 54bd d554 2dbc 6530 fd3c 1ab8 b43c
00000180: 7944 303c da13 47bd dc7f f53c 54ce 7dbd
00000190: bdf4 2abd 0e09 01bd fe09 4f3d cd65 a73b
000001a0: 8b5c 32bb 6857 8abd 1bce 93bd 6e5e dc3b
000001b0: 57da d2bb fed3 2dbb 5ed2 303c 8837 1d3d
000001c0: 6715 1ebd 7f13 043c 38fe 1bbc 04fc dd3c
000001d0: f6ba ff3c ab03 a0bc 7f22 29bd c49e 333d
000001e0: 066b a8bc 3aad 273c 5698 403d 3496 8b3d
000001f0: e470 4a3c 1e19 6dbc 8167 37bc 3bad 033c

a2c_network.mu.weight f4 [18, 128]
-0.005692558 0.012192447 -0.021371933 0.16166957 0.10380822 0.034289192 -0.04260458 0.013493571
-0.07741981 -0.15592408 0.01756419 -0.1247928 -0.046497393 -0.0812694 0.15915641 0.043130647
0.014930876 0.086415745 -0.017882422 -0.110461414 -0.11448328 -0.028870085 -0.018736156 0.0552682
-0.07467889 0.04961986 -0.009481131 -0.06958894 0.10834352 0.019066792 0.08716404 -0.08005121
-0.044450622 -0.095635846 -0.10859909 0.021863302 0.068236455 -0.12653354 0.026517892 -0.1101536
0.07088422 0.10607041 -0.04997466 -0.13664623 0.0101879435 -0.18576111 0.050681617 -0.012541547
0.04025289 -0.0019008564 0.15989164 -0.017468665 -0.08919505 -0.048428975 -0.10582502 -0.021363262
0.10807066 0.08164085 0.10899597 0.04440986 -0.05386574 0.0064930264 0.08725808 -0.005985374
0.09731082 -0.037335847 0.2240166 0.019004261 -0.088176474 -0.0013883509 0.06888269 0.005540353
-0.015818987 0.11847913 0.1607 0.05600181 -0.09482118 -0.07570285 0.038039163 0.044357754
-0.009855714 0.03221583 0.031615246 -0.10996162 0.035823777 0.061595153 0.027809 0.05599177
-0.0019322938 -0.07759862 -0.074677564 0.03918891 -0.0009372991 0.045921993 0.048771746 0.009863931
0.09600192 -0.03420093 -0.06795444 0.09474849 0.004074878 0.07492993 0.03719842 0.0919303
0.11274643 0.035982594 -0.040343855 -0.057751097 -0.08501278 0.04530524 -0.068934664 -0.12976319
0.16032474 -0.09754358 -0.0130191045 0.038619336 -0.029419065 -0.09065905 -0.18717374 0.13778493
0.056681424 -0.12696798 0.085962124 -0.058049224 -0.116582096 0.09630881 -0.012706343 -0.08481942
-0.0018394141 -0.09638828 -0.0128147425 0.2018719 0.18088499 -0.034916405 0.0735688 -0.07964688
0.10080739 -0.12843017 0.014867542 -0.120400496 -0.004801771 -0.09421701 -0.0333309 -0.029507693
0.010678054 0.033920836 0.0061118095 -0.054706246 0.100375205 -0.021629913 0.046291742 0.12250904
-0.119635 -0.014232075 0.0152582945 -0.07514435 -0.11311274 -0.04857847 -0.019638125 -0.07726613
-0.0753524 -0.05282313 -0.041139476 0.016914474 0.18148696 -0.09240092 0.122617215 -0.10409915
0.067708485 0.023075435 0.07312845 0.11140221 0.0018253229 0.044911932 0.02510296 -0.057946082
0.01205518 -0.06463767 -0.052215602 0.0047457684 0.039643418 -0.0044295643 -0.17849144 -0.020914229
0.014323696 0.08941733 0.15674771 0.028363815 -0.024101283 0.007393872 0.004912651 -0.047634274
0.10116218 0.06589514 0.0040129824 0.075914524 0.011873032 0.108635314 0.015982777 -0.024265945
0.027866328 -0.036290098 -0.040528666 0.048126508 -0.0922505 0.061445467 0.10096004 -0.028346745
0.021827694 0.18198949 -0.03650503 0.034609042 0.028055027 -0.11094871 -0.0649103 -0.07783125
0.10795657 -0.021634964 0.022631068 -0.047642425 -0.025878374 -0.10938159 0.11263486 -0.08207679
0.15284067 -0.013956503 0.0476206 -0.027874261 0.03938364 -0.033004183 0.13155143 0.063886754
0.16492672 0.0066795507 0.0648101 0.10777532 -0.13810433 0.021246651 0.05162353 -0.039979715
0.022868376 0.015037845 -0.013360671 0.080097176 -0.048839092 -0.007276087 -0.09403738 0.08281937
0.13315506 -0.08285445 0.048797578 -0.111886516 0.03882059 0.03589772 0.074836046 -0.01008938
00000000: a388 babb d4c2 473c 3114 afbc b58c 253e
00000010: 6799 d43d d372 0c3d 2482 2ebd 2414 5d3c
00000020: 478e 9ebd 90aa 1fbe c7e2 8f3c 5e93 ffbd
00000030: 0d74 3ebd 9270 a6bd e6f9 223e c3a9 303d
00000040: a2a0 743c bdfa b03d 287e 92bc 9839 e2bd
00000050: 3676 eabd f580 ecbc 917c 99bc e860 623d
00000060: 3ff1 98bd 323e 4b3d bf56 1bbc a584 8ebd
00000070: 35e3 dd3d f631 9c3c 0f83 b23d e4f1 a3bd
00000080: db11 36bd badc c3bd 3369 debd ab1a b33c
00000090: 8ebf 8b3d 0292 01be 0d3c d93c 3698 e1bd
000000a0: bf2b 913d 713b d93d 3bb2 4cbd fdec 0bbe
000000b0: 55eb 263c 2938 3ebe 8797 4f3d 107b 4dbc
000000c0: 37e0 243d 2826 f9ba a2ba 233e 721a 8fbc
000000d0: e5ab b6bd 765d 46bd caba d8bd 0202 afbc
000000e0: 2654 dd3d 5133 a73d 4739 df3d 1de7 353d
000000f0: 52a2 5cbd 74c3 d43b 5db4 b23d f520 c4bb
00000100: e54a c73d 79ed 18bd 9c64 653e d3ae 9b3c
00000110: de95 b4bd 53f9 b5ba 5e12 8d3d d98b b53b
00000120: d296 81bc 30a5 f23d 8a8e 243e 2762 653d
00000130: 9b31 c2bd 190a 9bbd f4ce 1b3d 7ab0 353d
00000140: dc79 21bc bff4 033d fd7e 013d 8f33 e1bd
00000150: f4bb 123d 334b 7c3d b3cf e33c a057 653d
00000160: 0545 fdba 06ec 9ebd 8df0 98bd 8d84 203d
00000170: 14b5 75ba b318 3c3d e2c4 473d 539c 213c
00000180: a89c c43d 4616 0cbd b32b 8bbd 7f0b c23d
00000190: 8e86 853b dd74 993d 5f5d 183d f445 bc3d
000001a0: 9ae7 e63d 7c62 133d 993f 25bd 6a8c 6cbd
000001b0: 2e1b aebd fd91 393d 9e2d 8dbd a4e0 04be
000001c0: 2b2c 243e eec4 c7bd 154e 55bc 4f2f 1e3d
000001d0: 4000 f1bc 74ab b9bd 79aa 3fbe 7e17 0d3e
000001e0: c82a 683d e503 02be e90c b03d 06c5 6dbd
000001f0: 98c2 eebd 8e3d c53d 442e 50bc ceb5 adbd
00000200: 7f18 f1ba 3867 c5bd edf4 51bc 82b7 4e3e
00000210: ea39 393e 8104 0fbd 3dab 963d e71d a3bd
00000220: 1b74 ce3d 3383 03be fe96 733c 8994 f6bd
00000230: 2d58 9dbb d9f4 c0bd fb85 08bd 1eba f1bc
00000240: 01f3 2e3c 93f0 0a3d 9345 c83b a813 60bd
00000250: 8491 cd3d 3731 b1bc 699c 3d3d 05e6 fa3d
00000260: 3203 f5bd a62d 69bc edfd 793c 48e5 99bd
00000270: a7a7 e7bd 38fa 46bd 22e0 a0bc b43d 9ebd
00000280: 5c52 9abd 115d 58bd de81 28bd 3990 8a3c
00000290: b8d7 393e b23c bdbd bc1e fb3d ef31 d5bd
000002a0: bfaa 8a3d b208 bd3c 5ec4 953d d826 e43d
000002b0: ac3f ef3a 93f5 373d b9a4 cd3c df58 6dbd
000002c0: 1783 453c c160 84bd 07e0 55bd 6482 9b3b
000002d0: 2361 223d e125 91bb 76c6 36be 5154 abbc
000002e0: efad 6a3c 6f20 b73d 7982 203e 3b5b e83c
000002f0: 0e70 c5bc 4b48 f23b 4efa a03b 281c 43bd
00000300: 1e2e cf3d 08f4 863d 567f 833b 1379 9b3d
00000310: 1b87 423c 317c de3d 50ee 823c 60c9 c6bc
00000320: ed47 e43c eda4 14bd 6301 26bd 4d20 453d
00000330: d5ed bcbd 3eae 7b3d 23c4 ce3d 6f37 e8bc
00000340: fecf b23c 745b 3a3e 4c86 15bd 36c2 0d3d
00000350: a8d3 e53c 1439 e3bd b1ef 84bd fe65 9fbd
00000360: 5618 dd3d cf3b b1bc ca64 b93c b424 43bd
00000370: e2fe d3bc 7403 e0bd 1bad e63d e017 a8bd
00000380: 4482 1c3e d1a9 64bc d10d 433d 9058 e4bc
00000390: bd50 213d 652f 07bd 6bb5 063e 0fd7 823d
000003a0: 8de2 283e 22e0 da3b 28bb 843d 4fb9 dc3d
000003b0: 396b 0dbe 750d ae3c 3273 533d c5c1 23bd
000003c0: 7656 bb3c 4b61 763c b7e6 5abc fd09 a43d
000003d0: 800b 48bd 3e6c eebb ab96 c0bd 349d a93d
000003e0: cd59 083e 98af a9bd f8df 473d c224 e5bd
000003f0: 5702 1f3d 7d09 133d a443 993d ed4d 25bc

a2c_network.mu.bias f4 [18]
-0.03894757 -0.044905446 0.0048838896 0.041608803 0.0015123601 0.023750814 0.071748346 0.061416104
0.04098792 0.03526051 0.07838757 0.07362011 -0.07768571 -0.044966362 -0.076778024 -0.08525664
-0.09396606 -0.07349634
00000000: 7d87 1fbd c6ee 37bd 0909 a03b fe6d 2a3d
00000010: 623a c63a 1191 c23c ccf0 923d 748f 7b3d
00000020: f3e2 273d 536d 103d aa89 a03d 24c6 963d
00000030: af19 9fbd a62e 38bd cc3d 9dbd 099b aebd
00000040: 4771 c0bd 4085 96bd

exp_avg f4 [18]
0.001019203 0.0015832839 -0.00061403046 -0.0011017141 0.0012187011 0.0011245118 -0.0020367969 -0.00063612126
-0.00053911493 0.002139766 0.0010347693 0.001103899 0.00010747329 0.0012905535 -0.0020992223 0.0006977829
-0.0032573927 -0.00012964122
00000000: c796 853a 3186 cf3a e3f6 20ba 6467 90ba
00000010: d3bc 9f3a 5b64 933a c87b 05bb 60c1 26ba
00000020: 6453 0dba 513b 0c3b 19a1 873a b4b0 903a
00000030: 4963 e138 ca27 a93a 1b93 09bb 6beb 363a
00000040: fb79 55bb 4df0 07b9

exp_avg_sq f4 [18]
2.7321119e-05 3.1465515e-05 2.377189e-05 2.886616e-05 2.787657e-05 3.0856947e-05 2.1391039e-05 2.2890461e-05
2.0448022e-05 3.1307394e-05 1.9654924e-05 2.0051342e-05 2.123702e-05 2.0453488e-05 2.2592443e-05 2.1638467e-05
2.4148325e-05 2.1583606e-05
00000000: a82f e537 d7f9 0338 bf69 c737 9b25 f237
00000010: 7ad8 e937 656c 0138 e870 b337 e404 c037
00000020: cb87 ab37 0f50 0338 a1e0 a437 ee33 a837
00000030: 2726 b237 8893 ab37 e784 bd37 4184 b537
00000040: 2292 ca37 710e b537

exp_avg f4 [128, 66]
-2.6696057e-06 -4.8861756e-07 0.00022987241 1.9118046e-05 3.245335e-05 -6.785687e-05 -2.2662798e-06 -1.2636677e-06
0.0001406663 0.00017209006 3.6949612e-05 -4.179554e-05 9.9878096e-05 0.00014722937 0.00011122155 -0.00011607486
-5.5966084e-05 3.8631453e-05 -2.8550137e-05 -1.8032662e-05 -5.8537764e-05 4.872678e-05 -6.1748186e-05 -3.580907e-05
0.00011499471 0.000120275276 0.00010727253 0.00010367508 0.000108846354 0.00011031868 -0.00022304848 0.0006045236
-9.6053955e-05 -0.0003188713 0.0010649632 0.00037538103 0.0028598167 0.0027860191 0.001182097 0.0019337174
0.00084930536 0.0016843122 0.00039019706 0.001346454 0.000272638 -0.000113071364 -1.2721559e-05 0.000276217
0.0001806285 0.00034198872 0.00018917499 -0.00024935103 -3.381205e-05 9.269654e-05 0.00024239185 0.00024959713
3.992183e-05 0.00025659575 -8.560766e-05 0.00011765603 0.00025539074 0.0003494374 0.00023472199 0.00020092448
0.0002253758 0.00023489662 -6.850033e-08 -1.4765934e-05 0.0005211757 0.00017732348 2.063767e-05 -7.152638e-06
-1.7448909e-06 -2.9076118e-06 0.0006584279 -0.00016875549 0.00013316373 7.264116e-05 0.00018755581 0.00032831385
0.00017597267 -0.00024717086 -0.0002094598 -8.1155114e-05 -2.1667967e-05 -2.2629863e-05 -0.00011481518 0.00012696853
-0.00014159639 -9.069695e-05 0.00023530239 0.0001594576 0.00025888786 0.00021594376 0.00024472424 0.0002399123
0.0014348193 0.00054658693 -0.00046702297 -0.0014311761 -0.00015351294 -5.0255812e-06 0.0024535668 0.004107361
0.0033243503 0.0029413984 0.0013690728 0.004192624 0.00039630107 0.0018083354 0.0016029791 0.00054686697
0.00062518095 0.0011431682 0.0004681594 0.0006429438 0.00032863684 -0.0005836804 -0.00039969257 -0.00016638283
0.00017318556 0.00032274652 0.00023058675 0.00027511752 2.2825272e-06 0.00022974872 0.0004937084 0.0004395654
0.0006371696 0.0004612005 0.00053125026 0.0005586438 2.964808e-06 1.3635684e-05 -0.0001128984 -4.5937857e-05
1.2245407e-05 2.6022239e-05 8.6271046e-07 4.6828097e-07 -0.00023432929 4.915161e-05 6.091343e-05 -9.679217e-05
6.675681e-06 -5.8285455e-05 -7.875772e-05 6.420191e-05 6.7069275e-05 2.2516326e-05 4.804139e-05 4.2374308e-05
5.3637443e-05 3.745233e-05 5.2643358e-05 5.8483172e-05 -5.8915342e-05 -7.8028585e-05 -9.45628e-05 -6.663349e-05
-7.665187e-05 -7.301264e-05 -0.0003236523 -0.0010263735 -0.0009330623 0.00051400234 0.0012213863 7.919138e-05
0.0007377795 0.00034590985 -0.00041660917 0.00042590735 2.3066787e-06 0.00046353432 -0.000116753195 0.0006613209
-0.00093724893 -0.00058835023 -0.0008708791 -0.00090342853 -9.675621e-06 -0.00016730436 -0.00025630166 0.00016020148
0.00023380233 5.7402147e-05 0.00016170932 0.00014852137 5.1410014e-05 7.899931e-05 0.000103120445 0.00012411224
-0.00012681528 -7.551492e-05 -0.00025087327 -0.00016649697 -0.0002030701 -0.00021125267 -1.3512977e-06 -3.2707635e-06
0.00029625365 0.00010257219 3.4322482e-05 -0.00012682403 -2.263982e-06 -2.9782377e-06 0.00029739144 -0.00012726747
0.00021067451 -0.00018388787 0.0002274641 0.0002852537 0.00013049353 -0.00014638025 -0.00011335378 -9.682095e-07
-1.400582e-05 8.646353e-07 -7.736143e-05 0.00012431551 -0.000111135 -4.760616e-05 0.00015740981 8.1352395e-05
0.0001406548 0.00013175183 0.00013573025 0.00013772279 0.0006586396 0.00052907877 -0.000113057795 -0.00045776964
0.0009801643 0.0009832019 0.003333251 0.0036628 0.002418899 0.0030109268 0.0010416867 0.0030616885
0.000685924 0.0012656146 -0.00022416437 0.00017889356 -5.0844214e-05 0.0006436323 0.00049530127 0.0005805676
0.00024683465 -0.00031913334 -0.00012201034 6.775965e-05 0.0002617642 0.00031342797 0.00017347293 0.0002850071
00000000: 7a27 33b6 8b29 03b5 e809 7139 b15f a037
00000010: 851e 0838 614e 8eb8 6416 18b6 4b9b a9b5
00000020: d37f 1339 1373 3439 58fa 1a38 9f4d 2fb8
00000030: a575 d138 9561 1a39 9d3f e938 376d f3b8
00000040: 20bd 6ab8 3508 2238 f47e efb7 d944 97b7
00000050: 7286 75b8 fb5f 4c38 ce7e 81b8 b231 16b8
00000060: 5129 f138 4c3c fc38 80f7 e038 226c d938
00000070: 7144 e438 e45a e738 1fe2 69b9 e478 1e3a
00000080: 9370 c9b8 2e2e a7b9 3c96 8b3a cace c439
00000090: c36b 3b3b a595 363b 98f0 9a3a ca74 fd3a
000000a0: eba3 5e3a 24c4 dc3a 5d93 cc39 807b b03a
000000b0: daf0 8e39 ba20 edb8 ae6e 55b7 38d1 9039
000000c0: 1867 3d39 f34c b339 465d 4639 54bb 82b9
000000d0: 6ad1 0db8 1366 c238 912a 7e39 5cdc 8239
000000e0: bd71 2738 b387 8639 4388 b3b8 1abe f638
000000f0: f7e5 8539 b234 b739 b41f 7639 41af 5239
00000100: db52 6c39 954e 7639 741a 93b3 34bb 77b7
00000110: 829f 083a e9ef 3939 0f1f ad37 b100 f0b6
00000120: ff31 eab5 6420 43b6 599a 2c3a f5f3 30b9
00000130: dea1 0b39 ed56 9838 a1aa 4439 8a21 ac39
00000140: 4e85 3839 b696 81b9 70a2 5bb9 d231 aab8
00000150: 9bc3 b5b7 43d5 bdb7 eec8 f0b8 db22 0539
00000160: 7e79 14b9 8e34 beb8 81bb 7639 1334 2739
00000170: 57bb 8739 f66e 6239 554e 8039 f890 7b39
00000180: 8c10 bc3a d448 0f3a c3da f4b9 4d96 bbba
00000190: 51f8 20b9 6aa1 a8b6 05cc 203b 0b97 863b
000001a0: 58dd 593b 7ac4 403b 7672 b33a 4762 893b
000001b0: a1c6 cf39 ab05 ed3a 0e1b d23a 9f5b 0f3a
000001c0: 2fe3 233a 5cd6 953a 4a73 f539 3a8b 283a
000001d0: e44c ac39 2102 19ba d48d d1b9 0d77 2eb9
000001e0: 2599 3539 4e36 a939 a9c9 7139 a63d 9039
000001f0: 852d 1936 b4e8 7039 366c 013a 7875 e639
00000200: ba07 273a 49cd f139 9a43 0b3a f371 123a
00000210: 03f7 4636 d1c4 6437 dec3 ecb8 66ad 40b8
00000220: 9f71 4d37 554a da37 0395 6735 0c68 fb34
00000230: 4ab6 75b9 2428 4e38 4c7d 7f38 e7fc cab8
00000240: aaff df36 8877 74b8 bb2a a5b8 23a4 8638
00000250: 8ba7 8c38 71e1 bc37 0d80 4938 11bb 3138
00000260: c4f8 6038 2216 1d38 60cd 5c38 d44b 7538
00000270: de1b 77b8 47a3 a3b8 0450 c6b8 95bd 8bb8
00000280: 29c0 a0b8 5d1e 99b8 e0af a9b9 6187 86ba
00000290: c098 74ba 1dbe 063a ec16 a03a 8c13 a638
000002a0: 8b67 413a 3c5b b539 566c dab9 514c df39
000002b0: 70cc 1a36 8606 f339 65d9 f4b8 7f5c 2d3a
000002c0: b6b1 75ba 843b 1aba b54b 64ba 10d4 6cba
000002d0: 7a54 22b7 6c6e 2fb9 3a60 86b9 c2fb 2739
000002e0: d628 7539 16c3 7038 8490 2939 67bc 1b39
000002f0: 15a1 5738 6eac a538 5e42 d838 2024 0239
00000300: b8f9 04b9 c45d 9eb8 a487 83b9 b195 2eb9
00000310: 37ef 54b9 b583 5db9 3c5e b5b5 4a7f 5bb6
00000320: 7e52 9b39 061c d738 7cf5 0f38 11fc 04b9
00000330: eaee 17b6 bcdd 47b6 34eb 9b39 1a73 05b9
00000340: 82e8 5c39 06d2 40b9 6e83 6e39 1b8e 9539
00000350: 17d5 0839 a67d 19b9 59b8 edb8 6df3 81b5
00000360: 8afa 6ab7 4919 6835 1a3d a2b8 b15a 0239
00000370: 2611 e9b8 baac 47b8 600e 2539 bc9b aa38
00000380: bc7c 1339 dd26 0a39 d052 0e39 ae69 1039
00000390: 8ea8 2c3a e0b1 0a3a 7119 edb8 cd00 f0b9
000003a0: db78 803a c8de 803a ac72 5a3b 960b 703b
000003b0: 6486 1e3b f852 453b 3589 883a 9ca6 483b
000003c0: 95cf 333a fbe2 a53a aa0d 6bb9 6095 3b39
000003d0: 8f41 55b8 6fb9 283a 1bd7 013a 3b31 183a
000003e0: 9669 8139 5a51 a7b9 cddf ffb8 2f1a 8e38
000003f0: 653d 8939 9753 a439 49e6 3539 016d 9539
